Assets/Training/results/Run 69/DroneBehavior/DroneBehavior-1499757.onnx (onnx, 704152 bytes, 23 tensors)

115 f4 [25]
00000000: 928c fb3e edcb a63e 940e 563a 407b e73e
00000010: 3083 813e 63f7 fa3e 27c8 4f3e 940e 563a
00000020: 9d81 f53e cdc8 803e ada0 ff3e 014e 4a3e
00000030: 940e 563a 35a5 fd3e 2038 763e 749f ff3e
00000040: c114 af3d 940e 563a d8cc ff3e fb73 703e
00000050: 3c35 f63e dde5 9e3d 940e 563a ed11 f73e
00000060: e338 553e
0.49130684 0.32577458 0.00081656245 0.4521122 0.252954 0.49016866 0.20291196 0.00081656245
0.4795045 0.251532 0.49927273 0.19756319 0.00081656245 0.49540105 0.24044847 0.4992634
0.0854888 0.00081656245 0.4996097 0.23481743 0.4808749 0.07758687 0.00081656245 0.48255864
0.20822482

118 f4 [25]
00000000: 9a8c fb3e 1fcc a63e 940e 563a 407b e73e
00000010: 3183 813e 9e94 f93e ff96 463e 1079 b53b
00000020: 1d23 f43e 4f4b 833e 77c2 fd3e 84d3 643e
00000030: 940e 563a b0ad f83e 9576 703e b156 fd3e
00000040: 375f a13d 1079 b53b b3d9 fc3e 68e2 793e
00000050: 8171 fd3e 15d5 e63d 940e 563a 634b fe3e
00000060: 79cd 503e
0.49130708 0.32577607 0.00081656245 0.4521122 0.25295404 0.48746198 0.19393538 0.0055381134
0.4768304 0.25643393 0.49562427 0.22346312 0.00081656245 0.48570013 0.23482735 0.49480203
0.07879489 0.0055381134 0.4938484 0.24402773 0.4950066 0.11271111 0.00081656245 0.4966689
0.20390882

121 f4 [25]
00000000: dc81 f53d 591e e43d 940e 563a 066a 263e
00000010: 0141 973d c32b f23d f032 4c3c 940e 563a
00000020: 6579 f33d 631c 523d 7539 db3e 444b 233c
00000030: 9f87 6b3c 9a51 db3e d370 043e f7ce de3e
00000040: d4f6 503c a95f d43b 1bde de3e 533b 173e
00000050: f7ce de3e d4f6 503c a95f d43b 1bde de3e
00000060: 533b 173e
0.11987659 0.11138601 0.00081656245 0.16251382 0.073854454 0.11824753 0.012463316 0.00081656245
0.118883885 0.051296603 0.42817274 0.009966675 0.014375596 0.42835695 0.12933664 0.43517277
0.012754161 0.00648113 0.43528828 0.14768724 0.43517277 0.012754161 0.00648113 0.43528828
0.14768724

124 f4 [55]
00000000: 0f44 bf3c 0789 e23d 940e 563a 8367 e73d
00000010: 2199 373d d2b9 823c 54f2 c53d 940e 563a
00000020: 6e93 c83d 6b15 053d 7702 9c3d 54f2 c53d
00000030: 940e 563a 1f1e fb3d 40d6 553d 0217 8d3c
00000040: 4c70 613c 940e 563a eb90 b43c 4af2 223c
00000050: 2d0c ab3e 4c70 613c 1562 0a3c 1d32 ab3e
00000060: 6541 bd3d 0345 863c 940e 563a 510e 563b
00000070: 87e8 883c d613 203c 9850 a13e 940e 563a
00000080: 6ab7 e73b a958 a13e 1fe0 de3d a628 273d
00000090: 940e 563a b944 863c 1418 343d db86 9c3c
000000a0: 2ee4 c03e 940e 563a d2b4 993b c7e6 c03e
000000b0: 3f44 0b3e 6f4f 2a3e 940e 563a 76ae d23b
000000c0: 2c6e 2a3e 4b7d 4b3d 6f4f 2a3e 940e 563a
000000d0: 76ae d23b 2c6e 2a3e 4b7d 4b3d
0.023347883 0.11061292 0.00081656245 0.1129904 0.04482377 0.015957747 0.09665361 0.00081656245
0.09793745 0.03249113 0.07617658 0.09665361 0.00081656245 0.122616045 0.052206278 0.017222885
0.013759684 0.00081656245 0.022041759 0.0099454615 0.33407727 0.013759684 0.008446236 0.3343667
0.09240989 0.01639033 0.00081656245 0.0032662342 0.01671244 0.009770354 0.315068 0.00081656245
0.007071425 0.31512955 0.108825915 0.04081025 0.00081656245 0.016390191 0.043968275 0.019107273
0.37674087 0.00081656245 0.004690745 0.3767607 0.13600253 0.16631864 0.00081656245 0.006429489
0.1664359 0.049680036 0.16631864 0.00081656245 0.006429489 0.1664359 0.049680036

127 f4 [25]
00000000: 3412 893c fd7e f83d 940e 563a 00c7 fa3d
00000010: fa03 533d 1c6f 043c ea34 4c3d 940e 563a
00000020: 1fdc 4e3d 55d3 db3c dfd8 ac3d ea34 4c3d
00000030: 9f87 6b3c 2f7b ca3d dfba 843d b708 0c3d
00000040: ea34 4c3d a95f d43b 30cc 783d db69 123d
00000050: b708 0c3d ea34 4c3d a95f d43b 30cc 783d
00000060: db69 123d
0.016732313 0.12133596 0.00081656245 0.122449875 0.051517464 0.008083131 0.04985515 0.00081656245
0.050502893 0.02683417 0.084398024 0.04985515 0.014375596 0.09886777 0.06480955 0.034188
0.04985515 0.00648113 0.060741603 0.035745483 0.034188 0.04985515 0.00648113 0.060741603
0.035745483

130 f4 [6]
00000000: 9f58 773e bab0 5b3d 9f58 773e bab0 5b3d
00000010: 9f58 773e b9b0 5b3d
0.241549 0.053635336 0.241549 0.053635336 0.241549 0.053635333

133 f4 [3]
00000000: 050b 6541 aadc 323f 3313 7c41
14.31519 0.69867957 15.754687

action_model._continuous_distribution.log_sigma f4 [1, 3]
00000000: 4310 393c c8f6 babc 19f5 913c
0.011295381 -0.022822753 0.017817067

action_model._continuous_distribution.mu.bias f4 [3]
00000000: 2019 153c 2637 9b3b 86b9 0b3d
0.009100229 0.004736799 0.034112476

action_model._continuous_distribution.mu.weight f4 [3, 256]
00000000: 7ca2 4c3b 2d56 95bc 01f7 9739 644b 82bc
00000010: 2067 043c 63a5 8cbc eaa9 3dbb 3bfd 1cbc
00000020: 275e 43bc b381 2fbb 1d5d afbc 159b 84bb
00000030: 7043 0f3b 6180 27bb 330f 5b3b e8bd 91bb
00000040: 9dc6 5ebc 67f1 64bb a774 30bc 28bd 2fbb
00000050: ebb3 28bb 2ff4 47bc 4030 61bb 49b4 24bc
00000060: 3ef0 583c 75f1 433b 62c8 99bb fb90 76bc
00000070: af4f 973b 129e 0dbb 6227 e03a 3443 b9bc
00000080: a0b0 96bc 9914 36bc 95e1 803c 8a15 0d3c
00000090: c229 13bc 734f 23ba 582d a43b 5955 8fbc
000000a0: 1031 d03a 9632 623c 5b79 81bc 355c c6bc
000000b0: 9951 bd3b 2fab 7dbc 139c dcbb a2e5 cbba
000000c0: 31a5 19bc 2516 a9ba 92f7 813b 81d2 04bc
000000d0: 9de8 0abc f2a3 a7bb bde2 c4ba f95b 17bc
000000e0: c482 1abc 8188 cdbb de5d 7cbb 3364 803a
000000f0: 07d5 b1ba 3de3 093c b30d f73b 207d dabc
00000100: 3163 523c 232e 2bbc 563e c83a 7682 f1bb
00000110: f7e0 113c 74cb f63b d05b afbb 83b1 d3bc
00000120: 8c16 3abb 5664 e0bb 7d3d 45bb 5fa4 3abb
00000130: bb09 f439 adb1 17bb 3f43 c8bb 2786 98bc
00000140: a993 02bc 4679 8cbc b6eb ed3b ac81 dcbc
00000150: 2f1e a1bb ba72 a63b c840 b13c 2d4f c4bc
00000160: d669 01bb 2d9e 3bbc 5843 e7bb 85b9 53bc
00000170: 0435 94bc 642e ae3b c611 c63a 1f80 d2bc
00000180: 580c 94bc 738d 7fbb 8997 c43a 19be 1ebc
00000190: 7d4f a9bc f1b7 d6bb e000 0dbc 9f0e 143c
000001a0: 24b0 79ba c14c b93b 7e76 3a3c c16a 32bb
000001b0: a4f1 28bc 31c8 a0bb fca3 bebc f413 7ebb
000001c0: 0269 8c3a 4aea 61bb 8a4a 533a 0209 f3bb
000001d0: 9b9e d13b 4bd2 92bb 5024 9abb 9e0e 233b
000001e0: 0530 1bbb 66cc 013a af43 a1bb 7199 053a
000001f0: de8c a9bc 7aed 953c b140 40bb 7303 3a3c
00000200: 1ec5 bc3b e23f d9bc d123 923b 87d0 04bb
00000210: 25e2 babb e4f6 a13b c28e 8bbc 5377 393c
00000220: 4384 9db9 3b3e 663c 744d 6c3c 0b87 2dbc
00000230: a98f 353c f0dc 68bc fa25 89bc 5a5d 28bc
00000240: d43d 383a e954 0abc ee9c 5abc e1b8 19bc
00000250: 8e51 7ebc 6211 b5ba baae 20bc cce7 35bb
00000260: 03f2 893b ee77 94bb 8ce2 0c3c cc1e 89bc
00000270: 538e 8abc 4c2f 57bc ce6b 55bc ef34 2cbc
00000280: d483 11bc ba5c 9cbc 115f c33b bf13 97bb
00000290: 98b7 213c 0093 e3bb d315 eeba 4e13 14bc
000002a0: 0f77 3ebc f520 ff3a 20f2 aabb 2069 17bb
000002b0: ff33 18bc 3524 51bc b215 753b 486f 00bc
000002c0: 74db 8bbb 0f79 c13c 3a01 aabb 1c50 8e3c
000002d0: f5eb 97bc eebd ac3a 3979 45bb b147 05b9
000002e0: 2ff8 b7bc 040a a13a 49a9 91bb 369b 93b9
000002f0: b674 933b bb6d 88bc 013f 0a3b 8c21 4bbb
00000300: fc70 8c3b ad97 80bb 30b9 59ba 5223 36bc
00000310: 84df 313b acc8 cfbb c787 8fb9 d61b e93a
00000320: 051f 2e3b 023a 84ba 1059 b4bb 02ab fb3b
00000330: 196b 07bb 064a 88bc 5e5c 55bb 52a7 08ba
00000340: 4f00 023c eb37 bbbc a9c7 dcbb d7d1 bf3b
00000350: 0c4e 51bc 9b98 cebb db6a 0cbc e40d 0b3c
00000360: 4c7a 70bc 45a7 213c 4661 f23c 5e21 dcbb
00000370: c707 e2bc 7fa8 8f39 5477 1fb9 c8dd cfbc
00000380: 40d3 243a 2734 8cbc 2c62 35bc 2fc5 0cbb
00000390: 1dc8 f3bb b70d 943b a98a 27bc c672 b3bc
000003a0: c1a7 09bb ff59 c3bb 4d8e b7ba 6e46 0abc
000003b0: 36b7 ad3c 02d4 2dbb 0786 a7bc d432 7b3b
000003c0: cd68 103c e906 16bc 990d 133b 538a 72bc
000003d0: 7eef 91bc 2d6c 7b3b 0371 963a 312b 813a
000003e0: a6db a3bc 5d61 a6bc 20b8 30bc 92a9 b03a
000003f0: 1403 36bb 9ad9 173b c1eb 43bc 09af fcbb
0.0031224778 -0.018229568 0.00028984997 -0.01590509 0.008081228 -0.017168706 -0.0028940388 -0.009581859
-0.011924303 -0.0026780188 -0.021406705 -0.0040468075 0.0021860264 -0.0025558698 0.0033425807 -0.0044476874
-0.013597158 -0.0034933926 -0.01077 -0.0026815627 -0.0025742005 -0.012204214 -0.0034361035 -0.010052749
0.013240872 0.0029898558 -0.004693077 -0.0150492145 0.0046176533 -0.002160911 0.0017101581 -0.022615053
-0.018394768 -0.011113309 0.015732566 0.008611092 -0.008982124 -0.00062297954 0.005010288 -0.017496752
0.0015883762 0.013806006 -0.015804937 -0.02421389 0.0057775495 -0.015482708 -0.0067324727 -0.0015556107
-0.009377764 -0.0012900276 0.0039662803 -0.008106829 -0.008478311 -0.0051159794 -0.0015021187 -0.009238237
-0.009430591 -0.006272376 -0.0038508098 0.0009795487 -0.0013567515 0.008415994 0.007539475 -0.026670992
0.012841032 -0.010448012 0.0015277367 -0.0073702885 0.008903733 0.0075315777 -0.005351521 -0.02584148
-0.0028394787 -0.0068478985 -0.0030096464 -0.002847932 0.00046546556 -0.0023146675 -0.006111532 -0.018618656
-0.007969775 -0.017147671 0.007260765 -0.026917301 -0.0049169282 0.0050795944 0.021637335 -0.023963535
-0.001974692 -0.011451286 -0.0070575885 -0.012922649 -0.018091686 0.005315589 0.0015111498 -0.025695859
-0.018072292 -0.0038994222 0.0014998774 -0.0096888775 -0.020667786 -0.0065526892 -0.008606166 0.009036689
-0.0009524843 0.0056549017 0.01138079 -0.0027224275 -0.010311518 -0.004906677 -0.023271553 -0.0038769217
0.0010712447 -0.0034471923 0.00080601184 -0.0074168453 0.006397081 -0.0044806353 -0.004704036 0.0024880539
-0.0023679745 0.0004951417 -0.0049213986 0.0005096412 -0.020697054 0.018301714 -0.0029335434 0.011353361
0.005760803 -0.02651972 0.004459836 -0.0020265894 -0.005703228 0.0049427617 -0.017035846 0.011319953
-0.00030043916 0.014052923 0.014422763 -0.010591279 0.0110816145 -0.014212832 -0.016741741 -0.010276163
0.0007028256 -0.008443096 -0.013343079 -0.0093824575 -0.015522374 -0.0013814385 -0.009807283 -0.002775657
0.0042097582 -0.0045308983 0.008598935 -0.016738318 -0.016913569 -0.013133835 -0.013026191 -0.010510667
-0.008881528 -0.019087184 0.0059622605 -0.004610508 0.009870432 -0.006945014 -0.0018164463 -0.009037806
-0.0116250655 0.0019464778 -0.005216852 -0.002310343 -0.009289741 -0.01276498 0.0037396965 -0.0078390315
-0.004268104 0.023617296 -0.0051881345 0.017372184 -0.01854513 0.0013179162 -0.0030132069 -0.00012710576
-0.02245721 0.001228631 -0.004445229 -0.00028153666 0.004499997 -0.016653886 0.0021094682 -0.0030995337
0.0042859297 -0.003924331 -0.0008305488 -0.011116819 0.0027141282 -0.0063410606 -0.00027376247 0.0017784785
0.0026568782 -0.0010088088 -0.005503781 0.007680298 -0.00206632 -0.01663686 -0.0032556276 -0.0005212921
0.007934644 -0.022853812 -0.0067376685 0.0058538723 -0.0127749555 -0.006304813 -0.008570398 0.0084871985
-0.014677595 0.00986654 0.0295874 -0.006717845 -0.0275916 0.00027400625 -0.00015207875 -0.025374308
0.0006287582 -0.017114712 -0.011070769 -0.0021479835 -0.007439627 0.0045182365 -0.01022593 -0.021905314
-0.002100453 -0.005961656 -0.0014004201 -0.008439643 0.021205526 -0.0026524072 -0.020449651 0.0038329856
0.008814049 -0.009156921 0.0022438525 -0.014803487 -0.017814394 0.0038364038 0.0011477772 0.0009854791
-0.020002197 -0.020310098 -0.010786086 0.001347827 -0.002777283 0.0023170472 -0.011958064 -0.0077112955

network_body._body_endoder.seq_layers.0.bias f4 [256]
00000000: 52d7 62bc ca87 13bd 98a4 103c 9d04 06bc
00000010: da48 85bc b410 333c 19e6 34bc 2f44 f3bb
00000020: 2627 dbbc a4b4 f0bc 3904 24bd bf82 f3bc
00000030: 6589 bdbc 576a 28bd 1592 f63a 78bf f6bc
00000040: 4eaa 85bd ede5 193c a010 a33c 9a5f 8abc
00000050: 2041 993b b3b7 8dbc 3c88 cebc 3a45 e0bc
00000060: 8799 73bc 2dfa 0abd 1244 853c 2de1 0a3c
00000070: 5848 d5bc 59b6 b4bc fdc8 b03b 3823 96bb
00000080: 99e3 1ebd 7000 3b3c 8dda 15bd 9a4a b8bc
00000090: fbe6 b1bb 0d19 2abd ee12 8cbc 8745 b4bb
000000a0: 9f65 91bc 72fe 2dbb 8a26 e0ba bd27 dabc
000000b0: 0cbb 46bd f2d5 4fbd 2ce1 8fbc d390 1dbd
000000c0: 7f19 82bc 87b9 d3bc ec00 15bd 98f3 f5bc
000000d0: 9993 1dbd 94d9 05bd 34bf 3cbc bcf6 03bb
000000e0: 556f 6fbd dc63 bfbc e12e 58bd eec9 2cbb
000000f0: 7090 d2bb 8ca3 28bd 3007 933b 4556 9cbb
00000100: cc05 82bc 3b0a dbbc c53b fcbb 745e b1bc
00000110: 434b 51bc 8129 28bd bc8d 42bd a31e 09bc
00000120: 345a b0bb ec79 083b 02b1 173d ab0c 913c
00000130: dc69 6ebb 388f c4bc 3a38 b53b 0e7e d7bc
00000140: 2d48 3bbc 90e3 963b 4213 c23b f6e0 43bd
00000150: 41cd f0bc a9c5 cd3c 0c23 13bd 14ab 19bd
00000160: a1cd c83c f89f 053d 6b9a 8fbd 2357 e1bc
00000170: b8c2 883c e839 d1bc 0cdd 69bd 12c4 053d
00000180: 1eb3 d5bc 721c 8bbc c42a af3b 8c0d aabc
00000190: 9a64 1dbb bf2c 943c c2c3 0ebc 39ab cbbc
000001a0: fb00 a1bd bb6b 223d 8669 a1ba 8575 51bb
000001b0: 637d c9bc d2a4 21bd 1570 8c3b ac57 05bd
000001c0: 5a3c d1bc 1b06 f7bc 99ca 9dbc 2156 1fbd
000001d0: 5812 9bbc ea28 603b ae89 34bd eb11 08bd
000001e0: aa71 1ebd e7f8 e6bc 3719 6abc d330 133c
000001f0: 80c5 a0bb 5035 e4bb dfc6 82bc 39e5 183b
00000200: 8455 f6bb 0502 7fbc 55e6 29bd 6b4d 62ba
00000210: a715 9dbc ad6a 6cbc 9a1f 0dbb 8161 4e3c
00000220: e076 2dbd 1a7f f7bc 1c35 0bbd c80c d9bc
00000230: c8ae c3bc 1fe9 4f3b 2947 55bd 513a bc3c
00000240: 9ff9 74bd 5457 6bbd f1f0 c1bb f340 c0bc
00000250: 8c89 f9bb abcf 10bd 864c 57bd 6d39 09bb
00000260: 61d9 d7bc bfbb 883c 26b4 31ba 7178 d3bb
00000270: 9d2b 493c c818 13bd 3ab1 36bd da4d a3ba
00000280: 5234 7a3c bf10 39bd 0a8e 67bc 888a 2fbd
00000290: 82ee 14bd ae04 353c b65f 853b fd04 d6bc
000002a0: e798 513c 33e3 1dbd d6ac 48bd a338 5abd
000002b0: 44b5 dcbc 7865 20bc 3fc5 93bd 8b34 56bc
000002c0: 347e 3abc 6b9b 6a3c 981a 883b bf7a 59bd
000002d0: 134b 26bc ee09 c2bc 3e46 0ebd 3125 74bd
000002e0: 8eed 903c d7e6 e3bc efe8 d1bc a370 c0bc
000002f0: 4a53 aabd 9f07 2fbc 9d25 c13c cbab 00bd
00000300: 57ef 273c f497 bdba 53c8 9abc 1ae9 c53b
00000310: 1ed4 ffbc a210 a0bd d337 c7bc c28e 7cbc
00000320: 1e74 a8bc e588 cc3b d205 f7bc c9d6 18bd
00000330: 0012 70bc 3c39 4fbd 1da0 d6bc 98e2 e1bb
00000340: bb1d f2bc 5891 2dbd cbdd afbd 8a98 d23b
00000350: 2a60 dabc 3ad2 24bd da50 8fbc 21ab ebbc
00000360: db48 50bb 5310 d4ba d19a 203c a25a da3c
00000370: 6c5d a9bc bdb1 f8bc fe15 20bd c22b 93bd
00000380: 98ba 1bbd b842 b2bc b41d 0bbd c043 a3bc
00000390: b625 41bd aae4 193c de7a 82ba 770a 38bb
000003a0: 3d26 0fbd 27e2 8cbc 9d73 25bd 43d7 e5bc
000003b0: c069 d63b 86ea 10bb 07bb febc 03c2 f9bc
000003c0: edf8 45bc 653c b0ba aa69 203d 26f5 55bc
000003d0: 66c1 77bd 552a 1fbd 9491 e2bc 8158 d3bc
000003e0: 268f b93b f8b9 a6bb 85bd 5fbd c28b c3bc
000003f0: 5ce9 84bb f44d a1bc 1aee 65bd 52d7 3dbd
-0.013845282 -0.03601817 0.008828305 -0.008179811 -0.01627009 0.010929275 -0.011041188 -0.0074238996
-0.026752066 -0.029383011 -0.04004309 -0.02972543 -0.023136804 -0.04111704 0.0018811846 -0.030120596
-0.06526624 0.0093931975 0.019905388 -0.01689129 0.004676953 -0.017299509 -0.025211446 -0.02737676
-0.014868147 -0.033929992 0.01626781 0.008476538 -0.026035473 -0.022059606 0.0053950534 -0.004581835
-0.038791273 0.0114136785 -0.03658538 -0.02249651 -0.0054291463 -0.041527797 -0.01709887 -0.0055014524
-0.017748652 -0.0026549366 -0.0017101329 -0.026630277 -0.048518226 -0.050741144 -0.017563425 -0.038468193
-0.015881298 -0.025845302 -0.036377832 -0.030023381 -0.03847084 -0.0326782 -0.011520196 -0.0020136079
-0.058455784 -0.023363046 -0.052779082 -0.0026365477 -0.0064259097 -0.041171595 0.004486941 -0.0047710263
-0.015871905 -0.026738277 -0.007697555 -0.021651484 -0.012774291 -0.041055206 -0.04749845 -0.008369121
-0.005381847 0.0020824624 0.037034042 0.017706236 -0.0036379015 -0.023994073 0.0055303844 -0.026305225
-0.011430782 0.0046047643 0.005922706 -0.04782196 -0.029394748 0.025118666 -0.035922095 -0.03751667
0.024512114 0.03262326 -0.07011875 -0.02750737 0.016694412 -0.025540307 -0.057095572 0.03265769
-0.026086386 -0.016981337 0.005345674 -0.020758413 -0.0024016262 0.018087743 -0.0087136645 -0.024861919
-0.07861515 0.03965352 -0.0012314774 -0.0031960916 -0.024595922 -0.039463826 0.004285822 -0.032554314
-0.025541473 -0.030154279 -0.019261645 -0.0389005 -0.018929645 0.0034204074 -0.044076614 -0.033220213
-0.038682617 -0.028194858 -0.014288238 0.008983809 -0.0049063563 -0.006964363 -0.01596397 0.0023329987
-0.0075175185 -0.015564446 -0.041479427 -0.0008632752 -0.019175364 -0.01442973 -0.0021533729 0.012596489
-0.042349696 -0.030211974 -0.033986196 -0.026495352 -0.023887053 0.0031724644 -0.052069817 0.022977026
-0.05980837 -0.05745633 -0.005918615 -0.02346847 -0.007615274 -0.035354298 -0.052563213 -0.002093877
-0.026348772 0.016691087 -0.00067788584 -0.0064535667 0.012278465 -0.035912305 -0.04460261 -0.0012459115
0.015271263 -0.045181986 -0.014132986 -0.042856723 -0.03636027 0.011048479 0.0040702475 -0.026125425
0.012792802 -0.038546752 -0.048992954 -0.05327667 -0.026941903 -0.009789817 -0.07215356 -0.013074051
-0.011382628 0.014319281 0.004153561 -0.053095575 -0.010149735 -0.023686375 -0.034734957 -0.05960578
0.0176914 -0.027820034 -0.025623767 -0.02349121 -0.083166674 -0.010682969 0.023577506 -0.031413835
0.010249934 -0.0014464841 -0.01889435 0.0060397508 -0.031229075 -0.078156725 -0.024318611 -0.0154148955
-0.020563181 0.006241905 -0.030154143 -0.03731421 -0.014652729 -0.050591692 -0.026199395 -0.006893467
-0.029555192 -0.04237494 -0.085872255 0.0064268755 -0.026657183 -0.04023955 -0.017494608 -0.028768124
-0.0031781706 -0.0016179181 0.009802536 0.026654545 -0.02067443 -0.03035819 -0.039083473 -0.071860805
-0.038019747 -0.02176033 -0.033963874 -0.019929767 -0.047155105 0.009392897 -0.000995483 -0.002808241
-0.034948576 -0.017197682 -0.04039346 -0.028056746 0.006543368 -0.0022112443 -0.031095041 -0.03048802
-0.012083274 -0.0013445733 0.03916327 -0.013058936 -0.060487173 -0.03885873 -0.027657308 -0.025799038
0.0056628166 -0.005088087 -0.0546241 -0.023870353 -0.004056139 -0.019690491 -0.056135274 -0.046347924

network_body._body_endoder.seq_layers.0.weight f4 [256, 164]
00000000: da34 433e 7aef 1e3d a13c 243d 2ea0 26bc
00000010: d46f d8bd f0b9 413c 7d2e 923c 6db1 c2bc
00000020: aefe 85bd 153d 45bc d2fb b83c 8f08 333d
00000030: 829b b73d 4840 20bd e1e2 cc3d 48b6 97bd
00000040: 9cdd 2d3e ad10 32bd b627 873d a333 bb3d
00000050: b2a8 7fbd b863 063e 2590 9ebd 92f6 99bd
00000060: 870f b13d d514 4bbd 6778 b4bd e682 0fbe
00000070: 3754 bfbd 1226 a6bc 7629 abbd 74c8 c1bd
00000080: a84a 1f3d d38c ea3d fd37 a23d b6a7 57bc
00000090: 9b03 bfbc ae7e 383d 23f6 bd3d 3910 5a3d
000000a0: 2ed3 f63d 6861 8d3d 1ca1 883d fff8 1abe
000000b0: 8cdc db3c 8306 8a3c 0653 953d 77d6 fd3d
000000c0: 5901 b43d 970a a1bd f677 23be e4a1 983c
000000d0: a459 cfbc 39e0 9abd 9ccf 1bbd 3682 0bbe
000000e0: 53ef 5cbd 67d6 f13c 5e9f fd3c 472b 23bd
000000f0: 4f6d 5a3b 239b a5bd ab42 ae3d 71c3 a3bd
00000100: e2e9 993d d8da ae3d 58be 89bc 66d2 01bd
00000110: 22ce ecbd bad2 a53b d9a1 91bd fdec 89bd
00000120: bb11 d9bd b95f cb3d 8080 0c3d 8314 d13c
00000130: dc40 d73d c84a 0cbd add3 02bd 8811 843c
00000140: 3fbd b3bd e04a 27bd f406 863d 3705 d33d
00000150: ad21 e3bd 33ec 92bd fbe8 883c ec05 ac3d
00000160: 2860 b43d c196 df3d 7041 d2bc 365e cb3c
00000170: 9c20 12be 9b8a 833d 444c db3c 188b 1bbe
00000180: 9c79 f7bc 3229 32bd 621d 60bd d1b6 92bd
00000190: 2fff adbc 4e93 a9bd 71b7 b2bd f06d e63b
000001a0: 1c8a f3b8 b378 17bd 7c7e 9d3d f925 113d
000001b0: e41b e03d 47ac 06bd ff92 bdbd 7c79 f53d
000001c0: 3432 2e3d ea30 9a3c 7c90 d13d a156 35be
000001d0: 874d ca3d 1c6f e23d 1b6c 713d 1911 063d
000001e0: ca8f d3bd dfcc d1bd 3ca2 7d3d 4a5f 2b3d
000001f0: c917 533d 880e 033e c619 7e3c 4b5b 70bd
00000200: 62fd 5a3e c47b a2bd bbad 0e3e df04 de3c
00000210: dba3 5d3c 5130 3d3d d820 8bbd 9d8b 31bd
00000220: d3b8 e4bd 4482 893c 9811 143c 49db ccbd
00000230: 347c 22bd 7526 82bd feac 9d3d 2407 f4b8
00000240: 9d93 afba 8133 703d 3270 ea3b 428e afbc
00000250: 33b3 a93c 6f6c 3d3d 0d43 bbbc c5f9 8d3d
00000260: 5129 c2bd 9341 88bc e129 0abd d179 363e
00000270: 0df1 a3bd 65f6 f83c d0a7 ac3d 21fd 063e
00000280: e5cc 41bd 7597 e7bd ec41 e93d 14ea e63c
00000290: 7074 4b3e 5a61 12bb 8aab 85bd 4661 64bd
000002a0: c471 c7bb 754a 073d e57c 843d de47 e9bc
000002b0: 3f3f 603d 1ee5 fcbc e71b 9c3d aef9 1b3e
000002c0: e4a3 d2bd 93f4 d13c 1953 fa3d ce30 a3bd
000002d0: e01c 263d a5b6 613d 9bbb 313c d185 14bd
000002e0: 77a1 193d 977d ae3c 995e bdbd f2ce 9ebd
000002f0: 8909 2abc ae7d 233e cd33 8c3d 2fb0 473c
00000300: 20e0 58bd e2e7 ae3c 2726 cebb bab6 863c
00000310: 15e6 2b3c 4482 a43d 5173 ae3d 080d 0bbd
00000320: 7f64 1b3b d8ca c03d cf3a 993d bb19 c6bc
00000330: 7a8c 99bd ed0a 953c 6036 eb3d 51f7 893d
00000340: d62d 7abd 1151 d6bb 2ed7 a23c 2012 e03d
00000350: 5ca2 4ebd c7bb db3d b9c3 46bc 092c 243e
00000360: 3115 98bb 9d3b b6bd 3996 2f3d 47fc 7cbd
00000370: 364f 543e 5e02 a13c 99b2 db3d 4fc6 95bc
00000380: bb74 fe3c 80db d83b 587b 9f3c fa57 a1bd
00000390: ca4a 153d 52e4 c3bd 4346 17be 7b5e 8f3d
000003a0: 33be debc 28d0 15bd 7c21 f9bd 0916 bebd
000003b0: 1e1a 09bd f6b3 433d b846 7dbd 9be3 cabc
000003c0: d0e7 493d f1fd 403d 497c adbc 8b2c 363d
000003d0: 9e09 4dbd 3221 b4bc 6309 4dbe 5b21 b53c
000003e0: 8ec9 90bd aabd 8ebc 07ca 3abe bfb5 15bd
000003f0: 8058 14be 0abc a53d 1089 0a3e 9d46 8fbd
0.1906313 0.0388026 0.040096883 -0.010170026 -0.105682045 0.011824116 0.017844433 -0.023766244
-0.06542717 -0.012038489 0.022581015 0.043709334 0.08965208 -0.039123803 0.10004211 -0.07407814
0.16979069 -0.043472935 0.06599371 0.09140708 -0.06241674 0.13123977 -0.07742337 -0.07517733
0.0864554 -0.049580414 -0.088120274 -0.14014778 -0.093422346 -0.020281825 -0.083575174 -0.094620615
0.038889557 0.11452641 0.07920835 -0.013162544 -0.023317149 0.045042686 0.092754625 0.053238127
0.12051998 0.069033444 0.06671354 -0.15134047 0.026838563 0.016848808 0.07291226 0.123944215
0.087893195 -0.07863348 -0.1596373 0.018631883 -0.025311299 -0.07562298 -0.03803979 -0.1362389
-0.053939175 0.02952118 0.030959781 -0.039836194 0.0033329313 -0.080862306 0.0850881 -0.07996262
0.07515313 0.08537835 -0.016814396 -0.031694792 -0.11562754 0.005060521 -0.07110948 -0.06734655
-0.10599085 0.09930367 0.034302235 0.025522476 0.10510418 -0.034251004 -0.03194015 0.01612164
-0.0877633 -0.04084289 0.06544295 0.10303729 -0.110904075 -0.07173958 0.016712656 0.08399567
0.08807403 0.10917426 -0.025665969 0.024825197 -0.14270252 0.06422921 0.026769765 -0.15189779
-0.030209355 -0.04349632 -0.05471552 -0.07163776 -0.021239845 -0.08280049 -0.08726395 0.0070321485
-0.00011612868 -0.036980342 0.076901406 0.035436604 0.1094282 -0.03287914 -0.09256553 0.11986062
0.042528346 0.018822152 0.10232636 -0.17708828 0.098780684 0.11056349 0.058940988 0.03273115
-0.1033016 -0.10244154 0.061922297 0.04183892 0.051536355 0.12798512 0.015509075 -0.058680814
0.2138572 -0.07933763 0.1393346 0.027101932 0.013527836 0.046188656 -0.06793374 -0.043346036
-0.11168065 0.016785748 0.009037398 -0.10002763 -0.03966923 -0.06354991 0.07699011 -0.00011636157
-0.0013395433 0.058642868 0.007154488 -0.021430138 0.020715332 0.04624599 -0.02285912 0.069324054
-0.09480537 -0.01663283 -0.033731345 0.17819907 -0.08004961 0.030390928 0.08430445 0.13182499
-0.047314543 -0.11308185 0.11389527 0.028187789 0.19868636 -0.0022335858 -0.06526859 -0.05575683
-0.00608656 0.033029992 0.06469134 -0.028476652 0.054747816 -0.03087097 0.076225094 0.15231964
-0.10285166 0.025629317 0.12222881 -0.07968293 0.04055488 0.055105824 0.010847951 -0.03626043
0.0375075 0.02130012 -0.09246559 -0.077543154 -0.01037825 0.15965912 0.06845818 0.012188002
-0.052948117 0.021350805 -0.006291169 0.016444553 0.010491868 0.08032659 0.085180886 -0.033947974
0.0023711023 0.094136894 0.0748192 -0.024182191 -0.07497497 0.018193686 0.114849806 0.06736625
-0.06107887 -0.0065404256 0.019877996 0.10940957 -0.050447807 0.10729175 -0.012131625 0.16032423
-0.004641198 -0.08898089 0.042867873 -0.061764028 0.20733342 0.01965445 0.10727424 -0.018283037
0.03106152 0.0066179633 0.019467995 -0.07878108 0.036448278 -0.09565033 -0.14772896 0.070004426
-0.027190303 -0.036575466 -0.1216459 -0.092815466 -0.033472173 0.047779046 -0.06183502 -0.024766734
0.04929334 0.047117177 -0.021177428 0.044476073 -0.050058 -0.021988485 -0.20023112 0.022110632
-0.070696935 -0.017424423 -0.1824113 -0.03655028 -0.14486885 0.08092506 0.13528848 -0.0699589

network_body._body_endoder.seq_layers.2.bias f4 [256]
00000000: da98 18bd c412 88bc 3472 18bd aa0a 42bc
00000010: 58ce 1d3c 1631 7cbc c552 07bd 3e7c 0dbd
00000020: b6c4 08bd a95c 973a 6422 08bc aefc 39bc
00000030: 1041 d7bc 08e7 85bc 0209 f8bc b42d cd3b
00000040: b4ec 1b3c 921c 113b 766e 05bd 7664 82bc
00000050: cf23 eebc c8c8 9dbc a251 a5bc 4ec2 f4bc
00000060: d263 17bd cfa9 37bc 7d3d cdbc 3f66 48bd
00000070: e881 08bd caa3 92bc 5565 e4b9 a18a b13c
00000080: 4014 d4bc b83e 32bd 47f4 803c dd6c df3b
00000090: 71ca e53b 4ef4 53bc f222 b7bc 485c 8fbc
000000a0: 5692 0bbd 9aea acbc 0391 e8bc 165c a1bb
000000b0: 10bc 833c 905d c6bc c73a 0fbd 6b01 b23c
000000c0: bfe7 7fbc 1829 e4bb 1009 0fbd 511b 2fbc
000000d0: b38e bdba 84b5 26bc 29ba 43bc f2cf e63b
000000e0: e8fe ddbc df0d b43b c8f6 b5bb 89ae 11bd
000000f0: 7b85 f53b c1ee 2cbd dd44 ee3b a9af 43bd
00000100: 6f0f 5ebb a298 92bc 6406 87bc daa3 38bc
00000110: 53d7 a7bc a4c0 1ebc 1fa4 a5bc 1cbb e4bc
00000120: 5740 10bd ecc2 71bc 2c2a 0ebc fa3b b5bc
00000130: 7ced b3bb 834c 99bc e3a2 04bc c964 b7bb
00000140: 8fcf 13bd 4a77 07bd 2eb6 11bd 9c8d 7ebc
00000150: eefa d7bb d383 ccbc 6fe5 483c ad07 c0bc
00000160: ed56 d13b 6fc1 7abc 443f cabc f896 cdbb
00000170: 15b7 6abc 098a d23c 3381 d9bb 41a0 7cbc
00000180: d899 06bd 2b6b 5abd 9b24 11bc 1b94 28bd
00000190: 0a9f 903c aa17 82bb 8065 95bc 6548 cbbb
000001a0: f913 14bd f0c0 893a d63a aabc 8ae1 deba
000001b0: dbfd 82bc aadf a2bc c3fd 91bc b1f3 31bd
000001c0: 1974 8b3b 0048 1fbd ac51 0fbd 104b 15bd
000001d0: b57d 7fbc 133c 25bd 18a7 6cbc e8b3 d3bc
000001e0: 9099 243d 04a4 23bd 7a4d 24bd 7161 0ebd
000001f0: d9f3 0fbd 75aa 853c 8b31 c0bb 08de 37bc
00000200: 3676 163a 1795 38bd e8c7 0fb9 0a85 f23b
00000210: fa66 cabc 6508 b03c 5740 91bc bfe9 83bc
00000220: 924e f9bc 0870 bbbc 9ce4 053c 8e95 eb3b
00000230: 0017 87bc d02f 2dbd cfe3 baba 8623 59bc
00000240: 1e09 edbc 751f e1bc d228 4fbb 366e 05bc
00000250: bc7b 9539 1f42 29bc 3e09 0ebd c0f3 94bc
00000260: 37d3 a2bb a8d0 29bd 9b6d c9bb 0d59 91bc
00000270: c58b 09bd 899b 2ebd f4ee 00bc 30da 8abc
00000280: abde a5bb edf7 05bd edfe f7bc 92c8 66bc
00000290: d0f4 03bd 5aab 86bc 737f 3ebc 851f 93bc
000002a0: dcc4 b5bc 057b 2fbc f370 94bc 0edf b1bc
000002b0: a686 1b3a 538f acbc c31b c3bc 3658 e63b
000002c0: 40a4 0ebd 2e6e c43b 6598 11bd e002 f6bc
000002d0: 9ea0 0cbc 5879 673c 38a7 ffbc f5a9 34bd
000002e0: 3dc7 4dbd 8be3 36ba cc0e 1ebc ca68 4e3b
000002f0: 3ec1 413d 12ab b5bc 359c ecbc 3e21 9bbc
00000300: d1b2 b9bc 8c66 f0bc ff66 abbc 5cf4 2cbc
00000310: 124d 08bd 82fc 6cbc d1f0 12bd 11a8 fabc
00000320: 4ccf d9bc 26c9 fcbb fcd6 08bd 3147 853a
00000330: 6769 b9bb bfef ccbc cae8 b7bc 0d94 2fbc
00000340: d808 a3bc b1dd e63a bb32 e1bc f227 8d3b
00000350: 13b0 623c 36c4 13bd 28ce 53bc 5ecf 29bc
00000360: 0182 36bd ffbd 2c3c 1722 2cbd 5074 cfbb
00000370: 1211 c0bb bb8c 15bc c4bc 10bd 83fe 933c
00000380: f5d8 2dbc 0a63 32bd 282d 6dbc 47e4 f4bc
00000390: 8ece 323c af71 403c 07b5 e9bb d7d9 fabc
000003a0: 97bb 813c b407 00bc f81a 663c 7276 22bd
000003b0: 39f3 efbc 7d39 5fbc 878c ac3c bcee c03b
000003c0: 93cb debc 0bac 343c c619 31bc ad22 56bc
000003d0: 577c 9fbc 6e97 32bc d880 fbbb 1b01 22bc
000003e0: e78b 64bc f489 11bd 327a 10bd c0a8 dabc
000003f0: 89ed 08bc f7b2 eb3b 59f9 f9bb 2901 31bd
-0.037255146 -0.01661051 -0.037218288 -0.011843363 0.009631716 -0.015392562 -0.03303792 -0.034542315
-0.033390723 0.0011548001 -0.008308981 -0.011351747 -0.026276141 -0.016345516 -0.030277733 0.0062615518
0.009516884 0.0022142273 -0.032576047 -0.015917044 -0.02906981 -0.019260779 -0.020180527 -0.029877808
-0.03696043 -0.011209919 -0.025053734 -0.048925634 -0.033327013 -0.017900366 -0.00043563047 0.021672549
-0.025888562 -0.043516845 0.01574148 0.0068183974 0.0070126583 -0.012936665 -0.02235553 -0.017500058
-0.034075104 -0.02110796 -0.02838946 -0.0049243076 0.016080886 -0.024214536 -0.034968164 0.021729192
-0.015619217 -0.0069629066 -0.034920752 -0.010687665 -0.0014462083 -0.010175113 -0.0119462395 0.007043832
-0.027099088 0.0054948176 -0.0055531003 -0.03556684 0.0074927188 -0.04221988 0.0072713927 -0.047774944
-0.003388371 -0.017895047 -0.01648254 -0.011269534 -0.020488417 -0.009689484 -0.02021986 -0.027921252
-0.03521761 -0.014755946 -0.008677047 -0.022123326 -0.005490957 -0.018713241 -0.008095476 -0.0055967313
-0.036086615 -0.033072747 -0.03557413 -0.015536692 -0.0065911924 -0.024965202 0.0122617325 -0.02344116
0.006388536 -0.015304907 -0.02468837 -0.0062741004 -0.014325877 0.025700586 -0.006637716 -0.015419067
-0.03286156 -0.05332486 -0.008858825 -0.04115687 0.01765396 -0.003970106 -0.018236876 -0.0062036985
-0.03615186 0.001050977 -0.020780008 -0.0017004472 -0.015990188 -0.019882042 -0.017821198 -0.043445293
0.0042557833 -0.038887024 -0.034989998 -0.03644854 -0.015593936 -0.040340494 -0.014444135 -0.025842622
0.04018551 -0.03995134 -0.04011295 -0.034760896 -0.03514466 0.016316632 -0.005865281 -0.01122237
0.00057396607 -0.04506406 -0.00013712014 0.0074011134 -0.024707306 0.021488378 -0.017730875 -0.01610267
-0.030432973 -0.02288057 0.0081721805 0.007189459 -0.01649046 -0.042281926 -0.0014258566 -0.013253098
-0.028935011 -0.02748082 -0.0031610024 -0.008143952 0.00028511684 -0.010330706 -0.034676783 -0.018182635
-0.0049690264 -0.041458756 -0.006147099 -0.017742658 -0.03358056 -0.0426288 -0.007869471 -0.016949743
-0.0050619445 -0.032707144 -0.030272925 -0.014085906 -0.032215893 -0.016439129 -0.011627066 -0.017959366
-0.022188596 -0.0107104825 -0.018120265 -0.021712806 0.0005932845 -0.021064436 -0.023816949 0.0070295585
-0.03482461 0.0059945798 -0.035545725 -0.030030668 -0.008583216 0.014128052 -0.031207666 -0.044107396
-0.050238837 -0.00069766556 -0.009647083 0.0031495565 0.04730343 -0.0221763 -0.028883079 -0.01893675
-0.022668274 -0.029345773 -0.020923136 -0.010556307 -0.033276625 -0.014464499 -0.03587419 -0.030597718
-0.026588105 -0.0077144084 -0.03340815 0.0010168311 -0.005658317 -0.025016664 -0.02244987 -0.01071645
-0.019901678 0.0017613677 -0.02749001 0.0043077404 0.013835925 -0.036075793 -0.012927569 -0.010364382
-0.044557575 0.0105433455 -0.042024698 -0.006331004 -0.00586141 -0.009127791 -0.03533627 0.018065697
-0.010610809 -0.043551482 -0.014476098 -0.029894007 0.010913504 0.011745854 -0.007132176 -0.030621452
0.01583652 -0.007814337 0.014044516 -0.03966374 -0.029290782 -0.013624546 0.021063102 0.0058878344
-0.027196681 0.011027346 -0.0108093675 -0.013069791 -0.01946847 -0.010900361 -0.0076752715 -0.009887959
-0.013949371 -0.035531953 -0.035272785 -0.026691794 -0.008357414 0.007192965 -0.0076286015 -0.043213997

network_body._body_endoder.seq_layers.2.weight f4 [256, 256]
00000000: ec03 5c3b a22a 8cbb 9656 a83d f24f 7c3b
00000010: 7d5c 2ebc 6660 f8bd e83c 4cbd 0ec3 4cbd
00000020: 5544 3bbd b649 bcbd 1574 45bd b836 d6bc
00000030: fb9c fdbc 4819 063c 10c9 833d 8f4f 363d
00000040: 4a60 f13c b3a0 96bd caae fabd b863 7dbc
00000050: 3b74 f63d e953 193e bdd8 a2bd 6928 803d
00000060: 0ac4 f5bc 8ec8 85bd f7ec 24be 27f9 653c
00000070: 50fe 07bd b0e8 acbd 8229 97bd c542 01be
00000080: 94ef 4dbc a82e 4bbd 1e16 96bb 1a11 71bc
00000090: ce49 70bd 5537 cbbd b380 0ebd dec0 69bd
000000a0: 4142 d83b 9c3a 153d 1a48 33be af45 05be
000000b0: b577 02be c87e 49bc 2bf0 39bd 7cf2 febc
000000c0: 644c 0d3e 35fb c03d 886b 0f3d fb50 a13c
000000d0: 8ace 0abd d9f8 5b3c 7232 3b3d a3e3 31be
000000e0: 407f b43c 6a2a b23d d2b8 96bc e9b6 ddbc
000000f0: a629 58bd 662d da3d 13ed ae3b f4ba 45bd
00000100: 1c36 f1bc ce44 203c 028d 03bc e98e fa3c
00000110: 8691 67bd abbe ad3d 969a c43b efb4 debc
00000120: 5d6d fe3c b654 adbb 17a4 1c3d 6d14 9f3c
00000130: 69ea ebbc 5e98 04bd b33d 223d 50a6 a43d
00000140: 1eef 923d 1562 18bc a6c9 6abd 2c94 893d
00000150: 4997 9dbd d496 96bc d612 133d 072c 8c3c
00000160: b999 013e 024b 91bc 6614 313c 0770 c63c
00000170: 5d82 04bd 3e88 b6bd 53fa 8e3d b6dc e83b
00000180: 2fd0 cdbd b43e bdbd 51b1 7dbd 0051 183c
00000190: 2d9f acbd b3b1 3abc 1838 0f3c 4013 ae3c
000001a0: 5801 2b3e aaf6 8dbd 4469 7b3c f487 6cbd
000001b0: 9ccf c13d 7c11 28bb b22a 8bbd 53a3 19bd
000001c0: c678 b03d f978 263b 0e88 1b3d 4054 ae3d
000001d0: 199d cf3b ba00 31bd e5ad a8bc 7bb2 d5bb
000001e0: e0f0 1e3d 1a48 b2bd 9248 91bd 04cd 0ebd
000001f0: ad22 3fbd 5b9a b0bc adf3 48bd 1166 47bd
00000200: 58ef 01bd 3cfc 063d 3de0 5bbd ffc7 bb3c
00000210: 7b21 993c c7ae 13bd 2683 15bc 7040 39bd
00000220: bab0 91bc c237 7abd 0b32 28bb 391e ec3c
00000230: f457 d0bb f5f2 463d f9e6 65b9 f0d1 efbd
00000240: fbd5 eebc 4d32 9e3d a9bd 433d a093 3cbc
00000250: 9a3d cf3a 1c12 37bd bbed ff3d cc58 a33c
00000260: f7de e4bc a8ef 363c 15d4 cebc 2bbd 72bc
00000270: f5fa 753d d97b 813d 8729 95bd d727 62bd
00000280: 66d7 05be c125 ef3d 6342 823d 81d1 443d
00000290: 3458 03bd 8a0f 1dbd cbb9 29bb c684 7abc
000002a0: 55d9 3f3d 67a9 583b 41e0 8abd 675e 71be
000002b0: 95e2 68bc 29c8 8abd 8435 b2bb 8a90 c83d
000002c0: d6dc c23c 6a4d a63c a89d 333d 2cec 693b
000002d0: 175a c83c 2241 a4bd f14b 1a3d d472 b13d
000002e0: 3e81 53bc 9e87 a6bd c415 983b 91bb 05be
000002f0: 5c2d d23d 1afa e4bc 4fcc debd 5c1f a2bd
00000300: f8f1 043e 7497 933c 5a49 fdbd 5b22 6f3d
00000310: 788f 17bd 82c0 efbd 840d d63b 9082 a8bc
00000320: ba0d 22bb e8e4 61bd d569 b53d d118 e53c
00000330: e46c 08be 9a8b 9cbd dd27 ae3c 4301 eabc
00000340: f463 ff3c b0ef d23a c763 423c 1641 17be
00000350: 8a03 473d fcc1 3c3d 7888 74bc 0802 a3bc
00000360: ba44 3bbd 4fdb c83d 8995 51bd 8049 8abd
00000370: 524f 433c 0beb 0c3d 643a 83bd 8f8d 55bd
00000380: 020f 303c d2b8 b2bc e9e3 5dbc 38fc b5bd
00000390: 8351 25bc 9d9a 8abd fdaf 02be 667d 6d3d
000003a0: 9a6b bebd 503b b2bd e8ff 953a 68de d93d
000003b0: 96b6 cabd d1a1 b83d bd5b e1bd 64e7 79bd
000003c0: 2d89 ae3b 77ed 373d 54c8 23be d701 96bd
000003d0: 7692 c13d 13bf 203e bf05 c0bd a4e2 8a3d
000003e0: 8ae5 d2bc cc3c eb3d e2d9 6bbd 24fc e83c
000003f0: 927e b6bc ba3f 93bd 5016 f83c 2927 503c
0.0033571674 -0.004277543 0.0821964 0.00384998 -0.010642168 -0.121277615 -0.049862772 -0.049990706
-0.045719463 -0.09193747 -0.048206408 -0.026149139 -0.030958643 0.008184738 0.06434834 0.044509467
0.02946486 -0.0735487 -0.122403696 -0.015465669 0.12033888 0.14973415 -0.07951496 0.062577076
-0.030000705 -0.065323934 -0.1610602 0.014036453 -0.033201516 -0.08442819 -0.07380964 -0.12623127
-0.012569327 -0.04960504 -0.0045802733 -0.01471355 -0.058664136 -0.09922663 -0.034790706 -0.057068698
0.006599695 0.036432847 -0.17507973 -0.13014863 -0.12740977 -0.012298293 -0.045395058 -0.031121485
0.13798672 0.09422914 0.03501466 0.019691935 -0.033888377 0.013426029 0.045702405 -0.17371993
0.022033334 0.08699496 -0.018398676 -0.027064757 -0.052774094 0.1065319 0.00533832 -0.048273996
-0.029444747 0.009782029 -0.008029224 0.030585723 -0.056535266 0.08483633 0.0059998734 -0.027185885
0.031058008 -0.0052896393 0.038242426 0.01941892 -0.028798299 -0.03237187 0.039609622 0.08039534
0.07174514 -0.009300728 -0.057321213 0.06717715 -0.07694871 -0.018382467 0.035906635 0.017110838
0.12656297 -0.017735962 0.010808086 0.02422334 -0.032350887 -0.08912705 0.06981339 0.007106389
-0.100494735 -0.09240475 -0.06193668 0.009296656 -0.08428798 -0.011394906 0.008741401 0.021249413
0.16699731 -0.06931813 0.0153449215 -0.057746843 0.094634265 -0.0025645187 -0.06795253 -0.037509274
0.08616786 0.0025401695 0.03797155 0.08512163 0.006335866 -0.043213584 -0.020590732 -0.0065215207
0.038803935 -0.087051585 -0.0709392 -0.034863487 -0.04666393 -0.021557977 -0.049060512 -0.048681322
-0.031722397 0.032955393 -0.053680647 0.022922514 0.018692723 -0.036055353 -0.0091255065 -0.045227468
-0.017784465 -0.06108833 -0.0025664594 0.028823005 -0.006358141 0.048571546 -0.00021925186 -0.11709964
-0.029154768 0.07724438 0.047788296 -0.011509806 0.0015811205 -0.044695005 0.12496515 0.019939803
-0.02793835 0.011165537 -0.025247613 -0.014815609 0.060053784 0.0632245 -0.07283311 -0.055213775
-0.13070449 0.11677123 0.063603185 0.04805136 -0.03206654 -0.038344897 -0.0025898095 -0.015290445
0.046838123 0.0033059956 -0.06781054 -0.23571168 -0.014214178 -0.06776459 -0.0054385085 0.09793194
0.023786943 0.020300586 0.043851525 0.0035693748 0.02445702 -0.080202356 0.03767008 0.0866448
-0.012909232 -0.08131336 0.0046412665 -0.13059832 0.10262558 -0.027951289 -0.108788125 -0.079161376
0.12982929 0.018016554 -0.12367506 0.058382373 -0.037002057 -0.1170664 0.006532373 -0.02057007
-0.002472742 -0.055149943 0.088580765 0.027965935 -0.13322788 -0.076438144 0.021259243 -0.028565055
0.031175591 0.0016093161 0.011864609 -0.14770922 0.04858736 0.046083435 -0.014925115 -0.01989843
-0.04571984 0.09807455 -0.051168 -0.067523 0.011920767 0.034403842 -0.064076215 -0.052136954
0.010745766 -0.021816645 -0.013543108 -0.088859975 -0.010090235 -0.067677714 -0.12762447 0.057980917
-0.09297867 -0.08702719 0.0011444064 0.10638124 -0.09898107 0.09015239 -0.11003826 -0.061011687
0.005326411 0.0449042 -0.15994388 -0.0732457 0.09451763 0.15697889 -0.09376096 0.067815095
-0.025744218 0.114862055 -0.057580836 0.028440543 -0.02227715 -0.07189889 0.030284077 0.012704649

network_body._body_endoder.seq_layers.4.bias f4 [256]
00000000: 30f6 ecbc 827b 20bd 2ffd b6bb e446 033b
00000010: fef5 c83b 0380 e5bc f429 ecbc 9552 25bb
00000020: 7104 8abb ebb0 2d3c 6782 cdbc e396 b7bb
00000030: 0bea 693c 3b64 2ebc 6130 b23a 6657 8a3a
00000040: aa24 54bd c67f 5fbc e604 87bb bfe7 9ebc
00000050: f701 06bd 04a3 a93b 3f25 25bc 0bc7 1c3c
00000060: e97b 623c a03c e6bc bf2c 21bc 7f94 10bd
00000070: a9fb dfbc f0f2 3cbb 8232 9abc c929 49bc
00000080: 214f 2dbd ac46 0abd 4653 dbbc 64c5 78bc
00000090: 08ca 38bd 6a2a 2abd 0f56 5ebc 1f6a 313c
000000a0: 1b2c 88bc 602e f4bc fc0d 1f3c 4941 05bd
000000b0: cffe 623c 3100 2dbd 52b5 0cbc 4e63 bc3b
000000c0: 9ba5 49bc e51c 843c 5bc2 0ebd bec4 71bb
000000d0: 62d9 bd3b 623d 61bc 3245 09bd 466d 613c
000000e0: 4512 6fbc 5520 f6bc fd18 8bbc 9825 3cbd
000000f0: 7ff6 09bd 2283 72bb 2e9d c5bc 9a2b 9dbc
00000100: 8b6f 893b 62db d9bc 3668 10bc 1d89 49bd
00000110: 5680 c0bc 44a6 52bc c839 eebc 923e 11bd
00000120: 5acd 00bd 832b 9fbc b72b 8fbc 4a57 f0ba
00000130: 0ede 0abc f354 cabc f253 29bd 386c a4ba
00000140: 10b1 743b 12ec e2bb 569d b1bc 7498 2ebc
00000150: 589b 14bd 40df 8bbc c079 18bc c375 c23c
00000160: 6945 85bb bb66 0cbd 303c 9cbc 153f 85bb
00000170: 84a9 e23a 61d2 02bd e686 cdbb 01fa c5bc
00000180: 228b d1bc 30ba 07bc 1549 31bd 991b 21bc
00000190: 051f ecbc 05d5 7bbc 7691 41bc f9b8 d3bc
000001a0: 00c0 41bb e3e2 323c 1f69 b6bc 6a32 06bd
000001b0: 2abf 41bc b453 10bc 5013 483c cc08 cabc
000001c0: 058a 32bd 10e2 193c 123d f4bc 98e5 d2bb
000001d0: 3ca7 38bb 7081 43bc 6e7c cdbc 53eb 0bbd
000001e0: ec5c 98bc 4564 c9bc 919b 34bd 69a1 cfbc
000001f0: c622 593c 32ba 83bc d104 34bd 1419 91bc
00000200: 29f8 523c ccb4 cdbb 3184 1cbd f778 0fbd
00000210: 9588 66bd d03d 7bba 8815 10bd 8657 f93b
00000220: 1cdb 6bbc 0787 97bb 393e 34bc 1e6d cc3c
00000230: 6b5d 69ba 547d 7ebc a03b f7bb 3a5b e2bc
00000240: 3820 cb3b 1963 fabc 6d0f 90ba 4075 8bbc
00000250: 127f c0bb 3798 83bc 5dac bf3b 9c53 6ebc
00000260: 1485 21bd 0de7 17ba bf60 4439 414c 48bb
00000270: a0d8 b3bc 7bda d7bc f82a 2abc dfbf daba
00000280: bd70 1dbd 7ed1 0a3c 268d b1bc ff87 cdbc
00000290: c74b edbc 6d6a 633c 05fc 23bd 11f1 c1bc
000002a0: 2f7d d2bc c8b1 9cbb fa2d 04bc b0bc 00bd
000002b0: d421 0dbd e5d5 b03c 5ffd febb 3bcb 94bc
000002c0: e849 b8bb 62de c3bb d9f7 7abc db8d a7bc
000002d0: f7f0 0ebb d6a7 f9bc 72af 0bbd a80a 1abd
000002e0: b263 3b3c 36c7 adbc 4a30 0dbd 569e 80bc
000002f0: 7bd8 0fbc c734 efbc 4fbd 16bc a90b 10bb
00000300: a7a2 96bb ff88 18bd 7af9 10bd e1b0 a7bc
00000310: 1fea a9bb 685c 49bc e864 c8bc 25fd 20bd
00000320: 4e99 09bc 6289 45ba 8d6a 85bb 1cb5 d5bc
00000330: a135 0ebc 481b 30bc 60b9 11bd 4439 91bb
00000340: c4c6 0bbd 807b 263c e9ab 35bb 1dbb 80bb
00000350: 5854 3cbd 2c94 f7bb 7e61 463c 82a0 81bb
00000360: 6d10 b8bc 7836 8abc d82f dcbb 4957 f2bc
00000370: 8bc3 2ebc 7be9 7fbb bef7 23bd 457e 42bc
00000380: 3b74 e1bb aa02 aabc e1bd 47bd 11df 05bd
00000390: 9348 07bc f268 2dbc 56da 1cbd 0458 b6bc
000003a0: 8976 50bc 083c 2fbc 7554 b9bc bf2e 723c
000003b0: 11fc 72bc 3c17 453c 6b7b 78bc 56a4 55bc
000003c0: 464e d4bc 71b9 2d3b 26b8 9d3c 4f25 53bd
000003d0: 2379 813c 4a3d 05bd 89f6 0dbd 9089 15bc
000003e0: ea5b 2cbc 1d76 0a3c d047 dcbc 5ed6 36bc
000003f0: b575 febc 1e21 87bb bad5 f93b ae27 22bc
-0.028925985 -0.039180286 -0.005584381 0.0020031268 0.00613284 -0.028015142 -0.028828599 -0.0025226225
-0.0042119552 0.010601263 -0.025086595 -0.005602704 0.014276992 -0.010644014 0.001359474 0.0010554611
-0.051792778 -0.013641303 -0.004120457 -0.019397615 -0.032716718 0.0051769037 -0.010079681 0.00956894
0.013823488 -0.02810508 -0.009837328 -0.035297867 -0.02734168 -0.0028831325 -0.018822912 -0.012278029
-0.04231179 -0.033758804 -0.026773106 -0.01518378 -0.045114547 -0.041544355 -0.013570323 0.010828524
-0.016622594 -0.02980727 0.009707924 -0.032532964 0.013854696 -0.04223651 -0.008588152 0.0057491427
-0.01230755 0.01612706 -0.03485332 -0.003689095 0.0057937363 -0.013747545 -0.033513255 0.013758963
-0.014591758 -0.030044714 -0.016979689 -0.04593429 -0.033682343 -0.003700443 -0.0241228 -0.01918583
0.004194205 -0.026593868 -0.008813908 -0.049203027 -0.023498695 -0.012857024 -0.029080287 -0.035460062
-0.03144584 -0.019429928 -0.0174769 -0.0018336561 -0.0084757935 -0.02469871 -0.041339822 -0.0012544459
0.0037336983 -0.0069251144 -0.021681469 -0.010656465 -0.03628096 -0.017074227 -0.009306371 0.023737794
-0.004067112 -0.03427766 -0.019071668 -0.004066358 0.0017292951 -0.031938914 -0.0062721847 -0.024167063
-0.025579039 -0.008284137 -0.043282587 -0.00983324 -0.028823385 -0.015370612 -0.011814466 -0.025845038
-0.0029563904 0.010918352 -0.022266923 -0.032762922 -0.011825362 -0.008809019 0.012211636 -0.024662398
-0.043588657 0.009392276 -0.029814277 -0.006436061 -0.0028175851 -0.011932716 -0.025083747 -0.03415997
-0.018598996 -0.024583945 -0.044093672 -0.025345521 0.01325292 -0.016079996 -0.043949906 -0.017712153
0.012876549 -0.006277656 -0.038212005 -0.03502747 -0.0562826 -0.0009584101 -0.035176784 0.0076093106
-0.014395501 -0.004624251 -0.011001163 0.024954375 -0.0008902165 -0.01553281 -0.0075449497 -0.02763139
0.006198909 -0.030564832 -0.0010990925 -0.017023683 -0.005874523 -0.016063793 0.0058494047 -0.014546301
-0.039433554 -0.0005794622 0.00018728057 -0.003056303 -0.02195388 -0.026349297 -0.010386221 -0.0016689262
-0.038437594 0.008472798 -0.02167375 -0.025089262 -0.028966798 0.013880354 -0.040035266 -0.02367452
-0.025694458 -0.0047819354 -0.008067602 -0.031429946 -0.03445609 0.021586368 -0.007781669 -0.018163314
-0.0056240447 -0.005977438 -0.015317881 -0.020453384 -0.0021811107 -0.030475538 -0.034102865 -0.03760782
0.011437343 -0.021213155 -0.03446988 -0.0157005 -0.00877964 -0.02919997 -0.009200408 -0.0021979606
-0.0045970264 -0.037240025 -0.03539417 -0.020470085 -0.00518538 -0.012290098 -0.024462178 -0.039303917
-0.008398367 -0.0007535425 -0.0040715397 -0.026087336 -0.008679778 -0.010748692 -0.035577178 -0.0044318754
-0.034125105 0.010161281 -0.0027720875 -0.0039285556 -0.045978874 -0.0075555053 0.012108205 -0.0039559016
-0.02246877 -0.016871676 -0.0067195706 -0.029582636 -0.010666738 -0.0039049077 -0.040031187 -0.011870925
-0.006880311 -0.020753223 -0.048765067 -0.032683436 -0.008257049 -0.010584103 -0.03829416 -0.022258766
-0.0127235735 -0.010695465 -0.02262328 0.014781653 -0.014830605 0.012029465 -0.015166144 -0.013039669
-0.02591623 0.0026508237 0.019252848 -0.051549252 0.015804833 -0.032529153 -0.034658942 -0.009127036
-0.010519961 0.008451012 -0.026889712 -0.011159508 -0.031061986 -0.004123821 0.007624355 -0.009897156

network_body._body_endoder.seq_layers.4.weight f4 [256, 256]
00000000: 4076 143d 855e c0bc 7399 793c dacd c4bd
00000010: 6a5f d23c 55f0 503d dd52 2a3c e7ee 4f3d
00000020: c103 643d c225 c6bb 25cf c0bb 1f8c a539
00000030: 6b8b c33a 4c17 b1bc 4886 963c ba43 513d
00000040: a7d7 ef3c 6f38 2b3d 82dc dd3c aca4 69bd
00000050: 81e3 13bd dba3 24bc cec4 263b 8d7e ea3c
00000060: 3eb1 8abd 086b d9bd 4303 96bd 6b5c 743d
00000070: 2ed1 92bd 5bbe 1bbd f2b7 3bbb d917 933c
00000080: 4fec e93c 63a2 1c3e a41f 823d c086 773d
00000090: 1291 8d3d d5ce 8bbb e1b0 723d 7b7f 88bd
000000a0: 8742 ed3b d639 74bd b0e5 9d3d 5de1 903d
000000b0: c3d6 51bc c3c0 e73d 55c8 5c3b 55b1 743d
000000c0: baa8 ce3d 0ad7 9bbd 5b4a 10bd db3b 953d
000000d0: a725 00be 9dc9 8c3d 9c83 1bbd d16c aebd
000000e0: 270a 0cbd 8e03 da3d 1c85 3bbc 269c ebba
000000f0: 760b d73d a38c 983d c5ff 11bd a339 ba3b
00000100: 8a01 223d 3fdc d0bc d9f9 9e39 d131 b93d
00000110: ce0d 663d e764 cbbc 9970 443d 520b 0e3e
00000120: 1414 81bb a9fa ac3d 5bff ca3b c26d 883c
00000130: 0f05 a53d 13d9 cebd 341c e4bc b0e3 13bc
00000140: 318c 483d 895e 17bd 2910 48bd 86eb 313d
00000150: 0bc0 203c 2196 49bd 4652 eabc bf71 44bd
00000160: e83f c03d 3d98 623b 1365 933a 7467 7d3d
00000170: 07c4 20bd 106d ccbc 65b1 8f3b e0c0 73bd
00000180: f1f4 9cbd 5210 f6bb 2719 a2bd f6f7 023c
00000190: e4cb 983d 6867 853d 2399 253e 9779 cb3d
000001a0: 6f52 d1bc 37b4 a9bc 7155 3a3d afaf 04be
000001b0: 607e 323d 701b a1bb b58a e13d 1446 03be
000001c0: ec2d a93c 7183 3bbd ad63 e1bc 1387 6ebd
000001d0: b15c 483d 6ac6 4fbd d735 db3d 941e a23c
000001e0: 2088 03bd 9b4e 70bc 950a 05bd bafe b03b
000001f0: f70e 373b ac68 cebd a311 c5bd 2086 923d
00000200: 436d ec39 b5c4 03be d601 2d3d d538 99bb
00000210: f1c7 9d3d a205 3c3d f7eb 90bd 9dac 713d
00000220: 8353 1e3d c784 043d 4b65 df3c 60ab 0c3e
00000230: 102d 51bd ddba 053d e87a 54bd c3f1 063d
00000240: 7c84 38bd 554b b73c 0943 a03c 21bb 8abc
00000250: c21e e5bd 1fa5 99bc 82da 223d 4a59 03bd
00000260: 9dea ae3c 803c 6abd 2d2f 23bd dc18 36bd
00000270: 2d4d 593d 8a3f 0abd 0330 3dbc bdde 8f3d
00000280: 2a8e e3bd 9f76 123e ed27 4fbd b17a cfbc
00000290: 9e63 983d 563b 073c 01f2 5bbb 9037 1abc
000002a0: 7043 473d 58be 90bd 81a1 53bd 310a c03d
000002b0: db64 223d 9c9f 33bd 44b0 c9bd 455f e9bd
000002c0: cb48 503d 7771 d43d 45a6 8f3d 9d2f 19bc
000002d0: 7fcf a83d 3db0 f73d 7a33 23bd 10e3 07be
000002e0: bf93 00bd bfb5 e2bc 17d2 9fbd 1224 35bd
000002f0: 3c62 6bbc 4f79 97bd 2b5f 82bd 36b7 b43d
00000300: b91c 3b3d be27 a4bd 06ea 1e3e 31c4 a03d
00000310: e71d 223d e0a4 e4bd 86ff a2bc eaed 583d
00000320: f312 283d 7d94 c43b 601e 66bb 1e34 d13c
00000330: dbc7 593d a4ec 53bb 7c00 ecbc 4c36 123d
00000340: b751 963d 8b41 51bd d03b 99bc 263b 19bd
00000350: 211b 593d c6bd e33d a60d a7bb 9382 123e
00000360: 1252 dfba 6d27 4cbc d0a6 b2bd 800d 263d
00000370: 652f 5cbd e42c 503d 900a 07bd 8097 fbbd
00000380: aa49 f23d 0b35 d83b 201d d43c c3e4 fdbc
00000390: a08d 44bc e85d 97b8 7cf9 cfbc dab6 35bc
000003a0: 18bd e6bd c5c2 a0bd 10ed 0b3c 10e3 d7bc
000003b0: df66 36bd dece f6bb 5b71 6dbc d5ef d33b
000003c0: 0776 1abd d71c 81bd b292 bbbd d722 a0bd
000003d0: 84e3 51bd 6672 dabd 4638 73bd 7aa6 133e
000003e0: 9575 0f3d f1db d33d 76ec 4e3d 3ad4 c3bd
000003f0: b012 f2bd b423 d13d 0b67 4bbd b6fc cc3c
0.036245584 -0.02348257 0.015234339 -0.096095756 0.025680263 0.05101045 0.010395733 0.050764944
0.055667643 -0.0060469816 -0.0058840686 0.0003157565 0.0014918869 -0.021617554 0.018374577 0.05108998
0.029277636 0.041801866 0.027082685 -0.05704181 -0.036105637 -0.010048832 0.0025446895 0.028624797
-0.067720875 -0.10616118 -0.07324841 0.05965845 -0.07168804 -0.038023334 -0.0028643575 0.017955707
0.028555064 0.1529632 0.06353691 0.060431242 0.069124356 -0.0042665997 0.059250716 -0.0666494
0.0072405967 -0.05962547 0.07709825 0.07074235 -0.012807551 0.11316063 0.0033688743 0.05973943
0.10090776 -0.07609375 -0.03522716 0.07286807 -0.12514363 0.06874392 -0.03796731 -0.08516849
-0.03418937 0.10645209 -0.01144531 -0.0017975613 0.10500233 0.07448699 -0.03564431 0.0056831404
0.03955225 -0.025495647 0.0003032226 0.09042705 0.05616551 -0.024828387 0.047958944 0.13871506
-0.003939161 0.08446247 0.0061949915 0.0166539 0.080576055 -0.10099997 -0.02784548 -0.009026453
0.048961822 -0.03695539 -0.048843537 0.043437503 0.009811412 -0.04921544 -0.028603684 -0.04796004
0.09387189 0.0034575604 0.0011245332 0.06186624 -0.039249446 -0.024954349 0.0043851607 -0.05951011
-0.07663906 -0.0075092698 -0.07914954 0.007993689 0.07460764 0.06513864 0.16171698 0.09935301
-0.025552003 -0.020715816 0.04549164 -0.12957643 0.04357755 -0.004916601 0.110127844 -0.12819701
0.02065178 -0.04577965 -0.02751335 -0.058234286 0.048916522 -0.05072633 0.107036285 0.019789971
-0.03211224 -0.0146671785 -0.032480795 0.0054014595 0.0027932504 -0.10078558 -0.096225046 0.071544886
0.00045094834 -0.12868007 0.04223808 -0.0046759644 0.077041514 0.04590381 -0.07076257 0.059002507
0.03865386 0.03235319 0.02726998 0.1373725 -0.051068366 0.03264891 -0.051875025 0.032945406
-0.045048222 0.022374788 0.019563215 -0.016934933 -0.11187507 -0.018755494 0.039759167 -0.032067575
0.021352107 -0.057186604 -0.039839912 -0.0444573 0.053052116 -0.033752 -0.011547091 0.07024906
-0.111111 0.14303063 -0.050575186 -0.025327059 0.074408755 0.008253893 -0.0033560994 -0.009412661
0.048648298 -0.07067555 -0.051667694 0.09376944 0.039646965 -0.043853387 -0.09848073 -0.11395124
0.05085067 0.10373204 0.07014135 -0.009349731 0.08242702 0.12094162 -0.039844014 -0.13270211
-0.0313909 -0.027674554 -0.07803743 -0.044223852 -0.014366683 -0.07396185 -0.06365808 0.08824007
0.04568169 -0.08015393 0.1551896 0.078499205 0.0395793 -0.1116426 -0.019897234 0.052961268
0.041033696 0.0059991465 -0.003511332 0.025537547 0.053169113 -0.0032337094 -0.028808825 0.035696313
0.073398046 -0.051087897 -0.018705279 -0.037409924 0.053004388 0.11120181 -0.0050980626 0.14307623
-0.0017038009 -0.012460572 -0.08723223 0.04054022 -0.053756136 0.05082406 -0.032969058 -0.12284756
0.118304566 0.00659812 0.025892794 -0.030992871 -0.011996657 -7.2177325e-05 -0.025387518 -0.0110909585
-0.112665355 -0.07849649 0.008540407 -0.026353389 -0.0445317 -0.0075319847 -0.014492358 0.006467799
-0.037710216 -0.06304329 -0.09158839 -0.07819145 -0.051242366 -0.10666351 -0.05937984 0.14418975
0.035024244 0.10344685 0.050518475 -0.095619634 -0.118199706 0.10211888 -0.049658816 0.025022846

network_body.observation_encoder.processors.0.normalizer.running_mean f4 [25]
00000000: fcc3 173f 2b2f f73d 0000 0000 0dac 923e
00000010: c6f1 3d3f 4042 193f 7b39 303d 0000 0000
00000020: 2974 b73e ac42 3d3f d5e7 063f 4aa6 263d
00000030: 0000 0000 525b dd3e 7113 4e3f 201b f23e
00000040: 993b f13b 0000 0000 e60f 053f 472c 4f3f
00000050: 2ddf b93e 776e c63b 0000 0000 7e83 213f
00000060: 99f2 603f
0.59283423 0.120695435 0.0 0.2864689 0.7419704 0.59866714 0.043023568 0.0
0.3583081 0.7392986 0.526975 0.04068593 0.0 0.43233734 0.80498415 0.4728632
0.007361841 0.0 0.51977384 0.80926937 0.36303082 0.006055649 0.0 0.63091266
0.87870175
