Assets/Training/results/Run 69/DroneBehavior/DroneBehavior-1525757.onnx (onnx, 704152 bytes, 23 tensors)

115 f4 [25]
00000000: 037e fb3e 6d8d a63e ab39 543a 4f70 e73e
00000010: 2271 813e a9ea fa3e 73a5 4f3e ab39 543a
00000020: 3e71 f53e f0b6 803e 939e ff3e 4c0f 4a3e
00000030: ab39 543a c6a1 fd3e a5ff 753e fba3 ff3e
00000040: c121 af3d ab39 543a 22d0 ff3e cb53 703e
00000050: c81e f63e 443c 9f3d ab39 543a 7afd f63e
00000060: f8e4 543e
0.49119577 0.32529774 0.00080957514 0.45202872 0.25281626 0.49007156 0.20277958 0.00080957514
0.4793796 0.2513957 0.4992567 0.19732398 0.00080957514 0.49537486 0.24023302 0.49929795
0.0855136 0.00080957514 0.4996348 0.23469464 0.4807036 0.07775167 0.00080957514 0.48240262
0.2079047

118 f4 [25]
00000000: 0a7e fb3e 9e8d a63e ab39 543a 4f70 e73e
00000010: 2471 813e 4a92 f93e 3e77 463e 88eb b33b
00000020: 0322 f43e 0f4b 833e 3aa4 fd3e eb7b 643e
00000030: ab39 543a ed7b f83e 8afe 6f3e cd58 fd3e
00000040: 46c4 a23d 88eb b33b c1d9 fc3e c4d6 793e
00000050: a48c fd3e f3e3 e83d ab39 543a e564 fe3e
00000060: 9a1b 503e
0.49119598 0.3252992 0.00080957514 0.45202872 0.25281632 0.48744422 0.19381425 0.005490724
0.476822 0.25643203 0.49539357 0.22312896 0.00080957514 0.48532048 0.23436943 0.49481812
0.079475924 0.005490724 0.49384883 0.24398333 0.49521363 0.11371603 0.00080957514 0.4968635
0.20323029

121 f4 [25]
00000000: ff92 f33d 10b1 f73d ab39 543a 5867 2c3e
00000010: f90a 9b3d e14d f23d a073 4a3c ab39 543a
00000020: c295 f33d 8809 523d b35a db3e 8fe5 213c
00000030: ad83 693c 5f72 db3e b72d 043e 3554 de3e
00000040: 132d 4f3c 6f8e d23b 3b63 de3e 59a2 163e
00000050: 3554 de3e 132d 4f3c 6f8e d23b 3b63 de3e
00000060: 59a2 163e
0.11893272 0.12094319 0.00080957514 0.16836298 0.07570452 0.118312605 0.012356669 0.00080957514
0.118937984 0.05127862 0.42842636 0.009881391 0.014252585 0.42860696 0.12908064 0.4342362
0.012645024 0.006425671 0.43435082 0.14710368 0.4342362 0.012645024 0.006425671 0.43435082
0.14710368

124 f4 [55]
00000000: 43a1 bd3c 5c41 f63d ab39 543a 45a5 fa3d
00000010: 0652 463d 949b 813c dabb d93d ab39 543a
00000020: a313 dc3d 4dc2 0e3d bcae 9a3d dabb d93d
00000030: ab39 543a d106 053e 12cc 5a3d 11e2 8b3c
00000040: 7482 5f3c ab39 543a 9305 b33c 578d 213c
00000050: 3b96 ab3e 7482 5f3c f132 093c 4fbb ab3e
00000060: 1e04 bd3d 001f 853c ab39 543a 6939 543b
00000070: c0bc 873c 2cb5 1e3c 83a5 a03e ab39 543a
00000080: 9542 e73b 96ad a03e df6c dd3d 17bb 253d
00000090: ab39 543a b71e 853c 588e 323d 6c30 9b3c
000000a0: 96a5 c03e ab39 543a 1d64 983b 24a8 c03e
000000b0: 2762 0a3e 9feb 2b3e ab39 543a f2e0 d03b
000000c0: 8109 2c3e f0fd 4b3d 9feb 2b3e ab39 543a
000000d0: f2e0 d03b 8109 2c3e f0fd 4b3d
0.023148185 0.12024185 0.00080957514 0.12238554 0.048418067 0.015821256 0.10631533 0.00080957514
0.10745933 0.03485327 0.07552859 0.10631533 0.00080957514 0.12990882 0.053417273 0.01707557
0.013641942 0.00080957514 0.021853244 0.009860358 0.33513054 0.013641942 0.008373962 0.33541343
0.09229301 0.016250134 0.00080957514 0.0032382852 0.016569495 0.009686749 0.31376275 0.00080957514
0.0070574977 0.31382436 0.10811781 0.040461626 0.00080957514 0.016249998 0.04359278 0.018943988
0.37626332 0.00080957514 0.0046506063 0.3762828 0.13514005 0.16789101 0.00080957514 0.006374472
0.168005 0.04980272 0.16789101 0.00080957514 0.006374472 0.168005 0.04980272

127 f4 [25]
00000000: 11e6 873c 7317 053e ab39 543a 5522 063e
00000010: c2b4 5f3d 014d 033c a076 4a3d ab39 543a
00000020: 2a18 4d3d baf2 d93c e560 ab3d a076 4a3d
00000030: ad83 693c fdc3 c83d 909a 833d 54d6 0a3d
00000040: a076 4a3d 6f8e d23b 2bad 763d 142a 113d
00000050: 54d6 0a3d a076 4a3d 6f8e d23b 2bad 763d
00000060: 142a 113d
0.016589196 0.12997226 0.00080957514 0.13099034 0.054615743 0.008013965 0.049429536 0.00080957514
0.050071873 0.026604999 0.083680905 0.049429536 0.014252585 0.09803007 0.06425965 0.033895805
0.049429536 0.006425671 0.06022374 0.03544052 0.033895805 0.049429536 0.006425671 0.06022374
0.03544052

130 f4 [6]
00000000: 0bb4 763e 0602 5a3d 0bb4 763e 0602 5a3d
00000010: 0bb4 763e 0602 5a3d
0.24092118 0.053224586 0.24092118 0.053224586 0.24092118 0.053224586

133 f4 [3]
00000000: 45b5 6441 f66f 323f d671 7b41
14.294255 0.6970209 15.715292

action_model._continuous_distribution.log_sigma f4 [1, 3]
00000000: bef1 463c 5519 e3bc 0151 393c
0.012142597 -0.02772204 0.011310817

action_model._continuous_distribution.mu.bias f4 [3]
00000000: bcb9 be3b 7295 d33b c5ac 0d3d
0.005820481 0.0064570243 0.034588594

action_model._continuous_distribution.mu.weight f4 [3, 256]
00000000: c45f bf3b 9bf6 6abc 8072 c53a 82e7 62bc
00000010: 1385 c23b dc83 74bc 4c9f 24bb 3507 2abc
00000020: 42eb 63bc 7006 1c3a eead 8dbc 4c46 7dba
00000030: e162 273c 902b 8dbb cf7e ad3b e48b 01bb
00000040: 6e9b 59bc 454c 0e3b 6272 17bc eaf6 28bb
00000050: f487 adba 237f 43bb d954 12bb 8477 2cbc
00000060: 358a 843c 7949 62ba a0bd 22bc a49f 0bbc
00000070: 1ce6 06bb cdd4 90bb 38ef b6ba fbf8 c4bc
00000080: facf 65bc 49dc 26bc 5561 a73c e710 543c
00000090: f489 0ebc db0e 9eba c4ca e13b 6d22 62bc
000000a0: c6be 303b c6dd 913b da22 7ebc 4e2d c3bc
000000b0: 8b2b e43b c306 85bc b672 12bc 268f 6fbb
000000c0: 3c9a ffbb c473 ca3b 3635 8b3b b5a6 17bc
000000d0: 0fb6 dbbb a372 1dbc e501 f239 bfa2 5eba
000000e0: 540b 0ebc 800e 2bbc 3054 68bb e71f 313b
000000f0: f0b9 f539 e07c 1f3c fedf 8a3b 36bd e2bc
00000100: 68db 073c 27be dabb 34b7 b33a c9ae acb9
00000110: 0fdc 903a 231e 123c 4ef0 e5ba 5f0a aabc
00000120: ae7c 16bb 36a6 48bc cf10 eeba a929 a7bb
00000130: 5e5c d9bb 786b 773b 3f3b a7bb 399e a3bc
00000140: 5823 19bc dd5b b9bc b726 373c 8e2b 83bc
00000150: 3ea1 9b3b 8bbe 43bb 4d2f c03c 72ea 3abc
00000160: 3009 94ba 3696 4ebc 52ba b1bb 1a88 b8ba
00000170: c26c 8cbc ca22 d43b 4b75 7a3b 2c70 afbc
00000180: fc3d 49bc be91 f73a a014 de3a 95e1 4a3b
00000190: 00f3 b5bc 0628 ebbb 3385 22bc 713f 563c
000001a0: c8f2 8b3b d848 d63b da37 86bb c506 4ebc
000001b0: 820e 3fbc 2923 88bb b5f7 b4bc 1365 47bb
000001c0: 62d1 1f3b 5ca6 5639 7b17 bcbb bb9b 72ba
000001d0: 1d94 d63b d2c0 6b39 3c86 273b 4f63 01bc
000001e0: cbbf 21bc b7b7 7238 fe25 3dbb 3bc3 373b
000001f0: 5edb b8bc 9828 8a3c 6353 b13a e855 5b3c
00000200: 8546 dd3b 5706 bcbc 129e b73b b8f8 e5ba
00000210: 701e 40bb 6a65 5e3b 0f79 8abc 9134 7b3c
00000220: 4b29 8dba 54e9 6f3c e3b7 0f3c 6bec 30bc
00000230: 8c41 723c 15dc 1dbc a1b7 38bc 0261 18bc
00000240: 5510 d33a 47d7 f2bb 3b8a 29bc 83f3 b438
00000250: 7d31 70bc a08c e1bb d06f d3bb 06a7 35bb
00000260: 3ab4 b13b 60aa 87bc be97 2b3c 05a1 a8bc
00000270: 87dd 86bc 2275 58bc 9ac6 49bc dedb 28bc
00000280: 8444 0fbc 9092 c0bc c013 d83b 35cb 373b
00000290: d8ff 583c f001 40bb 6b36 c7bb 99f4 30bc
000002a0: fdce 3ebc 1f38 353b 69f7 9dbb 8378 75bb
000002b0: ce37 23bc c0a4 71bc 6797 bfb9 6194 94bb
000002c0: 2435 5ebb e559 673c ee3b 04bc 745b a33c
000002d0: fc38 96bc 5dc1 063c a93c b8bb 94b7 6f3a
000002e0: 1ee5 93bc b623 3d3c bcb4 58ba 021a a53b
000002f0: 6de1 483b f2e6 85bc 92bc 693b 81a0 11bc
00000300: 7667 023b cb3b d6bb 1670 e7ba d475 35bc
00000310: a66b 333b 1aa2 98bb caac deb9 e99f 773b
00000320: 1ad3 1b3b df13 41bb 6982 9abb e110 053c
00000330: cbd5 28bb 3eaa 8dbc dc9f 36bb df4b ebba
00000340: 19df fa3b eda3 c9bc a521 dbbb 9cae 2b3c
00000350: 4d1c 2abc eaed 22bc d8e2 25bc b6d3 ce3b
00000360: f48f 4cbc f416 523b cb21 f23c 4ef3 cdbb
00000370: 9b01 f6bc fddf 343b 0fc0 cb3b 201f e5bc
00000380: d71d 5f3b cb87 80bc 6629 20bc 2dad d4b9
00000390: 6783 04bc e716 70b9 15ed 1cbc db57 a7bc
000003a0: 6e65 7d3b 5c4b abbb 4c98 b6ba b2c6 babb
000003b0: 82b4 983c 8989 2abb f0a2 b2bc 4d93 813b
000003c0: f999 033c da85 28bc 92f9 81bb 9887 6cbc
000003d0: 4794 9bbc d95a 303b 46b1 6dbb 583c d3ba
000003e0: b666 39bc eabc a3bc 0f1c 17bc e6bc d3bb
000003f0: 7c56 2fba 2b29 a2bb 6e7b 62bc 1960 a4ba
0.0058402736 -0.014341022 0.0015064031 -0.013849141 0.005936274 -0.014924016 -0.0025119362 -0.010377695
-0.01391107 0.0005951887 -0.01729485 -0.0009661659 0.010216446 -0.0043081716 0.005294658 -0.001976722
-0.013281686 0.002171294 -0.00924358 -0.0025781938 -0.001323937 -0.0029830418 -0.0022328405 -0.010526542
0.016179183 -0.0008632164 -0.009932905 -0.008521948 -0.0020583933 -0.004419899 -0.0013956791 -0.024044504
-0.014026636 -0.010184356 0.020432154 0.012943483 -0.008699883 -0.0012058871 0.0068906266 -0.013802153
0.0026969179 0.0044514863 -0.015511239 -0.023825314 0.0069631985 -0.016238576 -0.008938482 -0.003655383
-0.0078003686 0.006178351 0.0042482866 -0.009256055 -0.0067050527 -0.009609851 0.00046159248 -0.0008492879
-0.008669693 -0.010440469 -0.003545057 0.0027027072 0.00046868576 0.009734362 0.0042381277 -0.027678113
0.008292057 -0.0066755 0.0013711215 -0.00032936622 0.0011051911 0.008918318 -0.001754293 -0.020756898
-0.0022962498 -0.012246659 -0.0018162968 -0.005101402 -0.0066333255 0.0037753265 -0.005103498 -0.019972907
-0.0093468055 -0.022626812 0.011178664 -0.01601198 0.004749446 -0.002986821 0.023460055 -0.011408435
-0.0011294242 -0.012609055 -0.0054238224 -0.0014078647 -0.017141704 0.0064738737 0.0038216885 -0.021415792
-0.012282845 0.0018888039 0.0016943403 0.0030957211 -0.022210598 -0.007176402 -0.0099194525 0.013076649
0.004270885 0.0065394454 -0.0040960135 -0.012574856 -0.011661174 -0.004154582 -0.022090772 -0.0030425235
0.0024386276 0.00020470604 -0.005740104 -0.0009254773 0.006548418 0.00022483178 0.0025562188 -0.007897212
-0.009872387 5.7868394e-05 -0.0028861756 0.002803995 -0.02256554 0.01686506 0.001352888 0.013387181
0.0067527913 -0.022952242 0.0056035602 -0.0017545437 -0.0029315017 0.003393496 -0.016903428 0.015332357
-0.0010769753 0.014643032 0.008771869 -0.010798554 0.014786135 -0.009634991 -0.011274249 -0.009300472
0.001610289 -0.007410917 -0.010347898 8.6284264e-05 -0.014660236 -0.006883219 -0.006452538 -0.0027717962
0.005423096 -0.016560733 0.01047319 -0.020584593 -0.016463054 -0.01321152 -0.012315417 -0.010306327
-0.008744363 -0.023507386 0.0065941513 0.0028044705 0.013244592 -0.002929803 -0.006079485 -0.010800504
-0.01164603 0.002765186 -0.0048207534 -0.0037455864 -0.009962035 -0.014748752 -0.00036543162 -0.0045342897
-0.0033906186 0.014120554 -0.008070929 0.01994107 -0.01833772 0.008224812 -0.0056224656 0.0009144482
-0.018053588 0.011544159 -0.00082666776 0.0050385008 0.0030651942 -0.016345475 0.0035665375 -0.008888365
0.0019898093 -0.0065378896 -0.0017657306 -0.011075456 0.0027377396 -0.004657996 -0.00042471878 0.0037784523
0.002377695 -0.0029461307 -0.004715253 0.0081217 -0.0025762196 -0.017293092 -0.002786628 -0.0017951688
0.00765599 -0.024614299 -0.0066873604 0.010478642 -0.010382724 -0.009944418 -0.010124885 0.006311859
-0.012485493 0.0032057138 0.02955713 -0.0062851077 -0.030030062 0.0027599328 0.0062179635 -0.027968943
0.0034044886 -0.015689751 -0.009775495 -0.00040564817 -0.008087969 -0.00022896715 -0.009578009 -0.020427635
0.0038665193 -0.0052274894 -0.0013930886 -0.005699956 0.01864076 -0.0026021919 -0.02180621 0.003954327
0.008032315 -0.010285819 -0.0039665187 -0.014436625 -0.018991603 0.0026909618 -0.0036268993 -0.0016116006
-0.011315992 -0.019987542 -0.009222998 -0.0064617274 -0.00066886074 -0.0049487553 -0.013823373 -0.0012540846

network_body._body_endoder.seq_layers.0.bias f4 [256]
00000000: e55f 7fbc ac82 1abd 64a8 b93b d876 f8bb
00000010: c56d 9bbc 58de 153c 29b9 17bc aba9 06bc
00000020: ba79 c7bc d498 01bd a0e6 32bd f25a f3bc
00000030: 2ab9 f1bc 77b3 2bbd 85d6 893b 92c0 09bd
00000040: 29b4 8cbd bec7 1d3c c8dd 9e3c 45c9 96bc
00000050: 5d91 c339 d494 6bbc fa2c f7bc 6cdd f0bc
00000060: 511e 6dbc 4ab8 18bd 7bac 823c 81c0 fa3b
00000070: 4511 ccbc 1b43 a1bc 81eb 8e3b d173 2bbb
00000080: ddc0 27bd 3b73 5f3c c0f3 0dbd 35b3 d3bc
00000090: de51 a5bb e8ba 31bd 5e91 a5bc 56e3 9abb
000000a0: 7c85 bbbc 2804 faba 0011 4fbb 7e1c f5bc
000000b0: 40cd 54bd 7c8c 58bd d72b 98bc 09f5 37bd
000000c0: a3cc 76bc e0f9 b3bc c352 30bd 1410 14bd
000000d0: 833e 27bd 6b70 febc ba6f 16bc 2e7c a7bb
000000e0: ec89 6cbd 7f25 dcbc 6b40 5bbd 35d9 9cbb
000000f0: ce16 a4bb 9be7 31bd def9 973b 50d0 e6bb
00000100: 3b85 84bc 367e dfbc c982 d8bb 69aa 98bc
00000110: 8596 4fbc 4846 33bd 13f7 4cbd f916 2cbc
00000120: 1014 9abb fb95 01bb 3e72 193d a295 8e3c
00000130: 8663 2fbb f7d9 c2bc fdf0 0f3c a830 d9bc
00000140: e344 4abc 613f bd3b 4b48 7a3b 8014 44bd
00000150: 9bbe fdbc 26c3 d13c 6d13 23bd 14c2 15bd
00000160: df84 c93c 2566 093d c87a 95bd 11be 99bc
00000170: 9627 853c 8d18 c8bc ac60 5ebd a5f7 f73c
00000180: 38af ddbc 46c3 85bc d651 f53b c879 a8bc
00000190: 28a7 a23a 72f0 893c 6939 07bc bcad d5bc
000001a0: b2a0 a7bd 7401 1f3d 5979 a4ba 0262 9abb
000001b0: cd07 dabc f75a 2fbd a40a c63b c870 14bd
000001c0: 0961 f1bc 8564 efbc fa29 adbc 5458 2ebd
000001d0: fcbe a1bc 6039 b639 9976 37bd f7a9 18bd
000001e0: 4444 2cbd 8534 d4bc 29e1 48bc 5731 ef3b
000001f0: f1cc 71bb dea2 23bc 6a17 8bbc a34e 2a3b
00000200: ebcf 07bc 7cb4 92bc f7f1 24bd f18f f3ba
00000210: 2cc9 a9bc 0910 85bc 12e1 abba 25d9 5d3c
00000220: 9661 1fbd 4cd9 07bd ce42 15bd 8cb8 f2bc
00000230: e047 d5bc e021 fe3b 2f61 6bbd 7aa1 b43c
00000240: 9dcf 7fbd 82a9 68bd d0df c7bb db0d debc
00000250: 803d 27bc d017 02bd 88cf 61bd 82a8 1dbb
00000260: 0f94 f4bc b157 873c d787 42bb 6576 d6bb
00000270: 686a 833c e237 09bd 10a3 40bd acff 3a3b
00000280: e80f 853c efc3 39bd f579 8cbc 6f71 26bd
00000290: 2a0e 19bd 5c17 283c 0abf c9ba e61c cbbc
000002a0: 3384 363c 7544 20bd ae27 4cbd 0864 57bd
000002b0: 3cb2 cbbc f1ca 2abc 8e79 9fbd 7ed8 33bc
000002c0: 40a3 00bc 7845 813c 7450 f03b 1728 66bd
000002d0: 5c06 48bc 00fe b6bc cec3 17bd 9e33 7cbd
000002e0: 7401 9b3c 2edb f2bc 38ae b1bc b4c9 c8bc
000002f0: 37b6 acbd 3f51 2bbc 4b2d b93c 5b8e 05bd
00000300: 0238 d63b ac5c 273a 2f95 b1bc e3a6 d73b
00000310: 2c8e ddbc 2883 a9bd e9e8 d3bc b850 57bc
00000320: a0f7 90bc 077f f73b cbd0 cdbc 957b 1fbd
00000330: 99ec 7fbc 0eba 54bd d10c f3bc 3a8d f0bb
00000340: 3f92 06bd 8612 28bd ede0 b3bd 16f1 fc3b
00000350: 83b8 efbc dc1c 1abd c03e 94bc e7af eebc
00000360: 99d6 d6bb 932f 21bb da78 f43b f386 003d
00000370: 8e06 d1bc 6e46 00bd 8d4f 26bd ce68 9cbd
00000380: bbb7 11bd 7f7a a9bc 04e6 0dbd 9fac a6bc
00000390: ea74 4bbd 1f08 593c d71d 62b9 cad4 81bb
000003a0: b5ca 16bd 3f1b 9ebc 6498 33bd cae7 01bd
000003b0: 9ca9 b93b 926b e5bb eaf8 07bd 98b5 03bd
000003c0: 092d 65bc 5b83 3bbb 9ff2 2d3d a473 60bc
000003d0: fbfe 76bd bb74 1cbd 31e0 eebc d50e c6bc
000003e0: 58f2 cf3b 885b bdbb 7aee 6bbd ebb5 c7bc
000003f0: e3f2 73bb 9ee4 afbc 8c09 65bd 5108 41bd
-0.015586828 -0.037722275 0.0056658257 -0.0075825267 -0.01897324 0.009147249 -0.009260454 -0.008219163
-0.024350036 -0.03163989 -0.043676972 -0.029706452 -0.029507238 -0.041919198 0.004206481 -0.033630915
-0.068703 0.009630142 0.019392863 -0.01840652 0.00037301602 -0.014378745 -0.030172814 -0.029402457
-0.01447256 -0.037285127 0.015951386 0.007652343 -0.024910579 -0.019685319 0.0043615703 -0.0026161561
-0.040955413 0.013638313 -0.034656286 -0.025842289 -0.0050451597 -0.04339114 -0.020210918 -0.0047268076
-0.022890799 -0.0019074725 -0.0031595826 -0.029920813 -0.051953554 -0.05286835 -0.018575592 -0.044911418
-0.015063438 -0.021969736 -0.043047678 -0.036148146 -0.0408311 -0.031059464 -0.009181911 -0.005111239
-0.05774872 -0.026873348 -0.05352823 -0.0047866353 -0.0050076013 -0.043433767 0.004637941 -0.0070438758
-0.01617681 -0.027281862 -0.0066073877 -0.018635945 -0.012670164 -0.043768197 -0.050040316 -0.010503524
-0.0047020987 -0.0019773233 0.037462465 0.017405335 -0.0026762201 -0.023785574 0.008785483 -0.026512459
-0.012345525 0.0057753776 0.0038190063 -0.047871113 -0.030974677 0.02560575 -0.039813448 -0.03656204
0.02459949 0.03354468 -0.07298809 -0.018767389 0.016254228 -0.02442577 -0.054291412 0.030269453
-0.02706109 -0.016328465 0.0074865622 -0.020565882 0.0012409436 0.016838286 -0.008253434 -0.02608382
-0.08184947 0.038819745 -0.0012548371 -0.0047113905 -0.026615048 -0.04281136 0.006043749 -0.03624037
-0.029465215 -0.029222736 -0.02113818 -0.042564705 -0.019744389 0.00034756493 -0.044790838 -0.037271466
-0.04205729 -0.02590395 -0.012260714 0.007299583 -0.0036895836 -0.009987561 -0.016978938 0.0025986813
-0.008289318 -0.017908327 -0.04026982 -0.0018582327 -0.020725809 -0.016242998 -0.0013113341 0.013540541
-0.038911425 -0.033166215 -0.036440663 -0.029629014 -0.02603525 0.007755503 -0.05746573 0.022049654
-0.062453855 -0.05680228 -0.0060996786 -0.027106216 -0.010207534 -0.03176099 -0.055129558 -0.0024056737
-0.029855756 0.016521307 -0.0029683018 -0.0065448754 0.01604195 -0.03350056 -0.04703051 0.002853374
0.016242936 -0.045352872 -0.017147997 -0.040635522 -0.037367024 0.010259476 -0.0015392017 -0.024794053
0.011139917 -0.039127786 -0.04984253 -0.05258563 -0.024865262 -0.010424362 -0.077868566 -0.010976909
-0.007851422 0.015780196 0.0073338095 -0.056190576 -0.012208547 -0.022337914 -0.03705197 -0.061572663
0.018921591 -0.029645529 -0.02168952 -0.024510242 -0.08433192 -0.010456382 0.022604605 -0.032606464
0.0065374384 0.00063843536 -0.021677582 0.0065811737 -0.027045332 -0.08276969 -0.025867896 -0.013141803
-0.017696202 0.0075529846 -0.025123974 -0.038936216 -0.015620374 -0.051935248 -0.029669197 -0.0073410543
-0.032854315 -0.04103329 -0.087831356 0.0077191694 -0.029262787 -0.03762518 -0.018096328 -0.029136611
-0.0065563438 -0.0024595007 0.0074606957 0.031378698 -0.02551582 -0.031317167 -0.04060321 -0.076371774
-0.03557561 -0.020688294 -0.034643188 -0.020345984 -0.049672045 0.013246565 -0.00021564156 -0.003962134
-0.03681441 -0.019300101 -0.043846503 -0.031715192 0.005665971 -0.007001349 -0.033196367 -0.032155603
-0.013987788 -0.002861223 0.04246771 -0.013699446 -0.060301762 -0.03819726 -0.029159637 -0.024176994
0.0063460283 -0.0057787336 -0.057600476 -0.024378737 -0.003722363 -0.021471318 -0.055917308 -0.04712707

network_body._body_endoder.seq_layers.0.weight f4 [256, 164]
00000000: c4e1 423e d81e 1f3d a13c 243d b354 21bc
00000010: 63aa dbbd 1c76 993b 6ea3 b03c 6db1 c2bc
00000020: b38b 76bd 7db4 41bc d332 e03c c1d1 1e3d
00000030: 829b b73d 74cc 2bbd 7edb b73d 7bdc 93bd
00000040: 5e60 333e ad10 32bd b93e 7e3d ae2d b63d
00000050: 3ffb 58bd 63bc 043e 2590 9ebd 639e abbd
00000060: 8e7c 9d3d 3561 4cbd b660 b4bd e682 0fbe
00000070: c9aa bebd 4c10 b3bc b2ab afbd 735d bfbd
00000080: 1545 3a3d c004 ee3d e50b 9f3d 7636 69bc
00000090: b97d e6bc ae7e 383d 519d c53d e12a 593d
000000a0: 152d f03d 5902 8e3d 531e 963d d0cf 17be
000000b0: 6207 d23c 5f9a 873c 819e 903d 77d6 fd3d
000000c0: be7a b63d 435c a4bd 8aec 24be 07f5 e03c
000000d0: a459 cfbc 74a0 a5bd 8e7d 30bd 331f 0ebe
000000e0: 1d9e 3cbd 67d6 f13c d9a4 fe3c 290f 20bd
000000f0: 72b1 2bbb b44a a5bd a302 b23d 3df1 96bd
00000100: 9e4f 963d 43b1 b73d 8ab6 88bc bab2 c8bc
00000110: dbe5 f5bd f112 253b 6ecb 88bd 09ab 89bd
00000120: 3955 cabd 0048 c23d 5817 023d aafc d63c
00000130: 2101 e83d c84a 0cbd 7344 24bd 1ac3 063c
00000140: 1f8a b2bd d0f1 10bd f406 863d 30e6 c73d
00000150: 150b e7bd 3b15 92bd 179b b53c ec05 ac3d
00000160: acdb a93d 25fe d73d e6ad cabc 31fd 843c
00000170: 9c20 12be 744f 933d 4281 da3c 2ec8 20be
00000180: 50ed 1ebd 872e 31bd 5e12 49bd 05c4 8bbd
00000190: 9a69 abbc 4e93 a9bd ffca b1bd aa50 e93b
000001a0: 9709 d6b7 5013 1cbd 7c7e 9d3d f696 4a3d
000001b0: 1944 e13d 9072 f7bc 3208 bdbd 7c79 f53d
000001c0: 9e2d 413d 3ffb 923c 6499 cf3d 2503 38be
000001d0: 874d ca3d a7ef ef3d 3d45 7b3d a48f 053d
000001e0: 8073 c6bd dfcc d1bd e308 8c3d 5f05 0d3d
000001f0: f98e 373d ab9c 093e c619 7e3c bceb 55bd
00000200: e666 533e 2e40 b0bd 8258 0f3e 7120 0d3d
00000210: dba3 5d3c 8d1b 1f3d 3fd8 9abd 4a8f 2dbd
00000220: 4d85 e2bd 4482 893c ed81 023c e8ee cebd
00000230: e2f1 21bd dfe5 7fbd f66c a13d 2cb8 133a
00000240: 0a0e c0ba a092 743d 3fd4 063c 5f38 69bc
00000250: 727e 8d3c 96d3 2e3d cb84 b2bc 4b2d 903d
00000260: cf6c b3bd 5476 a4bc bac2 18bd 72f6 343e
00000270: 9607 a7bd 62db ec3c 4791 a93d c279 053e
00000280: f5f9 47bd 243b e5bd 7703 ec3d 90e5 0f3d
00000290: 5435 493e e925 aeba 8aab 85bd 8107 5fbd
000002a0: 0eef 32bb b32e 033d 438a 863d de47 e9bc
000002b0: 7f30 613d 4b1d f6bc 85c5 913d 4269 1c3e
000002c0: e4a3 d2bd d89b fa3c 91dd fe3d f4c3 a7bd
000002d0: 4657 273d a5b6 613d ac1a 523c 77b5 11bd
000002e0: 5829 123d 1fec b13c 995e bdbd 379f 9bbd
000002f0: 16cf 13bc 983e 213e 3c0e 8e3d 2fb0 473c
00000300: 5b86 53bd 7666 ca3c a3c9 91bb decc 8e3c
00000310: d674 9f3c 83c6 9e3d 764f ae3d 015b 14bd
00000320: 18eb 053b d8ca c03d 42c2 9e3d 2144 c2bc
00000330: 8470 9cbd 871d 993c d496 fd3d c31f 8c3d
00000340: ee17 7abd 8178 fabb 6d8f ab3c 2012 e03d
00000350: 6b6e 4dbd d944 dc3d 77a7 31bc cf9f 223e
00000360: 3115 98bb f225 b5bd 7bf0 2d3d bc74 7cbd
00000370: c220 523e 5e02 a13c 6fbc dd3d 5875 93bc
00000380: 11c7 033d ee61 d93b 8af1 8b3c f7f0 a3bd
00000390: 62c3 143d 3638 c4bd 4c42 17be b11c 9d3d
000003a0: d734 ddbc c277 12bd 6075 f9bd 140e bebd
000003b0: 573b dbbc a478 443d 49ee 79bd b38b cabc
000003c0: 1630 433d f1fd 403d bcd6 a4bc 78c2 373d
000003d0: 99f2 4cbd db36 aabc 6309 4dbe 8495 b03c
000003e0: 1879 92bd aa24 8fbc bb8c 39be bfb5 15bd
000003f0: 1095 14be 99cc a43d c991 0a3e 10ce 9dbd
0.19031435 0.038847774 0.040096883 -0.009846854 -0.10725858 0.004683269 0.021562304 -0.023766244
-0.06019182 -0.011822817 0.027367985 0.038774256 0.08965208 -0.04194303 0.08977412 -0.07219788
0.1751723 -0.043472935 0.062071536 0.088954315 -0.052973982 0.12962489 -0.07742337 -0.08379819
0.076897725 -0.04989739 -0.08807509 -0.14014778 -0.093099184 -0.021858357 -0.0857767 -0.09343996
0.045476038 0.11622 0.077659406 -0.014234176 -0.028136121 0.045042686 0.09649146 0.053019408
0.11727349 0.069340415 0.07330003 -0.14825368 0.025638286 0.016553102 0.07061482 0.123944215
0.0891013 -0.0802541 -0.16105857 0.027460588 -0.025311299 -0.08087245 -0.04308849 -0.13879089
-0.046049226 0.02952118 0.031084465 -0.039076958 -0.0026198295 -0.08070889 0.08691909 -0.07370231
0.073394045 0.08969357 -0.016688604 -0.024499286 -0.12006732 0.0025188292 -0.06679426 -0.067220755
-0.09879536 0.09486389 0.031760544 0.026243526 0.1132834 -0.034251004 -0.04010434 0.008225227
-0.08717751 -0.03538686 0.06544295 0.09760702 -0.112814106 -0.07132956 0.02216868 0.08399567
0.08293852 0.10546521 -0.024741124 0.016234012 -0.14270252 0.07192889 0.026672963 -0.15701362
-0.038800538 -0.043257263 -0.049089782 -0.06824497 -0.020924378 -0.08280049 -0.086812966 0.0071202116
-2.5515254e-05 -0.038104355 0.076901406 0.049460374 0.10999317 -0.030205995 -0.09230079 0.11986062
0.047162645 0.01794207 0.10136679 -0.1796995 0.098780684 0.11715632 0.061345328 0.03260769
-0.096899986 -0.10244154 0.068376325 0.03442895 0.044814084 0.1343867 0.015509075 -0.052226767
0.20644721 -0.08605991 0.13998607 0.034454767 0.013527836 0.038844634 -0.07560777 -0.04237298
-0.11060581 0.016785748 0.007965547 -0.101041615 -0.039537318 -0.06247508 0.07882111 0.0005635049
-0.0014652621 0.059710145 0.008229314 -0.014234631 0.017272208 0.042682253 -0.021791836 0.07039889
-0.08760988 -0.020075954 -0.03729508 0.17672136 -0.08155744 0.028913204 0.082796626 0.13034728
-0.048822362 -0.11192921 0.11524098 0.035131037 0.1964925 -0.0013286445 -0.06526859 -0.054450516
-0.0027303132 0.032026958 0.0656934 -0.028476652 0.05497789 -0.030043265 0.07117752 0.15274528
-0.10285166 0.03059189 0.12444604 -0.08191672 0.040854715 0.055105824 0.012823742 -0.03557345
0.03568396 0.021719037 -0.09246559 -0.07598727 -0.009021541 0.15746534 0.06936309 0.012188002
-0.051641803 0.02470706 -0.004449086 0.017431673 0.019464891 0.07752707 0.0851125 -0.0362196
0.0020434316 0.094136894 0.077518955 -0.023714127 -0.07638648 0.018690838 0.12382284 0.068419956
-0.061057977 -0.0076437597 0.020942414 0.10940957 -0.05015413 0.10755319 -0.010843149 0.15881275
-0.004641198 -0.08845128 0.04246567 -0.061634764 0.20520309 0.01965445 0.108269565 -0.01800029
0.032172266 0.0066339886 0.017082948 -0.08004945 0.036319144 -0.09581034 -0.14771384 0.07671488
-0.027002735 -0.03575874 -0.12180591 -0.09280029 -0.026761694 0.047966614 -0.061018262 -0.024724817
0.04765328 0.047117177 -0.020121925 0.044863194 -0.050036047 -0.02077811 -0.20023112 0.02155567
-0.07152003 -0.017473537 -0.1812009 -0.03655028 -0.14509988 0.080468364 0.13532175 -0.07705319

network_body._body_endoder.seq_layers.2.bias f4 [256]
00000000: b00f 20bd a815 81bc c523 1ebd 1fa4 36bc
00000010: 2cdc 263c e8bd 50bc f859 09bd 2f18 10bd
00000020: bc33 08bd 6438 6c3a 584e 48bc acc3 4abc
00000030: 0a67 e2bc 67d1 91bc 824d e4bc 1229 f03b
00000040: 726f 103c c5aa 243b 81bb 01bd bd92 7bbc
00000050: 9efc e2bc 57f8 bebc b338 a1bc 3112 03bd
00000060: 4392 1dbd 2a60 ccbb 356d c3bc 7bac 49bd
00000070: 43e1 02bd d643 8cbc 96fa 4c3b fb2e 9c3c
00000080: ced8 e9bc c24e 39bd d1a9 8d3c 8a0c bd3b
00000090: fc71 163c 1159 49bc 4e08 aabc 69fe 9bbc
000000a0: 35e2 10bd b708 8bbc 330d 0fbd 33c7 bdbb
000000b0: 9a46 a73c 4f38 dbbc 0f12 07bd a3aa b53c
000000c0: 4672 9bbc 86a9 0bbc 2a40 1ebd a136 35bc
000000d0: 0f6b 87ba fab1 72bc f2b9 6fbc 08f8 a23b
000000e0: 2688 d6bc b421 de3b 5fa9 bcbb 7993 1fbd
000000f0: 063d c63b 28fb 2dbd 3289 f03b 41cc 3bbd
00000100: d73f 55ba bb29 b9bc 294c 83bc 5df1 22bc
00000110: 7d84 9cbc b039 27bc 9fe2 acbc 4427 eabc
00000120: 3661 18bd 1b2f 89bc 0624 fabb 4859 a6bc
00000130: 96f1 47bb 5eb8 8fbc 29ba 26bc e97b 1cbc
00000140: 9d36 16bd 05b6 12bd 91b1 07bd 49c5 5cbc
00000150: fbe8 5cbb e7cc eabc 452c 373c b037 cbbc
00000160: 3b42 fc3b 8c47 82bc b615 cbbc ad9b 91bb
00000170: 5d4f 81bc 6c3a d33c a03e 9cbb 6ea5 62bc
00000180: bd80 09bd 0b5e 58bd 4369 46bc 3f35 22bd
00000190: adc8 953c 73aa 183a 762e a9bc fb05 70bb
000001a0: fa9c 18bd 12cf 7b39 e1fa bbbc 787b 55b9
000001b0: 8e0c 84bc f832 a3bc 9377 a1bc 1993 3abd
000001c0: 2a28 703a 5473 19bd 749f 2fbd ab87 08bd
000001d0: 8fc3 84bc cf87 28bd 1ab5 3ebc 19ad b9bc
000001e0: 685a 333d 873a 29bd 7a5f 34bd c640 19bd
000001f0: 843a 10bd e2a9 6b3c c551 1ebb d906 3cbc
00000200: 31f4 323a 95ee 31bd 4cd3 afbb 0987 d93b
00000210: 7c1e d6bc 3be6 9e3c a36f 89bc 82c4 9cbc
00000220: 3520 febc 10c3 c6bc 26d9 0d3c 1a57 1b3c
00000230: 08ee 91bc 5dbe 33bd de0d 6439 9851 56bc
00000240: adbc f5bc a10f c9bc 92be 15bb be9a 15bc
00000250: 7eab 053b 4ec7 57bc 2b8f 0bbd e32c a7bc
00000260: dff4 0ebb 668a 29bd 31fc bbbb fb61 60bc
00000270: 3dc5 08bd b3f9 37bd 5f67 72bb b762 2fbc
00000280: 8710 e4bb 2572 10bd 6b12 f4bc c882 65bc
00000290: 3c4e 04bd d46c 90bc 0841 0ebc c3df b5bc
000002a0: 0c5a cbbc 262d e8bb 54b8 92bc 2104 c6bc
000002b0: 1d2c 56ba 2857 90bc 42d8 c5bc 471f e53b
000002c0: 6126 14bd 0633 e73b 7d4e 10bd 30fd 07bd
000002d0: 66c1 06bc 197d 543c 3bd3 c5bc 0d4b 37bd
000002e0: d929 44bd 651e f6b9 e3ab 2cbc c992 4c3b
000002f0: d387 3f3d 3073 b8bc 3244 edbc c0df 8fbc
00000300: be36 acbc 1770 d6bc 8540 b0bc 3ab7 21bc
00000310: e245 0abd 1d79 1abc 9616 11bd e933 f0bc
00000320: bfe7 b4bc c7d8 1abc 5239 08bd 0d4f 19ba
00000330: e402 5cbb 77d0 c5bc 7d53 afbc 18f9 3fbc
00000340: 9ef6 bbbc 3973 f03a 76f3 d5bc e717 913b
00000350: 9ff9 673c 9f20 09bd aa0a 20bc 6fa3 49bc
00000360: ebab 41bd 31de 373c 2675 2abd 8a96 42bb
00000370: 08ea 12bb bf3a 14bc 5bf4 14bd e73e 9e3c
00000380: 1999 5fbc da6f 34bd 3892 94bc 317e e9bc
00000390: 32e2 ed3b 83b3 693c 2378 3ebb 588d f5bc
000003a0: 5100 6f3c 9c80 15bc 3e73 6a3c 22d7 19bd
000003b0: 6c92 e9bc d8c4 3cbc 7390 b83c 103a a03b
000003c0: 8589 e8bc 235f 563c 4ca6 e5bb ec16 62bc
000003d0: f5ce b2bc 7212 77bc fdcf 04bc 3acc 2dbc
000003e0: 593b 7bbc 7786 0ebd f315 0cbd 4bf0 d0bc
000003f0: 745c e3bb dd45 123c 3bd8 edbb bbb5 2dbd
-0.03907746 -0.015757397 -0.03860833 -0.011147528 0.010184329 -0.01274059 -0.033533067 -0.035179313
-0.033252463 0.00090110884 -0.01222571 -0.012375753 -0.027637023 -0.017800046 -0.02786899 0.0073291147
0.008815633 0.00251262 -0.03167296 -0.015354809 -0.027708348 -0.023311777 -0.019680357 -0.03199977
-0.038469564 -0.0062370496 -0.023855785 -0.049236756 -0.031953108 -0.01712219 0.003127729 0.01906537
-0.028545763 -0.045241125 0.017292889 0.005769317 0.009182449 -0.0122893015 -0.020755913 -0.01904221
-0.035371978 -0.016971929 -0.034924697 -0.0057915687 0.020419408 -0.026760248 -0.032976206 0.022176092
-0.018975388 -0.008524304 -0.03863541 -0.011060388 -0.0010331589 -0.014812941 -0.014631735 0.0049734153
-0.026187968 0.00677892 -0.0057574953 -0.038959 0.006049755 -0.04247585 0.0073405737 -0.04584909
-0.0008134818 -0.022602906 -0.016027527 -0.009945241 -0.019106144 -0.010206625 -0.021104155 -0.028583176
-0.037202083 -0.016746094 -0.007633689 -0.020306244 -0.0030508987 -0.017543968 -0.01017622 -0.009551027
-0.036673177 -0.03581812 -0.033128325 -0.013474771 -0.0033708203 -0.028662158 0.011179988 -0.024806827
0.007698325 -0.015903257 -0.024790626 -0.004443607 -0.015784914 0.025784694 -0.0047682077 -0.013833387
-0.03357004 -0.05282406 -0.012110057 -0.03960156 0.018284166 0.0005823739 -0.020652037 -0.0036624658
-0.03725908 0.00024014365 -0.022946777 -0.00020359259 -0.016119268 -0.019921765 -0.019710338 -0.04555044
0.00091612583 -0.0374635 -0.042876676 -0.033332508 -0.01620653 -0.041145142 -0.011639858 -0.022665547
0.04378739 -0.04131558 -0.044036366 -0.03741529 -0.035212055 0.014383765 -0.0024157625 -0.011476242
0.00068265485 -0.04344042 -0.0053657647 0.006638412 -0.026137583 0.019396892 -0.016776865 -0.019136671
-0.031021217 -0.024262935 0.008657729 0.009481216 -0.017813697 -0.043882716 0.0002174894 -0.013080977
-0.029997194 -0.024543585 -0.0022849184 -0.009131132 0.0020396407 -0.0131700765 -0.034072082 -0.020407146
-0.0021813435 -0.041391753 -0.0057368507 -0.013695235 -0.033391226 -0.044915866 -0.0036987884 -0.010704688
-0.006959978 -0.035265107 -0.029793939 -0.014008231 -0.032301173 -0.017630018 -0.008682497 -0.022201424
-0.024823211 -0.0070854602 -0.01791016 -0.02417189 -0.00081700255 -0.017619684 -0.024150971 0.006992254
-0.036169413 0.007055643 -0.035231102 -0.033200443 -0.008224821 0.012969279 -0.024148574 -0.04474931
-0.04789147 -0.00046943422 -0.010539028 0.003121542 0.04676039 -0.022515863 -0.028963182 -0.017562747
-0.021022197 -0.026176495 -0.02151514 -0.009870345 -0.03375805 -0.00942829 -0.03542193 -0.029321628
-0.022083161 -0.009451098 -0.03325779 -0.00058482663 -0.003357106 -0.024147255 -0.021402115 -0.011717103
-0.022944745 0.0018344886 -0.026117068 0.004427898 0.014158635 -0.033478376 -0.0097681675 -0.012307032
-0.047283094 0.011222408 -0.041615628 -0.002969178 -0.0022417326 -0.009047209 -0.036365848 0.019317104
-0.013647341 -0.044051982 -0.018136129 -0.028502556 0.0072596306 0.01426399 -0.0029063306 -0.029974625
0.014587478 -0.009124901 0.014309702 -0.037558682 -0.028512202 -0.011521541 0.022529816 0.004889734
-0.028385887 0.013084206 -0.0070083495 -0.01379941 -0.0218272 -0.015080081 -0.008106229 -0.010607773
-0.015333974 -0.034796204 -0.03420062 -0.025505206 -0.0069385115 0.0089277895 -0.0072584427 -0.04240964

network_body._body_endoder.seq_layers.2.weight f4 [256, 256]
00000000: 2131 9e3b 64f6 98bc 950d a53d a274 3b3a
00000010: ff15 19bc 532a eebd 777d 4cbd d13a 40bd
00000020: dc2e 4dbd 5cb3 b8bd afcc 63bd 1b84 dbbc
00000030: 4f95 1ebd e2b7 4e3c 98f1 883d 019f 0f3d
00000040: e6c9 ea3c 3b72 b8bd b28c f6bd c300 03bd
00000050: db1e e53d 4f94 1a3e bea4 afbd 6fb4 723d
00000060: d7e6 f0bc 746c 83bd 3395 20be c4a0 653c
00000070: 1a36 02bd 4586 a8bd f46e 95bd 1da7 00be
00000080: e89b e2bc f738 46bd 8ec7 ccb8 45a1 62bc
00000090: 7d07 6cbd bc4c cbbd 2ffa 09bd a0b0 6bbd
000000a0: f87c 06bc 35e9 913c 0845 31be 70bc 03be
000000b0: 6ae5 04be 2fcc 58bc c132 3cbd 2602 44bd
000000c0: 4591 0e3e c359 bf3d bc31 853c 13d6 6e3c
000000d0: 8d65 10bd ee50 883c 7f92 503d bb33 41be
000000e0: 6083 b03c a796 b73d dd14 7bbc cbfa eabc
000000f0: f787 5ebd 2bbf df3d d65d d0ba 0ee9 4fbd
00000100: f786 dabc a879 6838 9d37 83bc e6ce 023d
00000110: 901d 63bd 56b9 a23d 58e9 103c 6bde e8bc
00000120: 6cbb 9c3c abb1 48bb 9d4c 1c3d 5863 b83c
00000130: 8861 dbbc 8e38 33bd bc13 ec3c 2175 a43d
00000140: 4c55 7f3d 0794 dbbb efeb 61bd 7ab3 793d
00000150: 935e 93bd 4394 9fbc 6308 b23c fed9 843c
00000160: a1a5 023e d4f7 87bc 6c63 1e3b 0521 e43c
00000170: 2e92 00bd 488c b7bd 3ae5 913d 6ab2 01bb
00000180: 512a c9bd e68f bdbd 51c1 8cbd c97d 323c
00000190: a81f a8bd 976a c4bc 64b1 573c b70c 9d3c
000001a0: 793a 323e ee3b 8abd 33dc 963c 964b 6fbd
000001b0: 2616 bc3d c76e 13bc 58d5 8abd bee9 7dbd
000001c0: fb27 a33d b3fc 29bc 00e9 b43c e5b8 b43d
000001d0: 702b 02b9 ad6d 28bd 5121 a0bc b308 7bbc
000001e0: 337a 053d 4ff1 c0bd 6d1d 9dbd ff91 38bd
000001f0: f3e3 37bd 10f5 b0bc 0bd5 3abd 603b 4cbd
00000200: 3104 0abd ae26 fb3c 600e 6bbd 1fa9 cd3c
00000210: 2340 b33c f6fb 12bd b478 b2bb 54a9 33bd
00000220: 778b 85bc f7b8 81bd 6ee8 46bc 98c0 c53c
00000230: afd4 51bc 48ce 3e3d 88e9 bbbc ce65 ebbd
00000240: d382 25bd e37c 903d 7668 423d 4d70 3bbc
00000250: 27a1 cb39 99e9 2bbd a3e5 f43d 3038 903c
00000260: b400 efbc 3320 523c 31f9 d5bc a077 29bc
00000270: f8e6 4f3d d880 7e3d 9426 88bd 8f6b 62bd
00000280: 21c1 02be 9f47 ef3d 7c24 7d3d 69df 473d
00000290: 3cd6 02bd 6773 5cbd ad73 0c3b 2488 81bc
000002a0: 4690 333d 89eb 2839 a5f7 8cbd 8be5 76be
000002b0: 6b53 64bc b5b5 85bd 8e23 88bc 9f74 cb3d
000002c0: 67d2 e43c 3a79 ba3c 62ef 363d 2a60 083b
000002d0: f0a6 c73c c826 a0bd e6df 183d 04cb b13d
000002e0: 5b17 93bc dc78 a8bd a39e c83b 3994 09be
000002f0: 6444 d93d 7179 eabc 2886 eabd 74e5 a1bd
00000300: ce58 043e 7249 483c 098c fbbd 0432 353d
00000310: 4e1d 09bd 929f ffbd 3ce6 583b 0705 c8bc
00000320: e5de 10ba c923 50bd 6372 a13d 5db7 e53c
00000330: 079a 05be 4397 97bd 811b b43c 40d5 e9bc
00000340: d17b a43c 1387 ba3a cd5b 813c 4686 15be
00000350: 0835 4d3d 02d4 413d bebb a2bc 4c9b 86bc
00000360: 1416 35bd 0bca c73d 12d3 38bd 775c 8abd
00000370: a5e7 543c ffa9 e93c 7b2b 79bd 64c5 79bd
00000380: c5ae d43b ff65 d2bc c2b4 80bc 9003 b2bd
00000390: 2964 8dbc d33b 8cbd 1a96 01be 80d5 6b3d
000003a0: 2212 dbbd 58c2 afbd 26c3 713b 1976 db3d
000003b0: 7774 c4bd 5318 953d b1df d9bd 00a3 75bd
000003c0: 898a e83b 9d5d 363d cca5 21be aeb9 97bd
000003d0: 45b6 c23d 5bd2 1f3e 7a19 c2bd 912b 903d
000003e0: 901f d7bc ac18 ef3d 88e5 9dbd 6293 ea3c
000003f0: 0109 03bd 1f86 9cbd 8e85 f13c 6828 b33b
0.004827634 -0.018672176 0.08059231 0.00071508635 -0.009343623 -0.116291665 -0.04992434 -0.04693109
-0.050093517 -0.09018585 -0.055615123 -0.026796391 -0.03871661 0.012617083 0.06686705 0.035063747
0.028660726 -0.09006163 -0.12038554 -0.03198315 0.11187526 0.15095638 -0.08576344 0.059254106
-0.029406948 -0.0641717 -0.15681915 0.01401538 -0.031789877 -0.08228735 -0.07296553 -0.12563749
-0.027662233 -0.04839417 -9.764648e-05 -0.013832395 -0.05762433 -0.09926745 -0.03368586 -0.05754149
-0.008208506 0.017811397 -0.1731149 -0.12864852 -0.1297814 -0.013232275 -0.04594684 -0.04785361
0.13922603 0.093432926 0.016259067 0.014577406 -0.035253096 0.016640153 0.05092096 -0.1886739
0.02154702 0.089642815 -0.015324798 -0.02868404 -0.054328885 0.10925134 -0.0015897106 -0.050759368
-0.026675684 5.542641e-05 -0.01601773 0.031935595 -0.055448115 0.07945506 0.008844696 -0.02842637
0.019132338 -0.0030623476 0.038159 0.022508308 -0.026779905 -0.043755107 0.028818004 0.08030153
0.062337205 -0.006700996 -0.055156644 0.060962178 -0.07195773 -0.019479876 0.021732515 0.016217228
0.12758495 -0.016597666 0.0024168147 0.027847776 -0.031389408 -0.089623034 0.071237996 -0.001979018
-0.09822524 -0.09255962 -0.0687281 0.010894247 -0.08209163 -0.023976607 0.013164852 0.019171102
0.17405118 -0.06749712 0.018415546 -0.058421694 0.09183912 -0.008998579 -0.06778973 -0.061990492
0.0796661 -0.01037519 0.02208376 0.08824328 -0.00012413948 -0.04112022 -0.019547137 -0.015321898
0.03258724 -0.09421026 -0.07671628 -0.045061108 -0.044895124 -0.02160123 -0.04561333 -0.049861312
-0.033695403 0.030658092 -0.057386756 0.025105057 0.021881169 -0.03588482 -0.005446518 -0.043862656
-0.016301854 -0.06334107 -0.0121403765 0.024139687 -0.012807055 0.046583444 -0.022938505 -0.11494027
-0.040407967 0.0705507 0.047462903 -0.011440349 0.00038839245 -0.041970823 0.11957862 0.017604917
-0.02917514 0.01282506 -0.0261198 -0.010343462 0.05075738 0.062134594 -0.06647983 -0.055278357
-0.12768985 0.116835825 0.061802372 0.048797045 -0.03194259 -0.053820994 0.0021431253 -0.015811987
0.04383876 0.00016109472 -0.06883172 -0.24111001 -0.013935904 -0.065287985 -0.016618516 0.09934353
0.027932359 0.022762883 0.044661887 0.0020809271 0.024371594 -0.07819897 0.0373229 0.086813
-0.017955473 -0.08226177 0.0061224266 -0.13435449 0.106087476 -0.02862236 -0.114513695 -0.07905093
0.12924501 0.012224542 -0.12282569 0.04423715 -0.033475213 -0.124816075 0.0033096215 -0.02441646
-0.0005526378 -0.050815377 0.07883146 0.028041536 -0.13047038 -0.07401898 0.021985771 -0.028544068
0.020078572 0.0014230929 0.015790844 -0.14602003 0.050099403 0.047321327 -0.019864913 -0.016431473
-0.04421051 0.097553335 -0.045123167 -0.067559175 0.0129946815 0.028523443 -0.06083248 -0.060979262
0.0064905607 -0.025683401 -0.015711192 -0.08692086 -0.017259674 -0.06847348 -0.12654915 0.057576656
-0.10696818 -0.0858199 0.003689 0.10715885 -0.095925264 0.0728003 -0.10638369 -0.059969902
0.007096593 0.04452287 -0.15785903 -0.074084625 0.095074214 0.15607588 -0.094775155 0.0703956
-0.026260167 0.11674628 -0.07709795 0.02863473 -0.03199101 -0.07642769 0.02948263 0.0054674633

network_body._body_endoder.seq_layers.4.bias f4 [256]
00000000: b0c1 f5bc c714 1cbd 0331 9abb 52a3 333b
00000010: 2660 8d3b 6792 d9bc e7ba f1bc 66a4 3aba
00000020: f93e 13ba d018 2a3c 335f c7bc ed89 b0bb
00000030: dfab 473c 3774 31bc d4d8 9eba f3d1 093b
00000040: 9a86 4dbd cc40 6ebc fe0a 34bb 7a2f a2bc
00000050: 1f75 09bd 0924 d43b f7c0 18bc 99ab 333c
00000060: 20e0 553c 7240 f7bc be0d ccbb b2c9 0fbd
00000070: 319f ecbc b058 51bb a0ed a4bc 6589 23bc
00000080: ef49 2bbd 31a4 0bbd 6011 f4bc dac5 7fbc
00000090: 9b91 32bd 94d4 2ebd 2162 73bc 6f78 263c
000000a0: 5aa2 87bc 4762 0cbd 0a7f 303c 0579 f9bc
000000b0: fcfc 5c3c 34a6 29bd 0590 f3bb 33ef 463b
000000c0: 4e4d 4bbc fcd5 723c 8a3f 10bd d729 31bb
000000d0: a074 c53b e8ff 66bc abd4 06bd 4ea2 513c
000000e0: d237 52bc cd1f fcbc 040e 86bc bf0c 37bd
000000f0: 2399 0bbd 5da4 82bb c151 e1bc f3c5 89bc
00000100: 6770 6d3b 3859 d1bc 38ab 1bbc ae1d 47bd
00000110: f8fd f2bc 1706 63bc 1222 e1bc 0964 0abd
00000120: 7b46 f9bc 094c 99bc 6c1b 89bc 6efb 2fba
00000130: a589 1ebc f791 c2bc 2306 2bbd ac5e 603a
00000140: 5257 c53b b89c 37bb 6537 bdbc 0bf9 2abc
00000150: 0626 15bd a6d0 b4bc 22fa 2ebc ba01 ba3c
00000160: 42e0 8ebb 0907 06bd 7917 99bc 40a7 17bb
00000170: a2e7 df3a 0681 14bd 83c8 eebb 8ced bfbc
00000180: fb54 d0bc 748f e4bb 0c4e 3bbd 4e88 22bc
00000190: a904 d8bc ec05 59bc cc0e 24bc 8239 d7bc
000001a0: 7095 0bbb 0920 293c 1d2d c2bc 791d 10bd
000001b0: 5fc3 f8bb 5713 0dbc ffe5 5a3c 20cd bcbc
000001c0: 11e8 33bd 4c69 073c c005 01bd 7067 e2bb
000001d0: 3913 9bbb 8185 4ebc a837 d6bc fc7a 0ebd
000001e0: e066 95bc dc88 ccbc 9779 32bd c0ac d5bc
000001f0: 6501 7b3c fe00 9fbc 3fc1 3dbd 9744 96bc
00000200: 3218 463c e0a1 b2bb 4ad5 24bd 0deb 0cbd
00000210: 4d18 64bd ba2e 41bb e3c5 03bd d6bd d63b
00000220: cdf8 61bc fb74 13bc ff22 7dbc 66a5 da3c
00000230: 602c 35bb 44ba 5abc 112b c5bb 90ce dfbc
00000240: 0214 ad3b 06f0 e6bc 2d9f 193a 58dc 9cbc
00000250: 24e3 a2bb 5fd8 97bc ebf8 ba3b dd94 60bc
00000260: cd57 22bd 5cda 953a 7e78 ccb9 8134 9a39
00000270: 37f5 abbc a9d8 cfbc c080 13bc 694f 03b9
00000280: 458b 19bd 9cd5 363c dc92 b9bc 840d bebc
00000290: 3d52 02bd dced 753c 15f0 20bd 9c39 abbc
000002a0: 2db4 bbbc 2d7d bebb dec2 04bc 6194 05bd
000002b0: 3088 02bd bb6d b83c fd3e 0ebc 9925 8dbc
000002c0: 24bc a5bb 6c25 27bc 2d94 46bc 69f2 c1bc
000002d0: eaee 8dba ae26 f2bc 2bc2 0dbd a25e 1bbd
000002e0: 9cf7 253c 0a15 b9bc ae01 0abd 21d5 76bc
000002f0: 1061 24bc c97d e3bc 05a9 28bc 509d 0fbb
00000300: a917 bfbb 774d 18bd 91cb 10bd f666 99bc
00000310: 5ee4 e0bb 7ad3 41bc e754 c8bc c74c 1fbd
00000320: 3b85 1bbc 3c0f 33bb b3d8 44bb f610 e1bc
00000330: 628f 0abc 5b69 20bc 7c43 0dbd bbba 7cbb
00000340: 5f99 0dbd c674 5a3c 77f0 e8ba d9f7 a2bb
00000350: eb04 37bd 68a9 c9bb e16f 5b3c 1fb0 b3bb
00000360: ae5f acbc 10bd 87bc 8bb3 38bc 9a8e e8bc
00000370: 1afd ddbb 4c1b abbb c187 25bd a6ba 16bc
00000380: 075d f0bb 29aa 9dbc ec4a 3fbd 1c40 04bd
00000390: e260 ecbb a722 41bc 13c9 11bd a9ff a9bc
000003a0: 70af 6dbc bd14 0bbc b718 c6bc abf5 733c
000003b0: 21f4 a4bc 7fdd 453c a07a 53bc 6885 43bc
000003c0: b19d edbc ceda 803b cc33 853c f7cb 48bd
000003d0: 8e5e 893c 411f 0dbd 6608 15bd 2a6a 2cbc
000003e0: f32a 34bc 5edd 283c 5043 d2bc 9e4b 33bc
000003f0: 6da2 fabc 323b dbbb 631e 1b3c 9f00 dbbb
-0.029999584 -0.038105752 -0.0047055497 0.002741058 0.0043144403 -0.026559068 -0.029508067 -0.0007119834
-0.00056169886 0.010381892 -0.024337387 -0.005387536 0.012186973 -0.01083093 -0.0012119063 0.002102968
-0.050177194 -0.014541816 -0.0027472372 -0.01979803 -0.03355896 0.0064740223 -0.00932335 0.010966205
0.013053924 -0.030182097 -0.006227224 -0.03510446 -0.028884502 -0.003194373 -0.02013284 -0.009981488
-0.041818555 -0.034092132 -0.029793441 -0.015611136 -0.04359589 -0.0426832 -0.014854939 0.01016055
-0.016556907 -0.034273412 0.010772476 -0.030453214 0.013488051 -0.04141827 -0.00743294 0.0030354976
-0.012408568 0.014821526 -0.035216846 -0.0027032995 0.0060258657 -0.014099099 -0.03291766 0.012795044
-0.012830691 -0.030776883 -0.016364105 -0.04468989 -0.03408159 -0.003986879 -0.027504804 -0.016818022
0.0036230327 -0.025555238 -0.009501271 -0.04861229 -0.029662117 -0.013856432 -0.027482066 -0.033786807
-0.030429116 -0.018713014 -0.016736709 -0.0006713186 -0.009676372 -0.023751242 -0.0417539 0.0008559029
0.0060223723 -0.0028016996 -0.023097703 -0.010435353 -0.036413215 -0.022072148 -0.0106797535 0.022705901
-0.0043602297 -0.032721553 -0.01868795 -0.002314046 0.0017082582 -0.03625586 -0.0072870865 -0.0234287
-0.025431147 -0.0069751088 -0.04572873 -0.009920193 -0.02636941 -0.013246041 -0.0100132935 -0.026272539
-0.0021298788 0.010322579 -0.023703152 -0.035184357 -0.0075916494 -0.008610568 0.013360499 -0.02304703
-0.043922488 0.008264851 -0.031499624 -0.0069093034 -0.004732516 -0.012605072 -0.026149586 -0.034785256
-0.018237531 -0.024967603 -0.04357299 -0.02608335 0.015320157 -0.019409653 -0.046326872 -0.018343253
0.01209073 -0.005451426 -0.04024247 -0.03440385 -0.055687238 -0.0029477314 -0.03217114 0.006553392
-0.013792229 -0.009000058 -0.015450238 0.026690196 -0.0027644858 -0.013350073 -0.006017097 -0.027320176
0.005281926 -0.028190624 0.0005860206 -0.019148037 -0.004970925 -0.018535791 0.005705943 -0.013707367
-0.039634515 0.0011432874 -0.00038999686 0.00029412287 -0.020990951 -0.025371866 -0.009002864 -0.00012522716
-0.037486333 0.011159327 -0.022653036 -0.023199804 -0.03181671 0.015010323 -0.03929146 -0.020901494
-0.022913063 -0.005813262 -0.008103101 -0.03261221 -0.03186816 0.022513261 -0.00868201 -0.017229842
-0.0050578285 -0.010201793 -0.012120289 -0.02367516 -0.0010828648 -0.02955946 -0.034609 -0.037932046
0.010129835 -0.02259304 -0.033693008 -0.015065462 -0.010032907 -0.02776994 -0.010294204 -0.0021913834
-0.005831678 -0.03718325 -0.035350386 -0.018725853 -0.006863161 -0.011830205 -0.024454547 -0.03889158
-0.009492214 -0.0027322313 -0.003003639 -0.027473908 -0.008457037 -0.009790744 -0.034488186 -0.0038563448
-0.034570094 0.013333505 -0.001777186 -0.0049733934 -0.044682425 -0.006154228 0.013393373 -0.0054836418
-0.021041717 -0.016569644 -0.011273275 -0.02838831 -0.006774557 -0.00522176 -0.04041267 -0.009199774
-0.0073353085 -0.019246178 -0.04670231 -0.032287702 -0.007213698 -0.011788047 -0.03559215 -0.020751791
-0.01450716 -0.008488831 -0.024181707 0.014890115 -0.020135941 0.012076735 -0.012907654 -0.011933662
-0.029005857 0.0039323336 0.01626005 -0.04902264 0.01676872 -0.034453634 -0.036384962 -0.010523358
-0.010996568 0.010306684 -0.025666863 -0.0109433215 -0.030595029 -0.0066904062 0.009467694 -0.0066834236

network_body._body_endoder.seq_layers.4.weight f4 [256, 256]
00000000: 88f3 193d 0c3f b6bc a417 913c 4d75 c8bd
00000010: 7e66 c53c ab5e 423d 4525 0d3c 1f6c 513d
00000020: d104 673d 9e90 08bc 71cc a8ba 006d 183b
00000030: a581 563b 25bf a9bc 6ae4 9c3c 137e 473d
00000040: c6d0 e43c b996 243d ac74 e03c 80c0 6fbd
00000050: 164b 15bd 04a0 1ebc 28da 2b3b 6055 e83c
00000060: da9e 8abd faa0 e2bd 6778 94bd 04f4 693d
00000070: a369 96bd e5b3 14bd 6102 a7bb 658a 913c
00000080: 483b f63c f727 1e3e b561 7d3d 2cd2 8b3d
00000090: 8d8b 993d bc14 acbb 7ae0 703d c3db 88bd
000000a0: dce6 ed3b 9d58 83bd b7d1 993d eb3e 8c3d
000000b0: 983e 87bc 31d3 e93d 5bec 7d3b 7bbf 6b3d
000000c0: ba75 da3d 9247 9dbd e7cb 10bd 63c4 963d
000000d0: 4c35 03be 332e 833d 67c8 11bd ef24 adbd
000000e0: 9dac 12bd 6562 da3d 465f 2cbc 1f70 113b
000000f0: 1c38 dc3d 39d5 973d 6fad 08bd 7e05 a83b
00000100: a7d1 193d e3dd 09bd f90c 1bba 43af b83d
00000110: 4461 653d 3c23 ecbc 50e1 503d 4a06 0f3e
00000120: 90c2 bebb 89f1 b13d e3b8 d83b 036c 903c
00000130: 75ec a43d 54ba d1bd e50b eabc 9e05 f5bb
00000140: e001 4d3d dbf9 13bd af18 42bd 2f83 373d
00000150: ea4d 263c b168 5ebd f05b fcbc 7783 47bd
00000160: dc00 bf3d 404d 3db6 d768 0f3b c2ce 703d
00000170: 7d02 28bd c105 c7bc be87 183b e544 7dbd
00000180: 6961 99bd b0f4 19bc 58a1 b1bd a48c 1d3c
00000190: 458c 993d 0991 833d cd9e 263e d87c cb3d
000001a0: 66e4 ccbc 1cae c1bc 79dd 373d 73a5 05be
000001b0: 3823 333d 3227 a3bb ec05 e13d 0987 04be
000001c0: 9651 ed3c 0044 38bd 53c9 ffbc 3a95 77bd
000001d0: af9a 4d3d f227 57bd 7a01 e33d d495 ad3c
000001e0: 4a11 0bbd 0e88 7abc c1f8 03bd 3e5e c53b
000001f0: 376e 1c3b 3bed c9bd a431 c9bd 1751 923d
00000200: 0c4e 0b3b a13c 00be ed2e 2a3d 7140 bfbb
00000210: 7abc 9e3d 96a6 2d3d 379e 92bd 848d 673d
00000220: fa81 143d bea2 0b3d 6972 c43c 59a7 0a3e
00000230: 21b9 51bd 7e4b fd3c edf8 52bd 8c87 003d
00000240: d9e2 2fbd 2030 ad3c f0b9 9d3c 7b86 92bc
00000250: 30d1 e6bd af72 64bc ae12 273d 61db 16bd
00000260: f313 a83c a6c9 60bd 06aa 2cbd 01c6 2fbd
00000270: e9c1 5c3d b328 13bd d357 2ebc 7ba4 8d3d
00000280: 1ece e0bd fe49 133e 6337 50bd c22f d5bc
00000290: cb39 983d e89f 023c b36f dabb f247 b7bb
000002a0: e2fe 423d e33a 91bd 4148 54bd ceb8 bf3d
000002b0: 8939 253d a58d 38bd a69a c9bd 9053 e5bd
000002c0: 0283 4e3d 4b9b d43d 55f7 903d 84c0 b2bb
000002d0: 919a a53d e8f6 f93d f885 24bd bebd 0bbe
000002e0: 1af8 eebc d6f7 e8bc 6cd8 a2bd e1f3 35bd
000002f0: fe8d 72bc 2542 93bd 36ea 87bd b1f1 b83d
00000300: 7110 3c3d 4282 a6bd 5853 1c3e 0218 a23d
00000310: c1d8 203d 6909 e7bd 5776 adbc cd35 5b3d
00000320: 4f30 263d c641 a73b 48fa 7dba d03f da3c
00000330: d0a4 593d c6f4 1ebb 30cc ebbc c1d0 133d
00000340: a2a2 9b3d 5ac9 57bd 9d41 85bc 2841 22bd
00000350: 83bd 4d3d 7872 e43d 1ca4 c7bb ba0d 103e
00000360: 3989 24bb c4ab 73bc 73d9 b7bd d15d 2d3d
00000370: 5887 62bd 2461 493d d97a 07bd 3d20 ffbd
00000380: b59a f43d c22d 1b3c 3580 f93c 322e 07bd
00000390: 3fc1 20bc 091a cd38 e65a c9bc 05cc 01bc
000003a0: c997 e0bd 2ae7 9ebd 088a 0e3c 7b6e bbbc
000003b0: 0fc9 32bd b291 13bc 5709 57bc a7ff 2a3c
000003c0: 483a 17bd dee9 82bd 5c6e bcbd c7e4 a1bd
000003d0: 3143 54bd 093c e1bd 15fb 71bd b86e 173e
000003e0: 7bee 073d 683b d13d a7e8 5d3d 267c c8bd
000003f0: 7411 fabd 9d8c ce3d 50c7 4dbd b3de c73c
0.037585765 -0.02224686 0.017711468 -0.09787998 0.024096724 0.047453564 0.008614843 0.051128503
0.056401078 -0.008335261 -0.0012878311 0.0023258328 0.0032731083 -0.020721028 0.019151885 0.048704218
0.027931582 0.040182803 0.027399383 -0.05853319 -0.03644856 -0.009681705 0.002622256 0.028361022
-0.0676858 -0.1106586 -0.072495274 0.057117477 -0.07344367 -0.036304373 -0.005096719 0.017766187
0.030057564 0.15444933 0.06186076 0.068271965 0.0749732 -0.005251495 0.058807828 -0.06682541
0.0072601866 -0.06413386 0.07510703 0.06847938 -0.01650934 0.11417235 0.0038745615 0.057555657
0.10666986 -0.076796666 -0.035350706 0.073616765 -0.128133 0.06405296 -0.03559151 -0.0845431
-0.035809148 0.106632985 -0.010520762 0.0022192074 0.107528895 0.07413716 -0.033368524 0.005127608
0.037553456 -0.033658873 -0.0005914714 0.090178035 0.056000963 -0.028825395 0.050996125 0.13967243
-0.0058215335 0.08688647 0.006613837 0.017629629 0.08052913 -0.102406174 -0.028570125 -0.0074774763
0.050050616 -0.036126953 -0.04738682 0.04480284 0.010150412 -0.05429906 -0.030805558 -0.04870936
0.09326336 -2.820816e-06 0.0021882558 0.05879093 -0.041017998 -0.024294736 0.0023274268 -0.06183328
-0.07489283 -0.009396717 -0.08673352 0.009616051 0.074974574 0.06424148 0.16271515 0.099359214
-0.025011253 -0.023642592 0.044888947 -0.13051395 0.04373476 -0.0049790377 0.10987458 -0.12942137
0.028969567 -0.044986725 -0.031223929 -0.060445048 0.050196346 -0.05252833 0.11084266 0.021189608
-0.033952035 -0.015291227 -0.032219652 0.0060231974 0.0023869404 -0.09859701 -0.09823921 0.07144373
0.0021256236 -0.12523128 0.04154866 -0.0058365394 0.07750793 0.042395197 -0.07159083 0.056531444
0.036256768 0.03409075 0.023980336 0.135404 -0.051201943 0.030919787 -0.051506925 0.031379268
-0.04294095 0.021141112 0.019253701 -0.01788639 -0.11270368 -0.013943358 0.0407893 -0.03683031
0.020517325 -0.054879807 -0.042154334 -0.04291344 0.053895865 -0.035927486 -0.010641056 0.06916138
-0.10976814 0.14383695 -0.05083407 -0.02602375 0.07432898 0.007972695 -0.0066661476 -0.0055932933
0.047606356 -0.0709131 -0.05182672 0.093614206 0.040338073 -0.045056958 -0.0984395 -0.11197579
0.050417908 0.10381182 0.07078425 -0.0054550786 0.08086122 0.12205297 -0.040166825 -0.136466
-0.029171038 -0.02843849 -0.079514354 -0.044422034 -0.014804361 -0.071903504 -0.06636469 0.09030474
0.045914117 -0.081303135 0.15266168 0.079147354 0.039269213 -0.11281092 -0.021174593 0.053518105
0.040573414 0.0051042764 -0.0009688479 0.026641756 0.053135693 -0.0024254783 -0.028783888 0.036087755
0.07599379 -0.05268226 -0.016266638 -0.03961292 0.05022956 0.11154646 -0.0060925614 0.14067736
-0.0025106205 -0.014872495 -0.08977022 0.0423258 -0.055304855 0.049164906 -0.03307614 -0.12457321
0.119435705 0.009471359 0.030456642 -0.03300304 -0.009811698 9.780011e-05 -0.024579477 -0.007922177
-0.10966451 -0.07758935 0.008699901 -0.02287983 -0.043648776 -0.009006904 -0.013124785 0.010436929
-0.036920816 -0.06392263 -0.09200737 -0.07904964 -0.05182189 -0.10997779 -0.05907734 0.1478833
0.033186417 0.10216409 0.054176953 -0.097893044 -0.1221036 0.100854136 -0.050238907 0.024398183

network_body.observation_encoder.processors.0.normalizer.running_mean f4 [25]
00000000: 5bea 173f b858 f63d 0000 0000 ee94 923e
00000010: 1eeb 3d3f c661 193f ecfb 2f3d 0000 0000
00000020: da3c b73e f235 3d3f 0cfb 063f 7f3a 263d
00000030: 0000 0000 5842 dd3e ac1a 4e3f 456f f23e
00000040: d45f f13b 0000 0000 89e5 043f 9b20 4f3f
00000050: 9b90 b93e ef47 c73b 0000 0000 1ba9 213f
00000060: 5a03 613f
0.59341973 0.120286405 0.0 0.2862925 0.74186885 0.59914815 0.04296486 0.0
0.35788614 0.7391044 0.5272682 0.04058313 0.0 0.4321468 0.8050945 0.47350517
0.00736616 0.0 0.5191274 0.80909127 0.36243138 0.006081573 0.0 0.6314866
0.8789574
