Assets/Training/results/Run 3/DroneBehavior/DroneBehavior-1884998.onnx (onnx, 659144 bytes, 17 tensors)

101 f4 [15]
00000000: 3aef 3e3a 0f30 c63d 3aef 3e3a 5722 ef3e
00000010: 9742 813e 3aef 3e3a 5b8b f23e 3aef 3e3a
00000020: 2998 f23e c4af e63d 3aef 3e3a 5b8b f23e
00000030: 3aef 3e3a 2998 f23e c4af e63d
0.00072835723 0.09677135 0.00072835723 0.46705887 0.25246117 0.00072835723 0.47371945 0.00072835723
0.47381714 0.112639934 0.00072835723 0.47371945 0.00072835723 0.47381714 0.112639934

104 f4 [25]
00000000: 3aef 3e3a bdf0 2a3e 3aef 3e3a c136 303e
00000010: da1b 9e3d 3aef 3e3a a9f5 263e 3aef 3e3a
00000020: 5fe9 2a3e e7c3 943d 3aef 3e3a ed92 273e
00000030: 3aef 3e3a b004 2e3e 7d31 9b3d 3aef 3e3a
00000040: e835 323e 3aef 3e3a a358 373e d92e a83d
00000050: 3aef 3e3a e835 323e 3aef 3e3a a358 373e
00000060: d92e a83d
0.00072835723 0.16693397 0.00072835723 0.17208387 0.07720156 0.00072835723 0.1630465 0.00072835723
0.16690587 0.07263928 0.00072835723 0.16364641 0.00072835723 0.16993976 0.075777985 0.00072835723
0.17403376 0.00072835723 0.17904906 0.082120605 0.00072835723 0.17403376 0.00072835723 0.17904906
0.082120605

95 f4 [25]
00000000: 3aef 3e3a 5650 593d 3aef 3e3a ec25 843e
00000010: 131f 043e 3aef 3e3a 87c3 1a3d 3aef 3e3a
00000020: 35fa 7d3e 267f da3d 3aef 3e3a 5a2a 0c3d
00000030: 3aef 3e3a a88e bb3e 438a 333e 3aef 3e3a
00000040: c25b 963d 3aef 3e3a 071d 9a3e 01c9 1b3e
00000050: 3aef 3e3a c25b 963d 3aef 3e3a 071d 9a3e
00000060: 01c9 1b3e
0.00072835723 0.05305513 0.00072835723 0.25810182 0.12902479 0.00072835723 0.037784126 0.00072835723
0.24802478 0.10668783 0.00072835723 0.034220077 0.00072835723 0.36632276 0.17533211 0.00072835723
0.0734172 0.00072835723 0.3010027 0.15213396 0.00072835723 0.0734172 0.00072835723 0.3010027
0.15213396

98 f4 [55]
00000000: 3aef 3e3a 42a3 163d 3aef 3e3a 293b 953d
00000010: 76cd 323d 3aef 3e3a fd9a 033d 3aef 3e3a
00000020: 45c7 833d cd50 263d 3aef 3e3a e8b6 043d
00000030: 3aef 3e3a c241 b13d 8a6f 513d 3aef 3e3a
00000040: 7065 913c 3aef 3e3a 3c44 623d 655e 0e3d
00000050: 3aef 3e3a bf20 b53c 3aef 3e3a 2e83 a03d
00000060: 9a33 433d 3aef 3e3a eb56 163d 3aef 3e3a
00000070: 02d9 903d a6a9 1f3d 3aef 3e3a 80a5 1f3d
00000080: 3aef 3e3a a112 453e 5c4e 963d 3aef 3e3a
00000090: 9f83 703d 3aef 3e3a 45c1 b63d 67ce 5a3d
000000a0: 3aef 3e3a 9f83 703d 3aef 3e3a 01a5 843e
000000b0: 4bc4 b43d 3aef 3e3a 2053 803d 3aef 3e3a
000000c0: a945 bd3d 3675 643d 3aef 3e3a 2053 803d
000000d0: 3aef 3e3a a945 bd3d 3675 643d
0.00072835723 0.03677679 0.00072835723 0.072866745 0.043652974 0.00072835723 0.03213023 0.00072835723
0.06434492 0.0406044 0.00072835723 0.032400995 0.00072835723 0.086551204 0.051131763 0.00072835723
0.017748564 0.00072835723 0.055240855 0.03475799 0.00072835723 0.022110341 0.00072835723 0.078375205
0.047656633 0.00072835723 0.036703985 0.00072835723 0.07072641 0.03898015 0.00072835723 0.038976192
0.00072835723 0.19245388 0.073391646 0.00072835723 0.058719274 0.00072835723 0.08923582 0.053419497
0.00072835723 0.058719274 0.00072835723 0.25907138 0.088265024 0.00072835723 0.06265855 0.00072835723
0.09241802 0.055775844 0.00072835723 0.06265855 0.00072835723 0.09241802 0.055775844

action_model._continuous_distribution.log_sigma f4 [1, 3]
00000000: 339a c83b 4ec6 4e3b 3e68 6c3c
0.0061218976 0.0031551304 0.01442915

action_model._continuous_distribution.mu.bias f4 [3]
00000000: cb6d 68bc 5c22 2dbc 1b9f a43b
-0.014186333 -0.010567274 0.0050238497

action_model._continuous_distribution.mu.weight f4 [3, 256]
00000000: 8b26 b1bc 6f70 1bbc f845 a83c eccd 323c
00000010: 0259 0fbc d14e ebbb 0033 efbb 1f03 4b3c
00000020: fb3f 94bc 0a13 e13c 4cc7 7c3b d3f5 3d3b
00000030: a1ac a43b 5393 63bb 588b 1c3c 9208 96bc
00000040: abd6 603a f78a b23a 6a3f 663b d55d b2bc
00000050: a2a6 f4bc 920e d6ba 7303 96bb 824a 49ba
00000060: e335 5c3c a0ab 303c b914 31bc 7268 1a3c
00000070: 84e4 8e3c 6aec b03c 4fcd 38bc 35e5 17bb
00000080: 3fd9 f3ba 89d7 963c 8f9e 833b 4a52 00bc
00000090: a2a3 ed3c a1ec 28bb 79b9 1b3c 543d 063c
000000a0: b15c 56bc a55a 983a 0d10 3e3c fff7 c03c
000000b0: ea0e af3a ac4f debb 6bfd 5fba ba0b 623c
000000c0: 2348 003c 649a 193c 9511 a0bc 6100 cc3b
000000d0: a730 09bc a4ce 9b3c 06c3 cf3a fca3 a9bc
000000e0: 4144 403c 894c a8bb 6192 a2bb 5161 ed3b
000000f0: 0185 b63c 2ec1 73bb c70d 503c 6532 9d3c
00000100: a64c 1fbc fd60 81bb 6e80 1abb 116c c539
00000110: 4e79 3b3c 7fbd 91bb 96cb 053c b40d 04bc
00000120: 21f5 af3b acaf 9f3c 801a 2c3b 1178 b83c
00000130: 8435 a3bc b1fb 0fbc 56ca 5c3c e9fa 063b
00000140: 4852 a93c a177 5e3b c22c 92bc 43b5 58bc
00000150: 87f3 0f3c 6b16 3b3b d51b 6dbc b421 aa3c
00000160: bba8 debc a37d bb3c 5b93 733c 8e80 93bc
00000170: ad5c 3aba 7b2d 6f3b 0436 713c fa8d bdbb
00000180: 6e90 86bc 4c37 a23c 6652 963c c735 cc3b
00000190: ca8e 083c af21 3e3c c613 f43c b866 b43b
000001a0: 4a5d 813b 29db 5ebc b01c 7b3b 91b2 21bc
000001b0: fb3f bcbc 09fc 28bb cd78 eabc 754d debc
000001c0: 733c 04bc 7ffa 113b 003d 6abc 813b ff3b
000001d0: a8b3 17ba b2de 26bc 42aa 96b9 6a78 7ebc
000001e0: cf35 d6bc 309d bf3b 6ab6 af3b 4afc aa3c
000001f0: 7243 54ba 83e3 8c3c 0160 a4bb 0d16 cfbb
00000200: f502 7cbc 432e 8b3c a682 a13a 2bf1 8ebc
00000210: 918b c23a 86af 40bc b02c 7d3c 3cf6 1dba
00000220: d7c5 aabc d381 843b 3cc5 87bb 4662 d33b
00000230: f38c 1d3c 682f 833c 7234 09bc f1e5 2f3c
00000240: 234e bebc 1fcf 453c 400f 28bb fc84 613c
00000250: 54bb 9bbb f406 bbbc fc25 103d 33cb 66bc
00000260: c502 25bc f8a6 603c d6e1 0cbc beca ffbb
00000270: 4984 91bc d61e 41bc 0aba 453c 94cf 2dbc
00000280: 2ed2 a7bb ae91 563c 1dd2 b6bc 57e5 c83c
00000290: fc5b 3a3c 3f10 863b ec12 293c 9680 efbb
000002a0: 55ad a53a 09e6 6abb 818f b0bb d304 c73b
000002b0: 0a6a 6739 a68d c23c b517 c6bc a885 fa3b
000002c0: 2265 293c df1c 8abb 1b2f 2f3c 0ae0 aabc
000002d0: 0f06 8e3c 3792 1dbc e01c 99bc 21a1 51bb
000002e0: 9df7 a13c ffcb 973c b62a 373c 1614 f33c
000002f0: cc03 d03c b9c0 73bc f153 94b8 7b48 113c
00000300: 680f 2fba ec88 993c c1dc 8fbc 430f acbb
00000310: e63c 003c d374 f03b 43f3 b13b 141d cebb
00000320: 5394 4abb 5175 7abb 7abe 56bb 5c8f ecbc
00000330: c9da c4bc 146b b4bc 7419 a73a dbc5 793a
00000340: 3d76 f93b 40b9 d7bb 06c6 09bb d117 493c
00000350: 9801 d03c 161a f3bb d295 8bbb 7927 5e3a
00000360: 9e2e 6ebc d9f0 7cbc d44f 823c 83b5 7c3b
00000370: e751 163a e1ac 563c 24e2 1bbc c43e 7bbc
00000380: eba9 dd3b 3a6f 94bc 12ad 6b3c f958 7abc
00000390: 568e a83c cbe5 503c 7a49 7cbc 0d8c f1bc
000003a0: 7d1d 20bc 99f0 923b c8bc a13b fa64 153c
000003b0: 90e7 c6bb 194f ac3c 8b07 29bc 6410 483c
000003c0: d53a feba 0e67 083b 77a1 6dbc 1c30 3bbb
000003d0: ecb9 c8bb 05da 98bb 6da4 7f3b accc d53b
000003e0: e32f 67bc acdf 4abc fd16 66bb da9c 60bc
000003f0: 1b28 84ba a0d0 c5bb 2c44 14ba 6967 133c
-0.021624824 -0.0094872555 0.020541176 0.010913353 -0.008749248 -0.0071810265 -0.007299781 0.012390881
-0.018096915 0.027474899 0.0038570939 0.0028985634 0.005025462 -0.0034725263 0.0095547065 -0.018314634
0.000857691 0.0013621737 0.0035133013 -0.021773258 -0.029864613 -0.0016331247 -0.004578048 -0.0007678644
0.013440582 0.010783106 -0.010808163 0.009424316 0.01744295 0.021597106 -0.011279418 -0.002317739
-0.0018604173 0.018413322 0.0040167044 -0.007832119 0.02900869 -0.0025775807 0.009504669 0.008193333
-0.013083623 0.0011623694 0.0116005065 0.023555754 0.0013355885 -0.0067844 -0.0008544537 0.013796741
0.007829699 0.0093751885 -0.019539634 0.006225631 -0.008373416 0.019019432 0.0015850968 -0.020708077
0.011735023 -0.005136077 -0.0049612974 0.007244267 0.022280218 -0.0037194001 0.012698597 0.019189069
-0.009722864 -0.0039483295 -0.0023575085 0.00037655284 0.0114424955 -0.0044476385 0.008166214 -0.008059908
0.005369798 0.019492947 0.0026260912 0.02251819 -0.01992298 -0.008788035 0.013475975 0.0020596331
0.020669118 0.0033945816 -0.017843608 -0.01322681 0.008786089 0.0028547298 -0.014471968 0.020768024
-0.027180066 0.022887057 0.014866675 -0.018005636 -0.00071091467 0.0036495614 0.014722351 -0.005784747
-0.016426291 0.019801758 0.018349838 0.0062319967 0.008334825 0.0116047105 0.029794585 0.005505409
0.0039478885 -0.013602057 0.003831666 -0.009869234 -0.022979727 -0.002578499 -0.028622055 -0.027136544
-0.008071053 0.0022274551 -0.01429677 0.007789076 -0.0005786964 -0.010184931 -0.0002873708 -0.015531639
-0.026148705 0.0058475956 0.0053623216 0.020872254 -0.00080972083 0.01719833 -0.0050163274 -0.0063197673
-0.015381564 0.016989833 0.0012322261 -0.017448982 0.001484262 -0.011760598 0.015452549 -0.00060257665
-0.02084629 0.0040437966 -0.004143385 0.006450924 0.009616124 0.016013816 -0.00837432 0.010735975
-0.023230618 0.012073307 -0.0025643855 0.013764616 -0.004752556 -0.022830464 0.035192475 -0.014086532
-0.010071461 0.013711683 -0.008598765 -0.007806151 -0.017763274 -0.011787137 0.012068281 -0.0106085725
-0.005121491 0.013096256 -0.022316987 0.02452342 0.01137447 0.004091292 0.010319453 -0.00730903
0.0012640158 -0.0035842678 -0.0053882007 0.006073573 0.0002206938 0.023749184 -0.024181226 0.0076453276
0.010339053 -0.0042148675 0.010692383 -0.020858783 0.017336873 -0.00961738 -0.018690526 -0.003198691
0.019771392 0.01852989 0.011179617 0.029672664 0.025392435 -0.014877492 -7.072825e-05 0.008867378
-0.0006678016 0.018742047 -0.017561318 -0.005250843 0.007827019 0.0073381453 0.0054306104 -0.0062900875
-0.0030911162 -0.0038216899 -0.0032767341 -0.028876953 -0.024030106 -0.022023715 0.0012748674 0.0009528079
0.007612972 -0.006583363 -0.0021022572 0.012273745 0.025391385 -0.007418881 -0.0042598033 0.000847451
-0.014537482 -0.015438282 0.015907206 0.0038560338 0.00057342503 0.013102741 -0.009514365 -0.015334789
0.0067646406 -0.018119443 0.014384525 -0.015280002 0.020575684 0.012750099 -0.015398378 -0.029485727
-0.009772656 0.004484248 0.0049358346 0.009118313 -0.006070085 0.02103381 -0.01031674 0.012210939
-0.0019396195 0.0020813379 -0.014503828 -0.002856261 -0.0061256792 -0.004664662 0.0039007918 0.006524643
-0.014110538 -0.012382429 -0.0035108917 -0.013709271 -0.0010082753 -0.006036833 -0.00056559104 0.008996823

network_body._body_endoder.seq_layers.0.bias f4 [256]
00000000: cb0c 623c 95f1 22bc ed6f 473b 5968 7a3c
00000010: 9f21 4abb 1db7 04bb 9b6c 29bc 998b 583c
00000020: c3b4 b23c 14f6 86bb 5fb8 463b c647 d93b
00000030: 1d8e 643c 635c 833c a7f2 f93c 02ff 4cbc
00000040: 7358 4c3c d34e 693b 6171 e53c 07de 7abc
00000050: 7471 373c e066 bd3b 5b63 2f3c 5a85 1e3c
00000060: 8bd0 c83b 2ade 163c 7e70 e83b 0891 2fbc
00000070: 02f6 083c cab9 e5bb 6406 56bc 5e99 253c
00000080: baa9 3dbb 8497 b43c 4cdb e6bb 7d64 acba
00000090: 4bf7 873b e506 f93b fd85 c73c c857 0abb
000000a0: aaeb 7a3a 1906 02bc 6217 fabb ef3a 1fba
000000b0: e1de 87bc 15a5 0dbc daa9 cf3a 4665 dc3c
000000c0: 924e 10bc e6a7 3138 c639 59bb e99f 693b
000000d0: 4991 543c 17c1 523c c164 cc3c 0051 783c
000000e0: 5e1a d93c 135c f83a d836 7d3b 8686 933c
000000f0: c562 023c 63f0 a8bc c0c7 7e3b 05a5 a4bc
00000100: 0cab 963b 7960 4dbb 5641 183c 9273 a63c
00000110: 5b4a 31bc 3469 2a3c 5675 44bc 526a 6239
00000120: 8c91 e1bb 0d27 833b 9c34 20bc d842 bf3b
00000130: 081b bf3c 7f29 b9bb 3ac7 0dbb 0a1e b7bb
00000140: c176 0d3c 87ee 6839 5987 223c c252 40bc
00000150: f3ba 51bc f638 1dba 3175 df3b cfdb 25bb
00000160: 31c7 903b 6bca 43bb ca12 47bc 7896 993c
00000170: 25f8 4abc a218 4d3c de16 793b 19be f3bb
00000180: ba28 933b b439 4eb9 d9c6 1a3a 1307 723c
00000190: faa4 733c 0f86 cabb 5b29 6cbc ac11 8e3a
000001a0: a147 0f3b 0982 033d 1cd5 45bc f5e5 88bc
000001b0: bf6f b03b 6abf 28bc a919 00bc 8b72 dfbb
000001c0: 057f ee39 bf0e 003b 7315 9d3c 6fdd 93bc
000001d0: ef70 3a3a ab35 793c a561 f3bb 1f23 a8bb
000001e0: 085f 6f3c 4b38 d63a 2501 9e3c bf59 3abc
000001f0: 0055 9c3c 567a 9dbb 69da cf3b 3aa0 023d
00000200: 1e2a aabb abba 1c3b f55e ca3c 0df2 11bc
00000210: 78d2 b83b bd9e 56bb 5965 43ba eee2 8cbb
00000220: ee44 0f3c ce14 243c e0d6 113a e032 7b3c
00000230: 7bd2 373c 54f8 2a3c 8f54 413a defe edb9
00000240: da94 903c 8eaa 0ebc dcff 8d3c 4986 3f3c
00000250: ea91 523a d7c1 baba f75d c3bb e647 713c
00000260: 326e d43c 313a b33b 645a 15bb 4860 573c
00000270: 11b9 3dba b772 a23b 7de0 bfbb b7f3 753c
00000280: 099d d03b f0f8 b2bb 46d3 b23c 3e53 bfbb
00000290: da80 28bc 7e8d 08ba 073e 4b3b 0719 463b
000002a0: 232c 973c dc5e 8a3c dad3 42bb 980c 373c
000002b0: 2cc2 b63c 1df5 bbbb c305 d53c 0e0d 873b
000002c0: 3ee4 4fbc a540 55bc 42f4 afbb d576 e5bb
000002d0: 46fb de3a d694 a23c 1a9a 913c a13b c43a
000002e0: 68ab 723b 9ec1 ac3b 4a37 4c39 9d24 45bb
000002f0: 8d6e 003c 93cd 043b bc5c bb3b 5bea e63c
00000300: ebbd 61bb f878 6bbb 1817 1e3c cb60 1abc
00000310: a8e8 113c 109e 94bc 56b5 e43b 87af 2b3a
00000320: f9e4 6fbb fe0b 86bc c772 993c a9cd cabb
00000330: 19e4 f2bb 6336 73bb dd0e de3b 6ab9 e23b
00000340: 8f26 203c 51a6 b13b a06d e2bb 779a 9ebb
00000350: c32f 393c 36dc e5bb a6d8 273c 7b6b 4c3b
00000360: 4e6d de3c f776 45bc 4400 4a3b e6e9 38bc
00000370: d8df 8d3c 2efe 75bb 8f50 8bbb 1d5e 41bc
00000380: 99f9 573c 1bcb 273c f7fc a1b9 3015 2dbb
00000390: 7d60 46bb 6b20 56bc 77f7 1cbc 3f74 9a3c
000003a0: 3b05 423c 5fd5 033b c3bf 82ba e515 4d3a
000003b0: 976d 09bc 5779 bf3b 0b2e 133c 7bca 7a3c
000003c0: efc1 853c 924c 1cbc e27f 543c 1145 61bb
000003d0: ef6c 8bbc 02e9 ca3c ef71 0b3b 553b ba3b
000003e0: 7674 813c 87de 063c 304f 923c e5fc 723b
000003f0: fa80 13bb a333 333b a0d8 94bb 0bf9 aa3b
0.013796995 -0.009945293 0.0030431703 0.0152836675 -0.0030842794 -0.0020250746 -0.010340835 0.013216876
0.02181471 -0.0041186903 0.0030322296 0.0066308705 0.013949898 0.016035264 0.030511213 -0.0125119705
0.01247226 0.0035599961 0.028008165 -0.0153117245 0.011196483 0.005780086 0.0107048405 0.009675348
0.006128376 0.0092082415 0.0070934882 -0.0107157305 0.008359434 -0.007010673 -0.013063047 0.010107366
-0.0028940276 0.022044905 -0.007045185 -0.0013152506 0.0041493527 0.007599699 0.024355883 -0.002110945
0.000957186 -0.007936024 -0.007632182 -0.00060741504 -0.01658577 -0.008645316 0.0015843466 0.02690376
-0.008807795 4.2356456e-05 -0.0033146008 0.0035648292 0.012974092 0.012863419 0.024950387 0.015156031
0.02650183 0.0018948339 0.0038637426 0.018008482 0.007958119 -0.020622438 0.0038876384 -0.020098219
0.004598027 -0.003133802 0.009292921 0.02031878 -0.01082095 0.010401059 -0.011990866 0.00021592647
-0.0068838056 0.004002458 -0.009778168 0.005836826 0.02332832 -0.0056506987 -0.002163364 -0.0055882977
0.00863427 0.00022214103 0.009919965 -0.011738481 -0.01280092 -0.00059975625 0.00681939 -0.0025308018
0.0044182767 -0.002987529 -0.012150476 0.018748507 -0.012388264 0.01251808 0.0038008015 -0.007438433
0.004490939 -0.00019667187 0.00059042644 0.014772194 0.014870876 -0.006180532 -0.014414157 0.0010839007
0.0021862763 0.032106433 -0.012074735 -0.016711215 0.005384415 -0.010299543 -0.007818618 -0.0068190745
0.00045489534 0.001954004 0.019175267 -0.018049924 0.00071121653 0.015210549 -0.0074274116 -0.00513114
0.01461006 0.0016343681 0.019287655 -0.011373936 0.0190835 -0.0048058433 0.006343175 0.031891085
-0.005193009 0.0023914974 0.024703482 -0.008907807 0.005640324 -0.0032748424 -0.00074537616 -0.004299513
0.008744461 0.010014726 0.000556333 0.015331954 0.011219616 0.010435183 0.0007374966 -0.00045394053
0.017649103 -0.008707656 0.017333917 0.011689731 0.0008032607 -0.0014248443 -0.005962129 0.014726615
0.025931451 0.0054695834 -0.0022789473 0.013145514 -0.0007237355 0.0049575227 -0.0058556185 0.015011719
0.0063663763 -0.0054618046 0.021829259 -0.0058387807 -0.010284627 -0.0005209072 0.0031012313 0.003022732
0.018453663 0.016890936 -0.0029728324 0.011172436 0.022309385 -0.005736007 0.026003724 0.0041214293
-0.0126886945 -0.013015901 -0.005369694 -0.0070026913 0.0017012141 0.019846361 0.017773677 0.0014971384
0.0037028436 0.0052721044 0.00019475553 -0.0030081638 0.007838857 0.0020264133 0.005717842 0.028187921
-0.0034445475 -0.0035930257 0.009649061 -0.009422491 0.008905567 -0.018141776 0.0069796247 0.0006549288
-0.0036604984 -0.01636314 0.018731488 -0.0061890674 -0.0074124453 -0.0037111274 0.006776674 0.0069190757
0.009774818 0.005421438 -0.006910041 -0.004840191 0.011302891 -0.0070147766 0.010244524 0.0031191993
0.02715173 -0.012052289 0.0030822912 -0.0112862345 0.017318651 -0.0037535536 -0.0042515467 -0.0118022235
0.013182067 0.010241295 -0.00030896786 -0.0026410334 -0.0030269914 -0.0130692525 -0.009580485 0.018854259
0.011842067 0.0020116193 -0.0009975362 0.0007823392 -0.008387945 0.0058433223 0.0089831455 0.015307064
0.016327826 -0.00953974 0.012969943 -0.0034373442 -0.017019717 0.02476931 0.0021277627 0.0056833425
0.015802603 0.008231766 0.017860025 0.0037077006 -0.0022507296 0.002734401 -0.0045424253 0.0052176765

network_body._body_endoder.seq_layers.0.weight f4 [256, 121]
00000000: 0de7 ad3d 969e f63d ec91 0d3e 6759 91bb
00000010: aaf3 843d db27 38bb bd11 5ebd 7a29 02bd
00000020: 843c 88bd 451c edbd 9879 893d 1601 90bd
00000030: 7e44 693c 3df4 85bd 9c66 78be e013 213d
00000040: 56d2 d9bd 63c4 73bd 1e36 1bbe 32e2 d93d
00000050: a993 d1bc 1044 83bd 8577 793d bf55 b93d
00000060: c135 453e 4501 14be 9e7b e73d be41 0ebd
00000070: cd7a e0bc e3eb 193e 7839 8bbd c415 eebd
00000080: 1a2a a03b 77ed 85bc 2a39 bcbd c587 abbd
00000090: 3a61 be3c 4c96 6d3d d0da 903d 947f 033e
000000a0: 3279 17be 71ed de3b df06 a6bb cac3 bc3c
000000b0: e56c 633e 8f99 163e f850 183e 7663 e83d
000000c0: cd2c 0fbe 0d0b 1ebd 741e 953b ef69 613d
000000d0: e2f0 95bd a08b 9bbd 187e 16bd adfc a23d
000000e0: cbd3 23bd 3d4a 003c c9d2 11be e195 b23d
000000f0: 2388 adbc 8fb2 96bd f2c5 263e eb80 17be
00000100: a9b1 3fbb 559c 02bd d198 22bd 9806 cfbd
00000110: f4c7 9a3c 891f d339 405b c6bd dcc3 95bd
00000120: 7d13 1dbe 2ee9 303c 8689 e53c bb03 c4bd
00000130: e457 b63d 9586 a83d 5453 debd 9c12 3abd
00000140: ecfa debd da8c c73c 6512 973c 68fb 59bc
00000150: b6bc e13d 6261 01bd 9aa6 0b3b 3939 c7bd
00000160: da9d 2f3d 9ea8 c1bd ffd1 edbd 59d4 6cbc
00000170: 920c 87bd 109f a8bd 953d 5a3d a231 64bd
00000180: 41a8 063d b81e d7bd 17d6 20be 9319 a6bc
00000190: 0893 143d 57d7 04be bb19 b33d 8260 ca3d
000001a0: 23bf 973d d2dc 2fbd d8e9 f83d 7ad0 943d
000001b0: 8086 7e3c 6791 abbd 35a9 7ebb 9c58 1a3e
000001c0: d013 9e3d bf66 9d3d fae1 98bc a196 2d3d
000001d0: 7614 b13d 307e 03bb 6341 a23d 191e 1bbe
000001e0: f9c0 693b 80b2 c4bc 7b60 1fbe faef 0d3e
000001f0: 5ca8 a9bd da3b 773a 4c1e e33b 3376 6c3c
00000200: 0297 a13d d0c9 77bc 25db 4c3c b823 d13d
00000210: 691a 4abb 657d f3bd b230 13bc 2230 9abc
00000220: cddc a3bc a44a a6bd 2ecb d93d b24d 85bd
00000230: 75da bbbb e93b ee3c ca66 26bd 313b 8fbd
00000240: a76a c83c 94c4 1a3e 8ea8 b73c 9daf e1bd
00000250: 26a7 ec3d 1da7 82bc 970f 813d db83 1cbd
00000260: 253b debd abfb 93bd c111 663d cec1 a0bd
00000270: 2204 7a3d b38a 0b3d 0b92 353d 7982 c0bd
00000280: 6669 ed3d 5835 15bd 5fe8 803d c8c2 bcbc
00000290: d52a 4bbd b794 d43b 0d07 b7bc dc90 97b8
000002a0: 0be2 b33d 3042 e8bd 631d 423c d4b7 1b3d
000002b0: 6f72 dfbd d2a8 01be be8a 873c 90b2 1dbd
000002c0: dfdd cebd 610d 05be 39b0 233d 02bc 7f3d
000002d0: 3fc4 bb3c 7c47 3fbb 9854 0cbe 0195 38bd
000002e0: 8791 143a 5d5a 053e ad6e 023c 193f 493d
000002f0: 26f1 763d 5843 3e3d 44a4 a7bd 8a0c 843d
00000300: 5e8d c83c 6f31 13bd 4bed fdbc 48fa 02bd
00000310: 1ece 25be a41c 00bd 63be ac3d 0919 b53d
00000320: 2a1c c03d b54f ee3c 531d c33b 932c 6abd
00000330: a705 dcbc 6ad7 b6bc 7de5 0ebe de8c 93bd
00000340: 3cd5 65be 6ba1 ba3d b8bc 2d3b 6fb3 0d3c
00000350: 7b2c 653d 52d4 033d 199e d73d 21d3 1f3c
00000360: 5928 d3bc f1b1 eb3b a051 6b3b 8280 1bbe
00000370: 12cf 423d bf61 e03d cc77 883b a578 e5bd
00000380: c2c8 1abe 933c a23d 6890 123d 37af 8f3d
00000390: e001 90bd 4393 b93d 2883 633c b556 83bd
000003a0: 3a43 3fbd b2f2 15be 18e7 263e 5568 cebd
000003b0: 296d a43c b7e4 d83d 08ae 3cbd 4bda 0cbd
000003c0: 1aab 4abd 5105 83bd 0ee2 52bd a3ff 5ebe
000003d0: 15e1 c13d 9f55 e73b 7ef2 b43d 552f 10be
000003e0: 8119 4cbc c869 a53d a395 883b a8dd d9bd
000003f0: 90aa 81bc d602 52bd 0ab7 023c 7884 debd
0.08491335 0.120419666 0.13825196 -0.0044357064 0.06491788 -0.0028099928 -0.054216135 -0.031777836
-0.066521674 -0.115776576 0.06712645 -0.07031457 0.014237521 -0.065407254 -0.24257892 0.039325595
-0.106358215 -0.05951346 -0.15157363 0.106388465 -0.025583105 -0.06409466 0.060905 0.09049558
0.19258787 -0.1445361 0.11302875 -0.034730665 -0.027402306 0.1503139 -0.06798071 -0.11625245
0.0048878314 -0.016348584 -0.09190591 -0.08375505 0.02323972 0.058004662 0.07072985 0.12841636
-0.14792326 0.0068032076 -0.005066737 0.023042578 0.22209509 0.14707015 0.14874637 0.11347096
-0.13981934 -0.038584758 0.0045507494 0.055032667 -0.073213354 -0.07594991 -0.036741346 0.0795835
-0.039996903 0.0078302 -0.14240564 0.087199934 -0.02118308 -0.07358276 0.16286448 -0.14795272
-0.002925018 -0.03188737 -0.03969652 -0.101086795 0.018894173 0.00040268552 -0.09685373 -0.07312748
-0.15339465 0.010797782 0.028019678 -0.09571024 0.089034826 0.082287945 -0.10855737 -0.045427904
-0.10887703 0.024359155 0.018441388 -0.013304569 0.11022322 -0.031587012 0.002130902 -0.09727711
0.04287515 -0.09455989 -0.11612319 -0.0144549245 -0.065941945 -0.08233464 0.053281385 -0.055711396
0.032875303 -0.10503906 -0.15706669 -0.020275867 0.036273032 -0.1297277 0.08745142 0.09881689
0.07409503 -0.0429352 0.12153977 0.07266326 0.015534997 -0.08377343 -0.003885818 0.15072864
0.07718623 0.07685613 -0.018662442 0.04237998 0.08646481 -0.0020064227 0.07922628 -0.151482
0.0035668 -0.024010897 -0.15564148 0.13861075 -0.08284065 0.0009431221 0.006931102 0.014432478
0.078901306 -0.015123799 0.01250342 0.10211891 -0.0030838496 -0.118891515 -0.008983778 -0.01882178
-0.020002747 -0.08119705 0.106344566 -0.0650896 -0.005732829 0.029081302 -0.04062537 -0.06993712
0.024464918 0.15114051 0.02241924 -0.11019824 0.115553185 -0.015948826 0.06301802 -0.038211685
-0.10851125 -0.07225736 0.056169275 -0.07849465 0.061039098 0.03406782 0.04432873 -0.09399886
0.11592369 -0.036427826 0.06294321 -0.023042098 -0.049601395 0.0064874548 -0.02234223 -7.227223e-05
0.08783349 -0.11340749 0.011847827 0.03801711 -0.10910498 -0.12662056 0.01654565 -0.03850037
-0.10100912 -0.12993385 0.03996298 0.062435158 0.022920726 -0.0029186895 -0.13704145 -0.045063976
0.0005667437 0.13022752 0.0079609575 0.04913244 0.06028857 0.046450943 -0.08185628 0.06447704
0.024481472 -0.035935815 -0.03099694 -0.031976968 -0.16191909 -0.031277314 0.08434751 0.08842666
0.09380372 0.029090742 0.0059544235 -0.057171416 -0.026858164 -0.022319514 -0.1395473 -0.07204603
-0.22444624 0.09112819 0.002651019 0.008648737 0.055950623 0.032184906 0.105282016 0.009754927
-0.025776075 0.007192843 0.0035906807 -0.1518574 0.04756076 0.109561436 0.0041646715 -0.11204652
-0.15115646 0.0792171 0.035782248 0.070158415 -0.07031608 0.09061291 0.013886251 -0.064130224
-0.04669497 -0.14643362 0.16299093 -0.100784935 0.020071583 0.10590499 -0.046064407 -0.034387868
-0.04947958 -0.063974984 -0.051485114 -0.21777205 0.09466759 0.0070597674 0.08835314 -0.14080556
-0.0124572525 0.08076817 0.0041682287 -0.10637981 -0.0158284 -0.051272236 0.00797821 -0.1086511

network_body._body_endoder.seq_layers.2.bias f4 [256]
00000000: 2b72 d53c 1e41 633c a19c 433c 2f19 493c
00000010: 98c1 5d3b 5752 843c 5a10 2a3c 7fee f63b
00000020: d1ec 1c3c 1ac7 f9bb d45a 833c 8f14 1e3c
00000030: c5f9 8bbb e686 c33a 4e33 c0bb 1a32 adbb
00000040: f331 983b 4dec f8bb 8d29 173d 243e 8cbc
00000050: f8ae a6bb 2b48 c3bb 237c 703b 2368 9b3c
00000060: 081c 26bc 20db 26ba b813 6abb 6061 c63c
00000070: 2536 16ba 8ce5 5ab8 6756 9dba 08e9 e13a
00000080: c96c 21bc 21c5 b93c ae68 ba3c c268 033c
00000090: 0c89 cd3a 23ff 063d 4a9a a0bb 1fcc 373c
000000a0: 7303 03bb 3bf2 b03c b7a2 efbb 4a99 69ba
000000b0: e804 bd3b cee4 9f3c d021 063c 6679 cfbb
000000c0: d235 8b3c caf1 b5bb eb18 243c ff02 54bc
000000d0: 6de6 62bc b407 273c b544 f33b 0e4e 423c
000000e0: 18df 06bc c5c7 f43b a435 0f3c b829 dcbb
000000f0: 8f7e 58bc e4fd a73c 0cd6 753b e224 8f3c
00000100: e46c 6e3c 1fed 25bc 10d8 c03c 68c1 543c
00000110: 0820 2e3b e72e 953b 26e0 5a3c 1277 2abc
00000120: 9378 a2bc bc65 223c 708e ee3b fe9f 393c
00000130: 642f 443c 969b fb3c 4e9e 2cbc 19ec 3f3c
00000140: 1411 063c eeda 27bc cce7 3c3a fab5 0d3b
00000150: 30b8 89bc dbb9 133c a7c4 9cbb ed8e 4c3b
00000160: 6892 063b 436e be3a e1b3 093c aff9 883c
00000170: 0086 113c f68d febb 92f1 55bc 7295 49bc
00000180: 2114 be3b ee23 883b 8bcd 833a 932f de3b
00000190: 99a9 cc3a e0ae 15bc e011 c13b 9226 3fbc
000001a0: 20c2 2abc 9b47 5d3a 2c09 a93a 9238 9a3c
000001b0: 341b 0dbc 9bc1 41bc 0a1e 2a39 3dd9 a33c
000001c0: 89df b93c 5bde 79bc de80 66bc 1deb 7cbc
000001d0: 41d9 3d3c d400 6dbb 9597 d4bb 28c5 d93c
000001e0: 6fe3 dfbb fc19 7cba 8e65 2f3c 36ce 3f3c
000001f0: 0aaf 6c3c 75e8 50bb 86b0 173c bcda 4fbc
00000200: 5f91 d23a 1fbc 40bb 2e77 1d3c c816 693b
00000210: 7cd7 3cba 02d7 af3b 7347 cbbb 5674 06bb
00000220: 8118 653c 1c58 1e3b 6e5d 80bc 2fac 273c
00000230: d0c0 f73b 9577 f8bb 736d b93c 9b03 bd3b
00000240: 5927 d6ba fad5 d5bb b128 8abc 35c9 ac3b
00000250: 8600 f1ba 6408 0abc 8f77 06bb 2e27 fdb9
00000260: 7b38 98bc 1551 2b3c 3131 c73b f26b 8239
00000270: ad3e 19bc 9384 423c 2cca 95bb 218e 24bc
00000280: 8840 163c 11c8 b53b da7b febb 560b 333c
00000290: fec5 06bc aa80 e23b 8210 fe3b 47f6 82bc
000002a0: 39ae 253b 1885 c13b 26f0 0e3c 5b8c e7bb
000002b0: 2294 95bc 595c a13b d972 663b 4bbc 7abc
000002c0: 73c1 233c cfd3 0d3c 5e09 4abc e69b a4bb
000002d0: eca9 f6bb 1dec 0c3a 43ab c6bb 8bdd 03bc
000002e0: 4a42 94bb 6b76 9bbc c69c 333c e297 26ba
000002f0: 72e3 c2bb 2586 d6ba edea 853c e3ec 2c3c
00000300: 3bb6 5abc fde7 8c3b 1fb1 2dbc 18a0 b2bb
00000310: 5abc 113a 6591 bd3c 1ab2 20bc aa82 1d3b
00000320: a093 403b f9c8 9aba 0942 8c3b 5cbb d43b
00000330: ec09 803a 3364 fabb 7295 aeb9 03da 68bb
00000340: f13b b23b a499 253b 5e0d 363b 04f8 2bbc
00000350: fa17 2e3c de5d e8bb f056 d9bb bd3e ecbb
00000360: 0aca d0bb edd4 1fbb 1a73 5bbc 465e 823b
00000370: d540 acba 0fc1 dfbb aa0d 8fbb 8da4 6dbc
00000380: 4f68 f03b cd34 e9bb 1e5d a1bc 6732 793b
00000390: 5bb0 99bc ba08 273c 2ffc 4d3b cc9c d43c
000003a0: a41a 43bc 5f76 d33b 2e49 4abc b8a2 a8bc
000003b0: f61c 21bc 1f48 92bb 7f2b 98bc 9fcf 0e3c
000003c0: 1175 073c 5174 84bb 8675 e9bb 6185 203c
000003d0: 4461 1b3c 75ad 3abc 88d3 22bc 584c 0c3c
000003e0: d6c2 a03b 0f7c 023c 27ee d13c bc1d 02bc
000003f0: 738a b6ba f082 593c 36f5 573c 1d90 273c
0.026055416 0.013870506 0.011939199 0.012274071 0.0033837315 0.016152544 0.010379875 0.007535755
0.009577946 -0.0076226117 0.016034521 0.009648456 -0.004271718 0.0014917522 -0.005865491 -0.0052855136
0.0046446263 -0.0075965286 0.03690486 -0.017119475 -0.005086776 -0.005959531 0.0036695085 0.018970555
-0.010138519 -0.00063650496 -0.003571732 0.024216354 -0.0005730114 -5.2189032e-05 -0.0012003899 0.0017235586
-0.009852597 0.022677006 0.022754993 0.008020582 0.0015681102 0.03295816 -0.004901205 0.0112181
-0.001999107 0.02159988 -0.0073130983 -0.00089110865 0.005768407 0.019518282 0.0081867725 -0.0063316105
0.016993437 -0.005552505 0.0100157065 -0.012940167 -0.013848883 0.010194708 0.007423962 0.01185943
-0.008231901 0.0074701034 0.008740816 -0.0067188405 -0.013213768 0.020506807 0.0037511615 0.017473642
0.014552329 -0.010127335 0.023540527 0.012985565 0.0026569385 0.0045527103 0.013359105 -0.010404365
-0.019832885 0.009911951 0.0072801635 0.011329649 0.011974189 0.030713838 -0.01053579 0.011714005
0.008182783 -0.010245068 0.0007206171 0.002162336 -0.01681146 0.009016479 -0.004784185 0.003121312
0.0020534042 0.001452871 0.008404703 0.01672062 0.008882046 -0.007768388 -0.013058083 -0.012303697
0.0058007394 0.004154674 0.0010055763 0.0067805736 0.0015614509 -0.009135932 0.0058920234 -0.011666911
-0.01042226 0.0008441151 0.001289641 0.018825803 -0.008612443 -0.011825944 0.00016223654 0.020001048
0.022689598 -0.015250768 -0.01406881 -0.015436915 0.011587442 -0.0036163824 -0.0064877965 0.02658327
-0.006832532 -0.0009616909 0.010705365 0.011706879 0.014446029 -0.0031876836 0.009258395 -0.012686428
0.0016065052 -0.0029409004 0.009610934 0.0035566557 -0.00072037405 0.005366207 -0.006203586 -0.002051612
0.013982893 0.0024161404 -0.01566955 0.010233923 0.007560827 -0.0075826147 0.022635197 0.005768252
-0.0016338631 -0.006525752 -0.016865106 0.005273009 -0.0018386997 -0.008424852 -0.002051804 -0.00048285112
-0.01858162 0.010456343 0.006078862 0.00024875958 -0.009353322 0.0118724285 -0.00457122 -0.010043652
0.009170659 0.0055475314 -0.007766229 0.010927996 -0.008225916 0.0069123106 0.0077534327 -0.015986575
0.0025280847 0.0059057586 0.008724248 -0.007066292 -0.018259112 0.004924339 0.003516367 -0.015303682
0.009994852 0.008656456 -0.012331335 -0.0050234674 -0.0075275805 0.000537576 -0.0060628965 -0.008048425
-0.004524504 -0.018977365 0.010962671 -0.000635503 -0.0059475238 -0.0016366882 0.016347373 0.010554525
-0.013349111 0.004300116 -0.010601311 -0.0054512136 0.00055593776 0.023140619 -0.009808088 0.002403418
0.0029384866 -0.0011809162 0.004280333 0.0064920615 0.0009768582 -0.007641339 -0.00033299212 -0.0035530336
0.0054392745 0.002526858 0.0027778964 -0.010496143 0.010625834 -0.007091268 -0.006632678 -0.0072096274
-0.006371741 -0.0024388388 -0.013394142 0.0039785234 -0.001314188 -0.0068284343 -0.0043656426 -0.014504564
0.0073366533 -0.00711689 -0.019697722 0.0038024427 -0.01876085 0.010194952 0.003143083 0.025953673
-0.011908207 0.00645332 -0.012346549 -0.020585403 -0.009833565 -0.004464164 -0.018575428 0.008716493
0.008267657 -0.0040421863 -0.0071246056 0.009797425 0.009483639 -0.011393894 -0.009938128 0.008563124
0.0049060388 0.007964148 0.025626255 -0.00794166 -0.0013926759 0.013275847 0.013181021 0.01022723

network_body._body_endoder.seq_layers.2.weight f4 [256, 256]
00000000: 0414 6a3d 10dc 3b3d 674c 27bd 05ad 953b
00000010: 2c43 d0bb dbf5 ff3c 97c6 b53c aac1 723d
00000020: 4094 b8bb d36d b0bc 9f6d b5bd 7397 b9bc
00000030: 9c3e 353b dbd1 b43d 9e80 a9bc 030c 93bc
00000040: 9196 78bd 6e0b 36bc a640 0bbe b221 0ebd
00000050: 8207 d6bc f2c4 6e3b 2125 5cbc c525 3a3d
00000060: 33e3 903d fc09 3dbd 003a 073d 7422 0cbc
00000070: c0b6 6ebd e9d8 c4bd 4852 a1bd c280 83bd
00000080: 7f69 03bd 9ec4 203d dc0a c43d 4be5 b63c
00000090: b103 543d 83a1 91bd f3b2 b5bd c9cc 533d
000000a0: dd25 bcbd 487e 8c3a a933 cd3b 5f5c 32bd
000000b0: 6f76 b5bc c2de 05bd c4b7 a6bd 31b5 243c
000000c0: aa84 3f3d 39a3 6d3d 8fec 8ebc d89f 67bd
000000d0: 6831 583c cf41 b5bd be5c a53d cb76 bc3d
000000e0: a9fb a1bc 62a5 a0bd e310 4d3d c634 b63d
000000f0: b02f 52bd cfb9 143d 2130 f9bc 702f 2b3d
00000100: eac1 07bd 1425 24bc 68cc 8cbd 2e19 80bd
00000110: 87b7 373c c990 a1bd e623 6b3d 9baa 993d
00000120: afef aebd 0aac 82bd 99b1 d6bd 9231 f73a
00000130: 31e9 4d3d da57 753d 91d7 45bc 5525 1fbd
00000140: c018 d8bd 2e27 d23c d3e5 f13c 045a b23b
00000150: 5e37 c3bd a3bf 473c 4e33 b7bb 71d8 b33d
00000160: ac07 57bd 2bea dfbc 4dc3 893d 745a f23d
00000170: aec3 bebd b08b 24bc 71c7 d2bc 37a0 cb3c
00000180: ef3d 86bd ab84 5cbd 0f1b a6bd f5ca 973d
00000190: ad69 2cbd d8de b2bd 9783 fcbd 449d 453d
000001a0: 5c00 823d 20fc 0cbe aacb bbbc 8e0b b53d
000001b0: a916 f73d 4d6c 0cbe fe44 5b3e 0204 783d
000001c0: bc26 013d 1135 09be 8172 18bc 7983 023d
000001d0: 2764 e43d 7c32 513d dd3a 39bc 32ae ad3d
000001e0: 0d5c 0dbd 1ca3 abbb 1731 a8bc c4a4 12bc
000001f0: 20d0 08bd 0285 a53c 17df 513b 25eb 603d
00000200: 9511 3a3d eaeb 4bbd e8d2 22bc 2fef e0bc
00000210: bbb9 383d 0051 213d b532 0b3d b4e2 d33b
00000220: a712 12bc bc8d 8d3c 6895 acbc c9a0 713d
00000230: f267 e13c 0c0f 11bd 901d 723b de51 95bc
00000240: cefb 48bc 9632 84bd ec1e 033d 1021 7ebd
00000250: b4dd 313d cb82 3e3d a67a 74bc b806 06bd
00000260: 4b0b 3a3d d052 b03d 63c2 e33d fafe 3e3c
00000270: 904d 153d 0ed7 3bbd d109 423c de7e 6abd
00000280: 6075 fdbc 86f3 8b3d 687f d8bd ed49 ecbd
00000290: 5cce 0138 2555 f8bc bd47 2fbd 6bdf fb3c
000002a0: 8f2a 053e 9b36 863d c42a 70bc c7ef e03c
000002b0: c88a 073d 3b7f e7bc e227 4bbd beb3 d73a
000002c0: 65a7 4cbd 72df 3b3d df33 7bbd b2f6 d6bd
000002d0: 5825 be3c bb05 b2bd dd8c ce3b aad7 1a3c
000002e0: 37ef 61bd 9755 a83d 1e5c ebbc 7f9c 84bc
000002f0: 636c 8fbd 0882 623c f283 243d ec25 903d
00000300: b4e5 d1bc 2973 3e3d 0d80 ee3b 3e7c b9bd
00000310: e896 23bc aff6 6bbd c83c 843d 86b8 3bbd
00000320: f1ee 3cbc ba1f 68bd 4e70 ccbc 4c7e 1f3d
00000330: 295c 42bd cbfc e83c 5cc5 5abd 4259 a03d
00000340: 4265 883d 53a5 12bc 17d7 d2bc 3442 153b
00000350: bedf c3bc 92e9 a23d 8dd6 62bb ed66 b93c
00000360: d676 8f3d fbd0 f1bb 8414 48bd 89ae d5bd
00000370: f9a1 953d d978 e33d 0b6e 07bd b26e f8bc
00000380: 98b6 93bd 7bfd ccbd 4d5c 093c 2b30 d23a
00000390: eaa0 9ebc dbe8 9b3d c790 953d 9fbe a93d
000003a0: a677 babb 9f15 e93d c4b0 0e3d 0c85 c23c
000003b0: 8d18 12bd 9426 273e 500f fc3c b6dc 9c3d
000003c0: be47 083d 9c37 063d 6e04 08bd 49d6 a03c
000003d0: bdc4 44bd ab8b 0cbb 0432 20bd b352 6cbc
000003e0: 395a f13d 4182 ce3c 9ea2 df3c 459a abbc
000003f0: c4da c13b 120c 55bd c890 89bd d944 0e3d
0.057147995 0.045864165 -0.040844347 0.0045677447 -0.0063556638 0.031245163 0.022189422 0.059266724
-0.005632907 -0.021536743 -0.08858799 -0.022655224 0.0027655726 0.08829089 -0.020691212 -0.017950064
-0.060690466 -0.0111111235 -0.1359888 -0.034700103 -0.026126627 0.0036433307 -0.013436587 0.045446176
0.07074585 -0.0461521 0.033014297 -0.008553136 -0.058279753 -0.09611685 -0.07877022 -0.06421043
-0.03208303 0.03925001 0.09572384 0.022326132 0.051761333 -0.07110884 -0.088720225 0.05170897
-0.09186909 0.0010718787 0.006262262 -0.043545123 -0.0221512 -0.03268314 -0.08140519 0.010052965
0.046757378 0.05801699 -0.017446784 -0.056548923 0.013195373 -0.088504426 0.0807433 0.092023455
-0.019773321 -0.07844044 0.050064933 0.088967845 -0.05131501 0.036310013 -0.030418457 0.041793287
-0.033143915 -0.010018606 -0.06874925 -0.06254803 0.01121319 -0.07888944 0.057407282 0.075032435
-0.0854181 -0.0638047 -0.10483093 0.0018859378 0.050271217 0.059898235 -0.012075321 -0.038853962
-0.10551596 0.025653448 0.029528534 0.0054428596 -0.09532045 0.012191686 -0.005590833 0.08781517
-0.05249755 -0.02733334 0.06726704 0.11833659 -0.09314667 -0.01004307 -0.025729867 0.02485667
-0.06554782 -0.05383746 -0.0811063 0.07411758 -0.042092968 -0.0873391 -0.12329786 0.048245683
0.06347725 -0.13768053 -0.022924263 0.088400945 0.12064869 -0.13713188 0.21413037 0.060550697
0.03153108 -0.1339915 -0.009304644 0.031863663 0.11151915 0.051073536 -0.011305538 0.08480491
-0.034511615 -0.00523795 -0.02053122 -0.008950416 -0.03340161 0.020205025 0.003202384 0.05491175
0.045426924 -0.049785532 -0.009937979 -0.027457802 0.045099 0.03938389 0.033983905 0.006466234
-0.00891558 0.017279498 -0.021067336 0.058991227 0.027515385 -0.03541474 0.003694389 -0.018227514
-0.012267066 -0.06454961 0.03201191 -0.06204325 0.043424323 0.046511453 -0.01492182 -0.03272125
0.045420926 0.08609545 0.11121061 0.011657471 0.036450922 -0.04585939 0.011843161 -0.057249896
-0.030939758 0.06833558 -0.10571176 -0.11537538 3.0948184e-05 -0.030314038 -0.042793024 0.030746182
0.13004516 0.06553384 -0.014658634 0.027458085 0.033091336 -0.02825891 -0.049598582 0.0016456766
-0.049964327 0.04586739 -0.061328765 -0.10496272 0.023211166 -0.08692499 0.0063034133 0.009450832
-0.055159774 0.0821945 -0.028730448 -0.016187904 -0.07003095 0.013824947 0.040164895 0.07038483
-0.025622226 0.046496544 0.0072784484 -0.090569004 -0.009984709 -0.057608303 0.064569056 -0.045830272
-0.011531577 -0.05667088 -0.024955895 0.038938805 -0.047451172 0.028440854 -0.053410873 0.078295246
0.066599384 -0.008950549 -0.025737328 0.0022775056 -0.0239104 0.07954706 -0.0034612746 0.022632087
0.07005088 -0.0073796487 -0.04884769 -0.104336806 0.073062845 0.11107034 -0.03306393 -0.030326221
-0.07212561 -0.10009285 0.008383823 0.0016036084 -0.01936384 0.07612773 0.07303005 0.08288311
-0.0056905327 0.11381077 0.034836546 0.023745082 -0.035667945 0.1632331 0.03076902 0.07659285
0.033271544 0.032767877 -0.03320735 0.01963343 -0.048039187 -0.0021445553 -0.0391102 -0.014424014
0.11784787 0.025208594 0.027299222 -0.020947585 0.0059159715 -0.052013464 -0.06717068 0.034733627

network_body._body_endoder.seq_layers.4.bias f4 [256]
00000000: 82a5 963c 294e 313c 1117 a1bc 54c7 c1bb
00000010: 9af9 903c b77f 0ab9 a547 693c 969e 87bc
00000020: 45c2 8d3c 63fa 85bc a4dd 08bc 7035 21bc
00000030: 0bb4 3bbc fcde bf3a 45a4 42bc bcef 7d3b
00000040: 5ba3 2fbb ee2e 9cbb bf2f 83bc c88f 5f3c
00000050: 4238 4f3c fea2 63bc c3d6 983c fe19 43ba
00000060: c40d f7ba 4baf 30bc aee8 0b3c 3655 90bc
00000070: 3240 95bc 6450 85bc 173b 203c 24cf f0bb
00000080: 2f38 2e3c 3aa9 a2bb d8e6 03bc 9387 453b
00000090: 1e03 06bc 497d 1e3b 2fea 8ebb a5f0 9eb9
000000a0: e323 623c 997c 31bc 1a40 13bc 8213 debb
000000b0: e0d8 deba 1117 63bb 842c 74bc 7109 4abc
000000c0: 6818 2fbc 82c2 adbc c5f1 993c ec1a 12bb
000000d0: 649c f7ba a341 3fbc c22a 44bc 9f33 a13c
000000e0: 41b9 6dbc c556 b0bb b578 ef3b ef56 8b3b
000000f0: 971a db3a 56c7 0cbc 61ef 51bc 1089 4bbb
00000100: 4675 613c 7072 dc3b f99b a8ba 1fb2 db3b
00000110: ef4a 83bb 0b0c 043c 83be a23b 8a39 4b3c
00000120: 806e 90bb d0de 1ebc 7dbc 213c 2b9d 523a
00000130: 3561 563c a0e9 943b 90aa ef39 b2af cdbb
00000140: 7dc7 e1ba f66b 95bb ab42 f23b 1f13 a33c
00000150: 7bd5 b33b 47ee ea3b 2b49 ba3b 57ca 53bc
00000160: ce6e ab3c 693f a3bc 996d bbbb b999 6c3c
00000170: cf93 f539 4714 7e3b 94d7 5d3b 523b 573c
00000180: 9322 cb3c 4f16 75bc 853b 19bc ec70 d8bb
00000190: c397 15bc 870c 1bb8 8a59 adbc b1cd b2ba
000001a0: 5272 293a 2d93 ed3b 161b 59bc 8ddb ad3b
000001b0: 90ae ad3c 31a8 633c de0f 9b3c 60a8 803c
000001c0: c245 613c a41e 41bc deef 193c 9a6f 91bc
000001d0: eed8 143c bcd7 713b 83bb e2bb 0efe 0d3c
000001e0: d13a 2c3c e7be 923c 2497 11bb 0ea0 98bc
000001f0: 19e1 20bb 080c 3bbc 2ac2 8c3c ec56 b5bb
00000200: ed0d 2f3c 462b f1bb 16c6 ddbb b2d3 493c
00000210: 4b83 353c 9c2b 923c 4870 7aba 5d72 193c
00000220: 5977 493c 97ed ed3b 75b6 09bb 724b 8bbc
00000230: 00fe c93b d9a8 84bc a4d5 323b bb4a 3fbc
00000240: 7568 023c 7f6f 47bc c924 8ebb cad7 25bc
00000250: 6845 ba3a 84ff af3c 6fa6 5cbc e48e 753c
00000260: 0cbd 5dbb c15e 68bc fe36 523c 46ed 893c
00000270: 0195 1a3c 716a 373c bc13 723a 0b7b 31bb
00000280: 5fe9 08bc 6567 79bc 5d6f 673c 25f2 77bc
00000290: 1e20 6dbc a2a6 adbb eccf a9bc b39b ad3b
000002a0: 00a2 0fbc ad76 ce3a 950e 9c3b b7a7 cc3b
000002b0: d6a5 4ebb 528c b7bc 0f62 603c 3977 94bc
000002c0: e9fd 80bb c0b1 dfbb 9d60 a5ba 3640 493c
000002d0: 2b71 863b 3980 393c b651 9a3c ce31 aa3c
000002e0: c8d0 3cbc 4532 a13b a3cf fdba 18b8 81bc
000002f0: cbee 5bbc 6c8a 65bb 6d5e 91bc d246 50bc
00000300: 2a77 b338 dbce fd3a c20b 993c 5748 2c3c
00000310: 98ae b2ba e58f 8bbc cdb9 16bc b455 df3b
00000320: 7d70 29bc 347b a639 aa11 983b f218 f73b
00000330: 7d76 3239 28bb 803c 4791 70bb 012a c63b
00000340: 40b6 9dbc 48cc da3a 343a c73b 9840 7ebb
00000350: 579a 14bc fb3b 1abb 4f81 5b3c dd37 7cbc
00000360: 0482 7a3c 2298 6f3c b987 f6bb ee58 ff3a
00000370: 93b9 523c eaf7 85bc 6a0e 27bb 3b2a 103c
00000380: 8e98 39bc d907 3e3c 4b3f adbc e4ad 693c
00000390: 5a39 5ebc e01f 243b f7fe d83c 4469 8b3c
000003a0: b8e8 8e3c 8a2b 24bb f28f a93b fb81 49bc
000003b0: c360 fdbb 0c60 27bc 5c58 9abb 7015 95bc
000003c0: 4f86 a6bb 9ba0 de3b 2b1c dd3b 4f65 81bb
000003d0: 75f3 793c 9e0b 4e3c 5def 38bc ee72 813c
000003e0: a697 563c f228 4b3c 7ac6 34ba 03b7 7bbb
000003f0: f628 adbb 5789 953c 0c5c e9bb 0e1d 203c
0.018389467 0.0108218575 -0.01966432 -0.0059136543 0.017697144 -0.00013208283 0.014238273 -0.016555112
0.017304549 -0.016354745 -0.0083536245 -0.009839401 -0.0114565 0.0014638598 -0.011879985 0.003874763
-0.0026800248 -0.0047663366 -0.016013978 0.01364512 0.01264769 -0.013893841 0.018657094 -0.0007442533
-0.0018848707 -0.010783981 0.008539362 -0.017618757 -0.018219087 -0.016273685 0.009779713 -0.007348912
0.010633512 -0.004964021 -0.008050643 0.0030140623 -0.008179454 0.0024183562 -0.004361413 -0.00030315403
0.013802501 -0.010832929 -0.008987451 -0.006777228 -0.001700189 -0.00346512 -0.0149031915 -0.012331353
-0.010686971 -0.021210913 0.018792043 -0.0022293879 -0.0018891213 -0.011673364 -0.011973085 0.019677935
-0.0145095 -0.0053814375 0.0073080906 0.0042523067 0.0016716298 -0.008592447 -0.01281342 -0.0031057037
0.01376087 0.006727509 -0.0012863866 0.0067045833 -0.0040067355 0.008059512 0.0049665584 0.012403855
-0.004407704 -0.009696677 0.009871599 0.0008034284 0.013084699 0.004544452 0.0004571271 -0.006277048
-0.001722559 -0.004559989 0.0073932013 0.019906579 0.0054880953 0.007169518 0.005684992 -0.01292666
0.02092686 -0.019927697 -0.005719852 0.014440947 0.00046840167 0.003876941 0.0033850418 0.013136702
0.02479676 -0.014958932 -0.0093525695 -0.006605258 -0.009130421 -3.6966547e-05 -0.02116086 -0.0013641623
0.00064638734 0.0072502107 -0.013251087 0.0053057135 0.021201402 0.01389508 0.018928465 0.015705287
0.013749542 -0.01178709 0.009395568 -0.017753411 0.009084923 0.003690227 -0.006919326 0.008666528
0.01051207 0.017913295 -0.002221533 -0.018631008 -0.002454823 -0.011416443 0.017182428 -0.0055340435
0.0106844725 -0.007359895 -0.0067679984 0.0123185385 0.011078666 0.01784306 -0.00095534744 0.009365645
0.012296521 0.007260989 -0.0021013294 -0.017003749 0.0061643124 -0.016193794 0.0027287984 -0.011675532
0.007959475 -0.012172579 -0.004337881 -0.010122249 0.0014211359 0.021484144 -0.013467415 0.014987681
-0.0033834605 -0.014182747 0.012830494 0.016836774 0.009434939 0.011194811 0.0009234508 -0.0027081396
-0.008356421 -0.015222405 0.014125672 -0.015133415 -0.014472989 -0.005299405 -0.020729028 0.005298102
-0.008766651 0.0015751921 0.0047624805 0.006245579 -0.0031531951 -0.022405777 0.013695254 -0.018123256
-0.0039365184 -0.0068266094 -0.0012617294 0.0122833755 0.004102846 0.011322075 0.018837791 0.020775702
-0.011524387 0.0049193227 -0.0019364249 -0.015834853 -0.013423632 -0.0035025133 -0.017745221 -0.012712197
8.557581e-05 0.0019364016 0.018682364 0.010515294 -0.0013632355 -0.017036388 -0.009199572 0.0068156365
-0.010341761 0.0003175378 0.0046407776 0.0075408155 0.00017019543 0.015714243 -0.0036707686 0.0060474877
-0.019251943 0.0016692961 0.0060799364 -0.0038795825 -0.009070001 -0.0023534286 0.013397529 -0.015394178
0.015289787 0.014623674 -0.0075235036 0.0019481459 0.012861627 -0.016353566 -0.002549077 0.008799131
-0.011327876 0.011598551 -0.021148345 0.01426265 -0.013563478 0.0025043413 0.026488764 0.017017968
0.017444953 -0.0025050365 0.0051746303 -0.012299056 -0.007732482 -0.01021577 -0.0047102403 -0.018198699
-0.005081929 0.006794048 0.0067477426 -0.0039488445 0.015255799 0.012576012 -0.011287537 0.015801873
0.013097679 0.012399899 -0.00068960304 -0.0038408644 -0.005284424 0.018253965 -0.0071215685 0.009772552

network_body._body_endoder.seq_layers.4.weight f4 [256, 256]
00000000: 9316 ae3d 8a58 32bd ab63 93bd 005a be3c
00000010: f6ad 0f3d e52c d83c 5f47 a8bc 24b7 a1bc
00000020: a59d efbb 08d1 59bd b924 cc3d bafb adbc
00000030: 47f9 093d ee96 4e3d 7fa1 e7bc e95a 78bc
00000040: 4ba5 703d cd04 35bd 2f61 ba3c 89cb c7bc
00000050: d30a 6b3d 44dc 64bb 40c7 b33c 52e6 e73d
00000060: e229 02be 62d9 373d 2912 03be 45ad f43d
00000070: 4328 bebd 8d98 8e3d 6eb2 02bd ffa8 103d
00000080: 78e4 4b3c f4ef 74bd 95be 2c3a 1242 0cbc
00000090: 8205 42bc e397 83bd a5fe 46bc c207 453a
000000a0: b609 a7ba 3dd6 d93c eb7e 1abd 967b fbbc
000000b0: 6dba cf3d 19ab 443c 94a2 d03d 4912 36bd
000000c0: 83fc 913a fbf1 29bd f173 b83c d442 1d3d
000000d0: 1c7a 17bd 819a 323d 5456 5dbd 24a6 4b3c
000000e0: 8a00 783d 5d8f dcbc e22b bd3a bdcf 873b
000000f0: 882a e2bc 65b3 f53d b992 553d dc6f 13bc
00000100: 6d4b 1b3c ab41 e0bc 8a3d d03d d257 5c3d
00000110: 93aa 993d e916 ee3d c480 eabd 46d8 c7bd
00000120: db85 6a3d 902e b03d 28f3 23bd 7b2c bbbc
00000130: f242 5ebd a3cd 8d3d 6f8c dcbc 537b dbbc
00000140: f4b1 623b c0ca bb3b 172f 073d b18c ab3d
00000150: 9906 6a3b 76f6 eabb ec58 a6bd 6a00 143c
00000160: b94b 503c 6c3e 5c3c d3ec c8bc d5d8 e2bb
00000170: 9e2f e83c 6eef 0cbe e415 b03d 10ac f03d
00000180: f49a df3d 40b3 8ebc 4302 b53c 2a07 923c
00000190: 9b26 013c 18fb 143d 2653 4bbd b7e4 443c
000001a0: 049c cebd 2b9c ff3d ad64 57bd 175d 083e
000001b0: 33ae c03d 1411 bbbd 405a a5bd 7977 95bd
000001c0: c84d 123d b357 30bc 5bcc 36bd f545 493d
000001d0: 12b9 833c 4a31 463d a5d8 b1bd e8d2 1dbe
000001e0: f3c8 a1bc 56aa 4ebd 0996 933d 3df1 15bc
000001f0: 644d 643d 8bdb afbc aa36 553d b09e 2f3d
00000200: f4d3 4cbd 997c bfbd 88af 173d 1e03 8c3d
00000210: 6956 21bd 4230 babc 9149 98bc 439a 8c3b
00000220: 4142 b4bd 01f8 193e 7d7a b9bd b35c cebd
00000230: 1177 d33d 9c5b b73d 29c5 873d 4107 24bd
00000240: 35e8 e73d 570a 30bd f2cf 8dbd e555 14bd
00000250: d656 75bc 8dca cebc 2c02 bb3d 9d64 edbb
00000260: 7d72 6d3c 03bb ec3d 70c8 b43c 0912 963d
00000270: f557 2fbb 317c 973d ebfe 21bb 0a43 993d
00000280: 8c41 71bc 5a29 dd3d 1b05 01be d287 f13d
00000290: 7943 453c 5658 823d 49fa aebd 6af6 9abd
000002a0: a780 fc3b dbc9 fc3c 5220 2fbd 5bc0 49bd
000002b0: 0914 acbd 5b3b ae3d df1b 45bd 5bdb b93c
000002c0: a448 553d a2b6 653d b1e8 c0bd 07dc 953c
000002d0: 2219 ad3d b6a8 bdbd a2eb 8ebc 9da6 58bd
000002e0: b8f0 a33b 2650 03bd 2dbf 8bbd 5eb4 81bd
000002f0: 4fde 7b3d c78f 063c e9bf d33d c0f1 d8bc
00000300: 775a 1d3d c8f0 ce3b 975a 9dbd 505f d03d
00000310: 1f83 1abc a156 a73d 35c9 89bc 5eaf f0bc
00000320: 1d64 913d f8e1 19be cd5e b63d 47b4 8bbd
00000330: 2f1b 04bd 36ce 5cbd 0c49 f73c dcd8 51bd
00000340: 007a 043d f96e c93c 9294 093d 1fe1 803d
00000350: bd8d eabc 69f6 f5bb 9026 103d 062c cc3b
00000360: 22cd 39bd 218d 5abd 93b1 273e 4e70 dbbc
00000370: 6c62 89bc 06f4 99bb 15a4 593d 1eb7 bcbb
00000380: cc0a 55bd 040d 583d acc1 cbbd 2117 a03c
00000390: 5b79 ff3d 994c 0abd 4a1d 0bbd 9169 ba3d
000003a0: 2ca4 8bbd 7fcf 6e3c b49f 57bd 71d3 fbbc
000003b0: 3337 a7bd 11e4 bd3c 481a 6ebd 9d48 5cbd
000003c0: d6f1 e03d 7b33 dfbd 6b3f 203e cdd4 c8bd
000003d0: 811a 973d aba9 dabd 31f5 df3b 49e0 a23d
000003e0: d7ed 29be b1c3 e5bc b622 143d 5cfe a9bd
000003f0: 4416 b13c 9fa5 b83d 7548 64bc 6a23 8b3d
0.085003994 -0.04354147 -0.071967445 0.023236275 0.03507801 0.026388595 -0.020541845 -0.019740649
-0.007312494 -0.053177863 0.09967942 -0.021238197 0.033684995 0.050436907 -0.02827525 -0.015158393
0.058751386 -0.04419403 0.022751419 -0.024389045 0.05738337 -0.0034921328 0.021945596 0.11323227
-0.1271129 0.044885047 -0.12799896 0.11947111 -0.09285023 0.069626905 -0.031908445 0.035317417
0.012444608 -0.05979915 0.0006589678 -0.008560674 -0.0118421335 -0.064254545 -0.012145673 0.00075161096
-0.0012743983 0.026591415 -0.037718695 -0.030698579 0.1014298 0.0120036835 0.10187259 -0.04445103
0.0011137876 -0.041490536 0.022516223 0.03839381 -0.036981687 0.043604378 -0.054037407 0.012429748
0.06054739 -0.02692383 0.0014432634 0.0041446374 -0.027608171 0.119971074 0.05214188 -0.008998837
0.009478432 -0.027375063 0.10167988 0.05379469 0.075032376 0.116254635 -0.11450341 -0.09758048
0.05725656 0.08602631 -0.040026814 -0.022848358 -0.054263063 0.06923988 -0.026922433 -0.026792204
0.0034590932 0.005730957 0.033003893 0.08376444 0.00357095 -0.0071704937 -0.08122429 0.009033302
0.012713366 0.013442617 -0.02452699 -0.006922821 0.028343018 -0.1376321 0.08597925 0.11751568
0.10918227 -0.017419457 0.022095805 0.017825682 0.007882739 0.036372274 -0.049639843 0.0120174205
-0.10088351 0.124809586 -0.052586246 0.13316761 0.09408226 -0.09134117 -0.080738544 -0.07298178
0.03571871 -0.010763097 -0.044628482 0.04913898 0.01607946 0.04838685 -0.086839 -0.15412486
-0.01974914 -0.050455414 0.07206351 -0.009151754 0.055737868 -0.021466991 0.052054085 0.042875946
-0.05000682 -0.09349937 0.037032634 0.06836532 -0.039389048 -0.02272809 -0.018589767 0.0042908504
-0.088016994 0.15036012 -0.09056566 -0.10076275 0.103254445 0.0895302 0.06629402 -0.04004598
0.11323587 -0.04297861 -0.06924428 -0.036214728 -0.014974317 -0.025243068 0.091312736 -0.00724466
0.014492628 0.11559107 0.022068232 0.07327659 -0.0026755307 0.073967345 -0.0024718593 0.0748349
-0.0147251 0.10798903 -0.12599604 0.11793484 0.0120400125 0.06364505 -0.08543832 -0.07566531
0.0077057662 0.030857971 -0.042755432 -0.04925571 -0.08402259 0.08507415 -0.048122283 0.022687605
0.05207123 0.056082375 -0.09419382 0.018293394 0.08452059 -0.09260695 -0.017446343 -0.05289327
0.005003061 -0.032058857 -0.06823573 -0.063332304 0.061491307 0.00821299 0.10339338 -0.026482463
0.038416352 0.0063153245 -0.07683294 0.101744294 -0.009430676 0.0817082 -0.016819576 -0.029380497
0.07099173 -0.15027606 0.089048006 -0.068214945 -0.032252487 -0.053907596 0.030186199 -0.051232204
0.03234291 0.024589049 0.033588953 0.062929384 -0.02863204 -0.007506181 0.035193026 0.006230834
-0.045361646 -0.053357247 0.16376333 -0.02678695 -0.016770564 -0.0046982793 0.053134996 -0.005759134
-0.05201225 0.052746788 -0.09949049 0.019542279 0.124743186 -0.033764455 -0.03396348 0.091021664
-0.06818423 0.014575838 -0.05264254 -0.030740472 -0.08164825 0.02318004 -0.058130533 -0.053780187
0.109836265 -0.10898491 0.15649192 -0.098062135 0.07378102 -0.10676893 0.006834649 0.07952935
-0.16594635 -0.028047414 0.036165915 -0.08300468 0.021617062 0.09015965 -0.013933291 0.06793864

network_body.observation_encoder.processors.0.normalizer.running_mean f4 [25]
00000000: 0000 0000 0ef6 383b 0000 0000 fda0 6d3f
00000010: aa2d 783f 0000 0000 4a53 bb3a 0000 0000
00000020: 3224 6f3f 5dfb 793f 0000 0000 e399 993a
00000030: 0000 0000 4b1e 573f 83a2 6f3f 0000 0000
00000040: c792 b13b 0000 0000 b034 663f e4f6 743f
00000050: 0000 0000 c792 b13b 0000 0000 b034 663f
00000060: e4f6 743f
0.0 0.0028222832 0.0 0.92823774 0.9694468 0.0 0.001429179 0.0
0.93414605 0.97649175 0.0 0.0011718835 0.0 0.840306 0.9360735 0.0
0.0054191086 0.0 0.89924145 0.95689225 0.0 0.0054191086 0.0 0.89924145
0.95689225

network_body.observation_encoder.processors.1.normalizer.running_mean f4 [55]
00000000: 0000 0000 8c73 b13a 0000 0000 38a2 7e3f
00000010: bf48 7f3f 0000 0000 1662 873a 0000 0000
00000020: d4ef 7e3f f469 7f3f 0000 0000 82ad 893a
00000030: 0000 0000 e911 7e3f 9002 7f3f 0000 0000
00000040: 6eef a439 0000 0000 3038 7f3f 7990 7f3f
00000050: 0000 0000 0115 003a 0000 0000 e66a 7e3f
00000060: e02b 7f3f 0000 0000 a9c1 b03a 0000 0000
00000070: 2ab6 7e3f f86c 7f3f 0000 0000 e85a c73a
00000080: 0000 0000 b123 763f ce1c 7d3f 0000 0000
00000090: 71b7 623b 0000 0000 eff0 7d3f 2bea 7e3f
000000a0: 0000 0000 71b7 623b 0000 0000 567a 6d3f
000000b0: b829 7b3f 0000 0000 8624 813b 0000 0000
000000c0: b3cb 7d3f a3ce 7e3f 0000 0000 8624 813b
000000d0: 0000 0000 b3cb 7d3f a3ce 7e3f
0.0 0.0013538464 0.0 0.99466276 0.99720377 0.0 0.0010328915 0.0
0.995847 0.99771047 0.0 0.001050398 0.0 0.9924608 0.99613285 0.0
0.00031458907 0.0 0.9969511 0.9982982 0.0 0.00048859423 0.0 0.99381864
0.9967632 0.0 0.001348545 0.0 0.9949671 0.9977565 0.0 0.0015209587
0.0 0.9614821 0.9887208 0.0 0.0034594203 0.0 0.9919576 0.9957606
0.0 0.0034594203 0.0 0.92764795 0.9811053 0.0 0.0039411215 0.0
0.99138945 0.9953405 0.0 0.0039411215 0.0 0.99138945 0.9953405

network_body.observation_encoder.processors.2.normalizer.running_mean f4 [15]
00000000: 0000 0000 36e3 1a3c 0000 0000 28b1 2d3f
00000010: d159 5a3f 0000 0000 7418 ae3e 0000 0000
00000020: fae0 283f b5ec 753f 0000 0000 7418 ae3e
00000030: 0000 0000 fae0 283f b5ec 753f
0.0 0.009453585 0.0 0.67848444 0.852933 0.0 0.3400303 0.0
0.65968287 0.9606431 0.0 0.3400303 0.0 0.65968287 0.9606431
