Assets/Training/results/Run 3/DroneBehavior/DroneBehavior-4096.onnx (onnx, 659144 bytes, 17 tensors)

101 f4 [15]
0	0x3c7ff801	0.015623094
1	0x3c7ff801	0.015623094
2	0x3c7ff801	0.015623094
3	0x3eff349d	0.49844828
4	0x3e66cb7b	0.22538559
5	0x3c7ff801	0.015623094
6	0x3ea04b7b	0.31307587
7	0x3c7ff801	0.015623094
8	0x3ea07350	0.31337976
9	0x3d676318	0.056490988
10	0x3c7ff801	0.015623094
11	0x3ea04b7b	0.31307587
12	0x3c7ff801	0.015623094
13	0x3ea07350	0.31337976
14	0x3d676318	0.056490988

104 f4 [25]
0	0x3c7ff801	0.015623094
1	0x3c7ff801	0.015623094
2	0x3c7ff801	0.015623094
3	0x3cb4fc1e	0.022092875
4	0x3cb4fc1e	0.022092875
5	0x3c7ff801	0.015623094
6	0x3c7ff801	0.015623094
7	0x3c7ff801	0.015623094
8	0x3cb4fc1e	0.022092875
9	0x3cb4fc1e	0.022092875
10	0x3c7ff801	0.015623094
11	0x3c7ff801	0.015623094
12	0x3c7ff801	0.015623094
13	0x3cb4fc1e	0.022092875
14	0x3cb4fc1e	0.022092875
15	0x3c7ff801	0.015623094
16	0x3c7ff801	0.015623094
17	0x3c7ff801	0.015623094
18	0x3cb4fc1e	0.022092875
19	0x3cb4fc1e	0.022092875
20	0x3c7ff801	0.015623094
21	0x3c7ff801	0.015623094
22	0x3c7ff801	0.015623094
23	0x3cb4fc1e	0.022092875
24	0x3cb4fc1e	0.022092875

95 f4 [25]
0	0x3c7ff801	0.015623094
1	0x3c7ff801	0.015623094
2	0x3c7ff801	0.015623094
3	0x3e515d56	0.20445761
4	0x3dbf0fae	0.093291625
5	0x3c7ff801	0.015623094
6	0x3c7ff801	0.015623094
7	0x3c7ff801	0.015623094
8	0x3cb4fc1e	0.022092875
9	0x3cb4fc1e	0.022092875
10	0x3c7ff801	0.015623094
11	0x3c7ff801	0.015623094
12	0x3c7ff801	0.015623094
13	0x3eb4f26c	0.35341203
14	0x3e218890	0.1577475
15	0x3c7ff801	0.015623094
16	0x3c7ff801	0.015623094
17	0x3c7ff801	0.015623094
18	0x3cb4fc1e	0.022092875
19	0x3cb4fc1e	0.022092875
20	0x3c7ff801	0.015623094
21	0x3c7ff801	0.015623094
22	0x3c7ff801	0.015623094
23	0x3cb4fc1e	0.022092875
24	0x3cb4fc1e	0.022092875

98 f4 [55]
0	0x3c7ff801	0.015623094
1	0x3c7ff801	0.015623094
2	0x3c7ff801	0.015623094
3	0x3cb4fbef	0.022092788
4	0x3cb4fbef	0.022092788
5	0x3c7ff801	0.015623094
6	0x3c7ff801	0.015623094
7	0x3c7ff801	0.015623094
8	0x3cb4fbef	0.022092788
9	0x3cb4fbef	0.022092788
10	0x3c7ff801	0.015623094
11	0x3c7ff801	0.015623094
12	0x3c7ff801	0.015623094
13	0x3cb4fbef	0.022092788
14	0x3cb4fbef	0.022092788
15	0x3c7ff801	0.015623094
16	0x3c7ff801	0.015623094
17	0x3c7ff801	0.015623094
18	0x3cb4fbef	0.022092788
19	0x3cb4fbef	0.022092788
20	0x3c7ff801	0.015623094
21	0x3c7ff801	0.015623094
22	0x3c7ff801	0.015623094
23	0x3cb4fbef	0.022092788
24	0x3cb4fbef	0.022092788
25	0x3c7ff801	0.015623094
26	0x3c7ff801	0.015623094
27	0x3c7ff801	0.015623094
28	0x3cb4fbef	0.022092788
29	0x3cb4fbef	0.022092788
30	0x3c7ff801	0.015623094
31	0x3c7ff801	0.015623094
32	0x3c7ff801	0.015623094
33	0x3e5e467a	0.21706572
34	0x3df21990	0.11821282
35	0x3c7ff801	0.015623094
36	0x3c7ff801	0.015623094
37	0x3c7ff801	0.015623094
38	0x3cb4fc1e	0.022092875
39	0x3cb4fc1e	0.022092875
40	0x3c7ff801	0.015623094
41	0x3c7ff801	0.015623094
42	0x3c7ff801	0.015623094
43	0x3ea5bee5	0.32372203
44	0x3dfccef4	0.12344161
45	0x3c7ff801	0.015623094
46	0x3c7ff801	0.015623094
47	0x3c7ff801	0.015623094
48	0x3cb4fc1e	0.022092875
49	0x3cb4fc1e	0.022092875
50	0x3c7ff801	0.015623094
51	0x3c7ff801	0.015623094
52	0x3c7ff801	0.015623094
53	0x3cb4fc1e	0.022092875
54	0x3cb4fc1e	0.022092875

action_model._continuous_distribution.log_sigma f4 [1, 3]
0	0x00000000	0.0
1	0x00000000	0.0
2	0x00000000	0.0

action_model._continuous_distribution.mu.bias f4 [3]
0	0x00000000	0.0
1	0x00000000	0.0
2	0x00000000	0.0

action_model._continuous_distribution.mu.weight f4 [3, 256]
0	0xbbe47208	-0.0069716014
1	0xbc6846f0	-0.014177069
2	0xbcb3f591	-0.021967681
3	0x3c9e97c7	0.019359482
4	0xbcddf013	-0.027092015
5	0xbc623e0a	-0.013808737
6	0xba95ce3f	-0.0011429264
7	0x3b5a7543	0.0033334054
8	0x3b959970	0.0045654103
9	0x3bf3c6dd	0.007439478
10	0x3ba05903	0.0048934235
11	0x3c18fa61	0.009337039
12	0xbc4c0b63	-0.012453887
13	0x3bb74d2c	0.0055939164
14	0xbc4e682d	-0.01259808
15	0xbc53501b	-0.012897517
16	0x3b24611f	0.0025082303
17	0xbbf795c8	-0.007555697
18	0x3cb6a073	0.022293305
19	0x3ba45bcb	0.0050158254
20	0xb9698278	-0.00022269215
21	0xbc5fc2b5	-0.013657262
22	0xbbdb3655	-0.0066898265
23	0x3998aba4	0.0002911958
24	0x3b9883f6	0.004654403
25	0xbc9dc29f	-0.019257842
26	0x3c9b86fd	0.018985266
27	0xbc0e1470	-0.008671865
28	0xbba14db5	-0.0049225935
29	0x3b72264d	0.0036949099
30	0xbc93c9b6	-0.01804052
31	0xbc1c2ef4	-0.009532679
32	0xbc3a0dc4	-0.011355821
33	0x3d00e59e	0.03146898
34	0x3c1a0e0b	0.009402762
35	0x3ba52e88	0.0050409473
36	0xbc08ee30	-0.00835757
37	0xbc869d4f	-0.016432432
38	0xbc58525b	-0.013203229
39	0x3cfb157f	0.030649899
40	0x3bef71ca	0.007307266
41	0xbc5a9cd3	-0.013343054
42	0x3c6f96da	0.014623368
43	0x3c01d543	0.007924381
44	0xbb1f664d	-0.002432245
45	0xbba0fc40	-0.004912883
46	0xbc90c721	-0.017673077
47	0xbbc28bc3	-0.005937071
48	0x3b83886d	0.004014066
49	0xbb5624f2	-0.003267583
50	0xbbee1643	-0.0072658374
51	0x3c162a79	0.0091654
52	0x3c737207	0.014858729
53	0xbc3d7147	-0.011562652
54	0xbc1d3476	-0.009595027
55	0xbca9438e	-0.020662095
56	0x3bc0b577	0.0058810073
57	0x3bf6829a	0.007522893
58	0xbbe3145a	-0.0069299163
59	0x3a6ba613	0.00089892856
60	0x3a878261	0.0010338539
61	0x3bffe4bb	0.007809249
62	0x3c938b83	0.01801086
63	0x3d26d80b	0.04073338
64	0x3c2b0a6f	0.010439499
65	0xba82ab0e	-0.0009969191
66	0x3b60199a	0.0034194947
67	0xbc74aa15	-0.014933129
68	0x3b80e997	0.003934096
69	0xbcfe2dcd	-0.031027699
70	0x3b6a78fa	0.0035777674
71	0x3c6df302	0.01452327
72	0x3b03f3f3	0.0020134419
73	0xbc0da3dc	-0.008645024
74	0x3c6ce49f	0.014458804
75	0xbb60ec73	-0.0034320622
76	0x3c0381f0	0.008026585
77	0x3c9e8349	0.019349711
78	0xbcb7b83f	-0.022426723
79	0x3befa61a	0.007313502
80	0xbb6b8ee5	-0.0035943326
81	0x3c54c7c5	0.012987082
82	0xb96df4d2	-0.00022693284
83	0x3c9695f6	0.018382054
84	0xbc4b5b6f	-0.012411936
85	0x3b8bd383	0.0042671575
86	0xbaf6e1ef	-0.0018835644
87	0x3c9e944e	0.019357827
88	0x3bc4a4af	0.006001077
89	0xbc07f1ee	-0.008297427
90	0x38d553bf	0.000101722304
91	0xbc8477d3	-0.016170418
92	0x3cb6507b	0.022255173
93	0x3c90b91d	0.017666394
94	0xbb56283b	-0.0032677788
95	0xbac63adc	-0.0015123743
96	0x3c4a4212	0.012344854
97	0xbac85a7b	-0.0015285754
98	0x3c4a01f9	0.012329572
99	0xbc65c613	-0.014024275
100	0x3becff8f	0.0072326134
101	0xbc90ecb7	-0.017691
102	0x3bf22c93	0.0073905676
103	0x3b99e5f2	0.004696601
104	0x3c4dc8e3	0.012560102
105	0x3c9b8a93	0.018986976
106	0x3d014a2d	0.03156488
107	0x3b6549cd	0.0034986616
108	0xba90f876	-0.0011060375
109	0x3bb5472c	0.005532166
110	0xbb9dc5ba	-0.0048148306
111	0xbaf63f3b	-0.0018787155
112	0xbc7f1323	-0.015568527
113	0x3b77b808	0.00377989
114	0xbad96662	-0.0016586299
115	0xbb9798f2	-0.004626387
116	0x3c79651b	0.015221859
117	0x3c8371ef	0.016045539
118	0xbbb03ec1	-0.0053785746
119	0x3bf5cde5	0.007501351
120	0xbc37c44b	-0.0112162335
121	0xbbf4dded	-0.0074727447
122	0x3c9459c3	0.018109208
123	0x3c5b350f	0.013379349
124	0x3c870fcd	0.016487027
125	0xbbcb3d2c	-0.0062023606
126	0xbbc4e367	-0.006008554
127	0x3cf403f8	0.029787049
128	0x3c6ea4d0	0.014565662
129	0x3bb20532	0.0054327482
130	0xbc8909ca	-0.0167283
131	0xbc0e7757	-0.008695445
132	0x39704aa0	0.00022915984
133	0x3b59a8af	0.0033212116
134	0xbb965263	-0.004587458
135	0xbc058edf	-0.008151739
136	0xbb0bb61a	-0.0021318258
137	0xbc4c8f89	-0.012485393
138	0x3cd432e3	0.02590317
139	0xbc39c882	-0.011339309
140	0xbb044e96	-0.0020188442
141	0xbb3e0067	-0.002899194
142	0xbc87f6bf	-0.01659715
143	0xbbb30e39	-0.005464342
144	0xbc3bb033	-0.011455583
145	0x3bd5d217	0.006525289
146	0xb84b563b	-4.847928e-05
147	0xbc33aa52	-0.0109659005
148	0x3c5001af	0.012695714
149	0xbc900cc7	-0.017584218
150	0xbbc07a91	-0.005873986
151	0xbc182ce0	-0.009288043
152	0xbb38b4e5	-0.0028183993
153	0xbb6354b7	-0.0034687945
154	0x3beaeeaa	0.0071695643
155	0xbc8fe201	-0.017563822
156	0xbc3b041b	-0.011414553
157	0xbc5a6fe8	-0.013332345
158	0x3ce3dfa2	0.027816597
159	0x3aa62f01	0.0012678803
160	0x3c48e593	0.012261766
161	0xbbc3ded5	-0.0059774914
162	0xbc5744e7	-0.013138986
163	0x3b0b8c7a	0.0021293447
164	0xbcbd53b3	-0.0231112
165	0x3aa01e33	0.0012216031
166	0xbc95b27c	-0.018273585
167	0x3bccdced	0.0062519223
168	0x3a94b527	0.0011345492
169	0xbb63d88a	-0.0034766519
170	0xbc10083d	-0.008791027
171	0xbbafd157	-0.0053655314
172	0xbce0caf7	-0.027440531
173	0xbbab8e8f	-0.0052355
174	0x3d0e99a9	0.03481451
175	0x3acafd2f	0.0015486832
176	0x3c1c04ad	0.009522599
177	0xbc06f3c0	-0.0082368255
178	0xbc067aa3	-0.00820795
179	0xbc450679	-0.012025469
180	0x3b97a4d0	0.0046278015
181	0x3cc30c77	0.023809655
182	0xbbdacc13	-0.0066771596
183	0xbc9c1323	-0.019052094
184	0xbc27ca87	-0.010241157
185	0xbbae3291	-0.0053160866
186	0x3c7ade33	0.0153117655
187	0x3c40e727	0.011773861
188	0x3bafed42	0.0053688595
189	0x3c97273a	0.018451322
190	0xbc0a6ad0	-0.008448318
191	0x3c7532f0	0.014965758
192	0xbad778e7	-0.001643923
193	0x3bbee969	0.0058261645
194	0x3a6e94bb	0.0009101142
195	0x3bea1dd5	0.0071446695
196	0x3c10411b	0.008804585
197	0x3b435af1	0.0029808844
198	0x3bccf04b	0.006254231
199	0xb98de934	-0.00027067366
200	0xbc0f69fe	-0.008753298
201	0xbbadddeb	-0.0053059957
202	0x3b4ea2f8	0.0031530242
203	0xbc3ff251	-0.011715488
204	0xbc2fac21	-0.010722191
205	0xbc0344d0	-0.008012012
206	0x3c2d70c5	0.010585968
207	0xbae52ef3	-0.0017485305
208	0x3cac6955	0.02104632
209	0x3c496fe5	0.012294744
210	0x3c894075	0.016754368
211	0xbb81282d	-0.003941557
212	0x3c69c53a	0.014268214
213	0x3b988060	0.0046539754
214	0xbb42ce26	-0.0029724925
215	0xbbd9d64b	-0.00664786
216	0xbbe2338d	-0.006903118
217	0xbcaf795c	-0.021420173
218	0x3c66ab32	0.014078902
219	0xbbbedd97	-0.0058247554
220	0x3a42e937	0.00074352644
221	0xbc541fc8	-0.01294703
222	0xbbcbe806	-0.0062227277
223	0xbc0ba90f	-0.008524193
224	0x3c1243a7	0.008927262
225	0x3aa73aff	0.0012758671
226	0x3ccb204d	0.024795676
227	0xbbea1500	-0.0071436167
228	0xbc905a73	-0.017621255
229	0xbbe098b2	-0.00685414
230	0xbb9270c0	-0.0044690073
231	0x3c87fe6b	0.016600808
232	0x3bd25970	0.006419353
233	0x3cb74564	0.022371955
234	0xbb8de1d3	-0.004329899
235	0xbc87e9dc	-0.016591005
236	0xba8b58fe	-0.001063138
237	0xbb4286a4	-0.0029682303
238	0xbc471a49	-0.012152263
239	0x3baf598d	0.0053512515
240	0xbb86f21f	-0.0041182186
241	0x3b8e7b85	0.004348221
242	0xbb30268e	-0.002687845
243	0x3c0137a3	0.0078868
244	0xbae2c84d	-0.0017302126
245	0x3a8e5157	0.0010857981
246	0xbc3db2e4	-0.011578295
247	0x3aecee72	0.0018076433
248	0xbc01bc81	-0.007918478
249	0x3c848f4d	0.016181612
250	0x3c1d2b63	0.009592864
251	0x3c6e3387	0.014538652
252	0x3b821633	0.0039699315
253	0x3c3df3b7	0.011593751
254	0x3c486853	0.012231904
255	0x3a8073fb	0.000980019

network_body._body_endoder.seq_layers.0.bias f4 [256]
0	0x00000000	0.0
1	0x00000000	0.0
2	0x00000000	0.0
3	0x00000000	0.0
4	0x00000000	0.0
5	0x00000000	0.0
6	0x00000000	0.0
7	0x00000000	0.0
8	0x00000000	0.0
9	0x00000000	0.0
10	0x00000000	0.0
11	0x00000000	0.0
12	0x00000000	0.0
13	0x00000000	0.0
14	0x00000000	0.0
15	0x00000000	0.0
16	0x00000000	0.0
17	0x00000000	0.0
18	0x00000000	0.0
19	0x00000000	0.0
20	0x00000000	0.0
21	0x00000000	0.0
22	0x00000000	0.0
23	0x00000000	0.0
24	0x00000000	0.0
25	0x00000000	0.0
26	0x00000000	0.0
27	0x00000000	0.0
28	0x00000000	0.0
29	0x00000000	0.0
30	0x00000000	0.0
31	0x00000000	0.0
32	0x00000000	0.0
33	0x00000000	0.0
34	0x00000000	0.0
35	0x00000000	0.0
36	0x00000000	0.0
37	0x00000000	0.0
38	0x00000000	0.0
39	0x00000000	0.0
40	0x00000000	0.0
41	0x00000000	0.0
42	0x00000000	0.0
43	0x00000000	0.0
44	0x00000000	0.0
45	0x00000000	0.0
46	0x00000000	0.0
47	0x00000000	0.0
48	0x00000000	0.0
49	0x00000000	0.0
50	0x00000000	0.0
51	0x00000000	0.0
52	0x00000000	0.0
53	0x00000000	0.0
54	0x00000000	0.0
55	0x00000000	0.0
56	0x00000000	0.0
57	0x00000000	0.0
58	0x00000000	0.0
59	0x00000000	0.0
60	0x00000000	0.0
61	0x00000000	0.0
62	0x00000000	0.0
63	0x00000000	0.0
64	0x00000000	0.0
65	0x00000000	0.0
66	0x00000000	0.0
67	0x00000000	0.0
68	0x00000000	0.0
69	0x00000000	0.0
70	0x00000000	0.0
71	0x00000000	0.0
72	0x00000000	0.0
73	0x00000000	0.0
74	0x00000000	0.0
75	0x00000000	0.0
76	0x00000000	0.0
77	0x00000000	0.0
78	0x00000000	0.0
79	0x00000000	0.0
80	0x00000000	0.0
81	0x00000000	0.0
82	0x00000000	0.0
83	0x00000000	0.0
84	0x00000000	0.0
85	0x00000000	0.0
86	0x00000000	0.0
87	0x00000000	0.0
88	0x00000000	0.0
89	0x00000000	0.0
90	0x00000000	0.0
91	0x00000000	0.0
92	0x00000000	0.0
93	0x00000000	0.0
94	0x00000000	0.0
95	0x00000000	0.0
96	0x00000000	0.0
97	0x00000000	0.0
98	0x00000000	0.0
99	0x00000000	0.0
100	0x00000000	0.0
101	0x00000000	0.0
102	0x00000000	0.0
103	0x00000000	0.0
104	0x00000000	0.0
105	0x00000000	0.0
106	0x00000000	0.0
107	0x00000000	0.0
108	0x00000000	0.0
109	0x00000000	0.0
110	0x00000000	0.0
111	0x00000000	0.0
112	0x00000000	0.0
113	0x00000000	0.0
114	0x00000000	0.0
115	0x00000000	0.0
116	0x00000000	0.0
117	0x00000000	0.0
118	0x00000000	0.0
119	0x00000000	0.0
120	0x00000000	0.0
121	0x00000000	0.0
122	0x00000000	0.0
123	0x00000000	0.0
124	0x00000000	0.0
125	0x00000000	0.0
126	0x00000000	0.0
127	0x00000000	0.0
128	0x00000000	0.0
129	0x00000000	0.0
130	0x00000000	0.0
131	0x00000000	0.0
132	0x00000000	0.0
133	0x00000000	0.0
134	0x00000000	0.0
135	0x00000000	0.0
136	0x00000000	0.0
137	0x00000000	0.0
138	0x00000000	0.0
139	0x00000000	0.0
140	0x00000000	0.0
141	0x00000000	0.0
142	0x00000000	0.0
143	0x00000000	0.0
144	0x00000000	0.0
145	0x00000000	0.0
146	0x00000000	0.0
147	0x00000000	0.0
148	0x00000000	0.0
149	0x00000000	0.0
150	0x00000000	0.0
151	0x00000000	0.0
152	0x00000000	0.0
153	0x00000000	0.0
154	0x00000000	0.0
155	0x00000000	0.0
156	0x00000000	0.0
157	0x00000000	0.0
158	0x00000000	0.0
159	0x00000000	0.0
160	0x00000000	0.0
161	0x00000000	0.0
162	0x00000000	0.0
163	0x00000000	0.0
164	0x00000000	0.0
165	0x00000000	0.0
166	0x00000000	0.0
167	0x00000000	0.0
168	0x00000000	0.0
169	0x00000000	0.0
170	0x00000000	0.0
171	0x00000000	0.0
172	0x00000000	0.0
173	0x00000000	0.0
174	0x00000000	0.0
175	0x00000000	0.0
176	0x00000000	0.0
177	0x00000000	0.0
178	0x00000000	0.0
179	0x00000000	0.0
180	0x00000000	0.0
181	0x00000000	0.0
182	0x00000000	0.0
183	0x00000000	0.0
184	0x00000000	0.0
185	0x00000000	0.0
186	0x00000000	0.0
187	0x00000000	0.0
188	0x00000000	0.0
189	0x00000000	0.0
190	0x00000000	0.0
191	0x00000000	0.0
192	0x00000000	0.0
193	0x00000000	0.0
194	0x00000000	0.0
195	0x00000000	0.0
196	0x00000000	0.0
197	0x00000000	0.0
198	0x00000000	0.0
199	0x00000000	0.0
200	0x00000000	0.0
201	0x00000000	0.0
202	0x00000000	0.0
203	0x00000000	0.0
204	0x00000000	0.0
205	0x00000000	0.0
206	0x00000000	0.0
207	0x00000000	0.0
208	0x00000000	0.0
209	0x00000000	0.0
210	0x00000000	0.0
211	0x00000000	0.0
212	0x00000000	0.0
213	0x00000000	0.0
214	0x00000000	0.0
215	0x00000000	0.0
216	0x00000000	0.0
217	0x00000000	0.0
218	0x00000000	0.0
219	0x00000000	0.0
220	0x00000000	0.0
221	0x00000000	0.0
222	0x00000000	0.0
223	0x00000000	0.0
224	0x00000000	0.0
225	0x00000000	0.0
226	0x00000000	0.0
227	0x00000000	0.0
228	0x00000000	0.0
229	0x00000000	0.0
230	0x00000000	0.0
231	0x00000000	0.0
232	0x00000000	0.0
233	0x00000000	0.0
234	0x00000000	0.0
235	0x00000000	0.0
236	0x00000000	0.0
237	0x00000000	0.0
238	0x00000000	0.0
239	0x00000000	0.0
240	0x00000000	0.0
241	0x00000000	0.0
242	0x00000000	0.0
243	0x00000000	0.0
244	0x00000000	0.0
245	0x00000000	0.0
246	0x00000000	0.0
247	0x00000000	0.0
248	0x00000000	0.0
249	0x00000000	0.0
250	0x00000000	0.0
251	0x00000000	0.0
252	0x00000000	0.0
253	0x00000000	0.0
254	0x00000000	0.0
255	0x00000000	0.0

network_body._body_endoder.seq_layers.0.weight f4 [256, 121]
0	0xbd075a4c	-0.0330451
1	0xbdf19f88	-0.11798006
2	0xbca1c89a	-0.019748975
3	0x3c8a6eee	0.016898599
4	0xbe1be3f5	-0.15223677
5	0x3d35da10	0.044397414
6	0x3cb27f12	0.021789107
7	0xbc4c9c8c	-0.012488496
8	0xbd0f0b42	-0.034922846
9	0xbe160698	-0.14650953
10	0x3dbdc2a3	0.0926564
11	0x3daf7196	0.08566587
12	0x3d847357	0.06467312
13	0xbc25ce94	-0.010120053
14	0xbcdca63f	-0.026934741
15	0x3dfa7578	0.12229437
16	0x3d00f8af	0.031487163
17	0xbdb57ab2	-0.08861293
18	0xbd92f7d9	-0.071761794
19	0xbd70d290	-0.058794558
20	0x3e75435e	0.2395148
21	0xbca6b807	-0.020351423
22	0xbd916600	-0.07099533
23	0x3b9dae52	0.0048120404
24	0xbad5617c	-0.0016279663
25	0x3d8e0833	0.069351576
26	0xbd8f3e39	-0.0699429
27	0x3ce6bf8c	0.028167509
28	0x3e084a28	0.13309538
29	0xbd028bca	-0.031871594
30	0x3daf01a1	0.085452326
31	0xbd6328ff	-0.05545902
32	0xbd5293f8	-0.051410645
33	0x3b5fa568	0.003412569
34	0xbdbf90c2	-0.09353782
35	0x3d57444e	0.052555375
36	0xbd792eb2	-0.060835548
37	0xbd09d9bc	-0.033654913
38	0xbd13af82	-0.03605605
39	0x3c89de21	0.016829552
40	0x3e075cfa	0.13219061
41	0xbcbe58f8	-0.023235783
42	0x3ddc7158	0.10763806
43	0x3d95888b	0.07301434
44	0x3e14e445	0.14540203
45	0xbd9a0398	-0.07520217
46	0xbe01a9f0	-0.12662482
47	0x3d920ac2	0.07130958
48	0xbc9dd2a5	-0.019265482
49	0xbd903e60	-0.07043147
50	0xbd67cf6c	-0.056594297
51	0xbdcab34f	-0.09897482
52	0xbcecd6de	-0.02891105
53	0x3da8d0ca	0.08242948
54	0xbd75b26b	-0.059984606
55	0xbbe468a6	-0.006970483
56	0xbd6f8340	-0.05847478
57	0xbda7b175	-0.08188144
58	0x3d9d614a	0.07684572
59	0xbdad2b7c	-0.084555596
60	0x3d15e9a2	0.036599763
61	0x3dae92b8	0.08524078
62	0xbd426910	-0.047463477
63	0x3dd6c9e2	0.10487725
64	0x3dc37f9f	0.09545826
65	0x3d0fa59f	0.035070058
66	0x3e515bdd	0.204452
67	0xbc740fb9	-0.014896327
68	0xbde466f9	-0.11152453
69	0x3cee5f88	0.029098287
70	0x3d15675f	0.036475535
71	0xbdf4b340	-0.11948252
72	0xbe1d078c	-0.1533491
73	0xbc1477f8	-0.009061806
74	0x3cd5bcd0	0.02609101
75	0xbcaad4be	-0.020853397
76	0x3da99939	0.08281178
77	0x3d7d6e38	0.06187269
78	0xbcf45505	-0.029825697
79	0x3db3570d	0.08756838
80	0xbb21479a	-0.0024609328
81	0xbd2fd3ce	-0.042926602
82	0x3d7727eb	0.060340803
83	0xbd882b2d	-0.0664886
84	0xbd93626c	-0.07196507
85	0xbe1c899a	-0.15286866
86	0xbde69ee0	-0.11260772
87	0x3cd76dd9	0.026297497
88	0xbe1caf61	-0.15301277
89	0x3c6f15b2	0.014592575
90	0x3d8157fc	0.0631561
91	0xbe4b7b20	-0.19871187
92	0x3e0539d1	0.13010336
93	0x3d8b88b2	0.06813182
94	0x3d344480	0.04401064
95	0xbd4ea842	-0.050453432
96	0xbc6b1ab5	-0.014349629
97	0x3e17b978	0.14816844
98	0x3cc36f68	0.023856834
99	0x3db296b8	0.087201536
100	0xbd11949e	-0.035542123
101	0x3d0c0805	0.034187336
102	0xbdc74790	-0.09730446
103	0x3c8bcd6d	0.017065728
104	0x3cd7af36	0.026328664
105	0xbd4447af	-0.047919925
106	0x3d9a02cd	0.075200655
107	0x3be9226f	0.0071147005
108	0xbbf57a73	-0.0074914037
109	0x3c84f388	0.016229406
110	0x3d989027	0.0744937
111	0xbcc7df45	-0.024398455
112	0xbc3ad0dd	-0.011402336
113	0xbd12f836	-0.035881244
114	0xbca549c1	-0.02017677
115	0xbc03cad7	-0.008043966
116	0xbde6199b	-0.112353526
117	0xbc01e4a6	-0.007928049
118	0xbe0c9b8f	-0.13731216
119	0xbd79bbf5	-0.060970265
120	0x3e3d4e1c	0.18486828
121	0x3d9f8306	0.077886626
122	0x3db201ad	0.08691726
123	0x3c65c163	0.014023158
124	0xbd81f539	-0.06345601
125	0xbd77491c	-0.060372457
126	0x3d60cee5	0.05488481
127	0xbe4b81fc	-0.19873804
128	0x3e1ce9d9	0.15323581
129	0xbdb8a968	-0.09016687
130	0xbe094998	-0.1340698
131	0xbde8fc9e	-0.11376308
132	0x3e028f7d	0.12750049
133	0x3dad44d3	0.08460393
134	0x3e047659	0.12935771
135	0xbde434e6	-0.11142902
136	0x3d9fecd5	0.07808844
137	0xbe2c66ac	-0.16836041
138	0x3d7a4ee9	0.06111041
139	0xbb3ef378	-0.0029136818
140	0x3d805f2d	0.06268153
141	0x3be03952	0.0068427706
142	0xbd915f6a	-0.07098277
143	0x3d5b3215	0.05351456
144	0x3cfce75f	0.030872045
145	0x3e5074fb	0.20357125
146	0x3d431fa9	0.047637615
147	0xbdacc847	-0.08436637
148	0xba13c68d	-0.00056371914
149	0x3cba8108	0.022766605
150	0xbd002a40	-0.031290293
151	0xbd396568	-0.045262724
152	0x3e317d90	0.17333055
153	0xbe093f75	-0.13403113
154	0x3da6117c	0.08108804
155	0xbcedd6eb	-0.029033145
156	0xbca54cc1	-0.0201782
157	0x3dc356d0	0.095380425
158	0x3e2496d4	0.16073161
159	0x3d9b4430	0.07581365
160	0xbdfff0c2	-0.12497093
161	0xbc11b6e4	-0.008893702
162	0x3cad2d9f	0.021139918
163	0xbd9ec397	-0.077521496
164	0x3d3c06df	0.04590499
165	0xbde6ce6e	-0.11269842
166	0xbe58bb18	-0.2116512
167	0xbdc046ac	-0.093884796
168	0xbde3b57b	-0.11118599
169	0xbdd53c60	-0.10411906
170	0x3e227124	0.15863472
171	0xbd23b060	-0.039963126
172	0x3d94246a	0.07233508
173	0xbe183760	-0.14864874
174	0xba67a1c9	-0.00088360586
175	0xbb2faf4a	-0.0026807361
176	0x3dc882a3	0.09790542
177	0xbc1ead62	-0.009684892
178	0x3d184610	0.03717619
179	0xbdbf59ef	-0.09343325
180	0xbc8f990e	-0.017529037
181	0x3e8caa00	0.2747345
182	0x3b47422c	0.0030404432
183	0x3d955532	0.0729164
184	0xbd04f4e2	-0.0324601
185	0x3b23578b	0.0024924006
186	0xbe018bb0	-0.12650943
187	0x3e03c512	0.12868145
188	0x3dc35e6c	0.09539494
189	0xbc1fe7f7	-0.009759895
190	0xbdeba7db	-0.11506625
191	0xbd821ed2	-0.06353535
192	0xbe2b7854	-0.1674512
193	0xbd9663a6	-0.07343225
194	0x3ce42008	0.027847305
195	0x3ca3398d	0.019924903
196	0x3e0d15ac	0.13777798
197	0xbdc29068	-0.095001996
198	0x3df38805	0.11891178
199	0x3e4633dc	0.1935572
200	0xb93b2463	-0.00017847265
201	0x3cafa89b	0.021442702
202	0x3c9ddce3	0.019270366
203	0xbd819e9a	-0.06329079
204	0xbe9eb3fe	-0.30996698
205	0x3d401525	0.046895165
206	0xbc86f165	-0.016472528
207	0xbda0cc5d	-0.07851479
208	0xbc10534e	-0.008808924
209	0x3df06718	0.117384136
210	0x3c37dc13	0.011221903
211	0x3d45ee7f	0.04832315
212	0x3e03d9a7	0.12875997
213	0xbce18023	-0.02752692
214	0x3d54f91f	0.051995393
215	0x3c9a75a2	0.01885492
216	0xbe164aa5	-0.14676912
217	0x3c7cc73f	0.015428363
218	0xbc04a822	-0.008096727
219	0x3caf90b8	0.021431312
220	0xbd0a612d	-0.03378408
221	0xbc02d0d2	-0.007984357
222	0x3cca2eb5	0.024680475
223	0x3ddb2ddc	0.10702106
224	0x3b0283c0	0.0019914955
225	0x3d6345dc	0.055486545
226	0xbdb585d4	-0.08863416
227	0xbd3bac99	-0.0458189
228	0x3d9511a6	0.07278757
229	0xbd16399a	-0.036676027
230	0x3e64a829	0.22329773
231	0x3e170d2a	0.14751115
232	0xbe277662	-0.16353753
233	0xbdd8a2d3	-0.10577931
234	0xbce04d0e	-0.027380493
235	0xbceded9e	-0.029043969
236	0x3e377998	0.17917478
237	0xbda0e681	-0.07856465
238	0xbd0bbab6	-0.03411361
239	0x3e1d04bd	0.15333839
240	0xbb3cc540	-0.0028804094
241	0xbe0d9eb2	-0.13830069
242	0x3d421355	0.047381718
243	0x3e0e6e28	0.13909209
244	0x3cb7f09a	0.022453595
245	0x3c4ffdb5	0.012694766
246	0xbc867989	-0.016415374
247	0xbd90be88	-0.07067591
248	0xbe1a008b	-0.1503927
249	0xbd1d5685	-0.03841259
250	0xbc63540f	-0.013875022
251	0x3d74e829	0.059791718
252	0x3db94e4d	0.09048138
253	0x3d89ce8f	0.06728851
254	0x3d003800	0.031303406
255	0x3bd438dc	0.0064765047

network_body._body_endoder.seq_layers.2.bias f4 [256]
0	0x00000000	0.0
1	0x00000000	0.0
2	0x00000000	0.0
3	0x00000000	0.0
4	0x00000000	0.0
5	0x00000000	0.0
6	0x00000000	0.0
7	0x00000000	0.0
8	0x00000000	0.0
9	0x00000000	0.0
10	0x00000000	0.0
11	0x00000000	0.0
12	0x00000000	0.0
13	0x00000000	0.0
14	0x00000000	0.0
15	0x00000000	0.0
16	0x00000000	0.0
17	0x00000000	0.0
18	0x00000000	0.0
19	0x00000000	0.0
20	0x00000000	0.0
21	0x00000000	0.0
22	0x00000000	0.0
23	0x00000000	0.0
24	0x00000000	0.0
25	0x00000000	0.0
26	0x00000000	0.0
27	0x00000000	0.0
28	0x00000000	0.0
29	0x00000000	0.0
30	0x00000000	0.0
31	0x00000000	0.0
32	0x00000000	0.0
33	0x00000000	0.0
34	0x00000000	0.0
35	0x00000000	0.0
36	0x00000000	0.0
37	0x00000000	0.0
38	0x00000000	0.0
39	0x00000000	0.0
40	0x00000000	0.0
41	0x00000000	0.0
42	0x00000000	0.0
43	0x00000000	0.0
44	0x00000000	0.0
45	0x00000000	0.0
46	0x00000000	0.0
47	0x00000000	0.0
48	0x00000000	0.0
49	0x00000000	0.0
50	0x00000000	0.0
51	0x00000000	0.0
52	0x00000000	0.0
53	0x00000000	0.0
54	0x00000000	0.0
55	0x00000000	0.0
56	0x00000000	0.0
57	0x00000000	0.0
58	0x00000000	0.0
59	0x00000000	0.0
60	0x00000000	0.0
61	0x00000000	0.0
62	0x00000000	0.0
63	0x00000000	0.0
64	0x00000000	0.0
65	0x00000000	0.0
66	0x00000000	0.0
67	0x00000000	0.0
68	0x00000000	0.0
69	0x00000000	0.0
70	0x00000000	0.0
71	0x00000000	0.0
72	0x00000000	0.0
73	0x00000000	0.0
74	0x00000000	0.0
75	0x00000000	0.0
76	0x00000000	0.0
77	0x00000000	0.0
78	0x00000000	0.0
79	0x00000000	0.0
80	0x00000000	0.0
81	0x00000000	0.0
82	0x00000000	0.0
83	0x00000000	0.0
84	0x00000000	0.0
85	0x00000000	0.0
86	0x00000000	0.0
87	0x00000000	0.0
88	0x00000000	0.0
89	0x00000000	0.0
90	0x00000000	0.0
91	0x00000000	0.0
92	0x00000000	0.0
93	0x00000000	0.0
94	0x00000000	0.0
95	0x00000000	0.0
96	0x00000000	0.0
97	0x00000000	0.0
98	0x00000000	0.0
99	0x00000000	0.0
100	0x00000000	0.0
101	0x00000000	0.0
102	0x00000000	0.0
103	0x00000000	0.0
104	0x00000000	0.0
105	0x00000000	0.0
106	0x00000000	0.0
107	0x00000000	0.0
108	0x00000000	0.0
109	0x00000000	0.0
110	0x00000000	0.0
111	0x00000000	0.0
112	0x00000000	0.0
113	0x00000000	0.0
114	0x00000000	0.0
115	0x00000000	0.0
116	0x00000000	0.0
117	0x00000000	0.0
118	0x00000000	0.0
119	0x00000000	0.0
120	0x00000000	0.0
121	0x00000000	0.0
122	0x00000000	0.0
123	0x00000000	0.0
124	0x00000000	0.0
125	0x00000000	0.0
126	0x00000000	0.0
127	0x00000000	0.0
128	0x00000000	0.0
129	0x00000000	0.0
130	0x00000000	0.0
131	0x00000000	0.0
132	0x00000000	0.0
133	0x00000000	0.0
134	0x00000000	0.0
135	0x00000000	0.0
136	0x00000000	0.0
137	0x00000000	0.0
138	0x00000000	0.0
139	0x00000000	0.0
140	0x00000000	0.0
141	0x00000000	0.0
142	0x00000000	0.0
143	0x00000000	0.0
144	0x00000000	0.0
145	0x00000000	0.0
146	0x00000000	0.0
147	0x00000000	0.0
148	0x00000000	0.0
149	0x00000000	0.0
150	0x00000000	0.0
151	0x00000000	0.0
152	0x00000000	0.0
153	0x00000000	0.0
154	0x00000000	0.0
155	0x00000000	0.0
156	0x00000000	0.0
157	0x00000000	0.0
158	0x00000000	0.0
159	0x00000000	0.0
160	0x00000000	0.0
161	0x00000000	0.0
162	0x00000000	0.0
163	0x00000000	0.0
164	0x00000000	0.0
165	0x00000000	0.0
166	0x00000000	0.0
167	0x00000000	0.0
168	0x00000000	0.0
169	0x00000000	0.0
170	0x00000000	0.0
171	0x00000000	0.0
172	0x00000000	0.0
173	0x00000000	0.0
174	0x00000000	0.0
175	0x00000000	0.0
176	0x00000000	0.0
177	0x00000000	0.0
178	0x00000000	0.0
179	0x00000000	0.0
180	0x00000000	0.0
181	0x00000000	0.0
182	0x00000000	0.0
183	0x00000000	0.0
184	0x00000000	0.0
185	0x00000000	0.0
186	0x00000000	0.0
187	0x00000000	0.0
188	0x00000000	0.0
189	0x00000000	0.0
190	0x00000000	0.0
191	0x00000000	0.0
192	0x00000000	0.0
193	0x00000000	0.0
194	0x00000000	0.0
195	0x00000000	0.0
196	0x00000000	0.0
197	0x00000000	0.0
198	0x00000000	0.0
199	0x00000000	0.0
200	0x00000000	0.0
201	0x00000000	0.0
202	0x00000000	0.0
203	0x00000000	0.0
204	0x00000000	0.0
205	0x00000000	0.0
206	0x00000000	0.0
207	0x00000000	0.0
208	0x00000000	0.0
209	0x00000000	0.0
210	0x00000000	0.0
211	0x00000000	0.0
212	0x00000000	0.0
213	0x00000000	0.0
214	0x00000000	0.0
215	0x00000000	0.0
216	0x00000000	0.0
217	0x00000000	0.0
218	0x00000000	0.0
219	0x00000000	0.0
220	0x00000000	0.0
221	0x00000000	0.0
222	0x00000000	0.0
223	0x00000000	0.0
224	0x00000000	0.0
225	0x00000000	0.0
226	0x00000000	0.0
227	0x00000000	0.0
228	0x00000000	0.0
229	0x00000000	0.0
230	0x00000000	0.0
231	0x00000000	0.0
232	0x00000000	0.0
233	0x00000000	0.0
234	0x00000000	0.0
235	0x00000000	0.0
236	0x00000000	0.0
237	0x00000000	0.0
238	0x00000000	0.0
239	0x00000000	0.0
240	0x00000000	0.0
241	0x00000000	0.0
242	0x00000000	0.0
243	0x00000000	0.0
244	0x00000000	0.0
245	0x00000000	0.0
246	0x00000000	0.0
247	0x00000000	0.0
248	0x00000000	0.0
249	0x00000000	0.0
250	0x00000000	0.0
251	0x00000000	0.0
252	0x00000000	0.0
253	0x00000000	0.0
254	0x00000000	0.0
255	0x00000000	0.0

network_body._body_endoder.seq_layers.2.weight f4 [256, 256]
0	0x3d8cf5e5	0.06882838
1	0xbc94604f	-0.01811233
2	0xbd124e87	-0.03571942
3	0xbe1041f7	-0.14087664
4	0x3a93f4f4	0.0011288212
5	0x3c76cf51	0.0150640765
6	0x3cb35d2b	0.021895012
7	0xbd054df6	-0.032545052
8	0xbd181e7f	-0.03713846
9	0x3c77422a	0.015091458
10	0x3d491078	0.04908797
11	0xbde2d61e	-0.11075996
12	0x3cf30ba8	0.029668644
13	0x3ccc3723	0.024928635
14	0xbe108c02	-0.14115909
15	0x3d571d9b	0.05251847
16	0xbb9a6fe4	-0.0047130454
17	0x3d1ed1e2	0.03877438
18	0x3d79093a	0.060799815
19	0x3d899f4e	0.06719838
20	0xbd69f7c0	-0.05712104
21	0x3b8f1964	0.0043670405
22	0x3d436e6d	0.047712732
23	0x3da75504	0.08170512
24	0x3d875fb3	0.0661005
25	0xbe0a156f	-0.13484739
26	0xbe20d513	-0.15706281
27	0xbcc4c655	-0.024020353
28	0x3d23b555	0.039967854
29	0x3d9a8f34	0.07546845
30	0xbd2b59be	-0.04183363
31	0x3c355883	0.011068466
32	0x3dc6e9f9	0.097125955
33	0xbd6baf4c	-0.057540223
34	0xbba34723	-0.0049828454
35	0x3c24cfed	0.010059339
36	0xbca398f5	-0.019970397
37	0x3d116c1f	0.035503503
38	0x3d73b345	0.059497137
39	0x3d5b67b4	0.053565696
40	0xbaee87d6	-0.0018198441
41	0x3a63beec	0.00086878124
42	0x3d8f537e	0.06998347
43	0xbd2742fc	-0.040835366
44	0x3a251fe5	0.0006299003
45	0xbdcbd55e	-0.09952806
46	0xbd998b5f	-0.07497286
47	0xbd09b5ac	-0.03362052
48	0x3d05f103	0.03270055
49	0x3d544709	0.051825557
50	0xbdb8605c	-0.09002754
51	0x3ca87e9d	0.020568186
52	0x3d370109	0.04467872
53	0xbd816fdf	-0.06320166
54	0xbdf049fb	-0.11732861
55	0x3df2316e	0.11825834
56	0xbc6dd8af	-0.014516993
57	0x3c5dd1c3	0.013538781
58	0xbd75aeaa	-0.059981026
59	0xbd6c3dc9	-0.05767611
60	0x3dd742de	0.10510801
61	0x3d64ef8d	0.055892516
62	0xbc0572a9	-0.008145013
63	0x3d4ed2ee	0.050494127
64	0xbd6a8997	-0.057260122
65	0x3c6e8da2	0.014560135
66	0x3d0c7247	0.03428867
67	0x393845c5	0.00017573599
68	0x3d8f53e7	0.06998425
69	0x3d0f5f4a	0.035002984
70	0xb93bfd17	-0.00017927993
71	0x3d23087e	0.03980302
72	0xbc9a2c97	-0.01882009
73	0x3c8a08dc	0.016849928
74	0x3d9ee675	0.077588
75	0x3c538e1d	0.0129123
76	0x3d2b54e3	0.041829
77	0x3d7dee25	0.06199469
78	0xbd83a59c	-0.06428072
79	0xbdec3933	-0.115343474
80	0xbd678413	-0.05652244
81	0x3d0d4d3a	0.034497477
82	0xbd2da1c5	-0.042390604
83	0xbce2f6a2	-0.027705494
84	0xbd4814e5	-0.04884805
85	0xbc4b6c34	-0.012415934
86	0x3cdc85de	0.026919302
87	0xbd90cbd2	-0.07070126
88	0xbd4c6878	-0.049904317
89	0xbdb3a71f	-0.0877211
90	0xbce3d883	-0.027813202
91	0x3d2c005b	0.041992527
92	0xbd635c4d	-0.055507947
93	0xbc88a5fe	-0.016680714
94	0xbdc1807d	-0.09448335
95	0xbbd6c0c5	-0.0065537416
96	0xbd268783	-0.040656578
97	0x3d62ba92	0.05535371
98	0xbd88760a	-0.06663139
99	0xbc7a4de6	-0.0152773615
100	0x3da0dc98	0.07854575
101	0x3c8be82d	0.017078483
102	0xbc469c81	-0.012122274
103	0x3c40e9ca	0.01177449
104	0x3d724127	0.059144165
105	0x3bfb78fc	0.0076743346
106	0x3d2d184f	0.04225951
107	0xbcc2c63b	-0.023776164
108	0x3d957d78	0.07299322
109	0xbd0ad519	-0.033894632
110	0xbb004ff0	-0.0019578896
111	0xbc10b21a	-0.008831525
112	0x3cc5395a	0.024075199
113	0x3cd7fa50	0.026364475
114	0x3d52ac1e	0.051433675
115	0xbd94127c	-0.07230088
116	0xbc5a73a7	-0.013333238
117	0xbd7e523c	-0.062090144
118	0xbd470b2f	-0.04859465
119	0xbe59a6f3	-0.21255092
120	0x3ce28cd5	0.027655045
121	0xbdc79abf	-0.09746312
122	0xbd5d26be	-0.053992026
123	0xbd8aaa7e	-0.067708
124	0x3cef9a0c	0.02924826
125	0xbda0687b	-0.07832428
126	0xbde8c85a	-0.11366339
127	0xbd27fa12	-0.04100997
128	0xbd9a5951	-0.07536567
129	0xbdc7ddbc	-0.09759089
130	0x3d453166	0.048142813
131	0xba0dff91	-0.00054168055
132	0xbd9edd40	-0.07757044
133	0x3e0f8884	0.1401692
134	0x3dcc65a7	0.09980326
135	0x3e308c60	0.17241049
136	0x3a9b035c	0.0011826563
137	0x3d365df5	0.0445232
138	0x3c9d38d8	0.019192144
139	0x3d8a74ad	0.067605354
140	0xbd9bac54	-0.07601228
141	0x3c14535f	0.00905308
142	0xbba7edb5	-0.0051247724
143	0xbc979fe9	-0.018508868
144	0xbb97e6a0	-0.004635647
145	0xbd17b700	-0.037039757
146	0x3dda3911	0.10655416
147	0xbdbd89ce	-0.092548
148	0xbd810f7c	-0.063017815
149	0x3d0e3763	0.03472079
150	0xbd1bf2f8	-0.03807351
151	0xbce627ef	-0.028095214
152	0x3d5b46f7	0.053534474
153	0x3d3a32d6	0.045458637
154	0x3d98ec72	0.07466973
155	0xbd1f64f8	-0.03891465
156	0x3c22e028	0.009941138
157	0x3d7572e0	0.059924006
158	0x3cbed672	0.023295615
159	0xbd056274	-0.032564595
160	0x3cb2aaa0	0.021809876
161	0x3c47233c	0.012154397
162	0x3dd92e93	0.106045865
163	0x3e063ac6	0.13108358
164	0x3d8a186e	0.06742941
165	0x3d71ee76	0.059065305
166	0x3d1da333	0.038485717
167	0xbc845b2a	-0.016156752
168	0x3da868cf	0.08223116
169	0xbccd5320	-0.025064051
170	0x3d758e1c	0.05994998
171	0xbd12dae3	-0.035853278
172	0xbca4240d	-0.020036722
173	0xbd51870b	-0.051154178
174	0xbdab6008	-0.08367926
175	0xbc7348eb	-0.014848928
176	0x3cc03260	0.02346152
177	0x3de8b133	0.11361923
178	0xbc6422d9	-0.013924324
179	0x3d227191	0.039659087
180	0x3d50f1fd	0.051012028
181	0xbcac9535	-0.021067241
182	0xbd596e09	-0.053083453
183	0x3db82423	0.089912675
184	0xbce55d50	-0.027998596
185	0xbcca0642	-0.024661187
186	0x3d5685f7	0.052373853
187	0xbdf841d0	-0.12121928
188	0x3d5199f7	0.051172223
189	0xbb8c3b28	-0.004279513
190	0x3c60caba	0.013720209
191	0x3d0ef34b	0.03489999
192	0xbc3b9693	-0.011449474
193	0x3cefef76	0.029288989
194	0xbd139b86	-0.03603699
195	0xbcfd2961	-0.03090352
196	0xbdb3ed87	-0.08785539
197	0x3c0c1e78	0.008552186
198	0x3dd984fe	0.10621069
199	0xbde57c34	-0.112053305
200	0xbcfa7577	-0.03057359
201	0xbde53882	-0.11192419
202	0xbe0d5f95	-0.13805993
203	0xbd81523e	-0.063145146
204	0x3c5e1aaa	0.013556162
205	0x3d249556	0.04018148
206	0xbd106eea	-0.035262026
207	0x3d05c944	0.032662645
208	0x3c75b04b	0.014995645
209	0xbd2202a3	-0.039553296
210	0xbcb9d691	-0.022685321
211	0xbc7f7b59	-0.015593373
212	0xbcccea0f	-0.025013952
213	0xbda01838	-0.07817119
214	0x3c50a594	0.012734789
215	0x3dbce5cb	0.09223517
216	0xbe124b83	-0.14286618
217	0xbda98c4d	-0.082787134
218	0x3c2cba3d	0.01054245
219	0xbdcda852	-0.1004187
220	0x3b3e5f74	0.0029048594
221	0xbe02f22e	-0.12787697
222	0x3d2492d7	0.0401791
223	0xbda5391b	-0.08067533
224	0x3e086f99	0.13323821
225	0x3c5462f3	0.012963044
226	0x3d7b06a4	0.06128563
227	0xbd03d407	-0.032184627
228	0xbd6d1329	-0.0578796
229	0x3d955996	0.07292478
230	0x3afa1e6d	0.0019082554
231	0x3dbf2712	0.09333624
232	0x3d107c51	0.035274807
233	0xbca74aea	-0.020421464
234	0x3e13f317	0.144482
235	0xbd93fb2c	-0.072256416
236	0xbd104ec7	-0.035231378
237	0xbc5abf1f	-0.013351231
238	0x3e1f532c	0.15559071
239	0xbd8c896a	-0.06862147
240	0x3c90eef1	0.017692061
241	0xbd981c89	-0.07427318
242	0x3ccd0094	0.02502469
243	0xbc897693	-0.016780173
244	0xba8dbaab	-0.0010813078
245	0xbd6fdfa2	-0.058562882
246	0x3c7a5a87	0.015280372
247	0x3da97f63	0.0827625
248	0x3cec64b5	0.028856615
249	0xbc7169b9	-0.014734679
250	0x3dc61db9	0.09673638
251	0x3c276755	0.010217507
252	0x3d041314	0.032244757
253	0x3dba275f	0.09089541
254	0xbdbc5e8f	-0.09197723
255	0xbcac6e40	-0.021048665

network_body._body_endoder.seq_layers.4.bias f4 [256]
0	0x00000000	0.0
1	0x00000000	0.0
2	0x00000000	0.0
3	0x00000000	0.0
4	0x00000000	0.0
5	0x00000000	0.0
6	0x00000000	0.0
7	0x00000000	0.0
8	0x00000000	0.0
9	0x00000000	0.0
10	0x00000000	0.0
11	0x00000000	0.0
12	0x00000000	0.0
13	0x00000000	0.0
14	0x00000000	0.0
15	0x00000000	0.0
16	0x00000000	0.0
17	0x00000000	0.0
18	0x00000000	0.0
19	0x00000000	0.0
20	0x00000000	0.0
21	0x00000000	0.0
22	0x00000000	0.0
23	0x00000000	0.0
24	0x00000000	0.0
25	0x00000000	0.0
26	0x00000000	0.0
27	0x00000000	0.0
28	0x00000000	0.0
29	0x00000000	0.0
30	0x00000000	0.0
31	0x00000000	0.0
32	0x00000000	0.0
33	0x00000000	0.0
34	0x00000000	0.0
35	0x00000000	0.0
36	0x00000000	0.0
37	0x00000000	0.0
38	0x00000000	0.0
39	0x00000000	0.0
40	0x00000000	0.0
41	0x00000000	0.0
42	0x00000000	0.0
43	0x00000000	0.0
44	0x00000000	0.0
45	0x00000000	0.0
46	0x00000000	0.0
47	0x00000000	0.0
48	0x00000000	0.0
49	0x00000000	0.0
50	0x00000000	0.0
51	0x00000000	0.0
52	0x00000000	0.0
53	0x00000000	0.0
54	0x00000000	0.0
55	0x00000000	0.0
56	0x00000000	0.0
57	0x00000000	0.0
58	0x00000000	0.0
59	0x00000000	0.0
60	0x00000000	0.0
61	0x00000000	0.0
62	0x00000000	0.0
63	0x00000000	0.0
64	0x00000000	0.0
65	0x00000000	0.0
66	0x00000000	0.0
67	0x00000000	0.0
68	0x00000000	0.0
69	0x00000000	0.0
70	0x00000000	0.0
71	0x00000000	0.0
72	0x00000000	0.0
73	0x00000000	0.0
74	0x00000000	0.0
75	0x00000000	0.0
76	0x00000000	0.0
77	0x00000000	0.0
78	0x00000000	0.0
79	0x00000000	0.0
80	0x00000000	0.0
81	0x00000000	0.0
82	0x00000000	0.0
83	0x00000000	0.0
84	0x00000000	0.0
85	0x00000000	0.0
86	0x00000000	0.0
87	0x00000000	0.0
88	0x00000000	0.0
89	0x00000000	0.0
90	0x00000000	0.0
91	0x00000000	0.0
92	0x00000000	0.0
93	0x00000000	0.0
94	0x00000000	0.0
95	0x00000000	0.0
96	0x00000000	0.0
97	0x00000000	0.0
98	0x00000000	0.0
99	0x00000000	0.0
100	0x00000000	0.0
101	0x00000000	0.0
102	0x00000000	0.0
103	0x00000000	0.0
104	0x00000000	0.0
105	0x00000000	0.0
106	0x00000000	0.0
107	0x00000000	0.0
108	0x00000000	0.0
109	0x00000000	0.0
110	0x00000000	0.0
111	0x00000000	0.0
112	0x00000000	0.0
113	0x00000000	0.0
114	0x00000000	0.0
115	0x00000000	0.0
116	0x00000000	0.0
117	0x00000000	0.0
118	0x00000000	0.0
119	0x00000000	0.0
120	0x00000000	0.0
121	0x00000000	0.0
122	0x00000000	0.0
123	0x00000000	0.0
124	0x00000000	0.0
125	0x00000000	0.0
126	0x00000000	0.0
127	0x00000000	0.0
128	0x00000000	0.0
129	0x00000000	0.0
130	0x00000000	0.0
131	0x00000000	0.0
132	0x00000000	0.0
133	0x00000000	0.0
134	0x00000000	0.0
135	0x00000000	0.0
136	0x00000000	0.0
137	0x00000000	0.0
138	0x00000000	0.0
139	0x00000000	0.0
140	0x00000000	0.0
141	0x00000000	0.0
142	0x00000000	0.0
143	0x00000000	0.0
144	0x00000000	0.0
145	0x00000000	0.0
146	0x00000000	0.0
147	0x00000000	0.0
148	0x00000000	0.0
149	0x00000000	0.0
150	0x00000000	0.0
151	0x00000000	0.0
152	0x00000000	0.0
153	0x00000000	0.0
154	0x00000000	0.0
155	0x00000000	0.0
156	0x00000000	0.0
157	0x00000000	0.0
158	0x00000000	0.0
159	0x00000000	0.0
160	0x00000000	0.0
161	0x00000000	0.0
162	0x00000000	0.0
163	0x00000000	0.0
164	0x00000000	0.0
165	0x00000000	0.0
166	0x00000000	0.0
167	0x00000000	0.0
168	0x00000000	0.0
169	0x00000000	0.0
170	0x00000000	0.0
171	0x00000000	0.0
172	0x00000000	0.0
173	0x00000000	0.0
174	0x00000000	0.0
175	0x00000000	0.0
176	0x00000000	0.0
177	0x00000000	0.0
178	0x00000000	0.0
179	0x00000000	0.0
180	0x00000000	0.0
181	0x00000000	0.0
182	0x00000000	0.0
183	0x00000000	0.0
184	0x00000000	0.0
185	0x00000000	0.0
186	0x00000000	0.0
187	0x00000000	0.0
188	0x00000000	0.0
189	0x00000000	0.0
190	0x00000000	0.0
191	0x00000000	0.0
192	0x00000000	0.0
193	0x00000000	0.0
194	0x00000000	0.0
195	0x00000000	0.0
196	0x00000000	0.0
197	0x00000000	0.0
198	0x00000000	0.0
199	0x00000000	0.0
200	0x00000000	0.0
201	0x00000000	0.0
202	0x00000000	0.0
203	0x00000000	0.0
204	0x00000000	0.0
205	0x00000000	0.0
206	0x00000000	0.0
207	0x00000000	0.0
208	0x00000000	0.0
209	0x00000000	0.0
210	0x00000000	0.0
211	0x00000000	0.0
212	0x00000000	0.0
213	0x00000000	0.0
214	0x00000000	0.0
215	0x00000000	0.0
216	0x00000000	0.0
217	0x00000000	0.0
218	0x00000000	0.0
219	0x00000000	0.0
220	0x00000000	0.0
221	0x00000000	0.0
222	0x00000000	0.0
223	0x00000000	0.0
224	0x00000000	0.0
225	0x00000000	0.0
226	0x00000000	0.0
227	0x00000000	0.0
228	0x00000000	0.0
229	0x00000000	0.0
230	0x00000000	0.0
231	0x00000000	0.0
232	0x00000000	0.0
233	0x00000000	0.0
234	0x00000000	0.0
235	0x00000000	0.0
236	0x00000000	0.0
237	0x00000000	0.0
238	0x00000000	0.0
239	0x00000000	0.0
240	0x00000000	0.0
241	0x00000000	0.0
242	0x00000000	0.0
243	0x00000000	0.0
244	0x00000000	0.0
245	0x00000000	0.0
246	0x00000000	0.0
247	0x00000000	0.0
248	0x00000000	0.0
249	0x00000000	0.0
250	0x00000000	0.0
251	0x00000000	0.0
252	0x00000000	0.0
253	0x00000000	0.0
254	0x00000000	0.0
255	0x00000000	0.0

network_body._body_endoder.seq_layers.4.weight f4 [256, 256]
0	0xbce3b61c	-0.027796797
1	0xbdcf94f0	-0.101358294
2	0xbd4fdd45	-0.05074813
3	0x3d6a4838	0.05719778
4	0xbdcd705b	-0.10031196
5	0x3d80c40b	0.06287392
6	0x3bd75196	0.006571005
7	0x3cfedf1c	0.031112246
8	0x3c521b30	0.012823865
9	0xbd9e3ac6	-0.07726054
10	0x3d0406c9	0.032233033
11	0xbad385aa	-0.0016137857
12	0x3d9a442e	0.075325355
13	0xbd790d3d	-0.06080364
14	0x3c99363d	0.01870262
15	0xbdb1dfb6	-0.086852476
16	0x3c325b6d	0.010886055
17	0x3a62fd3a	0.00086589495
18	0x3e287374	0.16450292
19	0x3c79d69c	0.015248921
20	0xbe0a1f13	-0.13488416
21	0xbb99fddd	-0.0046994523
22	0xbcac117a	-0.021004427
23	0x3c5d4e93	0.013507503
24	0xbd668698	-0.056280702
25	0xbd20b382	-0.039233692
26	0x3ca6daa9	0.020367937
27	0x3d391fc8	0.045196325
28	0xbdc432dc	-0.09580013
29	0xbc0963d5	-0.008385618
30	0xbd9a4561	-0.07532764
31	0xbd07b905	-0.033135433
32	0x3d884fda	0.066558555
33	0xba73af5a	-0.0009295844
34	0xbd38948a	-0.045063533
35	0xbd944c70	-0.07241142
36	0xbe15d6cf	-0.14632724
37	0xbcd6bb14	-0.026212253
38	0x3b7509ad	0.00373898
39	0xbdbf87fd	-0.093521096
40	0xbc269291	-0.01016678
41	0xbc4d802d	-0.0125427665
42	0x3d9dfedb	0.077146254
43	0xbdced587	-0.10099321
44	0x3c203e8c	0.009780537
45	0xba10c489	-0.000552245
46	0xbdb50f90	-0.08840859
47	0xbd94ae94	-0.07259861
48	0xbd62fac5	-0.055414934
49	0x3bfbae65	0.0076807016
50	0xbda8987e	-0.082322106
51	0x3b5cece9	0.0033710545
52	0x3c147776	0.009061685
53	0xbddca04e	-0.10772763
54	0xbdac434d	-0.08411274
55	0xbd8383fa	-0.06421657
56	0xbc8bc739	-0.01706277
57	0xbd1318f1	-0.035912458
58	0x3b21c958	0.002468666
59	0xbd5d0b20	-0.053965688
60	0x3c2081ea	0.009796599
61	0x3d630363	0.05542315
62	0x3d6e7ad1	0.058222596
63	0xbd4dcfc1	-0.050246958
64	0x3b747bd6	0.0037305257
65	0x3c82db89	0.015973823
66	0xbe08d7b0	-0.13363528
67	0x3caa836c	0.02081462
68	0x3dc4998c	0.09599599
69	0xbb06eee9	-0.002058918
70	0x3c3bc493	0.011460441
71	0x3cf17771	0.0294759
72	0xbd5dae63	-0.054121386
73	0x3c4cdce0	0.012503833
74	0xbcaa739c	-0.02080708
75	0xbd30e160	-0.043183684
76	0x3cbe35de	0.023219045
77	0xbb567eea	-0.0032729455
78	0xbe1fd487	-0.15608416
79	0xbdaaec7f	-0.08345889
80	0xbd183cf7	-0.037167516
81	0x3d1d7487	0.038441207
82	0xbd4f65d0	-0.050634205
83	0x3ccbda6d	0.024884427
84	0x3dec24bf	0.11530446
85	0x3daffc2c	0.0859302
86	0xbc2fd054	-0.010730822
87	0xbc8248f0	-0.01590392
88	0x3d2457bf	0.040122744
89	0xbdc1f54f	-0.09470617
90	0xbbeaaa25	-0.007161396
91	0x3d683374	0.056689695
92	0x3dab9c55	0.08379427
93	0xbd8b3f16	-0.06799142
94	0x3dca0636	0.09864466
95	0x3c18b2ff	0.00932002
96	0xbd507ab5	-0.050898273
97	0xbce20292	-0.027589116
98	0x3cb9ac8e	0.022665288
99	0x3ccaded4	0.024764456
100	0x3c996653	0.01872555
101	0xbcb7a252	-0.022416268
102	0xbd6c8b19	-0.05774984
103	0xbcfc7ef5	-0.030822257
104	0x3dbfe0a2	0.09369017
105	0x3d866d90	0.06563866
106	0x3d8681ee	0.06567751
107	0x3bb8b676	0.0056369854
108	0x3e0089d0	0.12552571
109	0x3a996a42	0.0011704641
110	0x3b0cbf29	0.0021476245
111	0x3ca2e19b	0.019882968
112	0xbd5f6d5c	-0.054547653
113	0xbe270c25	-0.16313227
114	0xbda42c47	-0.08016258
115	0xbddf5463	-0.10904767
116	0xbda03ff5	-0.07824699
117	0x3ce499de	0.0279054
118	0x3e161231	0.14655377
119	0xbcdf366c	-0.02724763
120	0xbd03be43	-0.03216387
121	0x3d5d489c	0.054024324
122	0xba8cb466	-0.0010734915
123	0xbdb9e45c	-0.09076759
124	0xbd1ea105	-0.03872778
125	0x3c8246f9	0.015902983
126	0xbd3c5f41	-0.04598928
127	0xbc9fb1a1	-0.01949388
128	0x3d58695d	0.052834857
129	0x3cddd3d4	0.027078547
130	0xbd244f30	-0.04011458
131	0xbd6d9552	-0.05800373
132	0xbd34190b	-0.043969195
133	0xbd39f681	-0.0454011
134	0xbd1a87b4	-0.037727073
135	0xbd83fbc6	-0.06444506
136	0xbc77e8ae	-0.015131159
137	0xbc9e8fdd	-0.019355709
138	0xbd0cd6ce	-0.03438454
139	0x3caf419b	0.021393588
140	0xbc9a206f	-0.018814294
141	0x3d9470f1	0.07248104
142	0x3dee5c14	0.11638656
143	0xbcc63a83	-0.024197822
144	0xbb811a2b	-0.003939887
145	0xbcf35085	-0.02970148
146	0x3d26b10b	0.040696185
147	0x3baa8e45	0.005204948
148	0x3c4d1d25	0.012519156
149	0x3a613a06	0.0008591715
150	0x3c173f16	0.009231349
151	0x3dc9fb1d	0.09862349
152	0xbbeff34e	-0.0073227054
153	0x3d9ba9f8	0.07600778
154	0xbb5ff5b4	-0.003417355
155	0xbc4c1e18	-0.012458347
156	0x3ccdcbb5	0.02512155
157	0x3da4448c	0.08020887
158	0x39edf7dd	0.00045388835
159	0xbd82dce7	-0.0638979
160	0x3c817c7a	0.015806425
161	0x3c16bf05	0.009200816
162	0x3b111746	0.0022139116
163	0x3c4090a0	0.011753231
164	0xbd15b558	-0.036549896
165	0xbdb6e245	-0.08929876
166	0xbc8bbf70	-0.017059058
167	0xbc9bb406	-0.01900674
168	0x3d0a3e3f	0.03375077
169	0xbd8618f9	-0.06547732
170	0xbcc42965	-0.02394552
171	0x3d97c914	0.074113995
172	0x3cbb7a0f	0.02288535
173	0x3da5a34f	0.08087789
174	0x3d93c710	0.072157025
175	0x3d6d6c1a	0.05796442
176	0x3d0e4909	0.03473762
177	0xbd29c72d	-0.041449714
178	0xbd09581a	-0.033531286
179	0xbac7842d	-0.0015221887
180	0x3de1c948	0.110247195
181	0xbd608cc2	-0.054821737
182	0x3c28e9e4	0.01030967
183	0x3ca1ef69	0.01976748
184	0xbd5ccf8b	-0.053908866
185	0xbd22533e	-0.039630167
186	0x3d6abec9	0.057310853
187	0xbcfbf098	-0.030754372
188	0x3d91f29f	0.071263544
189	0xbde864ba	-0.11347337
190	0xbd1d7092	-0.038437434
191	0xbc427ecc	-0.011871051
192	0x3e03cd55	0.12871297
193	0x3c8663cd	0.01640501
194	0x3da9c3bd	0.08289287
195	0xbdb1954e	-0.08671056
196	0x3d65beed	0.056090284
197	0xbc73fab9	-0.01489132
198	0x3cd58282	0.026063208
199	0x3cf39874	0.029735781
200	0x3c804166	0.015656184
201	0xbc2c2f12	-0.010509269
202	0xbd89b883	-0.06724646
203	0xbd8e6b88	-0.06954104
204	0xbe3a6b4b	-0.18204992
205	0x3d5744a4	0.052555695
206	0x3d8ff602	0.07029344
207	0xbd227f3d	-0.039672125
208	0xbd666f67	-0.056258585
209	0xbd17008a	-0.03686575
210	0x3d7416e2	0.059592135
211	0xbd9150b0	-0.07095468
212	0x3cac03d5	0.020997921
213	0x3e0e154b	0.1387531
214	0xbcc5c4b3	-0.024141645
215	0xbb3b84bc	-0.0028613051
216	0xbcc31b20	-0.023816645
217	0xbce54244	-0.0279857
218	0xbcb0a307	-0.021562112
219	0x3d9dffd2	0.077148095
220	0x3cb6ff7f	0.022338627
221	0x3c96c2e3	0.018403476
222	0xbd255f38	-0.04037401
223	0x3d968bda	0.07350893
224	0x3d5fbd9e	0.054624192
225	0xbda60354	-0.081061035
226	0x3d90858e	0.070567235
227	0x3cc9b47e	0.024622198
228	0xbb973af4	-0.004615182
229	0xbdcb3aa9	-0.09923298
230	0x3daea9cb	0.08528479
231	0x3d0eeddf	0.03489482
232	0x3cde185a	0.027111221
233	0xbd364cbc	-0.044506773
234	0xbc90453e	-0.017611142
235	0x3c8156a9	0.015788393
236	0x3d9f6294	0.07782474
237	0x3d8d8366	0.06909828
238	0xbdad09e4	-0.08449152
239	0xbe18194c	-0.148534
240	0x3d9cd8d3	0.076585434
241	0xbd333c7d	-0.043758858
242	0xbdc05850	-0.09391844
243	0xbd99d955	-0.07512156
244	0xbd890554	-0.066904694
245	0xbd49296b	-0.049111765
246	0xbdf4ff4a	-0.11962755
247	0xbd59af26	-0.05314555
248	0xbd3d51d2	-0.046220608
249	0x3d784e95	0.060621817
250	0xbd8e3a45	-0.06944708
251	0xbd0aab0f	-0.03385454
252	0x3dfec329	0.124395676
253	0xbe001136	-0.12506565
254	0x3c834d58	0.016028091
255	0xbd5faa4d	-0.05460577

network_body.observation_encoder.processors.0.normalizer.running_mean f4 [25]
0	0x00000000	0.0
1	0x00000000	0.0
2	0x00000000	0.0
3	0x3f74e0b1	0.9565535
4	0x3f7b09e6	0.9806198
5	0x00000000	0.0
6	0x00000000	0.0
7	0x00000000	0.0
8	0x3f7ff001	0.9997559
9	0x3f7ff001	0.9997559
10	0x00000000	0.0
11	0x00000000	0.0
12	0x00000000	0.0
13	0x3f5aa255	0.8540395
14	0x3f71ab69	0.94402176
15	0x00000000	0.0
16	0x00000000	0.0
17	0x00000000	0.0
18	0x3f7ff001	0.9997559
19	0x3f7ff001	0.9997559
20	0x00000000	0.0
21	0x00000000	0.0
22	0x00000000	0.0
23	0x3f7ff001	0.9997559
24	0x3f7ff001	0.9997559

network_body.observation_encoder.processors.1.normalizer.running_mean f4 [55]
0	0x00000000	0.0
1	0x00000000	0.0
2	0x00000000	0.0
3	0x3f7ff002	0.999756
4	0x3f7ff002	0.999756
5	0x00000000	0.0
6	0x00000000	0.0
7	0x00000000	0.0
8	0x3f7ff002	0.999756
9	0x3f7ff002	0.999756
10	0x00000000	0.0
11	0x00000000	0.0
12	0x00000000	0.0
13	0x3f7ff002	0.999756
14	0x3f7ff002	0.999756
15	0x00000000	0.0
16	0x00000000	0.0
17	0x00000000	0.0
18	0x3f7ff002	0.999756
19	0x3f7ff002	0.999756
20	0x00000000	0.0
21	0x00000000	0.0
22	0x00000000	0.0
23	0x3f7ff002	0.999756
24	0x3f7ff002	0.999756
25	0x00000000	0.0
26	0x00000000	0.0
27	0x00000000	0.0
28	0x3f7ff002	0.999756
29	0x3f7ff002	0.999756
30	0x00000000	0.0
31	0x00000000	0.0
32	0x00000000	0.0
33	0x3f7360ca	0.95069563
34	0x3f796191	0.974145
35	0x00000000	0.0
36	0x00000000	0.0
37	0x00000000	0.0
38	0x3f7ff001	0.9997559
39	0x3f7ff001	0.9997559
40	0x00000000	0.0
41	0x00000000	0.0
42	0x00000000	0.0
43	0x3f61a1e7	0.8813767
44	0x3f75336e	0.957816
45	0x00000000	0.0
46	0x00000000	0.0
47	0x00000000	0.0
48	0x3f7ff001	0.9997559
49	0x3f7ff001	0.9997559
50	0x00000000	0.0
51	0x00000000	0.0
52	0x00000000	0.0
53	0x3f7ff001	0.9997559
54	0x3f7ff001	0.9997559

network_body.observation_encoder.processors.2.normalizer.running_mean f4 [15]
0	0x00000000	0.0
1	0x00000000	0.0
2	0x00000000	0.0
3	0x3eea515b	0.45765194
4	0x3f4803f3	0.78131026
5	0x00000000	0.0
6	0x3de0f1f0	0.10983646
7	0x00000000	0.0
8	0x3f63d1c1	0.88991934
9	0x3f7c1444	0.9846842
10	0x00000000	0.0
11	0x3de0f1f0	0.10983646
12	0x00000000	0.0
13	0x3f63d1c1	0.88991934
14	0x3f7c1444	0.9846842

network_body.observation_encoder.processors.3.normalizer.running_mean f4 [25]
0	0x00000000	0.0
1	0x00000000	0.0
2	0x00000000	0.0
3	0x3f7ff001	0.9997559
4	0x3f7ff001	0.9997559
5	0x00000000	0.0
6	0x00000000	0.0
7	0x00000000	0.0
8	0x3f7ff001	0.9997559
9	0x3f7ff001	0.9997559
10	0x00000000	0.0
11	0x00000000	0.0
12	0x00000000	0.0
13	0x3f7ff001	0.9997559
14	0x3f7ff001	0.9997559
15	0x00000000	0.0
16	0x00000000	0.0
17	0x00000000	0.0
18	0x3f7ff001	0.9997559
19	0x3f7ff001	0.9997559
20	0x00000000	0.0
21	0x00000000	0.0
22	0x00000000	0.0
23	0x3f7ff001	0.9997559
24	0x3f7ff001	0.9997559
