Assets/Training/results/Run 8/DroneBehavior/DroneBehavior-2499942.onnx (onnx, 697640 bytes, 21 tensors)

105 f4 [25]
0	0x3e5af624	0.21382958
1	0x3d8255a4	0.06363991
2	0x3a25cbdb	0.00063246273
3	0x3e638da9	0.22222008
4	0x3da89f18	0.0823347
5	0x3e9ff10a	0.31238586
6	0x3a25cbdb	0.00063246273
7	0x3a25cbdb	0.00063246273
8	0x3e9ff121	0.31238654
9	0x3deec16c	0.11657986
10	0x3eb805ce	0.3594193
11	0x3d008883	0.031380188
12	0x3a25cbdb	0.00063246273
13	0x3eb882a1	0.36037162
14	0x3de05c95	0.109551586
15	0x3ee07fd0	0.43847513
16	0x3b395bff	0.0028283594
17	0x3b7f81b1	0.0038987214
18	0x3ee0818b	0.43848833
19	0x3e62a302	0.22132495
20	0x3ee07fd0	0.43847513
21	0x3b395bff	0.0028283594
22	0x3b7f81b1	0.0038987214
23	0x3ee0818b	0.43848833
24	0x3e62a302	0.22132495

108 f4 [25]
0	0x3eefc12b	0.46827063
1	0x3e86e929	0.26349762
2	0x3c023f49	0.007949659
3	0x3efacfee	0.48986763
4	0x3e561a2a	0.20908418
5	0x3ef47cae	0.47751373
6	0x3e680136	0.22656712
7	0x3b097884	0.0020976374
8	0x3efb7004	0.491089
9	0x3e5ec314	0.21754104
10	0x3ef2db0d	0.47432747
11	0x3e63cf4a	0.22247043
12	0x3c41d862	0.011831375
13	0x3efa3414	0.48867857
14	0x3e4abb88	0.197981
15	0x3efaf97d	0.4901847
16	0x3e060603	0.13088231
17	0x3a25cbdb	0.00063246273
18	0x3efc9afd	0.49336997
19	0x3e6b3627	0.22969876
20	0x3eeacdee	0.45860237
21	0x3e0070c9	0.12543024
22	0x3c08aeca	0.008342454
23	0x3eee3524	0.46524918
24	0x3e32a9ac	0.17447537

111 f4 [55]
0	0x3daefe25	0.08544568
1	0x3d80a1b5	0.06280843
2	0x3a25cbdb	0.00063246273
3	0x3dd89f72	0.10577287
4	0x3d20a8ef	0.039223608
5	0x3e03cc1c	0.1287083
6	0x3cafbafd	0.021451468
7	0x3a25cbdb	0.00063246273
8	0x3e058dab	0.13042323
9	0x3d433a29	0.047662888
10	0x3e719830	0.23593211
11	0x3ccba528	0.024859026
12	0x3a25cbdb	0.00063246273
13	0x3e72c677	0.23708521
14	0x3dc4fc25	0.09618405
15	0x3dd16adf	0.10225462
16	0x3a25cbdb	0.00063246273
17	0x3a25cbdb	0.00063246273
18	0x3dd16bcc	0.10225639
19	0x3d1ca2d3	0.03824122
20	0x3e5332ec	0.20624894
21	0x3ceb106e	0.028694358
22	0x3a25cbdb	0.00063246273
23	0x3e550d98	0.20805967
24	0x3d7af85a	0.061272003
25	0x3dffc471	0.1248864
26	0x3a25cbdb	0.00063246273
27	0x3a25cbdb	0.00063246273
28	0x3dffc4db	0.12488719
29	0x3d548c1a	0.051891424
30	0x3e502754	0.20327502
31	0x3ceb106e	0.028694358
32	0x3a25cbdb	0.00063246273
33	0x3e5209e3	0.20511584
34	0x3d637941	0.05553556
35	0x3e7007f2	0.23440531
36	0x3a25cbdb	0.00063246273
37	0x3a25cbdb	0.00063246273
38	0x3e700842	0.2344065
39	0x3e16ada7	0.1471468
40	0x3eb41a61	0.35176376
41	0x3c4e2ff1	0.012584672
42	0x3a25cbdb	0.00063246273
43	0x3eb42f3c	0.35192287
44	0x3e2c21eb	0.16809814
45	0x3e8c89f0	0.27448988
46	0x3a25cbdb	0.00063246273
47	0x3a25cbdb	0.00063246273
48	0x3e8c8a0a	0.27449065
49	0x3e2fd0ce	0.17169496
50	0x3e8c89f0	0.27448988
51	0x3a25cbdb	0.00063246273
52	0x3a25cbdb	0.00063246273
53	0x3e8c8a0a	0.27449065
54	0x3e2fd0ce	0.17169496

114 f4 [25]
0	0x3eefc134	0.4682709
1	0x3e86e929	0.26349762
2	0x3c023f49	0.007949659
3	0x3efacff2	0.48986775
4	0x3e561a2f	0.20908426
5	0x3eef0afd	0.4668807
6	0x3e72345a	0.23652783
7	0x3c1abbf3	0.009444225
8	0x3ef898c6	0.48554057
9	0x3e54501a	0.20733681
10	0x3ef2d58c	0.47428548
11	0x3e5e3530	0.21699977
12	0x3b96e011	0.0046043475
13	0x3ef9e02e	0.48803848
14	0x3e4ec063	0.20190577
15	0x3eea59ee	0.45771736
16	0x3e03cfa7	0.12872182
17	0x3c4e308c	0.012584817
18	0x3eedfd9b	0.46482548
19	0x3e481825	0.1954046
20	0x3ee7daa9	0.45284012
21	0x3e023899	0.12716903
22	0x3a25cbdb	0.00063246273
23	0x3eeb9ca7	0.46017954
24	0x3e3742fb	0.17896645

117 f4 [25]
0	0x3d0245a1	0.031804685
1	0x3dc2fa5a	0.09520407
2	0x3a25cbdb	0.00063246273
3	0x3dcd608b	0.1002818
4	0x3d1685c7	0.036748674
5	0x3d0b3634	0.03398724
6	0x3d90bc6c	0.070671886
7	0x3a25cbdb	0.00063246273
8	0x3da073a5	0.078345574
9	0x3d16d226	0.036821507
10	0x3d280707	0.041022327
11	0x3d9e3a32	0.077259436
12	0x3a25cbdb	0.00063246273
13	0x3db2e9a2	0.08735968
14	0x3d189bfc	0.037258133
15	0x3e14c025	0.14526422
16	0x3d90bc6c	0.070671886
17	0x3a25cbdb	0.00063246273
18	0x3e24bb23	0.16087012
19	0x3de05280	0.109532356
20	0x3e14c025	0.14526422
21	0x3d90bc6c	0.070671886
22	0x3a25cbdb	0.00063246273
23	0x3e24bb23	0.16087012
24	0x3de05280	0.109532356

120 f4 [3]
0	0x415876fa	13.529047
1	0x3f67f2d8	0.90604925
2	0x417100c2	15.062685

action_model._continuous_distribution.log_sigma f4 [1, 3]
0	0x3c9cf544	0.01915992
1	0xbafb91f5	-0.0019193279
2	0xbc613c8c	-0.013747346

action_model._continuous_distribution.mu.bias f4 [3]
0	0xbbb6e9f4	-0.0055820886
1	0x39829aed	0.0002491096
2	0x3cbebfb1	0.023284765

action_model._continuous_distribution.mu.weight f4 [3, 256]
0	0x3b1dafc6	0.0024061068
1	0x3c19c51c	0.009385373
2	0x3b837f58	0.0040129833
3	0x3ca45efb	0.020064821
4	0xbbfecc7c	-0.0077758413
5	0xbb043280	-0.0020171702
6	0xbc6494f3	-0.013951528
7	0xba8de62a	-0.001082604
8	0xbb6cd249	-0.0036136082
9	0x3c1790fa	0.009250874
10	0x3cff1ad6	0.031140726
11	0x3baad6dc	0.0052136015
12	0x3992552a	0.00027910742
13	0xbc8c284c	-0.017109059
14	0x3c636771	0.013879643
15	0xbcc710a6	-0.02429993
16	0x3c92a705	0.017901907
17	0x3bdb7edc	0.0066984724
18	0xbcaf1a8e	-0.021374967
19	0x3cded184	0.027199514
20	0x3aab501a	0.0013070137
21	0x3bd77cb2	0.006576144
22	0x3ae4ee92	0.0017466119
23	0xbb750429	-0.0037386513
24	0xbd1d7846	-0.03844478
25	0xbbf7c68e	-0.0075615114
26	0xbc1fdc31	-0.009757088
27	0xbbc770d6	-0.006086449
28	0xb9c9d295	-0.00038494603
29	0x3ca7366c	0.020411693
30	0x3b37d114	0.0028048204
31	0xbc3a7949	-0.011381456
32	0xbc20657f	-0.009789824
33	0xbc2ccba9	-0.010546603
34	0x3c68d1c5	0.014210169
35	0x3acc84f4	0.0015603588
36	0xbc4214b7	-0.011845759
37	0x3b58943a	0.0033047334
38	0x3cbbd3cc	0.022928141
39	0xbc3d65f1	-0.011559949
40	0x3cfccdf3	0.030859923
41	0xbc836ca6	-0.016043019
42	0x3d1d7bc7	0.03844812
43	0x3cc622b6	0.024186473
44	0x399442f9	0.00028278658
45	0x3bbdd4cd	0.00579319
46	0x3c63d31f	0.013905316
47	0x3c77c1a9	0.015121856
48	0x3bbb992b	0.005725046
49	0x3c97307f	0.018455742
50	0x3c982322	0.01857144
51	0x3cf92188	0.030411497
52	0xbc90217d	-0.017594093
53	0x3d225590	0.03963238
54	0x3c3d6012	0.0115585495
55	0xbcddd90d	-0.027081037
56	0x3c10a2a7	0.008827842
57	0x3cbd44db	0.023104122
58	0x3cf0520a	0.029335994
59	0x3c3b5821	0.011434586
60	0x3bfdf036	0.0077495826
61	0xbc3c96db	-0.011510576
62	0xbbdac67d	-0.0066764937
63	0x3d26bdcd	0.040708352
64	0x3cbbbbd4	0.022916712
65	0xbaa2a868	-0.0012409808
66	0x3a24e72b	0.000629055
67	0x3cf0eb2a	0.02940901
68	0xbb6f2bad	-0.0036494539
69	0x3bc9a432	0.006153607
70	0x3ca9ff02	0.02075148
71	0x39518282	0.00019980411
72	0x3c57f95f	0.013182013
73	0x3c9a443d	0.018831367
74	0x3c4d3538	0.012524895
75	0x3c5c29e8	0.013437726
76	0x3d044842	0.032295473
77	0xbca23203	-0.019799238
78	0x3a2c590d	0.0006574549
79	0x3cdbee16	0.026846927
80	0x3c8b932e	0.017037954
81	0x3c4908ef	0.012270196
82	0x3ae9764c	0.0017811744
83	0xbbbcf938	-0.005767014
84	0x3acce9bd	0.0015633624
85	0xbc0a9b45	-0.008459871
86	0xb9eafd88	-0.00044820854
87	0xbca7e396	-0.020494264
88	0xbc0c4dfc	-0.008563515
89	0x3c4752c9	0.012165734
90	0xbc5510a2	-0.013004454
91	0x3c880fef	0.01660916
92	0xbb958088	-0.0045624413
93	0xbd01af83	-0.03166152
94	0xbbabf030	-0.0052471384
95	0xbc54fd03	-0.012999776
96	0xbc0a0ed9	-0.0084263915
97	0x3c78f175	0.015194287
98	0x3b0d2d08	0.0021541733
99	0xbbd949a1	-0.0066310917
100	0xbcd1a56b	-0.025591573
101	0xbc4efb08	-0.012633093
102	0x3c402c25	0.011729275
103	0x3ceddd5a	0.029036213
104	0xbcbe3ad9	-0.02322142
105	0x3c0f4944	0.008745495
106	0xbc32c23b	-0.010910566
107	0xbcd270f0	-0.025688618
108	0xbcf3d5a9	-0.029764967
109	0xba1aa99e	-0.0005899909
110	0x3c9151d1	0.017739208
111	0x3c699c12	0.0142584015
112	0x3cd6a473	0.026201462
113	0x3b9400d4	0.0045167003
114	0xbc698b5a	-0.014254415
115	0x39a5b628	0.0003160697
116	0xbbd903b3	-0.0066227554
117	0x3b452cbd	0.003008648
118	0xbbf783e9	-0.0075535667
119	0xbc8bbd60	-0.017058074
120	0xbbd2fec3	-0.0064390614
121	0x3c4ee361	0.012627454
122	0xb96ea930	-0.00022760476
123	0xbc6d95d7	-0.014501057
124	0xba1ada1d	-0.0005907135
125	0xbabb9567	-0.0014311493
126	0xba019efa	-0.0004944649
127	0xbca7efb8	-0.020500049
128	0x3b695247	0.003560202
129	0x3c81b662	0.015834037
130	0x3c038419	0.0080271
131	0x3bd9538e	0.006632275
132	0xbc95fa1f	-0.018307744
133	0xbca99e31	-0.020705314
134	0xbc2c2c5a	-0.010508621
135	0x3c58fd31	0.013243959
136	0x3c513e0f	0.012771144
137	0x3b3cec77	0.0028827467
138	0x3c6eb0ff	0.014568566
139	0xbc792595	-0.015206714
140	0x3c141fef	0.009040817
141	0x3c7316e2	0.014836999
142	0x3c14cfd8	0.009082757
143	0xba40a1f6	-0.0007348353
144	0x3baaf7a4	0.0052175093
145	0xbc126e34	-0.008937407
146	0x3c82d0d8	0.015968725
147	0xbbdc9c10	-0.0067324713
148	0x3a9885b0	0.0011636522
149	0x3c0c533f	0.008564769
150	0x3b6bdd46	0.0035990044
151	0x3c823298	0.015893266
152	0xbbceebba	-0.006314722
153	0xbb79b5dd	-0.0038102784
154	0x3c201547	0.009770698
155	0xbc4897e0	-0.012243241
156	0x3c1b4b16	0.009478351
157	0x3c84f6cf	0.016230969
158	0x3c51cad3	0.012804705
159	0x3c872def	0.016501395
160	0x3c95986c	0.018261157
161	0xbc11554a	-0.008870432
162	0xbb92917a	-0.0044729086
163	0x3c4fa772	0.012674199
164	0x3b078acb	0.0020682092
165	0xbcf883d0	-0.03033629
166	0xbc509909	-0.012731799
167	0xbbad397f	-0.005286395
168	0xbc72e9be	-0.014826236
169	0xb988e0da	-0.0002610747
170	0xbc8c373e	-0.017116185
171	0xba1b02a2	-0.0005913173
172	0xbc4d16b2	-0.012517618
173	0xbcd3199f	-0.025769053
174	0xba8c6658	-0.0010711653
175	0x3aa70b30	0.0012744423
176	0x3c9e0fdd	0.019294674
177	0xbcdb76f7	-0.026790125
178	0x3c8565d7	0.016283913
179	0xbc04deac	-0.00810973
180	0xbcaccf7f	-0.021095036
181	0x3c80496e	0.015660014
182	0x3cb40161	0.021973314
183	0x3c09bbff	0.008406638
184	0xbbd98cb7	-0.006639089
185	0x39ddf49a	0.00042334647
186	0xbb128c56	-0.0022361479
187	0x39d67c6a	0.00040909956
188	0xbbfd965b	-0.007738871
189	0x3c4c7056	0.012477955
190	0x3c3e8979	0.011629456
191	0x3be3b7c5	0.0069493973
192	0x3c4fbb08	0.012678869
193	0x3c0d61f3	0.00862931
194	0x3b66fb40	0.0035244972
195	0x39bef4dc	0.00036422058
196	0xbc4d13fa	-0.01251697
197	0xbc0c2306	-0.008553272
198	0xbc8e6e36	-0.017386537
199	0xbc828654	-0.015933193
200	0x3c434e5d	0.011920539
201	0xbc7bffa9	-0.015380778
202	0x3c8b23ed	0.016984904
203	0x3b910205	0.0044252896
204	0x3c075eaf	0.00826232
205	0x3b2599d0	0.0025268681
206	0x3ccfe22c	0.025376402
207	0xbcb04962	-0.021519367
208	0x3c45cdaf	0.012072965
209	0xbc82e195	-0.015976707
210	0x3d0ebeb9	0.034849856
211	0x3c67e504	0.014153723
212	0x3d091602	0.033468254
213	0xbc4a402c	-0.012344401
214	0x3badc392	0.005302855
215	0x3c0e72da	0.008694375
216	0x3a7cc35f	0.00096421497
217	0x3c3f4bfa	0.011675829
218	0x3bca17ea	0.0061674016
219	0xba37de58	-0.0007014028
220	0x3b18359d	0.0023225315
221	0xbbab7378	-0.005232271
222	0xb7dc9b48	-2.6298352e-05
223	0xbcf2b219	-0.02962594
224	0xbc84a0ff	-0.01619005
225	0xbafef777	-0.0019452412
226	0x3d021059	0.03175387
227	0xbccdf7a5	-0.0251425
228	0xbbebd835	-0.0071974047
229	0xbb9cc7a5	-0.0047845417
230	0x3cb8a97d	0.022541756
231	0x3c160f28	0.009158887
232	0x3cb13694	0.02163247
233	0x39d31941	0.00040263872
234	0xbcc15734	-0.023601152
235	0x3d09ad49	0.033612523
236	0x3cf6bdc7	0.03011979
237	0xbc6a44e9	-0.014298656
238	0x3cb3dbbb	0.021955362
239	0x3c98da6e	0.018658843
240	0xbcffc3ad	-0.031221235
241	0xbc9a3a89	-0.01882674
242	0x3c1fee56	0.009761414
243	0xbc8c02f7	-0.017091257
244	0xbc87020f	-0.016480474
245	0x3b087f01	0.0020827653
246	0xbc856c0b	-0.01628687
247	0x3af10946	0.0018389605
248	0x3894cea0	7.095677e-05
249	0xbb92e7e1	-0.0044832085
250	0x3b2110ac	0.0024576588
251	0x3d2c34ba	0.04204247
252	0xbae08ede	-0.0017132421
253	0x3c8992d0	0.016793638
254	0x3c1473b6	0.009060791
255	0x3bfc8bd1	0.007707097

network_body._body_endoder.seq_layers.0.bias f4 [256]
0	0xbccf5ba5	-0.025312254
1	0xbd0b792a	-0.034051098
2	0xbd2208be	-0.03955912
3	0xbd4b1e57	-0.04958948
4	0x3b8dbfef	0.004325859
5	0x3c944512	0.018099342
6	0xbce2de6f	-0.027693955
7	0xbd333654	-0.043752983
8	0xbd192185	-0.037385482
9	0xbd4b60d5	-0.049652893
10	0xbd33e58c	-0.043920085
11	0xbc15727d	-0.009121534
12	0xbc012cc0	-0.007884204
13	0xbcba6894	-0.022754945
14	0xbc938cc6	-0.018011462
15	0xbd881c76	-0.066460535
16	0xbc69d616	-0.0142722335
17	0x3b859743	0.0040768697
18	0xbce1b799	-0.027553366
19	0x3b8411b7	0.004030432
20	0xbd12119a	-0.035661317
21	0xbc2c0509	-0.010499247
22	0xbca34938	-0.019932374
23	0x3d00de19	0.03146181
24	0xbad6c740	-0.0016386285
25	0xbcfd7995	-0.030941764
26	0xbb76d01e	-0.0037660669
27	0x3b819930	0.003955029
28	0x3bb865c4	0.005627366
29	0xbd3f270e	-0.046668105
30	0xbce8e6dc	-0.028430395
31	0xbd2be58e	-0.041966967
32	0xbcd27008	-0.025688186
33	0x3d08c54c	0.033391282
34	0xbd013d3e	-0.031552546
35	0xbd8e6f4d	-0.06954823
36	0xbcb45d8a	-0.02201726
37	0xbd1876b4	-0.03722258
38	0xbd016d20	-0.03159821
39	0xbd3cdda6	-0.046109818
40	0xbd67ba3a	-0.056574084
41	0xbd023c1e	-0.031795613
42	0xbca9c15f	-0.02072209
43	0xbcd6f421	-0.026239457
44	0xbc1906ce	-0.009340001
45	0x3c8bbf16	0.01705889
46	0x3c14840e	0.009064687
47	0xbcdf6256	-0.02726857
48	0x3c195062	0.009357544
49	0xbcfa4669	-0.030551152
50	0xbcfc569f	-0.030803023
51	0xbcb6c18b	-0.022309085
52	0xbcf41471	-0.029794903
53	0xbca0bb5e	-0.019620594
54	0xbd1302d1	-0.035891358
55	0xbb5b2dee	-0.0033444124
56	0xbd8cb847	-0.068710856
57	0x3c39db9c	0.011343863
58	0xbd0fe34d	-0.03512888
59	0xbd00e2f0	-0.031466424
60	0x3b56ac13	0.0032756373
61	0xbbe9b686	-0.007132354
62	0xbd474453	-0.048649143
63	0xbcb1adba	-0.021689285
64	0xbd29bc27	-0.0414392
65	0xbb02e9e3	-0.0019975833
66	0xbd0f1b81	-0.03493834
67	0xbcc7696d	-0.024342263
68	0x3cf0445d	0.029329473
69	0x3ba0d3c0	0.004908055
70	0xbb99183f	-0.00467208
71	0xbd386b88	-0.045024425
72	0xbd22d3bd	-0.03975271
73	0xbca1e6f3	-0.019763445
74	0xbbfa39eb	-0.007636299
75	0xbca89de3	-0.020583099
76	0xbd0b4e86	-0.034010433
77	0xbcd27cd0	-0.02569428
78	0xbd0f7c41	-0.035030607
79	0xbd1b7bde	-0.037959926
80	0xbd209380	-0.039203167
81	0xbcabdcb8	-0.02097927
82	0xbd067fda	-0.032836773
83	0xbd1be83f	-0.038063284
84	0xbcfd0b60	-0.030889213
85	0xbd062d60	-0.032758117
86	0xbd1496c5	-0.036276598
87	0xbcadb5f4	-0.021204926
88	0xbd0a54e2	-0.033772357
89	0xbcd3f295	-0.025872508
90	0x3a87f013	0.001037123
91	0xbceea8ba	-0.02913319
92	0xbca2cc19	-0.019872712
93	0xbcddd505	-0.027079115
94	0xbabed16c	-0.0014558262
95	0xbb3d688a	-0.0028901421
96	0xbd84bbfb	-0.06481167
97	0xbd811933	-0.063036345
98	0xbd253498	-0.04033336
99	0xbcf78706	-0.030215751
100	0xbcc83fcf	-0.024444489
101	0xbcb14fe5	-0.021644542
102	0x3c9465e8	0.018114999
103	0xbd276868	-0.040871054
104	0xbd236223	-0.039888512
105	0xbc2e4ca9	-0.010638394
106	0xbccb8e9d	-0.024848277
107	0xbcce06d6	-0.025149744
108	0xbb0d3fed	-0.0021552995
109	0x3ae8e962	0.0017769749
110	0xbd93fd55	-0.072260536
111	0xba61319b	-0.00085904606
112	0xbd17a06d	-0.03701823
113	0x3a99a69b	0.0011722626
114	0xbc9ce3fb	-0.019151678
115	0xbcac5eba	-0.021041263
116	0xbd492185	-0.049104232
117	0xbd2e2bff	-0.042522427
118	0x3a9583ba	0.0011407055
119	0xbcad065d	-0.021121198
120	0xbc8d3d86	-0.01724125
121	0xbd812484	-0.06305793
122	0xbba6e900	-0.0050936937
123	0x3be9f7ef	0.0071401517
124	0x3b5fec25	0.0034167853
125	0xbd3f5ca0	-0.046719193
126	0xbc86fd4a	-0.0164782
127	0x3bcee6e7	0.006314147
128	0xbd4de037	-0.050262656
129	0xbb76400a	-0.0037574791
130	0xbbc15112	-0.005899557
131	0xbcc3ac27	-0.0238858
132	0x38278f78	3.994952e-05
133	0xbcc3b93b	-0.023892036
134	0xbc4f9e47	-0.012672014
135	0xbd59fdfb	-0.05322073
136	0xbc7b4972	-0.015337335
137	0xbd44a8e1	-0.048012618
138	0xbd76939a	-0.060199358
139	0xbbe9514b	-0.0071202866
140	0x3c0aa6cb	0.008462618
141	0xbce75e1f	-0.028243123
142	0x3ae0757f	0.001712486
143	0xbcfd4411	-0.030916246
144	0xbc91117b	-0.01770853
145	0xbc19774e	-0.009366823
146	0xbd50f2a0	-0.051012635
147	0xbd377cac	-0.04479663
148	0x3b196fe8	0.0023412649
149	0xbc5d26aa	-0.013497988
150	0xbd12ead8	-0.035868496
151	0x3b0f6b52	0.0021884036
152	0xbdc3e7a2	-0.09565665
153	0x3c634cd8	0.013873301
154	0xbc1a05c6	-0.009400791
155	0xbcc38feb	-0.023872336
156	0xbd1998fd	-0.037499417
157	0x3c336698	0.010949753
158	0xbd0a624b	-0.033785146
159	0xbcfcd78b	-0.030864498
160	0x3d1b4ca1	0.037914876
161	0xbc3e8e27	-0.011630571
162	0xbc491f7d	-0.012275574
163	0xbb5f7c46	-0.0034101172
164	0xbce9d4b4	-0.028543808
165	0x3c0b2d6f	0.008494719
166	0xbcecda99	-0.02891283
167	0x3cb0aa69	0.021565633
168	0xbc9fc001	-0.019500734
169	0xbd73afdc	-0.059493884
170	0xbd394f49	-0.045241628
171	0xbbbdc972	-0.0057918364
172	0xbd1def2a	-0.038558163
173	0xbc6556f3	-0.013997781
174	0xbc832989	-0.016011016
175	0xbd7feb30	-0.06248015
176	0xbd15caff	-0.036570545
177	0xbd144ba6	-0.036204956
178	0xbca3aa29	-0.0199786
179	0xbc88f914	-0.016720332
180	0xbd1db56b	-0.03850309
181	0xbd102fb6	-0.03520175
182	0xbb677d2b	-0.0035322409
183	0xbd0983de	-0.033573024
184	0x3c9f52da	0.019448686
185	0xbd184fba	-0.03718541
186	0xbaa85d92	-0.0012845269
187	0xbb88a0c9	-0.0041695577
188	0xbce7e1e3	-0.028305953
189	0xbcdc5473	-0.026895737
190	0x3c89433e	0.016755696
191	0xbcbca776	-0.02302907
192	0xbc75c831	-0.015001343
193	0xbd464337	-0.048403945
194	0xbc4ad540	-0.012379944
195	0xbd42851b	-0.04749022
196	0x3c15d9a7	0.009146131
197	0xbd843fa6	-0.064574525
198	0xbc62bcd7	-0.013838968
199	0x3c82d9b5	0.015972951
200	0xbca36d63	-0.01994962
201	0xbd8074ec	-0.06272301
202	0x3d4f1884	0.05056049
203	0xbd03e5f2	-0.032201715
204	0x3c89c341	0.016816737
205	0xbc38c358	-0.011277042
206	0xbd027dcb	-0.031858247
207	0x3c43e8f0	0.011957392
208	0xbd0ae9bb	-0.03391431
209	0xbc7b5442	-0.015339913
210	0xbcd16166	-0.025559139
211	0xbccf02d3	-0.025269901
212	0xbd1fb42d	-0.03899019
213	0xbd4f303d	-0.050583113
214	0xbd01d7e3	-0.031700026
215	0xbd429d44	-0.04751326
216	0xbd4e5c51	-0.05038101
217	0xbd3e6540	-0.04648328
218	0xbd47659d	-0.04868089
219	0xbcbd504f	-0.023109583
220	0xbd2c9ec9	-0.042143617
221	0xbd496e6c	-0.049177572
222	0xbd45eea6	-0.048323296
223	0x3afdf6e1	0.0019375944
224	0xbd29340b	-0.041309398
225	0xbd375501	-0.0447588
226	0xbc8803f1	-0.016603442
227	0xbd6e9578	-0.058248013
228	0xbcf54dee	-0.029944386
229	0xbc89a4ce	-0.016802218
230	0x3c3d903c	0.011570033
231	0x3b398ff2	0.0028314558
232	0xbd12c934	-0.035836414
233	0x3adabf67	0.0016689122
234	0xbd75bf44	-0.05999686
235	0xbc3c7b05	-0.0115039395
236	0xbd310faa	-0.04322783
237	0xbd001159	-0.031266544
238	0xbd5123c3	-0.051059496
239	0x3a131f13	0.00056122354
240	0xbd0139a5	-0.031549115
241	0xbd5e21de	-0.054231517
242	0x3d47f0a0	0.048813462
243	0xbcfb8d0c	-0.030706905
244	0x3b6c6443	0.0036070503
245	0x392cbd60	0.00016473746
246	0xbd0ee779	-0.03488872
247	0xbc840884	-0.016117342
248	0xbb8631f7	-0.0040953117
249	0xbc81ace7	-0.015829517
250	0x3c5ec560	0.013596863
251	0xbc89b79f	-0.01681119
252	0xbc88bac9	-0.016690629
253	0xbd76f468	-0.060291678
254	0xbcd95377	-0.026529057
255	0xbc54cff7	-0.012989036

network_body._body_endoder.seq_layers.0.weight f4 [256, 158]
0	0xbda89ac4	-0.08232644
1	0x3de637bc	0.11241099
2	0x3da60b47	0.0810762
3	0x3d186e3a	0.037214495
4	0xbd2f64cc	-0.042820737
5	0xbb7bab54	-0.003840168
6	0x3dc78096	0.09741323
7	0xbd404afc	-0.04694651
8	0xbc792c82	-0.015208365
9	0xbd9933c6	-0.07480578
10	0x3d49ebb8	0.049297065
11	0x3dd816f7	0.10551255
12	0x3d3578f7	0.044304814
13	0xbdc6e6bf	-0.0971198
14	0xbd4a5d3e	-0.04940533
15	0xbda872cb	-0.0822502
16	0xbd3d9af4	-0.046290353
17	0xbb1853cd	-0.0023243309
18	0x3d7a69f2	0.061136194
19	0xbdf07537	-0.11741107
20	0x3ded2a47	0.115803294
21	0xbbc53f70	-0.006019525
22	0x3d7abc58	0.061214775
23	0xbe1a3b68	-0.15061724
24	0xbdea9623	-0.114544176
25	0xbcbb4a4e	-0.02286258
26	0x3b8be0c8	0.0042687394
27	0x3d975106	0.07388501
28	0xbdd81493	-0.10550799
29	0xbc297f39	-0.010345274
30	0x3d6cab83	0.057780754
31	0xbd74ca6f	-0.05976337
32	0xbcd208c5	-0.025638947
33	0xbe3634d5	-0.17793591
34	0xbba986ec	-0.0051735546
35	0xbd9ab67b	-0.07554337
36	0xbd4353fd	-0.04768752
37	0xbd3f95b7	-0.04677364
38	0x3ca9e5d1	0.020739468
39	0x3ce0e714	0.027453937
40	0xbd44037f	-0.047854897
41	0xbd5c238f	-0.05374485
42	0xbb25f6ba	-0.0025324062
43	0x3d69725c	0.056993827
44	0xbd54edba	-0.051984526
45	0x3d323e51	0.04351646
46	0xbd3a57a0	-0.045493722
47	0xbe1c76cb	-0.15279691
48	0xbe113312	-0.14179638
49	0xbdde8d99	-0.10866851
50	0x3dcb857e	0.09937571
51	0xbdc34eeb	-0.09536537
52	0x3b2b1ff5	0.0026111577
53	0xbd8aa7c6	-0.067702815
54	0x3d3eb19e	0.046556108
55	0xbd9c91c9	-0.07644994
56	0xbd823af1	-0.063588984
57	0xbdc36a83	-0.095418
58	0xbcc2eadc	-0.02379363
59	0xbe45e31d	-0.19324918
60	0x3d52ef36	0.05149766
61	0xbc0fd754	-0.008779366
62	0xbcf7aa6f	-0.030232636
63	0xbe0145d4	-0.12624294
64	0x3dc07b5f	0.09398531
65	0xbb4b5b51	-0.003102977
66	0xbdb4f5c6	-0.0883594
67	0xbba1d12a	-0.0049382644
68	0x3cfc7dd6	0.030821722
69	0x3db11b5c	0.086477965
70	0xbd717a2f	-0.058954414
71	0x3e1be95d	0.1522574
72	0x3e480b86	0.19535646
73	0x3d9712aa	0.07376607
74	0x3c65b317	0.014019749
75	0x3e0edb47	0.13950835
76	0x3b58d1b9	0.0033083989
77	0x3e31fde4	0.17382008
78	0xbd6b68a3	-0.057472836
79	0xbdfb2039	-0.12262005
80	0x3c85d53f	0.016337035
81	0x3d9155c9	0.0709644
82	0x3d773ddc	0.060361728
83	0xbd7e0a45	-0.062021513
84	0xbd863948	-0.06553894
85	0xbdb3675b	-0.08759948
86	0x3e0e4b8a	0.13896003
87	0xbd9c927c	-0.07645127
88	0x3c055c75	0.008139719
89	0x3da33a8f	0.079701535
90	0xbdfc292b	-0.1231254
91	0x3deeb2a8	0.1165517
92	0x3d8445e5	0.06458644
93	0xbdf935a4	-0.12168434
94	0x3da2f6a2	0.07957198
95	0xbd8cd464	-0.06876448
96	0x3e33983d	0.17538543
97	0x3d7303a0	0.05932963
98	0xbd9aeb34	-0.07564393
99	0xbe0fca4d	-0.14042015
100	0xbdd698be	-0.10478352
101	0xbddd7db5	-0.10814992
102	0xbce45035	-0.027870277
103	0xbd183a7e	-0.037165157
104	0x3c9b7bb3	0.018979883
105	0x3c66fce4	0.01409838
106	0xbe24bd1f	-0.16087769
107	0x3e03abfa	0.12858573
108	0xbc4a5396	-0.01234903
109	0x3b967f3d	0.0045928047
110	0x3c262096	0.010139605
111	0x3da46d0e	0.08028613
112	0x3e1d57f4	0.15365583
113	0x3c97cc9e	0.018530186
114	0x3dd805b4	0.10547963
115	0xbd9f0c95	-0.07766072
116	0xbb720681	-0.0036930146
117	0xbd61488f	-0.055000838
118	0x3cc886ee	0.024478402
119	0xbd77d076	-0.06050154
120	0xbc0385d0	-0.008027509
121	0xbe28ded8	-0.16491258
122	0xbdc6658e	-0.09687339
123	0xbdc06d15	-0.09395806
124	0xbd91e04d	-0.0712286
125	0xbdc60796	-0.09669416
126	0x3c92ecce	0.017935183
127	0x3c5562fa	0.013024086
128	0xbcc941c5	-0.024567494
129	0x3de5b180	0.11215496
130	0x3ded4b46	0.11586623
131	0xbcdbb88e	-0.026821401
132	0xbd7b722d	-0.061388183
133	0x3dfcea6d	0.12349401
134	0x3da500eb	0.08056816
135	0xbe1287fd	-0.14309688
136	0xbda208d3	-0.07911839
137	0x3d9827b8	0.07429451
138	0x3bf557d1	0.007487275
139	0xbd696563	-0.056981456
140	0x3e22f873	0.15915088
141	0x3ce870c7	0.028374089
142	0x3d79754b	0.060902875
143	0xbd817f65	-0.06323127
144	0xbd8eba16	-0.06969087
145	0xbd6aad5d	-0.05729424
146	0x3dffab2d	0.12483821
147	0xbdb30d2c	-0.08742747
148	0x3d74a57d	0.059728134
149	0x3d9344d1	0.0719086
150	0xbd953bed	-0.072868206
151	0x3d040458	0.032230705
152	0xbc048800	-0.008089066
153	0xbd0ca883	-0.034340393
154	0x3d7a302c	0.061081097
155	0xbd344819	-0.04401407
156	0x3be0a0b6	0.0068550957
157	0xbe209c4f	-0.15684627
158	0x3d87ac90	0.066247106
159	0xbd94f2d3	-0.072728775
160	0x3d3d1fb7	0.046172824
161	0xbce04c3b	-0.0273801
162	0x3b2b9804	0.0026183138
163	0x3ce4bd03	0.027922159
164	0x3d830acf	0.06398546
165	0x3c15484f	0.009111478
166	0x3d61def2	0.055144258
167	0x3c725ebd	0.014793095
168	0xbe14eb5f	-0.14542912
169	0xbd836d45	-0.06417326
170	0x3c8c412f	0.017120926
171	0xbd050a4b	-0.03248052
172	0x3e19939d	0.14997716
173	0x3e083a0a	0.1330339
174	0x3d6222d1	0.055208985
175	0xbd8977c1	-0.06712294
176	0xbe1f4865	-0.1555496
177	0x3d9b2672	0.07575692
178	0xbdb140b9	-0.08654923
179	0x3de36385	0.11102966
180	0xbd8b404b	-0.06799372
181	0x3dd3e13f	0.10345697
182	0x3dc44168	0.09582788
183	0x3d6306c7	0.055426385
184	0x3d476917	0.048684206
185	0xbd39105f	-0.04518163
186	0x3d407718	0.046988577
187	0x3d47482e	0.04865282
188	0xbc0b0829	-0.008485832
189	0x3dbdce58	0.092678726
190	0xbbdbba62	-0.006705568
191	0x3e237f89	0.1596662
192	0x3d2b2fc1	0.04179359
193	0x3d1f2621	0.038854722
194	0xbd2d3fc0	-0.042297125
195	0xba5ae572	-0.000835023
196	0xbbee8df8	-0.0072801076
197	0x3d9fba06	0.07799153
198	0x3e0cc4fd	0.1374702
199	0xbdd6c81c	-0.104873866
200	0x3cfc4982	0.03079677
201	0xbd6f4f1e	-0.05842506
202	0x3b992f01	0.0046747928
203	0xbdf6a8db	-0.120439254
204	0x3e0b0d76	0.13579354
205	0xbd1ad655	-0.03780206
206	0xbe02084d	-0.12698479
207	0xbdd62a8c	-0.10457334
208	0xbda00152	-0.07812752
209	0xbd94908e	-0.07254134
210	0xbd16e120	-0.03683579
211	0xbdea333b	-0.11435553
212	0xbe1ff226	-0.15619716
213	0x3d157d9b	0.03649674
214	0xbd409fad	-0.04702728
215	0x3e310684	0.17287642
216	0x3d9192f6	0.07108109
217	0x3d5cc3ea	0.053897776
218	0xbcdbb838	-0.02682124
219	0xbd9385f4	-0.07203284
220	0xbd806714	-0.062696606
221	0xbe27f519	-0.16402091
222	0x3ccd44b6	0.025057178
223	0xbd3a9f33	-0.04556198
224	0x3d0f1582	0.03493262
225	0xbe062675	-0.13100608
226	0xbbcdbb02	-0.0062783966
227	0x3ca4b451	0.020105513
228	0xbddb26a4	-0.107007295
229	0x3d9f6afe	0.07784079
230	0xbe277f58	-0.16357172
231	0xbe4ca36e	-0.19984218
232	0x3d4a452c	0.049382374
233	0xbd3cab2e	-0.046061687
234	0x3b0d9dfc	0.0021609059
235	0xbcfc2701	-0.030780317
236	0xbd5a89eb	-0.053354185
237	0xbbc43821	-0.0059881364
238	0x3d47587f	0.04866838
239	0xbd1d8499	-0.038456533
240	0xbd7786d9	-0.060431335
241	0x3a745746	0.0009320866
242	0x3da796c5	0.08183054
243	0xbcdd6e8b	-0.02703025
244	0x3e15440c	0.14576739
245	0xbdc89a6d	-0.097950794
246	0x3de080bb	0.109620534
247	0x3d6a154a	0.05714921
248	0xbe1f7d25	-0.15575083
249	0xbd66d516	-0.05635556
250	0x3d0dd611	0.034627978
251	0xbe0e7472	-0.13911608
252	0x3d8ba10e	0.06817828
253	0x3c834a47	0.01602663
254	0x3bf13ea1	0.0073622023
255	0xbd8acd70	-0.06777465

network_body._body_endoder.seq_layers.2.bias f4 [256]
0	0xbb02c332	-0.0019952771
1	0xbb98441a	-0.00464679
2	0xbc6bf4df	-0.014401644
3	0xbc9d83b8	-0.019227847
4	0xbb48659b	-0.003057814
5	0xbc358fcf	-0.01108165
6	0xbc9652cd	-0.01835003
7	0xbc2fe36c	-0.010735374
8	0x3b08f6f6	0.0020899153
9	0x3cd90cb9	0.026495324
10	0x3b8689a4	0.0041057635
11	0xbc80c4dd	-0.015718872
12	0xbb960663	-0.004578398
13	0xbce388a0	-0.027775109
14	0xbca21ef7	-0.019790156
15	0xbbde65ac	-0.0067870226
16	0xbd504bb0	-0.05085343
17	0x3c722853	0.014780122
18	0xbd211d54	-0.03933461
19	0xbcc55b6e	-0.024091449
20	0xbc89040c	-0.016725563
21	0xbd158308	-0.036501914
22	0x3c0ab4d3	0.008465963
23	0xbcdfe449	-0.027330535
24	0xbc07b8f9	-0.008283847
25	0x3b964b96	0.0045866473
26	0xbbc73e51	-0.0060804267
27	0xbc60be8b	-0.013717304
28	0xbd0b73e8	-0.034046084
29	0xbd470405	-0.048587818
30	0xbd16ac24	-0.03678526
31	0xbc089846	-0.008337086
32	0xbcc97845	-0.024593482
33	0xbd1243f9	-0.035709355
34	0x3d0869e4	0.03330411
35	0xbc9664e0	-0.018358648
36	0xbc2113ee	-0.009831412
37	0xbc1974ea	-0.009366253
38	0xbcd26aca	-0.025685687
39	0xbcac48e5	-0.021030853
40	0xbc50b2d1	-0.012737946
41	0xbc6abfe0	-0.014327973
42	0x3c26d156	0.0101817455
43	0xbbb5b318	-0.0055450313
44	0xbd131bac	-0.03591506
45	0xbbf94c27	-0.007607955
46	0xbc5d770a	-0.013517151
47	0xbbd793da	-0.0065789046
48	0xbce0db14	-0.027448215
49	0xbc95631c	-0.018235736
50	0xbb186515	-0.002325361
51	0xbcba3194	-0.022728719
52	0xbcf7472e	-0.030185308
53	0xbbceaa2b	-0.0063069067
54	0xbd443429	-0.047901306
55	0xbbc18fd4	-0.005907038
56	0xbcd2a3e4	-0.025712915
57	0xbbc13cb0	-0.005897127
58	0xbc637cb4	-0.013884712
59	0xbc35d8ec	-0.0110990815
60	0xb9808fdc	-0.00024521246
61	0xbc0b6e9f	-0.008510261
62	0xba96d23b	-0.0011506745
63	0xbb341b5e	-0.0027482132
64	0xbcd12e29	-0.025534706
65	0xbd0fb680	-0.035086155
66	0x3c2c0cb6	0.010501077
67	0xbd0c4551	-0.034245793
68	0x3cb41d1f	0.021986542
69	0xbd800fd4	-0.06253019
70	0xbcea8589	-0.028628128
71	0xbcac8ee4	-0.02106423
72	0xbc69fc2b	-0.014281313
73	0xbca63041	-0.020286681
74	0xbc64a8a0	-0.013956219
75	0x3c606d1b	0.013697888
76	0xbcb8a195	-0.022537986
77	0xbc4b7eb0	-0.012420341
78	0xbc3d545e	-0.011555759
79	0x3c29e6dc	0.010369983
80	0xbcac68fa	-0.02104615
81	0xbc5fbfdb	-0.013656582
82	0xbd2d415c	-0.04229866
83	0xbc90d4ad	-0.017679537
84	0xbcbb22bd	-0.022843713
85	0xbc98a523	-0.01863343
86	0xbd09aaa4	-0.03361
87	0xbc2320ac	-0.00995652
88	0xbcb5ad0d	-0.022177244
89	0xbd0785c4	-0.033086553
90	0xbce10678	-0.027468905
91	0xbc52107e	-0.012821315
92	0xbcb7d45a	-0.022440124
93	0xbc203e32	-0.0097804535
94	0xbb103bf2	-0.0022008386
95	0xbcb17d0d	-0.021666074
96	0xbc9452f1	-0.018105956
97	0x3c235c71	0.00997077
98	0xbcca50f7	-0.02469681
99	0xbc86fa21	-0.016476693
100	0xbd1f70ee	-0.038926058
101	0xbc1cfa71	-0.009581194
102	0xbcd1e828	-0.025623396
103	0xbcd93d81	-0.026518585
104	0x3b246e7a	0.0025090263
105	0xbc3f0dbf	-0.011660992
106	0xbc2226cc	-0.009896945
107	0xbc890402	-0.016725544
108	0xbd260789	-0.04053453
109	0xbd2c92a6	-0.042132042
110	0xbb0f4170	-0.0021859072
111	0xbd100fb8	-0.03517124
112	0xbd405e32	-0.04696483
113	0xbcd316fc	-0.025767796
114	0xbc76e880	-0.015070081
115	0xbd0464a7	-0.032322552
116	0xbc916beb	-0.017751655
117	0x3a604257	0.0008554807
118	0xbc7fffb8	-0.015624933
119	0xbc80a6bd	-0.015704507
120	0xbb691cc7	-0.003557013
121	0xbc3c2dd0	-0.011485532
122	0xbc741858	-0.014898382
123	0xbc0bf933	-0.0085433
124	0x3b6762c5	0.0035306674
125	0xbc669134	-0.014072705
126	0xbc21cc8a	-0.009875426
127	0xbb15cac0	-0.0022856444
128	0xbcad0925	-0.021122525
129	0xbd210914	-0.0393153
130	0xbcd786f8	-0.026309475
131	0xbd71ad66	-0.059003256
132	0xbc842688	-0.016131654
133	0xbb31a1c8	-0.0027104486
134	0xbca42574	-0.02003739
135	0xbd458ca8	-0.048229843
136	0x3bc38184	0.005966367
137	0xbc9cabde	-0.019124921
138	0xbca0cb5e	-0.019628223
139	0xbcad1429	-0.021127777
140	0x3b4000ff	0.0029297469
141	0x3762bb58	1.3514269e-05
142	0xbc9aa9c7	-0.018879784
143	0xbce26e01	-0.027640345
144	0xbcb54640	-0.022128224
145	0x3c043d50	0.008071259
146	0xbd65c839	-0.05609915
147	0xbced6c57	-0.028982325
148	0xbd4e456a	-0.050359167
149	0xbaf0951a	-0.0018354983
150	0x3befdba0	0.0073198825
151	0x3cc3b6d3	0.023890888
152	0xbc559b66	-0.013037538
153	0x3bb7c657	0.0056083607
154	0xbca7307d	-0.020408863
155	0x3c6d20e5	0.014473175
156	0xbd3851fc	-0.04500006
157	0xbcfc673b	-0.030810943
158	0x3c38acf6	0.011271706
159	0xbc308d37	-0.010775856
160	0x3ae84a31	0.0017722306
161	0x3bedd66e	0.007258228
162	0xbcb5d6c7	-0.02219714
163	0x3cc4bd60	0.024016082
164	0xbcee1655	-0.029063383
165	0xbc6a5726	-0.014303004
166	0xbd015cd4	-0.03158267
167	0x3c305fed	0.010765058
168	0xbcaa77a7	-0.020809008
169	0x3c1e8bc7	0.00967688
170	0xbbfe93c4	-0.00776908
171	0xbc4bc7a6	-0.012437737
172	0x3b16bb2b	0.0022999744
173	0xbceb3371	-0.028711053
174	0xbd508715	-0.050910074
175	0x3bb614f3	0.0055566966
176	0x3cfc15a9	0.030772047
177	0xbcbb3ad0	-0.022855192
178	0xbcd59645	-0.02607263
179	0xbbc0f4ca	-0.005888556
180	0xbc5f2eca	-0.013621995
181	0xbc8cdce5	-0.017195174
182	0xbc8ee1dc	-0.017441683
183	0xbd0859b9	-0.03328869
184	0xbc75b8d7	-0.0149976825
185	0x3c10ae13	0.008830565
186	0xbd33bdc5	-0.04388215
187	0x3cc864c2	0.024462108
188	0xbc7e59c7	-0.015524334
189	0xbc8b14aa	-0.016977627
190	0xbc8d0eb5	-0.017218927
191	0xbcaf85bf	-0.02142608
192	0xbd003ab7	-0.031305995
193	0xbd54da12	-0.05196578
194	0xbc9c00ea	-0.019043405
195	0xbd24cf88	-0.04023698
196	0xbd9103be	-0.07080792
197	0xba922af3	-0.0011151716
198	0xbbb9b788	-0.0056676306
199	0xbbec143c	-0.0072045606
200	0xbc956c01	-0.018239977
201	0xbca722c7	-0.020402325
202	0x3c6ab132	0.014324473
203	0xbce32d64	-0.027731605
204	0xbca05efd	-0.019576544
205	0xbd1df99e	-0.03856813
206	0x3c6875c5	0.014188235
207	0xbc5c7310	-0.013455167
208	0xbc899aac	-0.016797386
209	0x3b939eb7	0.0045050043
210	0xbb807183	-0.0039197817
211	0xbd00003d	-0.031250227
212	0xbc1073ff	-0.008816718
213	0xbc23f281	-0.010006548
214	0xbce06aeb	-0.027394732
215	0xbd21f84b	-0.03954343
216	0xbcf591fd	-0.02997684
217	0xbc56efac	-0.013118666
218	0xbca480db	-0.020080974
219	0xbd5b3f3d	-0.053527106
220	0xbcb324c4	-0.021868117
221	0xbb1faaba	-0.0024363236
222	0xbcbe9e8a	-0.023268957
223	0xbceb1407	-0.028696073
224	0x3bada6e7	0.0052994373
225	0xbbf2f729	-0.0074147177
226	0xbd09b15f	-0.03361642
227	0xbc2c15ff	-0.010503291
228	0xba1c8782	-0.000597112
229	0x3b351f65	0.002763712
230	0xbcb5fd6e	-0.022215571
231	0xbc232667	-0.009957886
232	0xbc9186aa	-0.017764408
233	0xbc96e6b0	-0.018420547
234	0xbbf7a272	-0.007557207
235	0xbc938d5e	-0.018011745
236	0xbba0f599	-0.00491209
237	0xbbeb8d32	-0.0071884627
238	0x3bedcab8	0.007256832
239	0xbce55c4c	-0.027998112
240	0xbbcd21b0	-0.0062601194
241	0x3ae3f276	0.0017390985
242	0x3cd85f13	0.026412522
243	0x3cb7c315	0.02243189
244	0xbd1d0bac	-0.03834121
245	0x3d06dcc1	0.03292537
246	0xbc1831eb	-0.009289245
247	0xbcdea32f	-0.027177421
248	0x3b05f3bb	0.0020439464
249	0xbc984ab2	-0.018590305
250	0xbc8503d0	-0.01623717
251	0xbc5091a6	-0.012730038
252	0x3c4ae68c	0.012384068
253	0xbca83cc4	-0.020536788
254	0xbc71dea2	-0.014762552
255	0xbb99ed77	-0.0046974975

network_body._body_endoder.seq_layers.2.weight f4 [256, 256]
0	0xbdb422eb	-0.087957226
1	0xbc8f97f1	-0.017528506
2	0xbce56f43	-0.028007155
3	0xbd4c717c	-0.049912915
4	0xbd30a533	-0.043126296
5	0xbca3e773	-0.020007825
6	0xbd95c785	-0.07313446
7	0xbd00f088	-0.03147939
8	0x3d93717f	0.07199382
9	0xbd055174	-0.032548383
10	0x3c32a156	0.010902723
11	0xbdeb1f07	-0.11480527
12	0xbda58f05	-0.080839194
13	0x3dabc9cc	0.08388099
14	0x3d02c9db	0.031930786
15	0xbd0366e1	-0.032080535
16	0xbd878780	-0.066176414
17	0xbc888f1e	-0.016669806
18	0x3ac830bb	0.0015273312
19	0xbc02aa0d	-0.007975114
20	0x3e141265	0.14460142
21	0xbd3e3506	-0.046437286
22	0xbcc8b6f3	-0.0245013
23	0xbc37379b	-0.011182691
24	0xbcc8981e	-0.024486598
25	0x3d61cbf9	0.055126164
26	0x3d8261f4	0.06366339
27	0xbdd77f36	-0.105223104
28	0x3cf7e011	0.03025821
29	0xbbaf5326	-0.0053504882
30	0xbd819fbf	-0.06329297
31	0xbd41b1ef	-0.04728883
32	0x3d8109bb	0.06300684
33	0xbd28d00a	-0.041214027
34	0xbd364784	-0.044501796
35	0xbd3b878b	-0.04578356
36	0x3d841b01	0.06450463
37	0xbd6d8194	-0.057984903
38	0x3d53f455	0.051746685
39	0xbdea4dd7	-0.11440628
40	0x3d3414b4	0.043965057
41	0x3da74376	0.08167164
42	0xbca68222	-0.020325724
43	0xbb79bfb3	-0.0038108646
44	0xbe2bf485	-0.16792496
45	0xbde46dc6	-0.1115375
46	0x3d5608e1	0.05225456
47	0xbd5ec96b	-0.054391306
48	0xbce75cb3	-0.028242445
49	0x3b835472	0.0040078694
50	0x3db42729	0.08796532
51	0xbd226a15	-0.03965195
52	0xbba630f7	-0.005071755
53	0x3d8c6580	0.06855297
54	0x3cfb6caa	0.030691464
55	0xbbd573d6	-0.006514053
56	0x3d9d5df8	0.07683939
57	0x3e088a17	0.13333927
58	0xbd8ad922	-0.06779696
59	0xbd1b6078	-0.037933797
60	0xbd24b699	-0.0402132
61	0xbd93a403	-0.07209017
62	0xbc67a9b1	-0.014139579
63	0xbb8cc8c9	-0.0042963964
64	0xbdf42596	-0.119212314
65	0xbd84866b	-0.06470951
66	0xbd22c4fc	-0.03973864
67	0x3d620658	0.05518183
68	0x3d06c63f	0.032903906
69	0x3de80f0a	0.113309935
70	0x3d399628	0.045309216
71	0xbd485c21	-0.048915986
72	0xbc19c13c	-0.00938445
73	0x3d3d4171	0.046204988
74	0xbb642a30	-0.0034815185
75	0x3a7118ed	0.00091971346
76	0xbd548669	-0.051885996
77	0x3dc3b84e	0.09556638
78	0x3d0a13cf	0.033710297
79	0xbcf53141	-0.029930713
80	0xbce032b7	-0.027367933
81	0xbe02eeb3	-0.12786369
82	0xbe2f48af	-0.1711757
83	0xbdcd1575	-0.10013858
84	0xbd62f691	-0.055410925
85	0x3c8296c2	0.015941028
86	0x3d5eeef8	0.054427117
87	0xbced6b3e	-0.028981801
88	0xbcccb2bc	-0.024987571
89	0x3d54b31d	0.05192863
90	0x3a6380bd	0.00086785463
91	0xbd2de759	-0.04245696
92	0x39767cc8	0.00023506873
93	0xbe04c839	-0.12967004
94	0xbd86f695	-0.065900005
95	0x3b0cf09f	0.0021505726
96	0xbd4257e9	-0.04744712
97	0xbdd18b5a	-0.10231657
98	0xbd8d1fe2	-0.06890847
99	0xbdafafda	-0.08578463
100	0xbd65a836	-0.05606862
101	0xbe0aa1fd	-0.13538356
102	0xbc06e9e2	-0.008234473
103	0xbd5e6926	-0.054299496
104	0x3d08e8e7	0.033425238
105	0xbc63e568	-0.013909675
106	0xbc7cca65	-0.015429114
107	0xbba8e8d3	-0.005154708
108	0xbdcb19c3	-0.09917023
109	0x3cafdbe3	0.021467155
110	0xbe0bde76	-0.13659081
111	0xbd6eab97	-0.05826911
112	0xbc6d7f19	-0.0144956345
113	0xbd840049	-0.06445367
114	0xbc80e473	-0.015733933
115	0x3d41c788	0.04730943
116	0xbd9e2836	-0.077225134
117	0xbd421b25	-0.04738917
118	0x3d354c33	0.044262122
119	0x3db1b48a	0.08677013
120	0x3d7d9a7c	0.061914906
121	0x3d628e3e	0.055311434
122	0x3bfd0438	0.00772145
123	0x3d5fa76a	0.054603018
124	0x3de5d1f7	0.11221688
125	0xbc03797e	-0.008024571
126	0xbd70d885	-0.05880024
127	0xbe0eceae	-0.1394603
128	0x3dbae9fb	0.091266595
129	0x3db0536c	0.086096615
130	0x3d5b0ccb	0.053478997
131	0x3d5ee712	0.054419585
132	0xbb34ee4d	-0.0027607859
133	0x3d19eb5d	0.037577976
134	0x3d24e288	0.0402551
135	0x3e6faaf6	0.2340506
136	0xbd127d0d	-0.03576379
137	0x3d80ec1d	0.06295035
138	0xbda8ff0f	-0.082517736
139	0x3c145819	0.009054207
140	0x3bdc9f50	0.0067328587
141	0x3d4c1142	0.049821146
142	0xbd099ff9	-0.033599827
143	0xbd98e073	-0.07464685
144	0xbd0aad9e	-0.03385698
145	0xbd3b0222	-0.04565633
146	0xbd2910e2	-0.041275866
147	0xbd8c1c51	-0.068413384
148	0xbd90008b	-0.070313536
149	0xbcb23f4c	-0.021758698
150	0x3d350ad0	0.044199765
151	0xbe2c9fed	-0.16857882
152	0xbd7211f2	-0.059099145
153	0x3d5b9c4b	0.05361585
154	0xbc87503b	-0.016517749
155	0xbb770e42	-0.0037697707
156	0x3d689839	0.056785796
157	0xbc1202f6	-0.008911839
158	0x3d37fcd6	0.044918858
159	0x3da71b69	0.08159525
160	0x3d6d54e4	0.057942286
161	0xbbf95fd4	-0.0076103006
162	0x3d74eaa0	0.05979407
163	0xbc958c4b	-0.018255373
164	0xbdf1d130	-0.118074775
165	0xbccb8a40	-0.024846196
166	0xbd2d5490	-0.042316973
167	0xbd7efb29	-0.062251244
168	0x3d871156	0.065951034
169	0x3d8e6b05	0.06954006
170	0xbca0c28b	-0.019624015
171	0xbcdce082	-0.026962522
172	0x3cb96398	0.022630498
173	0x3c292dde	0.010325877
174	0xbd77d17f	-0.060502525
175	0x3cc1a54d	0.023638392
176	0x3c40b219	0.011761212
177	0x3cae15aa	0.021250565
178	0x3ab75d06	0.0013989515
179	0x3d578769	0.05261937
180	0xbcda262f	-0.026629535
181	0x3db28f98	0.087187946
182	0x3db30a8e	0.087422475
183	0xbda77bf8	-0.08177942
184	0xbcf99281	-0.030465366
185	0xbd9fec3b	-0.07808729
186	0xbe13ee5d	-0.14446397
187	0xbd4237d8	-0.047416538
188	0xbcdd8288	-0.027039781
189	0xbd002c20	-0.03129208
190	0x3d93d094	0.072175175
191	0xbd2d2f0b	-0.04228119
192	0xbd251149	-0.040299688
193	0x3c92507d	0.017860645
194	0xbd2e1647	-0.042501714
195	0x3d3f3268	0.04667893
196	0x3df03618	0.117290676
197	0xbd78c3bc	-0.06073354
198	0x3d5c38d7	0.053765144
199	0x3b117488	0.0022194702
200	0x3d0427ae	0.032264404
201	0xbdb93979	-0.09044165
202	0x3cd11543	0.025522834
203	0xbe11a3a8	-0.14222586
204	0xbe0c038e	-0.13673231
205	0xbdbdc9a7	-0.09266978
206	0x3ceaddcb	0.028670212
207	0xbd075080	-0.033035755
208	0xbcd7e6f5	-0.026355246
209	0xba00fef2	-0.00049208023
210	0x3d531782	0.05153609
211	0xbd3abb60	-0.04558885
212	0xbb92ca58	-0.0044796877
213	0xbdbfe697	-0.093701534
214	0xbe44972f	-0.19198297
215	0xbda887b1	-0.08229006
216	0xbd0c7555	-0.034291584
217	0x3a80453e	0.0009786261
218	0x3d27b663	0.040945422
219	0x3cdd77b9	0.027034627
220	0x3d39f608	0.04540065
221	0xbd98f213	-0.07468047
222	0xbbe9c22a	-0.007133742
223	0x3c9bc7ba	0.019016135
224	0x3d0a4bfc	0.03376387
225	0xbe4339d1	-0.19065024
226	0xbcd47520	-0.025934756
227	0x3c7c28b5	0.015390565
228	0xbdbaafb4	-0.09115544
229	0x3d5c3811	0.053764407
230	0xbd4bed06	-0.04978659
231	0xbd73a587	-0.05948403
232	0x3d84029b	0.064458095
233	0xbda1ebf0	-0.0790633
234	0x3dfd0b18	0.123556316
235	0xbd0003b9	-0.03125355
236	0x3d667ce7	0.05627146
237	0x3dfe39a4	0.12413338
238	0x3c279fa5	0.010230933
239	0xbd147587	-0.036244895
240	0x3b4ee857	0.003157159
241	0xbaaef5e0	-0.0013348423
242	0x3dc3c574	0.095591456
243	0xbdded17b	-0.10879799
244	0x3d562832	0.052284427
245	0x3cb3237c	0.021867506
246	0x3c9dafbd	0.019248838
247	0xbd689034	-0.056778148
248	0xbdb2b428	-0.08725768
249	0x3ca8c935	0.020603755
250	0xbda45df8	-0.080257356
251	0xbdb579d1	-0.08861125
252	0x3de475e4	0.11155298
253	0xbd0de402	-0.034641273
254	0xbda7e70c	-0.081983656
255	0xbcfb123b	-0.030648341

network_body._body_endoder.seq_layers.4.bias f4 [256]
0	0xbcf252eb	-0.029580554
1	0xbc1d3404	-0.009594921
2	0xbc9e3da4	-0.019316502
3	0xbc9bdf08	-0.019027248
4	0xbc747cb1	-0.014922307
5	0xbcc1ae92	-0.023642812
6	0xbc45a95d	-0.012064305
7	0x3b7a5528	0.003819773
8	0xbc5a5ae8	-0.013327338
9	0xbca3fe29	-0.020018654
10	0xbbbac031	-0.0056991805
11	0x3a3f5f9e	0.000730032
12	0x3aaabcb0	0.0013026204
13	0xbc957dca	-0.018248457
14	0xbd236420	-0.03989041
15	0xbb960bf6	-0.0045790626
16	0xbcdaf465	-0.026727865
17	0xbcb73287	-0.02236296
18	0xbc21e9a4	-0.009882364
19	0x3c290efb	0.010318513
20	0xbcb9fd8c	-0.022703908
21	0xbc83d2ea	-0.016091783
22	0xbc77edbb	-0.015132363
23	0xbc21272e	-0.009836001
24	0xbbe5bc0f	-0.0070109437
25	0xbcdad16c	-0.026711188
26	0xbce86126	-0.028366636
27	0xbd12da9e	-0.03585302
28	0xb9c5e44e	-0.00037744868
29	0x3b579c38	0.003289951
30	0xbb8fa9e0	-0.0043842643
31	0xbbb40f1d	-0.0054949657
32	0xbc8f1531	-0.01746616
33	0xbc1e221f	-0.00965169
34	0xbd2cc281	-0.04217768
35	0xbd09b246	-0.03361728
36	0xbc5eb637	-0.013593248
37	0xbcd98eb0	-0.026557297
38	0xbcbb6006	-0.022872936
39	0xbccd96f4	-0.025096394
40	0xbd2091c3	-0.03920151
41	0xbc7cc6f6	-0.015428295
42	0xbb998b4f	-0.0046857963
43	0xbc9906f1	-0.018680068
44	0xbbdb9071	-0.0067005684
45	0xbc3868a4	-0.011255417
46	0xbd293271	-0.04130787
47	0x3c00657c	0.007836696
48	0xbbe7a6a2	-0.0070694247
49	0x3b946081	0.0045281057
50	0xbbb13b75	-0.005408699
51	0xbc1e0b4a	-0.009646246
52	0xbb6060a7	-0.0034237297
53	0xbb4e2da5	-0.0031460312
54	0xbcd24234	-0.025666334
55	0xba1b45e7	-0.0005923197
56	0xbab72a71	-0.001397444
57	0xbccd68b0	-0.025074333
58	0xbcaaf78c	-0.020869993
59	0xbb70c4d4	-0.0036738412
60	0xbd2dc0b2	-0.042420097
61	0xbcc20bee	-0.02368733
62	0xbcf38cdd	-0.029730255
63	0xbbb0c43b	-0.0053944862
64	0xbc9b6f63	-0.018974012
65	0x3b88f4a7	0.0041795555
66	0xbba524ab	-0.0050397716
67	0xbd00616d	-0.031342912
68	0xbc304d8e	-0.010760678
69	0xbc2d8453	-0.010590631
70	0x3c05f236	0.008175423
71	0xbc8f7ed9	-0.01751654
72	0xbce6cb59	-0.028173136
73	0xbc992e98	-0.018698975
74	0xbc7bd3f5	-0.015370359
75	0xbc848238	-0.016175374
76	0xbc9cee58	-0.01915662
77	0xbb49dd8a	-0.0030802214
78	0xbc5d967d	-0.013524649
79	0xbc34c1ef	-0.0110325655
80	0xbcaac480	-0.020845652
81	0xbbc56255	-0.006023685
82	0xbca951ec	-0.020668946
83	0xbcc3b7a1	-0.023891272
84	0x3cabfdf5	0.02099512
85	0xbc44f500	-0.012021303
86	0xbc12da17	-0.0089631295
87	0xba123626	-0.0005577527
88	0xbc5c6644	-0.013452116
89	0xbca36ef2	-0.019950364
90	0xbc477b46	-0.012175387
91	0xbcacb0d0	-0.021080405
92	0xbd0fe1a0	-0.035127282
93	0xbba5f183	-0.005064191
94	0xbc19167a	-0.009343738
95	0xbc1e0bff	-0.009646415
96	0xbd315cd9	-0.043301437
97	0xbd043cbb	-0.03228448
98	0xbc60af87	-0.013713724
99	0xbb128c89	-0.0022361598
100	0xba7875fb	-0.00094780297
101	0xbc71893d	-0.014742193
102	0x3c33a446	0.010964459
103	0xbca4b0e0	-0.020103872
104	0xbc355b74	-0.011069167
105	0xbc422745	-0.011850183
106	0xbbe5e5e1	-0.007015929
107	0xbc5c0b69	-0.013430455
108	0xbc01684b	-0.007898401
109	0xbcd07af4	-0.025449254
110	0xbd854544	-0.06507352
111	0x3b7f0184	0.0038910815
112	0xbcc46b2b	-0.023976883
113	0x3bf24468	0.0073934086
114	0xbbc72c75	-0.0060782977
115	0xbcafff35	-0.021483997
116	0xbcebcf14	-0.028785266
117	0xbc3bad12	-0.011454837
118	0xbcd5a77a	-0.026080836
119	0xbbe1d81f	-0.0068922187
120	0xbc89de1f	-0.016829548
121	0xbd4ad167	-0.049516108
122	0xbba15226	-0.004923123
123	0xbbe0faeb	-0.0068658493
124	0x3b39f085	0.002837212
125	0x3ca7fab6	0.02050529
126	0xbd0e0fc5	-0.034683008
127	0x3c0b8464	0.008515451
128	0xbba8d99b	-0.0051528937
129	0xbc51c9df	-0.0128044775
130	0xbb46d905	-0.0030341756
131	0xbca45f5d	-0.020065004
132	0xbc1cb2a0	-0.009564072
133	0xbbea2e0a	-0.0071466016
134	0xbbb48a17	-0.0055096257
135	0xbc13cd88	-0.00902117
136	0x3a871b5a	0.0010307834
137	0xbd031bbd	-0.032008875
138	0xbca6eef6	-0.020377617
139	0xbc85150a	-0.016245384
140	0xbcd5f626	-0.02611835
141	0xbcbe1519	-0.02320342
142	0xbd355f42	-0.044280298
143	0xbc2ed64d	-0.0106712105
144	0xbc85cc4d	-0.01633277
145	0xbcafb8c9	-0.021450417
146	0xbccdd343	-0.025125152
147	0xbc85368e	-0.016261365
148	0xbcc1c0a8	-0.023651436
149	0xbcdb9d18	-0.026808307
150	0xbcf4e8a4	-0.029896088
151	0xbcf5a0f9	-0.029983984
152	0x3bd0e917	0.0063754427
153	0xbbdd850e	-0.006760246
154	0xbd1e9487	-0.038715865
155	0xbcb450ee	-0.022011247
156	0xbd2ab06d	-0.04167216
157	0xbcc015fd	-0.023447985
158	0xbce4b890	-0.027920038
159	0xbbd46923	-0.00648226
160	0xbbae20da	-0.005313975
161	0x3d37f670	0.044912755
162	0xbb1d7e58	-0.0024031606
163	0xbc8dc7d4	-0.0173072
164	0xbc78e8a3	-0.015192184
165	0xbbe8b290	-0.0071013644
166	0x3b90cf7b	0.004419265
167	0x3c27175b	0.0101984395
168	0xbbc46a09	-0.0059940857
169	0xbc25bab8	-0.010115318
170	0xbc103a6b	-0.00880299
171	0x3c6f2949	0.0145972455
172	0xbce51a3d	-0.027966613
173	0xbc4c9f0b	-0.012489091
174	0xbbb2b208	-0.005453352
175	0xbd10c62e	-0.03534525
176	0xbc33d473	-0.010975945
177	0xbbcbca41	-0.006219179
178	0xbbc78460	-0.0060887784
179	0xbb8898ca	-0.0041686045
180	0xbc71dae3	-0.014761659
181	0x3abf1134	0.001457727
182	0xbb3b0b8d	-0.002854082
183	0xbc84bb79	-0.016202675
184	0x3ba29076	0.0049610687
185	0x3b60d8e0	0.0034308955
186	0xbb8852aa	-0.004160245
187	0x3c10ecca	0.008845517
188	0xba809440	-0.0009809807
189	0xbc9db5b4	-0.019251682
190	0xbcebf720	-0.028804362
191	0xbc1b94a9	-0.009495893
192	0x3bb91f69	0.0056494963
193	0xbca74ecf	-0.020423321
194	0xbbfcdef1	-0.0077170064
195	0xbd06f2ff	-0.032946583
196	0xbb9a40c3	-0.004707427
197	0x3bc4f0c6	0.0060101477
198	0x3a5a1084	0.0008318501
199	0xbc966c78	-0.018362269
200	0xbc9fec2d	-0.019521797
201	0xbbea91ea	-0.0071585076
202	0xbce0bb44	-0.027433045
203	0xbcee6335	-0.02910004
204	0xbd32e976	-0.043679677
205	0xbba054bb	-0.004892913
206	0x3b333ea2	0.0027350564
207	0x3b2b108a	0.0026102387
208	0xbb906984	-0.0044071097
209	0xbbe56a8f	-0.007001228
210	0xbc8365c3	-0.016039735
211	0xbc0403c6	-0.00805754
212	0xbc6d3f8b	-0.014480482
213	0xbc3ca9f0	-0.011515126
214	0xbcecc34e	-0.028901722
215	0xbcd8f5c2	-0.026484374
216	0xbcac96a6	-0.021067929
217	0xbd2230a2	-0.03959716
218	0x3aec71f2	0.001803933
219	0xbb67cd76	-0.0035370267
220	0x3a98fed7	0.0011672628
221	0x3c105991	0.008810417
222	0xbc81234a	-0.015763897
223	0xbc4a6245	-0.012352531
224	0xbcb0a787	-0.021564258
225	0xbca1adf6	-0.019736271
226	0xbcc86fa7	-0.024467302
227	0x3c530c0b	0.012881289
228	0xbc309909	-0.010778674
229	0xbbe87456	-0.0070939464
230	0xbd0832bc	-0.03325151
231	0xbcfc8e79	-0.030829655
232	0xbc8f2eeb	-0.017478427
233	0xbc913a84	-0.017728098
234	0xbc13b9f1	-0.0090165
235	0xbc550757	-0.013002238
236	0xbc6aa7eb	-0.014322261
237	0xbc562d34	-0.013072301
238	0xbcba6620	-0.022753775
239	0xbca1c4eb	-0.019747218
240	0xbc032d14	-0.008006353
241	0xbd148e59	-0.036268566
242	0xbbe82b03	-0.0070852055
243	0xbbcde8b1	-0.0062838425
244	0xbc6a8452	-0.014313774
245	0xbc0c0039	-0.008544975
246	0xbc5e1083	-0.013553741
247	0x3b8074cf	0.0039201747
248	0xbc085ba5	-0.008322631
249	0xbcacff87	-0.021117939
250	0xbc7784fb	-0.015107389
251	0xbc541d74	-0.012946475
252	0xbb89ef75	-0.0042094537
253	0xbb9873f8	-0.0046524964
254	0xbc74a140	-0.014931023
255	0xbc2c20eb	-0.010505895
