Assets/Training/results/Run 8/DroneBehavior/DroneBehavior-1371467.onnx (onnx, 697640 bytes, 21 tensors)

105 f4 [25]
000000 7e df 4e 3e 1c 1d 3a 3c 48 d8 5f 3a e8 2b 4f 3e
       0.20202443 0.011359479 0.00085390033 0.20231593
000010 d4 39 92 3d 8d b0 82 3e 48 d8 5f 3a 48 d8 5f 3a
       0.07139936 0.25525323 0.00085390033 0.00085390033
000020 b5 b0 82 3e dd d3 d3 3d 3c fd ce 3e 48 d8 5f 3a
       0.25525442 0.10343144 0.40427577 0.00085390033
000030 48 d8 5f 3a 4a fd ce 3e 70 28 04 3e cc 4e d8 3e
       0.00085390033 0.4042762 0.1290605 0.42247617
000040 dd 41 7a 3b 48 d8 5f 3a 00 50 d8 3e 07 5d 36 3e
       0.003818623 0.00085390033 0.42248535 0.17808925
000050 cc 4e d8 3e dd 41 7a 3b 48 d8 5f 3a 00 50 d8 3e
       0.42247617 0.003818623 0.00085390033 0.42248535
000060 07 5d 36 3e
       0.17808925

108 f4 [25]
000000 df 6c f6 3e f6 c6 1d 3e 48 d8 5f 3a ba 98 f9 3e
       0.48129937 0.15407929 0.00085390033 0.48749334
000010 d6 b2 70 3e f3 95 f7 3e bb 4c e8 3d 48 d8 5f 3a
       0.2350572 0.4835659 0.1134276 0.00085390033
000020 b9 3e f9 3e 03 25 79 3e cb 21 fa 3e b2 ef d6 3d
       0.48680666 0.24330525 0.48853907 0.10494937
000030 48 d8 5f 3a 79 4e fb 3e 60 9f 62 3e b1 da f9 3e
       0.00085390033 0.49083307 0.22131109 0.4879966
000040 ed 91 a0 3d 48 d8 5f 3a 33 8a fa 3e b4 63 78 3e
       0.07840333 0.00085390033 0.48933563 0.24256784
000050 96 d7 f0 3e c1 af 7b 3d 48 d8 5f 3a 5b 88 f1 3e
       0.4703948 0.06144691 0.00085390033 0.47174343
000060 f3 39 48 3e
       0.19553356

111 f4 [55]
000000 bb 07 5b 3d f5 65 30 3c 48 d8 5f 3a 39 67 5f 3d
       0.05347417 0.010766496 0.00085390033 0.0545418
000010 4f 3f dc 3c a1 54 46 3d 48 d8 5f 3a 48 d8 5f 3a
       0.026885657 0.048420552 0.00085390033 0.00085390033
000020 8d 5c 46 3d 6a 81 db 3c 91 5a 27 3e 48 d8 5f 3a
       0.048428107 0.026795108 0.16343142 0.00085390033
000030 48 d8 5f 3a 1e 5b 27 3e 06 2a 93 3d 3d d9 72 3d
       0.00085390033 0.16343352 0.0718575 0.059289206
000040 48 d8 5f 3a 48 d8 5f 3a 7e df 72 3d 99 85 0a 3d
       0.00085390033 0.00085390033 0.05929517 0.033818815
000050 4b 25 80 3e 48 d8 5f 3a 48 d8 5f 3a 75 25 80 3e
       0.25028452 0.00085390033 0.00085390033 0.25028577
000060 b5 9d 9c 3d 9e ec 9d 3d 48 d8 5f 3a 48 d8 5f 3a
       0.07647268 0.07711147 0.00085390033 0.00085390033
000070 0f ef 9d 3d 40 a4 30 3d 18 d7 4c 3e 48 d8 5f 3a
       0.077116124 0.04312539 0.20003927 0.00085390033
000080 48 d8 5f 3a 81 d7 4c 3e da 1a 6e 3d a4 8f 06 3e
       0.00085390033 0.20004083 0.058131076 0.13140732
000090 48 d8 5f 3a 48 d8 5f 3a 5b 90 06 3e 4c b7 95 3d
       0.00085390033 0.00085390033 0.13141005 0.07310352
0000a0 3c 08 ad 3e 48 d8 5f 3a 48 d8 5f 3a 5a 08 ad 3e
       0.33795345 0.00085390033 0.00085390033 0.33795434
0000b0 4a 5c 07 3e ac 0a 46 3e 48 d8 5f 3a 48 d8 5f 3a
       0.13218799 0.19340008 0.00085390033 0.00085390033
0000c0 23 0b 46 3e 94 9a cb 3d ac 0a 46 3e 48 d8 5f 3a
       0.19340186 0.09941593 0.19340008 0.00085390033
0000d0 48 d8 5f 3a 23 0b 46 3e 94 9a cb 3d
       0.00085390033 0.19340186 0.09941593

114 f4 [25]
000000 e8 6c f6 3e f6 c6 1d 3e 48 d8 5f 3a c0 98 f9 3e
       0.48129964 0.15407929 0.00085390033 0.48749352
000010 d9 b2 70 3e 46 54 f7 3e 3d 54 e6 3d 48 d8 5f 3a
       0.23505725 0.48306483 0.11246536 0.00085390033
000020 20 fd f8 3e a2 41 6f 3e 3d e0 f8 3e da ed d7 3d
       0.4863062 0.2336488 0.4860858 0.105434135
000030 48 d8 5f 3a 62 31 fa 3e 48 1c 69 3e aa 0e ef 3e
       0.00085390033 0.488658 0.22764695 0.46690875
000040 f9 d7 97 3d 48 d8 5f 3a 61 1f f0 3e 1a a8 5e 3e
       0.074142404 0.00085390033 0.4689894 0.21743813
000050 95 24 ef 3e 6b 41 80 3d 48 d8 5f 3a 3b e7 ef 3e
       0.46707597 0.062624775 0.00085390033 0.46856102
000060 32 35 51 3e
       0.20430449

117 f4 [25]
000000 1c 08 0b 3d 56 4b c4 3d 48 d8 5f 3a 70 06 d0 3d
       0.03394328 0.09584682 0.00085390033 0.10157478
000010 78 db 3c 3d b2 38 03 3d 38 01 c3 3d 48 d8 5f 3a
       0.04610774 0.03203649 0.09521717 0.00085390033
000020 3c 8e cd 3d 43 db 3d 3d bc 22 62 3d 38 01 c3 3d
       0.10036895 0.046351682 0.055208907 0.09521717
000030 48 d8 5f 3a 78 e4 e0 3d 1b 4a 48 3d 3a 57 d0 3d
       0.00085390033 0.10981077 0.048898797 0.10172887
000040 38 01 c3 3d 48 d8 5f 3a 1a fa 0d 3e 18 6f 99 3d
       0.09521717 0.00085390033 0.13864937 0.074918926
000050 3a 57 d0 3d 38 01 c3 3d 48 d8 5f 3a 1a fa 0d 3e
       0.10172887 0.09521717 0.00085390033 0.13864937
000060 18 6f 99 3d
       0.074918926

120 f4 [3]
000000 c2 3b 63 41 39 f7 66 3f 50 4d 76 41
       14.202089 0.9022098 15.393875

action_model._continuous_distribution.log_sigma f4 [1, 3]
000000 de 5d 2e 3d 83 92 34 bc e1 6c 10 3c
       0.042569987 -0.011021259 0.008815021

action_model._continuous_distribution.mu.bias f4 [3]
000000 ae e4 4c b9 b7 fe 9f 3c 9c ef 29 3c
       -0.00019540146 0.019530637 0.010372069

action_model._continuous_distribution.mu.weight f4 [3, 256]
000000 a0 47 a6 3b 0e ca c0 3b f5 6a 11 3b 08 36 2a 3c
       0.0050744563 0.005883462 0.0022188995 0.010388859
000010 6f cc 92 bb 60 12 a8 3b ab da 06 bc 71 da 33 bb
       -0.004479937 0.0051291436 -0.008230845 -0.0027443434
000020 32 da fa ba 88 2d 26 3c c3 92 9b 3c 96 66 18 3c
       -0.0019138514 0.010142691 0.01899088 0.009301802
000030 26 ef 59 3b 64 9c 58 bc 9b 2c 6f 3c 9f 0f 82 bc
       0.0033254116 -0.01322088 0.014598037 -0.01587659
000040 89 f9 22 3c bc b3 f9 3b 79 42 a1 bc c6 ad 0f 3c
       0.009947189 0.007620303 -0.019685017 0.008769458
000050 fd c7 0f bc a5 1d 72 ba a1 5a 9c 3b 40 05 8d 3b
       -0.008775708 -0.0009235985 0.004771546 0.0043036044
000060 f7 28 11 bd 2f 59 60 bb c3 f0 02 bc 9b b4 b1 bc
       -0.035439458 -0.0034232845 -0.007991972 -0.021692565
000070 6d 79 77 bc b9 cd 57 3c 21 ab 2f 3b 95 81 74 bc
       -0.015104634 0.013171607 0.0026804882 -0.014923473
000080 d0 66 95 3a 60 4b 11 bb 3b 05 ee 3b 66 a0 82 3b
       0.0011398438 -0.002217017 0.007263807 0.003986406
000090 04 70 66 bb 21 67 8a 3a 8a 80 49 3c 00 b5 3c bb
       -0.0035161981 0.0010559299 0.0122987125 -0.0028794408
0000a0 51 43 a4 3c 45 a5 11 bc 61 35 10 3d 40 16 91 3c
       0.02005163 -0.008889501 0.035207156 0.017710805
0000b0 90 a5 db 3b ac 3d 7a bb a1 5f 33 3c da 7e b4 3b
       0.006703086 -0.0038183732 0.010948093 0.005508286
0000c0 af 0a 22 bb 25 78 45 3c b8 d6 92 3c ea c6 87 3c
       -0.0024725606 0.0120525705 0.017924652 0.016574342
0000d0 b3 33 88 bc 4b 52 d0 3c 10 5a 1a 3c 59 69 d0 bc
       -0.016626215 0.025429865 0.009420887 -0.025440859
0000e0 dd 26 e4 3b d5 06 4d 3c 7a 0f 03 3c f7 3e c8 3b
       0.0069626407 0.012513836 0.007999295 0.0061110216
0000f0 6b 3a 0c 3c 8c 2d 37 bc 64 09 65 ba ac 84 13 3d
       0.00855885 -0.011180293 -0.0008737056 0.036015198
000100 14 e5 23 3c aa 33 53 3b 5f 10 1d ba e1 a3 95 3c
       0.010003347 0.003222684 -0.0005991514 0.01826662
000110 1a ed fb ba 83 28 6c 3b 11 a1 35 3c 21 c3 af bb
       -0.0019220442 0.003603489 0.0110857645 -0.0053638374
000120 72 cb 65 3c d3 4a 5d 3c 04 12 0c 3c c9 41 69 3c
       0.014025556 0.013506609 0.008549217 0.014236876
000130 23 8c 8c 3c 87 db 1b bc e3 2c da bb 04 b6 8f 3c
       0.017156666 -0.009512789 -0.006658183 0.017542847
000140 f2 d8 a7 3c 1c 57 e1 3b 22 44 e9 3b e3 e6 93 bc
       0.02048919 0.0068768393 0.007118718 -0.018054431
000150 d6 db 30 3b 5e da 98 bb fb b9 9c 3a be 06 92 bc
       0.0026986501 -0.0046647033 0.0011957282 -0.01782548
000160 37 84 2d bc eb f9 07 bb c9 24 30 bb 60 d7 50 3c
       -0.0105906045 -0.0020748328 -0.0026877394 0.012746662
000170 0e f9 ca bb aa 09 f2 bc af 49 21 3a 80 a7 cf 39
       -0.0061942404 -0.029545624 0.00061526423 0.00039606914
000180 6a 8f b8 ba 83 2c 62 3c dc 30 14 bb a2 f7 8c bc
       -0.0014080827 0.013804558 -0.002261213 -0.017207924
000190 ca c3 bb bc c3 9a 9d bc 7b ae 0d 3c 8a 3a 81 3c
       -0.022920508 -0.019238835 0.008647556 0.015774984
0001a0 b1 61 c6 bc 08 7e 22 bc e2 be 0d bc 80 a0 cd bc
       -0.024216505 -0.0099177435 -0.008651467 -0.025100946
0001b0 2a bb bb bc 38 b9 c8 bb f3 a2 47 3c b6 11 34 3c
       -0.022916395 -0.0061255954 0.012184846 0.010990551
0001c0 7b 31 34 3c 74 3c 56 bb 39 03 6d bc 7f 25 0b bc
       0.010998125 -0.0032689841 -0.0144661 -0.0084928265
0001d0 08 0f 3f 3b b1 06 8d bb 02 6e b0 bb 70 09 a9 bc
       0.0029153246 -0.004303776 -0.0053842077 -0.020634383
0001e0 27 3b 0f bc 11 d7 75 3c a1 7e 31 bb 3a 7a d7 bb
       -0.00874213 0.015004889 -0.0027083533 -0.00657585
0001f0 06 ed f8 bb 8a 0d 27 bc 16 17 18 bb 52 73 5b bc
       -0.007596615 -0.010196099 -0.002320712 -0.013394194
000200 32 05 e0 3b 42 e5 8e 3c 24 65 2c 3b 49 78 86 3b
       0.006836557 0.017443303 0.0026305402 0.0041036946
000210 82 0e ea bb 1e 23 7d bc cb 6a 32 bb f1 ca 57 3c
       -0.0071428427 -0.015450267 -0.0027224298 0.013170944
000220 21 70 16 3c 7f d6 25 bc 31 87 4d 3c a5 c4 5a bc
       0.009182007 -0.010121941 0.012544439 -0.013352548
000230 79 3a cd 3a ae 6f 45 3c f2 8b 20 3c fb 98 c5 3a
       0.0015657685 0.012050552 0.009798991 0.0015075499
000240 ff 12 e4 3b ec aa 6d bc 71 e1 a9 ba 54 34 d5 bb
       0.0069602723 -0.014506083 -0.0012960864 -0.006506482
000250 78 fd 4a bc cf ee ae bb 64 aa 38 3b 21 71 c0 3b
       -0.012389533 -0.005338527 0.0028177733 0.005872861
000260 36 69 88 bb e3 4d cd ba 73 8d 91 3b 97 69 ea bb
       -0.0041629327 -0.0015663471 0.004441911 -0.0071537006
000270 b3 59 d8 3b b8 82 28 3c f3 09 3a 3c 94 c6 03 3c
       0.00660249 0.010285072 0.011354911 0.00804295
000280 e8 d6 d5 3b 4e 51 35 bc f1 53 a5 bb 1b fd 4d 38
       0.006525863 -0.011066748 -0.005045407 4.911153e-05
000290 1e 2d 26 bb 4a a2 65 bc b5 3a 0f bc 7f 17 74 bc
       -0.0025356482 -0.0140157435 -0.008742024 -0.01489818
0002a0 61 fc 83 bc 05 52 1a 3c a6 12 82 bc 9f c4 d5 3b
       -0.016111555 0.009418969 -0.015878033 0.006523683
0002b0 c3 00 0e bc 4b a8 45 bc b6 89 2e bb f7 1e 9b 3b
       -0.008667174 -0.01206405 -0.0026632375 0.004733916
0002c0 8d 1d 65 3c 70 48 bd bc 68 41 4a 3c 80 5a 96 bc
       0.013984096 -0.02310583 0.012344696 -0.0183537
0002d0 20 10 35 bc 8f cf 3d 3c b7 a9 1b 3c dc 52 e4 ba
       -0.011051208 0.01158513 0.009500912 -0.0017419714
0002e0 b5 b5 c4 ba 98 52 06 bb bf b4 e2 bb 22 47 b2 3a
       -0.0015007766 -0.0020496007 -0.0069185193 0.0013601521
0002f0 fb d9 6f ba c4 59 8c 3b ab 48 f9 3b 33 5b 4b 3b
       -0.0009149608 0.004283162 0.0076075397 0.00310297
000300 41 81 04 3c b7 b6 19 3c 57 50 49 3b ba cd b3 3b
       0.008087457 0.0093819415 0.0030718052 0.005487171
000310 48 bc 75 bc 0f c6 62 bc b8 8e 76 bc 6d 17 73 bb
       -0.014998503 -0.013841166 -0.015048675 -0.003709282
000320 c6 75 70 3b d3 63 0b bc e6 d4 0d 3c d5 89 af 3b
       0.0036691292 -0.008507687 0.008656716 0.005357007
000330 22 21 e5 3b 19 ea ab 3a ed 76 9b 3c d6 0c 00 bc
       0.006992475 0.0013116031 0.018977607 -0.00781556
000340 0c 6f b6 bb 58 28 93 bc d2 e7 b3 3c 00 2f 6b ba
       -0.005567437 -0.017963573 0.021961126 -0.0008971542
000350 c4 f2 af 3c d9 db c7 bc e0 56 01 3c b9 5f e0 3b
       0.021478064 -0.024396824 0.007894248 0.0068473485
000360 41 a6 1b 3b 12 27 a8 3a 71 50 0f 3c 32 36 d8 3a
       0.0023750218 0.0012829027 0.008747206 0.0016495644
000370 e8 a6 30 3b cd 4f ab bb 25 25 71 bb ff 50 9f bc
       0.0026954953 -0.005228019 -0.0036795822 -0.019447802
000380 45 20 f1 bb 30 24 b5 b9 98 4e 24 3c 7b 84 73 bc
       -0.007358583 -0.00034549972 0.010028504 -0.014863129
000390 9a 05 39 bc 57 0f 2e bc 38 46 7f 3c 7c 5f 8a 3c
       -0.011292839 -0.0106237745 0.015580706 0.016891234
0003a0 e9 b5 8f 3c 7f d6 75 b8 48 02 7c bc e8 f3 d0 3c
       0.017542796 -5.8612317e-05 -0.015381403 0.025506929
0003b0 1c aa 79 3c a9 99 5f bb 23 a1 66 3c d1 09 07 3c
       0.015238311 -0.0034118688 0.014076504 0.0082420865
0003c0 c1 f7 ee bc 76 22 21 bc 9a dc b0 3b 4b b3 1a bc
       -0.029170873 -0.009834876 0.0053973915 -0.009442161
0003d0 64 dc d3 3a fd ce a7 ba 82 0d 3a bc bf b2 9f 3b
       0.0016163704 -0.0012802776 -0.01135576 0.004873603
0003e0 ca e1 d9 3b b2 1c 94 3b 5a ed e9 bb 51 f6 0a 3d
       0.0066492306 0.0045200223 -0.00713889 0.033926312
0003f0 11 0a f7 3b e5 9d 2d 3c d0 37 9e 3b ea a0 16 bb
       0.007539042 0.010596727 0.0048284307 -0.0022984096

network_body._body_endoder.seq_layers.0.bias f4 [256]
000000 83 24 a1 bc a6 14 f0 bc 80 03 fd bc ab 69 ad bc
       -0.01967073 -0.029306721 -0.030885458 -0.02116855
000010 4a de fa 3b ff 29 25 3c 71 d3 1b bc 24 3f d6 bc
       0.0076558935 0.010080813 -0.009510861 -0.026153155
000020 60 95 f4 bc 17 e2 0f bd 9d 53 bc bc b7 03 b6 bc
       -0.029856384 -0.035127725 -0.022989089 -0.022218568
000030 a2 b8 16 3a d8 b7 f8 bc d6 19 9b bb 61 47 c3 bc
       0.00057495583 -0.030361101 -0.0047333045 -0.023837747
000040 ae e5 37 bc 01 c0 6a 3a 37 b6 b4 bc 4e c1 11 bc
       -0.0112241935 0.00089550024 -0.022059543 -0.008896185
000050 31 8e fe bc ab 6b f8 3b e2 49 b6 bc d1 4b 87 3c
       -0.031073662 0.0075811944 -0.022252027 0.016515644
000060 08 4a 68 3b 05 ed 44 bc b2 5c ee 3b 6e 4d b9 3a
       0.0035444517 -0.0120194005 0.0072742337 0.0014137456
000070 01 2d d5 3c 39 cd 13 bd 9c 6b 27 bd f2 4f f0 bc
       0.026022436 -0.036084387 -0.04087411 -0.029334996
000080 77 66 05 bd e6 a8 a4 3c e5 0d 14 bd d0 dd 2e bd
       -0.03256842 0.020100068 -0.036146063 -0.042692006
000090 b8 cc 63 bc 43 f7 e3 bc f7 90 83 bc 44 6b 15 bd
       -0.013903789 -0.027827865 -0.016060336 -0.03647925
0000a0 b8 10 c4 bc eb 06 22 bd ee 03 d0 bc d7 65 db bc
       -0.023933753 -0.03955738 -0.025392499 -0.02678196
0000b0 1a 7b 71 3b a9 62 07 3c 19 48 c5 bb 4a f0 a2 bc
       0.0036847056 0.0082632685 -0.0060205576 -0.01988997
0000c0 3e d1 bc 3c 19 95 c3 bc 34 40 b9 bc d8 5d 9f bc
       0.023048993 -0.023874806 -0.022613622 -0.019453928
0000d0 0b b3 2d bc 70 f9 e1 bc ac e7 f0 bc 2c df 06 bb
       -0.010601769 -0.027584761 -0.029407345 -0.0020579798
0000e0 c8 d7 21 bd 75 80 c1 bb 91 d1 61 bc 90 a5 4a bc
       -0.039512426 -0.005905206 -0.013782875 -0.012368575
0000f0 7a 52 63 3c e4 79 b3 3b 41 f7 35 bd 85 0e 8d bc
       0.013874644 0.005477177 -0.044425253 -0.017218838
000100 ff c8 9b bc 7e 3c 88 3c 8e bd b8 bc eb 29 c4 bc
       -0.01901674 0.016630407 -0.022551324 -0.02394577
000110 8a 37 ab 3c db 3e d7 bc ba d9 b5 3b 39 a0 a2 bc
       0.020900507 -0.026275089 0.0055496367 -0.01985179
000120 3b a4 bd bc 8d 3c 5b bc c7 12 6a bc b8 80 49 bc
       -0.0231496 -0.013381136 -0.014286703 -0.012298755
000130 4c ef fe bc a3 8e 04 bd ac 09 d5 bc 91 0a 18 bd
       -0.031119965 -0.03236259 -0.026005588 -0.037119452
000140 a7 45 3e bc 52 f6 c1 bb c9 0b d5 bc 0f ec 23 bd
       -0.011613286 -0.0059192562 -0.026006596 -0.040020045
000150 d4 e4 21 3b 65 04 96 bc 71 f6 4a bc 9f b6 21 bc
       0.0024703043 -0.018312642 -0.012387858 -0.0098702
000160 11 1c 9c bc e5 52 80 bc df ee 3b bc c1 9e f9 bc
       -0.019056352 -0.015664527 -0.0114705255 -0.030471208
000170 51 1e cc 3b 8f c9 03 bc 9d eb ff bb 12 55 b2 bb
       0.0062292 -0.008043661 -0.0078100697 -0.00544227
000180 e5 22 17 bd 6e 4a 1b bd b4 3e dd bc 86 c5 15 bc
       -0.036898512 -0.03791278 -0.027007438 -0.009141332
000190 b2 07 24 bc 2e bb 10 3a 28 f7 9d bb 8a 66 34 bc
       -0.0100116 0.0005521056 -0.004820723 -0.011010775
0001a0 8c e4 e5 bc cb 66 ba bc e6 0c 89 bc 3f a6 86 bc
       -0.028063081 -0.022754094 -0.016729783 -0.016436694
0001b0 84 8e 63 3c 6e 3a f3 bb 81 9f 47 bd fd 1c f8 3b
       0.013888959 -0.007422737 -0.0487361 0.007571815
0001c0 6e 03 ad bc 96 02 86 b9 0c c3 f3 bb 4b 61 85 ba
       -0.0211198 -0.00025560398 -0.007439023 -0.001017609
0001d0 0a 7b ba bc f1 2a f7 bc 5e f2 61 bc 96 54 cc bc
       -0.022763748 -0.030171843 -0.013790695 -0.024942677
0001e0 f1 6c 85 bc c0 e2 82 bd ae 4f 17 3c 72 34 33 ba
       -0.016287299 -0.063909054 0.009235306 -0.0006836123
0001f0 76 f9 95 bb 90 6f 07 bd 77 ae 8e bc 28 f0 a0 3c
       -0.004576857 -0.03306538 -0.017417176 0.019645765
000200 24 14 19 bd 8e 0b 72 3a c0 1b 43 b6 44 6c 82 bc
       -0.037372723 0.0009233289 -2.9073417e-06 -0.015920766
000210 57 e8 f8 bb 82 24 3b bd 79 6a c2 ba ac c1 3e bd
       -0.0075960564 -0.045689113 -0.0014832757 -0.04657142
000220 d0 9d 8a bc 7b e4 10 bd 97 8e 08 bd dd 0c d1 bc
       -0.016920954 -0.035374146 -0.03333911 -0.025518829
000230 db c1 46 3c db d2 0a bc 99 19 64 bc f1 18 0b bc
       0.01213118 -0.008473123 -0.013922119 -0.008489833
000240 7f 36 8c 3b a8 ae fe bb 73 b8 1e bd cf 99 b9 bc
       0.0042789574 -0.0077722855 -0.038750123 -0.02265635
000250 2e 76 b4 3b c8 78 06 3c 24 1f 1f bd e2 f1 0d 3c
       0.005507252 0.008207507 -0.038848057 0.008663626
000260 12 76 98 bd 77 04 63 3c 59 8e e0 bc 1c ae 6d bc
       -0.07444395 0.013856045 -0.027411627 -0.014506843
000270 0c 04 22 bd a1 3c 86 3b 96 8c 06 bc 39 ca 19 bc
       -0.03955464 0.004096583 -0.008212229 -0.009386593
000280 6b 8e d8 3b 6e 3d 39 bc 77 49 b2 bc 1d 6a ef bb
       0.0066087744 -0.01130615 -0.021763546 -0.007306351
000290 e2 e3 3d bc 9c 12 5e 3c ea c4 ad bc c9 52 a5 3b
       -0.011589976 0.0135542415 -0.02121206 0.005045269
0002a0 b2 44 c8 bb b2 08 10 bd 3a 67 75 bc 54 13 bb bc
       -0.0061117047 -0.035164542 -0.014978224 -0.022836365
0002b0 b8 36 03 bd 32 5e 1c bd 61 ab 8b 39 25 43 2a bd
       -0.032034606 -0.03817577 0.00026639833 -0.04156794
0002c0 03 e8 bb bc 3f a7 15 bd 6d bc 3d bc a6 e3 94 3b
       -0.02293778 -0.03653645 -0.011580569 0.0045437394
0002d0 93 00 18 bd 92 2a b6 bc 30 de 86 bc 93 92 96 bb
       -0.037109923 -0.022237096 -0.01646337 -0.0045951097
0002e0 88 72 6b bc 8c f6 8e bc d8 e9 d1 3b fb 73 04 3c
       -0.014370568 -0.017451547 0.00640605 0.0080842925
0002f0 07 fe 79 bc af 3f 34 bc d1 19 b3 3c f9 7e 85 3b
       -0.015258319 -0.0110015115 0.021862896 0.004073974
000300 cd 3b 99 bb 42 d0 ed bc a2 cb 59 3c 71 1f 51 bd
       -0.0046763183 -0.02902997 0.013293179 -0.051055375
000310 90 3f 93 3b 3f 28 c6 bc 17 9a c0 bc cb ef 20 3c
       0.004493661 -0.024189113 -0.023510976 0.009822796
000320 14 95 9c bc f4 5f 37 bd 33 33 00 3d 5f 6a ea bc
       -0.019114055 -0.044769242 0.031298827 -0.028615175
000330 28 cd b7 3c 26 84 a0 bb ae b8 07 3b 50 ed c3 3b
       0.022436693 -0.004898566 0.0020709443 0.0059792176
000340 2c 79 91 bc 42 35 af bc bb a3 a1 bc b1 c5 d1 bc
       -0.017757975 -0.0213877 -0.019731393 -0.025606962
000350 65 eb 10 bd 3a f7 04 bd 7d 80 b1 bc 98 90 92 bc
       -0.03538074 -0.032462336 -0.021667713 -0.017891213
000360 2b ea 25 bd e8 9b 1a bd b6 19 9b bc 3b 3f 0b 3b
       -0.040506523 -0.03774634 -0.018933158 0.0021247405
000370 e0 f9 ca bc e7 d8 b9 bb 0c 9b 3a bd bb 7e 30 bc
       -0.024777353 -0.0056716087 -0.04555802 -0.010772402
000380 3e 8b ce bb 4a 58 e5 bc a5 92 2c bc 37 8d e7 bc
       -0.00630322 -0.027996201 -0.01053301 -0.028265579
000390 36 a7 a8 bc ed e9 0d 3b 81 94 00 bc c0 14 74 3c
       -0.020587545 0.0021654323 -0.007847906 0.014897525
0003a0 28 52 84 bc 48 e1 59 3b c4 6e d0 bc 08 f8 e1 3b
       -0.016152456 0.003324585 -0.025443442 0.0068960227
0003b0 56 ec 41 bd 4b e7 cf bc a9 ba 32 bd 46 16 47 bc
       -0.04734453 -0.025378844 -0.043635044 -0.0121513065
0003c0 b2 46 2b bc 88 fb 3c bd 74 22 03 3d f5 e6 a6 bc
       -0.010453867 -0.046138316 0.03201528 -0.0203738
0003d0 19 9f 37 ba 05 a4 02 3b 9c 83 e7 bc 44 4b 62 bb
       -0.00070046034 0.001993419 -0.028260998 -0.0034529725
0003e0 85 0b d4 bb 5f 74 ad bc d0 c9 c5 3b f5 3e 39 3c
       -0.0064711 -0.021173654 0.006036021 0.011306514
0003f0 30 ee ce 39 4d 58 e2 bc 9f e1 cc bc 86 2f c0 bc
       0.00039468845 -0.027629996 -0.025009928 -0.023460161

network_body._body_endoder.seq_layers.0.weight f4 [256, 158]
000000 3c 49 c9 bd 43 a1 0b 3e 47 0b a6 3d 41 4c 4d 3d
       -0.098284215 0.13635735 0.0810762 0.05012155
000010 af 40 d4 bc 73 83 0e bc 96 80 c7 3d fc 4a 40 bd
       -0.02590975 -0.008698332 0.09741323 -0.04694651
000020 b6 93 29 bc 04 d7 93 bd 9b 0a 84 3d ca aa bb 3d
       -0.010350158 -0.07218745 0.06447335 0.09163435
000030 f7 78 35 3d 53 6e df bd 25 56 6c bd d0 52 a6 bd
       0.044304814 -0.109097145 -0.05769934 -0.08121264
000040 ec 0a 3f bd 6f d4 98 bc 81 3a 76 3d 5c c3 db bd
       -0.046641275 -0.018655984 0.060114387 -0.10730621
000050 42 4a ef 3d 48 bf d0 bb 67 d7 37 3d 39 47 1b be
       0.116840854 -0.0063704588 0.044883158 -0.15163888
000060 4a e4 d5 bd 2e 70 13 bd 01 8d da 3b ff d2 07 3d
       -0.10443933 -0.035995655 0.006669641 0.033160206
000070 29 f1 bc bd 5c 8f a7 3b 81 e1 2f 3d 1f 60 3b bd
       -0.09225685 0.0051135253 0.042939667 -0.045745965
000080 f8 bd 13 bd 28 98 28 be bc de 3a 3d 39 b8 d6 bd
       -0.03606984 -0.16464293 0.045622572 -0.104843564
000090 74 ac 2b 3c 0d 0b ca bd 08 ad 1b 3d 15 31 74 3d
       0.010478128 -0.09865389 0.038006812 0.05961712
0000a0 97 c8 23 bd 8b a6 35 bd ba f6 25 bb 93 d0 43 3d
       -0.03998622 -0.04434828 -0.0025324062 0.047806334
0000b0 89 18 b6 bc 65 ab f4 3c 76 9a 03 3d 1c 2e 37 be
       -0.022228496 0.029866884 0.032129727 -0.17888683
0000c0 98 cf 0a be 8d 98 97 bd d2 a8 a2 3d 9c f8 a1 bd
       -0.13555753 -0.074021436 0.07942356 -0.079087466
0000d0 f5 1f 2b 3b d2 69 4f bd f4 ad 90 3d fd dd a3 bd
       0.0026111577 -0.050638027 0.07064429 -0.08001325
0000e0 87 56 1e bd 83 6a c3 bd 6e d4 a4 bc 70 5a 40 be
       -0.038656738 -0.095418 -0.020120826 -0.18784499
0000f0 18 5b 41 3d dc 46 c4 3c 6f aa f7 bc 7f 4f f6 bd
       0.047206014 0.02395957 -0.030232636 -0.120268814
000100 09 0e ce 3d 4d bd 87 3c c6 f5 b4 bd 2a d1 a1 bb
       0.10061271 0.016569758 -0.0883594 -0.0049382644
000110 a0 a8 36 3c 73 ca 94 3d 74 72 72 bd f7 33 08 3e
       0.011148602 0.072651766 -0.059191182 0.13301073
000120 86 0b 48 3e b3 95 a3 3d 18 08 9b 3c e5 3a 0e 3e
       0.19535646 0.07987537 0.018924758 0.13889654
000130 b9 d1 58 3b e4 fd 31 3e 8f e6 68 bd 19 5b f6 bd
       0.0033083989 0.17382008 -0.056860503 -0.12029094
000140 eb b6 00 3d 10 d6 53 3d dc 3d 77 3d 7e 3a 95 bd
       0.031424444 0.051717818 0.060361728 -0.07286547
000150 04 36 74 bd 7a 69 b0 bd 8a 4b 0e 3e 7c 92 9c bd
       -0.059621826 -0.08613868 0.13896003 -0.07645127
000160 2e da da 3b 30 93 b1 3d 67 11 f1 bd 93 d3 df 3d
       0.006678841 0.08670652 -0.11770897 0.109290265
000170 e5 45 84 3d c8 77 00 be 1e 7e ad 3d 96 72 a3 bd
       0.06458644 -0.12545693 0.084713206 -0.0798084
000180 3d 98 33 3e a0 03 73 3d 00 4d 84 bd 4a 53 04 be
       0.17538543 0.05932963 -0.06459999 -0.12922397
000190 f1 36 ed bd b5 7d dd bd 35 50 e4 bc 31 fc d5 bc
       -0.11582745 -0.10814992 -0.027870277 -0.02612123
0001a0 a5 33 f7 3c a0 65 7c 3a b7 47 22 be 68 f0 b3 3d
       0.030175993 0.00096281804 -0.1584767 0.08786088
0001b0 18 1e 6d 3a 9c 43 a4 3c e6 c4 d2 3c b0 c2 c0 3d
       0.0009045317 0.02005177 0.025728654 0.09412134
0001c0 39 c6 20 3e d0 41 45 b7 31 32 08 3e ef 49 89 bd
       0.15700616 -1.1757438e-05 0.13300397 -0.06703555
0001d0 e1 36 c7 3c 39 27 c4 bd 1d cf d4 3b 5e 23 81 bd
       0.02431816 -0.09577794 0.0064944164 -0.06305574
0001e0 2f 09 ef bc 6f ff 28 be 47 de d2 bd 5e cc 94 bd
       -0.029179184 -0.1650369 -0.10296302 -0.072655424
0001f0 81 7a 20 bd 1f c2 c4 bd c2 b6 f2 3c fa 62 55 3c
       -0.03917933 -0.09607338 0.029628161 0.013024086
000200 19 6c d7 bc dd 54 cc 3d f5 35 e7 3d f3 65 a0 bc
       -0.026296662 0.09977124 0.11289588 -0.019579863
000210 2d 72 7b bd 52 32 f7 3d b1 30 a8 3d 7e ac 05 be
       -0.061388183 0.12070145 0.08212412 -0.13054082
000220 9b 19 a4 bd b8 27 98 3d d9 f9 f0 ba 60 68 88 bd
       -0.08012696 0.07429451 -0.0018385007 -0.06660533
000230 f6 dd 24 3e f8 5f ab 3c 4b 75 79 3d b3 51 77 bd
       0.16100296 0.020919785 0.060902875 -0.06038065
000240 0b 4f 85 bd 2b a2 43 bd 65 9a fd 3d 2c 0d b3 bd
       -0.06509217 -0.047762077 0.12382964 -0.08742747
000250 4f fb 53 3d 0e 4e 80 3d 5c b6 81 bd 53 c5 ff 3c
       0.05175334 0.06264888 -0.063336104 0.031222021
000260 00 88 04 bc ba 52 2d bd bc 42 54 3d b6 3a 96 bd
       -0.008089066 -0.042315222 0.051821455 -0.07335417
000270 b3 7f 73 3c a3 b9 fe bd 19 3f 3e 3d 33 e9 1b bd
       0.014861989 -0.12437751 0.046446893 -0.038064193
000280 b7 1f 3d 3d 09 e5 49 bc 20 a1 14 3c b9 5e 97 3c
       0.046172824 -0.012322673 0.009071618 0.018477784
000290 cf 0a 83 3d 4f 48 15 3c 11 47 84 3d 0c 22 b8 3c
       0.06398546 0.009111478 0.06458867 0.022477172
0002a0 1c 1c 06 be 49 04 4e bd 2f 41 8c 3c 61 22 2f bd
       -0.1309666 -0.050297055 0.017120926 -0.042757396
0002b0 cf 57 1a 3e d7 5f f9 3d 89 48 61 3d 88 76 ba bd
       0.15072559 0.12176483 0.055000816 -0.09104639
0002c0 df 3c 13 be 5c d3 a5 3d 09 55 c8 bd 56 f6 e2 3d
       -0.14378689 0.08096954 -0.09781844 0.11082141
0002d0 11 3f bc bd 62 f8 eb 3d 52 ee ce 3d cc 47 66 3d
       -0.091917165 0.11521985 0.1010405 0.056220815
0002e0 a0 0b 40 3d 81 8d ae bc f7 9a 47 3d 10 9e 3a 3d
       0.046886086 -0.021307709 0.04873177 0.045560896
0002f0 cd 56 9f 3c da ae a7 3d 9a bc 62 bc 37 95 0f 3e
       0.01945057 0.08187647 -0.013838911 0.14021765
000300 03 44 ca bb f5 ad b7 3c eb 50 64 bd 11 be 0a bd
       -0.0061726584 0.022421816 -0.055741232 -0.033872668
000310 12 1b a0 3c ac 73 b4 3d 8d 0f b7 3d 6b e3 af bd
       0.019544158 0.08811125 0.08938513 -0.085882984
000320 82 49 fc 3c 47 25 a8 bc 72 b7 9a bb 65 cc c7 bd
       0.03079677 -0.020525588 -0.0047215754 -0.09755782
000330 d5 a1 c7 3d 2f 52 50 bd c3 55 09 be e0 4a e6 bd
       0.09747664 -0.050859626 -0.13411622 -0.1124475
000340 82 4a 9a bd d9 3d 2f bd 20 e1 16 bd 22 9d f8 bd
       -0.075337425 -0.042783592 -0.03683579 -0.12139346
000350 6d b8 22 be 08 10 e7 3c c8 11 6a bc 84 06 31 3e
       -0.15890665 0.028205886 -0.014286466 0.17287642
000360 00 ab a2 3d 53 db 80 3d f0 4d ab bc ba c2 03 bd
       0.07942772 0.06291833 -0.020911187 -0.032168128
000370 14 67 80 bd 85 e7 2d be 60 4e 9f 3c 84 1c 45 bd
       -0.062696606 -0.16982849 0.019446552 -0.048122898
000380 82 15 0f 3d 75 26 06 be 32 9b 73 bb 24 a8 ae 3c
       0.03493262 -0.13100608 -0.003717136 0.02132041
000390 8c 50 d2 bd c0 46 89 3d 58 7f 27 be 06 b0 4a be
       -0.10269269 0.067029476 -0.16357172 -0.1979371
0003a0 b4 70 52 3d e0 f4 52 bd fc 9d 0d 3b 01 27 fc bc
       0.051377013 -0.051503062 0.0021609059 -0.030780317
0003b0 85 40 44 bd ba cd f3 ba 14 0e 45 3d 2d cd 49 bd
       -0.047913093 -0.001860074 0.04810913 -0.049267936
0003c0 d9 86 77 bd a0 b8 27 3c 42 71 99 3d 2f 30 ec bc
       -0.060431335 0.010236889 0.07492305 -0.02883157
0003d0 0c 44 15 3e 6d 9a c8 bd 20 31 e4 3d 92 1e 71 3d
       0.14576739 -0.097950794 0.11142182 0.058867045
0003e0 86 74 2d be 1f 4f 38 bd 11 d6 0d 3d e9 80 00 be
       -0.16938981 -0.04499733 0.034627978 -0.12549175
0003f0 dd 52 90 3d 85 76 32 3c a1 3e f1 3b 70 cd 8a bd
       0.07047055 0.010892515 0.0073622023 -0.06777465

network_body._body_endoder.seq_layers.2.bias f4 [256]
000000 f1 b8 74 bc a6 69 15 3a 7c f2 21 bd 5c c5 c4 bc
       -0.014936672 0.0005699642 -0.03953789 -0.02401989
000010 eb a9 df bb fe 1d 16 bc a9 45 d7 bb 82 e1 97 bb
       -0.0068256757 -0.009162424 -0.0065695834 -0.004635037
000020 ef 3f 03 bc e3 2f b2 ba a2 db 5e bc 59 d3 b3 bc
       -0.008010848 -0.0013594594 -0.013602169 -0.021951364
000030 a0 2f 72 3b d3 08 bf bb e8 f9 27 bd 8d c3 df bc
       0.0036954656 -0.0058299094 -0.041009814 -0.027314926
000040 5b 3f ca bc f4 26 5a 3c 41 c7 d2 bc c5 df 77 bb
       -0.024688413 0.013314951 -0.025729777 -0.0037822586
000050 b0 a6 07 bc 34 a3 c8 ba 89 79 ba bc f5 04 c8 bc
       -0.0082794875 -0.0015307427 -0.02276303 -0.024416426
000060 6d c6 a0 bc 3d 01 ed 3b eb f9 72 ba 77 fd 31 bc
       -0.019625867 0.0072328136 -0.0009268808 -0.010863653
000070 6d 23 de bc c3 50 87 bc d3 5d 5a bc 22 fe 5e bb
       -0.027116502 -0.016518002 -0.0133280335 -0.0034025987
000080 bd 68 54 bc 80 9b e5 bc 3b a8 08 3c 94 30 06 bc
       -0.012964425 -0.02802825 0.0083408905 -0.008190293
000090 83 1a f5 bb 07 0d f9 38 2d 5a 53 3b 19 d8 6f bb
       -0.007479967 0.00011875672 0.0032249794 -0.003659731
0000a0 32 20 3e 3b b0 c0 ad b9 e8 42 10 bc 8d 5e 22 b9
       0.002901089 -0.00033140695 -0.008805014 -0.00015484747
0000b0 80 51 f2 bb 28 45 5b ba b1 2e 57 bc 8e 09 bd 3a
       -0.0073949695 -0.0008364492 -0.013133691 0.0014422403
0000c0 c8 18 90 bc 65 db 25 bd 3b 2c bf bb 22 21 1a bd
       -0.017589942 -0.040492434 -0.00583413 -0.037629254
0000d0 6e 6a 96 bb 00 50 8e 3a ac e1 b0 bc 2c 0e d4 bb
       -0.004590324 0.0010857582 -0.021591984 -0.006471416
0000e0 49 4d 6f bc 26 e0 03 bc f1 f8 2a bc 3e a5 98 3b
       -0.014605829 -0.008049047 -0.010435329 0.0046583703
0000f0 6c fd 0f 3c eb a4 69 bb 17 90 67 bc 07 31 93 3b
       0.008788448 -0.0035651277 -0.014133475 0.0044919285
000100 b5 d1 27 bc ef 04 2e bd ec 91 36 3a e9 24 32 bc
       -0.010242869 -0.042485174 0.0006964493 -0.010873058
000110 c1 8b a8 b9 6a 7f bd bc 5f 34 e6 bc 5b 45 84 bc
       -0.00032147582 -0.023132045 -0.028101144 -0.016146353
000120 ff 2e 7b bc 2d 57 95 bc e0 ac a3 bc 79 dd ef 3b
       -0.015331029 -0.018230045 -0.019979894 0.007320103
000130 12 08 03 bd 7a 78 c2 bc e1 f1 5a bb 12 2c 01 3c
       -0.03199012 -0.023739088 -0.0033408331 0.007884042
000140 31 f5 31 bc 4d 2f 17 bc 1b 2f c8 bc 01 e2 cd 3b
       -0.010861681 -0.009227586 -0.024436524 0.0062830453
000150 bb 1f 82 bb f3 27 07 bc 37 9b 7f bc e4 ff 1d bc
       -0.0039710677 -0.008249271 -0.015600971 -0.009643529
000160 00 d0 0e bc 2e 54 c5 bc 1b 88 b9 bb a6 90 a1 3b
       -0.008716583 -0.024087992 -0.005661977 0.0049305735
000170 59 9d 6c bc 47 a9 23 bc 89 fa ac ba ea 0a 89 bc
       -0.0144418115 -0.009989089 -0.0013197224 -0.016728837
000180 ca b5 50 bc 77 b6 0b bc 13 65 ee bc 03 f2 a6 bb
       -0.012738654 -0.00852739 -0.02910093 -0.005094768
000190 fd 37 cc bb 9a 3c 9a 3b 9e 82 34 bc 62 66 99 bc
       -0.0062322603 0.0047069313 -0.01101747 -0.018725578
0001a0 be 77 4b bc 11 78 4e bc a1 1d ce bc 7e 7a ff bc
       -0.0124186855 -0.012601868 -0.025160613 -0.031186339
0001b0 0c 57 05 bb 81 6f 15 bd 88 d8 9d 3b 43 d6 ca bc
       -0.0020346073 -0.03648329 0.0048170723 -0.024760371
0001c0 25 ce f5 bc 8c 15 8d b8 d1 e4 b1 bb 80 20 bb bc
       -0.030005524 -6.727417e-05 -0.0054288884 -0.022842646
0001d0 e2 dd a5 bc 1c ef a6 3b 61 bf f0 3a 81 5d 1b bc
       -0.020247404 0.005094422 0.0018367582 -0.009482742
0001e0 a3 4d 16 3c c8 31 55 bc 35 91 40 bc 30 5d 8a ba
       0.0091737835 -0.013012357 -0.01175337 -0.0010556336
0001f0 e1 e5 1a bb eb 16 3f bb 36 b1 87 bc 88 f5 7b 3b
       -0.0023635554 -0.0029157947 -0.016563993 0.0038445909
000200 7d bc 48 bc de 15 39 bc fc e9 9a ba ed 5c 0f bd
       -0.01225197 -0.011296717 -0.0011819 -0.03500073
000210 98 da 2d bb 03 d1 8d bb be 8f ae bc a4 40 24 bd
       -0.0026527997 -0.0043278947 -0.021308776 -0.04010071
000220 a4 64 50 bc 37 71 a4 bc b9 01 df b8 48 02 81 bc
       -0.012719307 -0.020073516 -0.000106337895 -0.015748158
000230 4f 01 ae bb c0 be 81 bc 66 68 4d bc a7 db 00 bc
       -0.0053102146 -0.015838027 -0.012537098 -0.007864869
000240 e1 73 0b bd 01 7e 9f bb e4 f5 e0 bc e0 0c 2c bc
       -0.034046058 -0.0048673158 -0.027461 -0.0105011165
000250 1c 54 e5 bc e9 f9 16 bc 57 7b 54 3c ec 29 89 ba
       -0.027994208 -0.009214857 0.01296886 -0.0010464764
000260 65 d4 b5 bb 30 92 65 bb 4b c4 8f bc 65 15 1d 3c
       -0.005549001 -0.0035029761 -0.017549654 0.00958762
000270 d7 5c 05 bd 48 db d0 bc 8b 9a 0d 39 cf 6c 5b bc
       -0.032559242 -0.025495186 0.0001350438 -0.013392641
000280 1c fc f4 3a f6 d6 71 ba 19 fa 5a bc 96 f4 74 bb
       0.0018690857 -0.0009225452 -0.013365292 -0.003737723
000290 0c 01 2b bb 10 35 8a b8 48 ca de bc 80 fe b7 bb
       -0.0026093153 -6.5902364e-05 -0.027196065 -0.0056150556
0002a0 5f 4f d5 bc 12 8c 5c bc 56 eb 65 3b ae 22 dc bb
       -0.026038824 -0.01346113 0.0035082898 -0.0067180013
0002b0 2f 60 73 3c 09 9d 84 bc e6 e6 0a bd df 45 d8 bc
       0.014854475 -0.016188161 -0.03391161 -0.026400505
0002c0 aa 94 0c 3c 1b ef d0 bc d7 0a 9b bc 1e ce 3d bc
       0.008580366 -0.02550464 -0.018926067 -0.011584787
0002d0 0d 07 b5 bc 29 05 53 bc 76 9a 83 bc dd b7 e4 bc
       -0.022098089 -0.012879648 -0.016064864 -0.027919704
0002e0 7c 09 0c bd 2e 09 a3 bb ad 47 92 bc ea 7c 88 3c
       -0.034188733 -0.0049754595 -0.017856443 0.016661126
0002f0 0a de 82 bc 00 a8 d6 3b 87 39 b8 bb e5 e7 27 bc
       -0.015975017 0.006550789 -0.005622092 -0.010248159
000300 dc 0e 3b bd 38 21 0e bd e1 6a 8e bc ff 19 2b bd
       -0.045668468 -0.03469965 -0.017384948 -0.04177284
000310 4e a8 f8 bc c1 3e a2 3a 07 fb de bc 3a 0b 1b bc
       -0.030353691 0.0012378321 -0.027219309 -0.009463126
000320 8f be 07 3c 2e 2e a0 bb 4a 07 04 3c 78 8c 85 bc
       0.008285179 -0.0048883175 0.0080583785 -0.016302332
000330 6c bc 8e bc db 8f 8f bc 78 2b cd 3b b9 0d 87 bb
       -0.01742383 -0.01752465 0.0062612854 -0.004121509
000340 0c e4 96 bc 17 58 02 3c 94 c7 25 3a 7a ef d5 bc
       -0.018419288 0.007955573 0.000632399 -0.026115168
000350 04 e1 b5 bc f2 49 04 bb 62 83 74 bc 8c 9a 81 bc
       -0.022202022 -0.0020185676 -0.014923902 -0.015820764
000360 c6 1f 6f bb e1 0f c9 3b f4 e5 07 bd 44 21 13 bd
       -0.0036487444 0.006135926 -0.033178285 -0.035920396
000370 b4 69 77 bc 29 23 05 ba 0e 60 8b bc c4 72 b7 bc
       -0.015100885 -0.00050787866 -0.017013576 -0.022393592
000380 72 0d 16 bc eb 3a 90 3a b4 d4 22 bc b8 62 ea ba
       -0.009158479 0.0011003887 -0.009938408 -0.0017882204
000390 e0 88 68 bc 4b 0e 37 3c bf cb 97 bc d4 ce 50 bc
       -0.01419279 0.011172841 -0.01852977 -0.012744624
0003a0 56 a7 f2 bc 1e 43 79 bc fd 2b 73 bc d6 bd 32 bb
       -0.029620808 -0.015213756 -0.014842031 -0.0027273796
0003b0 e5 28 8d bc 92 a4 96 39 91 e1 a9 3b ea b5 c3 bc
       -0.017231414 0.00028732844 0.0051843603 -0.023890454
0003c0 0a 89 3d bc 0e 22 01 3c c3 79 87 3b 32 97 8c 3b
       -0.011568317 0.007881654 0.004134388 0.004290485
0003d0 0b ac 9b bc d6 0e f2 3b ec 2b 1e bc f4 de b2 bc
       -0.019002935 0.0073870225 -0.0096540265 -0.021834828
0003e0 d9 83 0b bc 5a 6d 6c bc c6 f8 41 bb d3 a1 46 bc
       -0.008515322 -0.014430368 -0.0029597743 -0.012123543
0003f0 86 6c a3 3b 3a f5 1a 3b 6a 46 a8 bc 0c f6 56 3b
       0.0049873022 0.0023644702 -0.020541389 0.0032800464

network_body._body_endoder.seq_layers.2.weight f4 [256, 256]
000000 18 20 d8 bd f2 f6 37 bd 13 b8 ed bc ab 57 32 bc
       -0.105529964 -0.04491324 -0.029018437 -0.0108851595
000010 a1 f8 bd bc ea 4f ca bc 15 06 87 bd 9a 62 3d bc
       -0.023189845 -0.02469631 -0.06592957 -0.011559153
000020 bf 02 b1 3d f4 25 fb bc ec 98 44 3c b8 97 de bd
       0.08643102 -0.030657746 0.01199935 -0.10868782
000030 f1 04 64 bd 5a 36 c2 3d 6c 3a bc 3c 02 07 4c bc
       -0.055668775 0.09483023 0.022977076 -0.012452843
000040 b8 30 8e bd 3f 39 47 bd 79 e6 7b bc ad 09 db bb
       -0.06942886 -0.04863858 -0.015374773 -0.006684503
000050 95 1c 16 3e 88 af 75 bd 21 c2 df bc 95 13 27 3c
       0.1465934 -0.059981853 -0.027314248 0.01019754
000060 6c 5e 9f bc 97 b1 29 3d 60 82 87 3c d3 fc 14 be
       -0.019454204 0.04142913 0.01654166 -0.1454957
000070 ee 01 0d 3d 41 2e 88 3a e7 3a 6b bd 60 64 69 bd
       0.03442567 0.0010389761 -0.05742922 -0.05698049
000080 f7 a0 47 3d 60 c9 19 bd d8 5d 1f bd 2e f1 6c bd
       0.048737492 -0.03754556 -0.038907856 -0.057847194
000090 58 14 51 3d 71 7b a3 bd 97 2a 80 3d 1c c8 d2 bd
       0.051044792 -0.07982529 0.06258123 -0.10292074
0000a0 05 e0 13 3d e9 2b aa 3d 15 65 c3 bc ba 6e ab ba
       0.036102314 0.083091564 -0.02385191 -0.0013079264
0000b0 a6 03 1e be 04 b1 fa bd 2a cc 2a 3d 7c d6 60 bd
       -0.1543108 -0.12240794 0.041698612 -0.05489205
0000c0 0e 74 15 bd 30 34 89 bc 9d 6d 80 3d 31 77 6e bd
       -0.03648763 -0.016748518 0.06270907 -0.05821914
0000d0 87 ae 7b bb fd 15 4b 3d 6e d3 1b 3d bf 33 8c 3b
       -0.0038403587 0.049581517 0.038043432 0.0042786296
0000e0 fd 9b 92 3d 0d f7 fc 3d 46 71 a1 bd c7 f2 0c bd
       0.07158659 0.12351809 -0.07882933 -0.034411218
0000f0 dd 15 05 bc 47 82 82 bd 64 ef ec bb ce f3 01 bd
       -0.008122888 -0.06372505 -0.007230686 -0.03172665
000100 0a cc d7 bd 97 93 86 bd b1 58 0e bc 69 49 77 3d
       -0.10536964 -0.06571119 -0.008688138 0.060372744
000110 f8 b2 12 3d f2 15 d5 3d 6f 9b 43 3d 9b 1d 46 bd
       0.03581521 0.10404576 0.047755655 -0.048368078
000120 c4 82 ad bc d9 91 b8 3c 09 c1 8b bc 7e bf 43 bc
       -0.021180518 0.022530483 -0.01705982 -0.011947511
000130 61 d8 38 bd c3 77 7e 3d 04 93 98 3c dd ee f3 bc
       -0.04512823 0.062125932 0.01862479 -0.029776985
000140 d5 26 b4 bc 3e 6b 09 be f5 b3 27 be 09 89 bb bd
       -0.021991173 -0.13419816 -0.16377242 -0.09156997
000150 9a 9f 0c bd 90 15 0f 3d 32 c2 c9 3c 51 01 00 bd
       -0.034331895 0.034932673 0.024628732 -0.031251255
000160 b7 cb 15 bd de 1e 42 3d 44 6f d3 bb 78 72 8f bd
       -0.03657123 0.04739272 -0.006452473 -0.07004255
000170 4e e7 70 bc fe cb f2 bd 15 2c 8c bd bd 24 69 bc
       -0.014703585 -0.11855315 -0.068443455 -0.0142299505
000180 97 2a 02 bd 75 f1 e2 bd 65 33 98 bd 4a 59 af bd
       -0.031778898 -0.110812105 -0.07431678 -0.085619524
000190 ef 2a 1c bd 6f a8 0f be 55 9a 65 bb 92 6f 36 bd
       -0.038126882 -0.14029096 -0.0035034616 -0.044539995
0001a0 b6 25 61 3d 68 4d 1d bc be 30 e2 bc da 41 79 bc
       0.054967605 -0.009600975 -0.027611133 -0.015213454
0001b0 7f b6 e7 bd ff f7 94 bc 34 5c f8 bd 6c 88 5e bd
       -0.11314105 -0.01818466 -0.12126961 -0.05432932
0001c0 94 a8 15 bd 5f a2 6d bd 88 ad c4 bc d7 68 08 3d
       -0.03653772 -0.058016177 -0.024008527 0.033303108
0001d0 73 6d 9d bd 4b 9b 86 bc ab 61 0e 3d 70 6c b2 3d
       -0.076868914 -0.016431471 0.034761112 0.08712089
0001e0 17 05 58 3d b3 6b 85 3d 32 85 91 3c 9c 42 07 3d
       0.05273923 0.065146826 0.017763708 0.033022508
0001f0 37 00 f9 3d d5 86 8e bc 09 32 70 bd fe b3 dd bd
       0.12158244 -0.017398277 -0.058641467 -0.108253464
000200 ae 72 be 3d c4 3a 9d 3d 70 cf f2 3c 09 b6 17 3d
       0.09299217 0.07677224 0.02963993 0.037038837
000210 ef 77 c1 bc 4a 6b fe 3c 88 b1 d0 bb f4 dd 5a 3e
       -0.02361676 0.031057019 -0.0063688196 0.21373731
000220 ff 19 7e bd d9 0d 54 3d 92 f7 b4 bd b4 0f 6b 3b
       -0.06203651 0.05177102 -0.08836283 0.0035867514
000230 e9 f8 b1 bc 32 e8 2e 3d 81 67 3a bd d8 e7 9a bd
       -0.021725135 0.042701907 -0.045508865 -0.07563752
000240 5d 65 fb bc cc 02 33 bd b7 1b 39 bd e4 3f 92 bd
       -0.030687982 -0.04370384 -0.045192447 -0.071410924
000250 a9 df ca bd be 65 30 bc 57 a2 38 3d 60 c0 2b be
       -0.09905941 -0.010766445 0.045076694 -0.16772604
000260 a1 93 61 bd a1 2f 27 3d 80 80 67 bc df 92 25 bc
       -0.05507243 0.040816907 -0.014129758 -0.010105818
000270 c0 50 76 3d fd a5 a3 bc 89 1e 1c 3d 15 02 b4 3d
       0.060135603 -0.01997661 0.038115058 0.087894596
000280 6e a1 d5 3c ed 2a 6b bc f0 e5 08 3d 9b 66 e6 bc
       0.026077952 -0.014353496 0.03342241 -0.028125098
000290 e2 93 09 be 52 a4 12 bd a4 10 1b bd bc 1d 8f bd
       -0.13435319 -0.03580124 -0.037857667 -0.06988093
0002a0 e7 63 6e 3d e0 14 b1 3d c4 61 32 bc e0 76 c2 bc
       0.058200743 0.0864656 -0.010887567 -0.023738325
0002b0 94 ab c9 3c 18 6a 10 3b 77 e2 60 bd 99 53 56 3c
       0.024617948 0.0022035893 -0.054903474 0.013081455
0002c0 04 12 10 3c b8 b4 b0 3a 03 4b c5 3c b2 4d 75 3d
       0.008793358 0.0013481593 0.02408362 0.05988855
0002d0 46 3a ef ba e2 c1 97 3d 1a ee ad 3d 91 35 9d bd
       -0.001825162 0.07410027 0.0849268 -0.076762326
0002e0 f3 df 23 bd 1b 11 cc bd 3d fd 13 be 47 f4 e4 bc
       -0.040008496 -0.099642 -0.14452071 -0.027948512
0002f0 e9 f7 ad bc 07 e1 60 bd a2 e7 95 3d 08 26 2b bd
       -0.021236377 -0.054902103 0.07319571 -0.041784316
000300 cc 5e 0c bd ad 82 11 3d f5 88 6b bd 5a 04 63 3d
       -0.034270093 0.035525013 -0.05750366 0.05542407
000310 1b 88 e4 3d b5 01 80 bd 49 c7 a6 3c a9 a0 d4 3c
       0.111587726 -0.062503256 0.020358698 0.025955515
000320 18 4c 01 3c 7a e2 a9 bd 39 aa b0 3c 56 de 09 be
       0.007891677 -0.0829515 0.021565543 -0.1346372
000330 f7 f2 f9 bd 4b 16 85 bd ca 9a e5 3c c8 d2 1f bd
       -0.12204545 -0.06498393 0.02802791 -0.039019376
000340 8c db 8c bc 11 af 71 bc 96 fa 23 3d 2a d3 b6 bc
       -0.017194532 -0.014751212 0.0400339 -0.022317488
000350 e4 9d 04 bc 7e f5 d8 bd 28 f3 19 be 2a 1f 68 bd
       -0.008094285 -0.10593699 -0.15034163 -0.056670345
000360 2b 7d 2e bd df 17 2c 3c bb 23 0a 3d 5b b3 d0 3c
       -0.04259984 0.010503738 0.03372548 0.025476148
000370 4e ba c0 3c 20 ec 93 bd 8d 47 80 bc 8d ae 09 3c
       0.023526337 -0.07222772 -0.015659118 0.008403433
000380 37 9e b6 3c 7e b9 35 be cf 7f 25 bd 05 f7 f4 3c
       0.02229224 -0.17746541 -0.04040509 0.029902944
000390 2f 53 b5 bd 7f 45 2a 3d 66 d0 74 bd 52 68 86 bd
       -0.08853757 0.041570183 -0.059769057 -0.06562866
0003a0 43 ac 6e 3d e3 64 42 bd 4d cd f4 3d 67 1c 12 bd
       0.05826975 -0.047459494 0.119532205 -0.035671618
0003b0 d4 eb 37 3d 53 22 bd 3d 7d d4 f4 3c b6 23 6e bd
       0.044902638 0.092350625 0.029886479 -0.058139525
0003c0 1f 98 85 bb 1e ba d9 bb 5b 5b cf 3d 42 f4 d1 bd
       -0.004076972 -0.0066445014 0.101248465 -0.102516666
0003d0 69 76 08 3d 64 0e a6 3c 15 38 d9 3c ae 78 83 bd
       0.03331605 0.020270534 0.026516 -0.06419502
0003e0 32 ac a6 bd 48 99 df 3c a9 75 8e bd 82 12 c4 bd
       -0.081383124 0.02729477 -0.06956036 -0.095738426
0003f0 5a b5 ba 3d be f4 61 bd ae 25 ad bd 2e 81 dd bc
       0.09116621 -0.055165045 -0.084544525 -0.027039137

network_body._body_endoder.seq_layers.4.bias f4 [256]
000000 62 f2 bb bc 33 68 99 bb 3a 8c ac 39 1d 44 13 bd
       -0.022942726 -0.004681611 0.00032910873 -0.03595363
000010 8d 48 8b bb f0 b5 24 bc 86 1e 68 bc a6 0c 0c 3c
       -0.004250592 -0.010053143 -0.014167434 0.0085479375
000020 c5 76 86 bc 6c 59 f0 bc 74 a6 93 bc 57 0d 61 bc
       -0.016414056 -0.029339515 -0.018023707 -0.013736091
000030 2a a6 9d bc 72 c0 b6 bc ba 80 80 bc 6f 7c d8 3b
       -0.019244272 -0.022308562 -0.015686382 0.0066066305
000040 06 b7 15 bc 25 95 7a 3b c6 2c 30 3b a3 da 5b bc
       -0.0091378745 0.003823587 0.0026882156 -0.013418826
000050 f6 fb ba bc 36 24 70 bb 68 6f 56 bc 2f 6b 9b bc
       -0.022825222 -0.0036642677 -0.013088085 -0.018972008
000060 70 a4 ec bb 17 50 37 bc fd 52 d0 bc 48 45 8d bb
       -0.007221751 -0.0111885285 -0.025430197 -0.0043112375
000070 45 c9 23 bb 47 78 ba bb c0 e3 ac bb 01 68 37 bc
       -0.0024991792 -0.0056906077 -0.0052761734 -0.01119423
000080 1e 4a 71 bc cd 70 37 bc f3 8c c8 bc e8 cf e0 bc
       -0.014727144 -0.011196327 -0.024481272 -0.027442887
000090 6b d7 57 bc 52 1e 53 bc 90 6f a0 bb 11 79 c5 bb
       -0.013173918 -0.012885647 -0.004896112 -0.006026395
0000a0 1c e5 e7 bc 80 9e fb bb 43 d8 06 bc 76 bd 88 bb
       -0.02830749 -0.007678807 -0.008230272 -0.004172976
0000b0 5e 22 de bb a0 cd 4a 3b 68 5a df 37 98 b8 37 bb
       -0.006778999 0.0030945316 2.662577e-05 -0.002803361
0000c0 5c 7e ac bb f8 c4 2c bc a9 61 28 bb e5 6e a4 bb
       -0.0052640866 -0.010545008 -0.0025692976 -0.0050181025
0000d0 d3 99 6d bc 65 4a b2 bb a4 19 77 bc 8e df 86 bb
       -0.014502007 -0.0054409974 -0.015081797 -0.0041160053
0000e0 a7 d6 d2 bb ac 09 86 bc 00 c5 5b bb 5b d4 61 bc
       -0.00643428 -0.016362034 -0.003353417 -0.01378354
0000f0 2c 1f 37 bc 77 c3 57 bc 5b 09 06 bc 08 98 30 bc
       -0.011176866 -0.013169161 -0.008180941 -0.010778435
000100 3f e4 06 bc 3c 1f 03 3c c1 06 24 bc a3 69 a1 bc
       -0.008233129 0.008003052 -0.010011376 -0.019703692
000110 10 35 68 bb bf d2 96 bc 4d 3b 87 bc 37 b5 cc bc
       -0.0035432018 -0.018411038 -0.016507769 -0.024988754
000120 7f f1 83 bc ce 50 cc bc aa 8c 02 bd 31 12 4c bc
       -0.016106365 -0.024940874 -0.03187243 -0.012455509
000130 05 7b 3e bc 85 27 5e bc 89 9b 58 39 d9 82 95 ba
       -0.01162601 -0.013559227 0.00020657307 -0.0011406793
000140 48 71 3b bc e1 df 8a bb 80 e5 94 bc 83 0b a8 bb
       -0.011440583 -0.004238114 -0.01817584 -0.0051283254
000150 d3 ef 2c 3c 71 25 59 bc 45 f7 ca bc bc c5 69 bb
       0.010555225 -0.013253556 -0.02477611 -0.0035670837
000160 a7 86 ab bc 92 66 a6 ba 47 69 03 bc 89 fe 83 bc
       -0.02093823 -0.0012695363 -0.008020706 -0.016112583
000170 f4 57 b2 bc 81 20 ac bb 9c 2a 88 bb ce bb 89 3b
       -0.021770455 -0.005252898 -0.00415547 0.0042032963
000180 c2 fc 2d bc 98 0f 98 bc fe 60 b7 bb c7 fd 28 bb
       -0.010619344 -0.018562123 -0.005596279 -0.0025786029
000190 07 3d 74 bc e4 d3 87 bc f4 52 00 bb ac e0 52 bc
       -0.014907128 -0.01658053 -0.0019580694 -0.012870949
0001a0 92 90 99 bb 61 c3 3c bc 45 8e 63 bc 37 68 e5 bb
       -0.0046864236 -0.011521191 -0.0138889 -0.007000949
0001b0 5c 89 28 bc 25 5f 8f bc fb d1 f5 bc 3a a3 a6 bb
       -0.010286655 -0.017501423 -0.030007353 -0.005085376
0001c0 51 2f 1a bc b2 38 9c bc 18 d5 53 3c ce 74 a0 bc
       -0.009410695 -0.019070003 0.0129292235 -0.019586947
0001d0 38 40 22 bc bb 64 2f bc 64 b9 cc bb 35 c6 29 bc
       -0.009903006 -0.010705168 -0.006247686 -0.010362198
0001e0 7c c9 50 bc 93 82 0e bd 60 53 2f bc 0b 88 29 bc
       -0.01274335 -0.034792494 -0.0107010305 -0.010347377
0001f0 1c 9d 7b 3a 5e 69 9e 3c 50 2b cc bc c5 90 59 bb
       0.0009598301 0.019337352 -0.024922997 -0.0033197862
000200 fc 3a 06 bc 8b b7 eb bb 6d 52 99 bc 6b 44 00 bc
       -0.008192774 -0.007193511 -0.018716061 -0.007828812
000210 82 51 17 bc de a6 e4 3b 08 4e c0 ba e1 59 84 bc
       -0.009235742 0.0069779 -0.0014671693 -0.016156139
000220 b9 e0 71 bc f3 08 e1 bc 07 6e 4f bc 15 10 a3 bc
       -0.014763051 -0.027470088 -0.01266051 -0.01990513
000230 bc c6 91 bc bc 51 82 bc 2c 88 fd bc 6b 4b 13 bc
       -0.01779496 -0.015908115 -0.03094872 -0.008990149
000240 79 a1 ab bc 85 8a f9 ba 9a 81 b4 bc f9 da 86 bc
       -0.02095102 -0.0019038474 -0.022034455 -0.016461836
000250 e3 88 9d bc bc 2a 82 bb 37 5f f5 bc e2 c4 03 bd
       -0.019230312 -0.0039723795 -0.029952629 -0.032170184
000260 48 b0 6d 3b c3 2b fe bb bb c6 bf bc 0f f3 0e bc
       0.0036268402 -0.0077566816 -0.023410192 -0.008724942
000270 b2 c6 fd bc 66 da 83 bc 28 98 9a bc 53 97 31 bc
       -0.030978534 -0.016095351 -0.018871382 -0.010839301
000280 08 76 a3 bc 56 6e 51 3c 64 35 2c bc 7c c9 e6 bb
       -0.019953743 0.012782654 -0.010510776 -0.007043062
000290 d1 b8 3d bb 66 13 73 3a 3b db 95 bb a2 bf 7a 3a
       -0.002894927 0.0009272605 -0.0045732534 0.00095652987
0002a0 c3 50 be bb c7 8a f8 ba 68 4e 5a bc e3 c3 20 bc
       -0.0058079674 -0.0018962257 -0.013324358 -0.009812328
0002b0 1b 7a c6 bc 31 3b b3 bb ec b1 ec bb 8e 77 9d bc
       -0.024228146 -0.0054697026 -0.0072233584 -0.019222047
0002c0 e2 6b 2b bc 4c c4 28 bb 68 d2 b0 bb 33 7f e1 3b
       -0.010462733 -0.0025751768 -0.005396176 0.0068816184
0002d0 18 71 86 bc dc 7b a1 bc 68 56 c7 bc 9d c0 28 bc
       -0.01641135 -0.019712381 -0.024333194 -0.010299829
0002e0 34 fe 2b bc 89 52 5a bc da 7d 8b bb aa 14 46 bc
       -0.0104976185 -0.013325342 -0.004256946 -0.012089888
0002f0 cf d3 84 3b ed 24 ab bc dc df e9 bc 54 d7 f3 ba
       0.00405357 -0.020891631 -0.028549127 -0.0018603601
000300 b6 bb 7e ba 04 b0 8d bc 5f 49 98 bb e2 7a a0 bc
       -0.0009717302 -0.017295845 -0.0046474184 -0.019589845
000310 7a c6 18 bc a0 e0 72 bb 37 d5 eb b9 4f 71 92 ba
       -0.009324664 -0.0037060156 -0.0004498155 -0.0011172685
000320 30 67 01 bd b7 13 35 bc 86 d8 48 bc 92 13 ab bc
       -0.031592548 -0.011052064 -0.012258654 -0.020883355
000330 42 70 e7 bc 74 fd e4 bc 5f 28 8b bc ad e9 4e bb
       -0.02825177 -0.027952887 -0.016987024 -0.0031572387
000340 64 7f 22 3b 86 29 d0 3b 58 47 ad bc e3 5f b2 bc
       0.002479517 0.006352606 -0.021152183 -0.021774238
000350 6d 31 26 bc 6f c6 b7 3a ff 39 61 bc cd 20 fb bb
       -0.01014362 0.001402093 -0.0137467375 -0.0076638223
000360 e1 b6 92 bc 64 ba de bb d2 cb 85 bc ff 11 c6 bb
       -0.01790947 -0.006797122 -0.01633254 -0.006044626
000370 97 03 d5 bb fa a7 49 ba 7f a0 da 3b c2 cd 3f bc
       -0.006500672 -0.0007692572 0.0066719647 -0.011706771
000380 97 9b f7 b9 57 b2 af bc d6 f6 65 bc 29 a2 1c 3c
       -0.00047227435 -0.021447344 -0.014035901 0.009560146
000390 89 5d 92 bb 94 fb 0c 3c 8f 1d 83 bc e8 13 8e bc
       -0.0044667167 0.008604903 -0.016005306 -0.017343476
0003a0 30 38 32 bc dd ef 0a bc cd 42 7c bc e7 00 62 bc
       -0.010877654 -0.008480039 -0.015396786 -0.01379416
0003b0 66 80 db bb 08 67 4c bb 06 c0 c6 3b 9e 29 a1 bb
       -0.006698656 -0.003118934 0.0060653714 -0.0049182912
0003c0 47 5c 71 bb 76 60 5d bc 74 57 a3 bc f9 05 07 bc
       -0.0036828683 -0.013511768 -0.019939162 -0.00824117
0003d0 d9 5d 69 bb 56 e4 71 bc e5 a6 6c bc 56 e1 50 bc
       -0.0035608916 -0.014763912 -0.014444088 -0.012749037
0003e0 d7 86 fb bb 57 16 48 bc 21 91 82 bc 3a 66 fc bb
       -0.0076759863 -0.0122123575 -0.015938343 -0.007702616
0003f0 cf fb 03 bc 95 53 8d ba 98 96 a6 bc 0c c4 54 bc
       -0.008055641 -0.0010782356 -0.02033548 -0.012986194
