Assets/Training/results/Run 8/DroneBehavior/DroneBehavior-3499895.onnx (onnx, 697640 bytes, 21 tensors)

105 f4 [25]
00000000: bbd2 fe3d 5ea7 ff3d bb1f 0c3a 2f08 333e
00000010: b293 9e3d c391 193e c95d b93a bb1f 0c3a
00000020: 6993 193e 1f0c 823d b83a aa3e bb1f 0c3a
00000030: bb1f 0c3a c83a aa3e fd23 db3d 3665 ae3e
00000040: bb1f 0c3a bb1f 0c3a 4365 ae3e 8698 fe3d
00000050: 3665 ae3e bb1f 0c3a bb1f 0c3a 4365 ae3e
00000060: 8698 fe3d
0.124425374 0.12483095 0.00053453044 0.1748359 0.077430144 0.1499701 0.001414233 0.00053453044
0.14997639 0.06349968 0.33247924 0.00053453044 0.00053453044 0.33247972 0.107002236 0.34061593
0.00053453044 0.00053453044 0.34061632 0.12431435 0.34061593 0.00053453044 0.00053453044 0.34061632
0.12431435

108 f4 [25]
00000000: 017a fd3e b39c 853e d059 9a3c f7fd ff3e
00000010: bd73 553e c944 ff3e bc0b ea3d acaa a93c
00000020: 0db4 ff3e 587c 553e 0617 fa3e f03e ee3d
00000030: 6453 e53c 4299 fb3e 4733 4c3e 8e3c fc3e
00000040: 3ba2 fb3c 69d0 433c 1755 fc3e 0e55 483e
00000050: e882 ea3e de64 a23d a614 9c3c e0fa eb3e
00000060: 0e86 2f3e
0.49507144 0.26096115 0.018841654 0.49998447 0.20844932 0.49857166 0.114280194 0.020711266
0.49942055 0.20848215 0.4884569 0.11633098 0.027993865 0.49140364 0.19941436 0.4926495
0.030717006 0.011951544 0.49283668 0.19563696 0.45803 0.07929395 0.019052815 0.4608984
0.17140982

111 f4 [55]
00000000: da6a fb3c 6c52 ff3d bb1f 0c3a aa59 033e
00000010: d13d 763d a60a 3b3d 1c4a e83d bb1f 0c3a
00000020: c3f2 f93d 7e65 493d 2008 b83d 1c4a e83d
00000030: bb1f 0c3a 8e6c 133e 6017 723d 0de0 683d
00000040: 48e5 1e3d bb1f 0c3a 41d2 8c3d 476a bd3c
00000050: d1c9 d53d 06d2 1e3d bb1f 0c3a 16c0 e33d
00000060: 5028 0f3d b941 823d ad9d ab3a bb1f 0c3a
00000070: e84a 823d 160a 9d3c e335 4d3e bb1f 0c3a
00000080: bb1f 0c3a 4a36 4d3e 5863 813d cb71 8a3d
00000090: bb1f 0c3a bb1f 0c3a bf73 8a3d 40bd 153d
000000a0: 2221 963e bb1f 0c3a bb1f 0c3a 4021 963e
000000b0: ba43 b83d 8893 c73d bb1f 0c3a bb1f 0c3a
000000c0: 1f94 c73d 1534 5a3d 8893 c73d bb1f 0c3a
000000d0: bb1f 0c3a 1f94 c73d 1534 5a3d
0.0306906 0.124668926 0.00053453044 0.12827173 0.060117546 0.045664452 0.1134226 0.00053453044
0.12204506 0.049169056 0.08985925 0.1134226 0.00053453044 0.14396879 0.059104323 0.056854296
0.03879288 0.00053453044 0.0687604 0.023121966 0.10438884 0.038774513 0.00053453044 0.11120622
0.034950554 0.06360192 0.0013093256 0.00053453044 0.063619435 0.019169848 0.20040087 0.00053453044
0.00053453044 0.20040241 0.063177764 0.067599855 0.00053453044 0.00053453044 0.06760358 0.036557436
0.29322153 0.00053453044 0.00053453044 0.29322243 0.08997293 0.09744936 0.00053453044 0.00053453044
0.09745049 0.053272326 0.09744936 0.00053453044 0.00053453044 0.09745049 0.053272326

114 f4 [25]
00000000: 077a fd3e a39c 853e d059 9a3c f9fd ff3e
00000010: bf73 553e b50f ff3e 2470 f23d e5e8 823c
00000020: bc96 ff3e ae3e 4d3e 6443 f53e 9348 da3d
00000030: 4a96 a63c fc00 f73e 948e 513e f4bc e83e
00000040: 1251 133d 08fd a63c 2123 e93e e538 243e
00000050: 7bc3 e53e fec4 cd3c ecc0 a83c 5507 e63e
00000060: 7c52 383e
0.49507162 0.26096067 0.018841654 0.49998453 0.20844935 0.4981667 0.118377954 0.015980193
0.4991969 0.20043442 0.47902977 0.10658374 0.020335335 0.4824294 0.20464545 0.4545666
0.035965987 0.020384327 0.45534614 0.16037329 0.44875702 0.025118347 0.020599805 0.4492747
0.18000215

117 f4 [25]
00000000: f656 c23c 48d8 023e bb1f 0c3a ea01 053e
00000010: d5fc 783d 5f5e 8f3b 9aed 013d bb1f 0c3a
00000020: 9a25 033d c9ba 643c 512f fe3c 44d1 013d
00000030: bb1f 0c3a c897 353d d504 bd3c ed8a 813d
00000040: 44d1 013d bb1f 0c3a 99c8 903d 0e75 323d
00000050: ed8a 813d 44d1 013d bb1f 0c3a 99c8 903d
00000060: 0e75 323d
0.023723107 0.12777817 0.00053453044 0.12989011 0.060787994 0.0043752636 0.031720735 0.00053453044
0.03201828 0.013960549 0.031028422 0.031693712 0.00053453044 0.044334203 0.023073593 0.06325326
0.031693712 0.00053453044 0.07069511 0.043568663 0.06325326 0.031693712 0.00053453044 0.07069511
0.043568663

120 f4 [3]
00000000: 8544 3a41 57b9 503f 16a2 3c41
11.641728 0.81532806 11.789572

action_model._continuous_distribution.log_sigma f4 [1, 3]
00000000: a9aa 9ebd 115d e0bd f7a7 99bc
-0.077473946 -0.10955251 -0.01875685

action_model._continuous_distribution.mu.bias f4 [3]
00000000: 061f 0c3c 2c0d 323c 1116 0c3d
0.008552318 0.010867398 0.03420073

action_model._continuous_distribution.mu.weight f4 [3, 256]
00000000: 4461 3cbc 9a2d c039 ef18 98bb 475a 06bc
00000010: c6e2 59bb 2bcf cd3c 3443 c93b 675d 82bb
00000020: aedd 153b ad00 c63b 41c9 dfb9 7251 1a3d
00000030: 76d7 963b 91a8 573c b8e0 a23b ea46 a43c
00000040: b3f4 b23b b32e 21bc ae95 6a3c 21c1 313c
00000050: e505 a43b 80db 463b 4aa9 e8bc 19be a53c
00000060: c5ca 883a 93c9 003c 8ed7 3fbd 97b4 87bc
00000070: cc2a acbb 9ae2 b5b8 963b 39bc a2f1 7f3a
00000080: c57f f7bb 255f c43c da3c 8d3c 6f06 e43b
00000090: 9bf8 52bc 4ce3 d03a 07e5 d13c 576e 3cbb
000000a0: 96ae b13c fd0c 013d 14da f43b cb5b a13c
000000b0: 74c9 7dbc c685 713a 7d0b e3bb 712e c73a
000000c0: 1a99 d13c 5e27 2c3c 8b66 20bc 2cf0 1a3c
000000d0: 987a 05bc 03de 1b3b f6df dabb 6187 e23a
000000e0: ac05 343c 8798 87bc fe9a a0bc 6470 e439
000000f0: da50 603b 1bd4 c6ba 255f 1fbc 6170 dbbc
00000100: af1a 833c af07 bdba 25f9 873a 4016 d93b
00000110: e3e1 14bb eb14 be3a 7f02 bab9 b16c 603c
00000120: 9977 6ebb a066 dcbb 2117 113c 92d3 aabc
00000130: d4c8 cc39 d3a7 bcba f6e6 e43a d9e2 233c
00000140: 7299 fcbb 310c 033c 3d45 a13b 5e27 bb3c
00000150: d2ca e43b d717 ab3c eebe 853b 2096 06bb
00000160: 33b4 c73b 79ea 5c3b 741c 863c 0cba 93ba
00000170: e9af 55bb 4045 7139 e66a 3dbc ab6b 273c
00000180: b9a2 11ba 6107 4a39 e15e 1eba 6d5f 613c
00000190: 2dc7 fb3b 51c9 883c 57d5 bebb 0caf aabc
000001a0: 99fc fd3b c685 4fbc df94 f3ba 251f c4ba
000001b0: 0ae6 a4bb 2734 9ebc 9e04 0dbb a047 923a
000001c0: fd7e 80bb aacf ad3c e1a5 8abc bf3e 0bbc
000001d0: d65e be3c dbe1 16bb fe2d 863b 529e bebb
000001e0: 4259 9ebc a9a1 b3bc ef4a b1ba 920e d239
000001f0: 55ea 7f3c 35f3 0c3b aae3 a6bb ff55 adbb
00000200: c7e8 00ba 01b7 ca3a 0859 fd3b 02e0 96bc
00000210: 626f 873c f922 853d f07e c33a 99a7 cabb
00000220: 2b93 19bb d4c5 933c a030 e2bb 70b0 c4bc
00000230: 1cec 32bc 5195 913b 2195 c83b ddff 70bc
00000240: 7c5b 7bbc 668c 1dbc 50be e63b 31d2 49bc
00000250: 5529 e53c fc5e c5bb 9914 d8bb a9e6 05ba
00000260: 4c22 623c b327 a0bb acc0 4b3b 9377 35bc
00000270: 86ae 13bc f03d 963c 4700 6dbc 96bb 193b
00000280: cc1a c9ba 32de 793b 1668 5dbc 637f 443c
00000290: 24e5 f1ba 0abb 55ba e82d 173c dfbf 1e3b
000002a0: 476d 113d c8d0 e7bc 3c08 7abc a03f 36bb
000002b0: ccc1 82bb ea9d 0b3a e775 91b8 7282 18bc
000002c0: 3003 243c 8e24 8a3b 2c7a eebc 3dcc 2c3c
000002d0: 9718 42bb 828d f63a 4f13 e9bc 31c8 1e3d
000002e0: b2b6 35bd f3a9 af3c 9e63 173c e175 7ebb
000002f0: 6c7c d1ba d25e 833b fc53 703b 47fd fb3c
00000300: 7fca a23c 1546 73bb 7f37 273b dbef 17bc
00000310: a4ba f53b 67e5 8a3b 1ec2 6ebc 5adb 033c
00000320: b240 553c 61c7 cbbb d89c fb3b ac69 303c
00000330: fec7 93bb ed4a 8a3c 91c7 963a f5f1 82bc
00000340: 1b35 683a 2e87 01bc f964 89bc 1ed9 efbb
00000350: 450e dd3c cd97 40bc 7530 523b 7204 9d3c
00000360: 48f7 a439 7b67 a6bc af61 9c3b 8f18 a33b
00000370: 6e3b a73b 6f4f 45bc 1590 d2bc da05 14bc
00000380: 3b44 293b 71d1 65bc cf1a 683c 46e3 1abc
00000390: cd1b b93c 6a13 53ba 720e 17bc 44da 35bc
000003a0: 8ca0 203d c18f 3dbc 536f ff3b a98b e2bb
000003b0: 7032 01bd 6c7b 39bc d2a0 21b9 c2c0 a4bb
000003c0: 564e 53bb afda efbc 8d00 c13a e8f5 4f3c
000003d0: 154b a93c dd3e 36ba 05a8 42ba 13de baba
000003e0: 4b2c 0a3c fd1c 223c 7870 31bc f869 09bc
000003f0: e5a2 81bb b6de d3bb 2abe a1bc 0eb0 7f3b
-0.011497799 0.0003665507 -0.004641644 -0.008200235 -0.003324674 0.0251232 0.0061420444 -0.0039784196
0.0022867727 0.006042561 -0.0004268382 0.03767533 0.0046033217 0.013162748 0.004970636 0.020053346
0.0054612993 -0.009837794 0.014317913 0.010849268 0.0050055855 0.0030343235 -0.028401036 0.020232247
0.0010436407 0.007860559 -0.04683643 -0.016565604 -0.005254125 -8.6729604e-05 -0.01130571 0.0009763484
-0.007553073 0.02397115 0.01724093 0.0069587748 -0.012876655 0.001593688 0.025621904 -0.002875229
0.021689694 0.031506527 0.007472286 0.01969709 -0.015489925 0.0009213354 -0.0069288597 0.0015196336
0.0255857 0.010507433 -0.009790073 0.0094566755 -0.008146904 0.0023783452 -0.0066795303 0.0017282778
0.01098768 -0.016552223 -0.019605156 0.00043571286 0.0034227879 -0.0015169414 -0.009727274 -0.026786985
0.016003935 -0.0014421846 0.0010373933 0.006624967 -0.0022717647 0.0014502084 -0.00035478544 0.013697789
-0.0036387204 -0.006726101 0.008855612 -0.020852838 0.0003905954 -0.0014393277 0.0017463851 0.010002815
-0.007708722 0.007998512 0.004921584 0.02284592 0.006982186 0.020885391 0.0040815985 -0.0020536259
0.0060944795 0.0033709093 0.01637099 -0.0011270656 -0.0032606071 0.00023009349 -0.011561131 0.010218541
-0.00055555586 0.0001926697 -0.000604136 0.013755661 0.0076836557 0.016697558 -0.005823772 -0.020835422
0.0077510593 -0.012666171 -0.0018583796 -0.0014962895 -0.0050323056 -0.019311978 -0.0021517645 0.0011160262
-0.003921388 0.021217186 -0.0169248 -0.008498847 0.02323858 -0.0023022804 0.004094838 -0.005817213
-0.01932967 -0.021927672 -0.001352636 0.00040065177 0.015619834 0.0021507267 -0.0050930576 -0.0052897925
-0.0004917499 0.0015465916 0.0077315606 -0.018417362 0.016532604 0.06500811 0.001491515 -0.00618453
-0.0023433666 0.018038668 -0.006902769 -0.024009913 -0.010920551 0.0044428487 0.006121293 -0.01470944
-0.015341636 -0.009615993 0.00704173 -0.01231818 0.02797381 -0.006023286 -0.0065942523 -0.00051079184
0.013802122 -0.004887545 0.0031090183 -0.011075872 -0.009013778 0.018340081 -0.014465398 0.0023457757
-0.0015343069 0.0038126823 -0.013513586 0.011993262 -0.001845513 -0.0008153176 0.0092272535 0.002422325
0.035504606 -0.028297797 -0.015260752 -0.002780892 -0.0039903875 0.000532596 -6.9361e-05 -0.009308444
0.010010526 0.0042157834 -0.02911099 0.010546741 -0.0029616707 0.0018810483 -0.02845159 0.038765136
-0.044363685 0.021443343 0.009240059 -0.0038827586 -0.0015982515 0.004009106 0.0036671152 0.03076042
0.019871948 -0.003712063 0.0025515256 -0.009273495 0.007499056 0.0042387727 -0.014572648 0.008047903
0.013015913 -0.006218836 0.0076786093 0.010767382 -0.004509925 0.01688143 0.0011503567 -0.015984515
0.0008858011 -0.0079057645 -0.01677178 -0.0073195836 0.026984343 -0.011754942 0.003207234 0.019167159
0.00031464756 -0.020313015 0.004772387 0.004977293 0.00510352 -0.012042864 -0.02570347 -0.009034598
0.0025828022 -0.0140269855 0.014166548 -0.0094536 0.022596264 -0.0008051904 -0.009219753 -0.011099402
0.03921561 -0.011569918 0.0077952533 -0.0069136214 -0.03154224 -0.01132093 -0.00015414067 -0.0050278613
-0.0032242737 -0.029279081 0.0014724896 0.012692906 0.020665685 -0.00069521164 -0.00074255496 -0.0014256857
0.008433412 0.009894607 -0.010830037 -0.008387081 -0.003956186 -0.006465758 -0.019743998 0.003901485

network_body._body_endoder.seq_layers.0.bias f4 [256]
00000000: 205b 1fbd 14ab 593c bbda 513b 4ff8 533d
00000010: b59d 2bbd fece 873c 36b9 8cbc feac af3b
00000020: 5421 88bd b4a2 b139 cd86 7bbc 9d74 1fbd
00000030: 4b32 45bd 1c29 67bd 98d4 0abd 4147 793b
00000040: 0fd4 90bd fe2e 053d 94f8 00bd 894f 77bd
00000050: 9786 b33c e056 55bc 5e58 27bd 7903 edbc
00000060: da92 26bd 4804 90bc e4b3 89bc 24fb 79bd
00000070: 3558 22bd 6744 84bc 1dff a03c 9cdb 58bc
00000080: 3767 3dbd 3e38 75bc 3c3c 58bd 1ae2 2ebd
00000090: c94f 71bd 7e6f 26bd 6d1e 4e3d e8ff 69bd
000000a0: d793 f1bc cac9 5ebd 9088 48bd 41e9 26bc
000000b0: 6f48 82bc 5fe3 2fbc c903 053d 3fc1 32bd
000000c0: 16c0 a8bc e1b3 cbbc 7f43 d7bc 3448 3bbd
000000d0: b60f 3ebd 4912 5abd 72a2 03bd 4984 3fbd
000000e0: 49df cebb bef9 a1bb 4058 db3c f816 22bd
000000f0: bacd 083b 99a3 c8bc 3419 33bd d109 3fbd
00000100: 8805 f13c 9d0d 68bc 7bb0 693c 1382 aabc
00000110: 726a 83bd c5f8 9dbd 4480 2dbc 3489 a3bc
00000120: 69d2 0dbd e07a 69bc 3506 0abd 2c86 943c
00000130: d698 17bd d423 4ebd 404c 68bd 6c1f 58bd
00000140: e9f9 54bd efa3 9cbd 1b65 14bd 9156 61bd
00000150: 2a9a 5fbd 09c3 e5bc f9cc dfbb 34da 8dbd
00000160: 822f a0bc 0164 06bd a258 063d 56b7 f8bc
00000170: 2afa dabc 6cf3 58bc df8b a5bb a00b 5ebd
00000180: d1b6 83bd 0799 50bd 3e99 d4bc 56d7 70bd
00000190: 6bea 5abd 4848 373d 5bdc 60bd 43b1 25bc
000001a0: 3261 8cbd c5f6 8c3c bfce 21bd 3564 963b
000001b0: 2eec f6bc d273 e23b 3c49 85bc eafe b2bd
000001c0: c82e 73bd 49e2 62bd 6ef2 0d3b 3bd1 65bc
000001d0: f690 043d c138 02bd b11c ccbc 9a22 22bd
000001e0: 0367 49bd cf80 cabc 4dee 20bd f262 62bd
000001f0: 93a8 9dbc 6b4a 713b 2e01 b1bc 3a3b 05bc
00000200: c828 10bd 3e89 66bc b42d 8f3c 48cd 4bbc
00000210: b16e 863c 5de4 57bd 8148 d03c a101 10bd
00000220: 6b5e 01bd eaa9 6bbd 3cdd 69bc 9bb6 14bd
00000230: 9363 ccbc 54ed 11bd da67 babc 9e58 19bd
00000240: 5d2b 97bd b2c6 55bd 27d4 b5bc 15e4 47bd
00000250: 241d 853b 4fb9 763d e9f4 36bd 7cb5 86bd
00000260: c58b 4dbd f3eb 593d 4cdb 22bd c31c f1bc
00000270: 5a52 39bd ffb4 9cbd 422d d9bc d345 06bc
00000280: f4f4 48bd 8f1d 27bd cba7 1b3d ea16 38bd
00000290: db9f a3bd 94f5 89bb 4932 01bd d953 84bd
000002a0: 30f4 70bd 3144 e8bd 61b2 0cbd 9dab 0a3c
000002b0: 51fa 5cbc 69a2 84bd b339 30bc d605 68bb
000002c0: 3015 1cbd 0992 19bc 13f1 0cbd 5e5f 15bd
000002d0: 6c8f 1fbd 81ad 213b 267e 43bd 77c9 0bbd
000002e0: 2f3d 1ebd cae0 cbbc 8790 afbd a334 14ba
000002f0: b6b2 b3bc 64e5 9c3c eed4 c0bc 74dc 97bc
00000300: 201c f0bc c347 d13c ce73 3d3d 9b77 2f3a
00000310: 5fba 25bd 5bba 32bd d119 573d 9a0f 01bb
00000320: 3af9 d73a 5717 d7bc 2930 99bd becb 0cbd
00000330: 2f92 27bd f9aa 25bd 0922 f4bc 9ad2 c83b
00000340: cb15 bfbd 8e88 59bd 4c3b 38bd 5419 02bd
00000350: 6614 0cbd be8a 31bd 4c53 11bc 47a4 563c
00000360: 8adf 08bd 36c1 83bd b971 39bd 5b4c 83bd
00000370: 1fe4 a6bc b039 cabc 95d1 46bd 26c1 9dbd
00000380: 9a81 aabd 412c 2dbd 4c6a afbb 3910 f0ba
00000390: d333 5cbd 6bd3 8abd 1f8d 03bd 0231 b9bc
000003a0: c0f8 10bd 8ffb 8fbc 55e7 36bd e42e 21bd
000003b0: cf9d adbc 6b95 f53c 776e f8bc a799 e1bc
000003c0: 7018 a8bc 4a8d 5dbd ba42 51bd 6299 25bd
000003d0: 2e60 89bd aa57 003c 53d0 fcbc 6c82 a9bb
000003e0: 8888 39bd f34a 4e3d 56a3 05bd 9a85 40bd
000003f0: 982a 80bd afed f73c e656 69bc 67c4 82bb
-0.038905263 0.013285417 0.0032021243 0.051750477 -0.041898448 0.016578194 -0.01717816 0.0053611984
-0.06646982 0.00033881294 -0.015351963 -0.03892957 -0.048143666 -0.05643569 -0.03389415 0.0038036855
-0.07071697 0.03251552 -0.031487063 -0.060378585 0.021914763 -0.013021201 -0.040855758 -0.02893232
-0.040667392 -0.017580166 -0.016809411 -0.061030522 -0.039634902 -0.016145898 0.019652897 -0.013235953
-0.04624101 -0.014967022 -0.05279182 -0.042696096 -0.05891398 -0.04063367 0.050321985 -0.057128817
-0.02948944 -0.05439166 -0.04895836 -0.010187448 -0.01590368 -0.010735362 0.032474313 -0.043641325
-0.020599406 -0.024866046 -0.026277302 -0.045723155 -0.046401702 -0.053240094 -0.03213734 -0.046757016
-0.0063132388 -0.0049431017 0.02677548 -0.039572686 0.0020874576 -0.024492072 -0.043725207 -0.04664022
0.029421583 -0.014163402 0.014263268 -0.020813977 -0.06416787 -0.07713465 -0.010589663 -0.019962884
-0.03462449 -0.014250487 -0.033697326 0.018130384 -0.03701099 -0.050327137 -0.056713343 -0.05276434
-0.051996145 -0.07648455 -0.036229234 -0.055014197 -0.05459038 -0.028047102 -0.0068298546 -0.069263846
-0.019553903 -0.032810215 0.03279937 -0.030360859 -0.026730616 -0.01324163 -0.0050520743 -0.054210305
-0.06431354 -0.05092719 -0.025951978 -0.05879911 -0.053446215 0.044746667 -0.054897647 -0.010113063
-0.06854476 0.017207513 -0.03950381 0.0045895823 -0.030141916 0.0069107795 -0.016270272 -0.08740027
-0.059370786 -0.055391584 0.0021659392 -0.014026935 0.032364808 -0.031792406 -0.024916025 -0.03958378
-0.049170505 -0.024719624 -0.03928976 -0.055270143 -0.019245422 0.0036818038 -0.021607008 -0.0081317965
-0.035195142 -0.014070807 0.017477848 -0.01243908 0.016410204 -0.05270802 0.025425198 -0.035157803
-0.031584185 -0.05753509 -0.014273938 -0.03630696 -0.024949824 -0.035626724 -0.022754598 -0.037438028
-0.07381318 -0.052191444 -0.022195889 -0.0488015 0.0040623117 0.060235318 -0.04466716 -0.06577584
-0.050182123 0.053203534 -0.03975992 -0.02943266 -0.045244552 -0.0765171 -0.026510838 -0.008195358
-0.04906173 -0.040799674 0.038001817 -0.044943728 -0.079894744 -0.0042101834 -0.031542096 -0.06461305
-0.058826625 -0.113411315 -0.034349803 0.008463767 -0.013487414 -0.0647629 -0.010755944 -0.003540387
-0.038106143 -0.009373196 -0.034409594 -0.036467902 -0.038955137 0.0024670067 -0.047727726 -0.03412768
-0.038632568 -0.024887461 -0.08572488 -0.00056535954 -0.021935802 0.01915235 -0.023539033 -0.018537737
-0.029310286 0.025546914 0.046253018 0.0006693543 -0.04046094 -0.043634754 0.052514855 -0.0019693137
0.0016477474 -0.026256246 -0.07479889 -0.03437399 -0.040910896 -0.040446255 -0.029801385 0.0061286213
-0.093303286 -0.053108744 -0.044978425 -0.031762436 -0.03419914 -0.043345205 -0.008869957 0.01310069
-0.03341631 -0.064333364 -0.04527447 -0.06411048 -0.020372448 -0.02468571 -0.048539717 -0.07702856
-0.08325501 -0.042278532 -0.0053532477 -0.0018315382 -0.05376036 -0.06778606 -0.032117005 -0.022606377
-0.035393476 -0.017576007 -0.04465421 -0.03935136 -0.021193413 0.029978475 -0.030326111 -0.027539087
-0.020519465 -0.054089822 -0.051089026 -0.04042948 -0.06707798 0.007833401 -0.030861055 -0.005173018
-0.045296222 0.050364446 -0.032626472 -0.047002412 -0.06258124 0.030264704 -0.01424191 -0.003990698

network_body._body_endoder.seq_layers.0.weight f4 [256, 158]
00000000: 3707 bbbc 8e54 8f3d 8674 30be 0a96 0b3c
00000010: 7b2d ee3d e6d1 b2bc c743 763c ee11 5abb
00000020: f08d 0dbe c69f ba3d 0770 103d 2fa2 913d
00000030: 264b bc3d d456 19be 397a d6bc 0898 36bd
00000040: 9a40 0bbe 7c16 03be 66c9 0e3d 2c66 0ebe
00000050: 4cda b7ba 3026 aebc 23dd 02be b907 c93b
00000060: b41a 94bd ac5f ac3c 0b42 133e 5dea 4d3d
00000070: 1f1b febd 2a25 0c3d f209 a0bd dbc5 cbbc
00000080: b907 0abe 2db4 c4bd c76b 673c 2694 4e3e
00000090: ca4e 8bbc 9f69 953d 59cb f13c 8fa7 013e
000000a0: c269 cabd 972a 84bd b938 85bd 1983 f93d
000000b0: a2d9 63bd e3d2 5e3d b34a cc3c 9884 ecbb
000000c0: 620a 85bc 96ab e2bd 4fa4 08be e9a4 37bd
000000d0: 51c6 fdbb 89b2 1a3d 6184 a8bd d2af 973d
000000e0: cad3 e83c 01cb 0f3d a572 093e b9a5 92bd
000000f0: 846f 9dbc 2798 8f3d 55c4 9e3c a83d 9fbb
00000100: e222 e7bd 05e9 b13d dc29 13bd 7944 b3bd
00000110: 5598 24be ff9c 8ebc 909e 4fbd 7949 3f3c
00000120: 421f 92bd e3b9 f63c 982d 7a3d 0211 313e
00000130: 39de 9cbd 0ccd 3bbe 5417 61bb ecdf 853c
00000140: b0df 3d3d e747 40bd 39e5 d1bd 3e28 423b
00000150: 3638 6cbd f9d9 1f3d 95dc 01be b3e0 ae3d
00000160: b54e a63d 601a 433d dfbd 2c3e 3570 95bd
00000170: 9b02 8d3d f189 8b3d f981 8d3c 73ca 1e3d
00000180: c17e dd3d 1118 033c 47cd bebd fe8f 71bd
00000190: 1f0d 513d 6bcd f13c 4478 53bd e748 15bd
000001a0: 76f4 4e3d 2a63 ff3d a3ba 0f3d e70f 0e3d
000001b0: 95aa 9fbd 716c 30bd c972 a53a 9a4f 983c
000001c0: 08f7 dbbd ea23 41bd f504 063d 2465 ee3b
000001d0: 8e79 173e 0027 0e3c cbeb b93d 665e 8bbd
000001e0: 4d18 f83c be39 82be 561d adbd 9aa4 493d
000001f0: dbaa 17bb 92d6 983b 70a1 9fbc 575c a8bc
00000200: 1388 773d 7987 653d 75af 65bb f76d dd3c
00000210: 3923 67bd 75bc 043d 7068 73bd 1c1c 6e3d
00000220: be41 dc3c 7a69 1e3d 0be8 5b3d 1c65 8fbd
00000230: bfe4 94bd 94b1 a6bc 600d a3bd b492 3cbd
00000240: c342 5b3d 5d01 c03d ac99 a7bd 3d87 6fbd
00000250: 1a3b d7bc 0c99 433d 0ddb bc3d 1c0c b03c
00000260: d623 a5bd 05bb 9fbc 51f6 8b3d 9ac7 36bd
00000270: ade5 79bd 71a5 22bd 6cb8 9b3d 10e5 f93d
00000280: 174a b13d b320 273e 3db5 2c3d ba07 7fbd
00000290: ae62 cb3c fad4 53be 4b5f 83bd c9af a43d
000002a0: 6ca2 853d 2910 863d bebf 0f3d 4b4f cabd
000002b0: 7d67 cf3d edeb e93c 9705 943b aeec 62ba
000002c0: c5af b83d 73a6 70bd 951c c33c 5c0f c3bd
000002d0: 5808 90bd 9323 a13d ec45 a2bd 06e4 fa3d
000002e0: 191c 77bd 6bc2 b9bc ac97 bbbd 412e b9bd
000002f0: 98c1 1cbe d7cc 25be 2edd 11be df84 ac3d
00000300: fb26 523d 400d 0bbe 0cb6 aebd 9b71 333d
00000310: 4687 ebbd c123 cc3d eb27 91bd 3f19 87bc
00000320: f72f d7bd 7db2 1dbd f09a b9bc decd 633d
00000330: ea72 f83b 478e f63d 32a0 793c b182 8d3d
00000340: df72 1dbd 24fd 43bc c7cd a73d f67b 293d
00000350: ce3c 73bb 82fe 1f3d d9ef 76bd 569b d3bd
00000360: 29b1 ff3c e30a 423c d75f aa3d a00a 163d
00000370: c57a 38bd d694 dc3c da4f 31bd 2d47 753d
00000380: 15f7 513d 23a3 18bd 22c2 f13c 4e4f eb3d
00000390: de95 363d ef6c 15be 55a8 e93b 0926 cdbd
000003a0: ddf2 ae3d dae5 913d 17fe 0d3c c60d f23c
000003b0: f53c 013e 075f d93d 69cd 7dbd b663 84bc
000003c0: 578b 7c3d 3b14 23be 251d e13d 7edb 7bbc
000003d0: e5e5 a43d 1ee4 c2bd 4747 0f3c 7fc3 f7bc
000003e0: 3d2e 53be a3f5 9d3d 0670 293d 8b58 2a3e
000003f0: 662a 733c e6af 5f3d 0fd9 0dbe 2eb1 dc3c
-0.022830589 0.069985494 -0.1723195 0.008519659 0.116297685 -0.021828603 0.015030808 -0.0033274847
-0.13823676 0.091125056 0.035263088 0.07111012 0.09194021 -0.14974529 -0.026181327 -0.044578582
-0.13598862 -0.12801546 0.034860037 -0.13906163 -0.001402685 -0.021258444 -0.1277967 0.006134954
-0.07231656 0.021041714 0.14380662 0.050272334 -0.12407517 0.03421513 -0.07814397 -0.024874618
-0.13479508 -0.09604678 0.014124817 0.20173702 -0.017005343 0.07295536 0.029515909 0.12661575
-0.09883453 -0.06453436 -0.065049596 0.12183208 -0.055627473 0.054400336 0.024937963 -0.007217955
-0.016240302 -0.11067884 -0.13343929 -0.044835005 -0.0077445884 0.03776792 -0.08228374 0.07406582
0.028421301 0.03510571 0.1342264 -0.07160515 -0.019218214 0.07011443 0.019380728 -0.004859645
-0.1128595 0.08687023 -0.035928592 -0.087532945 -0.16073735 -0.017408846 -0.050688326 0.011675232
-0.07134868 0.030117935 0.061078638 0.17291644 -0.07659573 -0.18339938 -0.003434618 0.016342126
0.046355903 -0.04694357 -0.10248799 0.0029626037 -0.057670794 0.039026234 -0.12681802 0.08538952
0.08120481 0.047632575 0.16869305 -0.072967924 0.068852626 0.068134196 0.01727389 0.03876729
0.10815192 0.008001343 -0.09316497 -0.058975212 0.051037904 0.029516896 -0.051628366 -0.03644648
0.050526105 0.12470086 0.0350901 0.034683134 -0.07796208 -0.043072168 0.001262271 0.018592644
-0.10740477 -0.04715339 0.03271957 0.0072752405 0.14792463 0.0086762905 0.09078177 -0.068051144
0.030285025 -0.2543468 -0.08452861 0.049229242 -0.002314261 0.0046642506 -0.01948616 -0.020551844
0.060432505 0.0560374 -0.0035047207 0.027029974 -0.056430075 0.03240629 -0.05942577 0.058132276
0.026886817 0.03867481 0.05368809 -0.07001707 -0.07270192 -0.020348348 -0.079615355 -0.046038345
0.053530466 0.0937526 -0.081836075 -0.058478583 -0.026273299 0.04775338 0.09221468 0.02149015
-0.08063476 -0.019498358 0.068340905 -0.04462395 -0.06101005 -0.03970856 0.07603535 0.12201893
0.0865671 0.16321068 0.04216503 -0.062263228 0.024827328 -0.20686713 -0.0641466 0.08041341
0.0652512 0.06546051 0.03509497 -0.09878405 0.10127161 0.028554881 0.004517268 -0.0008656484
0.090179004 -0.05875249 0.02381734 -0.09524414 -0.070328414 0.07868113 -0.07923493 0.12250523
-0.06032953 -0.022675714 -0.091597885 -0.09042025 -0.15308225 -0.16191421 -0.1424453 0.08423781
0.051306706 -0.13579273 -0.085308164 0.043809514 -0.11500411 0.09967757 -0.07087692 -0.01649153
-0.105071954 -0.038500298 -0.022656888 0.055616252 0.007582058 0.12038856 0.015235947 0.06909693
-0.038439628 -0.011962209 0.08193546 0.041377984 -0.00371151 0.039061077 -0.06028733 -0.10332362
0.031212406 0.011843416 0.08319061 0.036631227 -0.045038957 0.02692644 -0.043289043 0.05988233
0.051261026 -0.037264954 0.029511515 0.114897355 0.04457652 -0.14592336 0.0071306624 -0.1001702
0.08542416 0.07123919 0.008666537 0.029547583 0.1262091 0.10613828 -0.061963473 -0.016160827
0.061656322 -0.15925686 0.10991887 -0.015372155 0.080516614 -0.09516166 0.008745021 -0.030244587
-0.20623107 0.07712867 0.0413666 0.16635339 0.014841652 0.05461111 -0.13852333 0.026939955

network_body._body_endoder.seq_layers.2.bias f4 [256]
00000000: 6ee9 5e3b 6519 8cbd 2916 86bb b796 ee3a
00000010: 1c1c cabc f675 03bd 504c f6bb 066b 07bd
00000020: 20fd 813a 4082 1abc 6c55 1abd 0634 b1bc
00000030: c2fb 7abd 98dc 88bb 4354 6dbc 3914 cdbc
00000040: bb4d 56bd 2adc 2ebd ffff 42bd d646 4ebd
00000050: 84f9 20bd bee8 65bc 2762 48bd 8207 19bd
00000060: 5838 65bc 435e 1cbd 3e95 3cbd 1441 603b
00000070: 68a5 9cbc fb21 5d3d 8cc1 9ebc 1a7c fcbc
00000080: 8784 4b3d d290 193d 94b4 c8bc cd82 19bd
00000090: d86a 9bbc ee8a 0dbd e9e1 4fbd 6bca 13bd
000000a0: 8746 0cbd c49b 93bc f922 29bd 54ec 51bd
000000b0: 5905 45bc 91f7 053d a9a0 2dbd 7c4e 06bd
000000c0: 5d10 003d d95c 1ebd f69b 003a 5aff aabc
000000d0: a8bd 6ebc cbde 5fbd 8190 aebc c3d3 1bbd
000000e0: 25b4 cebc ea22 8abc aec1 acbc ff4e c1bc
000000f0: 9bbd 17bd dcdc 19bd e265 9dbc 5bab eabc
00000100: 75f7 04bd 8b13 4bbc 7fed f7bc 2c2e b8bc
00000110: b978 63bd bcab 2d3d c213 933a d61b 26bc
00000120: 19d3 04bb 25f2 07bd 9f48 efbc f4bd c8bc
00000130: 7092 e9bc a7f8 9e3c 1241 cebc 9bb0 1bbd
00000140: 672d 27bd aa3b 4ebd 4420 17bd 77cb 49bd
00000150: 04c2 bbb8 6d6e a03c 4a0c d6bc 6fc3 95bc
00000160: 4b27 2dbd 2d34 e8bc c787 73bd 88af 07bc
00000170: bfbc 95bc 446a d5bc 5e66 eebb b78f 2ebd
00000180: d073 74bd dc90 6fbd 7ee1 15bd 5d13 f5bc
00000190: 7739 80bc eb48 07bd 7971 43bb 867b 12bc
000001a0: a4bc fcbc 7d10 94bc 5607 02bd 4ce5 14bd
000001b0: 6cd3 b2bc 67c1 00bd 9801 f9bc 13af bbbc
000001c0: 0b32 2abd 016c 90bb 5564 403c 7fc6 f0bb
000001d0: d106 27bd cebc f5bc 0048 19bd 3590 653c
000001e0: d656 fa3b 85b6 37bd c924 73bd 80f8 2a3c
000001f0: 4b54 13bd 8ebe 9f3c 14a9 8ebc 713e 62bd
00000200: 427b 4abc 6a01 44bc dd66 11bd 2b82 08bd
00000210: 02b5 3bbd c4f8 febb 1915 69bd 35e5 14bc
00000220: fee5 903c dd1b 36bb eaa4 f03b eb84 c0bc
00000230: c3d9 08bd 40d4 dfbc d71e 46bd d8d5 fdbc
00000240: 3c6d a7bc 5379 0fbd d282 2cbd 6c84 f8bc
00000250: 547e 1cbb 6ea6 543c 0d03 1abd b134 24bb
00000260: 747f c0bc 85a8 cebc 48d4 0a3c 5654 8ebc
00000270: 6b9c fcbc 8616 dbbc 0640 62bd 1b95 7dbc
00000280: 552a 6c3c 93aa 32bd 29d3 21bc 9c20 19bd
00000290: 5a29 41bd 7cd7 d13b 73c8 90bc e9eb e3bc
000002a0: 473f 08bd 97cc c8bc fa14 45bd a1c5 993b
000002b0: cc14 edbc 7c9b 0c3b 3cd2 97bc 65c8 1abd
000002c0: 950d c3bc 77dc afbc d37e 4bbd 61c5 b9bc
000002d0: c9c4 18bd 28fa 37bd b010 18bd 5625 13bd
000002e0: 5b22 2bbd 536c 51bc fb43 3abc b0ce 01bd
000002f0: 7bfa 45bd 3659 003c cb28 8fbd 55e4 18bd
00000300: 924e 01bd af8a edbc a4f5 44bd c62d 3b3c
00000310: 2d82 993c a068 203d 276c 0bbd a2d1 b9bc
00000320: 5c25 a9bb 0436 59bc 9bce f4bc 929f 5fbd
00000330: 6990 cdba 67cd 05bd e5c5 073d 5432 c6bc
00000340: 19fa 0ebd 3fdf 5fbc 8d3e 043c f0a1 06ba
00000350: 3168 33bb 6c79 27bc b676 9fbc 72c7 93bc
00000360: 1a48 783b 02d9 44bd 7a9f 02bd 1034 233c
00000370: b03c 28bd 9dea 1abd 79a8 b23a 16e6 19bd
00000380: 115a 6abc 6502 03bd 0165 243b 2e8d 5abd
00000390: fbb4 31bd be6d 0cbd 5232 8abc 989b 99bc
000003a0: 3b40 10bc 4531 e7bc 17bf 043c 6218 48bd
000003b0: 8496 aabc 196b 09bc ed48 24bc 6221 cbbb
000003c0: 7272 663c 5842 663c 08de f8bc a4be 063c
000003d0: 9639 47bc abc1 3dbd 76d3 4bbd 746b 1a3d
000003e0: 506d 053d 687b 4ebd 8bc2 f03c 276b 28bc
000003f0: 2de7 e0bb 2c0b 48bd ac34 80bc 1cd2 22bd
0.0034013647 -0.06840781 -0.004091997 0.0018202876 -0.024671607 -0.03209492 -0.0075164214 -0.03306105
0.0009917356 -0.009430468 -0.03767912 -0.021631252 -0.06127525 -0.0041766874 -0.014485422 -0.025034057
-0.052320223 -0.042690434 -0.04760742 -0.050360523 -0.039300457 -0.014032541 -0.04892173 -0.037360676
-0.013990484 -0.038175832 -0.046040766 0.0034218477 -0.01912184 0.053987484 -0.0193794 -0.030820895
0.049686935 0.037491627 -0.024500169 -0.037478257 -0.018971846 -0.03455632 -0.050752554 -0.036081713
-0.034246948 -0.01801861 -0.04129312 -0.05125077 -0.012025201 0.0327068 -0.042389546 -0.032789692
0.031265605 -0.038662765 0.00049060525 -0.020873714 -0.014571585 -0.05465583 -0.02130914 -0.03804375
-0.025232384 -0.016862351 -0.021088447 -0.023597239 -0.037046056 -0.037564144 -0.01921362 -0.028646162
-0.032462556 -0.012394796 -0.030264614 -0.022482954 -0.055535052 0.042400107 0.0011221098 -0.010138473
-0.0020267426 -0.03318991 -0.029209433 -0.02450464 -0.02851221 0.019405676 -0.025177512 -0.03801022
-0.040814783 -0.05034987 -0.036896005 -0.049266305 -8.952993e-05 0.019583905 -0.026128907 -0.018281667
-0.0422738 -0.028345192 -0.05945566 -0.008281596 -0.018278478 -0.026051648 -0.0072753867 -0.042617526
-0.05968076 -0.058487758 -0.036592 -0.02991646 -0.015652401 -0.033028524 -0.0029822274 -0.008940583
-0.03085167 -0.018074268 -0.031745277 -0.036351487 -0.02182933 -0.031434443 -0.030396268 -0.02291063
-0.04155163 -0.0044074063 0.011742671 -0.0073478813 -0.040777985 -0.029997256 -0.03742218 0.014011432
0.007639746 -0.0448518 -0.059361253 0.010435224 -0.03596906 0.019500043 -0.017414607 -0.05523533
-0.0123584885 -0.011963228 -0.03549849 -0.033327263 -0.04582692 -0.00778112 -0.056904886 -0.00908785
0.017687794 -0.0027787604 0.007343878 -0.02350088 -0.0334108 -0.027322888 -0.048369255 -0.030985758
-0.02043783 -0.035027813 -0.042116947 -0.030336581 -0.0023879008 0.012979133 -0.037600566 -0.002505582
-0.023498274 -0.02522684 0.008473463 -0.017374199 -0.030836305 -0.026744138 -0.05523684 -0.015477444
0.01441439 -0.043619704 -0.009877005 -0.037384614 -0.047158577 0.0064038616 -0.017673707 -0.027822452
-0.03326347 -0.024511619 -0.048115708 0.0046927487 -0.02894058 0.002145498 -0.018532865 -0.037788767
-0.023810187 -0.02146743 -0.049681496 -0.022677125 -0.037297044 -0.044916302 -0.03712529 -0.03592428
-0.04178081 -0.012782174 -0.011368747 -0.031691253 -0.04833458 0.00783377 -0.069902025 -0.03732713
-0.03156907 -0.028996794 -0.048085824 0.011424487 0.01873883 0.03916228 -0.03403869 -0.022682969
-0.0051619243 -0.013257507 -0.029883673 -0.054595537 -0.0015683296 -0.03266659 0.03314771 -0.02419392
-0.03490648 -0.013664066 0.008071554 -0.0005135825 -0.0027375335 -0.01022182 -0.019465785 -0.018039439
0.0037884773 -0.048058517 -0.03189037 0.009961143 -0.0410735 -0.0378214 0.0013630531 -0.037572943
-0.0143037 -0.031984705 0.0025084617 -0.053357296 -0.043385487 -0.034284346 -0.016869698 -0.01875095
-0.008804376 -0.028221736 0.0081022 -0.04885138 -0.020823725 -0.0083873505 -0.0100271525 -0.006199048
0.014065372 0.0140539035 -0.03037931 0.008224163 -0.012159726 -0.046327274 -0.04976221 0.03770013
0.03257495 -0.050410658 0.02938964 -0.010279453 -0.006863496 -0.04883878 -0.015650116 -0.039751157

network_body._body_endoder.seq_layers.2.weight f4 [256, 256]
00000000: 9b97 403c 26b5 53bd 65bf ab3d b0b2 38bc
00000010: dd39 54bc b929 2a3d b98a 8d3d 54b0 a2bd
00000020: 4e5d c7bd 5a21 84bd ff91 3dbb 0805 9dbc
00000030: a91f 9e3c 4f87 4b3c 198f 36bd 940e 4c3d
00000040: 864a ab3c ebf4 86bc 69a5 c4bd be18 e6bd
00000050: 4801 c73c 2919 c73d 0dfd 613c d416 fe3c
00000060: 1b58 773c b0ce c63c bdab 5b3d f44e a7bd
00000070: e1d8 eabc 4cb8 06bb 3a55 1e3d ae56 fabc
00000080: b4b6 d83d b848 f1bc 2731 bcbd c1ff adbc
00000090: a4db 40bd ffc6 493d eda3 89bd 5a4e 30bd
000000a0: fab8 5dbd 18db 68bc fe06 993d e7dd 6d3c
000000b0: ec19 a73d 487d 91bd 8e0e d8bd bbd2 82bd
000000c0: 8ce2 79bd 5b1f b33b 4cfa 80bd b709 d2bd
000000d0: 0ab6 21be 0721 cabd d118 d33d 7201 373d
000000e0: 0f6c dc3d 86f4 b03c 9367 4e3d 6f12 da3b
000000f0: 2515 96bd e2cc 9a3d 9d98 4dbc 9d09 f23c
00000100: 5aeb 1fbd 617d 00bc d06b 4b3b a260 943d
00000110: 6d4d b0bd 00d1 7d3c 7fa3 cc3c 657b 4fbb
00000120: 1453 26ba 1c58 253c e980 c73b 65cd 75bd
00000130: 598d 77bd 3562 dd3d 7df8 da3d 06e9 3e3c
00000140: 4c62 873d a848 653d dd4b c9bc 988e b33d
00000150: faf2 9c3d 489c 1fbd a4fb 1b3c 94ad 6b3c
00000160: 4e30 1b3c 9581 73bd 91a0 ae3d 79e6 a1bd
00000170: 9106 5fbd 5c3b 283d 815b a33d 114a 0bba
00000180: dd39 ce3a 2dd6 b0bd 5e67 37bc 3557 6a3d
00000190: 1f36 d53c 0424 f83d ff14 e2bd 2599 363d
000001a0: efd8 3dbc ebeb adbd 90ea 9e3d dc32 fb3d
000001b0: 5ccc d03d e22a 9bbc 4e8b e33c 6815 61bd
000001c0: 5932 dbbc 09b1 2dbd 8332 383d f1d4 083d
000001d0: 0164 9a3d 347d 1cbd 551d 2e3d dfe6 bf3c
000001e0: 995a aa3c 5eae beba 3c4d c0bc 58db 94bd
000001f0: 955f b0bc 66f0 18bd 47d9 31bd de29 483c
00000200: 7117 0b3c 07ec 48ba ffc4 78bd 1ac0 3fbd
00000210: 99f5 0dbd aaf7 8abd 6133 ed3c 7089 4cba
00000220: 32a0 1b3d 36e7 18bd d271 37bd a6ee 393d
00000230: 2ab0 50bd ebb1 b1bd 46d3 31bd 509f 08bd
00000240: 47ff 3c3c e0dd 94bd 31eb a9bd 74e3 d1bd
00000250: 9f18 2cb9 f001 18bd 694b 803d 2f60 dcbd
00000260: 4c4f 8abd a058 4fbc b2ba 923d 417b 51bd
00000270: 3111 c53d 3a70 2b3d 78a1 1f3d 4570 2abc
00000280: 4678 543d e0bc c13d 8e2a 3c3d fd6d a6bd
00000290: 5806 33bd 2878 903d 4451 3dbd 641f 8a3d
000002a0: abfa 193d 4722 a13b 5bf7 6e3d 4273 c5bd
000002b0: eeb6 6ebd bc19 e53b 7865 9a3d 05f6 b8bd
000002c0: d889 77bc 5530 d03d cb97 273d 2568 2f3b
000002d0: 33c6 953d 06f3 0abe 28b5 65bd 85df 0c3d
000002e0: 3b09 48bd ac27 e0bd bdd9 b8bb b2ad 0bbe
000002f0: 042f 4fbc 9446 8cbd 04b9 c5bd 3a3d 06bd
00000300: d4ef 083e 2550 f73a 591c dcbc 7575 86bc
00000310: 7eff 633d fffd 533d 0929 503d 2408 28bb
00000320: b851 45bd 928d 0b3e b9ae 553d 0443 bebd
00000330: 5b9f 42bd d22e 023d f282 9fbd 7008 2c3d
00000340: e9c0 09bd 5b93 dcbd 9e7e 733c 0861 473e
00000350: 6005 c5bb 04fc e73d b2f0 843d 6b0b 823d
00000360: 877e 97bd b401 d93d f9b1 04be 7980 a3bc
00000370: 52d2 c3bd 4336 673d 1370 03ba 7478 0b3e
00000380: cff7 553d cbf6 24bd 1efe eb3c d7e1 4e3d
00000390: 8908 b43d fd5f 483d 5756 1a3d e819 8f3d
000003a0: cb97 453d 9fed 0c3d 00a9 f7bc 651a 953c
000003b0: 2997 02be bf1f eabb 98d7 6b3d 62ac 223c
000003c0: 8229 2cbd 75d2 0c3d a47e 04bb f787 4fbc
000003d0: 15d3 57bd 2da8 93bd 5b6b 0e3d 720f e93b
000003e0: 3b35 193d 9f26 253e 3e3e a93c aeeb 2e3e
000003f0: f2bd a4bd 623e 0cbd 0005 8b3d fdd8 9fbd
0.011754896 -0.05168643 0.08386115 -0.011273071 -0.012953249 0.041543696 0.06911225 -0.07943788
-0.09734593 -0.06451674 -0.0028926132 -0.019167438 0.019302206 0.012422397 -0.044570062 0.04981859
0.020909559 -0.016474208 -0.09601862 -0.11235188 0.024292603 0.09721596 0.013793242 0.031016745
0.01509669 0.024268478 0.05363058 -0.08169356 -0.028667869 -0.0020556627 0.038655497 -0.03055891
0.10581723 -0.02945362 -0.091890626 -0.021240117 -0.047084466 0.049262043 -0.067207195 -0.043043472
-0.054131486 -0.014212392 0.07472037 0.014518238 0.08159241 -0.071039736 -0.10549651 -0.0638785
-0.061007068 0.0054663843 -0.0629774 -0.10255759 -0.15792099 -0.09869581 0.10307468 0.044679113
0.10762798 0.021600973 0.050391745 0.0066550295 -0.07328252 0.075586095 -0.012548593 0.0295456
-0.039042808 -0.007842393 0.0031039603 0.07244994 -0.08608518 0.015491724 0.024980305 -0.0031659242
-0.0006344777 0.010091808 0.0060883653 -0.060010333 -0.060437534 0.10809747 0.10691927 0.011652237
0.066105455 0.055977494 -0.024572307 0.08767432 0.076635316 -0.0389674 0.009520445 0.014384646
0.009471966 -0.05944975 0.08526719 -0.07905287 -0.05444962 0.041072235 0.07976437 -0.0005313466
0.0015733797 -0.08634601 -0.011194078 0.057212073 0.026026784 0.121162444 -0.11039161 0.044579644
-0.0115873655 -0.084922634 0.07759583 0.1226556 0.101952285 -0.018941347 0.027776387 -0.054952055
-0.026757406 -0.042405162 0.044970047 0.0334062 0.075386055 -0.03820534 0.042508442 0.023425518
0.020795153 -0.0014547815 -0.023474328 -0.07268399 -0.021529952 -0.037338637 -0.043420102 0.012217013
0.008489476 -0.00076645653 -0.060734745 -0.04681406 -0.03465805 -0.067855194 0.028955163 -0.0007802462
0.03799457 -0.037329875 -0.044786282 0.04539361 -0.050949253 -0.08676513 -0.043414377 -0.033355057
0.011535472 -0.07268882 -0.08296812 -0.10248461 -0.0001641237 -0.037111223 0.06264383 -0.10760533
-0.06753406 -0.012655407 0.071645156 -0.051142935 0.096224196 0.041855074 0.038972348 -0.010402744
0.051872514 0.09459853 0.04593902 -0.08126447 -0.04370722 0.07054168 -0.04622008 0.067442685
0.03759257 0.0049174163 0.058341365 -0.09641124 -0.058279924 0.006991593 0.07538885 -0.090312995
-0.015108548 0.101654686 0.040916245 0.0026764956 0.07313194 -0.13569269 -0.056080967 0.034392852
-0.048836928 -0.10945067 -0.005641191 -0.13640478 -0.012645487 -0.06849399 -0.096544296 -0.032773234
0.13372737 0.001886849 -0.026868986 -0.01641343 0.05566358 0.0517559 0.050820384 -0.0025639618
-0.048173636 0.13628224 0.05216858 -0.09290126 -0.047515254 0.031782933 -0.07788648 0.042000234
-0.03363124 -0.10770293 0.014861731 0.19470608 -0.0060126036 0.11327365 0.064912215 0.06349834
-0.0739718 0.10596028 -0.12958516 -0.019958721 -0.095616 0.056448232 -0.0005013954 0.13620168
0.05223828 -0.040274423 0.028807696 0.050508346 0.087906905 0.048919667 0.037679996 0.06987363
0.048240464 0.0344063 -0.030231953 0.018201062 -0.12752976 -0.0071448977 0.057578653 0.009928795
-0.042031772 0.034380395 -0.0020217085 -0.012666694 -0.052691538 -0.07209811 0.03477035 0.007112437
0.03740428 0.16128014 0.020659562 0.17082092 -0.08044042 -0.03423918 0.06788063 -0.07805059

network_body._body_endoder.seq_layers.4.bias f4 [256]
00000000: 9594 b13c f650 66bc 3957 2abd fd0c b5bc
00000010: c98f c2bc f714 02bd ee04 96bc 3d44 0abb
00000020: e0cf 81bc 482b 1b3d 6283 07bd 913e debb
00000030: ba95 0ebd 9092 05bd ba55 713c 03dd 4cbc
00000040: 093e 85bc caae 18bd 169c 9f3b 304f 07bd
00000050: 6235 1dbd 08cd e3bc be04 08bd b07d 913b
00000060: f8a8 a4bc 80ac 9bbb b263 5dbc b158 9abc
00000070: 3b29 c63a 06e6 853c 3929 1ebd a4ce 23bb
00000080: c1c1 e139 c3c4 cf3c ad46 45bc 0453 413b
00000090: 7420 b13b e46e bebc fc36 803c 5210 efbc
000000a0: b270 df3a d65c 063b 0dcb 013d e9bd af3c
000000b0: c8d8 fa3c 6bb0 b0ba d958 0fbd bac8 5bbc
000000c0: 4950 c5bc 910b e33b 7367 94bb 3bee e4bc
000000d0: f656 e9bb 470c 9bbc 2cb1 2bbd c783 babc
000000e0: 4bab cabb b148 37bd f4eb 5ebc d05a efbb
000000f0: 7402 02bc a670 e6bc 4c1e 23bd 0b74 1fbc
00000100: a226 f13a 5bed 0e3b 4db6 013c 4345 053c
00000110: 7978 15bd 09c6 cfbc 3c57 5ebc 793d d1bc
00000120: fcb9 5a3c 0087 56bb beb8 57bc 7055 fbbc
00000130: c92c 2bbd 4fa9 ccbb 2dac 94bb a5c0 8ebb
00000140: a2f1 90bb 54e1 b6bc 69e7 51bd 3ac6 38bd
00000150: 245d a23c efe8 d3bc 1e81 38bb f0a6 0abc
00000160: 1e1f adbc a0dc f4bc a171 db3b d0e5 a1bb
00000170: ee6e 48bc 9733 89bc 129b 04bb a08b 44bb
00000180: 347f c93b 2fc5 06bc 524a 923a 60c7 23bc
00000190: d074 873c 534d 1abd 4b4a 3cbc 75b7 80bc
000001a0: bbe8 62bc 9831 92bc cbef 073d 6dc9 e93b
000001b0: c0c5 c6bc 0a4f c9bc 8823 12bd 2094 1abc
000001c0: 69ee 5dbd 7876 34bb 6c48 5d3c a624 5fba
000001d0: b04f 24bc d150 c9bc b204 27bd 6864 3e3c
000001e0: 008e 75bc 7992 9bbc 5001 123d dfb3 49bd
000001f0: 23dd 6f3b a016 15bd d1be 20bc c623 f7bc
00000200: 39d1 31bd a81e 853c 116c 02bd d76f fd3a
00000210: 9c2e 46bc 3ca6 073d 1f4b a7bc 0a1e 05bd
00000220: 57be 9dbc 50c6 34bc f41a aabc f3a8 f0bc
00000230: 5c34 35bd 5c46 cdbc 4f02 95bc dc58 2abd
00000240: 7ad3 3cbc 0a76 41bd 6bc6 a13b a06c e03c
00000250: 7aeb 24bd 6b34 17bd f5d7 04bd d8e8 69bd
00000260: bc68 ccbc f4da e3bc 9388 a63c 174b 86bc
00000270: 569b e7bc a827 fbbc 4946 44bc 550d 21bc
00000280: 34d5 323b fa92 4fbd 11ef 9bbc b0ca b4bc
00000290: 3fde 13bd 59d2 afbc 4268 3cbd 77ae f83a
000002a0: 8ad0 9cbb 0274 c9bc 0e90 7ebc 3541 5bbc
000002b0: a13a 71bc 202b 7d3b b3b2 00bd aded 11bd
000002c0: f712 e4bc e86d 893b 9a08 4fbc 88fd 57bc
000002d0: 800b 9d3a e061 b6bb 811d e4bc 5c78 0abc
000002e0: abf6 24bc 0e4e aabc 8f0f e9bc 7d1b 6dbd
000002f0: 6807 9f3c 9e20 313b 7730 28bd d5a3 503c
00000300: 1d94 bbbc 905e c6ba 7906 38bc f5b1 98bc
00000310: c3a8 95bb 65f9 b5bc 7b77 9e3c e2b9 37bd
00000320: d4f1 83bc db6c 243d 7a91 1bbd 2ca8 4cbb
00000330: 212e 62bc 1953 ad3c a2c8 c2bc 879b 1ebd
00000340: df8d 0fbd 4a38 f5bc 4258 f93b d1ac d5bc
00000350: 1172 4f3b d157 6dbd 88f2 163c a816 84bc
00000360: 9ae7 043c 2659 2abd dc02 c7bc c54a f83b
00000370: 55d5 133d 7290 70bc fa28 24bd b5ab fdbc
00000380: 36b8 ebbc 0bd8 77bb 69c8 2bba ea96 4b3c
00000390: 1e6b 45bb 4259 06bd b328 24bd b6a2 5abc
000003a0: ece8 e9bc a7ef af3c 647a 23bd bd61 99bb
000003b0: 43e6 0dbd 7e7c 15bd c5c9 60bb a121 b7bc
000003c0: 5777 cfbc 6af4 56bc 4357 27bd e5d3 9fbc
000003d0: 8f07 cabc d551 243c 4fa8 51ba 760a 35bd
000003e0: a838 b1bc 3448 62bd 28db 473c 0bfc ac3a
000003f0: d390 373b c87c cdbb 9b14 5a3d 5ea6 3d3b
0.021677295 -0.0140573885 -0.04158709 -0.02210092 -0.023750203 -0.031758275 -0.018312898 -0.0021097802
-0.015846193 0.037883073 -0.03308428 -0.006782361 -0.03481076 -0.032610476 0.014729911 -0.012503865
-0.016264932 -0.037276067 0.004870902 -0.033034503 -0.038380988 -0.027807727 -0.033207648 0.004440032
-0.020100102 -0.004750788 -0.013512539 -0.01884112 0.0015118489 0.016345035 -0.03861353 -0.0024994994
0.00043059702 0.025362378 -0.012040776 0.0029498944 0.00540548 -0.023246236 0.015651219 -0.029182587
0.0017047136 0.0020502112 0.031687785 0.02145286 0.030620947 -0.0013480311 -0.03499684 -0.013414556
-0.024086135 0.006928869 -0.0045289337 -0.027945628 -0.0071209623 -0.018926753 -0.04191701 -0.022767914
-0.0061849705 -0.04474706 -0.01360606 -0.007304527 -0.007935155 -0.028129887 -0.039823815 -0.009732257
0.0018398354 0.0021808955 0.007916999 0.008134189 -0.036491845 -0.025362985 -0.013570603 -0.025542008
0.013350006 -0.0032734275 -0.013166605 -0.030680388 -0.041790757 -0.006245769 -0.0045371265 -0.004356461
-0.004423336 -0.022324242 -0.05124608 -0.04511092 0.019819804 -0.025867907 -0.0028153132 -0.008462653
-0.021133002 -0.029890358 0.006696895 -0.004940726 -0.012233479 -0.016748233 -0.002023403 -0.002999045
0.006149197 -0.008225723 0.0011161065 -0.009996265 0.016535193 -0.0376714 -0.011492322 -0.01571248
-0.013849433 -0.017845914 0.03318767 0.0071346075 -0.024264216 -0.024573822 -0.035678416 -0.00943473
-0.054182444 -0.0027536433 0.013506036 -0.0008512236 -0.010028765 -0.02457467 -0.040775962 0.011620618
-0.014987469 -0.018990742 0.035645783 -0.049243804 0.0036600314 -0.03639853 -0.009811119 -0.030168425
-0.04341242 0.01624997 -0.03184134 0.0019335699 -0.0120960735 0.033117518 -0.020421563 -0.03249935
-0.0192558 -0.0110336095 -0.020764805 -0.029377436 -0.044239387 -0.025057964 -0.018189577 -0.04158865
-0.011525029 -0.04723171 0.0049369833 0.027395546 -0.04026363 -0.036915224 -0.032432515 -0.057106823
-0.024952285 -0.027814366 0.020328796 -0.016393228 -0.028272312 -0.030658558 -0.011979648 -0.009829839
0.0027287723 -0.050677277 -0.019034894 -0.022069305 -0.036100622 -0.021462606 -0.045997865 0.0018972893
-0.004785602 -0.02459145 -0.015537275 -0.013382246 -0.014723451 0.003863044 -0.03142042 -0.035627056
-0.027841074 0.00419401 -0.012636328 -0.013183005 0.0011981577 -0.005565867 -0.0278461 -0.0084515475
-0.010068576 -0.020789173 -0.028449802 -0.057887543 0.019412711 0.0027027498 -0.041061845 0.012734373
-0.022897774 -0.0015134383 -0.011232012 -0.018639544 -0.004567237 -0.022213647 0.019344082 -0.044855006
-0.016106524 0.040142875 -0.037980534 -0.0031228168 -0.013804943 0.021157788 -0.02377731 -0.03872254
-0.03504741 -0.029934067 0.007609398 -0.026083382 0.0031653682 -0.057945076 0.009213097 -0.016124085
0.008111859 -0.041588925 -0.024293356 0.0075772726 0.03609212 -0.014682876 -0.04007814 -0.030965665
-0.028774362 -0.003781798 -0.0006552996 0.012426117 -0.0030123661 -0.032799967 -0.040077876 -0.013344457
-0.028553449 0.02147658 -0.039911643 -0.0046808408 -0.034643423 -0.036495678 -0.0034299952 -0.022354903
-0.02532546 -0.013119796 -0.040854704 -0.019510219 -0.024661807 0.010029276 -0.0007997797 -0.04419943
-0.021633461 -0.05524464 0.012198247 0.0013197673 0.0028009906 -0.0062709786 0.053242307 0.0028938274

network_body._body_endoder.seq_layers.4.weight f4 [256, 256]
00000000: 3a03 81bd 39cc 3abd 7ab5 14bd eadd d63b
00000010: 5438 c6bd 68f8 523d f5ce d83d df9c 1c3e
00000020: 0fb9 cbbc 6ae6 b53d 8dfb cbbc 1066 213d
00000030: f41d 0cbd 22d4 403d d535 0b3c e2b0 d9bd
00000040: 143d 00bd a9ed 8abb 97ab b1bd d500 aebd
00000050: 4d03 333c 60fc 53bd 81f8 c1bd 82d3 903d
00000060: a90d 273e 7ffb 17bd cc42 68bd 0525 b73c
00000070: a8d7 cc3c 7380 8d3d 5041 29bd 4f45 b8bc
00000080: fc71 df3c a54e 2d3e 36f3 14bc 6174 893d
00000090: 51b5 27bd 335c e0bd c198 db3c c955 3abb
000000a0: f026 903c 6a97 3a3d 4ee3 02be b2b2 3abd
000000b0: 93c8 54bd 2555 883d a46e 11bd a4ea 6bbd
000000c0: 9ed6 c63c 2157 883d d066 0a3d 6f4f 4dbd
000000d0: 797e e83d 3ced febc 58e2 bfbc d9e3 05be
000000e0: 727c ea3c 1857 c6bc 151a 383d f978 4cbc
000000f0: 6508 67bd 3bc2 8a3d bcfb fcbb 6aeb aebd
00000100: e275 38bd 2e04 283d 97f7 f4bc e4a0 cdbc
00000110: 1274 bc3d 5329 9fbc 0ff6 e33c 7075 c0bd
00000120: d5e2 e1bc aa6e b939 0022 6dbb 232c a73d
00000130: 6fbd a13c 4988 f23d e6a8 c83c f4d0 a7bd
00000140: 46bf e1bc 10b5 12bd d400 96bd d07b c8bb
00000150: f5bb 043d bf92 bf3c 86cd 673d 838c 4a3d
00000160: def5 433d 3761 64bd 5ea5 d1bd 1d9d 283e
00000170: ed35 e13d 07fd a3bc ac7a 973d ef91 bdbd
00000180: adb7 ccbc b678 8abd 6513 36bd 397d 243d
00000190: 583d 043b f42a 37bd c3fa f73c 4413 983d
000001a0: b919 1cbb 10d6 4f3d 97a9 dc3d cbc0 88bd
000001b0: 8c02 c1bd fc83 b8bd 5d1d 893d 8c8b 4cbd
000001c0: 3078 f2bc b598 13bc 0f7d ac3d 1040 9fb9
000001d0: 64a5 fabc 079f 10be 8bc8 65bd e6ba 2c3e
000001e0: e43b e73c 5961 b93c e05e a8bc 8c6c f3bd
000001f0: 0793 283b 86b1 813a 076c a03c f834 a6bc
00000200: ed6c debd 7f57 c3bc 513a a1bd 0156 88bc
00000210: 04d8 4cbd 4762 88bc df93 38be 82ad 653c
00000220: 8355 cc3d ef77 4cbd 7064 d3bd c87f e4bd
00000230: f0cf 253d 1736 19bd 5349 223d c735 40bd
00000240: 0cc5 94bd efb8 34bc ac65 c1bd 2634 0d3c
00000250: 47f9 f43a 2d55 b73c 5670 9d3b 086d cebc
00000260: 59ac ad3d f888 22bb 2b83 183d fd6f 363c
00000270: f7e7 7bbe ce3a bbbd 8545 543d d82c de3b
00000280: e2dc c13d fe97 56bc 079c 843d 9430 ec3c
00000290: 8c01 e33c 03c9 9a3d 4f07 383c fa70 2dbd
000002a0: b51f dabd 0e38 81bc 6fbb 9f3d aab0 2c3d
000002b0: cada 323d 41a4 28bd 5f5e ac3c b4e6 133d
000002c0: 5797 823c 94d1 c53b 3b2c c1bc d767 07bc
000002d0: c5e0 79bd 789b b73b ac86 40bd 8638 35bd
000002e0: 2e18 1bbe 38c2 e4ba 536b 06bb 0082 5dbd
000002f0: 6524 a1bd 0b85 983d 60b0 f7bd 43f3 03bd
00000300: e55d 61be 5c75 b13c 098f 31bc 91bc de3d
00000310: 7cf2 83bc 3dcb de3d 62b0 3abe 7ec8 82bd
00000320: 7ad3 45bd b822 463d ba9d 2fbd a100 c23a
00000330: 6518 803d 29ee 293d 77a2 8a3d 701c cfbc
00000340: ccb5 00bd 8086 1bbe 74b9 56bd f603 f1bc
00000350: 55a5 bbbd d1ef fd3c b478 db3c 48a0 cd3b
00000360: 5492 b4bd 5d6e 5c3d 164c b23c 4ebd 0ebb
00000370: 6b40 dabc 11ee 9bbd b82d 07be ccd4 13bd
00000380: d1fd 11bd c538 8fbd 7819 173d a478 b3bd
00000390: 3397 f6bd 0d54 1ebd f09d ddbb 7546 4d3c
000003a0: 7c87 b0bc 67aa e0bb 9722 143e 06b5 39be
000003b0: b832 b1bc 2153 8f3c 7eb6 22be d632 903c
000003c0: 4828 d23b 8cc7 3ebc 7bcb 49bc d49f 2c3d
000003d0: 890b b03d 330a 483d d412 dabd 0d3c b63c
000003e0: 6c2a a3bc eb94 a6bc 9f6b a23c ca3b 96bd
000003f0: 5d99 ef3a 8b0f 423d 8d1b b53c 26e7 133d
-0.062994435 -0.04560492 -0.036305882 0.006557216 -0.096787125 0.05150643 0.10586349 0.15294217
-0.024868516 0.088818386 -0.024900222 0.039403975 -0.034208253 0.047077306 0.008496721 -0.10629441
-0.03130825 -0.004239757 -0.08675306 -0.084962524 0.01092608 -0.051754355 -0.094712265 0.07071592
0.16313805 -0.03710508 -0.056704327 0.02235652 0.025005177 0.06909265 -0.041322052 -0.022493986
0.027276032 0.16924532 -0.009091189 0.06711651 -0.0409444 -0.109550856 0.026806237 -0.002843248
0.017596692 0.045554556 -0.12782022 -0.045580573 -0.051949095 0.06656865 -0.035505906 -0.057596818
0.02427226 0.066572435 0.033789456 -0.050124582 0.11352248 -0.031118982 -0.023423359 -0.13075198
0.028623793 -0.024211451 0.04494675 -0.012480014 -0.05640449 0.06775328 -0.0077204388 -0.085409954
-0.045034297 0.04101961 -0.029903216 -0.025101133 0.09201826 -0.019428885 0.02782729 -0.093973994
-0.027573982 0.000353684 -0.0036183596 0.08162715 0.01974365 0.118424006 0.0244946 -0.081941515
-0.027557027 -0.035817206 -0.07324377 -0.006118275 0.032405812 0.023385404 0.056592487 0.04945041
0.0478419 -0.055756774 -0.102366194 0.16466184 0.10996614 -0.020018114 0.07396445 -0.0925635
-0.024989927 -0.06761305 -0.04445209 0.040158484 0.0020178165 -0.044718698 0.03027094 0.074255496
-0.0023819043 0.050741255 0.10774534 -0.06677397 -0.09424314 -0.09009549 0.06695054 -0.04993777
-0.029598325 -0.009008576 0.084222905 -0.00030374574 -0.030596443 -0.14123164 -0.056099456 0.16868171
0.0282268 0.022629427 -0.020553052 -0.11885938 0.00257224 0.0009894825 0.019582761 -0.02028893
-0.1086062 -0.023845432 -0.07872451 -0.016642572 -0.050010696 -0.016648425 -0.18025158 0.014018418
0.099772476 -0.049919065 -0.10321891 -0.11157185 0.040481508 -0.0374051 0.03962071 -0.046926286
-0.07264146 -0.01103042 -0.094432205 0.00861839 0.0018690013 0.022379482 0.0048046513 -0.025198475
0.08480138 -0.0024800878 0.037234467 0.0111350985 -0.24600206 -0.091420755 0.05182411 0.006780248
0.09465958 -0.013097761 0.06475072 0.028831758 0.027710699 0.07557871 0.011232211 -0.04234407
-0.10650579 -0.0157738 0.07799422 0.042160667 0.043665685 -0.04117227 0.021041093 0.036108688
0.015941305 0.0060369466 -0.023580661 -0.008264503 -0.061005373 0.00560325 -0.047003433 -0.044243358
-0.15145943 -0.0017452901 -0.0020510748 -0.054079056 -0.0786827 0.07447251 -0.12094188 -0.032214414
-0.22008474 0.021662407 -0.010837325 0.1087581 -0.016106836 0.108786084 -0.18231347 -0.06385897
-0.048297383 0.048372954 -0.04287503 0.0014801213 0.06254653 0.041486893 0.06769269 -0.025282115
-0.031423375 -0.15188026 -0.052422956 -0.029420834 -0.09162394 0.030998142 0.026790954 0.0062752105
-0.088169724 0.053816188 0.021764796 -0.0021780315 -0.026642045 -0.07613767 -0.13201034 -0.03609161
-0.03564245 -0.0699325 0.036889523 -0.08763245 -0.12040558 -0.038654376 -0.0067632124 0.012529005
-0.021548979 -0.006856251 0.1446632 -0.18135461 -0.02163063 0.017495694 -0.15889928 0.017602365
0.0064134933 -0.011644255 -0.01231658 0.04214461 0.0859595 0.04883785 -0.106481224 0.022245431
-0.01991769 -0.020334681 0.019826708 -0.073356226 0.0018279959 0.047378104 0.022107864 0.036109112

network_body.observation_encoder.processors.0.normalizer.running_mean f4 [25]
00000000: 8cdb 803c 46b4 813c 0000 0000 d5eb 773f
00000010: 37f4 7c3f c197 bc3c 5418 e635 0000 0000
00000020: f91a 7a3f 8bf6 7d3f 5999 013e 0000 0000
00000030: 0000 0000 e199 5f3f 58c0 783f ee2e 093e
00000040: 0000 0000 0000 0000 0eb4 5d3f 1ffe 743f
00000050: ee2e 093e 0000 0000 0000 0000 0eb4 5d3f
00000060: 1ffe 743f
0.015729688 0.015833031 0.0 0.96844226 0.9881014 0.02302158 1.7143416e-06 0.0
0.97697407 0.9920432 0.12656154 0.0 0.0 0.87344176 0.97168493 0.13396809
0.0 0.0 0.86602867 0.9570026 0.13396809 0.0 0.0 0.86602867
0.9570026

network_body.observation_encoder.processors.1.normalizer.running_mean f4 [25]
00000000: a824 dc3e 7f88 963d 950d ba39 cc0a fe3e
00000010: 4fe7 5a3f c9a8 ec3e 80d7 583c f7d9 e039
00000020: 1e2c 063f 7fa8 593f d94e c93e e9cd 603c
00000030: e986 4d3a c7a1 173f 52d3 5e3f 9343 d43e
00000040: e28b 773a 6380 1539 e996 153f b4ef 5e3f
00000050: 0c55 993e 0953 cf3b 5e3f be39 ca9e 313f
00000060: 8716 693f
0.42996716 0.07350253 0.00035486804 0.49617612 0.855092 0.46222523 0.013234973 0.00042887006
0.5241107 0.8502273 0.39317968 0.013720968 0.00078402326 0.5923123 0.870412 0.41457805
0.00094431464 0.00014257575 0.58433396 0.8708451 0.29947698 0.0063270372 0.00036286836 0.6938292
0.9105
