Assets/Training/results/Run 8/DroneBehavior/DroneBehavior-2999946.onnx (onnx, 697640 bytes, 21 tensors)

105 f4 [25]
0.12865256 0.06868107 0.0005773553 0.14529341 0.0586234 0.1480433 0.001527537 0.0005773553
0.1480508 0.061734986 0.33794743 0.0005773553 0.0005773553 0.33794802 0.110003665 0.34527612
0.0005773553 0.0005773553 0.34527656 0.12350972 0.34527612 0.0005773553 0.0005773553 0.34527656
0.12350972
00000000: 7fbd 033e a9a8 8c3d a959 173a ccc7 143e
00000010: 171f 703d aa98 173e a337 c83a a959 173a
00000020: a19a 173e d3dd 7c3d 7207 ad3e a959 173a
00000030: a959 173a 8607 ad3e 9a49 e13d 08c8 b03e
00000040: a959 173a a959 173a 17c8 b03e aaf2 fc3d
00000050: 08c8 b03e a959 173a a959 173a 17c8 b03e
00000060: aaf2 fc3d

108 f4 [25]
0.4964727 0.23265715 0.012555077 0.49999702 0.21391436 0.4990099 0.10418541 0.010487426
0.49958646 0.21436408 0.49123558 0.10136973 0.011646162 0.49311504 0.20434944 0.49378872
0.02880264 0.0069280965 0.49392688 0.20137452 0.46337947 0.0328888 0.009711836 0.46385384
0.175566
00000000: ab31 fe3e ad3d 6e3e cfb3 4d3c 9cff ff3e
00000010: 5e0c 5b3e 3a7e ff3e 295f d53d 74d3 2b3c
00000020: ccc9 ff3e 4282 5b3e 3b83 fb3e ef9a cf3d
00000030: 8bcf 3e3c 9379 fc3e fb40 513e e0d1 fc3e
00000040: 84f3 eb3c 1605 e33b fce3 fc3e 1f35 4e3e
00000050: 1340 ed3e 68b6 063d 651e 1f3c 407e ed3e
00000060: 93c7 333e

111 f4 [55]
0.025459988 0.068524286 0.0005773553 0.07305758 0.027307635 0.048041504 0.05628792 0.0005773553
0.07390051 0.023783395 0.080293626 0.05628792 0.0005773553 0.09784622 0.03606583 0.058977026
0.013214664 0.0005773553 0.060430806 0.02453119 0.09580705 0.01315148 0.0005773553 0.0966888
0.032915153 0.06509125 0.0014142247 0.0005773553 0.06510746 0.019827448 0.17074667 0.0005773553
0.0005773553 0.17074794 0.05846853 0.065872125 0.0005773553 0.0005773553 0.065876044 0.036085367
0.2798993 0.0005773553 0.0005773553 0.27990022 0.09020584 0.091565154 0.0005773553 0.0005773553
0.09156669 0.05157373 0.091565154 0.0005773553 0.0005773553 0.09156669 0.05157373
00000000: 7791 d03c 7656 8c3d a959 173a 369f 953d
00000010: 43b4 df3c 2bc7 443d 298e 663d a959 173a
00000020: 2759 973d 65d5 c23c fc70 a43d 298e 663d
00000030: a959 173a 9963 c83d c4b9 133d e591 713d
00000040: 5182 583c a959 173a 4b86 773d a2f5 c83c
00000050: 7d36 c43d 4e79 573c a959 173a c704 c63d
00000060: 0ad2 063d 904e 853d 825d b93a a959 173a
00000070: 0f57 853d 2c6d a23c 37d8 2e3e a959 173a
00000080: a959 173a 8cd8 2e3e b37c 6f3d f7e7 863d
00000090: a959 173a a959 173a 05ea 863d 40ce 133d
000000a0: f64e 8f3e a959 173a a959 173a 154f 8f3e
000000b0: d7bd b83d 8386 bb3d a959 173a a959 173a
000000c0: 5187 bb3d fa3e 533d 8386 bb3d a959 173a
000000d0: a959 173a 5187 bb3d fa3e 533d

114 f4 [25]
0.49647284 0.23265651 0.012555077 0.49999708 0.21391441 0.49835068 0.104226865 0.008543666
0.49912584 0.20444627 0.48202163 0.09378601 0.014057311 0.48443073 0.21052408 0.44941062
0.034305155 0.016489701 0.45011362 0.16164519 0.45062566 0.024783574 0.01528303 0.4510343
0.1855022
00000000: b031 fe3e 823d 6e3e cfb3 4d3c 9eff ff3e
00000010: 610c 5b3e d227 ff3e e574 d53d bcfa 0b3c
00000020: 6c8d ff3e 5d5a 513e 8acb f63e e112 c03d
00000030: a350 663c 4e07 f83e a093 573e 2619 e63e
00000040: 9083 0c3d 6915 873c 4b75 e63e 5186 253e
00000050: 68b8 e63e ec06 cb3c ad65 7a3c f8ed e63e
00000060: 4af4 3d3e

117 f4 [25]
0.017114276 0.07468333 0.0005773553 0.07659778 0.028651625 0.004725796 0.033842627 0.0005773553
0.034167856 0.015075755 0.02725942 0.03381308 0.0005773553 0.04341667 0.022748202 0.06260153
0.03381308 0.0005773553 0.07108731 0.04432335 0.06260153 0.03381308 0.0005773553 0.07108731
0.04432335
00000000: 3d33 8c3c 93f3 983d a959 173a 4cdf 9c3d
00000010: d0b6 ea3c dada 9a3b 919e 0a3d a959 173a
00000020: 98f3 0b3d 4d00 773c 264f df3c 967f 0a3d
00000030: a959 173a aed5 313d 705a ba3c 3b35 803d
00000040: 967f 0a3d a959 173a 3996 913d 678c 353d
00000050: 3b35 803d 967f 0a3d a959 173a 3996 913d
00000060: 678c 353d

120 f4 [3]
11.84787 0.81951565 12.162508
00000000: e090 3d41 c7cb 513f a299 4241

action_model._continuous_distribution.log_sigma f4 [1, 3]
-0.05095679 -0.09420986 -0.004683307
00000000: 11b8 50bd 19f1 c0bd 6d76 99bb

action_model._continuous_distribution.mu.bias f4 [3]
0.008622888 0.019569308 0.033512738
00000000: 0347 0d3c d04f a03c a744 093d

action_model._continuous_distribution.mu.weight f4 [3, 256]
-0.013493474 0.010784367 -0.006684225 -0.0051206616 -0.0031719513 0.023557756 0.0050407657 -0.0012595156
0.005432789 0.006738295 -0.0010612691 0.03459763 0.0031722924 0.010304142 0.0036838672 0.0204346
0.0059928293 -0.013523145 0.012924222 0.021201534 -0.008244838 -0.0020079415 -0.0265811 0.023116136
-0.0048057097 0.008422116 -0.040384457 -0.007980405 -0.011077219 0.003543584 -0.01477356 0.004861306
-0.0061058896 0.03322989 0.0184172 0.009182773 -0.015348868 0.0028256204 0.033235002 0.0040393127
0.022211848 0.031495016 0.010913119 0.0089091435 -0.014566452 0.001015257 -0.015276606 0.0023807148
0.022154197 0.018511211 -0.011871877 0.011993669 -0.015327901 -0.004240427 -0.0030291753 0.0034406993
0.013738682 -0.016738607 -0.0150364395 0.0073232227 -0.0023239348 -0.002618739 -0.016197052 -0.027643695
0.023116134 -0.0010195457 -0.001109885 0.015182727 0.0004355667 0.0020092544 -0.0025415202 0.010804955
0.0028850008 -0.004290895 0.0034759433 -0.01636014 0.0052984953 -0.0065976703 0.004845574 0.016420452
-0.0070946566 0.012293959 0.0055235666 0.026987523 0.00829865 0.020951271 0.005693433 -0.00079235603
0.009776958 0.0055756373 0.0032011718 -0.0046514715 0.002355922 -0.005108268 -0.0074022613 0.009874616
0.0017270895 -0.002689172 -0.0031533127 0.018483236 -0.002042934 0.015954876 -0.015862519 -0.024561428
0.005606147 -0.008918051 0.0013402427 -0.00118464 -0.0068832478 -0.0065859025 -0.008895251 0.002306324
-0.010758769 0.021851975 -0.02489077 -0.012173798 0.019112622 -0.011275324 0.002409592 0.0010346582
-0.014865995 -0.02947781 -0.0005687109 -0.0021989148 0.015827624 -0.0072042556 -0.0045949845 -0.012144513
-0.0011939121 -0.0014271596 0.0047405115 -0.020590914 0.019435577 0.06274977 0.003268645 -0.01155136
-8.5691485e-05 0.004267095 -0.005607494 -0.022586772 -0.018308965 0.0073198224 -0.0011674359 -0.015378285
-0.01470253 -0.017995244 0.0035557218 -0.013205848 0.028778695 -0.012558223 -0.010652707 -0.014124304
0.018245202 -0.005978399 0.005318547 -0.012407985 -0.0054466575 0.013818474 -0.007610171 0.005860765
-0.0038203564 -0.0012194146 -0.011043121 0.0059931097 -0.0029219491 -0.007830384 0.013666742 -0.0018607453
0.04048234 -0.028430097 -0.0069997804 -0.0041699135 -0.006619514 -0.006570649 0.0016245431 -0.014029777
0.007652698 0.00032161415 -0.032807723 0.015578331 -0.0026624554 -0.0029214113 -0.018214822 0.04143917
-0.039624117 0.018494036 0.007955535 -0.014178507 0.0006143932 -0.00037871738 -0.005430035 0.035406876
0.020235317 -0.008395331 0.006712158 -0.0090073 0.005880376 0.0098980125 -0.014941003 0.0015514935
0.014873591 -0.005284355 -0.0051747398 0.009084183 -0.007447697 0.01591388 0.0021400198 -0.022528455
0.0023204165 0.0032561258 -0.027319124 -0.009141739 0.03375383 -0.012810445 0.0056337495 0.022069087
-0.0017316706 -0.01907588 0.00500656 -0.0010055712 0.010811911 -0.009253099 -0.029262995 -0.0141281765
0.0032382738 -0.015319097 0.019503845 -0.008191173 0.022555018 -0.0075690583 -0.0085187415 -0.0073469253
0.04159894 -0.009502062 0.006753429 -0.008062121 -0.028619375 -0.016761245 0.007536807 -0.0021794122
-0.00016651329 -0.0401137 -0.0030051998 0.0010418562 0.023106616 -0.0060833306 0.006352701 -0.0077893734
0.004413877 0.008884987 -0.014138431 -0.013401087 0.0011025621 -0.0068019577 -0.019322865 -0.0015910672
00000000: bb13 5dbc eab0 303c 5807 dbbb 39cb a7bb
00000010: 83e0 4fbb 32fc c03c 022d a53b 5516 a5ba
00000020: 8a05 b23b eacc dc3b 481a 8bba 3fb6 0d3d
00000030: 3ce6 4f3b b4d2 283c 096d 713b 7666 a73c
00000040: 7f5f c43b 2e90 5dbc 1ec0 533c d7ae ad3c
00000050: 5b15 07bc ab97 03bb 9bc0 d9bc 0d5e bd3c
00000060: 3779 9dbb eafc 093c 2c6a 25bd 3fc0 02bc
00000070: 397d 35bc 793b 683b cd0c 72bc 974b 9f3b
00000080: ea13 c8bb 111c 083d abdf 963c 5773 163c
00000090: d279 7bbc 0b2e 393b 6d21 083d 365c 843b
000000a0: 9ff5 b53c eb00 013d f0cc 323c a8f7 113c
000000b0: 21a8 6ebc 5f12 853a bb4a 7abc c405 1c3b
000000c0: b87c b53c d3a4 973c 4382 42bc 1881 443c
000000d0: e021 7bbc 48f3 8abb 2185 46bb 5b7d 613b
000000e0: 3518 613c 671f 89bc 665b 76bc a5f7 ef3b
000000f0: 284d 18bb 269f 2bbb aeaf 84bc 0875 e2bc
00000100: 0c5e bd3c 47a2 85ba 9079 91ba f9c0 783c
00000110: c65c e439 b2ad 033b a28f 26bb 4407 313c
00000120: 4812 3d3b a39a 8cbb a7cc 633b b305 86bc
00000130: 009f ad3b 4531 d8bb 9fc7 9e3b 2f84 863c
00000140: 4b7a e8bb 9a6c 493c 09ff b43b f014 dd3c
00000150: 10f7 073c 00a2 ab3c fa8f ba3b 1db6 4fba
00000160: 892f 203c d6b3 b63b c0ca 513b 5f6b 98bb
00000170: d065 1a3b 4263 a7bb ab8e f2bb 24c9 213c
00000180: 825f e23a d23c 30bb cfa7 4ebb 286a 973c
00000190: bfe2 05bb cdb3 823c 1df2 81bc 0c35 c9bc
000001a0: c5b3 b73b 041d 12bc 15ab af3a ec45 9bba
000001b0: de8c e1bb 8ece d7bb 63bd 11bc b225 173b
000001c0: 8c45 30bc ea02 b33c bae7 cbbc 9c74 47bc
000001d0: 1392 9c3c 23bc 38bc 3fea 1d3b 5e9d 873a
000001e0: 8190 73bc 737b f1bc 8b15 15ba ab1b 10bb
000001f0: efa8 813c ad11 ecbb 8691 96bb c8f9 46bc
00000200: 0b7d 9cba 880f bbba 4b56 9b3b 47ae a8bc
00000210: 5c37 9f3c f482 803d c336 563b ea41 3dbc
00000220: 44b5 b3b8 fdd2 8b3b 12bf b7bb e507 b9bc
00000230: affc 95bc 1fdb ef3b a604 99ba 34f5 7bbc
00000240: e1e2 70bc c36a 93bc 1d07 693b 575d 58bc
00000250: 4cc1 eb3c 01c1 4dbc b188 2ebc a069 67bc
00000260: f676 953c 72e6 c3bb 3547 ae3b dc4a 4bbc
00000270: e079 b2bb e166 623c be5e f9bb a90b c03b
00000280: f25e 7abb c4d4 9fba 35ee 34bc d961 c43b
00000290: 2c7e 3fbb 034b 00bc 78ea 5f3c 40e4 f3ba
000002a0: cfd0 253d 3ce6 e8bc 6a5e e5bb c5a3 88bb
000002b0: 82e8 d8bb 994e d7bb 9fee d43a 26dd 65bc
000002c0: 7cc3 fa3b 529e a839 6461 06bd 423c 7f3c
000002d0: 977c 2ebb 2675 3fbb 4037 95bc 1ebc 293d
000002e0: e64c 22bd ce80 973c ef57 023c f84c 68bc
000002f0: 3b0f 213a 968e c6b9 6fee b1bb cd06 113d
00000300: 89c4 a53c 928c 09bc aaf1 db3b 5b93 13bc
00000310: 2bb0 c03b 462b 223c 1ccb 74bc 7c5b cb3a
00000320: 5db0 733c 6228 adbb dd90 a9bb d3d5 143c
00000330: d00b f4bb d35d 823c 933f 0c3b 988d b8bc
00000340: 2112 183b ba64 553b 5bcc dfbc 3cc7 15bc
00000350: 7541 0a3d e7e2 51bc 519b b83b 3bca b43c
00000360: 39f9 e2ba 0545 9cbc 120e a43b 5fcd 83ba
00000370: 7124 313c 4f9a 17bc f3b8 efbc de79 67bc
00000380: 3839 543b f3fc 7abc 87c6 9f3c 4534 06bc
00000390: 4dc5 b83c dd05 f8bb 3192 0bbc 7abe f0bb
000003a0: a663 2a3d 89ae 1bbc de4b dd3b fd16 04bc
000003b0: 2e73 eabc e14e 89bc 52f7 f63b 78d4 0ebb
000003c0: 129a 2eb9 434e 24bd e3f2 44bb e58e 883a
000003d0: 164a bd3c ad56 c7bb 522a d03b 003e ffbb
000003e0: 49a2 903b 5692 113c e1a4 67bc 3c90 5bbc
000003f0: d883 903a f5e2 debb fc4a 9ebc 5b8b d0ba

network_body._body_endoder.seq_layers.0.bias f4 [256]
-0.03164613 0.010574563 -0.014727562 0.043249592 -0.038236793 0.011244735 -0.024718015 0.008844025
-0.059109084 0.0073834653 -0.019450968 -0.036113136 -0.044994388 -0.05248427 -0.034464955 -0.008381803
-0.06345391 0.030124988 -0.034055565 -0.05014188 0.02751316 -0.007330675 -0.0345377 -0.029838292
-0.03480463 -0.013270424 -0.01774425 -0.050358225 -0.036120843 -0.027709886 0.018148566 -0.015515132
-0.04454022 -0.015521253 -0.0444913 -0.038335286 -0.043395553 -0.03246156 0.0330991 -0.04303958
-0.035850987 -0.043244723 -0.046993885 -0.00023664624 -0.025731348 -0.02073865 0.029048985 -0.038491186
-0.021428335 -0.022030575 -0.015547761 -0.043571096 -0.0373525 -0.040451206 -0.036560915 -0.03853273
-0.0067701507 -0.004259895 0.011872474 -0.043718945 0.0026310317 -0.048337165 -0.048436906 -0.04313328
0.020407327 -0.01887754 -0.0010410143 -0.018769374 -0.05216655 -0.05951074 -0.013406257 -0.023176251
-0.02458638 -0.017226482 -0.022708712 0.018509295 -0.029686313 -0.045888063 -0.056483716 -0.048904467
-0.04450403 -0.0688269 -0.041907042 -0.047102287 -0.037817765 -0.021244882 -0.01245161 -0.0627146
-0.019813156 -0.024397846 0.019412396 -0.023916073 -0.016103204 -0.010783563 -0.016079077 -0.052117623
-0.04804281 -0.039487842 -0.023718657 -0.056671627 -0.048004534 0.030097323 -0.054176435 -0.013343386
-0.057392217 0.010834841 -0.03069315 -0.0021852246 -0.023057323 0.015676234 -0.018271811 -0.07872097
-0.044670243 -0.04493902 0.0035406325 -0.01499332 0.01844762 -0.032109763 -0.019633548 -0.050555926
-0.04502974 -0.024759207 -0.026721684 -0.035529926 -0.02167226 -0.0027806114 -0.015914088 -0.012561311
-0.025440205 -0.018845659 0.01388314 -0.00757153 0.0064572995 -0.042954057 0.013208209 -0.031177327
-0.025832014 -0.044707492 -0.0031404654 -0.022865279 -0.024974333 -0.029757587 -0.014302264 -0.03824381
-0.05210875 -0.03759001 -0.023552272 -0.040107377 -0.0040914165 0.052752774 -0.048035253 -0.0568264
-0.03455834 0.05500541 -0.03416279 -0.019427482 -0.03606633 -0.07673002 -0.02233999 -0.0035145083
-0.03833622 -0.034034584 0.02864443 -0.037540406 -0.06603471 0.0041051586 -0.017986193 -0.061810654
-0.04442941 -0.1053023 -0.042706728 -0.0022343383 -0.019059984 -0.057750028 -0.0008851204 -0.0032366565
-0.019976659 -0.01698618 -0.023914581 -0.03924512 -0.0338531 -0.0026708997 -0.037771393 -0.023382632
-0.023195934 -0.026901737 -0.07038236 -0.0062357835 -0.022625988 0.0127242915 -0.015423814 -0.010086349
-0.023788504 0.018497778 0.036065754 0.0057903654 -0.03213274 -0.035933137 0.04606961 0.0008251141
0.0025176378 -0.026633628 -0.057796333 -0.02902635 -0.037707698 -0.037598412 -0.020241912 0.008826361
-0.081745096 -0.053781435 -0.029743984 -0.02909122 -0.032922506 -0.042851895 -0.007992335 0.0028525458
-0.025438257 -0.050265558 -0.045504555 -0.058129314 -0.015002829 -0.022441685 -0.046844617 -0.08096027
-0.06349437 -0.044452 -0.006159122 0.00569721 -0.041882362 -0.067245126 -0.01680536 -0.026902916
-0.054912627 -0.0075312927 -0.03798495 -0.022263875 -0.015333926 0.023300776 -0.014788148 -0.018026352
-0.023237348 -0.04672927 -0.043988902 -0.03928182 -0.05047269 0.0012784755 -0.030915748 -0.0126491
-0.04150421 0.051923603 -0.021465873 -0.0464527 -0.053359874 0.0271397 -0.01001733 -0.00048279407
00000000: 5f9f 01bd ef40 2d3c df4b 71bc 7c26 313d
00000010: 2f9e 1cbd d63b 383c 6f7d cabc 88e6 103c
00000020: 5e1c 72bd fff0 f13b a357 9fbc 5eeb 13bd
00000030: 094c 38bd bff9 56bd 202b 0dbd d453 09bc
00000040: 20f4 81bd aec8 f63c d97d 0bbd 9261 4dbd
00000050: 4763 e13c 2936 f0bb 6777 0dbd 6f6f f4bc
00000060: 4d8f 0ebd 316c 59bc 645c 91bc 6d44 4ebd
00000070: 73f3 13bd d8ff e2bc 4dac 943c 2e33 7ebc
00000080: ce6f 36bd db4c 7ebc 823c 36bd 7605 1dbd
00000090: 89bf 31bd 6af6 04bd ec92 073d 454a 30bd
000000a0: 7cd8 12bd 6121 31bd a97c 40bd 3e24 78b9
000000b0: 8cca d2bc 1ae4 a9bc 23f8 ed3c efa8 1dbd
000000c0: 7a8a afbc 7779 b4bc 09bc 7ebc 9b77 32bd
000000d0: effe 18bd 2ab0 25bd e6c0 15bd 7fd4 1dbd
000000e0: 24d8 ddbb 9796 8bbb c484 423c a312 33bd
000000f0: 636d 2c3b 31fd 45bd c765 46bd 86ac 30bd
00000100: 442d a73c 12a5 9abc a572 88ba 3bc2 99bc
00000110: 98ac 55bd 89c1 73bd eba5 5bbc 1fdc bdbc
00000120: 6069 c9bc 8d1e 8dbc 9f07 babc cea0 973c
00000130: b630 f3bc 1ff5 3bbd 785b 67bd 0d50 48bd
00000140: dc49 36bd 1ef5 8cbd b8a6 2bbd 54ee 40bd
00000150: cde6 1abd bf09 aebc d601 4cbc 8370 80bd
00000160: 334f a2bc fedd c7bc bf06 9f3c a4eb c3bc
00000170: deea 83bc 8bad 30bc 45b8 83bc 4a79 55bd
00000180: 8ac8 44bd 01be 21bd a14d c2bc 8220 68bd
00000190: 67a0 44bd a98e f63c 1ce8 5dbd 389e 5abc
000001a0: 1a14 6bbd 9e84 313c 3370 fbbc fc35 0fbb
000001b0: b6e2 bcbc 726b 803c c4ae 95bc 7638 a1bd
000001c0: 25f8 36bd fa11 38bd f509 683b 8ba6 75bc
000001d0: 771f 973c 8785 03bd 89d6 a0bc bb13 4fbd
000001e0: 1b71 38bd d2d3 cabc 6fe7 dabc d487 11bd
000001f0: 068a b1bc eb3a 36bb 435e 82bc f5cd 4dbc
00000200: fa67 d0bc 3662 9abc 1c76 633c 991a f8bb
00000210: c197 d33b 98f0 2fbd 3e67 583c 9867 ffbc
00000220: a99d d3bc 341f 37bd 44d0 4dbb f74f bbbc
00000230: f996 ccbc 2fc6 f3bc 0b54 6abc 8ba5 1cbd
00000240: fc6f 55bd fbf7 19bd b2f0 c0bc a247 24bd
00000250: 4a11 86bb 4b13 583d 9dc0 44bd cdc2 68bd
00000260: 0c8d 0dbd 5a4d 613d 48ee 0bbd 6226 9fbc
00000270: 4aba 13bd a124 9dbd 5b02 b7bc aa53 66bb
00000280: 7106 1dbd d967 0bbd b9a7 ea3c f8c3 19bd
00000290: 353d 87bd 9184 863b c857 93bc 2b2d 7dbd
000002a0: 9dfb 35bd bba8 d7bd 40ed 2ebd fa6d 12bb
000002b0: af23 9cbc 4b8b 6cbd 6d07 68ba 161e 54bb
000002c0: 17a6 a3bc 9a26 8bbc 83e8 c3bc 7ebf 20bd
000002d0: 8ca9 0abd 430a 2fbb 2db6 1abd ef8c bfbc
000002e0: 6605 bebc 0861 dcbc a024 90bd 8b55 ccbb
000002f0: 235a b9bc 8c79 503c 2ab4 7cbc 3741 25bc
00000300: 1ce0 c2bc a788 973c afb9 133d 1bbd bd3b
00000310: 9f9d 03bd a02e 13bd 7db3 3c3d 784c 583a
00000320: f4fe 243b c42e dabc d9bb 6cbd abc8 edbc
00000330: 6373 1abd cb00 1abd 5ed2 a5bc 719c 103c
00000340: f969 a7bd ec49 5cbd a8a9 f3bc b650 eebc
00000350: c0d9 06bd 7885 2fbd 48f2 02bc c7f1 3a3b
00000360: e463 d0bc 42e3 4dbd fc62 3abd 0119 6ebd
00000370: 6dce 75bc a0d7 b7bc 24e0 3fbd 7fce a5bd
00000380: 5609 82bd 4d13 36bd 76d2 c9bb a9af ba3b
00000390: d78c 2bbd d0b7 89bd 65ab 89bc 8163 dcbc
000003a0: 10ec 60bd 10c9 f6bb 1b96 1bbd bb62 b6bc
000003b0: 263b 7bbc 45e1 be3c fd49 72bc 00ac 93bc
000003c0: 405c bebc 3167 3fbd b52d 34bd f9e5 20bd
000003d0: 74bc 4ebd 8592 a73a 0643 fdbc 2c3e 4fbc
000003e0: 5200 2abd d8ad 543d 33d9 afbc 3045 3ebd
000003f0: e28f 5abd 1354 de3c ba1f 24bc 861f fdb9

network_body._body_endoder.seq_layers.0.weight f4 [256, 158]
-0.03716065 0.06566698 -0.1723195 0.021092549 0.13221079 -0.020064639 0.0082365805 -0.0033274847
-0.1400007 0.08456554 0.034351442 0.07111012 0.09194021 -0.14883372 -0.022740535 -0.05248119
-0.13598862 -0.12801546 0.042762678 -0.14189857 -0.0093052685 -0.021258444 -0.1277967 0.014037569
-0.07515342 0.011166531 0.13475566 0.04884706 -0.109659374 0.04008937 -0.076802604 -0.03534004
-0.13357618 -0.09506749 0.013859185 0.196017 -0.004773134 0.06070712 0.031989187 0.13882515
-0.091988094 -0.04271884 -0.052365415 0.113661885 -0.061123777 0.040922616 0.021420019 0.0022096594
-0.0012297828 -0.086536214 -0.13935189 -0.04466903 -0.0077445884 0.03984003 -0.0755893 0.057903424
0.02958113 0.03510571 0.143143 -0.06662132 -0.03270676 0.0712742 0.019380728 0.0052233804
-0.101723015 0.10728442 -0.030661076 -0.087532945 -0.18106651 -0.028406072 -0.06300618 0.016943874
-0.07134868 0.037051003 0.062184725 0.1808196 -0.083510526 -0.18339938 -0.011327743 0.012092771
0.047418814 -0.04694357 -0.10248799 0.0018988786 -0.060968526 0.036803927 -0.12681802 0.08538952
0.083421044 0.049842972 0.15733662 -0.072967924 0.068852626 0.07949044 0.017760327 0.03271896
0.10815192 0.008001343 -0.087115504 -0.05439505 0.044989575 0.029516896 -0.051628366 -0.03039696
0.055106267 0.1148257 0.026039151 0.033257853 -0.063546374 -0.03719766 0.0043497756 0.015374822
-0.10943553 -0.049210273 0.031427115 -0.010183152 0.13836986 0.01676603 0.10943097 -0.053000744
0.035637125 -0.2550006 -0.06671955 0.042526793 -0.003554744 0.008021329 -0.017969547 -0.02493036
0.05787471 0.061266232 -0.018926492 0.022224436 -0.056430075 0.039808173 -0.05057956 0.05691072
0.022046026 0.03867481 0.058320716 -0.06518258 -0.073685475 -0.02518704 -0.079615355 -0.044024605
0.055375196 0.08913011 -0.08667481 -0.058478583 -0.021351926 0.052511476 0.08759219 0.016651457
-0.08063476 -0.014576992 0.07309902 -0.037861045 -0.061410967 -0.031749494 0.07856134 0.08692478
0.0865671 0.17835245 0.04734463 -0.0495286 0.02728336 -0.20686713 -0.07688062 0.06537861
0.07327119 0.06546051 0.03509497 -0.106804036 0.09068062 0.022731392 0.004517268 -0.0008656484
0.096002474 -0.05448456 0.017993858 -0.09524414 -0.070328414 0.084504604 -0.07496699 0.12181493
-0.0617279 -0.03777239 -0.089641124 -0.08585442 -0.13471209 -0.17763938 -0.14026506 0.067886636
0.04594566 -0.14599973 -0.079406135 0.042713564 -0.107813895 0.09477562 -0.08008069 -0.0009755426
-0.080251716 -0.029619515 -0.024193782 0.04737776 0.035568368 0.14246388 0.018357366 0.072831854
-0.025614148 -0.040592127 0.08193546 0.064331755 0.0052954336 0.038542688 -0.06551295 -0.10332362
0.033883438 0.014184864 0.09115513 0.031405583 -0.045038957 0.022331256 -0.055758413 0.058048867
0.054779984 -0.037264954 0.031455647 0.11386119 0.031180829 -0.14239544 0.0071306624 -0.086677305
0.09800353 0.07069457 0.0114182085 0.029547583 0.12672883 0.108489566 -0.0748692 -0.016160827
0.061656322 -0.14635085 0.107202984 -0.012068643 0.080516614 -0.09516166 0.005441622 -0.03394515
-0.21605071 0.07712867 0.0413666 0.17617287 0.01571726 0.06015255 -0.13852333 0.026939955
00000000: c435 18bd 697c 863d 8674 30be 48ca ac3c
00000010: 4462 073e 995e a4bc b9f2 063c ee11 5abb
00000020: 585c 0fbe b330 ad3d 19b4 0c3d 2fa2 913d
00000030: 264b bc3d de67 18be 5c4a babc 84f6 56bd
00000040: 9a40 0bbe 7c16 03be eb27 2f3d dc4d 11be
00000050: 2075 18bc 3026 aebc 23dd 02be d5fd 653c
00000060: 09ea 99bd d3f3 363c 63fd 093e db13 483d
00000070: 1895 e0bd c034 243d af4a 9dbd b8c0 10bd
00000080: 32c8 08be bfb2 c2bd a311 633c aeb8 483e
00000090: f367 9cbb 07a8 783d 1807 033d 2e28 0e3e
000000a0: 4164 bcbd f3f9 2ebd 1e7d 56bd 90c7 e83d
000000b0: ed5c 7abd 799e 273d 0979 af3c efcf 103b
000000c0: aa30 a1ba e639 b1bd 43b2 0ebe dff6 36bd
000000d0: 51c6 fdbb 4d2f 233d 90ce 9abd 242c 6d3d
000000e0: 2054 f23c 01cb 0f3d 1494 123e c270 88bd
000000f0: 86f7 05bd 35f8 913d 55c4 9e3c e428 ab3b
00000100: 2854 d0bd efb7 db3d f02c fbbc 7944 b3bd
00000110: 8069 39be dab3 e8bc 6209 81bd e1cd 8a3c
00000120: 421f 92bd cbc2 173d 69b5 7e3d c628 393e
00000130: 9107 abbd 0ccd 3bbe ff97 39bc c220 463c
00000140: 3b3a 423d e747 40bd 39e5 d1bd cbe3 f83a
00000150: 22ba 79bd b7bf 163d 95dc 01be b3e0 ae3d
00000160: a7d8 aa3d 2528 4c3d da1c 213e 3570 95bd
00000170: 9b02 8d3d e2cb a23d 1b7e 913c 5104 063d
00000180: c17e dd3d 1118 033c 9d69 b2bd 58cd 5ebd
00000190: fd46 383d 6bcd f13c 4478 53bd 0c03 f9bc
000001a0: 1cb7 613d bd29 eb3d 0f50 d53c 6339 083d
000001b0: 9a24 82bd 935c 18bd 9088 8e3b ade6 7b3c
000001c0: bc1f e0bd b690 49bd b8b9 003d 3cd7 26bc
000001d0: d4b0 0d3e ea58 893c 581d e03d 4f17 59bd
000001e0: 3cf8 113d 708f 82be 42a4 88bd 9330 2e3d
000001f0: b5f6 68bb e46b 033c df34 93bc c13a ccbc
00000200: 080e 6d3d 4df2 7a3d bb0b 9bbc 0510 b63c
00000210: 3923 67bd e50d 233d 832c 4fbd 371b 693d
00000220: de99 b43c 7a69 1e3d b4e1 6e3d 727e 85bd
00000230: 69e8 96bd 0d55 cebc 600d a3bd 2553 34bd
00000240: 1ad1 623d d989 b63d 9082 b1bd 3d87 6fbd
00000250: 3cea aebc 4616 573d 8963 b33d a368 883c
00000260: d623 a5bd 56d4 6ebc f0b4 953d 2f14 1bbd
00000270: 118a 7bbd c20b 02bd c5e4 a03d 9e05 b23d
00000280: 174a b13d 06a2 363e 71ec 413d 80de 4abd
00000290: 5a81 df3c fad4 53be 9673 9dbd 38e5 853d
000002a0: 350f 963d 2910 863d bebf 0f3d 13bc dabd
000002b0: c3b6 b93d 2f37 ba3c 9705 943b aeec 62ba
000002c0: f29c c43d 342b 5fbd db67 933c 5c0f c3bd
000002d0: 5808 90bd c010 ad3d 4b88 99bd 1b7a f93d
000002e0: 65d6 7cbd 39b7 1abd c495 b7bd 71d4 afbd
000002f0: f7f1 09be 19e7 35be a5a1 0fbe 2608 8b3d
00000300: 8431 3c3d f480 15be af9f a2bd 6bf4 2e3d
00000310: 88cd dcbd b819 c23d 5801 a4bd 8ebb 7fba
00000320: 035b a4bd a0a4 f2bc 0a32 c6bc 2f0f 423d
00000330: 23b0 113d 0de2 113e 3062 963c de28 953d
00000340: c3d4 d1bc ee43 26bd c7cd a73d 5ec0 833d
00000350: 5185 ad3b f0de 1d3d a72b 86bd 569b d3bd
00000360: 5cc9 0a3d a267 683c 8aaf ba3d 24a3 003d
00000370: c57a 38bd 0af0 b63c ef62 64bd a6c4 6d3d
00000380: fa60 603d 23a3 18bd a3d7 003d 0e30 e93d
00000390: f06e ff3c 1cd0 11be 55a8 e93b df83 b1bd
000003a0: 13b6 c83d 51c8 903d 7013 3b3c c60d f23c
000003b0: 34c5 013e c72f de3d 0655 99bd b663 84bc
000003c0: 578b 7c3d ffdc 15be 3d8d db3d 8fbb 45bc
000003d0: e5e5 a43d 1ee4 c2bd a24f b23b 120a 0bbd
000003e0: 663c 5dbe a3f5 9d3d 0670 293d a966 343e
000003f0: 7cc1 803c 8562 763d 0fd9 0dbe 2eb1 dc3c

network_body._body_endoder.seq_layers.2.bias f4 [256]
-0.018487854 -0.06261704 -0.009816851 0.00029613663 -0.016116781 -0.023014728 -0.01242651 -0.030381178
-0.011957349 -0.0075406125 -0.03618313 -0.020900829 -0.05170615 -0.0005392064 -0.008095183 -0.017474605
-0.040264115 -0.036722302 -0.03878672 -0.03292968 -0.023967978 -0.015703324 -0.03798827 -0.03898684
-0.017607648 -0.03203976 -0.033523515 0.012053786 -0.01857161 0.044090316 -0.019602686 -0.02634546
0.034480743 0.02488676 -0.0142843835 -0.025204193 -0.011221986 -0.028489307 -0.037862334 -0.032679394
-0.026507797 -0.017306097 -0.030511005 -0.055622686 -0.016826283 0.026491422 -0.024543889 -0.022052165
0.022996103 -0.02529541 -0.011102882 -0.01655715 -0.017339708 -0.04335194 -0.022093667 -0.02440035
-0.029229252 -0.013386091 -0.019896047 -0.021814248 -0.04973646 -0.037357695 -0.021957492 -0.02841737
-0.03178964 -0.012804372 -0.0287099 -0.024069652 -0.040903702 0.038102016 -0.008253735 -0.023848124
0.0038885514 -0.020216165 -0.022353312 -0.018759355 -0.019526869 0.016509032 -0.018722277 -0.026258873
-0.030108187 -0.03346721 -0.027143976 -0.044743065 -0.008835035 0.011518329 -0.01899792 -0.01677913
-0.04060497 -0.019332891 -0.04789991 -0.01200728 -0.024915233 -0.013491582 -0.00041142735 -0.038602777
-0.038678154 -0.05279414 -0.034390528 -0.030336354 -0.021264162 -0.0254777 -0.015238881 -0.015732126
-0.0263533 -0.0012907131 -0.028988624 -0.03272692 -0.023988932 -0.022436064 -0.038109098 -0.010089973
-0.03712945 -0.007214194 -0.002360453 -0.009691581 -0.037225004 -0.025646584 -0.025959823 0.013665017
0.011133053 -0.029242817 -0.046746135 0.0096628945 -0.020680483 0.01793366 -0.018860482 -0.041231576
-0.016751133 -0.009316194 -0.025565917 -0.025815055 -0.03780176 -0.019986687 -0.046376444 -0.007340002
0.008058933 -0.0027414493 0.011937951 -0.017461846 -0.022249008 -0.015407078 -0.037379574 -0.029127253
-0.022456411 -0.03578052 -0.032495234 -0.031065606 -0.001238767 0.011737945 -0.026959207 0.004277498
-0.028336788 -0.032392785 0.007301046 -0.012535801 -0.025130253 -0.019356284 -0.041417196 -0.0076448424
0.014941301 -0.04071438 -0.008970976 -0.044458248 -0.038496155 -5.4517477e-05 -0.019844018 -0.027795952
-0.031038672 -0.018082136 -0.03678835 0.0012115653 -0.034513082 -0.0059171743 -0.018006366 -0.034090377
-0.019658089 -0.03131473 -0.04473209 -0.01270341 -0.026808314 -0.03769526 -0.025021816 -0.022723733
-0.036061686 -0.014096891 -0.0070817424 -0.028196802 -0.042754527 -0.007944166 -0.06160739 -0.027095394
-0.024391478 -0.016603218 -0.03722144 0.0020492976 0.011232109 0.028350295 -0.035255153 -0.011455592
-0.004415843 -0.012407228 -0.03954963 -0.042851824 -0.0067444523 -0.027295778 0.02116184 -0.025972404
-0.028429655 -0.0116823735 -0.00014360614 -0.0050086286 -0.00097281847 -0.0103836935 -0.018537963 -0.010865303
0.005139077 -0.045256503 -0.027699996 0.01038524 -0.02326884 -0.030611124 0.0023069277 -0.0405768
-0.015495295 -0.018576583 -0.0072558085 -0.047313258 -0.04237377 -0.03193203 -0.015570829 -0.017010486
-0.014892199 -0.019042524 0.0028635792 -0.037429873 -0.019902876 -0.0045096027 -0.01567231 -0.0067136167
0.013250885 0.0011523968 -0.031893224 0.0037017458 -0.018015109 -0.033432126 -0.038877286 0.013873033
0.0272271 -0.037326783 0.020986438 -0.004097128 -0.0026793226 -0.04060089 -0.03420508 -0.035661887
00000000: d773 97bc 5d3d 80bd dbd6 20bc c942 9b39
00000010: 5707 84bc 6289 bcbc 9098 4bbc f3e1 f8bc
00000020: c2e8 43bc 3e17 f7bb c334 14bd 3738 abbc
00000030: d4c9 53bd 8759 0dba a9a1 04bc e726 8fbc
00000040: fceb 24bd 206a 16bd d3de 1ebd 46e1 06bd
00000050: 7e58 c4bc 42a4 80bc 9799 1bbd aab0 1fbd
00000060: ea3d 90bc 203c 03bd f44f 09bd 3e7d 453c
00000070: 7d23 98bc 0c98 343d d095 a0bc 6fd2 d7bc
00000080: ae3b 0d3d 52df cb3c 0c09 6abc 0679 cebc
00000090: 6cdc 37bc 6862 e9bc 8915 1bbd d4da 05bd
000000a0: e126 d9bc 84c5 8dbc 37f2 f9bc 9dd4 63bd
000000b0: 46d7 89bc 8a04 d93c 4410 c9bc bea6 b4bc
000000c0: 5362 bc3c 5238 cfbc dde8 35bc dca2 87bc
000000d0: 010c 8ebc ce91 31bd c7fd b4bc 3ee3 c7bc
000000e0: 2f72 efbc 5651 5bbc 09fd a2bc cbb3 b2bc
000000f0: 75b8 4bbd 6204 19bd 33e0 b3bc 8bcb e8bc
00000100: db35 02bd 6ec9 51bc 0631 ebbc b82d c5bc
00000110: a48a 27bd dc10 1c3d ac3a 07bc 245d c3bc
00000120: 11d7 7e3b 5f9c a5bc 4b1e b7bc 38ad 99bc
00000130: d0f6 9fbc f33d 873c 765f 99bc d91c d7bc
00000140: 72a5 f6bc ea14 09bd 0b5d debc 8144 37bd
00000150: d3c0 10bc 60b7 3c3c 87a1 9bbc 6374 89bc
00000160: 6651 26bd 0360 9ebc b232 44bd 2fba 44bc
00000170: 081b ccbc cc0b 5dbc d8b4 d7b9 f21d 1ebd
00000180: fc6c 1ebd ab3e 58bd 15dd 0cbd f283 f8bc
00000190: 2e32 aebc 9cb6 d0bc 80ac 79bc a9e0 80bc
000001a0: e0e2 d7bc 252d a9ba 8d79 edbc aa0c 06bd
000001b0: 7084 c4bc d6cb b7bc 4918 1cbd 6a50 25bc
000001c0: 0d15 18bd 0c65 ecbb d4b1 1abb 70c9 1ebc
000001d0: 3f79 18bd c918 d2bc b2a9 d4bc 3ce3 5f3c
000001e0: 6967 363c a28e efbc e078 3fbd 1e51 1e3c
000001f0: 1e6a a9bc 9ce9 923c 4c81 9abc 71e2 28bd
00000200: ac39 89bc f3a2 18bc 9d6f d1bc 187a d3bc
00000210: 05d6 1abd 1fbb a3bc 3af5 3dbd 6684 f0bb
00000220: 9d09 043c e3a9 33bb 6597 433c 250c 8fbc
00000230: 8d43 b6bc f86d 7cbc 531b 19bd 479c eebc
00000240: 82f6 b7bc 988e 12bd b919 05bd 4c7d febc
00000250: 205e a2ba 8250 403c 8ed9 dcbc 412a 8c3b
00000260: 8d22 e8bc 4cae 04bd 9d3d ef3b f662 4dbc
00000270: f6dd cdbc 1291 9ebc 14a5 29bd 9681 fabb
00000280: 5ccc 743c 1fc4 26bd 00fb 12bc da19 36bd
00000290: 25ae 1dbd b2a9 64b8 ec8f a2bc 56b4 e3bc
000002a0: d044 febc fd20 94bc 62af 16bd 63cd 9e3a
000002b0: 975d 0dbd dbe4 c1bb 1682 93bc 5aa2 0bbd
000002c0: 000a a1bc e043 00bd ff38 37bd f721 50bc
000002d0: 1c9d dbbc 5866 1abd 8dfa ccbc 1f27 babc
000002e0: 6bb5 13bd a5f6 66bc f60d e8bb fbfc e6bc
000002f0: 5f1f 2fbd 3f28 02bc 0858 7cbd 29f7 ddbc
00000300: a3d0 c7bc 7903 88bc 8275 18bd 824d 063b
00000310: e106 383c e13e e83c b567 10bd 3cb0 3bbc
00000320: c7b2 90bb b047 4bbc cbfe 21bd 6585 2fbd
00000330: 9100 ddbb 659b dfbc 985b ad3c 14c4 d4bc
00000340: 4fe5 e8bc 6d67 3fbc fb94 16b9 6c1f a4bb
00000350: be04 7fba 5e20 2abc eddc 97bc 6204 32bc
00000360: b465 a83b e25e 39bd 1aeb e2bc db26 2a3c
00000370: 4b9e bebc 2ec4 fabc d32f 173b dc33 26bd
00000380: fadf 7dbc eb2d 98bc 22c2 edbb 8ccb 41bd
00000390: 1e90 2dbd 29cb 02bd ca1c 7fbc 9359 8bbc
000003a0: 69fe 73bc 11ff 9bbc e3aa 3b3b 1150 19bd
000003b0: 5b0b a3bc 4ac5 93bb 3763 80bc e6fd dbbb
000003c0: 3d1a 593c 050c 973a 78a2 02bd fd98 723b
000003d0: 6c94 93bc 20f0 08bd ca3d 1fbd b84b 633c
000003e0: 5e0b df3c f8e3 18bd c0eb ab3c 3341 86bb
000003f0: 9397 2fbb 1e4d 26bd a01a 0cbd 3312 12bd

network_body._body_endoder.seq_layers.2.weight f4 [256, 256]
0.014698327 -0.04577492 0.084203385 -0.0083806 -0.0201402 0.049063496 0.054353237 -0.09080394
-0.11593699 -0.0726313 0.0039374786 -0.020732375 0.019893907 0.013024551 -0.0408192 0.048410237
0.017025586 -0.016844729 -0.0864324 -0.11681542 0.026877277 0.095811784 0.0072899377 0.031523988
0.008372304 0.017300183 0.062388234 -0.08112228 -0.03331665 -0.006631094 0.033474542 -0.033771046
0.096020445 -0.02532275 -0.092231564 -0.027693924 -0.065623306 0.039671864 -0.08931462 -0.05235205
-0.05178733 -0.018140186 0.079446755 0.018406047 0.09069044 -0.067462645 -0.09851354 -0.06308588
-0.061969794 0.009441706 -0.059362754 -0.09281725 -0.16139168 -0.10623476 0.093477644 0.04871846
0.11620832 0.027609792 0.041120168 -0.0085009895 -0.067559294 0.057900727 -0.008693699 0.035293754
-0.024033392 -0.015642835 -0.009091827 0.05534247 -0.07972501 0.0092915995 0.015092195 0.0011558168
-0.010729643 0.0089461375 -0.011502089 -0.052832115 -0.061265428 0.12618251 0.09659612 0.0014899574
0.08567731 0.061515473 -0.03026384 0.084402025 0.06367974 -0.036964428 -0.00050817436 0.017142225
0.012059706 -0.062550284 0.100503735 -0.07106991 -0.055533458 0.033405986 0.07191101 0.0038240135
-0.0014893233 -0.08022634 -0.010041026 0.04956184 0.01250055 0.10648868 -0.103583 0.0376559
-0.021974163 -0.088162236 0.07946248 0.122485645 0.09988738 -0.026213933 0.033179745 -0.046747673
-0.035059825 -0.04711793 0.041479938 0.028452458 0.07077535 -0.047086224 0.04299058 0.013399058
0.024050355 -0.0063177254 -0.032688443 -0.09336937 -0.029384209 -0.040834654 -0.03506745 0.012511925
0.0040758727 -0.022453114 -0.04716501 -0.048439763 -0.036955252 -0.069093965 0.026302239 -0.0025470816
0.026869187 -0.027379721 -0.03546267 0.048856124 -0.06776217 -0.09093942 -0.026323762 -0.036972154
-0.0020537819 -0.07126939 -0.085653156 -0.09752492 -0.0005238962 -0.037758514 0.072896756 -0.10768556
-0.06707411 -0.00671444 0.06691329 -0.06132845 0.093727805 0.02686123 0.0404355 -0.013207223
0.04454438 0.07957364 0.051855817 -0.08715792 -0.049703006 0.06663205 -0.045831874 0.06673511
0.022811031 0.008222476 0.04582374 -0.095647305 -0.041483734 0.0005397495 0.07048197 -0.1027656
-0.03282725 0.101616986 0.044208616 0.010790523 0.07195959 -0.13190167 -0.05512352 0.01711039
-0.06615245 -0.12514724 -0.0005378844 -0.14862469 -0.020848194 -0.06514637 -0.11000867 -0.035164017
0.11566827 0.018012187 -0.030621594 -0.023854727 0.054463506 0.045570366 0.04208757 -0.015811997
-0.05669877 0.12192655 0.053444084 -0.098817 -0.051669437 0.03533147 -0.08565422 0.030024508
-0.03426871 -0.11427927 0.011220939 0.17836031 -0.012238711 0.11189598 0.059203327 0.064628586
-0.085637 0.10566083 -0.13712062 -0.012320948 -0.079002276 0.03654819 -0.012491791 0.13621196
0.04180562 -0.03804824 0.05196532 0.06557039 0.094248354 0.039718587 0.04135597 0.06824831
0.024052065 0.0378183 -0.03130104 0.021191759 -0.124254696 -0.009900381 0.04551394 0.008791501
-0.043083023 0.037670165 -0.0040880824 -0.022410596 -0.05889363 -0.06758293 0.024717456 -0.0061170356
0.034914047 0.14801414 0.014517177 0.16573384 -0.09351985 -0.046695765 0.058568288 -0.07620766
00000000: 40d1 703c 7c7e 3bbd d372 ac3d c94e 09bc
00000010: 10fd a4bc cef6 483d 80a1 5e3d 6bf7 b9bd
00000020: 5f70 edbd b8bf 94bd f705 813b f1d6 a9bc
00000030: 8cf8 a23c ed64 553c 0932 27bd d049 463d
00000040: 3e79 8b3c f5fd 89bc 7803 b1bd ec3c efbd
00000050: bc2d dc3c f838 c43d 6ee0 ee3b 4c1f 013d
00000060: fd2b 093c 1db9 8d3c ce8a 7f3d 7023 a6bd
00000070: 0a77 08bd a649 d9bb 9a1c 093d 8253 0abd
00000080: 5ea6 c43d a871 cfbc e7e3 bcbd 5ede e2bc
00000090: 8365 86bd f77e 223d 95ea b6bd 1a6f 56bd
000000a0: f41e 54bd ba9a 94bc fbb4 a23d 47c8 963c
000000b0: e9bb b93d db29 8abd 78c1 c9bd 2b33 81bd
000000c0: 0ad4 7dbd 63b1 1a3c 5c26 73bd f816 bebd
000000d0: dc43 25be 9c91 d9bd 3571 bf3d 028d 473d
000000e0: a1fe ed3d ee2d e23c 9f6d 283d bc47 0bbc
000000f0: 875c 8abd 5029 6d3d 0470 0ebc 2f90 103d
00000100: ade1 c4bc 6725 80bc e3f5 14bc c9ae 623d
00000110: de46 a3bd cb3b 183c 4145 773c c77e 973a
00000120: 62cb 2fbc d292 123c 4273 3cbc 7d66 58bd
00000130: 75f1 7abd fd35 013e 30d4 c53d ad4a c33a
00000140: 9677 af3d a6f7 7b3d dfeb f7bc f8da ac3d
00000150: 866a 823d 0368 17bd 0137 05ba da6d 8c3c
00000160: 1396 453c 5d1a 80bd e7d4 cd3d 1a8d 91bd
00000170: 0d77 63bd b7d4 083d 1446 933d 4d9c 7a3b
00000180: 6635 c3ba b54d a4bd 1e83 24bc 5b01 4b3d
00000190: 1bcf 4c3c bd16 da3d 5323 d4bd 133d 1a3d
000001a0: 2903 b4bc 678e b4bd 3abd a23d c1d9 fa3d
000001b0: c191 cc3d 9abe d6bc 7ce7 073d 7d7a 3fbd
000001c0: e49a 0fbd bbfe 40bd dee6 293d 2115 e93c
000001d0: abf2 903d 7cdd 40bd e416 303d b987 5b3c
000001e0: 4005 c53c ec04 cfbb 51e4 05bd 7138 bfbd
000001f0: 27b7 f0bc 3d42 27bd e3a2 0fbd d1fe 4c3c
00000200: e68e 853b 98ef b7bc 1930 41bd c668 46bd
00000210: 645e 17bd 2381 8dbd cb77 d73c f0ec 26bb
00000220: c51c dc3c 704b e0bc 4e41 11bd 5c1d 483d
00000230: e5c6 8abd 723e babd eea4 d7bc 1d70 17bd
00000240: be98 06bb b0f5 91bd ec6a afbd 25bb c7bd
00000250: 1456 09ba aca8 1abd e54a 953d 3f8a dcbd
00000260: 275e 89bd ce04 dcbb d609 893d 8a33 7bbd
00000270: 5df4 bf3d 150c dc3c b29f 253d 1c63 58bc
00000280: 2b74 363d 81f7 a23d c466 543d da7f b2bd
00000290: 6195 4bbd 6276 883d 34ba 3bbd 6bac 883d
000002a0: 33de ba3c 90b7 063c adb1 3b3d bce2 c3bd
000002b0: d9ea 29bd fa7d 0d3a da58 903d c576 d2bd
000002c0: de75 06bd 911c d03d 1814 353d bcca 303c
000002d0: 8d5f 933d 3b11 07be 33c9 61bd 172b 8c3c
000002e0: f07a 87bd 9926 00be d000 0dba 1231 18be
000002f0: d5c9 aabc 766b 85bd 3a4c e1bd 2508 10bd
00000300: 7ce3 ec3d 4b8e 933c 23da fabc fd6a c3bc
00000310: 2015 5f3d fea7 3a3d 0464 2c3d 2988 81bc
00000320: f83c 68bd a1b4 f93d 2fe8 5a3d 9160 cabd
00000330: 55a3 53bd bbb7 103d 7b6b afbd f5f5 f53c
00000340: 595d 0cbd 400b eabd 08d8 373c 16a4 363e
00000350: e084 48bc b829 e53d 307f 723d fe5b 843d
00000360: 7462 afbd b564 d83d 5969 0cbe cddd 49bc
00000370: f2cb a1bd 8eb3 153d 5eaa 4cbc 267b 0b3e
00000380: 5f3c 2b3d 79d8 1bbd 96d9 543d c549 863d
00000390: 4805 c13d f5af 223d e164 293d c5c5 8b3d
000003a0: d608 c53c 5de7 1a3d 8535 00bd 579a ad3c
000003b0: 3f79 febd 3535 22bc d36c 3a3d 3a0a 103c
000003c0: d377 30bd 084c 1a3d 52f5 85bb 6d96 b7bc
000003d0: 723a 71bd eb68 8abd 437c ca3c 6a71 c8bb
000003e0: 0802 0f3d 0591 173e 74d9 6d3c 22b6 293e
000003f0: 5687 bfbd 0f44 3fbd 4de5 6f3d c312 9cbd

network_body._body_endoder.seq_layers.4.bias f4 [256]
0.013515968 -0.007579773 -0.040531106 -0.011468185 -0.018750975 -0.032000743 -0.013302118 -0.0055705355
-0.004899094 0.036189407 -0.026277859 -0.010221197 -0.03282534 -0.034846954 0.010842724 -0.010998936
-0.011485446 -0.027437093 0.0035030462 -0.014505991 -0.034528036 -0.029180061 -0.030695528 0.013529952
-0.008958736 -0.0043516285 -0.020027356 -0.007923622 0.0053374227 0.01700865 -0.03628122 -0.0033773999
0.004881456 0.018995069 0.004422035 -0.0065827277 0.0033131668 -0.020859534 0.0061400277 -0.021952204
0.011687156 0.010226826 0.02900728 0.017273191 0.023180913 -0.0039134463 -0.0398907 -0.00902978
-0.017793315 -0.0047593117 -0.011329672 -0.032046407 -0.011188457 -0.024539024 -0.040304616 -0.015036397
-0.012728782 -0.04193157 -0.009370381 -0.007139521 -0.0042332583 -0.025966734 -0.038577847 -0.011020056
0.0020663645 -0.011864919 0.0062039723 0.011735221 -0.026917936 -0.025609303 -0.014534859 -0.027360156
0.010330588 -0.016072249 -0.022212252 -0.020074693 -0.038827714 -0.0113824 -0.009005263 -0.015174491
0.006159945 -0.020236062 -0.038283147 -0.024352908 0.015832238 -0.027746761 -0.007770279 -0.007121111
-0.007722618 -0.019221248 0.008052904 -0.01643508 -0.010768628 -0.024494875 -0.000454675 -0.005514124
0.0015797104 -0.01934476 0.007881962 -0.017563391 0.013092631 -0.030210016 -0.0072757215 -0.013470252
-0.0041661053 -0.014638203 0.026500782 0.0014823121 -0.016015142 -0.02371937 -0.037742697 -0.015456783
-0.051296525 -0.0020888215 0.0031056278 0.0058712545 -0.016657287 -0.025726318 -0.03745261 0.016049907
-0.020507159 -0.019379362 0.03452742 -0.044141795 0.006923537 -0.042554285 -0.016458675 -0.030084683
-0.050312445 0.014572452 -0.025929082 -0.007037734 -0.01540728 0.036188487 -0.011179285 -0.021325016
-0.012349348 -0.00674648 -0.01274131 -0.025233952 -0.04630221 -0.024782533 -0.012881162 -0.03947545
0.00031643745 -0.04574866 0.0013547478 0.016804012 -0.029351091 -0.0407233 -0.039898574 -0.054088987
-0.021963289 -0.017840419 0.0097373845 -0.012085559 -0.018397378 -0.032849304 -0.0037619788 -0.00888074
-0.008188271 -0.045740023 -0.022859527 -0.020854969 -0.02668919 -0.023836903 -0.037549112 8.138124e-05
-0.009767277 -0.016332047 -0.008530126 -0.011004824 -0.013069389 0.0071617938 -0.03192683 -0.03425371
-0.024473017 -0.002309633 -0.014316161 -0.011797889 0.0025515747 -0.010895372 -0.01896965 -0.010802982
-0.0090903705 -0.025605537 -0.030642899 -0.05771868 0.0087779155 0.010252166 -0.03938172 0.009600677
-0.012583808 0.0048879394 -0.011377695 -0.020112261 -0.0072635515 -0.011476175 0.020912921 -0.046080347
-0.017655903 0.036216803 -0.042025127 -0.009150435 -0.009293242 0.026693802 -0.024244383 -0.042133797
-0.0261938 -0.019102886 0.001810578 -0.0221685 0.010103698 -0.04833552 0.004072847 -0.010739468
-0.0024582075 -0.044139523 -0.03372644 -0.0012907216 0.026679637 -0.013568351 -0.039179575 -0.027836345
-0.02994677 -0.0045750146 -0.0031150645 -0.0005897292 -0.0048543974 -0.03484151 -0.0398922 -0.008450426
-0.021792 0.018750332 -0.040823646 0.0018734125 -0.028682766 -0.036927246 0.00040431737 -0.02511573
-0.016511347 -0.018876873 -0.045967147 -0.0092820125 -0.012772878 0.0034765494 -0.005392667 -0.040299524
-0.017790144 -0.04965345 0.007455309 0.008497655 -0.0058517596 -0.010888704 0.0430426 -0.0008831941
00000000: 1472 5d3c bf5f f8bb f203 26bd 0ee5 3bbc
00000010: a59b 99bc 3613 03bd 20f1 59bc 0a89 b6bb
00000020: 9488 a0bb 583b 143d aa44 d7bc cf76 27bc
00000030: dd73 06bd aebb 0ebd aea5 313c e234 34bc
00000040: 742d 3cbc c1c3 e0bc 5d93 653b 89aa 6dbc
00000050: 456d 0dbd 060b efbc 3075 fbbc bbac 5d3c
00000060: aac7 12bc 1b98 8ebb 6910 a4bc 14d2 01bc
00000070: 8ce5 ae3b b955 8b3c 9e9b 14bd 5e57 5dbb
00000080: 9ff4 9f3b 8c9b 9b3c b8e6 903b ecb3 d7bb
00000090: b721 593b 9de1 aabc 4932 c93b 1cd5 b3bc
000000a0: 7c7b 3f3c 6b8e 273c ada0 ed3c 8280 8d3c
000000b0: e6e5 bd3c 5e3c 80bb 6e64 23bd a4f1 13bc
000000c0: 49c3 91bc 00f4 9bbb 17a0 39bc 1843 03bd
000000d0: ca4f 37bc 1006 c9bc 7416 25bd 385b 76bc
000000e0: 628c 50bc 70c0 2bbd 3a86 19bc a5f2 e9bb
000000f0: 25b7 8abb 30b8 d4bc ce03 1ebd 778d 34bc
00000100: d86b 073b 1465 42bc b14a cb3b 1645 403c
00000110: 0183 dcbc 9aca d1bc 9e23 6ebc 6822 e0bc
00000120: a041 293c f3a9 83bc 78f6 b5bc af73 a4bc
00000130: cf09 1fbd 3f7d 3abc d08a 13bc 6e9e 78bc
00000140: 5dd9 c93b 19c6 a5bc cace 1cbd c07f c7bc
00000150: 9cb2 813c 2d4d e3bc d39d febb 3558 e9bb
00000160: 040e fdbb e175 9dbc 54f0 033c dca2 86bc
00000170: e66e 30bc 7aa9 c8bc 7261 eeb9 d3af b4bb
00000180: 490e cf3a e778 9ebc 5823 013c 1ae1 8fbc
00000190: 7982 563c ff7a f7bc 2d69 eebb 55b2 5cbc
000001a0: d383 88bb 13d5 6fbc 2b18 d93c 244a c23a
000001b0: 3032 83bc 204f c2bc 1698 1abd 723e 7dbc
000001c0: 4e1c 52bd 9ce4 08bb ca87 4b3b a763 c03b
000001d0: dd74 88bc 00c0 d2bc e867 19bd 187b 833c
000001e0: a1fe a7bc 78c1 9ebc a06c 0d3d 07ce 34bd
000001f0: d6de e23b 674d 2ebd 58d4 86bc 2774 f6bc
00000200: 6c14 4ebd 4bc1 6e3c 3a69 d4bc cb9c e6bb
00000210: d16e 7cbc 613a 143d 5229 37bc cdb1 aebc
00000220: eb54 4abc 9311 ddbb edc0 50bc 6fb7 cebc
00000230: 63a7 3dbd bd04 cbbc 820b 53bc 02b1 21bd
00000240: 84e7 a539 f262 3bbd cb91 b13a 91a8 893c
00000250: b371 f0bc 7acd 26bd b06c 23bd 6a8c 5dbd
00000260: 5bec b3bc 1226 92bc 8d89 1f3c 8202 46bc
00000270: 19b6 96bc fe8c 06bd 888b 76bb 8680 11bc
00000280: 1928 06bc e459 3bbd e743 bbbc 0ad8 aabc
00000290: 4aa3 dabc 9c45 c3bc 19cd 19bd 38ab aa38
000002a0: ee06 20bc c9ca 85bc f1c1 0bbc 944d 34bc
000002b0: fe20 56bc 7bad ea3b b5c5 02bd 9e4d 0cbd
000002c0: a37b c8bc 365d 17bb 558e 6abc ef4b 41bc
000002d0: 5238 273b 8182 32bc 3d66 9bbc fefe 30bc
000002e0: c7ef 14bc b4c2 d1bc d106 fbbc 6c6a 6cbd
000002f0: 3fd1 0f3c b3f8 273c ba4e 21bd 284c 1d3c
00000300: 512c 4ebc 022b a03b 8369 3abc 78c2 a4bc
00000310: 1603 eebb 9106 3cbc 9351 ab3c bfbe 3cbd
00000320: 1da3 90bc 1258 143d 8a22 2cbd b5eb 15bc
00000330: af42 18bc f6ac da3c 289c c6bc 7d94 2cbd
00000340: 6194 d6bc a87d 9cbc eb50 ed3a b79a b5bc
00000350: fb89 253c 77fb 45bd 8475 853b 98f4 2fbc
00000360: e119 21bb a5cb 34bd bc24 0abd 6e2d a9ba
00000370: 418f da3c ca4d 5ebc c37a 20bd 0c09 e4bc
00000380: ee52 f5bc 01ea 95bb 1c26 4cbb 0f98 1aba
00000390: a311 9fbb f9b5 0ebd 0166 23bd a873 0abc
000003a0: 2385 b2bc 4c9a 993c b236 27bd 4b8d f53a
000003b0: 1ff8 eabc 0641 17bd 8ffa d339 81bf cdbc
000003c0: ce42 87bc aca3 9abc 0c48 3cbd 9513 18bc
000003d0: 5545 51bc d2d6 633b f8b4 b0bb 1d11 25bd
000003e0: a3bc 91bc 6a61 4bbd aa4b f43b c039 0b3c
000003f0: 1ec0 bfbb 8966 32bc 704d 303d 2786 67ba

network_body._body_endoder.seq_layers.4.weight f4 [256, 256]
-0.062765025 -0.03833149 -0.03516902 0.002505426 -0.092242904 0.050675757 0.1138351 0.15443946
-0.028919805 0.08387875 -0.03262154 0.029293422 -0.029300602 0.043060012 0.01728124 -0.102434956
-0.017624319 -0.017131802 -0.09518132 -0.08447049 0.011180115 -0.03570495 -0.08984903 0.07475704
0.16103132 -0.03368409 -0.0451352 0.023996374 0.05042959 0.0619763 -0.048933618 -0.018743066
0.021831946 0.15733118 -0.0057452465 0.063635185 -0.04117265 -0.10854382 0.035865787 -0.004343818
0.020687737 0.051202133 -0.12117442 -0.0404885 -0.05186347 0.06561904 -0.035127833 -0.058036588
0.0324656 0.08089745 0.024841689 -0.03467899 0.11643602 -0.029113686 -0.00977228 -0.12541963
0.029491095 -0.019199507 0.05138469 -0.018069768 -0.056898136 0.06665112 -0.0032601778 -0.08426325
-0.035886545 0.04809633 -0.028667573 -0.014806572 0.08690307 -0.015618311 0.026787423 -0.082511425
-0.035628207 0.013756352 -0.0033348287 0.07888749 0.016533367 0.11014204 0.024165973 -0.07128879
-0.027826322 -0.033340644 -0.06794772 0.008056791 0.03012986 0.022799639 0.06678017 0.048239928
0.039047502 -0.05620387 -0.090560235 0.16930622 0.109334104 -0.018110285 0.07796991 -0.09260117
-0.03572774 -0.0566247 -0.03606852 0.03553326 -0.005612712 -0.03766227 0.031655278 0.06923978
0.00010558246 0.045904674 0.10103153 -0.07766349 -0.07154488 -0.07903062 0.07628004 -0.052944664
-0.01639744 -0.014082639 0.07714984 0.004282782 -0.029079713 -0.13325848 -0.05963231 0.1593981
0.02438895 0.020511966 -0.015578777 -0.117913716 -0.003764963 -0.003597631 0.022624394 -0.019113485
-0.112204455 -0.027051123 -0.07659923 -0.0197937 -0.054170333 -0.024545413 -0.1685229 0.017839508
0.09342424 -0.053086385 -0.10573774 -0.11636544 0.055533517 -0.044718537 0.040187016 -0.021407701
-0.07990631 -0.011827299 -0.086168945 0.010111373 0.004798775 0.01861149 0.016623683 -0.020143583
0.08209026 -0.017498106 0.028980132 0.0020864266 -0.23405425 -0.08679596 0.0762252 0.0073902225
0.09154195 -0.0076163774 0.069522694 0.023569679 0.0364917 0.06894243 0.0216995 -0.023419976
-0.10886972 -0.014771175 0.07769601 0.05014553 0.045337502 -0.037022572 0.024280103 0.03671953
0.017616512 0.0040945048 -0.005983344 -0.008469769 -0.059622888 0.012971497 -0.052099165 -0.038591303
-0.1508955 -0.0014612263 -0.010969035 -0.051870037 -0.07285706 0.06989562 -0.113414444 -0.037012905
-0.22777255 0.0271197 -0.013315509 0.10647135 -0.014897726 0.10116417 -0.16260497 -0.0625981
-0.05924234 0.054891735 -0.04333685 0.010552076 0.058194827 0.049175307 0.06893265 -0.016028173
-0.03577802 -0.12669976 -0.053198125 -0.044036087 -0.09602502 0.044904817 0.029986978 0.018788094
-0.093745984 0.07615335 0.021967204 -0.008520917 -0.021110594 -0.06671432 -0.13647611 -0.032275483
-0.03177845 -0.07657376 0.042337853 -0.07714556 -0.10866697 -0.0320989 -0.0094349915 0.02453239
-0.025826713 -0.008531982 0.14480162 -0.18781033 -0.0065352465 0.00042868155 -0.12282342 0.0218179
-0.0008658925 -0.017076572 -0.017126203 0.045471735 0.08817232 0.047593936 -0.11088324 0.020929238
-0.01137043 -0.031236643 0.014371972 -0.070614405 0.0011670799 0.03372996 0.025886143 0.029100034
00000000: f38a 80bd 7b01 1dbd 640d 10bd 1332 243b
00000010: d9e9 bcbd 6291 4f3d 6022 e93d 6125 1e3e
00000020: 3ae9 ecbc 9fc8 ab3d 2a9e 05bd c2f8 ef3c
00000030: d107 f0bc b25f 303d 6391 8d3c 6bc9 d1bd
00000040: e060 90bc fe57 8cbc 6dee c2bd ddfe acbd
00000050: cd2c 373c 5b3f 12bd c502 b8bd 381a 993d
00000060: 65e5 243e 54f8 09bd b0df 38bd 0b94 c43c
00000070: 428f 4e3d dcda 7d3d 9e6e 48bd 0f8b 99bc
00000080: e9d8 b23c 6d1b 213e 9f42 bcbb 2a53 823d
00000090: a7a4 28bd 394c debd 01e8 123d 9656 8ebb
000000a0: 5479 a93c 54b9 513d 4b2a f8bd 45d7 25bd
000000b0: ca6e 54bd 4663 863d 34e2 0fbd c6b7 6dbd
000000c0: a6fa 043d 90ad a53d cc80 cb3c 8e0b 0ebd
000000d0: 0276 ee3d d37f eebc ea1b 20bc 016e 00be
000000e0: 4f97 f13c 4948 9dbc c178 523d 0d07 94bc
000000f0: 050e 69bd 6280 883d b5a8 55bb 3692 acbd
00000100: c5fd 12bd a800 453d 42d8 eabc 4497 72bc
00000110: 3dfa b13d f2e3 7fbc 4c71 db3c c0fb a8bd
00000120: e2ee 11bd 5262 613c 248d 5abb c48f a13d
00000130: fc70 873c 2692 e13d b8f7 c53c dbff 91bd
00000140: 07f4 e3bc 3390 08bd 2d28 8bbd a100 043c
00000150: e5d2 f63c 4fc6 ba3c 0bc4 883d 3b97 453d
00000160: 46f0 1f3d 0736 66bd a577 b9bd 9c5e 2d3e
00000170: 8fea df3d 055c 94bc b0ae 9f3d afa5 bdbd
00000180: 4057 12bd 4def 67bd 96bc 13bd 538b 113d
00000190: d7ea b7bb c143 1abd f7a8 013d 96cd 8d3d
000001a0: 276c dd38 8a06 3c3d 9ee9 ce3d 090e 9fbd
000001b0: 1f86 92bd ceda a1bd b638 9c3d 81dc 58bd
000001c0: ed53 86bc deba 66bc bc00 9e3d 9456 8c3b
000001d0: 9438 eebc e974 08be 0241 74bd 4139 233e
000001e0: 56cb c73c b608 a83c 203e 7fbc bf7c f1bd
000001f0: 99bd 76bb 3bc6 6bbb cb56 b93c e293 9cbc
00000200: 73cb e5bd 519a ddbc 0fe0 9cbd 6626 a2bc
00000210: b6e1 5dbd 7613 c9bc 4491 2cbe 2924 923c
00000220: 3555 bf3d 1c71 59bd 078d d8bd 0151 eebd
00000230: 1d77 633d c92a 37bd 249b 243d 345f afbc
00000240: eba5 a3bd 4ac7 41bc 5879 b0bd 2caa 253c
00000250: 0b3f 9d3b 2077 983c 642e 883c 2804 a5bc
00000260: f01e a83d 3058 8fbc be67 ed3c 6ebc 083b
00000270: ebab 6fbe 15c2 b1bd f51b 9c3d ae29 f23b
00000280: 597a bb3d ce92 f9bb ea61 8e3d 3315 c13c
00000290: 5278 153d b031 8d3d 26c3 b13c 40db bfbc
000002a0: 16f7 debd cc02 72bc 161f 9f3d 6665 4d3d
000002b0: d1b3 393d fba4 17bd 11e7 c63c 3867 163d
000002c0: 8150 903c 322b 863b ed0f c4bb c9c4 0abc
000002d0: 2137 74bd 6786 543c ef65 55bd ea11 1ebd
000002e0: 5a84 1abe 9e86 bfba 78b7 33bc ad75 54bd
000002f0: 1536 95bd 6f25 8f3d d545 e8bd d89a 17bd
00000300: 353d 69be 222a de3c 4b29 5abc a70d da3d
00000310: 9715 74bc 292f cf3d eb81 26be 6f33 80bd
00000320: 19a8 72bd 28d6 603d fb81 31bd 9de2 2c3c
00000330: b35d 6e3d 0c6c 493d 902c 8d3d 844d 83bc
00000340: f98b 12bd 95bd 01be 47e6 59bd 2f5f 34bd
00000350: c4a8 c4bd 1dee 373d 40a7 f53c 7de9 993c
00000360: e5fd bfbd 4af6 9b3d 91f4 b33c 519b 0bbc
00000370: 20f0 acbc 84a1 88bd 65c0 0bbe 4c33 04bd
00000380: 1f2a 02bd b4d2 9cbd 756a 2d3d 7efe 9dbd
00000390: ca8c debd 237a 03bd 3995 1abc 27f8 c83c
000003a0: 8b92 d3bc bac9 0bbc e046 143e 5a51 40be
000003b0: 9f25 d6bb aac0 e039 d88a fbbd 74bb b23c
000003c0: 10fd 62ba 2be4 8bbc 404c 8cbc 9240 3a3d
000003d0: b093 b43d dcf1 423d c116 e3bd cb73 ab3c
000003e0: 0a4b 3abc fde3 ffbc 6b78 6b3c 499e 90bd
000003f0: b4f8 983a 6d28 0a3d 2d0f d43c 3263 ee3c

network_body.observation_encoder.processors.0.normalizer.running_mean f4 [25]
0.016835637 0.004739088 0.0 0.97842056 0.9928118 0.022419065 2.00004e-06 0.0
0.9775794 0.99246943 0.13150172 0.0 0.0 0.8685027 0.97047824 0.13835864
0.0 0.0 0.86164135 0.95648885 0.13835864 0.0 0.0 0.86164135
0.95648885
00000000: e4ea 893c 5a4a 9b3b 0000 0000 c579 7a3f
00000010: ea28 7e3f 30a8 b73c 6d38 0636 0000 0000
00000020: a542 7a3f 7a12 7e3f 63a8 063e 0000 0000
00000030: 0000 0000 3156 5e3f 4371 783f e3ad 0d3e
00000040: 0000 0000 0000 0000 8794 5c3f 74dc 743f
00000050: e3ad 0d3e 0000 0000 0000 0000 8794 5c3f
00000060: 74dc 743f

network_body.observation_encoder.processors.1.normalizer.running_mean f4 [25]
0.44070825 0.057426535 0.00015733614 0.5017078 0.84742606 0.4685419 0.010974875 0.00010966862
0.5203735 0.84234166 0.40679115 0.010383497 0.00013533575 0.58268857 0.8634942 0.42143196
0.0008300149 4.7667494e-05 0.57768786 0.86408037 0.31217018 0.0010823506 9.400178e-05 0.68665093
0.9070832
00000000: 83a4 e13e 1638 6b3d 99fa 2439 ec6f 003f
00000010: eaf0 583f b9e4 ef3e f6cf 333c e4fd e538
00000020: 3337 053f b4a3 573f ee46 d03e 8b1f 2a3c
00000030: eae8 0d39 142b 153f f50d 5d3f eec5 d73e
00000040: 5b95 593a 95ee 4738 5ae3 133f 5f34 5d3f
00000050: c5d4 9f3e a9dd 8d3a d222 c538 5bc8 2f3f
00000060: 9b36 683f
