Assets/Training/results/Run 1/DroneBehavior/DroneBehavior-2999978.onnx (onnx, 661208 bytes, 19 tensors)

101 f4 [15]
000000 75 59 17 3a b7 03 b7 3e c9 53 30 3d 15 da cd 3e
       0.0005773523 0.35745022 0.043048654 0.40205446
000010 15 15 a0 3e 75 59 17 3a 19 18 b6 3e 75 59 17 3a
       0.31266084 0.0005773523 0.3556526 0.0005773523
000020 63 06 b7 3e eb d9 49 3e 75 59 17 3a 19 18 b6 3e
       0.3574706 0.19712035 0.0005773523 0.3556526
000030 75 59 17 3a 63 06 b7 3e eb d9 49 3e
       0.0005773523 0.3574706 0.19712035

104 f4 [25]
000000 75 59 17 3a 71 49 e9 3e 75 59 17 3a d6 c1 f2 3e
       0.0005773523 0.45563844 0.0005773523 0.4741351
000010 89 15 34 3e 75 59 17 3a 9d 99 97 3e 75 59 17 3a
       0.1758634 0.0005773523 0.29609385 0.0005773523
000020 96 73 99 3e c0 e3 ca 3d 75 59 17 3a b1 70 9a 3e
       0.29970998 0.09906721 0.0005773523 0.30164102
000030 18 06 e3 3a 6b 6c ad 3e e7 16 12 3e 75 59 17 3a
       0.0017320542 0.3387178 0.14266549 0.0005773523
000040 86 d5 97 3e 75 59 17 3a 01 20 9f 3e 27 86 de 3d
       0.29655093 0.0005773523 0.31079105 0.10865431
000050 75 59 17 3a 86 d5 97 3e 75 59 17 3a 01 20 9f 3e
       0.0005773523 0.29655093 0.0005773523 0.31079105
000060 27 86 de 3d
       0.10865431

107 f4 [3]
000000 27 7a 6a 41 74 bc 13 40 d0 4a 9d 41
       14.654822 2.3083773 19.66153

95 f4 [25]
000000 75 59 17 3a 87 df 9b 3e ad 2d d0 3c 41 0f fd 3e
       0.0005773523 0.30443975 0.025412405 0.494257
000010 5f fa ae 3e 75 59 17 3a e2 6b 4a 3e bf c6 26 3d
       0.34175393 0.0005773523 0.19767717 0.040716883
000020 8b 6e fd 3e 64 97 99 3e 75 59 17 3a a3 1d 85 3e
       0.494984 0.29998314 0.0005773523 0.25999174
000030 a7 73 5d 3d 90 5e f8 3e 4b a7 9e 3e 75 59 17 3a
       0.054065373 0.48509645 0.3098701 0.0005773523
000040 e1 2f a0 3e 77 d7 df 3b ce 3b f9 3e ea c5 83 3e
       0.3128653 0.0068311053 0.4867844 0.25736934
000050 75 59 17 3a e1 2f a0 3e 77 d7 df 3b ce 3b f9 3e
       0.0005773523 0.3128653 0.0068311053 0.4867844
000060 ea c5 83 3e
       0.25736934

98 f4 [55]
000000 75 59 17 3a 14 56 c6 3e 1c 06 e3 3a 6b d4 f8 3e
       0.0005773523 0.38737547 0.0017320546 0.48599562
000010 f7 6e 90 3e 75 59 17 3a 85 6b 73 3e 5c 59 17 3b
       0.2820966 0.0005773523 0.23771484 0.0023094034
000020 e4 40 eb 3e 1a f6 82 3e 75 59 17 3a 96 46 76 3e
       0.45947945 0.25578386 0.0005773523 0.24050364
000030 3e 32 d5 3b 91 51 e5 3e bb 08 8c 3e 75 59 17 3a
       0.0065062335 0.44788793 0.2735041 0.0005773523
000040 b2 c2 ea 3b cc 01 1c 3b 7c 12 c2 3e e7 4a 23 3e
       0.007164323 0.0023804782 0.37904727 0.15946542
000050 75 59 17 3a a6 3a 63 3d f6 5a 14 3c 70 78 cd 3e
       0.0005773523 0.055475853 0.00905489 0.4013095
000060 34 6e 52 3e 75 59 17 3a 89 c4 69 3c 0c 8b 12 3b
       0.20549852 0.0005773523 0.014268049 0.002236071
000070 76 92 39 3e 1c 22 b8 3d 75 59 17 3a 62 c8 69 3d
       0.18122277 0.08990881 0.0005773523 0.057075866
000080 03 48 bb 3b 76 67 99 3e 46 a2 1b 3e 75 59 17 3a
       0.0057153716 0.29961747 0.15198621 0.0005773523
000090 61 e6 1c 3d 75 59 17 3a 51 1e 8f 3e 66 69 ea 3d
       0.038305644 0.0005773523 0.27952817 0.114458844
0000a0 75 59 17 3a 43 e1 34 3d 56 59 17 3b b1 33 a5 3e
       0.0005773523 0.04416014 0.002309402 0.32266
0000b0 34 82 0b 3e 75 59 17 3a d1 ae 39 3d 75 59 17 3a
       0.13623887 0.0005773523 0.045332734 0.0005773523
0000c0 b4 53 ba 3e b8 99 09 3e 75 59 17 3a d1 ae 39 3d
       0.36391985 0.13437545 0.0005773523 0.045332734
0000d0 75 59 17 3a b4 53 ba 3e b8 99 09 3e
       0.0005773523 0.36391985 0.13437545

action_model._continuous_distribution.log_sigma f4 [1, 3]
000000 21 a7 f3 3b 30 44 7e 3b 19 11 b9 3c
       0.007435695 0.0038797967 0.02259116

action_model._continuous_distribution.mu.bias f4 [3]
000000 39 61 0a bc 8e e4 f0 ba 69 12 32 3c
       -0.008446031 -0.0018378661 0.010868647

action_model._continuous_distribution.mu.weight f4 [3, 256]
000000 31 0f b2 bb ef e6 ae bb bb 7f 34 bc c1 a1 07 bc
       -0.00543394 -0.005337588 -0.011016781 -0.008278311
000010 7b 9d 8d 3c 1d 3b 80 bc e2 04 8c bc 27 04 9c bc
       0.017287007 -0.015653187 -0.017092172 -0.019044949
000020 36 9b b9 3c 91 f1 a6 bc d9 50 0a 3c 12 e6 97 bc
       0.022657018 -0.02037886 0.008442127 -0.018542323
000030 b7 dc e3 3c a0 50 02 bc 55 de 55 bc 16 52 e6 3c
       0.027815206 -0.007953793 -0.013053496 0.028115314
000040 a9 22 36 3c ce 58 2b bc e9 09 05 b8 99 3c 3f 3c
       0.011116662 -0.010458184 -3.17189e-05 0.011672162
000050 00 58 a8 3b 8e 3e b0 3c 42 83 50 b9 a5 88 cc b8
       0.0051374435 0.021514203 -0.00019885323 -9.75293e-05
000060 17 42 3f 3c 47 a9 2c bd d2 d4 9c bc cf 75 ea bb
       0.011673472 -0.042153623 -0.01914445 -0.007155157
000070 53 c0 2b bc fb 3c d9 3b 6c 4d b3 bc cd b6 9f 3c
       -0.010482865 0.006629584 -0.021887504 0.019496346
000080 a2 0f 22 3d 15 03 3b 3b 48 74 3d 3c 78 23 1b 3b
       0.03956569 0.0028535773 0.011563368 0.0023672264
000090 85 c9 b2 bc f9 a9 75 bc a4 cd 5d 3b 10 0f d6 3c
       -0.021824608 -0.014994138 0.0033844495 0.02613023
0000a0 6f 12 b8 b9 6a 70 20 bd 0f ae 42 3a a3 df f3 ba
       -0.0003510895 -0.039169706 0.00074264494 -0.0018606078
0000b0 d1 2c a5 3b c6 73 c2 3c 2a 91 33 bc 2c 3a a1 bc
       0.005040743 0.023736846 -0.010959903 -0.019681059
0000c0 d8 47 8f 3c e6 13 98 3c 5b e0 2c 3c 69 44 65 bc
       0.017490312 0.018564176 0.010551537 -0.013993361
0000d0 15 7c 23 3d 81 ee 6b 3b 59 7d 4f 3c 0e b8 42 bc
       0.039913256 0.0036000314 0.012664163 -0.011884702
0000e0 7b 00 e8 bb 9c 73 ae bc 2d 74 02 bd 30 eb 55 bb
       -0.0070801354 -0.021295361 -0.031849075 -0.0032641403
0000f0 d7 89 0f 3c e6 86 9e 3c 6d 7c 18 3b 73 1c d4 bb
       0.008760891 0.019351434 0.0023267523 -0.006473118
000100 26 c3 b8 3c 81 c0 9c 3b 91 dd 2d 3c 31 4a a3 bc
       0.022553992 0.0047836904 0.010611908 -0.019932838
000110 88 e5 0c 3c e8 6d 89 bb 4c 1b 94 bc a7 bb 08 bc
       0.008599646 -0.00419401 -0.018079422 -0.008345521
000120 73 6f 4a ba 8c a2 88 bc 4a 58 55 3b 92 ef 69 bb
       -0.00077222957 -0.01667907 0.0032553845 -0.0035695774
000130 1d 33 34 bd 87 8e cc bc 15 00 9d 3b d6 e5 83 3b
       -0.043994058 -0.024970306 0.0047912695 0.0040252013
000140 86 02 b7 bc 69 84 08 bc 62 58 f2 bc 66 4d 1a bc
       -0.02234007 -0.00833235 -0.02958316 -0.009417867
000150 4e de c7 bc ca 29 51 bd 63 e1 37 3c c9 9a cb 3c
       -0.024397995 -0.051065244 0.01122317 0.02485408
000160 19 7c 23 bc 75 31 c3 bc 40 8c 30 bb 79 f4 98 bb
       -0.009978318 -0.023827294 -0.0026939064 -0.0046678153
000170 e7 31 f5 bc a8 de 35 bc 5e 5b ad bc b3 26 57 3c
       -0.029931022 -0.011100449 -0.021161731 0.013131785
000180 f4 58 56 bc 48 19 20 3a 42 53 24 3c 47 66 15 bd
       -0.0130827315 0.0006107283 0.010029616 -0.036474492
000190 e5 77 39 3d b7 47 69 3c e5 81 41 3c 5b 66 f9 3c
       0.045280356 0.01423829 0.011810754 0.030444315
0001a0 d0 05 ca 3b 1d 15 a3 bc d1 0e d4 3b 38 bf 9a 3c
       0.0061652437 -0.019907529 0.006471493 0.018890008
0001b0 09 e7 f9 bc d7 3a d9 bc 4a ca 14 bc 32 c2 b2 bb
       -0.030505674 -0.026517315 -0.009081433 -0.005455279
0001c0 18 95 4a ba 17 f8 9d bc ae c1 37 3b 3d 94 47 bb
       -0.0007727905 -0.019283338 0.0028039026 -0.0030453347
0001d0 bd 4c 83 bb 09 45 a2 bc 20 d5 16 3d 47 28 40 bc
       -0.0040069507 -0.01980831 0.036824346 -0.011728353
0001e0 4b ba 1b bc a5 15 1c 3c 8c 3c 7c 3c 37 a0 88 39
       -0.009504865 0.009526645 0.015395295 0.0002605931
0001f0 84 97 a0 3b be ca 93 3c 65 d9 a2 3b 5a e5 22 3c
       0.0049008746 0.018041011 0.004969763 0.009942377
000200 55 d3 7b bc 14 22 c9 bc dd b7 ba 3c 5a c9 92 ba
       -0.01537021 -0.024552383 0.022792751 -0.0011198923
000210 6b cf 6d bc 4e 99 4a bc 38 7d ae bc f8 c2 b0 3c
       -0.014514784 -0.012365652 -0.021299943 0.021577343
000220 2e f8 c5 3c df c6 13 3d 21 5d b4 3c 51 e7 9b bc
       0.024166193 0.03607833 0.022017064 -0.019031199
000230 b5 19 df bb 48 f1 8d bc ae b7 f7 ba bd 37 3f bd
       -0.0068084844 -0.017326966 -0.0018899345 -0.046684016
000240 04 c4 97 3b e3 73 f5 3b 69 bc 96 3c f1 9c 0d 3d
       0.004631521 0.0074906214 0.018400388 0.0345735
000250 01 19 cd bc 1c 46 d1 3c 58 22 3e bc 8e 69 98 ba
       -0.025036337 0.025546126 -0.011604868 -0.0011628137
000260 04 bc 0e bc ef 9b 84 bc 93 aa b2 b9 ef 25 40 bc
       -0.008711819 -0.016187636 -0.00034077893 -0.011727794
000270 f2 a0 e9 bb 5d 63 a5 bb df 02 51 bc dd 34 a4 3c
       -0.007129782 -0.0050472454 -0.012757032 0.020044738
000280 9c bf 3e 3c 08 f5 82 bb 19 24 82 3c 6f 82 95 3c
       0.011642363 -0.003996495 0.015886353 0.018250672
000290 6c 9b f0 bc f0 00 5b 3c 5f 07 b6 3c 42 bc d4 3b
       -0.029370986 0.013366923 0.022220312 0.0064921686
0002a0 55 2c c7 3c 8a a9 1c bd 94 76 03 bd 92 21 f9 bb
       0.024313131 -0.038247623 -0.032095507 -0.007602879
0002b0 96 8d df 3c 78 99 14 3b db 59 d7 3c e4 70 00 bd
       0.027289193 0.0022674482 0.026287964 -0.03135766
0002c0 64 e0 e3 3c a2 84 57 bc 06 60 10 ba 44 70 d7 bc
       0.027816959 -0.013154181 -0.00055074727 -0.02629865
0002d0 63 62 89 bc 8f e9 b4 bc fb 37 31 3c 9d 15 4d bc
       -0.016770547 -0.022084026 0.010816569 -0.01251736
0002e0 3c a1 6e bc 6d 27 a6 3b 8a b8 45 bb 51 a6 65 3a
       -0.014564808 0.005070618 -0.0030169808 0.000876044
0002f0 69 f3 0c 3c 9f 30 85 bc 06 5a 94 3c 5a b4 51 bc
       0.008602955 -0.016258536 0.018109333 -0.012799347
000300 79 23 a9 3c 3e 1b cb 3c 11 fc a6 3c 08 0c 6a 3c
       0.020646797 0.024793264 0.020383867 0.014285095
000310 ac f4 ea bb 38 81 4d 3c c5 4c 14 bc 53 46 ea bc
       -0.0071702804 0.012543015 -0.009051506 -0.028597986
000320 a7 0f 25 3c 48 92 63 3c d1 d8 f0 3c 7b 20 0a 3c
       0.010074533 0.013889857 0.029400261 0.0084305955
000330 e5 ac a2 3c 03 ce c0 bc 53 b6 96 bc 14 90 a2 3a
       0.019857833 -0.023535734 -0.018397486 0.0012402558
000340 96 49 0c 3c b7 51 86 bc 7b aa c3 3c 3e 8a d5 3c
       0.008562466 -0.016396387 0.023885002 0.026066896
000350 8c 31 04 3c 0a 0a c2 bc ca 34 24 bd ef 78 6f 3c
       0.0080684535 -0.023686428 -0.040089406 0.014616235
000360 c0 5a d5 3b 79 5c 84 bc cc f4 d8 ba bf 16 7b bc
       0.0065110624 -0.016157376 -0.0016552447 -0.015325247
000370 bd 81 03 3d 20 32 8d bb a7 53 a1 3c 4a 21 68 3c
       0.03210615 -0.004308954 0.019693209 0.014168093
000380 ca 5b 90 3c 36 9d 17 3c db a9 26 3b 69 21 cf b9
       0.017621893 0.009253791 0.0025430832 -0.0003950701
000390 09 ac 1b 3c c7 61 cc bc cf dc ae 3b b9 33 2b ba
       0.009501466 -0.024948968 0.005336381 -0.00065308396
0003a0 33 3e f0 3c 98 53 05 3c 7e 09 6c bb c9 fc 6c bd
       0.029326534 0.008137606 -0.00360164 -0.057858262
0003b0 b7 76 5a 3c 0b e9 0d bd ee df 96 3c dc 2c 42 bc
       0.013333968 -0.034646075 0.018417325 -0.011851516
0003c0 ee 42 c9 3c 07 c8 61 3c be 63 9f 3c 5f 91 80 bb
       0.024568047 0.0137806 0.01945674 -0.0039235796
0003d0 4a cb 3d 3c 0a 3b 9e 3b 82 41 18 ba c7 99 db 3c
       0.011584112 0.0048288153 -0.0005808101 0.026806725
0003e0 68 3d 80 bc b2 64 6c bc b1 c1 ea 3c 54 e0 ee bb
       -0.01565428 -0.0144283045 0.028656812 -0.0072899256
0003f0 65 0a 73 3c 4a 19 98 3b 55 0a b8 3b b2 fe c8 bc
       0.014834021 0.0046416866 0.005616466 -0.02453551

network_body._body_endoder.seq_layers.0.bias f4 [256]
000000 98 a4 34 3c ab 3c ca ba 86 f9 aa ba 30 3f 85 bc
       0.01102557 -0.0015429457 -0.0013044334 -0.016265482
000010 d9 9b 1d bc fd 2f 33 bc ee b3 b2 3c e2 e7 c0 3a
       -0.0096196765 -0.010936734 0.021814313 0.0014717544
000020 dc dd bc 3b 59 92 27 3c 21 51 d6 3b 18 4f cb 3b
       0.0057637524 0.010227763 0.006540433 0.006204497
000030 b3 ab 2e 3c 21 93 dd 3a 3a c9 4f bc 63 65 ef bb
       0.0106610535 0.001690481 -0.0126822535 -0.0073057874
000040 cd 15 1c 3c 4f dd 1e 3d a1 b2 ab 38 df ea c1 3c
       0.009526682 0.038785275 8.1871876e-05 0.023671566
000050 c7 b4 b1 3c 0b 8f 72 bc 31 73 38 bb 53 c3 a8 3c
       0.021692647 -0.014804612 -0.0028144831 0.02060095
000060 64 5e 3d 3b f2 d0 00 bc aa 1f 1e bb 55 7f 8d bc
       0.0028895373 -0.007862316 -0.002412776 -0.01727263
000070 d9 f7 79 ba 16 9b 8e 3b b5 5e c1 3b 62 86 94 39
       -0.00095355284 0.004351984 0.0059011825 0.00028328883
000080 d9 b8 5c 3c 15 f7 7a 3c 29 4a 27 3b 9c 04 a6 3c
       0.0134718055 0.015317698 0.002552638 0.02026587
000090 a0 13 5c bb 6a ad ad 3c ee ee f4 3c b6 ae 2b bb
       -0.0033581033 0.021200854 0.029899087 -0.0026196665
0000a0 ae e4 1c 3d 66 e5 c3 3c 4d 66 8f bb f9 c2 0e bb
       0.038304023 0.023913097 -0.004376209 -0.0021783693
0000b0 f4 d2 8d b9 7c eb c1 3c 31 b0 24 3b 28 74 af bb
       -0.00027050788 0.023671858 0.0025129432 -0.005354423
0000c0 1e d4 30 bb fe f2 e4 3c 76 4b 8f bc 8b c7 4a bc
       -0.00269819 0.027947899 -0.017492037 -0.012376676
0000d0 25 4f 99 3b ef bc 57 b9 04 30 a5 3b 31 9d 41 3c
       0.004678624 -0.00020574381 0.0050411243 0.0118172625
0000e0 a7 e7 a6 3c 2a 30 a6 3b c5 d0 17 3c 70 32 d9 3a
       0.020374132 0.0050716596 0.009266083 0.0016570818
0000f0 35 81 9c bc 07 9c 4c 3c 7f 3a a2 3c f6 7d 91 3b
       -0.01910458 0.012488372 0.019803284 0.0044400645
000100 f5 c6 3f 3c 03 f6 27 bc e9 fc dc 3c 1b 48 f0 ba
       0.01170515 -0.010251525 0.026976066 -0.0018332036
000110 60 08 46 3b 7b da 5a 3b b9 85 ad bb 2a 2e 93 3d
       0.0030217394 0.0033394385 -0.005295482 0.071865395
000120 ce c9 12 3c 4a 41 aa 3b 36 a6 a1 3c f8 e7 05 bb
       0.008959247 0.0051957713 0.019732576 -0.0020432454
000130 63 2b e3 3b 73 dd 25 3c 12 e3 bf 3c 21 4f ce 3b
       0.0069326623 0.010123598 0.023423705 0.006296054
000140 37 e9 91 3c 9e 6d 5c bb 5e 6b 9c 3c 74 72 82 3c
       0.0178114 -0.0033634673 0.019094165 0.015923716
000150 eb b2 75 3c 57 c2 3b 3b ea 04 33 bb d0 a9 8a bb
       0.014996271 0.002864977 -0.0027316161 -0.004231669
000160 6f 21 b1 3c ae 69 4f 3c 6e b4 9a 3b f2 7d 91 3c
       0.021622388 0.012659473 0.004721216 0.01776025
000170 33 e9 8f bb 86 f6 53 3b 86 56 f1 3c 74 7f bf 3c
       -0.004391813 0.0032342984 0.029460203 0.023376204
000180 92 55 bf 3b b9 d3 17 3c 9d 1c 20 3c db d0 30 3c
       0.005839058 0.009266787 0.009772447 0.0107919825
000190 85 98 77 3c 96 00 dd 3b f4 34 a8 3c 1d 8a 0d 3c
       0.015112047 0.0067444546 0.020533063 0.008638886
0001a0 d9 64 4e 38 9c 56 dc bb 81 ac 0f 3a 3e f0 61 3c
       4.920815e-05 -0.006724192 0.0005480722 0.013790188
0001b0 5a a5 9d 3c 30 72 bd 3b f6 77 62 3c 1b 00 69 3b
       0.019243885 0.0057814345 0.013822546 0.0035553041
0001c0 c0 06 0e 3c e1 0c 20 bb 2f 03 c9 bb bc 99 b0 3a
       0.0086686015 -0.002442174 -0.0061344127 0.0013473551
0001d0 2e 3c df 3b 42 71 2f 3c 44 a3 33 3b f3 c4 24 3b
       0.006812594 0.010708155 0.0027410546 0.0025141805
0001e0 da 63 0b 3c d2 2d 2f bb 26 bb bb 3c 6c 98 6b bc
       0.008507693 -0.0026730192 0.022916388 -0.014379602
0001f0 84 3e 1e bb 4d af fd 3b dd e1 fa 3c 07 6d 29 3c
       -0.002414615 0.0077418447 0.030625278 0.010340936
000200 09 1e 65 3c 02 db 17 3c 09 32 96 bb e3 9a 92 3c
       0.013984212 0.009268524 -0.0045836014 0.017896121
000210 bb f5 a6 3c b5 ca da bb b7 48 5e 3c 46 bc 85 3c
       0.020380845 -0.0066769966 0.013567141 0.016325127
000220 8a 51 49 3c 60 93 a1 bb df 55 7c 3c 40 7f ae 3b
       0.012287507 -0.0049308985 0.015401333 0.005325228
000230 9f 1a 3b 3b 02 e5 f9 bb 0f 27 68 bc b3 69 15 3c
       0.0028549803 -0.007626177 -0.014169469 0.009119439
000240 18 9a ac 3b 9b 5a 5e 3c 38 74 a8 3c 83 9d c5 3c
       0.005267393 0.013571407 0.02056323 0.024122959
000250 d9 81 cf 3b 74 1f b2 bb 7c c5 8e ba c2 84 0a 3d
       0.0063326177 -0.0054358784 -0.0010892595 0.033818014
000260 d1 66 87 3c 45 01 c6 3b c0 25 12 3c 2c bb d2 bb
       0.016528519 0.006042632 0.008920133 -0.006431004
000270 ed 84 04 bc a4 85 1a 3c f9 db 2c bc b1 50 b2 ba
       -0.008088333 0.0094312765 -0.010550492 -0.001360437
000280 6e 8c 6d 3c 7b 63 a7 bc 16 98 fc 3b a1 ee 5f 3c
       0.014498813 -0.020433178 0.0077085597 0.013667733
000290 bb 74 a8 3c 86 8d 7c 3c d1 76 01 3c d0 c8 bf 3b
       0.020563474 0.015414601 0.007901863 0.005852796
0002a0 f6 cd 3b 3c a6 12 9d 3b 57 b2 ce 3c d1 f0 0d 3d
       0.011462679 0.004793483 0.025231523 0.03465349
0002b0 fb ad c3 3b 0c 3f b2 3b 5b e4 9a ba 23 dc e6 bb
       0.005971668 0.0054396447 -0.0011817323 -0.0070452853
0002c0 11 43 af 3c de a3 30 3c 13 e1 d9 3c eb da 43 3a
       0.021394284 0.0107812565 0.026596582 0.0007471281
0002d0 f4 69 12 3d a4 7a 0c 3b 42 36 93 3b 15 d4 4d bb
       0.035745576 0.0021435404 0.004492552 -0.0031406928
0002e0 42 0e 8a 3b 73 83 62 3c 0a ab df ba 28 b0 e8 3a
       0.0042131254 0.013825285 -0.0017064523 0.0017752694
0002f0 8e 20 4b bb 4e 29 81 3c 3f d4 4f bb 89 98 0c 3b
       -0.0030994746 0.015766766 -0.0031712202 0.0021453223
000300 33 fd df 3c 0b b7 82 3b 95 e8 5e 3b 7b 36 23 bb
       0.027342414 0.0039891056 0.0034013141 -0.00249043
000310 24 68 ec 3b a7 75 34 bc a7 ae 91 3c 8f 84 b7 bc
       0.007214563 -0.011014379 0.017783476 -0.022402076
000320 64 c3 a9 bb 53 69 2f bc f9 7f 76 ba 31 b2 f8 3c
       -0.005180763 -0.010706264 -0.00094032247 0.030358406
000330 55 97 4c bb e4 dc 58 3c 83 b5 79 bb b3 70 9c bb
       -0.003121813 0.013236258 -0.0038102574 -0.004774177
000340 29 27 65 bc 45 74 76 3c 10 37 1b 3c 8f 2a 68 3a
       -0.013986387 0.015042369 0.009473577 0.00088564394
000350 e7 f5 02 3c 1d d5 4a 3c ea 43 83 3b 71 87 7d bc
       0.007993198 0.012379912 0.0040058987 -0.015474186
000360 85 82 e1 bb 3b 45 9d 3b df b0 2f bc 80 32 b6 3c
       -0.006882014 0.0047995127 -0.010723322 0.022240877
000370 46 83 5b 3a 6a a4 57 3c 2d 4f b3 3c 96 9f 26 3c
       0.0008373748 0.013161758 0.02188834 0.010169884
000380 d0 40 0d 3c e1 5e 47 bc eb f6 3c 3b a5 95 6e 3c
       0.00862141 -0.012168617 0.0028833698 0.014562045
000390 71 a4 a2 3c d2 3a 8a 3b a4 ff 81 bc a3 b6 22 bb
       0.019853802 0.0042184377 -0.01586897 -0.0024828098
0003a0 02 ae b2 3c d3 03 8c 3b 78 f8 c7 3c 58 3c 32 bc
       0.021811489 0.004272917 0.024410471 -0.010878645
0003b0 65 6a 72 39 0e f4 a2 3b 26 fc 36 3a 6a 71 d4 3c
       0.00023118554 0.0049729412 0.0006980322 0.025932986
0003c0 26 bf 35 3c c2 2f 32 3c 8e aa bc 3c 79 54 2b 3c
       0.011092937 0.010875644 0.023030546 0.010457152
0003d0 88 e2 e4 3a ed dc c9 3b b8 37 01 3c ce 71 40 bb
       0.0017462531 0.0061603696 0.00788682 -0.0029364708
0003e0 ee 8f a1 ba 22 14 36 bc 0d 07 cd 3c 91 a3 ae 3c
       -0.001232622 -0.0111131985 0.025027776 0.021318229
0003f0 aa bf 98 3c 84 b6 d7 3c 8c 44 56 3c a5 5f 56 3b
       0.01864608 0.026332147 0.013077866 0.0032710817

network_body._body_endoder.seq_layers.0.weight f4 [256, 123]
000000 83 61 f8 bd d0 ea 23 3d b2 b1 4f bd f8 25 4e bd
       -0.12127974 0.040018857 -0.050706573 -0.05032918
000010 0a 15 f3 3d 36 e9 7b bc 45 91 45 ba 67 85 ea 3d
       0.11869247 -0.015375426 -0.00075366005 0.11451226
000020 a0 01 94 bd 08 56 b7 3d 5a bf b0 3d 8f eb 02 bd
       -0.072268724 0.08951956 0.086302474 -0.031962927
000030 ca c9 15 3e 23 c2 8d bd 83 e6 15 be 21 81 b5 bd
       0.14627758 -0.06921794 -0.14638714 -0.0886252
000040 5f e0 d2 bd ca 47 18 3d e7 26 0b 3b 7c 59 8d be
       -0.10296702 0.03717784 0.0021232904 -0.27607334
000050 9f a4 f9 3d 5c 91 b0 bc 30 55 ba bc 8b 22 69 bd
       0.12189602 -0.021553688 -0.022745699 -0.05691771
000060 2d e2 8f bd e0 a9 8c 3b 65 d5 2a 3d 7a b9 49 3d
       -0.070255615 0.0042927116 0.041707415 0.04924915
000070 4c f6 84 3d e0 21 7d 3e 02 f4 9e bd ce 59 2e 3e
       0.0649229 0.24719954 -0.077613845 0.17026445
000080 05 f2 a8 3c 0a 1f cf bd 0b f0 78 bd f7 36 10 bd
       0.020623216 -0.10113342 -0.060775798 -0.03520867
000090 19 b7 01 3b 8f de 96 3d 36 9f 57 bd f8 58 e8 3c
       0.0019792973 0.073666684 -0.05264207 0.028362736
0000a0 b9 96 af bc f4 c6 9e bd b8 67 f6 3d 4d b7 e2 3b
       -0.021434175 -0.07752791 0.120315015 0.006918824
0000b0 6c 57 0d 3d c6 30 f3 3d f0 48 8f bc e9 51 ad 3d
       0.0345072 0.11874537 -0.017490834 0.08462889
0000c0 7f 6b 29 be e6 a9 de 3d 40 b1 26 be 00 ed aa 3d
       -0.16544913 0.10872249 -0.16278553 0.083459854
0000d0 ce b8 68 3c 2d 71 cb bd a4 79 39 3d bf b8 e2 bd
       0.014204217 -0.09933696 0.04528202 -0.11070394
0000e0 19 1e af bd 5d 5c 0a 3d c8 30 1d bd e2 1a 01 be
       -0.085506625 0.03377949 -0.0383766 -0.12607911
0000f0 20 27 88 3d b2 cc 83 3b 87 88 c1 ba 74 13 27 3d
       0.066480875 0.0040222043 -0.001476542 0.040790036
000100 e5 b5 3e 3d 9a 99 6a bc 56 9e 94 bd be f1 c5 3c
       0.046560187 -0.014318848 -0.07256763 0.024163123
000110 42 e9 c0 3d b1 72 ed bd 91 12 a4 3c 7e 35 c7 bd
       0.094194904 -0.11594141 0.020028384 -0.09727
000120 3e d4 11 be f7 d1 89 3d c7 93 e0 bd 6b 4d c2 bd
       -0.1424112 0.06729501 -0.10965686 -0.094874226
000130 4b e1 38 bd 6f 4c df 3d 8c 4a 26 3e be ec 62 bc
       -0.04513673 0.109032504 0.16239375 -0.013850389
000140 58 0a 4c 3e a3 48 9a 3d 24 06 90 bd 0d ad 1d 3e
       0.19925821 0.075333856 -0.07032421 0.15398045
000150 40 f0 a9 bd 33 b8 49 bd f3 9c c2 3c 55 84 6f 3e
       -0.08297777 -0.04924793 0.02375648 0.23390324
000160 ee 1a 4e 3e eb 9f 97 3b 2a d6 af bd 99 4b 35 bd
       0.2012746 0.004627218 -0.085857704 -0.04426155
000170 a0 87 03 be 23 29 83 bd 18 4c 86 3c 3d 0f 9e bd
       -0.12844706 -0.064043306 0.016393706 -0.0771775
000180 1f bf f0 bd 39 89 81 3c e9 a5 99 3d 7d d8 1b be
       -0.117552035 0.015812503 0.07502348 -0.15219302
000190 3d ab 12 3d f4 5e 19 be a5 73 20 3b 77 44 bc 3d
       0.035807837 -0.14977628 0.0024482992 0.09192746
0001a0 f8 1a 4c 3c 75 f1 8c 3d 45 b3 b1 bd 66 58 22 be
       0.012457602 0.06881992 -0.08676771 -0.15854034
0001b0 0e 40 77 3d 5b 36 30 3d 84 27 bd bc ca 5e b2 bc
       0.06036382 0.043020587 -0.023090132 -0.021773715
0001c0 d6 dd 16 bd 1b 69 1c 3e 35 46 9b bd 4c bd 6b bd
       -0.036832653 0.1527447 -0.0758175 -0.057553574
0001d0 81 99 5f 3d 4e b2 12 bc 11 bf 85 3c c0 df 0c 3d
       0.054589752 -0.008953644 0.01632646 0.034393072
0001e0 73 b2 aa 3d 39 92 10 be 71 67 c3 bc b2 ff 5b bc
       0.08334818 -0.1411828 -0.023853036 -0.013427662
0001f0 90 8e 66 3d 8f 5c 39 bd ac 41 89 3e ac 0d 64 bd
       0.056288302 -0.045254286 0.26807916 -0.0556771
000200 51 24 39 3e 60 cd 60 3d b3 c5 fd 3d 4e 50 b7 bd
       0.1808026 0.05488336 0.12391224 -0.08950864
000210 63 86 c1 bd 19 bf 5e 3d a9 ed 8a bd 81 07 91 bd
       -0.0944946 0.054381464 -0.06783611 -0.070815094
000220 51 4f 18 bd 81 ad c1 3c 1e be 15 be ce 8b 9a 3d
       -0.037185017 0.023642303 -0.14623305 0.07546197
000230 ae ff c7 bd ff ac 63 3d 63 ab a7 ba 74 83 07 3e
       -0.09765564 0.055584904 -0.0012792166 0.13233739
000240 6c 28 94 bd 28 c4 45 bd 58 64 05 3e ba 8a 03 bd
       -0.07234272 -0.048282772 0.1302656 -0.03211472
000250 14 c6 dc 3b ce e6 32 bd d6 81 6d be b3 46 d5 bd
       0.00673748 -0.043677144 -0.2319406 -0.104138754
000260 64 26 df bd 0d 41 7c 3d c3 88 39 3d 00 8d 8c 3d
       -0.10895994 0.061585475 0.04529644 0.06862831
000270 4a de de bc 3d df 12 3e b0 b8 69 3e 25 45 2c 3c
       -0.027205605 0.14342971 0.22824359 0.010514532
000280 1c 70 8f 3d 7f 38 08 bc 5f c4 49 bd ce f1 94 3d
       0.07003805 -0.008314251 -0.04925954 0.07272683
000290 48 fc f8 bd 89 38 07 3e 3c b9 4f bd f4 18 e9 bd
       -0.12157494 0.1320516 -0.050713763 -0.113817126
0002a0 0b 24 2b 3d 6a 7d b1 3c 36 b9 0d bd 5c a5 40 bd
       0.04178242 0.021666247 -0.03460046 -0.0470327
0002b0 b4 4e 9f bd 38 56 0a 3e e7 c0 69 39 74 e2 05 bc
       -0.07778683 0.13509452 0.00022292473 -0.008171666
0002c0 24 62 44 3c 2d 67 b9 3d 26 47 e4 3d e9 bd 8a bc
       0.011986289 0.09052882 0.11146383 -0.01693626
0002d0 fd 60 fe 3d 82 b5 b7 bd c8 0c ff 3c fd a2 32 bd
       0.12420843 -0.08970167 0.031134024 -0.04361247
0002e0 b8 f5 93 3d 4c 8b 40 3d b0 61 c9 bd a1 bb 2c bd
       0.072246015 0.047007844 -0.098330855 -0.042171124
0002f0 68 f6 09 be a7 da 56 3d dc 47 f9 3d a3 89 e6 3c
       -0.13472903 0.052454617 0.12171909 0.028141802
000300 1a 53 54 3d c2 98 17 bd 72 27 0b 3d 90 29 15 bc
       0.051837064 -0.037010916 0.033973165 -0.009104148
000310 d6 80 29 3e 1f be 19 3e b4 51 c4 3c bf 4c 98 bd
       0.16553053 0.15013932 0.02396474 -0.07436513
000320 17 fa 89 3b 3e 0a 20 be a2 62 cb 3d 64 c6 2e be
       0.0042107212 -0.15628907 0.09930922 -0.17067868
000330 a6 cc 88 3d a8 53 86 3d cd 7a 85 bd fa 15 51 bd
       0.066796586 0.06558925 -0.06517563 -0.05104635
000340 99 14 15 3d 3b 47 9e 3d 83 59 13 3e 04 40 33 3b
       0.036396597 0.0772843 0.14389615 0.0027351389
000350 4d cb 81 3e c9 85 25 be 15 2e 17 be f5 d1 5a bd
       0.2535042 -0.16164316 -0.14763673 -0.053422887
000360 f0 38 f1 bd 0c d9 2d bb 96 e3 a9 3d 51 fa eb bd
       -0.11778438 -0.0026527075 0.08295362 -0.115223534
000370 b7 43 65 3e 4c f2 c3 3c ac b6 f9 bd dc ce 7b bd
       0.22389112 0.023919247 -0.12193045 -0.061476573
000380 5e 13 d7 bd 3d 5a dd bd 29 2b 31 bc 44 7b 70 bc
       -0.10501741 -0.10808227 -0.010813513 -0.014677826
000390 1a 39 fa bc b3 88 3b bd 50 48 44 be 6f 03 cf bd
       -0.030544806 -0.045784663 -0.1916821 -0.10108077
0003a0 f1 5a 9f 3c 9f c6 d0 3c cf b2 70 3b 1a 68 61 3d
       0.019452544 0.025485335 0.0036727672 0.05503092
0003b0 8c 7a 2a bc a3 db d6 bd d3 94 a8 3d c7 e8 92 3d
       -0.010405194 -0.10491111 0.08231511 0.07173305
0003c0 fc a4 87 3c 28 23 4b be 66 4d 53 bb ca 0f 4c bd
       0.016558163 -0.1983763 -0.0032242178 -0.049819745
0003d0 e7 a2 e5 3c 6d 60 e0 b9 7a 8d 49 bc 0c e4 a2 bc
       0.02803178 -0.00042796452 -0.012301797 -0.019884132
0003e0 1f 7d 8c bd e3 cf eb 3d b3 54 7c 3d 95 81 36 be
       -0.068598025 0.115142606 0.061604213 -0.17822869
0003f0 22 f4 e5 3d cc 42 fe bc fd 60 b3 bd d4 5d cc bc
       0.11228205 -0.03103771 -0.087587334 -0.024947084

network_body._body_endoder.seq_layers.2.bias f4 [256]
000000 b6 42 b4 3c 94 f9 9f 3b 81 97 91 3c 2e 10 c5 3c
       0.022004467 0.004882047 0.017772438 0.024055567
000010 86 75 75 3c 07 d0 7d 3b 47 6d 97 ba 78 d8 8c 3c
       0.014981633 0.003872873 -0.0011552953 0.017193064
000020 66 3d 22 3c 8d 04 30 3c 0d 69 67 3c 74 16 f4 bb
       0.009902334 0.0107432725 0.014124167 -0.0074489657
000030 a7 03 71 3c 29 37 b3 3c 04 c1 82 3c 7a e8 46 bb
       0.014710343 0.021876888 0.015961178 -0.003035097
000040 fa 10 b6 3b 9d 1e bc bb e8 f7 0c 3d 41 51 6b 3c
       0.005556223 -0.005740954 0.03441611 0.014362634
000050 d3 ee 6c 3c f4 a1 72 3c 3f 5f f5 bb 84 18 5b bc
       0.014461237 0.01480912 -0.007488161 -0.013372544
000060 f5 a3 45 3b 68 98 87 3b 6b 92 10 3d ce 88 97 bb
       0.003015754 0.0041380413 0.035295885 -0.0046244627
000070 c5 38 25 bc e8 56 89 bb c8 9d d8 3b ba 78 02 bc
       -0.010084336 -0.0041912682 0.006610606 -0.007963354
000080 c9 1f a7 3b 7b df 73 3b 21 f4 77 bb 1c bc 3c ba
       0.0051002246 0.0037212062 -0.003783472 -0.00071996613
000090 ff b6 a3 b9 ee d1 07 ba 79 bc cc bb 7f 4b 4b 3c
       -0.00031226125 -0.0005181123 -0.0062480536 0.012408136
0000a0 5f 30 59 3c a4 bc f7 b9 9d 26 cd 3b a7 59 48 3c
       0.0132561615 -0.0004725206 0.0062607066 0.012228406
0000b0 44 a0 2f bc 93 a6 29 bc ec 47 2d 39 02 ac 5b 3c
       -0.010719363 -0.010354656 0.00016525359 0.013407709
0000c0 86 37 4d bc 69 4b 8a 3c b4 90 96 3b 7f 0f 7f 3c
       -0.012525445 0.016881661 0.0045948867 0.015567659
0000d0 bd 1a 2e ba b5 1b 07 bb 55 f0 03 3c 58 80 57 3c
       -0.00066415576 -0.002061588 0.008052905 0.013153158
0000e0 da 90 fd bb ed 87 a0 3b 00 9e 60 3c 6a f0 a6 3c
       -0.007738215 0.004899016 0.013709545 0.02037831
0000f0 24 2b bc 3c 97 10 ab bc dd 82 15 3c 0a 0f cc 3a
       0.02296979 -0.020881934 0.0091254385 0.0015568447
000100 80 78 96 bb 28 36 8c 3c 39 43 02 3c 51 41 81 bb
       -0.0045920014 0.017115667 0.007950597 -0.003944554
000110 3d 27 56 bb 58 cd cc 3a 9c 4e c3 bb 79 ca bd 3b
       -0.0032677196 0.0015625162 -0.0059602987 0.005791959
000120 4a 46 2f bb f2 f7 e6 3b 94 04 c9 3b ca df 42 bc
       -0.0026744776 0.0070486004 0.006134579 -0.011894176
000130 02 aa 92 3c 1a 35 f1 3a 7d 3b 2e bc be 80 ef 3b
       0.017903332 0.0018402666 -0.0106343 0.0073090484
000140 cd 66 4c bb 64 f0 68 3c fe 25 47 bc 42 54 69 3b
       -0.0031189204 0.01421747 -0.012155054 0.00356032
000150 ac 01 f1 bb 5e 75 1c 3c 99 c7 9f bb 7d 80 93 3c
       -0.0073549356 0.009549467 -0.004876089 0.018005604
000160 fa 9d 3f 3b d7 f5 b0 3c f0 00 22 bc 54 4f 0f 3c
       0.0029238448 0.0216016 -0.009887919 0.008746941
000170 05 4f 60 bc 4d cb 7b bb 59 39 9c 3c e2 49 08 3c
       -0.013690715 -0.0038420737 0.019070314 0.008318396
000180 03 83 5d 3c 17 00 af ba 54 04 6a bc 12 e3 bd 3c
       0.013520005 -0.0013351467 -0.0142832585 0.023179565
000190 7d 64 1d 3c ea c7 06 3b f1 dd cd b9 ae 62 45 3c
       0.009606478 0.0020565935 -0.00039266006 0.012047453
0001a0 c2 96 42 3b 80 68 7b bb 46 d0 ce 3b 41 a8 f3 ba
       0.002969191 -0.0038361847 0.006311449 -0.0018589572
0001b0 ed ff d4 3a 7f 5f 0b bc 33 5c 92 3c 42 22 11 3c
       0.0016250588 -0.008506655 0.01786623 0.008858265
0001c0 a2 f7 ab 3b fd 61 50 3c 57 9a 02 bb e5 4f 22 bc
       0.005248026 0.012718675 -0.001992842 -0.009906744
0001d0 e5 e4 aa 3b 0a 5e cb 3a bc bb 48 3c 14 20 62 3b
       0.0052152746 0.0015515697 0.012251791 0.0034503983
0001e0 6b ca 4e 3c b2 5e 94 3c 83 a6 ad bb 75 97 66 bc
       0.012621502 0.01811156 -0.0052993908 -0.014074196
0001f0 27 6b 43 3c d8 9d fa bb 4e e0 3e bc 30 56 22 bb
       0.011927403 -0.007648211 -0.011650158 -0.002477061
000200 69 ac e5 3b aa 0b 73 bc ee 32 4f 3b 65 2b 22 3c
       0.0070090783 -0.014834324 0.003161605 0.009898041
000210 35 67 49 3b 1a d2 4c 3c 20 9b 0a 3c 6b 3b ac 3a
       0.0030731682 0.012501264 0.008459836 0.0013140267
000220 c2 f6 3c 3b 87 7f 39 3c b1 74 46 bb 56 20 45 bc
       0.0028833603 0.011321909 -0.0030281956 -0.012031635
000230 a6 e4 0c bb 85 7d b7 bb c5 21 d1 3b 76 d7 14 bc
       -0.002149859 -0.00559968 0.0063821995 -0.009084573
000240 54 02 b9 ba bd 25 10 3c e2 fc fa 3b df cd 3a 3c
       -0.0014115074 0.00879806 0.0076595405 0.011401623
000250 08 72 80 3c 24 6c 7d 3c 86 88 8a bc 1d d5 47 bc
       0.015679374 0.015467677 -0.016910803 -0.012196806
000260 f9 a5 7e 3b 3b 86 15 3c 3f 57 8a 3b 4a 47 26 3b
       0.0038856252 0.009126241 0.0042218263 0.0025372081
000270 f5 92 91 ba 30 e3 29 3c bb bb 82 ba 90 0e 05 3c
       -0.0011106419 0.010369107 -0.0009974161 0.008121148
000280 98 24 9e 3c c6 d4 e2 bb 38 ca e5 bb bf 5a 94 ba
       0.019304559 -0.006922337 -0.0070126317 -0.0011318548
000290 b9 22 25 bd 15 56 80 3c b0 02 80 3b 2b 06 c5 3b
       -0.040316317 0.015666047 0.0039065704 0.006012698
0002a0 fb b1 0b 3b 43 13 c9 3b 79 b5 89 3c 52 ab 3e bc
       0.0021315801 0.0061363294 0.016810166 -0.011637526
0002b0 91 24 26 3b 7b 7c 6e 3c 9c d0 32 3c 5c a1 5b 3c
       0.0025351385 0.014556046 0.010913994 0.01340517
0002c0 ff b7 2d bb b2 2e d2 3b 53 57 3a 3c c5 78 6b 3c
       -0.0026507375 0.006414258 0.011373359 0.014372055
0002d0 eb 59 ca bb a0 2a 7a 3c 9a 2f 81 bc 05 d0 0c bc
       -0.00617527 0.015268952 -0.015769769 -0.008594518
0002e0 d9 fb 3b bc c3 67 e4 3b 84 e9 41 3b bb 29 83 3c
       -0.011473619 0.006970377 0.002958865 0.01601111
0002f0 40 f9 d0 3c 97 d1 29 3c d9 a3 db 3a 42 c8 cf bb
       0.025509477 0.0103649115 0.0016757204 -0.0063410113
000300 ab a2 3e bc c5 ac 8c 3c d4 19 2c 3c 3f de 5f 3c
       -0.011635463 0.017172227 0.010504205 0.013663827
000310 a6 26 72 3b ba 34 c1 bb 18 27 c9 3b 17 c1 d6 b9
       0.0036949306 -0.005896178 0.0061386935 -0.00040961124
000320 f1 33 9d 3c 7b d4 bc 38 44 39 25 bc b4 6c 54 bc
       0.019189807 9.004116e-05 -0.010084454 -0.01296537
000330 8f d1 20 bb 33 24 10 bc e6 7f 2f 3c 80 3f aa 3c
       -0.002453897 -0.008797693 0.010711646 0.020782232
000340 71 89 3c 3b 9a 41 86 b9 a3 f3 7e bb 01 75 0e 3c
       0.0028768445 -0.0002560735 -0.0038902543 0.008694888
000350 70 b2 8c 3c 2f e2 03 3c 89 14 07 3d 01 7b 9b 3a
       0.01717493 0.008049532 0.03297857 0.001186222
000360 08 4e ac ba d8 38 d2 ba 2b 41 8c bb e7 8a e3 3b
       -0.0013145814 -0.0016038669 -0.0042802296 0.0069440487
000370 ab b7 53 bb 36 57 f8 3b 65 15 3c bc 7b 55 03 bb
       -0.003230552 0.0075787557 -0.01147971 -0.0020039964
000380 4c 4e 9c 3b 10 7c 9e 3c f4 90 99 3b 32 87 2e bc
       0.004770076 0.019346267 0.004686469 -0.01065235
000390 de 5f 62 3c 2a e2 24 3b c7 31 2f bb 8a d3 b9 3c
       0.013816802 0.0025159218 -0.002673255 0.022683877
0003a0 b9 98 cc b9 e0 8f e8 3c c0 00 ab bb ef 50 3b bb
       -0.000390237 0.028388917 -0.0052185953 -0.0028582176
0003b0 bd 27 0c 3c 13 d6 04 bb 37 a1 c6 3c 34 3a 3f 39
       0.008554396 -0.00202692 0.024246795 0.00018236862
0003c0 95 ab 0f 3d 90 bd 13 3b ca fe 09 bc 83 8a 7f 3c
       0.035075743 0.0022543408 -0.008422563 0.015596989
0003d0 b0 fd 49 3c cb c8 d1 3b 5c f7 02 3c 92 e2 64 3b
       0.01232855 0.00640211 0.007993545 0.0034925085
0003e0 be ee f9 bb dd f8 a4 3c 41 2a 84 ba ad 5a 96 bc
       -0.0076273372 0.020138199 -0.0010083393 -0.018353784
0003f0 a8 53 c6 3c a8 e3 f0 3c 40 d6 df 3a 04 66 05 3d
       0.024209812 0.02940543 0.0017077401 0.032567993

network_body._body_endoder.seq_layers.2.weight f4 [256, 256]
000000 6a d3 a1 39 4c ca a6 3d d7 91 c6 3a 54 68 f5 bc
       0.0003086583 0.08144054 0.0015149665 -0.029956974
000010 fb 59 56 bd da 31 b1 bd 77 f6 61 3d d1 fa a0 3d
       -0.052331906 -0.086520866 0.055166688 0.078603394
000020 0c 6d 12 bc 69 ee a8 3c c9 c4 d2 bc 88 02 bb 3d
       -0.008937132 0.020621495 -0.0257286 0.09131342
000030 87 4b 5b bd a0 a4 66 bd 41 2a f0 bc e8 ed 5d 3d
       -0.053538825 -0.056309342 -0.029317023 0.054181963
000040 21 e0 38 bd 7c c9 ea 3b 30 ab 88 bd 03 5b f1 3c
       -0.04513562 0.007165132 -0.066732764 0.029462343
000050 e8 2a 3a 3d de c2 de bb c0 aa 85 3d d9 8e 7e 3c
       0.045451075 -0.0067981323 0.065267086 0.015536987
000060 4d 94 04 3e 1d 0a e8 bc c2 a3 25 bb 8b 12 e0 3c
       0.12947197 -0.028325135 -0.002527461 0.027352592
000070 b9 f9 80 bc 4a 66 3a bd 70 70 28 bd d0 fd 21 3d
       -0.015744077 -0.045507707 -0.041122854 0.039548695
000080 2f f8 d8 3c 80 13 8b bd af 1a 1c bd d3 84 93 3d
       0.02648553 -0.06790829 -0.038111385 0.072030686
000090 2c a7 70 bd c8 12 91 ba 7c 4f 55 3c a5 15 6f 3c
       -0.058753178 -0.0011068219 0.013019439 0.014592563
0000a0 52 ba ea 3b c6 d9 b9 3c 26 20 07 bd ae a4 d4 bc
       0.0071633244 0.02268685 -0.032989644 -0.025957432
0000b0 4a 38 50 3d a4 dd 79 bd 7a d7 54 bd f5 4b 3e bc
       0.05083493 -0.06100239 -0.051963307 -0.011614789
0000c0 bd bc c8 3c 11 75 01 3d 04 e3 88 3d 09 8a 00 3d
       0.02450406 0.031605784 0.06683925 0.03138164
0000d0 86 13 06 3e 07 9f 1f bd 1e 00 25 3c e1 23 b6 bd
       0.13093385 -0.03897002 0.010070829 -0.08893562
0000e0 7a b0 82 3c 0c 1b d7 bd af 08 c5 3b ae 01 ac 3c
       0.015953291 -0.10503206 0.006012998 0.020996895
0000f0 a8 26 a0 bd c1 db 04 bd fe 20 ed 3c ec 29 b3 3d
       -0.07819873 -0.032436136 0.028946396 0.0874823
000100 52 35 a7 3c 16 04 ab 3c dd 98 01 bb 51 38 f2 bc
       0.020411167 0.020875972 -0.0019774952 -0.02956787
000110 c0 0a 85 3c 54 3b fe bc 73 54 d6 bd 3d b0 70 3c
       0.016240478 -0.03103415 -0.10465326 0.014690456
000120 47 b2 d4 bd e5 97 07 bd 07 e4 c2 3b f9 c5 2c 3e
       -0.10385566 -0.033103842 0.005947593 0.16872396
000130 98 20 08 3d 18 21 2c 3d 18 36 77 3c 4e 3b b2 3d
       0.03323421 0.04202375 0.015088581 0.08702718
000140 b2 73 89 bd 69 27 10 3d 20 7a 11 3e 8e de eb 3d
       -0.0671152 0.035193834 0.14206743 0.11517058
000150 39 c7 cc 3d 64 34 4f 3a f0 b6 bd 3d cb a4 cc ba
       0.09998936 0.000790423 0.09263408 -0.0015613077
000160 85 0d 90 bd 2c 03 1d be ed 50 cd 3d 71 bb b9 3d
       -0.07033829 -0.15333241 0.10025201 0.09068955
000170 51 ec 4b 3c 61 a0 7f bc f4 d1 b4 bd b0 4e 5f 3d
       0.012446479 -0.015602202 -0.08829108 0.0545184
000180 13 61 0b 3d 2b 9b 4b 3d f1 49 a3 3d a7 f3 90 bd
       0.034028124 0.049708527 0.079730876 -0.07077723
000190 5a b2 7b 3d ea e7 30 3d fd 61 3c be 2a 49 71 3d
       0.061449386 0.04318992 -0.18396755 0.058907665
0001a0 46 e2 0c 3e 0e 6b 8a 3d 34 5c a4 bd 59 74 c1 bd
       0.13758191 0.067587 -0.08025399 -0.0944602
0001b0 92 30 80 3c 79 34 0b be b7 fa 81 3a 1a c5 af bb
       0.01564816 -0.13594235 0.0009916638 -0.0053640725
0001c0 36 20 5d 3d d7 03 93 3d 9e a9 3a bd 19 5d 18 bd
       0.053985797 0.07178467 -0.045571916 -0.03719816
0001d0 fc 90 7d bb 8b 30 0d 3d 36 1d 34 3d 53 76 8d 3d
       -0.0038691154 0.034470122 0.04397317 0.06907334
0001e0 7b 9a e0 bc 6e cb 2a bd 98 e3 f6 bc 58 0e 8b 3c
       -0.027417412 -0.041697912 -0.030137822 0.016974613
0001f0 b4 88 0f 3e 59 7b 64 3c 05 f2 c0 3c 6b 17 dc 3c
       0.14016992 0.013945424 0.023552904 0.026866635
000200 f1 ed 3c 3e 1a d5 dd bc 5e af 60 3d c9 e9 e4 3c
       0.18450142 -0.027079154 0.054854743 0.027943509
000210 ff f2 a4 3d 39 3e 8f 3d 83 ff 05 3b a3 7b 8c 3d
       0.0805416 0.0699429 0.0020446486 0.06859519
000220 ae e5 05 bd a9 14 0e be 96 80 83 bd 29 1b 68 3d
       -0.032689743 -0.13875069 -0.0642101 0.056666527
000230 1e 8b 98 bd 28 9a f5 bd 7f 1f cb 3c a5 b7 8a bc
       -0.074484095 -0.119922936 0.024795292 -0.016933272
000240 e6 1b 1e bb 17 85 a8 3d 08 93 1d 3c 7a 20 e2 3d
       -0.0024125515 0.0822851 0.0096175745 0.11041351
000250 bd 22 b9 3d 03 7b 83 bc 43 8e 3d bd 4f 49 08 3e
       0.09039829 -0.016049867 -0.04627825 0.13309215
000260 ff 98 b4 3d 56 78 b3 3d 4c 8d 12 be e0 00 68 3c
       0.08818244 0.08763187 -0.14311713 0.014160365
000270 3e 8e 42 3c 7a 52 b5 3d 01 01 f6 bd 23 31 bd bd
       0.0118747335 0.08853622 -0.1201191 -0.09237888
000280 87 c5 a2 3d 36 4c cc 3d bb 3d b8 bd 60 b3 03 3d
       0.079478316 0.099754736 -0.08996149 0.032153487
000290 19 de 9a 3d cb c0 15 3d 4a f6 6f 3b 9d 58 5b bd
       0.07561893 0.036560815 0.0036615306 -0.053551305
0002a0 ec 0c ea bd 8b 35 6b bc 39 60 1b 3d 43 68 b8 bd
       -0.11428246 -0.014356027 0.037933562 -0.09004261
0002b0 d1 4f 56 be 5b 19 0a 3e a0 6c f6 3c d0 21 de bc
       -0.20928885 0.13486235 0.030081093 -0.027115732
0002c0 bd b2 2c bd 0a ce d4 3d 4c 4c e1 3d a4 4f c8 bc
       -0.042162646 0.10390861 0.110008806 -0.024452038
0002d0 ad 4f 10 3e d2 e1 ec 3d 06 fc 6b bd 9b 5c 9f bd
       0.14092894 0.11566509 -0.057613395 -0.07781335
0002e0 d5 90 01 bd 73 03 2c be 45 79 a2 bc 31 b9 de 3d
       -0.031632263 -0.16798191 -0.019833216 0.10875166
0002f0 cf 25 23 3d 93 75 f1 bd 02 58 90 bd c4 68 89 ba
       0.03983098 -0.11790004 -0.07048036 -0.0010483493
000300 23 9b a5 3b 15 88 aa bd b4 f4 9e 3b 57 d8 2c 3d
       0.005053894 -0.08326737 0.004850948 0.042198505
000310 50 59 9d bd 1f ad 48 bd c9 8c 47 be f6 ca 10 bd
       -0.07683051 -0.048993226 -0.19487299 -0.03534981
000320 b1 d0 6e 3d e2 75 d7 bc c8 98 31 bd e7 4b b7 bb
       0.058304492 -0.026301328 -0.043358594 -0.005593765
000330 5b e1 a1 bd f0 05 51 bc bb 2a ba bd 52 76 1f be
       -0.07904311 -0.012757763 -0.090901814 -0.1557248
000340 59 cd f5 3c 0c 9a b8 3c 9e 8e a8 bd c2 2f 95 bd
       0.030005144 0.022534393 -0.08230327 -0.072845
000350 7d cf b1 3d a6 3c b3 3c 43 7f 43 3d ba d5 fa bc
       0.086821534 0.021879505 0.047728788 -0.03061949
000360 80 92 b6 bd 7c 1e c9 bd 47 15 b3 3d 11 af a4 3d
       -0.089146614 -0.098202676 0.08744293 0.08041204
000370 ef 79 19 bd cc b8 3a 3c 7e 6b fa 3d 5a 5e c9 3d
       -0.0374698 0.011396598 0.12227534 0.09832449
000380 9f ea f8 bd 1c 77 06 3d 0e 4f 56 bd 15 f8 1a bd
       -0.121541254 0.032828435 -0.052321486 -0.037834246
000390 bb 5e a3 3d b3 ce 1c bc 78 ff 98 bc 14 72 17 bd
       0.07977053 -0.009570765 -0.018676504 -0.036974028
0003a0 30 03 61 3d c2 5c 97 ba e3 dc c1 bc e1 4a 1b 3d
       0.05493468 -0.001154803 -0.023664897 0.037913207
0003b0 de 16 71 3d e7 5a ca 3d df 9c dc 3d 99 14 44 3d
       0.0588597 0.098806195 0.10772108 0.047871206
0003c0 16 af b4 bd 68 ac a4 bd 29 e2 21 3c 11 7f b5 3c
       -0.088224575 -0.080406964 0.009880581 0.022155317
0003d0 37 f9 a4 bd 0d d0 f4 bc ed ee d3 3d 06 e9 db 3b
       -0.080553465 -0.029884363 0.10348306 0.006711128
0003e0 9d 2e c3 bc f8 4d b4 bc b0 7a 28 3e 13 45 7c 3d
       -0.023825938 -0.022009835 0.16453052 0.06158931
0003f0 46 5b eb bb 9d 03 57 3d 32 bb d9 3c d7 97 c9 3d
       -0.0071825115 0.05249368 0.02657852 0.09843414

network_body._body_endoder.seq_layers.4.bias f4 [256]
000000 5f 7e 6b 3b ba 01 ea 3b af d4 e5 3b 7f b1 58 3c
       0.0035933477 0.007141319 0.0070138793 0.013225912
000010 09 93 c1 b9 09 81 a3 3b 8b 87 cd 3b 46 6b f4 3c
       -0.00036921378 0.0049897474 0.0062722615 0.029836308
000020 11 01 28 bb 7f da 9d 3c d2 a3 9a 3b fb a0 8e 3c
       -0.0025635401 0.019269226 0.004719236 0.017410746
000030 a7 4a c5 bb a7 9a c8 3b 86 5f 20 3c 20 10 b0 bb
       -0.006020862 0.0061219516 0.0097884 -0.005373016
000040 82 da 2d 3c 82 2f bd ba fc 9b 18 3b 4f 20 cc 3b
       0.010611178 -0.0014433714 0.0023286333 0.0062294374
000050 b5 17 f8 3b 41 5b 0d 3c 68 8e 51 3b df 03 8f bb
       0.0075711855 0.008627714 0.003197575 -0.004364475
000060 95 93 f6 3b a1 9a 85 3c 13 e2 52 3c f1 94 c8 3a
       0.0075249174 0.016309084 0.012871283 0.0015303177
000070 05 56 d7 ba 22 2d 10 3c cb 1a b3 bb 7f e1 62 bb
       -0.0016428834 0.008799823 -0.0054658405 -0.003461927
000080 3a 44 f2 bb 2a fc 8c 39 4b 75 b2 bb 9e c3 2e 3b
       -0.007393387 0.00026890758 -0.0054461113 0.002666689
000090 69 a6 52 3c 0f f0 1e 3c 28 dd f4 3b 1e c5 fe 3a
       0.012857058 0.009700789 0.007472653 0.0019437408
0000a0 11 ba 1b 3c 9a 15 99 3b 48 6a 14 bc d7 6d df 3b
       0.009504811 0.0046717646 -0.009058543 0.006818514
0000b0 b8 ca 2a bc 7b d2 91 ba 38 3b e8 3c 78 76 69 3c
       -0.0104243085 -0.001112535 0.02834855 0.014249437
0000c0 d5 30 20 bc 4b 53 6e bc 09 43 e6 ba c9 82 94 3c
       -0.009777267 -0.014546226 -0.0017567585 0.01812877
0000d0 f9 47 04 bb c2 0e 78 3c 33 e1 90 3b cb 8d 14 3c
       -0.00201845 0.015140237 0.004421377 0.009067009
0000e0 ab 2c b4 3b 1b 33 cc 3b 5c 53 c2 3b 5e 7b c3 bb
       0.005498489 0.006231678 0.0059303474 -0.0059656342
0000f0 d0 87 57 bb 54 08 46 bc e2 4e 98 bb 54 eb b9 3b
       -0.0032887347 -0.0120869465 -0.0046480754 0.0056738053
000100 2a 61 b7 bb 01 bc 05 bc 2f fe 0a bc 3e 72 4a 3c
       -0.0055962997 -0.008162499 -0.008483454 0.012356339
000110 88 26 99 bb 0f dc ff 3b 8e 9d cd ba 29 d5 b2 3b
       -0.0046737827 0.0078082155 -0.0015687214 0.0054575396
000120 59 55 fd bb 7f 88 4d 3b 6e 4a eb bb e2 87 47 3c
       -0.0077311215 0.0031361876 -0.0071805036 0.012178393
000130 40 4b 3e 3c 61 ef 48 3c ce 50 78 bc ee 67 7f 3c
       0.011614621 0.012264104 -0.015155984 0.015588744
000140 e4 89 84 b9 ca d7 1a bc 06 60 84 3c 4d 07 9b bb
       -0.00025279738 -0.009450862 0.016159069 -0.004731095
000150 5e d0 18 3c b0 e5 90 3c e2 b2 04 3c 80 0f fe bb
       0.009327022 0.017687649 0.00809929 -0.0077533126
000160 d1 72 95 3c d2 cd 08 3b e2 00 16 3c 0c 3f 9f 3a
       0.018243225 0.0020874632 0.009155484 0.0012149527
000170 7f 11 8a 3c b6 a7 58 3b 47 ba af ba 4a e4 6c ba
       0.016854046 0.0033058948 -0.0013406955 -0.0009036703
000180 4a 3e 43 3c f0 f2 fd b9 1f b9 b2 bb 73 23 aa 3c
       0.011916706 -0.00048436923 -0.005454197 0.020768857
000190 66 4d 7a bb eb fa 2b 3b 8f bb 28 bc d7 86 86 3b
       -0.0038193106 0.0026242088 -0.010298624 0.0041054296
0001a0 38 24 8d bb 5d fb 01 3c a0 48 a8 3b 24 de 91 3a
       -0.004307296 0.007933465 0.0051356107 0.0011128825
0001b0 33 98 38 3c 59 15 d0 3c 86 15 83 3c ac b8 e0 ba
       0.011266756 0.025400804 0.016001474 -0.001714488
0001c0 32 fa 0a bb 47 5c a4 3b 1b 72 2a bc 3e 39 aa 3b
       -0.0021206257 0.005015883 -0.010403181 0.005194812
0001d0 74 89 f5 3a f0 98 ee b9 5f e3 ed bb 23 9f c1 3a
       0.0018732981 -0.00045508845 -0.0072597708 0.0014772158
0001e0 b3 75 80 3b 32 b5 c1 3b 6b 6d 33 3a a1 32 0f bb
       0.003920281 0.0059114927 0.00068446127 -0.0021850246
0001f0 6f bc 01 3a d4 0f 9e 3b f4 fd b9 bb 99 d0 8e ba
       0.0004949038 0.004823664 -0.0056760255 -0.0010895907
000200 1a 45 1b 3c 78 2f 91 3c 5d 8b 1f 3c a2 9f 10 3c
       0.009476924 0.01772283 0.009737817 0.008827122
000210 25 fd f0 3b 48 1a 4f 3c 4f 91 e8 3b c7 8b e4 bb
       0.007354396 0.012640543 0.0070974003 -0.0069746706
000220 ea 9d 71 ba d9 b4 83 3a fa 64 86 3b 37 49 2a 3c
       -0.00092169514 0.0010048404 0.004101393 0.010393432
000230 28 33 25 3c 95 f4 21 3c 6a f8 b5 b9 02 8d 84 3c
       0.010082997 0.009884973 -0.00034708093 0.016180519
000240 a0 8b f2 3b 5b 2e af 3b cd 8f 89 36 e2 18 cb ba
       0.0074018985 0.005346102 4.099659e-06 -0.0015495087
000250 a9 4d 8f 3c a8 b9 8b 3a ef 0f 2d 3c ec 48 f9 bb
       0.017493086 0.0010660188 0.010562881 -0.00760757
000260 a6 1f 8f 3b 9a d8 84 3c cb 37 e2 3b d8 27 af 3b
       0.0043677865 0.016216565 0.0069036237 0.005345326
000270 cd 32 ef bb 7b 96 07 ba 5e 96 c9 3b cd d0 72 b9
       -0.007299757 -0.00051722646 0.0061519584 -0.00023156703
000280 c3 18 35 3c da 6a 25 3c 30 38 5d bc 85 98 81 bb
       0.011053267 0.010096276 -0.013502166 -0.0039549493
000290 f8 49 99 3c cc f6 c3 bc f8 54 88 ba 3f b7 3e bb
       0.018712029 -0.023921393 -0.0010401299 -0.0029100922
0002a0 35 e0 53 ba e1 a3 2e 3c 40 f6 4c 3b 54 d6 51 3b
       -0.00080824207 0.010659189 0.0031274706 0.0032018619
0002b0 e7 82 a6 3b 2e dc da 3b 87 3d 95 bb 8e 33 86 ba
       0.0050815227 0.0066790795 -0.004554454 -0.0010238753
0002c0 68 56 b1 3b 81 cc 9d 3c 8f 09 0e 3c f8 e6 9d 3c
       0.0054119118 0.019262554 0.008669271 0.019275174
0002d0 a9 61 bd 3c 6e c7 2c 3c 86 d1 48 3c 6a bb b3 3b
       0.023117857 0.010545595 0.0122569855 0.005484988
0002e0 a2 60 a1 3b 74 7f ab bb db cd 9f bb 6b 54 0a 3c
       0.0049248496 -0.0052336995 -0.004876835 0.008442978
0002f0 ef 36 52 3b 99 f1 fc ba 81 e7 04 ba 0e f4 e7 bb
       0.00320762 -0.0019298076 -0.0005069897 -0.007078654
000300 15 72 07 bc 49 b1 26 bb 7f 89 ec bb 0a 64 ce bb
       -0.008266945 -0.002543526 -0.0072185392 -0.0062985467
000310 b5 f6 0f bc 1d ed d5 bb d1 b9 99 3c 58 1c 2b 3c
       -0.008786847 -0.0065285102 0.018765362 0.010443769
000320 80 6b 29 3c bd 62 87 3b 89 0d 71 bb cf 65 74 3c
       0.010340571 0.0041316436 -0.003678175 0.014916851
000330 d5 57 1e 3c ae 25 d9 3a 9b a7 74 bb 85 da 9c 3b
       0.0096644955 0.0016567016 -0.0037331346 0.0047867917
000340 3b ed 2f bc ef bf b4 3c 0c 3d 46 bb 76 4f c2 bb
       -0.0107377125 0.022064177 -0.003024879 -0.0059298826
000350 dd ab 75 bb 83 c1 ab ba e9 7c 09 3c ea 16 18 bc
       -0.0037486472 -0.0013103936 0.008391597 -0.009282807
000360 51 19 20 3b 43 28 5e 3b 93 e0 55 3c c3 77 0f 3c
       0.0024429152 0.003389851 0.013054031 0.008756581
000370 13 80 98 bb f6 50 1e bc 83 f4 24 bc 0a 92 a7 3b
       -0.0046539395 -0.009662857 -0.010068062 0.0051138448
000380 48 52 ab 3a 09 eb 29 bb 39 fa b1 ba 95 31 ef 3b
       0.0013070786 -0.0025927445 -0.00135786 0.007299612
000390 20 aa 3a bb 68 29 bb 3c 9f a1 4e 3b 90 ec 97 3c
       -0.002848275 0.022846892 0.003152944 0.018545419
0003a0 4f 11 48 bb f9 31 3e 3c 53 8c dc ba 43 96 6c 3c
       -0.0030527895 0.011608594 -0.0016826488 0.014440122
0003b0 fa f9 35 3b 72 e2 16 3b 4c 76 48 3b 41 0d 74 3c
       0.0027767406 0.0023023156 0.0030588089 0.014895738
0003c0 b2 e0 50 3c c2 35 93 3b 19 bf ef bb 96 3f 18 3b
       0.012748884 0.0044924924 -0.007316482 0.002323126
0003d0 d4 a2 9e 3b a0 4a 69 3c f9 64 a1 bb 18 dd 1d bc
       0.004841188 0.014238983 -0.004925367 -0.009635232
0003e0 77 23 41 3c dc c1 8a 3c f6 3e 3a bb e8 03 2b 3b
       0.011788241 0.016938142 -0.0028418875 0.0026094858
0003f0 04 f5 61 bb ad fe 12 bb 8d 81 ed bb e0 7d 0c 3c
       -0.0034478316 -0.002242963 -0.0072481097 0.008574933
