Assets/Training/results/Run 1/DroneBehavior/DroneBehavior-4794917.onnx (onnx, 661208 bytes, 19 tensors)

101 f4 [15]
000000 30 6e ef 39 b8 d0 e0 3e aa 1e 63 3d a0 ca 33 3e
       0.00045667728 0.4390924 0.055449165 0.17557764
000010 29 e2 5e 3e 30 6e ef 39 0d 68 bf 3d 30 6e ef 39
       0.21765961 0.00045667728 0.09346018 0.00045667728
000020 ba 96 02 3e 72 f7 89 3d 30 6e ef 39 0d 68 bf 3d
       0.1275281 0.067366496 0.00045667728 0.09346018
000030 30 6e ef 39 ba 96 02 3e 72 f7 89 3d
       0.00045667728 0.1275281 0.067366496

104 f4 [25]
000000 30 6e ef 39 84 6f 97 3e 51 5a 4f 3a 90 e7 b1 3e
       0.00045667728 0.29577267 0.00079098815 0.3474698
000010 38 35 b5 3d 30 6e ef 39 7d 0b 4c 3d 30 6e ef 39
       0.08848041 0.00045667728 0.049815644 0.00045667728
000020 e0 be a9 3e 0d d1 5a 3e 30 6e ef 39 63 d4 6f 3d
       0.3315344 0.21368809 0.00045667728 0.058552157
000030 88 4d 29 3a f1 40 7f 3e 82 cc 01 3e 30 6e ef 39
       0.00064583914 0.24927117 0.1267567 0.00045667728
000040 c3 c1 0a 3e 30 6e ef 39 74 25 ab 3e 4b 3d 83 3e
       0.13550477 0.00045667728 0.33427012 0.256327
000050 30 6e ef 39 c3 c1 0a 3e 30 6e ef 39 74 25 ab 3e
       0.00045667728 0.13550477 0.00045667728 0.33427012
000060 4b 3d 83 3e
       0.256327

107 f4 [3]
000000 93 88 21 41 09 9b 8b 3f b9 20 3c 41
       10.095843 1.0906688 11.757989

95 f4 [25]
000000 30 6e ef 39 3b 61 c3 3e b3 7d ba 3d 75 9a d2 3e
       0.00045667728 0.38160118 0.091060065 0.41133466
000010 75 d5 8a 3e 30 6e ef 39 08 77 9c 3e 0d eb 61 3d
       0.2711598 0.00045667728 0.30559564 0.055155803
000020 cf 29 ce 3e f5 85 91 3e 30 6e ef 39 4a a6 a7 3e
       0.40266272 0.28422514 0.00045667728 0.32744056
000030 3e 0b 5b 3d 01 2b d7 3e 6c 5f 86 3e 30 6e ef 39
       0.05347752 0.42024997 0.26244676 0.00045667728
000040 6c 4b a6 3e fd fa 6b 3c 0f f1 de 3e c7 cc 9e 3e
       0.32479417 0.014403102 0.43543288 0.31015608
000050 30 6e ef 39 6c 4b a6 3e fd fa 6b 3c 0f f1 de 3e
       0.00045667728 0.32479417 0.014403102 0.43543288
000060 c7 cc 9e 3e
       0.31015608

98 f4 [55]
000000 30 6e ef 39 2f fe 95 3e d2 86 8e 3c c7 25 e6 3e
       0.00045667728 0.2929549 0.017398272 0.44950697
000010 78 06 12 3e 30 6e ef 39 25 55 2f 3e 20 4f c6 3c
       0.1426028 0.00045667728 0.17122324 0.024207652
000020 20 1a c1 3e ab 27 26 3e 30 6e ef 39 e5 85 2f 3e
       0.37715244 0.1622607 0.00045667728 0.1714092
000030 05 6f 82 3c a6 b3 bc 3e 08 41 15 3e 30 6e ef 39
       0.015922079 0.3685581 0.14575589 0.00045667728
000040 9c 77 07 3d c7 9e 12 3b a7 95 b7 3e 81 25 5e 3e
       0.033073053 0.002237247 0.35856363 0.21693994
000050 30 6e ef 39 f3 3a 1c 3d 44 5a cf 3a f9 13 ac 3e
       0.00045667728 0.038142156 0.0015819748 0.33608988
000060 3f bc 22 3e 30 6e ef 39 3c 9f 04 3d 30 6e ef 39
       0.15892123 0.00045667728 0.03237842 0.00045667728
000070 37 bf e7 3e 92 a0 98 3e 30 6e ef 39 5f ff 1a 3d
       0.45263073 0.29810005 0.00045667728 0.037841197
000080 da 9e 92 3a 70 fa da 3e cb 7a 70 3e 30 6e ef 39
       0.0011186257 0.42769194 0.23484342 0.00045667728
000090 f9 3c 8e 3d 30 6e ef 39 2e 95 e4 3e 8c fc a3 3e
       0.06945223 0.00045667728 0.44645065 0.32028615
0000a0 30 6e ef 39 dc a9 a5 3d da 9e 92 3a 2e 9b e4 3e
       0.00045667728 0.08089039 0.0011186257 0.44649643
0000b0 e3 d1 8e 3e 30 6e ef 39 fd c1 03 3e 30 6e ef 39
       0.27894506 0.00045667728 0.1286697 0.00045667728
0000c0 6e 3e d0 3e 27 d7 92 3e 30 6e ef 39 fd c1 03 3e
       0.4067263 0.28679773 0.00045667728 0.1286697
0000d0 30 6e ef 39 6e 3e d0 3e 27 d7 92 3e
       0.00045667728 0.4067263 0.28679773

action_model._continuous_distribution.log_sigma f4 [1, 3]
000000 1f 4f 39 3c ef 8b 78 3b a3 2a 14 bc
       0.011310368 0.0037925204 -0.0090433685

action_model._continuous_distribution.mu.bias f4 [3]
000000 b3 bc 0b bc 2e 6b 8a bc b3 42 01 bb
       -0.008528876 -0.01689681 -0.0019723594

action_model._continuous_distribution.mu.weight f4 [3, 256]
000000 9a 22 7c 3c ba f6 7c bc 16 2e f4 3b a8 56 08 3c
       0.015389109 -0.015439684 0.007451783 0.008321442
000010 34 1d 6c 3c 7d 67 f9 bc d4 a6 af bc 5b 54 f9 39
       0.014411259 -0.030444855 -0.021441855 0.0004755583
000020 48 e0 cd 3b 0b 8f 30 bd bd 1a 56 bb 38 a7 18 3c
       0.00628284 -0.043105166 -0.0032669746 0.009317212
000030 76 38 5b bc 52 77 c0 bc 7d df e8 bc 62 94 33 3c
       -0.013380161 -0.023494396 -0.02842688 0.01096067
000040 8b b5 2f 3b 42 db d4 3c e0 0a 2a bb 87 a9 76 3a
       0.002681109 0.025983457 -0.0025946423 0.0009409417
000050 21 5f 72 bc 0b 5b dc 3c 7f ea 9e bc c3 ec 21 3d
       -0.014793188 0.026898881 -0.019398926 0.039532434
000060 e5 ce 41 3c 1d f5 c3 bc cc 88 00 3c dc 8e 42 bc
       0.011829113 -0.02392059 0.007845115 -0.011874881
000070 01 4d c3 3b 49 92 e5 3c 77 72 c8 bc 2e 21 d5 3c
       0.0059601073 0.028023856 -0.024468644 0.026016798
000080 93 d4 1d 3b b5 98 c3 3c f5 29 d2 3c 49 14 1d 3d
       0.0024083003 0.023876527 0.025654772 0.038349424
000090 47 c1 9b 3c ce 3e 96 3c c0 f6 e1 3a 3f 07 63 3c
       0.01901306 0.018340494 0.0017239675 0.013856708
0000a0 30 a3 1a 3b da f4 77 bc 42 13 01 bd f7 77 33 3b
       0.0023595802 -0.015134061 -0.031512506 0.0027384737
0000b0 65 a1 1a 3b e1 a7 d3 3b 38 c2 2d bc 51 43 0f 3d
       0.0023594734 0.0064592217 -0.010605387 0.034976307
0000c0 af 90 e3 bb a8 61 db 3c cd 09 e9 bb 4b 7d c4 3c
       -0.006944738 0.026779965 -0.007111764 0.023985526
0000d0 30 03 8f 3c b1 de 97 3c b5 b9 27 3a bc 8a 90 3c
       0.017457575 0.018538805 0.0006398217 0.017644279
0000e0 56 94 8d bc 41 54 dd bb 6b 98 fb bb 52 8e d5 3a
       -0.017282646 -0.0067544286 -0.0076780817 0.0016293025
0000f0 1b a1 3a bb 42 7d f6 bc a8 c9 9e 3b ae 93 e6 bc
       -0.0028477374 -0.030089024 0.0048458166 -0.028146591
000100 b1 0a f6 bc ce bb 47 bc 47 4a b1 bb c1 3d 7c bb
       -0.030034395 -0.012190772 -0.005410466 -0.0038488957
000110 6d b9 f4 bb 83 96 70 bc d3 b2 be 3c 0e 1c b1 3b
       -0.0074683935 -0.014684322 0.02327863 0.0054049557
000120 ab ae 1e bd e9 c4 e8 3a 1b f4 84 b8 dd 8a a1 ba
       -0.038740795 0.0017758879 -6.339719e-05 -0.001232471
000130 9a a7 d3 3c 41 c2 85 bd 69 69 d6 3b db 6d 47 bc
       0.025836755 -0.065311916 0.0065433276 -0.012172188
000140 85 fc 0b 3c 73 99 5f 3c c9 4b 8c ba 44 1a 86 3c
       0.008544092 0.013647425 -0.0010703738 0.016369946
000150 62 63 e6 bc 15 c2 62 3c e4 13 14 bd 98 b1 12 bd
       -0.028123561 0.013840218 -0.03615178 -0.035813898
000160 72 44 6b 3b 2e 95 82 bc be de 07 bc 6f e7 40 3c
       0.003589895 -0.015940275 -0.008292852 0.011773928
000170 71 66 00 3c b8 c4 26 bd c2 df 88 bc b7 f3 72 bc
       0.007836924 -0.04071495 -0.016708259 -0.014828614
000180 5e 8c 2c ba c7 7b e2 3c 82 03 05 bd 96 cb 80 3b
       -0.00065821956 0.027646912 -0.03247405 0.0039305193
000190 bd 3e 3c bc 9f 42 8e bc b8 1c fb bc 07 c4 03 3d
       -0.011489567 -0.017365752 -0.030653343 0.032169368
0001a0 80 37 a1 bb f6 01 ea bb bd a6 50 3b 25 b8 84 3c
       -0.004919946 -0.007141347 0.0031837665 0.016201088
0001b0 5a 64 a1 bc 29 0b fb bc 4d 08 9a bb 64 20 8f 3c
       -0.019701172 -0.03064497 -0.0047006966 0.0174715
0001c0 e0 aa 4e ba 41 22 04 bb d9 20 4d bc 1f e7 03 bc
       -0.0007883739 -0.0020162018 -0.0125200385 -0.008050709
0001d0 67 0b 0f bd 45 f3 eb bc e3 59 20 3c 94 8c a6 bc
       -0.034922983 -0.028802523 0.009787056 -0.020330705
0001e0 a9 e3 33 bc 5c c4 5f bc 97 d7 c3 bc af 9c 17 bb
       -0.010979571 -0.013657656 -0.023906512 -0.0023134162
0001f0 e5 11 bb 3c 03 b1 c4 3b 2f 54 a3 3b d5 6c b1 bc
       0.022835681 0.0060025468 0.0049844007 -0.02165834
000200 77 1d f6 3b 62 0c c9 bc 6f 6e ae 3b 8e 01 78 bc
       0.0075108367 -0.024542037 0.0053232233 -0.015137089
000210 30 71 22 bc d3 c7 69 3c 6d 1f 91 3c 19 b2 c8 3c
       -0.009914681 0.014268833 0.01771518 0.024498986
000220 d8 43 c7 3c 10 88 7e 3c bf 4c ff bc 2e 84 fc 3c
       0.024324343 0.0155353695 -0.031164525 0.030824747
000230 aa 7e 0a 3c b0 73 00 3d be 38 b7 bc de 7c 72 3c
       0.008453051 0.03136033 -0.022365924 0.0148002785
000240 b4 ed a5 bc 08 18 8d bc 55 e8 e8 bb 61 c9 63 3a
       -0.020254947 -0.017223373 -0.0071077743 0.00086893706
000250 0f 86 83 bc 79 8a e1 bb 26 83 cf 3c 12 44 1a 3b
       -0.016055135 -0.0068829623 0.025331091 0.0023539108
000260 1a 05 00 bd 1c e9 ae bb 02 db 8f bc b1 4d 89 bc
       -0.031254865 -0.0053378474 -0.017560486 -0.016760679
000270 ca a0 79 bc e4 18 db 3b bb 8b 24 bc c5 2d b6 3b
       -0.015236089 0.006686317 -0.01004308 0.0055596554
000280 27 06 00 3d 57 79 8f bc bd 5a 00 bc 95 28 bd 3c
       0.031255867 -0.017513914 -0.007834134 0.02309064
000290 2c 8f 05 bd 46 f8 41 bc e4 94 36 bb fa cd ac 3b
       -0.032607242 -0.011838978 -0.0027859742 0.0052735778
0002a0 05 40 98 bc fb 86 1a bd 0a bf b1 3b 1f 97 f6 3c
       -0.018585214 -0.037726384 0.005424385 0.030101357
0002b0 96 1b da bc e8 18 67 bc c8 03 8b bc f4 f8 f3 3c
       -0.026624482 -0.014105059 -0.016969576 0.029781796
0002c0 f2 3a bc bc a8 1e 1e 3c a1 2a 6d bc bf d2 a2 3c
       -0.022977326 0.009650864 -0.014475496 0.019875882
0002d0 b0 8b 0b bd 10 e6 dc bc 03 a2 51 bc bb e3 85 bc
       -0.034068763 -0.026965171 -0.012794974 -0.016343942
0002e0 42 7b 1c 3b c4 57 af 3b 55 e5 b4 3c 0f fc d1 b9
       0.0023877178 0.0053510386 0.02208201 -0.00040051385
0002f0 fe 9f 1c 3c 29 36 e4 bc e7 51 92 bc c4 3f 78 3c
       0.0095596295 -0.027857857 -0.01786132 0.015151922
000300 9b 7d 85 3c 89 9b 57 3c d2 b2 3e 3c c2 f0 c1 3c
       0.016295245 0.013159641 0.011639314 0.023674373
000310 15 50 90 3c 98 db 03 3d db 0e fa 3c a3 4e 2f 3c
       0.017616311 0.032191843 0.030524662 0.010699901
000320 7d c9 c7 bc 34 ab b3 3c 44 b1 96 bc cf e0 9e bc
       -0.02438807 0.021932222 -0.018395074 -0.019394306
000330 0b df 32 3c 7a 17 3c 3c 86 ae 6f 3c 5f 30 fd 3c
       0.010917435 0.011480207 0.014629012 0.030906854
000340 7a 84 b0 bc 3e 36 a0 3c 19 c6 f6 3c 1e c4 6c b9
       -0.021547545 0.019557115 0.030123757 -0.00022579773
000350 15 69 84 bc 20 b3 b6 3c 9f d1 7a 3c 26 00 33 bb
       -0.016163388 0.02230221 0.015308767 -0.002731332
000360 07 09 02 bd 10 88 12 bd 53 62 47 3b a7 eb 2d bc
       -0.03174689 -0.03577429 0.0030423596 -0.010615266
000370 d9 82 83 3c 83 3f 59 bc 62 1b e9 3b 4c 3d e2 3c
       0.016053604 -0.013259771 0.00711386 0.02761712
000380 c8 10 fe bb 20 e9 57 3d e6 8d cc ba 19 ef b9 3c
       -0.0077534653 0.05271256 -0.0015606254 0.022697018
000390 fd 53 cf 3c 4a f5 02 bd e9 17 c0 3b 9e 55 1e bd
       0.025308603 -0.031972207 0.0058622253 -0.03865587
0003a0 08 0b 3e bc 44 54 5c 3c 7c b1 d6 3a 1b da 77 3c
       -0.01159931 0.013447825 0.0016379799 0.015127684
0003b0 6c 3f 32 3d 98 19 aa 3b 4c bc bb bb 97 37 a5 bc
       0.043517515 0.0051910393 -0.005729234 -0.020168109
0003c0 2a 51 10 3c 8b 06 7a 3c 37 01 42 3a 4c 27 41 3d
       0.0088084135 0.015260349 0.0007400694 0.047156617
0003d0 37 26 31 3c 8e 27 1e 3d 68 d0 a7 3c 4d b2 c4 3c
       0.010812334 0.03861194 0.020485118 0.024010802
0003e0 08 1d 9e bb 4e 94 4c 3c db 8c 5b bc 3c 92 93 ba
       -0.004825238 0.0124865305 -0.013400282 -0.0011258791
0003f0 bc 0d 05 3d 9e 89 24 3b 9c ca 10 3d 64 91 f5 3c
       0.0324838 0.002510644 0.035349473 0.029976554

network_body._body_endoder.seq_layers.0.bias f4 [256]
000000 d5 27 de 3c 56 d5 2d 3d b0 46 80 3b 31 e1 9b 3b
       0.027118603 0.04243978 0.0039146766 0.0047570695
000010 bd cf 0c bc 17 1e c8 3b d8 33 c0 3c 53 85 1f bc
       -0.008594451 0.0061071026 0.023462221 -0.009736377
000020 5a d6 c0 3c 78 56 db bb 55 c6 aa 3c 64 7b bb 3c
       0.02353971 -0.0066936575 0.020846525 0.022885986
000030 65 b1 30 3b 2f 05 14 bc 3d 8e e5 3b 3d 89 88 bc
       0.0026961204 -0.009034439 0.0070054815 -0.016667003
000040 86 d8 19 bc 62 a5 d1 bb 0e 57 46 3b ef d7 fc 3c
       -0.009390002 -0.006397889 0.003026429 0.030864684
000050 ae 9a 5e 3c e8 a9 8e 3c 9f 70 eb 3a b2 8a 7a 3b
       0.013586683 0.017415002 0.0017962641 0.0038229642
000060 06 71 55 b9 fc 98 fb 3b 46 05 4a ba 6e 15 89 3b
       -0.00020355367 0.0076781493 -0.0007706474 0.004183463
000070 86 a2 e5 3c 69 11 30 ba 2d 45 3f bc 71 b4 26 3d
       0.028031599 -0.00067164615 -0.011674208 0.040699426
000080 e7 11 f6 3b 45 ae 05 3c b9 e9 d3 3c 5b 85 10 3c
       0.0075094583 0.008159225 0.025868284 0.008820857
000090 33 f7 00 bc cf 23 0e 3d a2 a8 ba 3c 5f cd 1f 3a
       -0.007871437 0.03470212 0.022785489 0.00060959713
0000a0 e8 56 12 3c 7d 93 ed bc 15 ab 37 bc e4 4f 7f 3c
       0.008931853 -0.029000992 -0.011210223 0.015583012
0000b0 05 64 ae bb 08 1e 38 3d 88 58 8c 3c cc e2 9a bc
       -0.005321982 0.044950515 0.017132059 -0.018906973
0000c0 15 a3 c2 3c fc ff 44 3d 14 ee 85 3b 8d c8 40 3d
       0.023759404 0.04809569 0.004087219 0.04706626
0000d0 7d 70 1d bc 5e db fb 3c 4b ad 1a bc 2a 2d 36 bb
       -0.009609339 0.03074425 -0.00944073 -0.0027797916
0000e0 21 16 b0 3c a0 99 a4 3c e4 35 dc 3c fd e9 79 bc
       0.021494927 0.020092785 0.026881166 -0.015253541
0000f0 25 06 d9 3c ab ae 5f 3c e2 6b ed 3b 02 8b 79 ba
       0.026492188 0.013652484 0.0072455266 -0.000951931
000100 3e 71 ed bb a7 25 06 3d d0 d4 91 38 a1 5b 07 3d
       -0.0072461655 0.03275075 6.953778e-05 0.03304637
000110 eb 4f b5 bb 06 fe a1 3c 43 10 08 3c 7f 61 42 bc
       -0.0055332086 0.019774448 0.008304658 -0.011864065
000120 c7 54 5d bb d7 a3 fd 3c 22 c2 71 3c 21 8f 28 3d
       -0.0033772455 0.030961914 0.0147557575 0.041152123
000130 ed 15 d1 bb 32 07 d8 3c 8b 0b 06 3c 86 b0 0a 3d
       -0.0063807876 0.026370618 0.008181463 0.033859752
000140 b8 1f 8d bb 73 61 e5 bb d7 58 2f 3d 3c c1 82 ba
       -0.0043067597 -0.0070001422 0.042809334 -0.0009975801
000150 ca c9 af bb 76 f2 21 3d 3b f7 f4 bb 56 7f 70 3b
       -0.0053646313 0.03953787 -0.007475761 0.0036696992
000160 8f 53 43 3d ed 34 d9 bb f8 d5 b4 bc 5f 00 b0 bb
       0.04768711 -0.0066286237 -0.022074685 -0.005371138
000170 53 c5 05 bd 48 d0 00 bd a1 4b 54 3d 88 82 a0 3a
       -0.032658886 -0.031448632 0.051829938 0.0012245933
000180 ee 59 f6 3b 8e 2c 9a 3b af 37 5b bb 4c 73 d2 3c
       0.0075180447 0.0047050184 -0.0033449938 0.025689743
000190 99 5a 12 bb 5d 84 1a bb ca 22 ba bb b6 4a 8e bc
       -0.0022331832 -0.002357743 -0.0056804167 -0.01736961
0001a0 ae 62 4d 3c 4d 54 68 3d 89 80 74 3c ee e0 af 3c
       0.012535734 0.05672102 0.014923223 0.02146956
0001b0 20 bd 87 3c 06 f9 f8 bb 8f bf cc 3a 66 55 45 ba
       0.016569674 -0.0075980453 0.0015621054 -0.0007527679
0001c0 ab 9c 8a 3c ab 34 ea 3c a2 d2 ec bb 5f b2 48 3c
       0.016920408 0.028589567 -0.007227258 0.012249558
0001d0 bc 6f e6 3c 86 ed bc 3b 64 a0 c8 3c df f4 14 3c
       0.028129451 0.0057656197 0.024490543 0.009091585
0001e0 47 da 74 3c 28 a0 a0 bb 34 3f ab 3c e0 16 e3 3c
       0.0149446195 -0.0049019046 0.020904161 0.027720869
0001f0 35 9f e7 3c d8 ef 44 3c fd 8c 8a 3c 88 2a 36 3c
       0.028274158 0.012020074 0.016912932 0.011118539
000200 3a 57 16 bc 1f e5 e8 3c 0b 78 28 bc 9a 9f 0e 3c
       -0.00917607 0.028429566 -0.010282527 0.008705044
000210 ce 77 2a bc 41 07 07 bc bc 28 db ba eb 7f 27 bc
       -0.01040454 -0.008241476 -0.0016720514 -0.010223369
000220 f2 54 cb 3c 49 f3 13 bc a8 59 df 3b c6 ce 62 3b
       0.024820779 -0.009030172 0.006816108 0.003460811
000230 55 b1 dd 3b af 40 ab 3c 7e b2 00 3d a9 51 ae 3c
       0.0067655244 0.020904867 0.031420223 0.021279173
000240 e3 4e 02 3c c3 ed ef 3c b4 a3 11 3c c5 cb 60 3c
       0.007953378 0.029288178 0.0088891275 0.013720457
000250 18 e6 20 3d e2 47 4f bb cf c4 3a 3c f6 aa af 3c
       0.039281934 -0.003162854 0.011399462 0.021443825
000260 b1 d5 81 3c 93 d4 94 bc ab f7 93 bc b6 00 c3 3b
       0.015848966 -0.01816777 -0.018062433 0.0059510125
000270 46 48 8a bb 27 b7 00 3c 9b d3 29 bc 4f fd 1d 3c
       -0.0042200414 0.007856167 -0.010365392 0.009642913
000280 54 f0 0a 3d b3 47 2b 3c 38 f4 88 3c c7 db a3 3c
       0.0339206 0.010454106 0.016718015 0.020002259
000290 e4 ec 07 3d ae ac 90 3b 69 43 8f 3a 67 ca 7e 3c
       0.0331849 0.0044151163 0.0010930124 0.015551186
0002a0 95 96 f4 3b f5 a8 8b bb 83 82 21 3d 82 e5 0f 3d
       0.00746424 -0.0042620846 0.039431106 0.035130985
0002b0 08 cc f5 bb de b2 2f bc c0 a3 de 3a 2a c3 9a bc
       -0.007501129 -0.010723798 0.0016986057 -0.01889189
0002c0 28 59 8a 3c 9e 39 57 b9 1e f7 97 bb 5f 47 13 3d
       0.016888216 -0.00020525462 -0.004637613 0.035956737
0002d0 1e af 84 3c 1f 26 df 3b 00 95 90 3c 2a ea 02 bc
       0.016196784 0.0068099643 0.017649174 -0.007990399
0002e0 09 f6 b9 bb d9 32 15 3d 10 68 2a bc 98 dd 33 3d
       -0.0056750816 0.036425445 -0.010400787 0.0439125
0002f0 1f 29 f5 3c ec 00 14 bc 29 81 08 3d 3f 38 17 3d
       0.029926835 -0.009033423 0.0333263 0.036918875
000300 b6 2b 8f 3a 05 92 c7 bb c8 5d b4 bc cf 6c 66 bc
       0.0010923061 -0.006090405 -0.022017375 -0.014064028
000310 80 da 82 bc ee 08 8f bc f3 a8 d6 3c ad b2 e0 bb
       -0.01597333 -0.017460313 0.026203608 -0.0068572373
000320 b7 bd 33 bc 66 c4 a8 3c b0 2a 37 bc 77 6f e7 3b
       -0.0109705245 0.020601463 -0.011179611 0.007062848
000330 d2 b8 09 3c d9 02 ed 3c 43 d6 5e 3c 99 b8 7e bc
       0.008405881 0.028932022 0.013600889 -0.015546941
000340 a8 fe ae 3a e5 91 04 3c 41 d3 d4 3b d0 4e 87 ba
       0.001335104 0.008091425 0.00649491 -0.001032317
000350 22 71 6e 3b 13 2f 93 3c 32 4c 2c 3c 8c ad f5 3a
       0.003638335 0.017966783 0.010516213 0.0018743738
000360 6b 39 05 3c e8 85 a4 bc 88 72 47 3c 5d 89 0b bb
       0.008131365 -0.020083383 0.0121733025 -0.0021291592
000370 fe 13 9d 3c a9 65 20 bc 03 d2 5d 3c 9e ea a7 3c
       0.019174572 -0.009789863 0.01353884 0.020497616
000380 40 ee 2e bb ee fa 84 3c 3a 1d 8b 3b 98 22 5b 3b
       -0.00266923 0.016232934 0.0042454274 0.0033437368
000390 e3 29 6f 3c 3f b7 ab 3b f5 15 34 ba 29 da 85 3b
       0.014597389 0.0052403505 -0.0006869727 0.0040848446
0003a0 e7 ac f6 3c 24 04 e3 bb c3 f7 09 3c d9 ad e3 3a
       0.030111743 -0.006927984 0.008420887 0.0017370536
0003b0 8a 94 bd 3c 70 14 a1 3c c2 04 7f bc 9c 68 66 3a
       0.023142118 0.019663066 -0.015565099 0.0008789392
0003c0 ac a8 5f bc 83 b4 d6 3c 45 9e 53 3c 04 0d 93 3c
       -0.013651054 0.026209122 0.012916152 0.017950542
0003d0 3e c8 14 3d da 74 12 3d f9 2c b3 ba fa 5e fa 3c
       0.03632378 0.03575597 -0.0013670019 0.030562866
0003e0 7e 27 09 3d e0 74 37 3b 13 57 1a 3c bc e5 2a bc
       0.03348493 0.0027993247 0.009420174 -0.0104307495
0003f0 eb 58 65 bb 1f ea cb bc 55 88 bc 3c aa a9 7b 3c
       -0.0034995626 -0.024891911 0.023014227 0.015360275

network_body._body_endoder.seq_layers.0.weight f4 [256, 123]
000000 6e 3e ec 3b 0d 21 b7 3d ff 29 84 3d 81 a6 67 3e
       0.0072095906 0.08941851 0.064533226 0.2262211
000010 50 56 a3 3c ca 8d f0 bb b6 5a a2 bd d2 a6 56 bd
       0.019938618 -0.0073411213 -0.07927458 -0.052405186
000020 4f b1 79 bd 3f ff 29 bb 89 3c 56 bd 73 6c 7c 3d
       -0.06096011 -0.0025939492 -0.052303825 0.061626863
000030 8a 13 13 bd 26 86 55 bd 57 a7 d2 3d b0 8d e0 3d
       -0.035907306 -0.052129887 0.10285824 0.10964525
000040 ab 33 17 3d 19 c8 ca bc 6a 01 3f 3d 17 74 1e bd
       0.03691451 -0.024753617 0.046632208 -0.03868493
000050 19 7c 02 be 4a b0 2c 3b 1c 30 19 3d ee 9e 27 3e
       -0.12742652 0.0026350194 0.037399396 0.1636922
000060 20 03 1b be 34 82 b4 be d7 47 d0 3c c9 f8 30 bd
       -0.15137911 -0.35255587 0.02542488 -0.04320601
000070 96 9f 3a 3d 17 c4 31 bc 3d ae 09 bc 5b f8 42 3d
       0.04556235 -0.010849974 -0.008403358 0.04760013
000080 9a de 2c 3d e6 64 95 3d fa e3 58 3e cc b2 c6 bc
       0.042204477 0.072946355 0.21180716 -0.024255179
000090 27 2c 04 be 3b 83 95 bb 25 6d 25 3d ec 83 f2 3d
       -0.12907468 -0.004562763 0.04038729 0.11841568
0000a0 91 a7 a7 3d 65 d3 9d bd f7 b7 a9 3d 32 d1 8a 3d
       0.08186258 -0.07706336 0.08287042 0.06778182
0000b0 c5 95 92 3b de 84 0d bc 39 75 dd bd 49 40 48 3d
       0.0044734203 -0.008637635 -0.10813374 0.048889432
0000c0 8e 64 a7 bd ab 4c 86 3c 8f 0b 39 3d 8c e6 ab 3c
       -0.08173476 0.01639398 0.04517704 0.020983957
0000d0 83 bc 7f 3d 62 71 f3 3c 7b 6a e2 3c 6c 64 6a 3d
       0.06243564 0.029717151 0.027638664 0.057224676
0000e0 4d b2 93 3d 27 8f 4a be 59 b3 e5 3d 32 08 37 3d
       0.072117426 -0.19781171 0.112158485 0.04468555
0000f0 62 0f 47 bd 8c f5 2c 3e f3 5a 75 3d 52 ef ba bd
       -0.048598655 0.16890544 0.05990119 -0.09127678
000100 ce 6b 99 bd 89 f3 a4 3c c1 20 00 3d 8c 1c 4b 3c
       -0.07491265 0.020135658 0.031281237 0.012396943
000110 4d e9 d2 bc 89 5c 23 3d 6f e1 8d 3d e6 1c 1d bc
       -0.025746012 0.03988317 0.06927764 -0.009589409
000120 a0 ae 69 bd c1 a2 11 3e eb 94 d9 3d 78 bb 52 3e
       -0.0570513 0.14222242 0.10624107 0.20579326
000130 cc c0 24 be 0c 5e 1b bd 01 15 1b 3d eb fa de bd
       -0.16089171 -0.037931487 0.037861828 -0.108877026
000140 e3 b5 31 3c a6 27 a7 3d 8b e4 45 be 32 31 09 bd
       0.010846588 0.08161859 -0.19325463 -0.033494182
000150 fa b2 93 3d f6 18 2e 3e 1d 17 6a 3d da 39 19 3d
       0.072118714 0.1700171 0.05715095 0.037408687
000160 8f 2d 2e bd b2 af 5c 3d 48 88 7b bc 54 9a 1b 3c
       -0.042523917 0.053878494 -0.015352316 0.009497244
000170 a4 c4 b1 bd c0 39 2e 3c 0a 6f 1d bd 48 fd 21 3d
       -0.08680084 0.010633886 -0.038435973 0.03954819
000180 eb 8e d4 3a 77 f9 ec bb a9 e2 5d 3d 87 49 23 bd
       0.0016216909 -0.007231887 0.054171238 -0.039865043
000190 33 27 77 bd e9 b9 0a 3d bb 9c d4 bd ed e3 47 3e
       -0.060340118 0.033868704 -0.103814565 0.1952054
0001a0 6a c7 36 bd 44 9c 5d bc 88 c2 17 be c3 e3 74 bc
       -0.04462377 -0.013526026 -0.14820302 -0.014946881
0001b0 a7 4b c3 bd b3 e0 e8 3c be 74 2e be 11 c2 06 3e
       -0.09535914 0.028427457 -0.17036721 0.13159968
0001c0 47 d5 38 3d b6 f0 05 3c fa 3d 8d 3d b1 5e 21 3d
       0.045125272 0.008175066 0.06896587 0.039396945
0001d0 ba bb c7 bc 1d ad 06 bd a1 d4 06 3d a4 e7 02 be
       -0.024381507 -0.032879937 0.032917622 -0.12783676
0001e0 9d 51 0a be e3 ad 09 3e 54 ea d6 bd 21 0d 9c bc
       -0.13507695 0.13445239 -0.10493913 -0.01904923
0001f0 5e 84 2d be e9 fe e0 3d 0f 45 cc 3d 8c 43 cd 3d
       -0.16945025 0.1098612 0.099741094 0.10022649
000200 08 2b 4f 3e 08 8b 2a bd 8d ce 07 b7 b7 02 8a 3d
       0.20231259 -0.041636497 -8.094718e-06 0.06738799
000210 1a d1 71 3d 3a 6e 1c be f7 5f 8c bb 5c e6 2b be
       0.059037305 -0.15276423 -0.004283901 -0.16787094
000220 88 a2 88 3d 6c a1 50 3d 80 44 26 3e 31 0b 93 3d
       0.066716254 0.050935194 0.16237068 0.07179869
000230 17 f0 ae 3a 3b 52 0a be c4 fb cf 3c c7 7b f0 bd
       0.0013346699 -0.13507931 0.025388606 -0.11742359
000240 62 65 8e 3d 30 f3 a5 bd 00 e6 82 3d 95 c5 31 bd
       0.06952931 -0.08103025 0.06391525 -0.04340132
000250 51 61 38 3a 54 50 52 be 14 ab f1 3d 2c 27 38 3e
       0.0007033544 -0.20538455 0.11800209 0.17983693
000260 36 61 b7 3d 7a 2b 9e bc 75 68 1b bd e8 26 07 be
       0.089540884 -0.01930784 -0.037941415 -0.13198435
000270 1a a9 4e 3c f1 97 b0 3d 56 b2 cf 3c 03 1a 1f be
       0.012613559 0.086227305 0.025353592 -0.15537266
000280 61 0b e3 bc c1 87 28 3c 48 a0 eb 3d 7c 19 3e bd
       -0.027715387 0.0102862725 0.115051806 -0.046411023
000290 e7 8c 09 3d 23 7e 83 bc 4c 89 e4 bd 58 4d c5 bd
       0.03358164 -0.016051358 -0.11159 -0.09633893
0002a0 62 f4 a2 3d 31 2f c7 bd 5f dd 56 3c d6 66 06 3c
       0.079567686 -0.09725798 0.013114302 0.008203229
0002b0 8e 67 45 3d 74 81 32 3e 30 e0 48 bd 7c cf 03 3e
       0.04819446 0.17432195 -0.049041927 0.12872118
0002c0 29 c5 55 3d 5b bf 40 bd 70 07 17 bd 1f c5 ae bc
       0.05218998 -0.04705749 -0.036872327 -0.021334229
0002d0 4c f5 a0 3b 1b ae f2 3d 82 f9 6f 3d 4c 51 6f 3d
       0.004912054 0.11849614 0.05858756 0.05842714
0002e0 c5 6d 8e 3d b4 d6 e4 bc d9 27 13 bd 9d db 07 3d
       0.069545306 -0.02793441 -0.035926674 0.033168424
0002f0 01 fd 2c bd 29 25 1d 3d f0 8b 80 3d 0e 16 d9 3d
       -0.04223347 0.038365517 0.06276691 0.1059991
000300 d0 18 26 b8 cf 5c 14 be 19 9f 14 bd 4b fd 20 3c
       -3.9600593e-05 -0.14488529 -0.03628454 0.009826015
000310 36 34 01 bd 11 c7 7e 3d 35 01 04 be bf 0d b2 bc
       -0.031543933 0.062201563 -0.12891085 -0.02173507
000320 8a 53 97 bd 80 34 00 bd 26 24 0b be a9 46 a9 bc
       -0.07388981 -0.031300068 -0.13588008 -0.020663576
000330 44 21 c4 3d 05 d0 51 bd b2 d9 bc 3d 14 bb 01 bd
       0.095766574 -0.051223774 0.092212096 -0.031672552
000340 d1 c9 ca bd fb d9 d3 3d ec 1e 1a bc 09 3f c3 bd
       -0.09901775 0.10344311 -0.009406786 -0.095335074
000350 fc 53 bd bc ef 10 ee bd ef 4f 9d 3c a9 a6 67 3c
       -0.023111336 -0.116243236 0.019203154 0.014138856
000360 0d 20 b5 3d 01 8e 37 3e 27 18 85 3d 03 f6 bc bd
       0.08844004 0.17925264 0.06498747 -0.092266105
000370 24 a3 42 3d e1 e0 2c be 2a 17 9b bc 6e 61 d0 bd
       0.047518864 -0.1688266 -0.018931944 -0.10174833
000380 c7 25 f8 3c 06 e7 a4 3d 58 de e5 bd ad 28 82 3e
       0.030291451 0.08051877 -0.11224049 0.25421658
000390 a2 e5 6b bd c9 c1 53 be 41 b6 3f bd 64 46 90 3d
       -0.05759204 -0.20679392 -0.04680467 0.07044676
0003a0 ec 4e 02 be dd 45 59 bd 41 c7 0a 3c f3 ed 60 bd
       -0.12725419 -0.053045142 0.008470357 -0.054914426
0003b0 0f e9 32 3d de 59 c2 3d c3 c3 00 3d 6a d4 45 3d
       0.043679293 0.09489797 0.031436693 0.048298277
0003c0 fc 30 10 3c 40 0e 82 3c 11 19 05 3d 7e fd 76 3b
       0.008800741 0.015875936 0.03249461 0.0037687714
0003d0 20 8a d6 bc 5d d3 31 3d 66 7e 0a be 4d c7 84 bc
       -0.02618891 0.043414462 -0.1352478 -0.016208315
0003e0 cf b2 43 be 87 2b 68 3c dc f3 89 bd c1 6e 81 bc
       -0.19111179 0.014170534 -0.067359656 -0.015799882
0003f0 d1 c5 c7 bd 2a 1a 83 bc ed 08 8c 3d 50 c0 13 bd
       -0.09754527 -0.016003687 0.0683764 -0.036072075

network_body._body_endoder.seq_layers.2.bias f4 [256]
000000 9d 4e 8e 3b 2d bf 74 3c 1f f7 a0 3b 93 35 0a 3d
       0.0043428675 0.014938158 0.0049122716 0.0337425
000010 8a 65 c5 3a a5 6a 9c 3c bd 02 72 bc 0a e5 9a 3b
       0.0015060168 0.01909382 -0.014771161 0.0047270106
000020 d3 6b 11 3a 6f 57 db bb 79 79 7e ba a9 67 a2 bb
       0.0005547378 -0.0066937725 -0.0009707432 -0.004956205
000030 07 03 1f 3b 0e 72 51 bb 8a fd aa 3b c2 63 0f 3d
       0.002426328 -0.003195885 0.0052182125 0.035007246
000040 a5 05 ba b9 8e ff 3a 3d 70 71 01 3a 44 28 2b 3c
       -0.0003548089 0.045653872 0.0004937863 0.010446612
000050 ab c0 3a bb d9 43 02 bb f6 55 7e 3c d1 35 dc b9
       -0.0028496187 -0.0019876866 0.015523424 -0.00042001766
000060 ab 3f 54 bc 55 b3 99 3c 07 1e ea 3b 71 e6 1f 3c
       -0.012954633 0.01876227 0.007144693 0.009759531
000070 26 19 de 3a af fa 2a 3b dd ba 08 3d be 0c 1a bc
       0.0016944751 0.002608936 0.03338133 -0.009402452
000080 4c a9 a7 bc bb de c4 3a 6d 50 8f bb 80 99 c8 3c
       -0.02046647 0.0015019992 -0.004373601 0.024487257
000090 eb 25 44 3c 98 84 7f 3c 91 99 72 3a 87 92 0b bc
       0.011971931 0.015595578 0.00092544506 -0.008518822
0000a0 5a 12 26 3c 3c 7a a4 3c e0 fa c7 3b 6c e8 e4 3c
       0.010136211 0.020077817 0.0061029047 0.027942859
0000b0 3a 53 c5 bb f7 69 4f 3c 16 92 90 3c 86 ae 05 3c
       -0.0060218843 0.012659541 0.017647784 0.008159285
0000c0 3b 02 71 bc 05 14 08 3d 52 83 9d 3c 02 67 2c bc
       -0.014710004 0.033222217 0.019227657 -0.010522606
0000d0 78 54 3e 3c 4f e1 d0 3b 4a 92 93 bb 4e a6 b7 3b
       0.011616819 0.006374515 -0.004503523 0.005604542
0000e0 9c 82 c9 b8 68 66 56 bc f0 b6 1a 3d 99 21 47 3a
       -9.608755e-05 -0.013085939 0.03777212 0.0007596254
0000f0 4a 4f 95 bb 3a 33 1b 3d 9b be 5e bc 27 d1 dd bb
       -0.004556571 0.03789065 -0.013595249 -0.0067693177
000100 ce 06 f9 3c 7d 3d 5d 3c b5 c8 38 3b a7 d1 53 3c
       0.030398753 0.0135034295 0.0028195803 0.012928403
000110 ab cb d2 3a bd 71 de 3c d9 c7 1b bc c8 63 65 3c
       0.0016082426 0.027153844 -0.009508097 0.0140008405
000120 31 d5 12 3c 07 12 ff 3a 0d 5c 22 bb 90 3b c9 3c
       0.008961962 0.0019460329 -0.0024774105 0.024564534
000130 fd 6f aa ba 56 e4 a7 3c 62 43 f1 3c 67 fb 8b bc
       -0.0013003346 0.020494621 0.029451076 -0.017087651
000140 ab e6 38 3b f2 5c c9 bb 37 b6 87 bc 07 ec da 3c
       0.002821366 -0.006145113 -0.016566379 0.026723875
000150 b2 3c 07 3d 05 c8 e4 3c ef 9b a3 3c 3a 27 09 3d
       0.033016868 0.027927408 0.019971816 0.033484675
000160 86 32 bb 3c 1f ce 6f 3b 07 90 a2 bc 1e 0a f2 3c
       0.02285124 0.0036591364 -0.019844068 0.02954584
000170 66 73 c5 3b bc 53 0a 3d ad 4d 5c bc a7 2e 07 bc
       0.0060257195 0.03377126 -0.013446254 -0.008250869
000180 4b 05 d5 3c 54 81 a8 3b e0 82 32 3c b4 ad 15 bc
       0.0260035 0.0051423702 0.010895461 -0.009135652
000190 6e 2c 43 3c e0 3b 78 bb 6f 5b 33 bc 52 91 3e 3d
       0.011912448 -0.0037877485 -0.010947092 0.046525307
0001a0 84 72 98 3b 48 4a 03 3d d8 03 e4 3c 16 7e e1 bb
       0.004652323 0.032053262 0.027833864 -0.0068814857
0001b0 f1 1e 64 3c 44 e7 1b 3c 29 d4 4e bc b7 77 68 3b
       0.013923393 0.009515587 -0.012623825 0.0035471746
0001c0 75 d1 8f bb d4 bd 18 bb a8 40 d0 3b 5b 31 4e bb
       -0.004388983 -0.0023306506 0.006355364 -0.0031462524
0001d0 ca 3a 94 3b cb 2f 02 bc 7a c7 3c 3c a8 c5 73 bb
       0.0045236098 -0.007945965 0.011522168 -0.003719667
0001e0 0d 83 90 ba d3 3c f2 3b ea d4 47 bb 6c 44 9d bc
       -0.0011025384 0.0073925047 -0.0030491897 -0.019197665
0001f0 d5 cd d6 3c 58 d3 4c bb fb 33 a7 3c ba b1 3b 3b
       0.026221195 -0.00312539 0.020410528 0.0028639869
000200 db 78 4d bc be fa 76 3c d5 a6 24 3c e6 67 16 3c
       -0.012541021 0.01507443 0.0100495415 0.009180045
000210 61 c2 81 3c ed de 21 bc f0 81 b5 3c 5f 4b 94 bc
       0.015839757 -0.00987981 0.022156686 -0.018102346
000220 42 bf fe 3b b4 ad 07 3d 7b 92 9b 3c 45 93 03 3d
       0.0077742646 0.03312464 0.018990746 0.03212287
000230 9e 6f c9 3c 33 88 87 bc 3f 2d 22 bb 15 3b 2a 3d
       0.024589356 -0.016544437 -0.0024746207 0.04156025
000240 59 a3 03 3d 67 69 c2 3b fe 8f d5 3a 4d 44 ec 3b
       0.032138202 0.005932975 0.0016293523 0.0072102905
000250 0b 94 0f 3d 3b 6b 09 3b ca 89 33 bb d4 02 ee 3c
       0.035053294 0.0020968455 -0.002739536 0.029054083
000260 92 c6 3c 3c f5 b9 15 bc 28 fc a2 bb a6 9b 6d 3c
       0.011521952 -0.009138574 -0.004973907 0.0145024415
000270 e5 02 5c bc 25 e3 3f bc 0f 2d a9 3c de b4 cb 3b
       -0.0134284245 -0.01171187 0.020651368 0.0062166294
000280 02 d7 68 bb 7c 93 40 3c 09 4a 0c 3b 4d b2 4d bc
       -0.0035528545 0.011753913 0.0021406433 -0.012554717
000290 0e a7 43 3c fa 92 f8 3b f9 a1 5e 3c 7d ff 67 ba
       0.011941684 0.0075858803 0.013588422 -0.00088500214
0002a0 e8 f4 e6 3a fe 0e 75 3c 5f 88 b5 3b 97 ce c1 3c
       0.0017620595 0.014957188 0.0055399383 0.02365808
0002b0 4a af 24 3d 80 86 e7 bb 69 84 fb 39 bf 26 bc 3c
       0.04020623 -0.007065594 0.00047973104 0.022967694
0002c0 2a 20 40 bc 03 e9 5c bb 7f 30 96 3c 0e 4f 75 3c
       -0.0117264185 -0.0033708222 0.018333672 0.014972461
0002d0 39 65 ab bb 80 0a d7 3c 7a d1 91 3c 31 d6 77 bb
       -0.0052305725 0.026250124 0.017800082 -0.0037816877
0002e0 83 db 2d 3c 8f 79 15 3d c0 fa f8 3c 8f fb d2 bc
       0.010611418 0.03649288 0.030393004 -0.025754718
0002f0 2d ee d5 3b 91 52 b3 3b ca 7e da bb d4 84 66 3c
       0.006528637 0.005472489 -0.0066679465 0.014069755
000300 6b 72 61 3c ea 22 11 bc 63 95 2f bb c4 d6 8a 3c
       0.0137601895 -0.008858422 -0.0026791922 0.016948111
000310 31 36 85 3c 96 fe c5 3b f6 96 a7 3c f5 06 0e 3c
       0.016261192 0.006042312 0.020457726 0.008668651
000320 a6 9b 48 3d e9 ab c5 bb ed 24 4b bc 63 63 a1 3c
       0.048976563 -0.006032456 -0.0123989405 0.019700712
000330 55 2e b2 3b 3b e4 0c bc af 88 51 3b fa ba 04 3d
       0.005437652 -0.008599336 0.003197234 0.032404877
000340 b3 31 a0 3c db 3b 05 39 7d 60 c8 b9 27 48 00 3d
       0.019554948 0.00012706166 -0.00038218862 0.03131881
000350 15 83 39 3c 78 c2 38 bb 59 4f be 3b 04 58 04 bc
       0.011322756 -0.0028192084 0.005807799 -0.008077625
000360 42 cb 88 3c 6b 5e 09 3c 86 fc ab bb 9f 14 0f bc
       0.016698483 0.008384327 -0.005248609 -0.008732944
000370 90 88 19 3d 9c e6 dc ba db 2c c3 3c 47 64 16 bc
       0.03748375 -0.0016853395 0.0238251 -0.009179181
000380 f6 89 44 3a b1 23 4b bc 02 de 89 bb 0d 06 97 3a
       0.00074973644 -0.012398646 -0.0042073736 0.0011522189
000390 61 ea 82 ba 7a a0 9b b9 b0 55 6a 3b d5 e3 a0 3a
       -0.0009988063 -0.00029683468 0.003575664 0.001227493
0003a0 2e 7c 4b bb dc 6f 63 3d f5 b8 e8 3c a5 c9 78 3c
       -0.0031049359 0.0555266 0.028408507 0.015184795
0003b0 14 bc db 3a 23 2e a0 3c 2c 43 84 3b 6c 89 f0 bb
       0.0016764426 0.01955325 0.004036328 -0.0073406007
0003c0 e7 7f 68 b7 27 df 6e 3c 5a 92 7f 3c d5 21 1c ba
       -1.3858057e-05 0.014579571 0.015598858 -0.0005955969
0003d0 15 2e 5f 3c d3 12 ee 3a db 23 b9 bb 66 67 88 3c
       0.013621827 0.0018163569 -0.0056500263 0.016650867
0003e0 84 40 65 3c 0b 72 bd 3c 85 2b 3c 3a a9 07 7e 3b
       0.0139924325 0.023125669 0.0007178116 0.003876189
0003f0 49 cd 92 bb 92 86 e5 39 6f 03 4e 3a 27 86 ce bb
       -0.0044800383 0.00043778546 0.0007858788 -0.0063026133

network_body._body_endoder.seq_layers.2.weight f4 [256, 256]
000000 3c 1a 1a 3b 3e e0 08 3d 5d e1 81 bd 52 12 c4 3d
       0.0023514172 0.03341698 -0.06341813 0.09573807
000010 f3 a3 13 3e 6a 9b 47 bd ad 7e 31 bd 5a 24 87 3d
       0.1441801 -0.0487322 -0.043333698 0.065987304
000020 a7 6d 2e 3d bf ec 10 bd 41 64 94 3d 6f 90 19 3a
       0.04258504 -0.03538203 0.072456844 0.0005858009
000030 c0 09 f4 bb 10 d5 90 3d ef 95 cb bb f9 eb 0e be
       -0.0074474514 0.070718884 -0.006212942 -0.13957204
000040 e3 34 f6 bc 86 de 21 3b 98 78 45 bc db 2a 7b bd
       -0.030054515 0.0024699285 -0.012052678 -0.061320167
000050 55 df a5 3d 54 11 50 bd 1e aa c3 3d 95 40 f8 bb
       0.08099238 -0.050797775 0.09553932 -0.007576058
000060 c3 57 85 bd b7 29 74 bd 98 d6 3b 3d a6 d3 10 bd
       -0.0651088 -0.059610095 0.04585895 -0.035358094
000070 3b a9 43 3d 7d e4 ab 3b de 87 6e 3c 61 4c 3c bd
       0.047768813 0.005245744 0.01455876 -0.045971278
000080 aa 82 c9 bb f7 c4 33 bc 02 b9 44 3d 1a cc 9e bd
       -0.0061496096 -0.010972253 0.048028 -0.07753773
000090 77 5f 12 bb 5e 63 1e 3d d4 32 d5 bc ab 2e 23 be
       -0.0022334734 0.038668983 -0.026025213 -0.15935771
0000a0 e8 f1 a9 bc 4d 2d ea 3c f7 c0 66 3d 17 03 b4 bb
       -0.020745233 0.028586054 0.05633637 -0.0054935324
0000b0 a1 33 c1 bc a1 77 d7 3c 90 6d c4 bb 19 10 72 bd
       -0.023584189 0.02630216 -0.005994506 -0.059097383
0000c0 3e 55 26 3d 84 c4 d6 3d 16 7f 3a 3d 57 27 ea bd
       0.040608637 0.10486701 0.045531355 -0.11433285
0000d0 af a2 fa bc d4 62 24 be a0 b0 90 39 ed b1 1e 3d
       -0.030595152 -0.16053325 0.00027597416 0.038743902
0000e0 82 fb 1b 3d a6 21 8f bd 0a a5 68 3a 6c b3 db bc
       0.038081653 -0.0698884 0.00088746904 -0.026818953
0000f0 19 0f 5f bb 80 50 06 3e 3e b0 bb 3c e9 6c bb 3c
       -0.0034036099 0.13116646 0.022911187 0.02287908
000100 75 cb 49 bd f6 0a 5c bd ee bf cc bc 81 fc 61 3d
       -0.049266297 -0.05372139 -0.024993863 0.055172447
000110 43 81 9b bc 01 3a cd 3d ea af 64 3d 8f 13 90 3d
       -0.018982535 0.10020829 0.055831827 0.070349805
000120 53 b7 8a bc da e2 81 bc d9 74 9f 3d 49 62 6d 3d
       -0.016933119 -0.015855242 0.07785959 0.05795506
000130 f7 83 c6 bc 8c d1 93 3d 19 1e dd bd a8 08 c3 bd
       -0.024232848 0.07217702 -0.10796756 -0.095231354
000140 17 6e 7a bb 8d f1 83 3c f6 14 0a be 88 e8 91 3d
       -0.0038212591 0.016106391 -0.13484558 0.0712443
000150 28 eb 4a 3d e5 a2 a4 3c 81 47 71 bd d5 11 97 3d
       0.04954067 0.020097205 -0.058906082 0.07376448
000160 d7 05 be 3c a7 ab 93 3d 4c 9f ae bc da 98 9a 3b
       0.023196144 0.072104745 -0.021316193 0.0047179284
000170 9d d0 1c 3b fd 96 69 3d f2 01 9c 3d 44 ac 3e bc
       0.0023928054 0.05702876 0.076175585 -0.011637751
000180 64 12 9c 3d 95 e2 db 3a 61 f3 44 bd 38 7a b7 bd
       0.07620695 0.0016775901 -0.048083667 -0.08958858
000190 08 b0 82 3d 29 01 a2 3d 67 dc 08 3e a4 88 be 3d
       0.063812315 0.079103775 0.13365327 0.09303406
0001a0 70 5e 81 3d da 00 f1 bd ea 7a ab 3d 69 ed 17 3d
       0.06316841 -0.117677405 0.08373053 0.037091646
0001b0 ea d5 49 3d 92 e4 fa 3b 2a 44 b6 3c ba 20 af bc
       0.04927627 0.0076566422 0.0222493 -0.02137791
0001c0 a6 41 3b bd 00 c2 f1 3c 5c 85 c4 bb cd 5e 52 bd
       -0.045716904 0.029511452 -0.005997343 -0.05135994
0001d0 18 a0 10 bc a5 02 19 3e 29 41 23 ba de a9 12 3b
       -0.008827232 0.14942415 -0.0006227666 0.002237908
0001e0 76 57 a0 3d 69 96 83 3c 3b bc 68 3d 75 67 5f 3d
       0.07829182 0.016062932 0.056820136 0.054542024
0001f0 cd 3e cd bc 48 2c 13 3d 94 a4 9b bd bd e6 99 3d
       -0.02505436 0.0359309 -0.0759975 0.07514713
000200 55 f2 d4 bb 36 f7 a5 bd 49 66 65 bc 1b 85 e2 bd
       -0.006498615 -0.08103792 -0.014001437 -0.11060544
000210 2e 03 b5 bd 18 70 fe 3c 64 54 8f b9 1e 62 58 3d
       -0.08838497 0.03105931 -0.0002733796 0.052827947
000220 b3 b9 9c 3d fb 1c ba bc 0d 06 02 be e4 45 6e bc
       0.07652607 -0.022718897 -0.1269762 -0.01454303
000230 0d d4 03 bd 68 57 d4 3d 4b e8 4d 3d ae 7d 18 bd
       -0.03218465 0.10368234 0.05027036 -0.037229232
000240 a8 df 22 bd da 3c d4 bc ed 77 45 bd 33 33 ec bd
       -0.039764076 -0.025907923 -0.048210073 -0.11533203
000250 ce ee 94 bd bb 55 b2 3d b5 2c 45 bd 12 74 1a 3d
       -0.07272111 0.08707758 -0.04813834 0.03770835
000260 b6 7a c6 bd 81 c7 80 bc 36 14 71 bd 04 2d 07 bc
       -0.09691374 -0.01572013 -0.058857165 -0.008250479
000270 ed 96 15 bc 55 e5 31 bd 87 e5 a6 3c 8a 54 1c bd
       -0.009130222 -0.0434316 0.020373119 -0.03816656
000280 34 71 01 bd e1 d1 4d 3d 37 9d cf 3d af 7c 10 bc
       -0.0316021 0.050248984 0.10137408 -0.008818789
000290 d9 30 4a bd 85 2f 04 3d 21 c7 cd bb 1a c6 55 3c
       -0.04936299 0.03227188 -0.0062798415 0.013047719
0002a0 83 ca 83 bd e0 9c 81 3c 4d f3 5e 3d ca 75 07 bd
       -0.064351104 0.015821874 0.05443125 -0.033071317
0002b0 b4 47 82 3d db 3b ad 3d 7f 2a bb bc 5f 8c 73 bb
       0.063613325 0.08458682 -0.022847412 -0.0037162525
0002c0 73 3e 9b 3d c1 55 8f 3b 1a 8a 90 3d 4b d5 7d ba
       0.075802706 0.0043742363 0.07057591 -0.0009682967
0002d0 76 cf 9c 3c 5d e8 9a bc 40 a8 ec bc 6e 28 cd bd
       0.019141894 -0.018909628 -0.028888822 -0.10017477
0002e0 ca 1c 9c bd db 66 8c 3b 95 1e 8a 3d 51 f1 d6 bd
       -0.076226786 0.0042847223 0.06744114 -0.10495246
0002f0 a1 1e 06 bc 1c 13 b5 3c 15 e5 4b bd 19 38 45 3d
       -0.008186013 0.022103839 -0.049779017 0.048149202
000300 db da 38 bd 74 c4 e3 3d 4b 02 16 3d 98 18 8d 3c
       -0.04513059 0.11121455 0.03662328 0.017223641
000310 e3 95 b6 3d 9e 95 82 bc 3f 0a 19 bd 0f 9f 7d 3c
       0.089153074 -0.015940484 -0.037363287 0.015479817
000320 3b 5b ee 3b 7a d5 80 bd 76 b9 6a 3d 64 a6 c5 3d
       0.007274059 -0.062907174 0.057305776 0.09650877
000330 4b 18 72 3d eb 12 32 3d 4e 34 4c 3a 76 1a 89 39
       0.0591052 0.043475073 0.00077897764 0.0002615039
000340 74 77 c0 3d f8 0f 49 bc 43 73 99 3d 8a 5e aa 3d
       0.09397784 -0.012271874 0.074926876 0.08318813
000350 f0 e4 13 bd b6 d0 c1 bd cf 90 90 bd 12 57 12 3d
       -0.036107004 -0.094636366 -0.0705887 0.035727568
000360 b5 34 d1 3d aa 3d a4 bd a4 24 ce 3d 37 11 6f 3c
       0.10215131 -0.08019574 0.100655824 0.014591507
000370 95 0e bf 3d d0 53 34 bd 4f b7 c5 3d c4 f9 8f 3b
       0.09328953 -0.044025242 0.09654104 0.004393788
000380 80 85 55 bc 96 24 43 3d 02 25 b1 bd 25 12 54 bd
       -0.013032317 0.047642313 -0.08649637 -0.051775116
000390 ac ff 02 bc bf 61 aa bc 93 41 98 bd c5 1d 52 bc
       -0.007995527 -0.020798562 -0.07434382 -0.01282448
0003a0 d4 24 44 3d f0 5c 4a 3c ac 00 b6 bb 75 0d ea 3d
       0.047886685 0.01235126 -0.0055542793 0.11428348
0003b0 1f cb 92 3d db fe f1 bc fc f8 37 3d 93 75 17 bd
       0.071676485 -0.02954047 0.044915184 -0.036977362
0003c0 86 fd be 3c 69 36 74 bd 98 4f c6 3c 6e 3e 0a 3d
       0.023314249 -0.059622202 0.024207875 0.033750944
0003d0 e5 0e 4f 3d c7 8f ac bd fa b1 d9 bd 77 1b 03 ba
       0.050551314 -0.08425861 -0.106296495 -0.0005001346
0003e0 15 de 15 bb 9a 04 5c 3d 3f 46 0b b8 e7 13 9b bd
       -0.0022867967 0.053715326 -3.3205604e-05 -0.075721554
0003f0 75 1f 42 3b 3f ff 33 bd 50 69 91 3d b8 38 79 3b
       0.00296208 -0.043944594 0.07100165 0.0038028192

network_body._body_endoder.seq_layers.4.bias f4 [256]
000000 9a c1 d1 3c 7f 50 60 3c 00 17 5c 3c be f8 44 bc
       0.025605012 0.013691067 0.013433218 -0.012022195
000010 7e 4d 9c 3b 72 d5 64 3c 40 ea bd b6 75 be ae 3a
       0.00476998 0.013966905 -5.659909e-06 0.0013331907
000020 8a 38 98 bb 44 16 1a 3c d7 36 4d 3c 90 db 01 bc
       -0.004645412 0.009404723 0.012525282 -0.007925883
000030 da 89 d8 3c b8 15 08 bb d3 13 61 bb ee 3d 54 3c
       0.02643292 -0.0020764899 -0.0034344092 0.012954218
000040 19 4e 3e 3c 31 43 7c bb 85 d4 3b bb 00 1a d4 bb
       0.0116153 -0.0038492198 -0.0028660607 -0.006472826
000050 c5 4e aa 3c 8c fd 17 3c 5b 3a bf bb 78 6e cc bb
       0.020789513 0.009276759 -0.005835814 -0.006238755
000060 79 52 c3 3c b2 d5 e4 3c 91 2c 15 3c 02 80 05 3c
       0.023843037 0.02793393 0.009104864 0.008148195
000070 0c 68 d7 bb cd 39 2c bc 8e a4 9b ba 38 9a 8d 3a
       -0.0065736827 -0.010511828 -0.0011874603 0.0010803407
000080 71 82 cb 3b 03 b5 07 bc d6 ac 81 b8 10 e1 fe bb
       0.006210618 -0.008282903 -6.1833925e-05 -0.0077782944
000090 43 3b d8 3b 91 bf 16 3b 09 25 29 bc 60 86 f9 ba
       0.0065988614 0.0023002366 -0.010323771 -0.0019037239
0000a0 2f 59 4b bc 26 2a e2 3a 05 d3 15 3c ec ac c0 3c
       -0.0124114 0.0017254993 0.009144549 0.023519956
0000b0 59 22 76 3c da ee bd bb 00 af 43 bc 5f 3a 0b bc
       0.015022838 -0.0057962956 -0.011943579 -0.0084978035
0000c0 bd b3 dd 3b 12 b0 13 bc 12 fc 8b 3c 9c 2e 26 3b
       0.0067658112 -0.009014146 0.01708797 0.0025357371
0000d0 e7 cd 36 bc 72 f1 29 bc f6 b6 02 ba 94 38 54 3c
       -0.011157489 -0.010372506 -0.000498637 0.012952942
0000e0 1e f9 17 3c a6 34 0b bc 65 19 16 bc 72 e0 bb 3c
       0.009275703 -0.008496439 -0.009161328 0.022934172
0000f0 8a 8c ab bb fd 2b f6 3c 6e f6 99 bb d6 b9 99 3b
       -0.0052352594 0.030050272 -0.004698566 0.004691343
000100 2d 55 f7 3c f6 5f f3 3c 01 88 0d 3c 7b 74 c1 bb
       0.030191982 0.029708844 0.008638383 -0.005903778
000110 61 aa 9e 3c 32 23 22 3c fe 62 fc 3b 06 65 db bb
       0.019368352 0.0098960865 0.0077022305 -0.0066953925
000120 5d 12 93 3b b0 8f 6a bb a5 3b 0e bb 2a 11 09 3c
       0.004488273 -0.003579121 -0.0021703031 0.008365909
000130 08 84 1d bb f8 fe 99 3c fd 85 39 3c cf 75 27 3c
       -0.0024034996 0.018798336 0.011323449 0.010220959
000140 ee 2c 3e 3b d1 85 66 3c ea 7f aa 3c 3b 06 15 bc
       0.002901848 0.01406999 0.020812947 -0.009095724
000150 7b e2 fe 3b 43 cc 65 3b 32 fb b8 3c 1a 92 fa 3c
       0.0077784634 0.0035064376 0.022580717 0.030587245
000160 2a 1e 66 3c 73 61 c1 3b b8 4f d1 3c f0 ed 7d bc
       0.014045278 0.0059015094 0.025550708 -0.015498623
000170 52 35 c2 3c 64 ba 1f 3c fd 8f 2a 39 d2 1e 9c 3c
       0.023707066 0.009749029 0.00016266103 0.019057665
000180 fa 81 68 3c 45 0f e2 bb 65 b4 66 3c 08 43 ba bc
       0.014191145 -0.006898793 0.014081095 -0.022737041
000190 f4 df b1 bb a5 45 b9 3b 5b 1a ed 3c 8a c7 33 bc
       -0.0054283086 0.005654054 0.028943231 -0.010972867
0001a0 18 9a b8 3c cb 55 5c 3c ae 9c e6 3c 7f 7b 4b bb
       0.022534415 0.013448189 0.028150883 -0.0031048951
0001b0 c3 20 7b 3c c8 d7 8d 3c cc f5 7a 3c 08 15 4f 3c
       0.015327635 0.017314807 0.015317392 0.012639292
0001c0 97 fb 96 3b 94 f8 c5 bb fa 7c 95 3c ae 8d f7 3b
       0.0046076286 -0.0060415957 0.01824807 0.0075547313
0001d0 6a 03 88 3c db 65 ed 3c 94 58 2a bc 0d 6b c6 3c
       0.01660319 0.028979233 -0.010397095 0.024220968
0001e0 2b 4f 52 bb 1b e6 44 3c 1f cb d3 3c 79 da bf 3c
       -0.0032090645 0.012017752 0.025853692 0.023419606
0001f0 de b8 fd 3b 0a 2c 0f bc db 43 56 3b 31 01 ce 3a
       0.007742985 -0.008738527 0.0032694254 0.0015716908
000200 80 76 3a bc f6 81 a2 3c bc 28 bd 3a 8c fd d7 bb
       -0.011380792 0.01983736 0.0014431695 -0.0065915044
000210 23 2f 5c bb 2c b5 80 3b 9c 57 f3 3c 22 43 ab 39
       -0.0033597432 0.0039278474 0.029704861 0.0003266568
000220 d8 4c af bb 8b 17 30 3c b5 f4 d7 3c 3e c4 9e 3c
       -0.0053497367 0.010747801 0.026361803 0.019380685
000230 fe f7 e6 3b cb ca 60 ba eb 7e 8b 3c 0c 7c 34 3b
       0.007048606 -0.00085751404 0.017028293 0.0027539758
000240 99 c0 86 3c a3 16 90 3c 9f fe 59 bb 8a 05 18 3d
       0.01644926 0.017588919 -0.0033263338 0.037114657
000250 1b 0b a8 3c 86 56 9f 3c 1e 98 16 bb 01 ee 9c 3c
       0.020513108 0.019450437 -0.0022978853 0.019156458
000260 0b 76 f1 3c 61 e5 d5 3c 6e 7b 00 3a 25 d1 72 3c
       0.029475233 0.026110353 0.0004901205 0.014820372
000270 56 4b 60 3c 7e 46 36 bb b1 8d b7 3c aa 97 fa bb
       0.0136898365 -0.0027813013 0.02240643 -0.0076474743
000280 60 dd 81 3a a9 ee a9 3a 95 02 7d 3a db 95 61 3b
       0.0009907894 0.0012964803 0.0009651569 0.0034421596
000290 cf 54 d8 3c 3c f4 ec 3a 6e 73 5f bb 33 f9 1f 3c
       0.026407627 0.0018078159 -0.00340959 0.009764004
0002a0 a3 0f d3 3c 95 c0 87 3c e3 e7 f8 3b 52 2a e4 3c
       0.025764292 0.016571322 0.0075960024 0.027852211
0002b0 73 8d 2c 3c 9b df eb 3b a9 8a d7 ba c9 c6 1f 3c
       0.010531771 0.0071982867 -0.0016444522 0.009751984
0002c0 43 c4 02 3d 16 df d3 bb 09 40 4e 39 2a a9 aa b9
       0.03192545 -0.006465803 0.00019669546 -0.00032550964
0002d0 73 ae 7a bb 1e e4 86 3c 77 b9 3b 3c 7d 4f b9 3c
       -0.0038250952 0.016466197 0.0114577925 0.02262091
0002e0 35 a6 31 3c b5 77 af bb 21 7c 3b bc d5 f7 a8 3c
       0.0108428495 -0.0053548464 -0.011443169 0.020625988
0002f0 ed e4 70 bc b2 f7 b3 3c 8a d1 6b 3c 26 99 34 bc
       -0.014703018 0.021968696 0.01439322 -0.011022842
000300 2c a5 b4 3c fc 16 bf 3a 29 15 10 bb 6d 01 0f bc
       0.022051416 0.0014578993 -0.0021985269 -0.008728367
000310 14 29 20 bc cf 5c aa bb 7d 1f d1 ba 56 66 3c bc
       -0.009775419 -0.005199052 -0.0015954819 -0.011499008
000320 47 5e 84 3b 93 87 04 bc e4 02 bb 3c c4 3e 2c bc
       0.004039559 -0.008088964 0.022828527 -0.010513011
000330 fd e2 19 3c 76 c0 25 bc c6 5a 19 bc 03 55 69 3c
       0.009392497 -0.010116687 -0.009360021 0.01424146
000340 1d 38 87 bb 80 b6 9d bb a1 ee 0b bb 88 60 c8 bb
       -0.0041265623 -0.0048130155 -0.002135195 -0.006115023
000350 2b b1 ac bb 2f 45 af 3c ab b1 fd 3c a3 62 89 bc
       -0.0052701435 0.021395294 0.030968508 -0.016770666
000360 4d 96 4c 3c 11 9c 09 3c 7e 8c 67 bb 40 54 d6 3a
       0.012487006 0.008399026 -0.0035331543 0.0016352013
000370 91 12 e9 bb f1 9c d2 ba 6c 04 98 3c e3 c9 6a bb
       -0.007112809 -0.0016068501 0.018556796 -0.00358259
000380 38 e5 c1 3c 7c 50 1a bc 3a 35 1e bc 9a 48 2b bc
       0.02366887 -0.009418603 -0.009656245 -0.010454321
000390 d2 e6 33 bc eb be 09 3d fd 0d 0b bc ba b1 3b 3c
       -0.010980325 0.03362934 -0.008487222 0.0114559475
0003a0 47 c7 a0 3c 76 1a da bb d6 7b 43 bc 17 57 8d bb
       0.019626273 -0.0066559864 -0.01193138 -0.0043133604
0003b0 84 a4 d9 3c a3 36 84 bb bd 2f d9 3c 45 7e 75 3c
       0.026567705 -0.0040348335 0.026512021 0.014983718
0003c0 03 99 87 3c f8 f7 98 ba 22 ce 00 ba 08 b2 94 3b
       0.016552454 -0.001167058 -0.00049135287 0.0045378245
0003d0 57 78 8d 3b ae 45 c5 3b d4 c9 90 bb 7f 75 3c 3b
       0.004317324 0.0060202694 -0.004418591 0.0028756557
0003e0 48 86 56 3c 3a 5d 9e bb 9c 37 b7 3b a3 19 96 bb
       0.013093539 -0.004832891 0.005591346 -0.004580693
0003f0 8c e9 bc 3c 47 de 4f 3c 8c 78 f3 3b 72 80 09 3c
       0.023060583 0.012687272 0.007430142 0.00839244
