Assets/Training/results/Run 1/DroneBehavior/DroneBehavior-1000110.onnx (onnx, 659144 bytes, 17 tensors)

101 f4 [15]
000000 92 10 83 3a 92 10 83 3a 12 9d 02 3d 2a a6 ff 3e
       0.0009999445 0.0009999445 0.031888075 0.4993146
000010 4a 28 b0 3e 92 10 83 3a b9 c1 c5 3e 38 d4 a3 3b
       0.34405738 0.0009999445 0.3862436 0.0049996637
000020 1f df de 3e 78 7b 78 3e 92 10 83 3a b9 c1 c5 3e
       0.43529603 0.2426585 0.0009999445 0.3862436
000030 38 d4 a3 3b 1f df de 3e 78 7b 78 3e
       0.0049996637 0.43529603 0.2426585

104 f4 [25]
000000 92 10 83 3a 0f 60 8f 3e ac af e7 3b 6f 56 c4 3e
       0.0009999445 0.28002974 0.0070705023 0.38347194
000010 d7 0d 6a 3e 92 10 83 3a 95 07 91 3e bb a3 24 3c
       0.22856842 0.0009999445 0.28326097 0.010048802
000020 60 6a c2 3e 7f 42 65 3e 92 10 83 3a 0f 60 8f 3e
       0.37971783 0.22388647 0.0009999445 0.28002974
000030 e1 a0 e0 3b b5 92 c1 3e 68 ce 67 3e 92 10 83 3a
       0.0068551158 0.3780724 0.22637331 0.0009999445
000040 0f 60 8f 3e 0d 3b 4f 3b f3 9e c6 3e 85 a4 71 3e
       0.28002974 0.003162089 0.38793144 0.23597915
000050 92 10 83 3a 0f 60 8f 3e 0d 3b 4f 3b f3 9e c6 3e
       0.0009999445 0.28002974 0.003162089 0.38793144
000060 85 a4 71 3e
       0.23597915

95 f4 [25]
000000 92 10 83 3a 92 10 83 3a 0b 66 e0 3c 8a 25 eb 3e
       0.0009999445 0.0009999445 0.027392408 0.45927078
000010 61 93 a0 3e 92 10 83 3a 8f 32 70 3c 5b d7 35 3d
       0.3136244 0.0009999445 0.014660492 0.044394832
000020 53 aa f5 3e 38 c6 a1 3e 92 10 83 3a 92 10 83 3a
       0.4798151 0.3159654 0.0009999445 0.0009999445
000030 f4 21 d0 3c ec d0 fa 3e 4a fc a3 3e 92 10 83 3a
       0.025406815 0.4898752 0.3202842 0.0009999445
000040 92 10 83 3a 96 9d d0 3c f1 46 ef 3e 72 19 a5 3e
       0.0009999445 0.025465768 0.46733811 0.32245976
000050 92 10 83 3a 92 10 83 3a 96 9d d0 3c f1 46 ef 3e
       0.0009999445 0.0009999445 0.025465768 0.46733811
000060 72 19 a5 3e
       0.32245976

98 f4 [55]
000000 92 10 83 3a 92 10 83 3a e8 17 9a 3c 89 84 93 3e
       0.0009999445 0.0009999445 0.018810228 0.28812054
000010 4b 51 30 3e 92 10 83 3a 03 15 c7 3c 54 d7 ef 3c
       0.17218511 0.0009999445 0.024302011 0.029277481
000020 15 ff 9f 3e 73 01 48 3e 92 10 83 3a 92 10 83 3a
       0.312493 0.19531803 0.0009999445 0.0009999445
000030 b4 6f 90 3c 71 d0 96 3e 9d 7d 33 3e 92 10 83 3a
       0.01763139 0.29455903 0.17528386 0.0009999445
000040 ac e0 28 3d d4 09 da 3c 51 0f 9c 3e cb 26 36 3e
       0.04122989 0.026616015 0.30480435 0.17788236
000050 92 10 83 3a 92 10 83 3a 23 7b 00 3d 17 e0 a1 3e
       0.0009999445 0.0009999445 0.031367432 0.3161628
000060 7b af 33 3e 92 10 83 3a af af 26 3d 36 3b 9f 3c
       0.17547409 0.0009999445 0.04069489 0.019437414
000070 dc c8 95 3e 7e 05 2d 3e 92 10 83 3a 92 10 83 3a
       0.29254806 0.16896626 0.0009999445 0.0009999445
000080 5b 47 d4 3c f4 5a a1 3e 11 37 36 3e 92 10 83 3a
       0.025912931 0.31514704 0.17794444 0.0009999445
000090 6a 88 d2 3c 17 3b 95 3c 13 ee 94 3e e8 51 34 3e
       0.025699813 0.018216653 0.29087886 0.1760937
0000a0 92 10 83 3a 92 10 83 3a 33 31 1e 3d 9f b9 b3 3e
       0.0009999445 0.0009999445 0.03862114 0.35102555
0000b0 57 22 47 3e 92 10 83 3a 92 10 83 3a c1 4b e6 3c
       0.19446693 0.0009999445 0.0009999445 0.028112294
0000c0 36 e9 9d 3e aa be 46 3e 92 10 83 3a 92 10 83 3a
       0.30841988 0.1940867 0.0009999445 0.0009999445
0000d0 c1 4b e6 3c 36 e9 9d 3e aa be 46 3e
       0.028112294 0.30841988 0.1940867

action_model._continuous_distribution.log_sigma f4 [1, 3]
000000 a4 ca 55 3b 31 c0 9b 3b ef 0c 94 3a
       0.0032622004 0.0047531356 0.0011295358

action_model._continuous_distribution.mu.bias f4 [3]
000000 76 0d 60 3b 3a 4a 28 bc dd 0c 30 bb
       0.003418771 -0.010271603 -0.0026863136

action_model._continuous_distribution.mu.weight f4 [3, 256]
000000 43 96 ee 3b fa f7 3a bc 52 29 06 bc 07 9c 5c 3b
       0.007281096 -0.011411661 -0.0081885625 0.0033662335
000010 20 0d 9d bc 03 f3 f2 bc ae 19 75 3c 1e 6e a0 3c
       -0.019171298 -0.029656893 0.014959736 0.019583758
000020 4e f9 e1 3b 7f a8 e1 b8 17 12 91 bb ab 8a b5 bb
       0.0068961745 -0.00010760221 -0.0044272053 -0.005540212
000030 22 e5 dd bc 4e 62 c9 3a f7 f7 32 bb f5 7e 33 bc
       -0.027086798 0.001536438 -0.0027308443 -0.010955562
000040 4e 1e 26 bc f6 9a 72 3c 86 7b 55 3a e4 76 25 ba
       -0.010139061 0.014807453 0.00081437116 -0.00063119666
000050 f5 90 63 bc 50 33 42 ba f9 9f 9a 3b 55 13 23 bd
       -0.013889541 -0.0007408159 0.0047187773 -0.03981336
000060 e9 6e 68 3c 26 f8 91 3a 1e 84 2e 3c c9 cb 2d 3b
       0.014186599 0.0011136576 0.010651616 0.002651917
000070 e3 9e b7 3c ee 75 a2 3c 64 b0 41 bc 0b 6c 25 3c
       0.02241463 0.019831624 -0.01182184 0.01009656
000080 fe 76 b9 bb 4e 8e 53 3c c3 e7 95 3c a0 d5 8d 3c
       -0.005659937 0.012912346 0.01829899 0.017313778
000090 e8 5e 56 ba 51 3a 08 3d eb ba 73 bc 7c a9 af 3b
       -0.0008177594 0.03325874 -0.014876108 0.0053607803
0000a0 89 16 f6 bc 77 e1 89 bc 73 63 61 3c f4 12 2a 3b
       -0.030040042 -0.016831143 0.013756621 0.0025951238
0000b0 69 3f de 3b f1 1e f5 bc 0c c0 fa bb 50 93 39 bd
       0.0067824614 -0.02992198 -0.0076522883 -0.045306504
0000c0 f9 94 a5 bb 7e 7c 80 3c 17 ae 7a 3b 36 7d f8 3b
       -0.0050531593 0.015684363 0.0038250738 0.0075832857
0000d0 88 02 05 bc 4c 9f af ba 5d 47 65 3c e5 2d 81 3b
       -0.008118279 -0.0013398915 0.013994065 0.0039422386
0000e0 0e 18 95 3c ac 8c 41 3c 60 f2 22 bc db 09 06 3c
       0.018199947 0.011813324 -0.009945482 0.008181061
0000f0 ba a0 56 3a e8 97 53 bb b0 fb 8d bc c9 36 cc bc
       0.0008187402 -0.0032286588 -0.017331928 -0.024928467
000100 02 48 42 bc 64 8f de 3c cf 5f 86 bc ad 2d f1 b9
       -0.011857988 0.027167983 -0.016403107 -0.00046001133
000110 73 aa c7 39 72 7b 59 bb 08 cb e4 bc 43 bd 9b 3c
       0.00038083232 -0.0033185151 -0.027928844 0.019011145
000120 9a ef df bc ae 42 5d bc 66 12 6b bb f8 4b 87 3c
       -0.02733593 -0.013504667 -0.003586912 0.016515717
000130 ac 13 2f 3b c9 77 11 bc d3 5b 2e 3c c6 74 15 bc
       0.0026714606 -0.008878657 0.01064201 -0.009122079
000140 00 cc ee 3c 2d 45 cc 37 0b 42 44 3c a2 3d 56 bc
       0.02915001 2.4350908e-05 0.0119786365 -0.013076218
000150 47 5d 14 bc ee ea 9c bc fd 40 bf 3b a4 88 01 bc
       -0.009055442 -0.019154992 0.0058366046 -0.007906113
000160 e1 b0 0d 3c bd ac 33 3c e9 6f f9 3b a6 31 1e 3b
       0.008648128 0.010966477 0.0076122177 0.002413848
000170 0e b2 59 bc 22 12 68 bc b2 15 1c 3c 28 d4 87 bc
       -0.01328708 -0.014164479 0.009526657 -0.016580656
000180 38 c7 d0 bc 67 67 d8 3b 78 98 48 bc 89 d3 a3 bc
       -0.02548562 0.0066041234 -0.012243383 -0.019998329
000190 15 da 0e 3b 13 62 80 bb bb ee be bc 8e 49 28 3c
       0.0021797467 -0.0039179414 -0.023307195 0.010271443
0001a0 41 81 7d bc 5e 0d 81 3b a9 77 5d bb da b6 14 3b
       -0.015472711 0.003938361 -0.0033793247 0.0022691996
0001b0 48 b2 40 3c eb 8c 27 3c c2 c6 a8 3b 54 aa 33 3a
       0.011761256 0.010226469 0.005150647 0.0006853689
0001c0 75 5a 6b bc 1f ac 33 bc cd 17 84 bc 9a 47 3a 3c
       -0.014364828 -0.01096633 -0.01612463 0.01136961
0001d0 37 be 9b bb e9 54 8f 3c 34 c6 89 3c 8c 7c 86 bb
       -0.0047529 0.017496543 0.016818143 -0.0041042026
0001e0 2e b7 b1 bc ec 5c d5 3c a9 5d 63 bc 34 fc 57 bb
       -0.021693792 0.026045285 -0.013877311 -0.0032956721
0001f0 2b 76 0d 3d 46 46 fa 3b 1c 15 21 bc b5 3a c6 3c
       0.034536522 0.007637772 -0.009831693 0.024197916
000200 55 eb ac bb 60 4f 2a bc 0b 65 28 3b f3 de 29 ba
       -0.005277077 -0.010394901 0.0025694992 -0.00064800604
000210 bf 2e 70 3b 62 01 2a bc 02 6b 0a bc db 0f 09 3d
       0.0036648957 -0.010376306 -0.008448364 0.033462387
000220 13 79 98 3a 6c a8 55 bc 9b b0 d8 3b a1 e5 4a 3c
       0.0011632763 -0.013040643 0.00661285 0.012383849
000230 05 3a 15 bc 8b 19 b3 3c b4 d6 ba bb d3 18 3c bc
       -0.009108071 0.021862766 -0.005701864 -0.011480528
000240 2d d8 f4 bb 52 11 8e 3c cd 1c 0e 3d 5b 45 c5 3a
       -0.007472059 0.017342243 0.034695435 0.0015050577
000250 85 b1 07 bc 15 d0 2d 3a 34 c8 ed bb 0e 82 7b bb
       -0.00828207 0.0006630433 -0.007256532 -0.003837708
000260 c4 c7 94 bc dd c9 cb 3b 4b be 63 3c ff d5 87 bb
       -0.018161662 0.0062191323 0.01390035 -0.0041453834
000270 ac 97 ad 3c f3 74 9d bc f9 d7 82 3c cb bc 6d bc
       0.021190487 -0.019220805 0.015972124 -0.014510344
000280 8b f8 4b bc ed 3b c6 3b 43 12 ac bb cc 23 5b bc
       -0.012449394 0.006049624 -0.0052512004 -0.013375234
000290 da 09 17 bc 67 fd 57 3b d0 66 65 bc a1 f8 88 bc
       -0.009218657 0.0032957436 -0.014001563 -0.016720118
0002a0 85 c1 39 bc ee 19 fe 3c 9c 99 13 bb 65 7e 03 3d
       -0.011337643 0.031018224 -0.0022521978 0.03210296
0002b0 6c 47 01 ba 0e e5 52 bc bc 99 bf 3b 68 54 43 3c
       -0.0004931602 -0.012871994 0.005847184 0.0119219795
0002c0 74 6d fe 3b d8 d8 0e bd b1 3d 14 bc 2d f4 ea bb
       0.0077645127 -0.034874767 -0.0090479115 -0.0071702213
0002d0 3a e0 df 3b 5e db 74 bc c4 7e 87 b6 92 d5 e4 3b
       0.00683215 -0.014944879 -4.038071e-06 0.0069834674
0002e0 00 66 f6 bb be 54 52 3c df ac 02 bb 4f 3a af 3b
       -0.0075194836 0.012837587 -0.0019939465 0.005347527
0002f0 e2 44 3a bd b7 84 26 3c 86 ad 98 3c 6c 94 4d 3b
       -0.045475848 0.010163478 0.01863743 0.0031368984
000300 69 ea 47 bc d1 74 23 bc 27 3c 53 3c fb 5f 2f 3c
       -0.012201884 -0.009976582 0.012892759 0.010704036
000310 52 28 fd 3a ed 27 cc bc 35 46 01 3b 9c d3 64 bc
       0.0019314385 -0.024921382 0.0019725685 -0.013966467
000320 6e 7f 06 bc be 51 8a 3b 2b e3 6d bc 58 a9 a9 3c
       -0.008209093 0.00422117 -0.014519493 0.020710632
000330 f1 4d 1d 3d 0b ce 64 3a 81 c9 a2 3b 2b 77 6c 3c
       0.03840441 0.00087282126 0.004967869 0.014432709
000340 c1 ac af 3c 7e 89 c9 3c 35 71 83 3c 68 3d 3a bb
       0.02144468 0.024601694 0.016045192 -0.0028417949
000350 25 aa 64 3c 1d a9 49 bc e7 08 f4 bc 76 2e a9 bc
       0.013956581 -0.012308386 -0.029789401 -0.020652037
000360 08 ff 7d bb f9 0c aa 3a 2e 9a da 3b b2 ea 51 3b
       -0.0038756747 0.0012973837 0.0066712117 0.0032030758
000370 ec 8f 4d bc f4 1e 73 3b 9c 79 13 3d 46 71 4a ba
       -0.012546521 0.0037097307 0.036004648 -0.00077225675
000380 c7 2d 1b bc 08 f1 74 bc 27 18 a1 3c 58 ee dd 3b
       -0.009471363 -0.014950044 0.019664837 0.0067727976
000390 7d 7a 43 bb 25 dd 45 3c e9 a0 bb 3b 2c 6a 00 bd
       -0.0029827647 0.012076651 0.005725969 -0.031351253
0003a0 9c df 87 bb 14 5b 06 bc c6 0c 81 bb 46 68 c5 3b
       -0.0041465294 -0.008200426 -0.0039382903 0.0060243933
0003b0 cb 98 9c 3c ce 0e 40 bc 87 9b e8 bc 69 3d 03 3c
       0.019115826 -0.01172228 -0.028394474 0.008010247
0003c0 9d d8 58 bc 27 0c 2e bc 90 e7 58 bb cd 54 a5 3c
       -0.013235238 -0.0106230145 -0.0033097006 0.020182038
0003d0 71 63 75 3c 5a fd 2a 3b 42 6c 43 bb 3b 8d 77 bb
       0.014977322 0.002609095 -0.0029819165 -0.003777339
0003e0 f4 e2 48 3a 39 e8 7c 3c c4 f5 df bb ef 1c 0e bb
       0.0007663213 0.015436226 -0.0068347175 -0.0021684726
0003f0 73 54 a3 3a cb 8a e9 3b f1 32 b1 3b b7 5e 5a bb
       0.0012461081 0.007127141 0.005407684 -0.0033320615

network_body._body_endoder.seq_layers.0.bias f4 [256]
000000 18 8c 96 3c bc 04 c5 ba 86 71 2f bb e6 02 f4 ba
       0.018377349 -0.0015031318 -0.0026770546 -0.0018616586
000010 f6 8f 1b 3c dd dc 74 bb 4a 0a 0e bc a1 e4 24 bb
       0.009494772 -0.003736309 -0.008669445 -0.0025160688
000020 0b a9 50 3a 05 52 8a 3b f8 8d 40 3b a9 8c db 3b
       0.00079597597 0.0042212033 0.0029381495 0.0067001176
000030 fa 99 a2 3b 9e ea e4 39 91 18 1d 3c 11 20 ec bb
       0.004962203 0.00043662352 0.009588377 -0.007205971
000040 34 58 1c 3c cd f1 61 3b a0 26 21 3c 59 1a 74 3b
       0.009542514 0.00344764 0.009835869 0.003724715
000050 be e1 13 3c 66 31 b0 3b c6 08 40 bb 6f 62 55 3c
       0.009025989 0.0053769825 -0.0029302104 0.013023957
000060 97 3c aa 39 79 e4 1d bb 9b a7 1e bb bd 2b 1f 3b
       0.0003247007 -0.002409248 -0.0024208787 0.0024287545
000070 ec 69 07 3c d2 03 52 3c 82 37 1c 3b 29 1c ea 3b
       0.008265 0.012818294 0.0023836796 0.0071444702
000080 75 75 1d bb 46 33 12 3c 7d 6f fd 3b 7f 70 c6 3b
       -0.0024026309 0.008923357 0.0077342377 0.006055891
000090 c6 3f 7e bb d6 92 63 bb c5 32 8c 39 af ce f6 bb
       -0.0038795336 -0.0034724972 0.00026740707 -0.007531963
0000a0 83 4f 5d 3a 02 bc 0b 3c 0d 9a 30 3c d0 d7 c2 3b
       0.0008442329 0.008528711 0.010778916 0.005946137
0000b0 cc cc a6 3a 55 14 f0 b9 1b a8 31 3b 82 4f 67 3c
       0.0012725829 -0.00045791516 0.0027108255 0.014118077
0000c0 94 b8 a2 bb f0 0b 33 3c 70 29 35 bc f6 97 b2 3b
       -0.004965851 0.010928139 -0.011057243 0.005450244
0000d0 32 5b cd bb 7b e2 53 bb 00 d1 be 3b 91 97 29 3c
       -0.006266975 -0.0032331038 0.0058232546 0.010351078
0000e0 0a 66 85 3b 08 25 05 3c 39 d0 37 ba 2d f5 bc 3b
       0.004071002 0.008126505 -0.00070119236 0.005766532
0000f0 c3 25 c6 3b 13 88 e0 b9 2d ec 16 3c 36 60 58 3c
       0.006046982 -0.00042825993 0.009211582 0.013206532
000100 04 84 0c 3b e0 00 e1 3b f5 cf 4c 3c d1 83 b1 3b
       0.0021440992 0.0068665594 0.012500753 0.005417325
000110 1f 61 a6 bb 00 b3 a5 3b 9a cb 2d ba 04 38 f1 3b
       -0.0050774957 0.005056739 -0.0006629765 0.007361414
000120 0d 53 96 bb 57 13 46 3c 0d 7b cb 3a ad be cd ba
       -0.004587537 0.012089572 0.0015524343 -0.0015697085
000130 c7 c7 30 3b 59 6f 8c 3b 1c 56 e7 bb b4 de 22 bb
       0.0026974545 0.0042857346 -0.0070598256 -0.002485198
000140 4d 9b d9 ba 57 b6 41 37 58 50 e1 bb 75 18 1b 3c
       -0.0016602069 1.1546151e-05 -0.006876033 0.00946628
000150 3d 4d 96 bb 13 ed 83 bb 62 ab a1 ba 36 bc fc bb
       -0.0045868442 -0.004026064 -0.0012334401 -0.007712866
000160 48 05 bd 3b b7 26 99 3b bf f3 93 3b 4a 7f 78 bb
       0.005768452 0.0046738046 0.004515141 -0.0037917667
000170 df 5c 41 bb 85 80 74 3a 0b 98 0e 3c e3 06 d7 ba
       -0.0029504818 0.0009327012 0.008703242 -0.0016405251
000180 d5 6e a9 3b dc 97 b7 3b 80 2f a0 3b 8d f7 c2 bb
       0.005170683 0.00560282 0.004888475 -0.0059499205
000190 12 2b 40 3c a5 fe 3d 3a 37 c6 23 bc 2c c9 54 3b
       0.011729019 0.0007247723 -0.009995989 0.003246854
0001a0 c6 7b c2 bb 44 7a 53 3c 00 a2 65 bb e6 2e 34 3b
       -0.005935165 0.012907568 -0.0035039186 0.0027493774
0001b0 6e da 6d 3a 18 66 1d 3c dc 82 78 bb bb bc b2 3b
       0.0009073381 0.009606861 -0.0037919795 0.0054546273
0001c0 5d d3 de ba 17 c1 04 3c ad 01 74 3b 4a 72 88 bb
       -0.0017000247 0.008102677 0.0037232444 -0.004164015
0001d0 95 06 a6 3a 28 13 24 3b 0c 0d d4 bb 66 45 10 bb
       0.0012666757 0.0025035832 -0.006471282 -0.002201402
0001e0 92 dd 41 3a e5 75 eb 3b 36 e4 a2 3a d5 b7 ce 3b
       0.0007395382 0.007185685 0.0012427631 0.0063085356
0001f0 69 f1 da 3b e9 f2 32 bb 91 2b 03 bb 55 b8 69 3b
       0.0066816104 -0.002730543 -0.0020014981 0.003566285
000200 0e 3a 64 3c d3 a5 c3 bb a9 34 93 bb 86 5b f0 3a
       0.013929857 -0.0059706955 -0.0044923616 0.0018337823
000210 3a 89 88 3a 04 a0 c7 bb a3 ae 9b 3b db 1c 84 ba
       0.0010416873 -0.0060920734 0.004751043 -0.00100794
000220 f0 ec 5f ba db 76 ba 3b a1 8b 0e bb 01 2f d2 3b
       -0.00085420813 0.005690438 -0.0021750706 0.0064142947
000230 d6 6d 77 3c ad af ba ba 50 39 b7 3b 42 13 22 3c
       0.0151018705 -0.0014243029 0.005591549 0.009892287
000240 36 7f 05 bb cc 3b 87 bb 84 32 07 bc cf 26 53 bb
       -0.0020370013 -0.0041270014 -0.00825179 -0.0032219177
000250 6c 1d 6e 3b 8d 07 1f 3c 26 b0 bc 3b c9 bd 90 3a
       0.0036333455 0.00970639 0.005758303 0.0011042889
000260 86 03 d5 bb 0f e2 3c 3b 4a 29 ad 3b e2 97 a5 bb
       -0.006500664 0.0028821265 0.005284463 -0.005053506
000270 60 f0 bf 3b 61 72 7d bb e8 de d5 bb 80 09 ef 3b
       0.0058575124 -0.0038672911 -0.0065268166 0.0072948337
000280 bc 3c 8d bb d6 ab d9 bb ef c9 b1 3b a2 34 11 bc
       -0.0043102186 -0.006642799 0.0054256837 -0.008862646
000290 3b ce 55 3b 81 ca 5c 3b 33 b3 03 bb 3b 4d a4 3b
       0.0032624144 0.0033690038 -0.0020095825 0.0050140894
0002a0 af 7c 8a 3b a9 2a cd 3a e1 9f 9f b9 9a ef 99 3b
       0.004226289 0.0015652973 -0.00030445962 0.004697752
0002b0 f2 32 f9 3b 22 af 72 3a d0 18 6e 3c 45 0d 9e 3b
       0.00760495 0.0009257664 0.014532283 0.004823359
0002c0 52 03 b1 bb 22 0c 73 39 09 9c 88 3b 4c f5 19 3c
       -0.005402007 0.00023178806 0.0041689915 0.009396862
0002d0 dd 85 0e 3c 53 34 e7 3b 93 b2 c2 3b 1d b0 a6 3b
       0.008698908 0.007055798 0.005941698 0.0050869123
0002e0 dd f2 1d bb e8 4e e7 3b d7 c6 39 3c 97 5f e7 39
       -0.0024101057 0.007058967 0.011338911 0.00044130973
0002f0 9b c5 5c 3b 47 78 f3 ba 9e 20 11 3b 1e cd a0 3b
       0.0033687118 -0.0018575274 0.0022144685 0.0049072644
000300 0e b9 1f 3a 1b 24 ff 3a 1b 6b 80 ba cb 67 8f 3b
       0.0006092944 0.0019465716 -0.0009797545 0.0043763868
000310 48 d2 1a 3c bf 60 da 3b 36 5a 8f 3b 1b 80 0a 38
       0.009449549 0.006664365 0.0043747677 3.302107e-05
000320 a5 b9 4a 3c 5c b2 9f ba 70 76 8d 3a 03 db db bb
       0.012373363 -0.0012183893 0.0010792743 -0.006709458
000330 f7 a2 84 3b aa fd 4c 3b f7 3e 30 bb c6 3f 13 3c
       0.0040477472 0.0031279125 -0.0026892999 0.008987373
000340 d6 d8 a8 3b ca cb b8 bb 70 89 56 bb a3 bd 53 3c
       0.005152802 -0.005639528 -0.0032735728 0.012923631
000350 68 81 77 3c 18 52 d2 ba c5 46 34 bc 90 ac ac 3b
       0.015106536 -0.0016046194 -0.011003201 0.0052695945
000360 1c 92 5b bb 90 4c eb 3b 1f 2b b5 3a a2 bd b2 ba
       -0.0033503836 0.007180758 0.0013822055 -0.0013636837
000370 82 67 eb 3b 9e b9 fd b9 47 57 89 bb f7 ad b5 3a
       0.00718397 -0.00048394216 -0.0041913125 0.001386105
000380 6c cd 14 ba d8 cb 1f 3c 47 65 d1 3b 44 8a 5d 3c
       -0.0005676362 0.00975319 0.006390247 0.013521735
000390 6d 70 3d 3c 32 d0 52 ba 29 88 58 3b ba c9 5a 3b
       0.011562449 -0.0008041888 0.0033040142 0.0033384399
0003a0 da a3 c7 3b 6f 45 49 3b 26 14 4a ba a1 f1 08 3c
       0.0060925307 0.0030711552 -0.0007708691 0.00835839
0003b0 b0 42 71 bb b7 d6 2b bb 97 32 cf ba c6 83 53 3b
       -0.003681343 -0.002622051 -0.0015807924 0.0032274588
0003c0 bc 01 a9 3b 97 ab 22 3a 01 99 8f bb 3f 67 fa 3b
       0.0051576775 0.00062053784 -0.004382253 0.0076417024
0003d0 93 0b 04 3c 54 b3 1a 3b db 4f 53 bb 85 81 9a 3b
       0.0080594 0.0023605423 -0.0032243642 0.004715147
0003e0 ad a4 de ba 2f de 01 3b 9d 8e d6 3b 40 bf d4 3b
       -0.0016986333 0.001981627 0.0065477625 0.0064925253
0003f0 1e 4e 59 3b d5 dc b6 bb 3c fa 3f 3c 72 dd de bb
       0.0033158134 -0.0055805244 0.011717375 -0.0068013007

network_body._body_endoder.seq_layers.0.weight f4 [256, 121]
000000 10 5d 93 bc 07 90 a7 3d 42 49 a4 bd b9 8c c1 bd
       -0.017988712 0.08181768 -0.08021785 -0.09450669
000010 3b ea 4d 3d 45 83 64 3d a7 a5 06 be 98 8c 31 3d
       0.050272208 0.05578925 -0.13149129 0.04334697
000020 35 3b 91 bc c2 0e 09 3d af f1 cb 3d 75 b9 05 3e
       -0.017728427 0.03346134 0.09958207 0.13059027
000030 a8 2a 49 bc 97 b0 5e 3c 62 9d 44 bd 2d bd 0d 3e
       -0.012278236 0.013591907 -0.048001654 0.13841696
000040 b5 98 99 bd 11 7b ba 3c b5 a5 13 3e 05 a4 04 3e
       -0.0749983 0.02276376 0.14418681 0.12953193
000050 a3 d2 3f 3d 7b 3f eb bd b1 e3 9e 3d 58 30 05 3c
       0.04683174 -0.11486717 0.077582724 0.008129202
000060 8f f6 b6 3d 99 6c 66 bd a5 61 fc bd 5d 46 79 be
       0.08933746 -0.05625591 -0.12323312 -0.24343248
000070 dd 7c 66 3c f9 e1 ff bd 1d 4a 9f bd 71 e9 5c 3c
       0.014067856 -0.12494273 -0.07777808 0.013483391
000080 e1 2f 39 3d 11 87 87 3d 71 d3 ed 3d 49 84 fd bd
       0.045211677 0.06617559 0.11612595 -0.12378747
000090 38 27 7a 3d 2a 5b 38 ba 78 5b 92 3d 72 c8 21 3c
       0.06107256 -0.00070326275 0.071463525 0.00987445
0000a0 e7 d9 9f 3d 90 d1 0a 3e 87 c4 a4 bc 20 dd 40 3d
       0.078052334 0.13556504 -0.020113243 0.04708588
0000b0 33 1c 7d 3d 8b 43 30 3d 90 8d 01 3d 9d 73 ba 39
       0.06179447 0.043033164 0.031629145 0.00035562823
0000c0 17 c7 a3 3c f5 d4 51 3d d9 28 87 3d ff a6 33 bc
       0.019992394 0.051228482 0.06599588 -0.010965108
0000d0 44 7b 1b 3d 40 2e 94 3d 6c 3c 25 bd 32 a2 34 bd
       0.037959352 0.07235384 -0.040340826 -0.044099994
0000e0 05 08 30 bd 4e 4a 8f 3d a7 e6 83 3d cd 15 0d 3e
       -0.042976398 0.06996594 0.06440478 0.13777848
0000f0 03 a8 4d bd ad f1 c6 3c fd 59 1f 3e cc 11 09 3e
       -0.050209057 0.024285162 0.15561672 0.13385695
000100 40 d4 5d bd 32 c6 57 bd f8 ef d8 bd e7 c6 b3 bd
       -0.054157495 -0.05267925 -0.105926454 -0.08778172
000110 6b eb b5 bc ab 8a c5 3d 48 6d b8 bd e0 fd 8b 3d
       -0.022206983 0.096455894 -0.09005219 0.06835532
000120 f1 27 5f 3e d3 16 cd 3d ba 35 90 bd a0 98 b8 bd
       0.2179258 0.10014119 -0.070414975 -0.09013486
000130 65 ef 23 3d 5b 27 b7 bd ea f9 0e 3d f0 b2 c7 bd
       0.040023226 -0.08943053 0.034906305 -0.097509265
000140 bc 3c d9 bd 2a b2 0f be 53 7d fa 3c 30 c1 52 bc
       -0.10607287 -0.14032808 0.030577337 -0.012863442
000150 ae a6 b9 bd bd cb 44 3d 3e 21 f5 3c 6e 82 b1 3d
       -0.09064995 0.048045862 0.029923078 0.086674556
000160 f5 a8 ea 3c c6 73 c9 3d 5e 23 f9 3d 41 99 25 3d
       0.028645018 0.09836535 0.12164949 0.040429357
000170 80 8c 1a bd c8 1c e3 3b b9 4a d5 bd 08 46 86 bd
       -0.037731647 0.006930921 -0.10414643 -0.06556326
000180 8d a8 a9 bd 25 61 4e 3e f0 66 f0 3c 06 30 a5 3c
       -0.08284102 0.20154245 0.02934596 0.0201645
000190 88 97 4b be ec 29 ae bd 2d 44 31 bd b6 9e f0 3d
       -0.19882023 -0.0850409 -0.043277908 0.11749022
0001a0 af 54 2a 3d 7f 0a 85 bd 95 88 ff bd 69 06 a8 bd
       0.041584667 -0.064961426 -0.12477223 -0.08204348
0001b0 61 83 4b 3d 62 17 c6 bc 15 18 74 3c 28 88 ae bd
       0.04968584 -0.024181072 0.01489832 -0.085220635
0001c0 2b 7c 28 3e 26 81 d5 bb 88 1b 29 be 9e f7 79 3d
       0.16453616 -0.00651564 -0.16514409 0.06102716
0001d0 b9 b8 cc 3d 3d 49 82 bb d6 ba 7a 3d 6c be 5c bd
       0.099961706 -0.003976016 0.061213337 -0.053892538
0001e0 4d aa b7 bc e0 21 8b bc 8c 87 b0 3d 83 86 53 bc
       -0.022420073 -0.016983926 0.086196035 -0.012910488
0001f0 9e 44 4b bd 1d 59 e7 3d 7d 86 00 bd 03 36 97 3d
       -0.049625985 0.11296294 -0.031378258 0.07383349
000200 ce 0b e5 3d f9 33 ba 3c d3 0c 9f 3d eb fe b9 3c
       0.11183892 0.02272986 0.07766118 0.022704562
000210 2b c3 14 3e 1f 94 05 bd 58 b7 7f 3c 55 40 6f bd
       0.14527576 -0.032611962 0.015607677 -0.05841096
000220 c3 f6 ec 3d 9c ec ea bd be 0e fe 3c 93 f8 fe 3c
       0.115705036 -0.11470911 0.031012889 0.031124389
000230 8a 1b 4f bd 8c 07 50 3d 40 d5 45 3d 70 0e 82 3d
       -0.050563373 0.050788447 0.048299074 0.0635041
000240 66 52 fd bd ac 03 bd bd 4f 3d 7f 3d 0f e5 17 be
       -0.12369232 -0.09229216 0.062314328 -0.14833473
000250 ff 28 0f 3d 3d f7 70 bd e6 12 23 3d da 25 95 bc
       0.034951206 -0.058829535 0.039812945 -0.018206526
000260 6b db 36 3c 7d 16 06 bd 77 91 6d bd 8d cd 62 bd
       0.011160712 -0.03273629 -0.058000054 -0.05537181
000270 6f 15 07 3d 50 66 42 bd 78 64 a3 bd a3 99 93 3a
       0.032979425 -0.047460854 -0.07978147 0.0011260997
000280 1b c8 7b bd 85 39 9b 3d 1d a4 98 bd 35 c5 98 bd
       -0.061470132 0.0757933 -0.07453177 -0.07459489
000290 c2 9f ea bc 3d d2 33 bd d5 92 05 3e 9c 3a a0 3c
       -0.028640632 -0.04390167 0.13044293 0.019559197
0002a0 ca 1f 9a 3d 22 fa f8 3d 76 7e 2f 3e 30 24 1f be
       0.075255945 0.12157084 0.17138085 -0.15541148
0002b0 b0 04 e1 bd b0 c2 b6 3c e5 5b 51 3c 79 67 53 3d
       -0.10987222 0.022309631 0.012778257 0.05161235
0002c0 bc 93 31 3d 20 ba f5 3c 9c 50 8b 3b 5d 2f 9f bd
       0.04335378 0.029995978 0.0042515527 -0.07772706
0002d0 82 d0 ea b9 6d 2c 3c bd c6 20 c0 bd f3 f3 cf 3c
       -0.00044787308 -0.045940805 -0.09381251 0.025384879
0002e0 e3 91 8c bd 1f 6f 58 be d3 d2 e7 bd aa ba 0b 3e
       -0.06863763 -0.2113614 -0.113195084 0.13645425
0002f0 74 37 46 3d 91 b8 f0 3d f9 b0 04 bd 08 58 1a 3d
       0.048392728 0.11753953 -0.032395337 0.03768161
000300 17 b3 22 3d da 76 21 bb 96 21 6d 3e 33 aa 06 be
       0.039721575 -0.0024637491 0.23157343 -0.13150863
000310 97 8e 8e 3d 95 15 29 bd 8f ee 59 3d ce f0 18 bd
       0.069607906 -0.041280348 0.053206023 -0.037339024
000320 04 30 9f 3d 78 6e 74 3d 85 73 85 bd 89 46 e4 bc
       0.0777283 0.059675664 -0.06516174 -0.027865665
000330 5e ba 1e 3e 50 e1 fd bd e0 f4 e8 3d 95 38 c5 bb
       0.15500781 -0.123964906 0.11374831 -0.006018708
000340 58 7b 9b 3c 2f 61 ef 3b d9 b9 fd 3d 35 97 c5 bd
       0.018979713 0.0073052864 0.12388963 -0.09647981
000350 a6 f9 dc bd 90 80 28 be 23 a3 ba 3c 90 32 89 bd
       -0.10789804 -0.16455293 0.022782868 -0.06699097
000360 72 25 cb 3d 75 ee 2a 3d 48 ad 4b bd df 90 4b bd
       0.099192515 0.041731317 -0.0497258 -0.049698707
000370 9e ff c9 3d ab 88 9c bc a5 94 94 3c 70 7f 61 bd
       0.09863208 -0.019108137 0.018137285 -0.055053174
000380 50 4f c5 bc eb c5 ea bd 58 ad c2 3d ff d1 9f bd
       -0.02408567 -0.11463531 0.09505719 -0.078037255
000390 5a 82 f1 3c 2e 65 ce 3d 85 79 f8 3d a3 43 ad 3c
       0.029481102 0.10077892 0.12132553 0.021150416
0003a0 de 8f a6 3c 86 9e 59 3d 36 25 93 3d 4e ce 8f bd
       0.020332273 0.053129695 0.07184832 -0.07021771
0003b0 85 7c 6b bd 5e 77 cc 3d 8d 88 01 bd a1 e6 06 be
       -0.057491798 0.09983705 -0.031624366 -0.13173915
0003c0 0b 2e 0e be 46 6a e2 3d 8c 29 33 3d 28 c9 68 be
       -0.13884751 0.11055426 0.043740794 -0.22732985
0003d0 87 28 1c be 43 cd d7 3d 05 35 a8 bd 82 80 13 3d
       -0.15249835 0.105371974 -0.08213238 0.036011226
0003e0 23 75 42 3c 26 1b ef bc 62 78 0a 3e d8 9f 07 be
       0.011868748 -0.02918775 0.13522485 -0.1324457
0003f0 05 5a 3e be 85 e2 6a bd 02 e3 15 3d f6 10 25 bd
       -0.18589027 -0.057344932 0.036593445 -0.04029938

network_body._body_endoder.seq_layers.2.bias f4 [256]
000000 6c c4 fb b9 c3 06 95 ba 6b 97 c3 bb 7d bf 03 bc
       -0.00048020796 -0.0011369813 -0.005968978 -0.00804126
000010 cf 7d 17 3c 05 ce ae bb 40 41 3f 3c 5a e1 f8 bb
       0.009246304 -0.005334618 0.011673272 -0.0075952234
000020 38 47 16 3c 01 57 d4 bb a2 7e af bb 7b 75 a7 3a
       0.009172253 -0.0064800982 -0.005355672 0.0012776101
000030 56 ee 31 bb fc 3a a4 3a 26 f1 83 3b 39 c4 05 bc
       -0.0027150116 0.0012529786 0.00402655 -0.008164459
000040 99 7a 28 3c a5 93 f0 3a 47 e6 18 3c ea 3e 40 3a
       0.010283136 0.0018354548 0.009332246 0.00073335937
000050 d2 68 f8 3b 7e 1c 8e 3b 77 79 ab bb 6e 3b 07 3b
       0.007580855 0.0043368926 -0.0052329856 0.0020634788
000060 90 8c 43 3c 21 6f 10 bc 9b a7 27 3c 44 63 1b bc
       0.011935368 -0.008815558 0.010232831 -0.009484116
000070 f3 68 c0 bb 2a 93 52 ba 52 02 3e 38 39 0b 60 3c
       -0.005871886 -0.00080327934 4.530169e-05 0.013674551
000080 4b ad 2f 3c 09 55 64 3b 55 04 cd ba 61 d4 b7 bb
       0.010722469 0.0034840724 -0.001564155 -0.0056100343
000090 e7 24 85 bb ae 8e 08 bb f4 54 16 3c 61 07 f7 bb
       -0.004063237 -0.0020836997 0.009175528 -0.0075387214
0000a0 09 22 1a 3c 46 29 a3 ba f7 6e 9e 3b 9b 4c 46 ba
       0.009407529 -0.0012448214 0.0048350054 -0.00075645157
0000b0 8b 8f f8 bb dc 45 bc 3b 1e a6 01 bb f6 d7 33 bc
       -0.007585471 0.0057456326 -0.0019782851 -0.010976782
0000c0 bd c8 23 bb d1 77 2e ba 7d 86 a5 bb 84 8c 3f 3c
       -0.0024991476 -0.0006655427 -0.0050514326 0.011691216
0000d0 78 d9 04 bc 90 2e 11 bb 6c 7e 4f 3b 6f 33 05 3c
       -0.008108489 -0.0022152998 0.0031661047 0.0081299385
0000e0 25 b6 fa 3b 64 d2 13 bc e6 b4 81 3c 00 f6 62 3b
       0.007651108 -0.009022329 0.01583333 0.003463149
0000f0 36 d9 eb 3b e1 e7 2b bc 36 5b af 39 a5 bd dc bb
       0.0071975244 -0.010492296 0.00033446559 -0.0067364746
000100 fa 0a 05 bb 9b 40 88 3b c4 26 1f 3b e9 3f 63 3c
       -0.0020300732 0.004158092 0.002428458 0.013870218
000110 57 05 49 3b 77 70 2c bb fb 6b c5 3b 07 f4 f6 bb
       0.0030673349 -0.0026312151 0.006024835 -0.0075364145
000120 e9 11 64 bb b3 d5 1c bc 7b 0c df bb 06 9b 0c bc
       -0.0034800714 -0.009572434 -0.0068069077 -0.008581882
000130 44 9c dd bb 3d 20 97 bb dd a5 0e 3c 5d a8 ec bb
       -0.006763013 -0.0046119974 0.008706537 -0.007222219
000140 bd c8 7d bb 8f 0b ca bb 63 b8 04 bb 4e 1f 00 3c
       -0.0038724386 -0.0061659287 -0.0020251505 0.007819964
000150 78 30 df 3b f1 1d 15 3a f6 84 2d 3b 1f 2b 4e 3c
       0.006811198 0.00056883605 0.0026476956 0.012583523
000160 31 fb ea 3b 70 d9 ac 3b 41 ac e1 3b 3f 2d 5b 3a
       0.0071710576 0.005274944 0.0068869893 0.0008360929
000170 a4 60 de 3b 7c 1d 6a 3b bc 69 fe b9 ec d7 af 3b
       0.006786423 0.003572314 -0.00048525434 0.005366316
000180 12 ed 07 bc 1f ea 46 3c 5a bc b0 bb ec e4 a3 3b
       -0.008296268 0.01214078 -0.005393547 0.005001655
000190 15 fc f9 3b 88 ea e4 bb fb db 27 3c b6 3d 77 3a
       0.0076289275 -0.006985966 0.0102453185 0.0009431498
0001a0 29 37 15 bb da 76 ac ba e0 41 e5 3a bf 53 af ba
       -0.0022768474 -0.0013157979 0.0017490946 -0.0013376399
0001b0 db 61 6a 3a bb 9b 58 bb 83 c6 38 3c 57 20 37 3c
       0.0008940973 -0.0033051807 0.011277798 0.011177144
0001c0 46 1c 0a bc b4 2c 21 bb 10 63 50 bb 80 6e 62 bb
       -0.0084295925 -0.0024593296 -0.0031797327 -0.0034550726
0001d0 9c 77 b2 bb 79 08 f1 3b 5f 87 fb bb 54 65 36 bb
       -0.0054463875 0.0073557463 -0.0076760496 -0.0027831392
0001e0 d6 9d 98 3b a2 29 a7 3b df eb 07 bb c3 95 b3 3b
       0.0046574874 0.0051013986 -0.0020739955 0.0054804995
0001f0 60 a0 99 b9 ef b9 fe ba ba 68 2f 3c d1 b6 c5 bb
       -0.00029301923 -0.0019434075 0.010706121 -0.0060337563
000200 20 5a 34 3c 2f de cd 39 f2 32 ec 3a c8 82 30 3b
       0.011007816 0.00039266187 0.0018020554 0.002693342
000210 dc b1 38 bb a7 f3 9f 3b 4f 40 8c 3b 34 7e 96 bb
       -0.0028182184 0.0048813405 0.004280127 -0.0045926813
000220 d4 9b a3 3b e0 21 02 3c 06 14 cb 3b cc 9e f3 ba
       0.0049929414 0.007942647 0.0061974553 -0.0018586754
000230 6e d4 13 ba 2e f1 9b 3b 8c 58 b5 ba df 5f 19 bc
       -0.00056392595 0.0047589755 -0.0013835593 -0.009361236
000240 1a af 4e bb 3e 3c b0 3b 11 a1 dc bb cd 1b b0 38
       -0.0031537474 0.005378275 -0.006733068 8.397512e-05
000250 a7 c3 38 bb 88 81 19 3c 95 51 23 3c 34 d5 02 3c
       -0.002819279 0.009369262 0.009968181 0.007985402
000260 d2 f1 1d bc 0c 52 d9 3b 77 9f 60 3b c8 cf 2e bb
       -0.009640174 0.006632095 0.0034274736 -0.002667414
000270 0e b3 19 3c 2a 65 b6 bb 35 07 eb bb 61 6f bc bb
       0.009381069 -0.005566259 -0.00717249 -0.005750582
000280 59 8c 4a 38 d3 6e db b9 5a db 48 bb 4a b1 0f bc
       4.8291262e-05 -0.00041853506 -0.0030648322 -0.008770296
000290 78 ea eb 3b 36 10 36 3c dc 45 27 3a 07 d6 d2 39
       0.0071995817 0.011112263 0.00063809543 0.00040213784
0002a0 be fa 1c 3c 53 92 2a 3c 6e 27 ff 3b 50 b6 15 3c
       0.009581266 0.010410863 0.007786683 0.009137705
0002b0 50 ed bc ba 76 b4 8d 3b 3b 6a ed 3a 08 3b 1e 3c
       -0.0014413986 0.004324491 0.0018113324 0.009657629
0002c0 c1 7f a4 bb 73 17 18 3c bc 88 e8 bb 5b 05 83 3b
       -0.0050201123 0.0092829345 -0.007096378 0.003998441
0002d0 b3 98 03 3b e6 c9 df 3b 06 98 88 3a 7d 44 96 bb
       0.002008003 0.006829488 0.0010421283 -0.004585801
0002e0 7f aa a1 bb 9a 66 a1 ba a0 5e 63 3c 2d 64 95 bb
       -0.004933655 -0.0012313903 0.013877541 -0.004559061
0002f0 1a 12 54 3b a0 f2 14 bc f3 76 bd bb 45 66 57 3b
       0.0032359422 -0.009091049 -0.005782002 0.0032867354
000300 a8 f4 8f 39 1b e4 92 bb 84 94 fb 3a 86 b4 a3 3a
       0.0002745737 -0.0044827587 0.0019194041 0.0012489713
000310 0f 11 1b b9 1a 92 67 3c 8d e0 c8 3b f0 c2 12 3b
       -0.00014788307 0.014133954 0.006130284 0.0022394024
000320 55 07 3a 3c e0 6b 83 39 a0 ed bc 3b d5 7b 13 3c
       0.011354287 0.0002506664 0.005765632 0.009001692
000330 ad ea 15 3c 32 49 85 bb 80 9b 07 bc 16 e9 1a 3c
       0.009150189 -0.0040675635 -0.00827682 0.009454986
000340 71 2b 1e 3c d2 85 b9 bb 89 e5 2b 3c ba b2 07 bc
       0.009653912 -0.0056617046 0.010491737 -0.008282358
000350 1e 7a 89 3b fc 4b 48 bb df 2f c6 bb 54 bf df 3a
       0.0041954657 -0.0030562868 -0.006048187 0.001707057
000360 e3 73 b3 3a 6e bb 09 3c 2c ee 96 3b 10 4a 64 3b
       0.0013691153 0.008406503 0.004606029 0.0034834184
000370 91 94 c9 bb ba 8b 29 39 df e2 d5 3b 2f 89 99 3b
       -0.0061517437 0.00016169148 0.0065272893 0.004685543
000380 dd 85 af 3b 96 36 47 3b 7f d3 81 3b b8 f8 23 3a
       0.005356534 0.0030397526 0.00396198 0.00062550185
000390 e5 4b 0d 3b b5 92 f0 3b 18 05 c0 bb ab bc 8e 3b
       0.002156013 0.0073417076 -0.005859982 0.004355987
0003a0 02 e2 cd bb c8 4a 5b 3c 05 03 30 3b 6e 70 ed 3a
       -0.0062830457 0.013384528 0.0026857269 0.0018115172
0003b0 db 31 2c 3b ea c6 d1 38 96 ac f4 bb 1d dd 4d bc
       0.0026274833 0.00010002947 -0.007466863 -0.012564925
0003c0 bd 3d c7 bb 53 b4 aa bb 7a 14 23 b9 cd b3 cf bb
       -0.006080358 -0.0052094846 -0.0001555252 -0.0063385726
0003d0 1c 48 84 3a 08 65 30 3b 74 6d 02 3a 4f 2b 48 3b
       0.0010092291 0.0026915688 0.0004975416 0.0030543392
0003e0 b8 cb ad 3b 93 0f 81 bb 90 8d 01 bb 1a 36 c8 3a
       0.005303826 -0.003938624 -0.0019768216 0.0015274913
0003f0 5e 5f b4 bb 04 44 00 3b fe a6 60 bb c8 30 25 3c
       -0.0055045327 0.001957179 -0.0034279223 0.010082431

network_body._body_endoder.seq_layers.2.weight f4 [256, 256]
000000 bc 1e ba bb d7 ea d3 bd db 28 21 be 5e 66 8f bd
       -0.0056799334 -0.103475265 -0.15738241 -0.07001947
000010 ae c6 06 3d 2b b2 68 bd d0 ae b6 bd 18 7e bf bd
       0.03290432 -0.05681054 -0.089200616 -0.09350222
000020 da 30 eb bb d5 54 10 3d 9e dc fe 3c 56 3a 12 bd
       -0.0071774544 0.035237152 0.031111058 -0.035700165
000030 c8 03 c0 bc f9 3b 06 3e 0e 76 6a bd 5d 09 8a bc
       -0.023439303 0.13108815 -0.057241492 -0.016850168
000040 59 db 09 3d a7 37 c8 3a f7 32 cb bc 9d 11 d6 bb
       0.03365645 0.0015275375 -0.024804575 -0.0065328614
000050 1a ab 3c bd 54 05 d1 bd 2c f0 05 3e ac 2f 1e bc
       -0.046061613 -0.102060944 0.130799 -0.009654921
000060 36 bd 5e bd 6f 33 91 bd f8 0b 8f bd cf 6d 3e bc
       -0.054379664 -0.07089888 -0.06984705 -0.01162286
000070 95 8f 0e be 3c 9c 76 bc 10 51 e0 3c 15 74 01 be
       -0.1392196 -0.015051898 0.027382404 -0.12641938
000080 88 6e aa 3d e0 1c 35 3c 3d 29 4c b9 f6 c9 a2 3c
       0.083218634 0.011054248 -0.00019470319 0.019871693
000090 fa 17 6f bd bb 5e 1e 3d 88 1d 1f bc fe f2 ca bc
       -0.058372475 0.03866456 -0.009711631 -0.02477407
0000a0 50 63 7a 3d cb a8 03 3e 9f 9d 71 3c 8c 4d ce 3c
       0.061129868 0.12857358 0.014747052 0.025183462
0000b0 36 06 dd 3b 5e a3 2d bb bd c4 1a 3d e6 ea 56 bd
       0.006745125 -0.002649508 0.03778528 -0.05247011
0000c0 0f 95 c5 bc 34 cb 0c 3c 1d cd 6e bd a7 31 5e bc
       -0.024118928 0.008593369 -0.05830108 -0.013561643
0000d0 bb 4d 61 3c d8 51 67 bd 60 b2 f6 bd fd 00 42 bd
       0.013751443 -0.056474537 -0.12045741 -0.047364224
0000e0 a6 13 44 bd 69 ba fb bc 08 4e 9d 3c 83 fb 3d bd
       -0.0478703 -0.030728536 0.019202247 -0.04638244
0000f0 29 84 9b 3d 48 5a ae bd 72 79 9d bd c1 c5 6d bd
       0.07593567 -0.085133135 -0.076891795 -0.05804992
000100 57 b6 dc bc 9d 51 a4 3c 60 c8 b8 bd 50 ed 85 3b
       -0.026942415 0.020058447 -0.090225935 0.0040871277
000110 21 aa 65 3b fd 85 46 3e ad f7 c4 bc e4 90 e3 3c
       0.0035044032 0.1938705 -0.024043882 0.02777905
000120 7f 1b d8 bc 56 e5 d9 bd 2b 96 09 bc 88 07 01 3d
       -0.026380299 -0.106394455 -0.008397619 0.031501323
000130 7c c7 d0 bb b3 d9 7c bb 19 45 41 3d d8 f5 d1 3d
       -0.0063714366 -0.0038581907 0.047185037 0.10251969
000140 54 07 57 bc 43 9a c9 3b b1 29 de bc b1 77 cc bd
       -0.013124306 0.0061524226 -0.02711949 -0.09983767
000150 ab 4f 68 bd 22 8f 40 3d e0 93 53 bd 42 17 46 3d
       -0.056716602 0.047011502 -0.051654696 0.048362024
000160 5f ca d8 bd e0 6a 2d bd 71 45 4b bd 62 be 26 bd
       -0.10585474 -0.042338252 -0.04962677 -0.040708907
000170 d0 6a 63 3d 6f b7 2e bd 9f 85 56 bd 99 20 b1 3c
       0.055521786 -0.042655405 -0.052373525 0.02162199
000180 16 75 23 3d 42 34 9a 3b f5 64 7f 3d 15 4e 9f 3d
       0.039906584 0.0047059366 0.06235214 0.07778565
000190 fa 9e 42 3d f4 2e 1d 3d 43 bd 82 bd 47 f2 28 be
       0.047514893 0.038374856 -0.06383755 -0.16498671
0001a0 e7 e8 85 3d df 28 7e 3c e6 78 ba bd a0 98 70 3c
       0.06538563 0.015512674 -0.09105091 0.014684826
0001b0 49 79 32 3d 96 99 11 3b 15 03 90 3d fa d2 d6 ba
       0.043572698 0.0022216788 0.07031838 -0.001638978
0001c0 1a c6 81 3d 00 8f e9 3d d3 d5 99 bd 8f 89 a2 3d
       0.06336613 0.11404228 -0.07511487 0.079363935
0001d0 0d d0 05 3d d6 81 09 3d 98 cb 6b 3d 1d 10 9b 3c
       0.032669116 0.033571087 0.05756721 0.018928582
0001e0 37 9b cd 3c 2c 87 00 be fd de 55 3d dd dc b6 bd
       0.025098426 -0.12551564 0.05221461 -0.08928845
0001f0 15 7d 9d bd c5 f0 0e 3d 03 ae 8b 3d 1c 4d 7f 3c
       -0.07689873 0.034897584 0.068202995 0.015582349
000200 04 4a 84 bc 4e 42 4d bd cd b2 a7 bc bb e7 d3 3c
       -0.016148575 -0.05011206 -0.020471001 0.025867334
000210 32 43 e8 bc fd 85 d7 bd 85 6b 60 3d 00 14 8e bd
       -0.028352354 -0.10523603 0.05479004 -0.069374084
000220 da 36 2a 3d b8 ee f6 3d 1e 8e 64 bd 71 66 9c bd
       0.041556217 0.12057251 -0.055799596 -0.07636727
000230 65 d4 b0 3c 03 63 c6 bd 0b c3 92 bd 65 5d 27 bd
       0.021585653 -0.09686854 -0.07166108 -0.040860552
000240 90 6a 2a 3c 4d 02 9a bd d0 d8 a2 bd 36 48 73 3d
       0.010401383 -0.0751997 -0.0795151 0.059395038
000250 22 82 54 bd f1 13 99 bd 73 d3 81 3d e2 d0 f7 3c
       -0.051881917 -0.07474507 0.06339159 0.03025097
000260 04 d2 26 3c 32 3c a9 3d 63 d6 8b 3b 5a d6 6d 3d
       0.010181908 0.082634345 0.0042675002 0.05806575
000270 ab 1c 09 3d 2d 95 5a bd 98 c9 18 3d 69 40 01 3e
       0.033474606 -0.05336492 0.03730163 0.12622227
000280 ef 21 73 bd 1e e5 ec 3c 5d 8c 23 bc 37 9e c4 3d
       -0.059358533 0.028917845 -0.009982196 0.096004896
000290 15 ac 05 bc 61 4f e0 bd ae 12 5a 3d 3a 10 c6 3d
       -0.008158703 -0.1095264 0.05324047 0.09671064
0002a0 84 c6 a2 3b 53 48 1c 3d fe b3 a7 3d 0e c5 11 3e
       0.0049675126 0.03815491 0.08188628 0.14235327
0002b0 33 fb 30 bd b2 b2 b4 bc db 09 32 bc 76 58 e2 3b
       -0.043208312 -0.022057865 -0.010866608 0.006907518
0002c0 6d 35 0b 3e 7a 46 40 bd 78 99 80 bd bc 88 0d 3e
       0.13594599 -0.04694221 -0.06279272 0.13821691
0002d0 e2 61 11 bc 43 7c 6d 3d 19 d8 ac bd f6 7b 9b 3c
       -0.008873435 0.057979833 -0.08439655 0.018980008
0002e0 9f b0 9f bd de c6 8f bb 52 a0 22 bd 7a fd fb 3b
       -0.0779736 -0.0043877205 -0.039703675 0.007690129
0002f0 5a a4 76 bd 9c 53 c3 3c eb 54 8d 3d f3 a8 78 bd
       -0.06021533 0.023843579 0.069009624 -0.060707998
000300 92 b7 26 3d de 9d 86 3d b5 39 20 3c df dd 3a 3d
       0.04070241 0.065730795 0.009779383 0.04562175
000310 c9 19 88 bd d8 f9 0f bd 7d c0 ac 3d aa bb fa bd
       -0.06645543 -0.03515038 0.08435152 -0.12242825
000320 bd b9 86 3d 0b ea 8e ba 95 76 aa bd 47 a3 ce bc
       0.065783955 -0.001090349 -0.08323399 -0.025224341
000330 23 7f 8f bd 58 bd 0d 3d 02 46 4a 3d da c4 54 3d
       -0.07006671 0.0346044 0.04938317 0.051945545
000340 99 27 78 3c 38 8f 66 3d 88 84 df bc f1 82 94 3c
       0.01514616 0.056288928 -0.027284876 0.018128844
000350 07 8d 06 3d d8 35 10 be 43 7e 8c 3d d5 9f 0e bd
       0.032849338 -0.1408304 0.0686002 -0.034820396
000360 ab 98 06 bd f7 26 8a bb 2f fc b4 bc 87 1c a0 bd
       -0.03286044 -0.0042160708 -0.022092907 -0.07817941
000370 bf 18 fd bd b7 21 7f 3d 22 c8 b1 bc 55 ac 50 bd
       -0.123582356 0.062288012 -0.021701876 -0.0509456
000380 48 0c 19 3d 92 5c 22 be 39 26 49 bd c5 c3 88 bd
       0.037365228 -0.15855625 -0.049108718 -0.06677965
000390 c8 49 39 bd 85 d5 08 3e 4d 12 f9 bd 11 dc b2 3d
       -0.04523638 0.13362701 -0.12161694 0.087333806
0003a0 e7 dc 17 bd 63 8c 9b 3d 52 dd d5 bc 82 14 12 bd
       -0.037075903 0.07595136 -0.02610651 -0.03566409
0003b0 68 1b 33 3c 2f 13 0e 3d 9a 0e 96 3c 50 6f df 3d
       0.010931827 0.034686264 0.01831751 0.10909903
0003c0 4c 69 73 bd ba 9a b7 bd bb 90 10 bb b6 0a b4 3c
       -0.05942659 -0.089650586 -0.0022058922 0.021977764
0003d0 70 2b 36 bc cd 6f 95 bc 30 c9 92 3d 71 a5 b5 3d
       -0.011118755 -0.018241787 0.0716728 0.08869446
0003e0 fa c7 57 3d 2e 29 bb 3d 02 72 05 bd 22 31 91 bc
       0.052680947 0.09138714 -0.03257943 -0.017723624
0003f0 f3 5d c5 bc 00 b0 ec bc ab 4d 71 bc f3 55 92 bc
       -0.02409265 -0.028892517 -0.01472799 -0.01786325

network_body._body_endoder.seq_layers.4.bias f4 [256]
000000 a8 bc 38 3c ce a8 90 39 e3 2e b1 3a 71 a4 2e 3c
       0.011275448 0.0002759159 0.0013518002 0.010659323
000010 b9 88 ce bb a0 20 0a bb be 67 bd bb 3b 5f d9 3b
       -0.0063029197 -0.0021076575 -0.0057801893 0.006633667
000020 37 56 29 3c 0c 32 e0 bb 35 2d 29 bc 6c 34 a7 39
       0.010335497 -0.0068419036 -0.01032572 0.0003189178
000030 4e c6 0f bc bf 07 ae ba f7 a8 11 3c 40 70 ab 3b
       -0.008775307 -0.0013277455 0.008890382 0.005231887
000040 08 f4 78 bb 0d 67 1c 3c 97 7d 05 bc e5 7f 18 bc
       -0.003798725 0.009546054 -0.008147619 -0.009307836
000050 42 e6 14 3b 26 f3 e8 3b 4b 3b f3 3b 43 be 63 bb
       0.0022720252 0.0071090637 0.0074228398 -0.0034750856
000060 a9 19 51 3b fc 9d 07 3c d9 ea fb bb 84 f0 34 3c
       0.0031906164 0.0082774125 -0.007687908 0.0110436715
000070 c7 04 1a bb 0f 23 14 3c 4a 26 9d 3b ae 6d 2e 3c
       -0.0023501383 0.009041562 0.004795824 0.010646267
000080 08 c4 b0 bb 9c 76 27 3a 45 68 3a ba ce 58 0c 3b
       -0.0053944625 0.00063882186 -0.0007110874 0.0021415236
000090 5c e6 60 bb 59 9a 13 3b ee a3 ab bb 4a b0 89 3b
       -0.0034316992 0.0022522418 -0.005238048 0.0042019235
0000a0 a2 5f 32 ba 9c 33 16 bc 20 79 05 bc 8e 48 67 3b
       -0.00068044115 -0.009167578 -0.008146554 0.0035291049
0000b0 e1 0f 26 bb 64 55 4e bb 9a c5 1e bc ff c6 66 b9
       -0.0025339054 -0.0031484002 -0.009690667 -0.00022008641
0000c0 5e 81 de 38 b1 44 43 3c 57 84 21 3c 1a 19 09 3c
       0.000106098814 0.011918233 0.009858212 0.008367801
0000d0 0a 08 86 3b 89 ce bc 3b 85 3c 8e 3b 13 3e a3 bb
       0.004090314 0.0057619256 0.0043407106 -0.004981765
0000e0 c9 61 d8 36 d1 b6 90 bb 82 26 9c bb 7e f7 30 3c
       6.4486853e-06 -0.0044163247 -0.0047653327 0.010801194
0000f0 d3 cf 86 bb 62 24 9d ba ae ff b5 ba 7f 40 77 bb
       -0.00411413 -0.0011988992 -0.0013885403 -0.0037727652
000100 70 c6 21 bb cb 60 5c bb 68 8f c0 bb 62 c7 c3 bb
       -0.0024684928 -0.003362703 -0.0058764704 -0.005974696
000110 7e 95 f2 bb 71 5a 33 bb 1f 9c a5 3a 3a dd 09 bb
       -0.0074030748 -0.002736714 0.0012635029 -0.0021036402
000120 37 33 e2 bb 77 83 a1 3b b3 cd c9 ba ae 27 0d 3b
       -0.006903078 0.004929002 -0.0015396386 0.0021538544
000130 96 16 13 3b 9d 9b 11 bc 65 0b eb bb f9 f9 d7 3b
       0.0022443882 -0.008887199 -0.007172989 0.0065910784
000140 3e ff 07 3a b8 db 55 b8 d8 da 5c 3b dd b0 ff bb
       0.00051878754 -5.0987786e-05 0.0033699777 -0.007803066
000150 4b 03 4c ba 3c fc b2 3b ef f5 9d 3b 4a e8 1c 3c
       -0.0007782473 0.0054621976 0.0048205773 0.009576866
000160 74 da 24 3c 3b e2 18 3a 8d 9b 05 bc e5 b5 61 bb
       0.010061849 0.0005832051 -0.008154762 -0.0034440693
000170 42 95 12 bc af f9 44 bb 36 89 d8 bb b7 88 81 3a
       -0.008946719 -0.003005605 -0.0066081537 0.0009882663
000180 97 fa dd ba 56 e5 45 bb 58 8d 14 bc 9a 7a fc 38
       -0.0016935644 -0.003019651 -0.009066902 0.00012039133
000190 15 2b bb bb 3a ae 26 3c a2 55 c8 3a 01 6b f2 bb
       -0.005711923 0.010173375 0.001528431 -0.0073980098
0001a0 de 7a e1 bb 68 7c 01 bc d8 56 d8 3b 3a 6d cc 3b
       -0.006881102 -0.007903196 0.0066021495 0.0062386068
0001b0 33 bc 5b 3c 8e 1d 91 3b db c2 ef bb f2 43 03 3b
       0.013411569 0.004428572 -0.0073169298 0.0020029512
0001c0 1f 36 ee ba 1d b1 b1 3a e2 06 d8 bb a6 68 13 3b
       -0.0018174088 0.0013556812 -0.0065926174 0.0022492795
0001d0 e1 2f db 3b a1 46 01 3c d9 77 6b 3b 6e f3 00 3c
       0.006689057 0.007890374 0.003592959 0.007870538
0001e0 ef ed 84 3b 6f 7a c6 3b 1d 59 dd ba 40 ab db bb
       0.004056684 0.0060570757 -0.001688752 -0.006703764
0001f0 c2 72 48 39 c4 2d 1c 3c 59 f0 f0 bb fc ca 82 3b
       0.00019116237 0.009532396 -0.0073528704 0.003991483
000200 69 74 0b 3c 0f 39 32 bc 44 10 45 3b e2 b2 1d 3a
       0.008511641 -0.010877862 0.003006951 0.00060157303
000210 72 5d aa b9 fb 0e 01 3c 1e 66 a7 bb bf 8a 2b 3c
       -0.0003249455 0.007877107 -0.005108609 0.010470091
000220 e5 6b 98 3b 7b 65 13 bc d4 f6 2e 3c 91 ae a6 3a
       0.004651534 -0.008996363 0.010678966 0.001271682
000230 89 14 cb 38 83 71 5b 3b e1 f3 1b bc 84 41 f3 3b
       9.683619e-05 0.0033484406 -0.0095185945 0.0074235816
000240 6d b1 70 bb bf 10 e4 ba e8 0e 04 3c 05 e8 1b 3c
       -0.0036726848 -0.001740001 0.008060195 0.009515767
000250 d4 da c1 3a 4b 47 12 bc 9e 76 bb ba a7 52 5b b9
       0.0014789947 -0.00892813 -0.0014302318 -0.00020916258
000260 cd 9d a6 bb 5e 45 b0 3a 65 6c 44 3b 8c d6 17 bc
       -0.0050847293 0.0013448407 0.0029971835 -0.009267461
000270 c4 ec b6 b9 3e 39 85 3b 91 08 97 bb 75 73 0a bb
       -0.0003489015 0.0040656617 -0.0046091755 -0.0021125947
000280 42 a1 a0 ba 8d f2 24 ba 31 b2 89 3b 4a d0 0b 3a
       -0.001225509 -0.00062922464 0.0042021503 0.00053334667
000290 96 81 dd 3b ca 98 09 ba 19 d2 90 bb 9b d5 ed bb
       0.0067598326 -0.00052489026 -0.004419577 -0.00725813
0002a0 66 3a 34 bb 0d a1 9a 3b 38 9c 13 bc 9d 9d 82 3b
       -0.0027500628 0.004718906 -0.009009413 0.003986074
0002b0 95 a3 16 3b 52 3f 1a bc fd bd 11 3c 28 c9 fb ba
       0.0022985686 -0.009414511 0.008895394 -0.001920973
0002c0 a0 57 b4 bb b4 d1 89 3a 2d 5e db 3b d0 6f 0f bc
       -0.00550361 0.0010514767 0.0066945762 -0.0087546855
0002d0 03 c7 30 3b cb 8c 20 bc d7 19 16 bc 0e 68 39 3b
       0.002697409 -0.009799193 -0.009161434 0.0028290781
0002e0 0e 90 28 ba 6c 9d 35 3c b1 fb 24 3c d2 25 ca bb
       -0.0006430157 0.011084896 0.0100697735 -0.0061690593
0002f0 88 2e 41 bb 66 9c 5e bb aa 32 c2 3b 41 55 79 3b
       -0.0029477198 -0.0033967732 0.00592645 0.00380452
000300 64 0f 08 3c 20 d1 bc 3b 94 fe 27 3c 88 e9 9a 3b
       0.008304451 0.0057622343 0.010253567 0.004727546
000310 69 bf 03 bb fd 95 20 bb 03 50 38 ba 2d 97 a3 3b
       -0.0020103103 -0.0024503462 -0.00070309656 0.004992387
000320 5f 8b 25 bc 6f 12 92 bb 85 61 44 bb 84 a5 2b 3c
       -0.010104029 -0.004457764 -0.0029965353 0.010476474
000330 c3 14 99 3b 09 3e ca bb d7 1d f4 bb b6 f5 a0 3b
       0.0046716644 -0.006171946 -0.0074498462 0.0049121035
000340 cb 2b 8a bb 2a b9 fc 3b a3 1a af bb fa fc 2f 3c
       -0.0042166463 0.007712503 -0.0053437515 0.010741467
000350 45 3f fa 3b 80 bb 80 39 55 5e 7c ba c8 7f 72 3b
       0.007636937 0.0002455376 -0.00096270937 0.0037002433
000360 c2 8b d3 bb 96 f4 02 bc 02 99 c7 3b 30 93 0b 3c
       -0.0064558694 -0.007992884 0.006091238 0.008518979
000370 2b 5e 24 ba f0 b8 e4 38 a6 bb e6 3b df e3 18 3c
       -0.00062701356 0.000109063345 0.0070414124 0.009331672
000380 92 48 79 bb 3b 2f 02 3b d2 56 b4 3b 4c 0a 40 3c
       -0.003803764 0.0019864577 0.005503514 0.011721205
000390 4b fb 61 ba 25 0f 07 bc dc 76 10 bc 86 61 5c bb
       -0.00086205144 -0.008243357 -0.008817401 -0.0033627464
0003a0 c4 f1 cc 3a 40 4e 24 bb fc c6 aa 39 72 54 f4 3b
       0.0015636017 -0.0025071055 0.00032573182 0.0074563557
0003b0 25 4d 5e bb ce f1 fa ba 30 b2 c3 3b 2b 5c 03 3c
       -0.0033920493 -0.001914555 0.0059721693 0.00801758
0003c0 10 31 22 3b a7 02 4c bb 45 9a fb 3b f0 e1 c7 3b
       0.0024748482 -0.003112951 0.0076783025 0.006099932
0003d0 09 ec c6 bb 77 65 33 bb 18 a8 29 3c c1 f0 1c 3c
       -0.006070618 -0.002737371 0.010355018 0.009578885
0003e0 66 7e 0f 3c df 50 a8 3b ac 89 19 bc 12 72 cb bb
       0.008758163 0.0051365937 -0.009371202 -0.0062086666
0003f0 34 88 8c bb f5 32 86 3b db 0a 33 3c 53 a0 63 bb
       -0.0042886976 0.00409543 0.010927881 -0.0034733012
