Assets/Training/results/Run 1/DroneBehavior/DroneBehavior-21590.onnx (onnx, 393309 bytes, 7 tensors)

action_model._continuous_distribution.log_sigma f4 [1, 3]
00000000: f234 64bb 4964 58bb c9da debb
-0.0034821597 -0.003301876 -0.0068009836

action_model._continuous_distribution.mu.bias f4 [3]
00000000: 62a1 813a e814 54b9 a4d9 c93a
0.0009890015 -0.00020225684 0.0015399945

action_model._continuous_distribution.mu.weight f4 [3, 256]
00000000: 14b7 e8bb 03e8 57bc e3ce b23c 0f96 f5bb
00000010: f2cb 243b eb83 413c 0d42 39bc d462 553c
00000020: 2b3d 963b f7ab 943b 9623 86bc ddf2 c6bc
00000030: ae32 ecbb 4db6 61bb 4b81 8a3c fd2c 063c
00000040: 0a23 683c 706b dcbb daa8 523c 39ba 7f3c
00000050: 45b0 353b 26a0 2cbb c0ad c43b 7e32 aa3c
00000060: a42f 3ebc efdd 1b3c bc41 59bc be81 633c
00000070: f967 cabc b5a4 21bc 10ba 0c3c 4cae febb
00000080: aedb 33bb ece3 1abc ce3e cd3c ceae 1abc
00000090: bc48 78bc ffaf 623b 088e d0bc f7fd b1bb
000000a0: 8569 6abb 9ed6 9abb 0509 fc3b 0df7 10bc
000000b0: cde7 1fba 75b6 65bb e241 c73b 9ddd 0a3c
000000c0: d42e 26bc 89da b63b f87d d5bb 0150 5b3c
000000d0: f793 bb38 add7 1ebd 939d 083b 3ffe bcbc
000000e0: 0c3a b1ba 268c 93bc 373e 863c 96f4 cebc
000000f0: 19c7 fe3b 99c1 793c e057 5bbc 3fa8 553c
00000100: a76a eeba 9b22 53bc 6cf0 193a 1026 9abb
00000110: dc78 15bc b439 bb3b 288b 803b a790 763c
00000120: 6801 98bb de0d 823b 96be 9a3b f706 6abc
00000130: 8712 3c3c 8ec9 f93a 9c51 a2bc 778e ca3c
00000140: 316e ccbc 120a dd3b d36e a63b 49dd 4c3c
00000150: be09 50bb 2290 87bc 4b0a 343c a035 3ebb
00000160: 8679 d7bb 2ea2 2fbc 5ea2 21bc a9e8 15bb
00000170: 90ad 003d c667 2abc 5cb8 9d3b a49b b6bc
00000180: 9b89 543c b2cd 7dbb 1fd6 4e3c 6617 5cbc
00000190: 62bc 7abc a2cc e8bb eeca 4b3c 2cdd 50bc
000001a0: 7fc3 033c 9413 39bc 961c 30bb ed5b 89b9
000001b0: be16 af3b c207 e2bb 69ea c9bb 7066 89bb
000001c0: 9e11 173c b3ff 533c 28e6 d33b 012b 9638
000001d0: 71df 8a3c bc83 f4bb f78b b93b 2509 c33b
000001e0: 375a d1ba 6bc3 623c 17ce 02bc fccc 91bb
000001f0: 9511 aabc 6942 d4bb d3ef ee3a 7f8c 1fba
00000200: 1980 5fbb 29b9 f23b fdc1 d4bc 0e7c 70ba
00000210: 4530 fe3b e9e6 11bb 72eb d73a 6993 6d3b
00000220: 75ef 053c cfe5 1e3c 7cbc 4e3c cb53 4f3c
00000230: bb76 bdbb 4bfe c93a a564 013b 3db5 8ebc
00000240: 7861 dd39 3d88 2fbc 2531 0d3c b514 e9bb
00000250: a384 8abc 299f c4ba 7100 febb e157 983c
00000260: a5e8 733c 3931 8039 a74d 6c3c d6b5 e33c
00000270: 24f6 df3b 4978 f03c ca11 a8bb 3f99 c3bb
00000280: d59a 03bc a6d1 8ebc 37db 29bb 9098 a0bb
00000290: e568 85bc 4150 c7bb eaa7 43bc 68f2 eb3b
000002a0: 47f2 7e3c 53f5 d13b 51ed 003b 39d6 583c
000002b0: 06a4 853c 77c4 80ba ab77 eeba 13d1 be3c
000002c0: 8189 26bc e191 99bb 3333 42bb 576f 8ebc
000002d0: 899d 453b dbbd 9cbc 79cf 1abc 3ef2 6bbc
000002e0: a1fc 91bc 8f4e 86bc 9871 3abc cf6e 10bd
000002f0: d02c 823c 0658 49bc 7650 2b3c 752f f73b
00000300: de4f 8dbb db28 113b d4f4 d53c 2476 283b
00000310: ff75 6e3c 87da 133c d34d b13c f778 3b3b
00000320: 4198 b2bc 135a ddba 97be 9bbc 5d17 37bc
00000330: a066 5fbb ede3 963c d838 e73b a45e e4bb
00000340: 0cf2 a43c 31ce 99bb 2ca9 88bb 31d2 7ebc
00000350: d9e7 4c3c 867e c339 627c 00bc a172 6ebc
00000360: 14bc 893c d0ca 2a3c a1b6 8ebc b0c7 523a
00000370: b9c6 393b 7576 233b f8e7 9dbb e7fc 6c3c
00000380: 47b1 a5ba 1c11 f1bb 77ff 013c fac8 6fbb
00000390: c86f 243b f1fa 11bb c059 e1bb d1e6 983b
000003a0: c7c2 be3a dcb8 923c efac 5bbc 1379 5dbc
000003b0: cd6a a2bb f5b6 b3bb 704c 553c 7a72 38bc
000003c0: 85c7 04bc 4a3e 4fbc c995 9cbb b143 2f3b
000003d0: 3c20 4b3c 133e 843c 4ad2 17bc 938c 8b3b
000003e0: 72fb 47bc dac8 ddbc e4cc 033c e46d a7bc
000003f0: d31c 85bc fc23 e6bc ea35 293c 1825 873c
-0.0071019027 -0.0131778745 0.021827167 -0.007494695 0.0025145975 0.011811237 -0.011307252 0.013024051
0.0045849285 0.0045371014 -0.01637439 -0.024285728 -0.00720819 -0.0034440935 0.016907355 0.008189437
0.01416851 -0.0067266747 0.01285764 0.015608364 0.0027723473 -0.0026340573 0.006002158 0.02077603
-0.011608038 0.009513362 -0.013260301 0.013885913 -0.024707781 -0.009865929 0.008589283 -0.0077722427
-0.0027444172 -0.009453755 0.025054362 -0.009441091 -0.01515406 0.0034589765 -0.02545835 -0.0054318863
-0.003576846 -0.0047252914 0.007691505 -0.008847964 -0.00060999097 -0.003505138 0.006080852 0.008475688
-0.010143001 0.0055802506 -0.006515261 0.013385774 8.9444155e-05 -0.038779903 0.0020845875 -0.023070453
-0.0013521328 -0.018011164 0.016387088 -0.025263112 0.007775199 0.015243911 -0.01338765 0.013040601
-0.0018189744 -0.012886669 0.00058723125 -0.0047042444 -0.009123053 0.005713666 0.0039228387 0.015049136
-0.0046388395 0.0039689383 0.0047224266 -0.014283887 0.011479027 0.001905726 -0.019814305 0.024726136
-0.024954887 0.0067455852 0.0050791292 0.01250393 -0.0031744088 -0.01654822 0.010988782 -0.0029023662
-0.006575766 -0.010719819 -0.0098653715 -0.0022874272 0.031415522 -0.010400718 0.004813237 -0.022291012
0.012972261 -0.003872734 0.012624293 -0.013433313 -0.015303703 -0.0071044723 0.012438519 -0.012748044
0.008042215 -0.011296172 -0.0026872507 -0.00026199166 0.0053432873 -0.0068978975 -0.006161977 -0.0041931197
0.009220509 0.012939381 0.0064666457 7.1605675e-05 0.016952248 -0.007461993 0.005662437 0.005952018
-0.0015972321 0.013840537 -0.007983706 -0.004449485 -0.020760337 -0.0064776433 0.0018229432 -0.0006086304
-0.0034103452 0.0074073267 -0.025971407 -0.0009173759 0.007757219 -0.0022262877 0.0016473366 0.0036251193
0.008174767 0.009698345 0.01261818 0.012654255 -0.005781976 0.0015410868 0.0019743827 -0.017420406
0.00042225025 -0.010713634 0.008617674 -0.007113064 -0.01690895 -0.0015001047 -0.0077515175 0.018596591
0.01488701 0.00024450736 0.014422811 0.027796667 0.006834762 0.029354231 -0.0051290737 -0.005969196
-0.00803252 -0.017433953 -0.0025918016 -0.0049009994 -0.01628537 -0.006082565 -0.011941889 0.007200528
0.015560693 0.0064074188 0.0019672702 0.013234668 0.016313564 -0.0009824176 -0.0018193623 0.023293054
-0.010164619 -0.0046865796 -0.0029632568 -0.017387075 0.0030153713 -0.019133499 -0.009448879 -0.014401017
-0.017820658 -0.016394882 -0.011379622 -0.035261925 0.015890509 -0.012289053 0.010456195 0.007543499
-0.0043124994 0.0022149596 0.02611772 0.0025705183 0.0145545 0.009024269 0.021643555 0.0028606036
-0.021801116 -0.0016887806 -0.019011779 -0.011175004 -0.003408827 0.01841923 0.007056337 -0.00696929
0.020134948 -0.0046937694 -0.0041705575 -0.015553043 0.012506449 0.00037287566 -0.007842155 -0.014553697
0.016813315 0.010424331 -0.017421069 0.000804062 0.0028347208 0.0024942432 -0.0048189126 0.0144645935
-0.0012641334 -0.007356776 0.007934443 -0.0036588297 0.002509104 -0.0022274817 -0.006877154 0.0046661873
0.0014553898 0.017910413 -0.01340793 -0.013517636 -0.0049565793 -0.0054844567 0.013018712 -0.011257762
-0.00810421 -0.012649128 -0.004778598 0.0026743228 0.012397822 0.01614288 -0.009266445 0.004258701
-0.012205945 -0.027073313 0.008044455 -0.020438142 -0.016249096 -0.02809333 0.0103277955 0.01649718

network_body._body_endoder.seq_layers.0.bias f4 [256]
00000000: 11c1 923a 9a5a 04bb 7b85 b1bb 16de b5ba
00000010: 29a3 05bb 480d 8aba 16b6 c43a 24a9 c93a
00000020: 1360 8eba ec42 26b9 4782 01bb 380f edb8
00000030: 840c d93a e83e 8fba e983 d7b9 56f8 7f3b
00000040: 85e7 9b3b 050e deba 35ab d1ba c8d9 78bb
00000050: 683f 3fbb 5c23 0b39 673a 4bba 67c0 f3ba
00000060: ce90 ca3a b4f3 4e3b 058e c2ba 0b88 4fbb
00000070: 20ae 1b39 b196 d3bb ce6f c43a 591b 8b3a
00000080: b9ec 77b9 3b9e e4b8 b305 a0ba baca c2ba
00000090: 5600 e2b9 4d5e b9bb 96fd 2ebb 54e8 873b
000000a0: 9ca2 9139 8cd9 063b c147 79ba d3f7 073a
000000b0: 681e 2aba 6a7c 33bb 6285 dc3a 78cf 1ebb
000000c0: 3704 31bb 085a e6bb 65aa d93b 288e b33b
000000d0: df1d 57bb 739e d9ba 20a2 eeba 8914 a9ba
000000e0: 6dee 9239 c6ea ef3a 8e3b 6c3a 6968 87ba
000000f0: 9aed 0fbb 6fc4 0c3a fa22 9a3b fabe 2bb9
00000100: d215 2eba 2c5c a5b9 0e98 b93a c1e2 06ba
00000110: 7918 20bb 1d46 a43b b087 2437 2e33 e7ba
00000120: 2ad6 5cba 755b 51ba f70c 40ba 8add b83b
00000130: 9b36 e4ba 1b3b b038 6371 13bb e49d 70bb
00000140: 0cfa 4b3b 96d5 cb3a 81d3 e93a 4d09 153b
00000150: 7d0d 78bb 04d4 82b9 74b5 19bb c6fb 82ba
00000160: 2f3e 533b 3d50 27bb 3194 14bb 8a93 0238
00000170: ee34 253a 814d 253b 038a 9eb9 4531 b5ba
00000180: e074 503a 46ae fab8 a71c 5b3b 1ee0 95b9
00000190: 69f2 0e3a 7de3 70bb 9b3f a6bb f8cb 5fba
000001a0: b399 37bb b4df 9038 6bdb faba 4412 71b8
000001b0: c162 89ba eea6 35bb 0713 03bb 4149 043b
000001c0: 0be7 1e39 30d1 3e3b 7608 1bbb 3e55 dbbb
000001d0: c8ff 7fba bbc2 ae3a 7804 dd38 6123 67ba
000001e0: b303 8739 8d66 f23b 2c4b 33b9 c03e 58ba
000001f0: 747b 243a 96f9 313a b4b8 12ba 67fc aeb9
00000200: fc91 7d3a c126 7ebb e531 ddb9 4109 dab9
00000210: caa8 e139 71c4 57bb f317 93bb 2231 dbb9
00000220: 1564 42bb 2733 17bb 66d6 a6b8 54dc 1f3b
00000230: ded5 c0ba 3113 623a e1ff 3f3b 4610 543a
00000240: d032 e4bb 3e81 a43a 7aa4 20bb ccd3 1139
00000250: 49c9 963a b41e 4239 a9ff 233b e17e afbb
00000260: e299 2b3a 097e 4fba 5c17 fdb9 feb6 c2bb
00000270: 36d2 0cbb 48dc 1c39 0b9f b1ba cdc9 88ba
00000280: 1586 6e3b 88d4 46ba e231 0f3b 710e 0a3a
00000290: 3656 773a 3f87 ea3a 67ca bfbb 364f 3939
000002a0: 19ae 0e3b 0326 a0ba eda2 713b 5697 c8ba
000002b0: e612 6f3a 62f1 26ba 23a8 fc38 2878 af3b
000002c0: 7baf e6b9 5041 ddba 70f9 b739 3e48 863b
000002d0: e5a1 43bb c06a 8bba fb4f 4ab8 8ced 243a
000002e0: 3d28 e4ba b639 8dba 7657 253b 4975 033b
000002f0: 0ace a6b8 e7bb 4b3a 17b5 973a 8a3d 45ba
00000300: e87b 47ba 5a0d bdb9 9ef7 d4ba e575 cd3b
00000310: 8a16 3a38 0b5b 35bb 2d9a b83a ac21 9739
00000320: 0614 e2ba 4b28 1abb 34b2 6439 0078 52b5
00000330: 2497 bdba 13de 2aba 813c df3a 8f57 c53a
00000340: 5d7b 6d3b 2581 2cbb 8fba f4b9 576a 21bb
00000350: 2406 1d3b e12e ddb9 afb9 b9bb 07d5 8fba
00000360: b098 21bb 43ef 02bb cb3a 78bb fb71 13ba
00000370: 9041 e0b9 e643 923b 6d3a 12bb c30e 54ba
00000380: fcbf 8939 cd73 7e39 0882 bcbb af27 973a
00000390: 7f61 95ba 417f 1bbb b52d 0f3a 325c 39bb
000003a0: 1eda c0bb 7350 80ba 46fd 28ba 821a 2dbb
000003b0: 0866 193b 4222 a8bb e317 c23a 7588 6aba
000003c0: 87fd 95ba 7b88 e839 20d4 7dba 562a b23b
000003d0: b637 073a 47d8 0a38 bce8 8bbb 8f35 793b
000003e0: 3cf7 003a 99e1 3f3a 6080 54bb 21c4 5bbb
000003f0: dc5f 0d3a d142 abba 50a6 bdb9 b207 a4b9
0.0011196454 -0.0020195604 -0.0054175234 -0.0013875391 -0.002039144 -0.0010532523 0.0015007879 0.0015385491
-0.0010862373 -0.00015855924 -0.001976149 -0.00011303875 0.0016559516 -0.0010928782 -0.00041106276 0.0039057932
0.004757824 -0.0016941434 -0.0015996458 -0.0037971605 -0.002918208 0.00013269245 -0.0007752538 -0.0018596769
0.0015454532 0.0031578364 -0.001484335 -0.0031666781 0.00014846819 -0.006457173 0.0014986934 0.0010613009
-0.00023643942 -0.0001090136 -0.001220873 -0.0014861443 -0.0004310633 -0.0056569935 -0.0026701442 0.0041475687
0.0002777771 0.0020576445 -0.00095092884 0.000518677 -0.0006489516 -0.002738739 0.0016824419 -0.0024232548
-0.002701057 -0.0070297755 0.006642627 0.005479593 -0.00328242 -0.0016603008 -0.0018206276 -0.0012899797
0.0002802493 0.0018304221 0.000901156 -0.0010330799 -0.002196169 0.0005369847 0.0047038766 -0.00016378975
-0.0006640825 -0.00031539926 0.0014159696 -0.00051454833 -0.002442865 0.005013241 9.806754e-06 -0.0017639154
-0.0008424247 -0.00079863454 -0.00073261507 0.005641644 -0.0017411293 8.403343e-05 -0.0022498004 -0.0036715204
0.0031124381 0.0015551324 0.0017839522 0.002274114 -0.0037849837 -0.00024953496 -0.0023454102 -0.0009993247
0.003223311 -0.0025530003 -0.0022671337 3.113182e-05 0.00063021376 0.0025223198 -0.00030238935 -0.0013823888
0.0007951986 -0.0001195339 0.0033433826 -0.00028586475 0.0005452992 -0.0036756687 -0.0050735003 -0.00085371686
-0.0028015196 6.908123e-05 -0.0019138878 -5.747589e-05 -0.0010481701 -0.0027717906 -0.0020000355 0.0020185264
0.00015154124 0.0029116385 -0.0023656166 -0.0066935113 -0.00097655924 0.0013333181 0.000105389336 -0.00088172226
0.00025751963 0.007397479 -0.00017098774 -0.00082490966 0.00062744995 0.00067892054 -0.0005596981 -0.0003337592
0.00096729374 -0.0038780423 -0.0004218958 -0.00041587095 0.00043041102 -0.0032923485 -0.004488939 -0.00041807542
-0.0029661704 -0.002307126 -7.955432e-05 0.00243928 -0.0014712175 0.00086240756 0.0029296803 0.0008089583
-0.006964065 0.0012550724 -0.0024512098 0.00013907178 0.001150408 0.0001851272 0.0025024211 -0.0053557013
0.00065460627 -0.0007915204 -0.00048273325 -0.0059422245 -0.00214876 0.0001495938 -0.0013551427 -0.0010436118
0.0036395837 -0.000758477 0.00218498 0.0005266434 0.00094351487 0.001789309 -0.0058529857 0.00017672483
0.002177125 -0.001221836 0.0036870793 -0.0015303891 0.00091199426 -0.00063683663 0.00012047614 0.0053549
-0.00043999762 -0.0016880427 0.00035090325 0.0040979674 -0.0029851135 -0.0010636672 -4.823504e-05 0.0006291501
-0.0017407011 -0.0010774645 0.0025229133 0.002005892 -7.9538746e-05 0.0007771835 0.0011574355 -0.00075241236
-0.0007609711 -0.00036058837 -0.0016248112 0.0062701576 4.4366847e-05 -0.0027672674 0.0014084034 0.00028826052
-0.0017248399 -0.0023522552 0.0002181016 -7.840572e-07 -0.0014464599 -0.0006518077 0.0017031581 0.0015056002
0.003623686 -0.0026322093 -0.00046678304 -0.0024630034 0.002395996 -0.00042187332 -0.005667887 -0.0010973521
-0.002465766 -0.0019979037 -0.003787684 -0.00056245894 -0.00042773457 0.0044636605 -0.0022312657 -0.0008089358
0.00026273716 0.00024266467 -0.0057528056 0.0011532212 -0.0011396854 -0.0023726972 0.0005461828 -0.0028283712
-0.0058853766 -0.0009789601 -0.0006446432 -0.0026413505 0.0023406763 -0.005131037 0.0014808144 -0.0008946725
-0.0011443355 0.00044352174 -0.0009682793 0.0054371757 0.0005158143 3.3103188e-05 -0.0042696875 0.0038026308
0.00049196533 0.00073196884 -0.003242515 -0.003353365 0.00053930073 -0.0013066177 -0.00036172802 -0.0003128625

network_body._body_endoder.seq_layers.0.weight f4 [256, 121]
00000000: 7e2b 2cbd fddb a73c 7019 153e ecba 993d
00000010: 5afb 423d 90a9 893c c954 763d 3a63 a9bc
00000020: 393f 9c3d ddfd 1dbe 6cc5 623d c31d 103e
00000030: 1169 043e 13bb 403d 09d1 92bc 471e 3a3e
00000040: ed4c 853c 5f72 5e3c 3279 013c d202 03bd
00000050: 3926 75bc 7a03 a03d 859e 40bd ee8a 033e
00000060: 4184 bdbb 43dd 62bd 3743 bcbd 5637 75bd
00000070: e853 25bd 523f 47bd 42c7 fabd 2a15 c13d
00000080: f823 2a3e 373e 2cbd 4b70 33ba 3556 f9bd
00000090: 073f 7bbe 856a 853c 86e5 283e c888 c13d
000000a0: 8aa0 09bd 3758 1c3e 2c56 583d a95b ecbb
000000b0: bfed fe3d e3c6 de3c 5c76 08be cfd1 5f3d
000000c0: 5d45 72be 38b9 17be 83ac 2f3d 109c 583e
000000d0: 2589 583d 0984 c3bd 7486 1e3d a4a8 1ebe
000000e0: 2903 e4bc 5209 573e c4ba 833c 7654 d63d
000000f0: 2e38 ed3c dee6 e8bd 8e30 d5b9 552f 2fbe
00000100: 17ae ab3d a3ca 4fbd e213 abbb 6f6e 52bd
00000110: d73c 263d 5bf7 d1bd d8c7 9e3d e3c1 b43c
00000120: cb23 7d3d 3907 993c fd16 d33c 022f 92bc
00000130: 3940 4abd 9810 32bb 8c2f 23be cd09 ef3d
00000140: ece4 a73d 35fa 5c3d 7d47 a6bc 7283 fcbc
00000150: a440 ac3d 83cb d5bd a30a 69be c612 61bd
00000160: 860b 693e 911a 083e 629e 743c 8b8f bebb
00000170: c09c 45bd 1913 d73d a561 973d 4b63 54bc
00000180: f131 f13d 7e58 58bc 4f73 3f3d e44f b33d
00000190: 91b1 1b3e 3143 b5bc c59d 0fbd 1068 f03d
000001a0: 1748 e0bc f3b6 aebd ea6e b03d e277 aebd
000001b0: f280 4abd daa8 333c 439e dbbd 48ed e93d
000001c0: c9c0 62bc ee5a 5c3c 1092 283e 0b07 bc3c
000001d0: 744e c03b 5efa 013e 6958 be3d 5602 003d
000001e0: aa2f e33c 708d 153c b198 5ebd d4b8 953d
000001f0: 0a62 0bbe fbe5 d7bd bbe2 c13d 8007 7bbd
00000200: 343e 20be a6a7 32bd cb77 793d b9e4 8bbd
00000210: de30 b0bd c842 90bd 68a3 9a3d 57bc 1cbe
00000220: e1bc a33d 4360 9abd dc7c 1f3e eb64 2dbd
00000230: b073 29bd 2f81 16bd 8c9c fe3d 1f8f 573a
00000240: c632 833d 8c5b f3bc 3dc9 46bd 61ed a2bc
00000250: 81e6 16bd 46f8 69bd 1427 103e c5bf a9bd
00000260: 8f5a 0b3e 1e44 25bd c2f2 b1bd 25cb 073c
00000270: fcdb 3b3e f76b 8dbc ab31 173c d458 a239
00000280: 8827 b5ba e3df febd ca10 55be 27e4 35bd
00000290: 1b26 c53d dc9c 31bd 72d1 f53d 0e31 e03b
000002a0: 5871 2f3d a8be a3bb 5d5c 673b a59e 123d
000002b0: 2ad9 03bd 53ef c1bd d27b f7bd 879c e1bd
000002c0: 1528 93bd 331a a13d 2fd3 8c3d 00f7 77bd
000002d0: 22e8 9a3d bbdf c23c 09a9 96bd c5c3 d3bd
000002e0: 5455 89bd 36b8 dc3c c863 5abe 19cf c7bd
000002f0: 77c8 823b aa55 043e 8aff a2bd 3277 c5bd
00000300: 4587 43bb 2b6e e2bd 5c4c d53d c24e f73c
00000310: 8faa a93d 8b45 04be 2037 8cbd cb02 103c
00000320: b143 4bbd 4859 0ebc 72c2 cc3c e54f b73d
00000330: 4d5b 753e 7951 0a3d 8097 3c3c c081 4cbd
00000340: c806 c6bd 0945 463d 950c 1dbe 1f5f fabd
00000350: f4be 833c bcd9 61be ac50 2dbc ae2d 36bd
00000360: 8361 59bd ef38 883d 689d f63a e4ea 713d
00000370: 4d1b c4bd 5b23 ec3d a213 a2bd 489f 54bd
00000380: 24ab 293c 0ad5 bbbd 5d36 2e3e a5b3 0abe
00000390: b374 fe3c 9bf5 2ebe 5024 11bc 40a7 7dbe
000003a0: 647f d9bc e883 16bd 8b22 94bd 0b4c 0a3d
000003b0: 4cba c53d 5527 54bd 9e5b f23d dbb3 293e
000003c0: c7f0 debd a97b cbbc 6eda 723d 92ba acbd
000003d0: 5e81 653d a85a 7a3d c8c8 dfbd c373 4d3e
000003e0: f80f f0bd bea3 07be 35c8 8cbd ffb4 c73d
000003f0: ad63 a73d 4020 f43c ebde 2ebd 9c88 1dbe
-0.042033665 0.02049064 0.14560485 0.07506356 0.04760299 0.016804487 0.06013945 -0.020677198
0.07629246 -0.15428872 0.055364057 0.14073853 0.12930705 0.047053408 -0.017921941 0.18175612
0.016272033 0.013577073 0.00790243 -0.03198511 -0.014962726 0.07813163 -0.047026176 0.12845966
-0.005783588 -0.055386793 -0.09192508 -0.059867226 -0.040363222 -0.04864437 -0.12245037 0.09427865
0.16615283 -0.04205152 -0.0006845041 -0.12174646 -0.24535762 0.016286144 0.16493806 0.09449917
-0.033600368 0.15268026 0.052816555 -0.007213075 0.1244769 0.027194446 -0.133264 0.05464345
-0.23659272 -0.14816749 0.04288913 0.21153283 0.052865166 -0.09546668 0.038702443 -0.15494019
-0.027833538 0.20999649 0.016080268 0.104653284 0.028957453 -0.113721594 -0.00040662702 -0.171079
0.083828144 -0.05073036 -0.005220876 -0.05137485 0.040585365 -0.102522574 0.07752961 0.022065109
0.061801713 0.018680202 0.025767798 -0.01784468 -0.049377654 -0.0027170535 -0.15936106 0.11671791
0.0819796 0.053949554 -0.02029776 -0.030824397 0.08410767 -0.104392074 -0.22757964 -0.054949544
0.22758302 0.13291384 0.0149303395 -0.0058154515 -0.04824519 0.105016895 0.07391671 -0.012963126
0.11777104 -0.013204692 0.046740826 0.08755472 0.15204455 -0.022126766 -0.03506257 0.11738598
-0.027378125 -0.085309885 0.08614905 -0.085189596 -0.049439378 0.01096555 -0.107235454 0.11422211
-0.013839909 0.013449414 0.16461968 0.022952577 0.0058687273 0.12693164 0.09294207 0.031252228
0.027732689 0.00912796 -0.054344837 0.07310644 -0.13611618 -0.10541912 0.094670735 -0.06128645
-0.15648729 -0.043616913 0.06090526 -0.06830735 -0.08603071 -0.070439875 0.075506985 -0.15306221
0.0799501 -0.07537892 0.15574974 -0.04233257 -0.041370094 -0.036744293 0.12432203 0.0008222926
0.06406169 -0.029706739 -0.04853176 -0.019888582 -0.03684092 -0.057121538 0.14077407 -0.0828853
0.13608764 -0.040348165 -0.086888805 0.0082881795 0.18345636 -0.017263396 0.00922815 0.0003096523
-0.0013820985 -0.12445047 -0.20807186 -0.044407036 0.09626409 -0.043362483 0.12002839 0.0068417853
0.042832702 -0.004997093 0.0035302856 0.035795826 -0.032189526 -0.094694756 -0.12084164 -0.11016183
-0.071853794 0.07866325 0.068762176 -0.060538292 0.07563807 0.023788324 -0.0735646 -0.103400744
-0.06705728 0.026943307 -0.21327126 -0.097562976 0.0039911824 0.12923303 -0.079588965 -0.09641875
-0.0029835266 -0.11056169 0.10414955 0.030188922 0.082844846 -0.12917154 -0.06846452 0.008789728
-0.049625102 -0.0086882785 0.024995063 0.089507855 0.2396061 0.033769105 0.01151073 -0.049928427
-0.09669262 0.04840568 -0.15336831 -0.12225174 0.016082264 -0.22055715 -0.010578316 -0.044477157
-0.05307151 0.06651484 0.0018815221 0.0590619 -0.0957552 0.11530181 -0.07913901 -0.051909715
0.0103557445 -0.09171493 0.17012925 -0.13545091 0.031061506 -0.17085879 -0.008858755 -0.24770832
-0.026550002 -0.03674689 -0.07233151 0.033763926 0.09654674 -0.051795322 0.11833881 0.16572516
-0.108857684 -0.02483924 0.059290342 -0.08434023 0.056031577 0.061121613 -0.10926968 0.20063691
-0.11721796 -0.13246056 -0.06874124 0.09751319 0.081733085 0.029800534 -0.04269306 -0.15384144

network_body._body_endoder.seq_layers.2.bias f4 [256]
00000000: fc9d 78bb 79af 14bb 1b1e 8f3a 4641 d9ba
00000010: 5416 ed37 93d6 4f3b 7d8d 243a 7b73 7d3a
00000020: a19c 98ba 9b36 55bb e4fa cf38 2155 1c38
00000030: 7333 22bb ca92 69b9 d560 213b 4429 6b3a
00000040: ebcc 33bb 1e35 2939 d003 b0ba 852c c0b8
00000050: fb0d 0d37 9e46 773a de12 df3a 545a e338
00000060: 8ad2 55b8 9dcd ab3a 2173 38bb d57e d43a
00000070: e43c 1cbb c2ef 88ba 274c 78ba ac3d c1b9
00000080: cbad 9cb9 5d31 9cbb d3c7 f738 07e9 28ba
00000090: 1c6c 83b9 2341 04ba 1d3d 0aba 6297 9538
000000a0: 30e0 483b 46a5 f1ba 4c22 86ba 98f8 473a
000000b0: 23d7 08ba fd71 ceba 25a2 6239 50d2 95b9
000000c0: b840 a3bb fb89 9db9 9bfe 3fba ece7 3d3a
000000d0: 8530 133a 1c2d caba ec35 ad39 8aae c8ba
000000e0: d70b 2f39 4f1f d1ba 7916 563a 91a9 88b9
000000f0: de54 ea3a 13e5 5fba 7ca1 7ebb 9765 9539
00000100: 36fd 06bc 8c47 fdba 5a67 953a 2dd7 1fbb
00000110: 7875 1b3a ad7e dfb9 d694 303a 504a a6ba
00000120: e498 f3b9 988a 43bb d29f 96ba 281e a0ba
00000130: 248a bfba 9069 c1b9 2012 c8ba 1e58 6f39
00000140: c71a 17ba b089 7dba 1ab5 553a 5438 7a3a
00000150: f33b 3aba aaf9 c4ba ee1b 033a c0bd 2abb
00000160: 0dee c539 05f2 73ba 79ec 91ba b425 8bba
00000170: 2221 a83a e0af a7b9 4ba6 58ba 2eb3 8cba
00000180: 0dac 39ba 9a62 bf3b 42d3 ebbb d7f9 2c3a
00000190: b966 a7b9 a6a4 a7ba 1c5d 833b 02fc 8d3b
000001a0: ba4d c039 c80c a03b 0893 0cb9 8650 063b
000001b0: ee8a d3b9 97be babb f389 89b8 9173 0d3a
000001c0: 517f 8ebb 1619 933a 5678 c739 d08a 68ba
000001d0: 47ee b338 d984 e83a c407 caba 0a49 92b9
000001e0: 99b1 7939 ce21 52ba 2e73 ecba 7315 353a
000001f0: 7fc7 04bb 5908 103a f60c 213b 5f97 97ba
00000200: a57f 8a3b 879b 9fba b8e8 efba 9feb c2ba
00000210: a041 25bb f2ab 6fb9 d462 34ba b0b7 9fb9
00000220: f4a0 9b3a a2c0 023a 3306 023a 0e56 56ba
00000230: 3cca c438 db19 a2ba 1159 93b9 aeeb 3cba
00000240: 6c62 a2bb 95cd 25bb 44fc d6ba b104 98ba
00000250: a0f9 1fba 6dbd a4ba 547c cc39 9cdb 6eba
00000260: 7a07 81ba 7397 4a3a a697 be39 620e f8b8
00000270: 2df0 8b3a ada0 0db9 0aa1 02bb a050 7aba
00000280: 5eb5 043b f9b1 34ba b0e8 b6b9 af7e 9bba
00000290: 5cd6 0dbb be0a e3ba b4e6 03bb 37ad 9bba
000002a0: 3f49 863a f7d6 92b9 3941 33ba 0fa6 a7b9
000002b0: f712 9338 f686 8139 bbc0 1d3a f4a3 38b7
000002c0: 77c4 1939 ebc4 ca3b 590e b6ba 70e5 38bb
000002d0: 03b4 abba fecf 85bb 9de4 e4ba 6875 87ba
000002e0: 7ee5 e2ba eed7 cdba b1cf 993a 82db 153b
000002f0: d3a8 f239 3d73 9f39 01c8 073a db07 0bbb
00000300: 6c5c a4ba f871 a2ba f814 c73a 97ce 923b
00000310: d7de 2938 56a4 333b c7dc c7ba 6dd1 8d39
00000320: c831 afba 4b67 a0ba 30b5 19bb f139 cfba
00000330: 756b 26bb d12a b539 e6e0 243b 3417 b4b9
00000340: 046b 9b3a d925 35bb f24e c4ba 03e5 ceba
00000350: 8e53 533a 6ad5 a4b9 4980 afba 5259 6fbb
00000360: 48b5 1f3a 60c9 a8ba f427 beb9 914f 2bb9
00000370: dc84 213a 100c f1b7 c091 d238 e214 8f39
00000380: 8e3f f4b9 6265 dc37 36d0 823a 5064 c739
00000390: cc5f 35ba 03b3 8439 4b0c 063a 9c23 0439
000003a0: 690d 9abb 8c8e 8d39 fcfa 9839 a9ed c0ba
000003b0: dcff 0e39 7e7d 36b9 be86 283b b6b4 203b
000003c0: 5418 f2b9 aa23 0bbb c6bf e539 2a54 1dba
000003d0: c8d4 063b a976 cbb9 2896 1dbb 9693 6abb
000003e0: 6fea 6e3a b9cd 9cb8 549f af39 be8d d7b9
000003f0: 5a3d 16ba 9210 05bb a3de 8f3a 677a d53a
-0.0037935963 -0.0022687598 0.0010919006 -0.0016575239 2.8262999e-05 0.003171359 0.0006277187 0.0009668392
-0.0011643359 -0.0032533768 9.917261e-05 3.727258e-05 -0.0024749904 -0.00022275295 0.0024624367 0.00089706876
-0.0027435373 0.00016136884 -0.0013428871 -9.163566e-05 8.40751e-06 0.0009432825 0.0017019173 0.000108410284
-5.0979237e-05 0.0013107542 -0.0028144794 0.0016212115 -0.0023840005 -0.001044743 -0.0009471797 -0.00036857778
-0.00029884125 -0.0047666267 0.00011815098 -0.0006443415 -0.00025066815 -0.00050451065 -0.0005273389 7.133071e-05
0.0030651204 -0.0018436096 -0.001023361 0.0007628291 -0.0005220046 -0.0015750524 0.00021613443 -0.0002857619
-0.0049820803 -0.00030048177 -0.0007324011 0.0007244337 0.0005614835 -0.0015424821 0.00033037306 -0.0015310806
0.00016693711 -0.0015954765 0.0008166801 -0.00026066278 0.0017878076 -0.00085409096 -0.0038853576 0.00028495185
-0.008239081 -0.0019323691 0.0011398599 -0.002438973 0.0005930285 -0.00042628255 0.00067360455 -0.0012686942
-0.00046462484 -0.0029837247 -0.0011491722 -0.0012216019 -0.0014613313 -0.0003689048 -0.0015264191 0.00022825642
-0.0005764183 -0.0009671701 0.00081522914 0.00095451367 -0.000710427 -0.0015028019 0.0005001415 -0.0026053041
0.0003775213 -0.0009305778 -0.0011133096 -0.0010616095 0.0012827257 -0.0003198376 -0.00082645257 -0.0010734552
-0.00070828275 0.0058406116 -0.0071968148 0.00065985083 -0.00031929257 -0.0012790158 0.0040089022 0.00433302
0.00036679005 0.004884336 -0.00013406214 0.0020494773 -0.00040348567 -0.0056989896 -6.558364e-05 0.0005395944
-0.0043486734 0.0011222686 0.00038045895 -0.00088707823 8.579768e-05 0.0017739787 -0.0015413691 -0.00027901708
0.00023812651 -0.00080159015 -0.0018039697 0.0006907798 -0.002026051 0.0005494408 0.0024574376 -0.0011565498
0.004226642 -0.0012177088 -0.0018303609 -0.0014871246 -0.0025216118 -0.00022856871 -0.00068811816 -0.000304637
0.0011873529 0.0004987811 0.000496003 -0.00081762753 9.3836774e-05 -0.0012367325 -0.00028104385 -0.000720675
-0.0049555805 -0.0025299538 -0.0016402085 -0.0011598078 -0.00061025657 -0.001256866 0.00039002544 -0.0009111704
-0.0009844147 0.0007728256 0.0003635261 -0.000118282405 0.0010676436 -0.00013506664 -0.0019932413 -0.0009548757
0.0020249705 -0.0006892975 -0.0003488711 -0.0011863316 -0.002164266 -0.0017321927 -0.0020126523 -0.0011877184
0.0010245218 -0.0002800745 -0.0006838027 -0.00031976445 7.013039e-05 0.0002470535 0.0006017794 -1.1005428e-05
0.00014664406 0.006188025 -0.0013889774 -0.0028212927 -0.0013099912 -0.0040836325 -0.0017463152 -0.0010334672
-0.0017310826 -0.0015704611 0.001173487 0.0022866433 0.0004628362 0.00030412702 0.0005179644 -0.00212144
-0.0012539751 -0.0012393584 0.0015188744 0.004480194 4.0500276e-05 0.0027411184 -0.0015248292 0.0002704965
-0.0013366276 -0.0012237815 -0.0023453943 -0.0015810115 -0.002539364 0.0003455491 0.0025158464 -0.00034349563
0.0011857455 -0.0027640967 -0.0014977141 -0.0015784804 0.0008061462 -0.00031439523 -0.0013389672 -0.0036521745
0.00060923817 -0.0012877397 -0.0003626939 -0.00016337472 0.000616146 -2.8735056e-05 0.000100407284 0.00027290644
-0.0004658666 2.6273254e-05 0.0009980265 0.00038030976 -0.0006918877 0.00025310376 0.0005113526 0.00012601767
-0.0047013056 0.0002699982 0.00029178697 -0.0014719266 0.0001363749 -0.00017403622 0.0025715078 0.0024521775
-0.00046175963 -0.0021230974 0.00043821166 -0.0006001616 0.0020573605 -0.00038807586 -0.00240458 -0.0035793534
0.0009113913 -7.4769785e-05 0.0003349731 -0.00041113602 -0.0005731188 -0.0020304066 0.0010976385 0.0016287089

network_body._body_endoder.seq_layers.2.weight f4 [256, 256]
00000000: 77cf c0bd 9b86 d8bc 9a1b 063e 8cd7 c23c
00000010: c402 8abd d7ce a4bd ea34 803e 70c2 4d3d
00000020: dd99 b93d 62fe cabd 6098 2a3d 51dc df3c
00000030: 242e a4bc 46f1 c53b 78e8 b13b d0ae 26bd
00000040: 4632 9f3c b965 cabd 007c 1ebd 3a3c e63d
00000050: 6f24 fd3c 7624 9b3c be9a b33c 932d a9bc
00000060: 4751 213d a53e 0f3b b45a 8e3c c7ce d53d
00000070: 0705 423d d044 63bd bfa2 d4bd 0526 823d
00000080: fe4f 3d3d 5664 6fbd 36dc 353c bcbd c0bd
00000090: 385d 0ebd 7b19 37bd 93df 03bd 2515 f13d
000000a0: 4a81 883d fca4 b7bc 320e f7bc a1e4 f03c
000000b0: ccf8 1abd 7a60 ecbd 3a48 a53b df85 c9bb
000000c0: fcc8 0b3d 8a73 1dbe 4ac0 6fbd 5658 e73a
000000d0: 8284 9cbd 27de d9bb 8039 42bd a7a1 c1bc
000000e0: 0240 5bba 7250 393c e012 c1bd 0dd4 29ba
000000f0: f8ae bdbc cdb3 0cbd 12c7 9fbc 65cf 883d
00000100: fb31 f0bd 1025 f93c b602 2cbc c9e8 51bb
00000110: ce29 9fbd 6448 7bba 8f4a 303d 0ce1 27be
00000120: 1234 213d 50c0 bcbc e988 0dbd 5ef4 853c
00000130: 7b78 2abe fa47 f13c 3e55 343d c835 71bd
00000140: cf21 6f3d 578e 0b3a c3de 9e3d bfb3 7ebd
00000150: 2301 43bd de45 b8bd 3853 76bd 6781 9bbc
00000160: 32a5 20bd 63fc 1c3d aadf b23c b9f5 fabc
00000170: 5349 973c 1422 973d 77d4 fabd 0aca 0fbc
00000180: 28b5 7e3c 61e2 823c eb7a 9abc 8365 3abd
00000190: 7b88 8e3d 7c92 ae3d 8952 273d a2b9 2cbc
000001a0: 2892 bc3b 7e04 80bc 59eb 14bd 5634 63bd
000001b0: 36b2 5bbd d411 25bd ceb9 0c3e 5e2a c83c
000001c0: 744f 8d3c 9ca3 56bc 26fe d43b 920f 9c3d
000001d0: ca49 7abb 03c4 873d 476e c0bd 5241 873d
000001e0: 1568 38bc 69c9 883c d7ab 90bd 0c81 83bc
000001f0: 8929 d93c 9023 59bb c825 f53c bf31 cc3d
00000200: 94d2 f8bb 95c7 ddbd 3a0d 2b3d 2bb5 4f3c
00000210: 0baf 6dbd bb62 933d f5ea ea3a 92c0 35bd
00000220: 9079 293d 621b 8abd 8bf6 603d 88d1 e33d
00000230: 0327 ce3d 2666 233d 74d0 e0bd 61d8 13bc
00000240: e782 a93d 0933 163d 482c 14bd c699 c43c
00000250: c0c6 5e3d 658e fd3b ce15 abbd 0bb0 b73d
00000260: 3c79 5ebd 023a d93c cbc7 d4bd 4b0a 47bb
00000270: a880 b73d fc34 d9bd 58d8 233d 2fec 4ebd
00000280: ab72 063d e008 8cbd 8447 f93d 6524 d9bd
00000290: 124e e7bb b984 bebd 1399 b83d 7830 d3bd
000002a0: 5088 81ba 5b99 44bc 69b3 5b3c b840 8e3d
000002b0: c05a ffbc 1045 693c 0892 c43c 2518 433d
000002c0: 7386 143d 408a 863b 2c21 753d 349e 073e
000002d0: 765a 793d 7f43 e9bb 3283 bf3c 4ba0 863c
000002e0: b3b1 783d 80b1 c23c e31c a73d e4ee af3d
000002f0: f06d b33d d977 c2bd 2552 ad3b ffff f3bc
00000300: e5a2 883d a8e9 87bd 72ba 6abc eb68 b1ba
00000310: 28b3 273b a112 593d e80f 20be 3fe2 0dbd
00000320: 0765 073c f0fa 78bc d604 3ebe bae0 1e3c
00000330: 0068 063d fcc2 a7bd 4754 8c3b f72c 173c
00000340: 67fb 833c 0bf1 55bd ac6b 09be cd7e c6bd
00000350: eb9e b6bd 1ac8 04be 707e 673d 81df 353d
00000360: 8524 57bd 4d1b a63d ee23 61bd d412 b23d
00000370: 90c9 4c3c 1568 c73c 4618 c23d 46ab 3abd
00000380: a7e2 bebd a72b 683d 0e24 633d dc11 9a3d
00000390: 62b4 b83c ced9 ab3c ee5c 9d3d 6b6f 8cbc
000003a0: 62ba 073d 5f88 463d bd77 e4bd 09a7 64bd
000003b0: 4e49 91bd 6daf 39bd 95ce 06bd 9b72 b9bd
000003c0: 8d68 7dbd 0a58 4f3c f8a9 66bd 821b d83c
000003d0: 2c47 58bd ef3d 2a3d cff8 803d 3833 923d
000003e0: 8c5d 3abd 2064 93bd 2b95 3abd 2852 3a3c
000003f0: 1cb5 2f3c 1546 023e 2c82 12bd 635c 8c3d
-0.09414571 -0.026431372 0.13096467 0.023784421 -0.06738809 -0.08047264 0.2504037 0.05023426
0.0906255 -0.09911801 0.041649222 0.027326735 -0.020041533 0.006040725 0.0054293238 -0.040694058
0.019433152 -0.09882683 -0.038692474 0.11241956 0.030901162 0.018938284 0.021924373 -0.020651614
0.039384153 0.0021857407 0.017377235 0.1043983 0.047368076 -0.055485547 -0.10382604 0.06354908
0.046218865 -0.058445297 0.011099866 -0.09411189 -0.03475687 -0.044702034 -0.03219564 0.11771611
0.06665285 -0.022417538 -0.030158136 0.029405894 -0.037834927 -0.11541839 0.0050440105 -0.006149992
0.03412722 -0.15376106 -0.05853299 0.0017650228 -0.07642461 -0.006648797 -0.047418118 -0.023636652
-0.0008363725 0.011310684 -0.09427428 -0.00064784364 -0.02315472 -0.03435116 -0.019504104 0.06680182
-0.11728283 0.03041318 -0.010498693 -0.003202962 -0.077716455 -0.0009585677 0.043039855 -0.16394442
0.0393563 -0.02304092 -0.034554396 0.016351875 -0.16647522 0.029453266 0.044026606 -0.05888918
0.05838185 0.00053236395 0.07757332 -0.062183138 -0.047608506 -0.08997701 -0.060137957 -0.018982602
-0.039220043 0.038326632 0.021835167 -0.030634748 0.01846758 0.07379547 -0.12247556 -0.008776197
0.015546121 0.015977086 -0.01885744 -0.045506965 0.06959625 0.085240334 0.040850196 -0.010542305
0.005754728 -0.015627142 -0.036357258 -0.055469833 -0.053636752 -0.040300205 0.13742754 0.024434265
0.0172498 -0.013100531 0.0065000234 0.07620157 -0.0038190954 0.06629183 -0.09396034 0.06604256
-0.011255284 0.016697602 -0.07064026 -0.016052745 0.026509063 -0.003313277 0.029925242 0.09970426
-0.0075934622 -0.10829083 0.04176066 0.012677471 -0.058028262 0.07196566 0.0017922806 -0.044373102
0.041375697 -0.06743504 0.05492262 0.11123949 0.10066035 0.03989234 -0.10977259 -0.009023757
0.08276921 0.036669765 -0.036175042 0.023999106 0.05438876 0.007737922 -0.08353768 0.089691244
-0.054314837 0.026516918 -0.1038967 -0.0030371125 0.08960086 -0.10605809 0.040001243 -0.05051821
0.0328242 -0.0683763 0.12171844 -0.10602645 -0.0070588673 -0.093026586 0.090135716 -0.10311979
-0.0009882543 -0.011999453 0.013409474 0.06945938 -0.031171203 0.014237657 0.023995414 0.047630448
0.036261033 0.004105836 0.05984609 0.13243943 0.060877286 -0.007118642 0.023377988 0.016433856
0.060716342 0.02376628 0.081598066 0.08590487 0.08761203 -0.094955154 0.0052893334 -0.029785154
0.06671695 -0.06636363 -0.014326679 -0.0013535296 0.0025588963 0.05299628 -0.15631068 -0.034639593
0.008263833 -0.015196547 -0.18556532 0.009697134 0.032814026 -0.08191487 0.0042825076 0.009227029
0.016111089 -0.05223183 -0.1341998 -0.09692154 -0.0891703 -0.12966958 0.056517065 0.044402603
-0.052525062 0.08110676 -0.054965906 0.086949974 0.012499228 0.024341622 0.09477286 -0.045573495
-0.09320574 0.056682255 0.055454306 0.07522938 0.02254695 0.02097788 0.076837406 -0.017142972
0.033136733 0.048469897 -0.11155651 -0.05582336 -0.0709406 -0.045333315 -0.032911856 -0.090550624
-0.061867286 0.0126552675 -0.05631444 0.026380304 -0.05280225 0.04156297 0.062974565 0.071386755
-0.04549937 -0.07196832 -0.045552414 0.011372127 0.010724332 0.12722047 -0.035768673 0.06853559
