Assets/Training/results/Run 5/DroneBehavior.onnx (onnx, 697640 bytes, 21 tensors)

105 f4 [25]
00000000: b809 d639 7c49 833e b497 e23d 5973 eb3e
00000010: 6830 9c3e b809 d639 c352 7d3e f6e1 933d
00000020: 1534 f53e 5c48 913e b809 d639 2398 a63e
00000030: 7ac6 7a3d 7bb4 f73e 609a 823e b809 d639
00000040: 4d84 583e d3b3 4d3c 9b79 ed3e ddb0 a03e
00000050: b809 d639 4d84 583e d3b3 4d3c 9b79 ed3e
00000060: ddb0 a03e
0.00040824502 0.25642002 0.11064091 0.4598644 0.3050568 0.00040824502 0.24738602 0.07220833
0.47891298 0.28375518 0.00040824502 0.32537946 0.06122444 0.48379883 0.25508404 0.00040824502
0.21144219 0.0125550805 0.4638184 0.31384936 0.00040824502 0.21144219 0.0125550805 0.4638184
0.31384936

108 f4 [25]
00000000: b809 d639 4f96 ae3e 6f77 913e 2ff1 913e
00000010: fc8b 803e b809 d639 5e5e b43e 8bfd 3f3e
00000020: 3b86 963e 4846 833e b809 d639 bd8d a43e
00000030: 85e8 a63e ebf9 963e 5ef0 813e b809 d639
00000040: 29e4 ae3e 0d1c b53d b7de a33e 0817 883e
00000050: b809 d639 0da1 a33e 00b3 953e fe07 a43e
00000060: 171e 873e
0.00040824502 0.3409905 0.28411433 0.2850432 0.251068 0.00040824502 0.35228246 0.18749063
0.29399285 0.25639558 0.00040824502 0.32139388 0.32599273 0.29487547 0.25378698 0.00040824502
0.34158447 0.08843241 0.32005855 0.2658007 0.00040824502 0.3195881 0.2923813 0.32037348
0.26390144

111 f4 [55]
00000000: b809 d639 739f 343e 384d 6f3a 1a68 d03e
00000010: 8017 7f3e b809 d639 fd33 ad3d 384d 6f3a
00000020: 7df7 c53e 6919 713e b809 d639 bd5b af3d
00000030: 4387 a03a 704d b53e 2f91 413e b809 d639
00000040: 7151 4a3d 05f0 8c3b 14f9 8b3e 8b6f 283e
00000050: b809 d639 4c38 083e 4387 a03a 368f bf3e
00000060: dcf5 0a3e b809 d639 d218 433d b809 d639
00000070: 118e 893e 0774 1b3e b809 d639 04d6 063e
00000080: bf5c 393a 4514 a63e 3ff9 173e b809 d639
00000090: 15e5 e13c b809 d639 0939 d93e 1f98 763e
000000a0: b809 d639 0173 a33c b55c b93a e597 c93e
000000b0: a66a 573e b809 d639 5622 ce3c b809 d639
000000c0: 40d9 d43e 5c4e 843e b809 d639 5622 ce3c
000000d0: b809 d639 40d9 d43e 5c4e 843e
0.00040824502 0.1763895 0.0009128633 0.40704423 0.24911308 0.00040824502 0.084571816 0.0009128633
0.3866538 0.2354485 0.00040824502 0.085624196 0.0012247342 0.35410643 0.1890304 0.00040824502
0.049394075 0.0043010735 0.2733847 0.164488 0.00040824502 0.13302726 0.0012247342 0.3741395
0.1357035 0.00040824502 0.047631092 0.00040824502 0.268662 0.1518098 0.00040824502 0.13167578
0.000707101 0.3243734 0.14841174 0.00040824502 0.027575055 0.00040824502 0.42426327 0.24081467
0.00040824502 0.0199523 0.0014142009 0.393737 0.21036777 0.00040824502 0.025162857 0.00040824502
0.41572 0.25841033 0.00040824502 0.025162857 0.00040824502 0.41572 0.25841033

114 f4 [25]
00000000: b809 d639 4f96 ae3e 7677 913e 2ff1 913e
00000010: fe8b 803e b809 d639 334c b63e 7663 503e
00000020: a2d5 943e 30af 803e b809 d639 276c af3e
00000030: bed2 9b3e 5a95 993e f213 823e b809 d639
00000040: 6b0a ba3e 3cab 0f3e f535 a33e a3bf 843e
00000050: b809 d639 488f c13e aeb0 833e a090 a93e
00000060: f14a 843e
0.00040824502 0.3409905 0.28411454 0.2850432 0.25106806 0.00040824502 0.3560501 0.20350441
0.2906924 0.25133657 0.00040824502 0.342622 0.3043422 0.2999676 0.25405842 0.00040824502
0.36336073 0.14030164 0.31877103 0.25927457 0.00040824502 0.37804627 0.25720733 0.33118153
0.25838426

117 f4 [25]
00000000: b809 d639 0f28 763e b809 d639 4bcb a63e
00000010: 8695 293e b809 d639 e5e0 303e b809 d639
00000020: b306 593e 7e09 db3d b809 d639 f961 653e
00000030: b809 d639 f103 913e 5c05 e03d b809 d639
00000040: ea8f 2b3e b809 d639 8047 c03e 7070 723e
00000050: b809 d639 ea8f 2b3e b809 d639 8047 c03e
00000060: 7070 723e
0.00040824502 0.24038719 0.00040824502 0.32576975 0.16560945 0.00040824502 0.1727329 0.00040824502
0.21193962 0.1069517 0.00040824502 0.22400655 0.00040824502 0.2832332 0.10938522 0.00040824502
0.16754118 0.00040824502 0.3755455 0.23675704 0.00040824502 0.16754118 0.00040824502 0.3755455
0.23675704

120 f4 [3]
00000000: 506a 1c41 2fa6 bd3f 951d 1841
9.775955 1.481634 9.507222

action_model._continuous_distribution.log_sigma f4 [1, 3]
00000000: 16ec c1bd 8176 97bd 9996 56be
-0.09468858 -0.0739565 -0.20955886

action_model._continuous_distribution.mu.bias f4 [3]
00000000: 205f 86bb 9eb2 c9bc 39be c53c
-0.0041006953 -0.024621304 0.024138557

action_model._continuous_distribution.mu.weight f4 [3, 256]
00000000: 1eca 56bd ef10 2abc 8457 6dbc 16b0 973b
00000010: 88ea 9fbc 8ab9 5e3b c28e 253c 7291 41bd
00000020: 207d 043d 2870 4f3d 9423 a2bc c950 053c
00000030: 1eb5 a2bc 76e5 833c f6af 09bd b893 203d
00000040: 2eb9 bd3b 3b99 df3a 0588 0d3c 50b2 07bc
00000050: 3b28 c3bc 720e 2f3d 1329 7b3c 136e 003c
00000060: 4596 193c 0523 81bc 435b 193c 9f5f 8dbb
00000070: 011e b93c 11a7 43bd a17a 343a 4e4d 67ba
00000080: fba1 f03b fc41 17bb 5d2c 563d bce9 4f3c
00000090: 6152 893b 3411 d7bc 71a4 6cbc 8a89 633b
000000a0: 6115 8d3c e3c3 c33c 921a 163d 7385 b23c
000000b0: d735 cebc 5062 c63c ea05 f23b e3a5 e93c
000000c0: 6891 d43b 0fec d23a 65eb 1cbd af97 8cbc
000000d0: fd75 98bc 3880 58bc 4ccb 963c c261 913c
000000e0: ccd1 0b3c e5c5 983b 4934 2b3b 0fee 973d
000000f0: e2cd a3bc bfd8 873c f5ed 70bc d6f3 a33c
00000100: c64f 413b ec51 99bc 28aa 723c 04f6 abbb
00000110: 3347 413b 9751 1cba 9de2 d9b8 cc65 0e3c
00000120: 53f1 a53b 762b 82bb 99a7 97bc ddfd 2fbc
00000130: 9101 d4bc 888d 8f3c c548 d03b 5750 c1bc
00000140: cadd 563b 20a7 2bbd be3b 06bd bfde 88bb
00000150: d4fc 9abc e9f6 32bd 11ba 89b9 3f69 8fbc
00000160: 32eb c33c 40a6 2e3d ab75 1abd 3998 cb3b
00000170: 64f3 2fbd 4238 c63b 9018 42bc e4d6 f3bc
00000180: 2401 943c 2e9b 8dbc b4ca 153d 52cb 8bbb
00000190: 7bf4 87ba 3421 5fbd 6219 493d 9654 333d
000001a0: 667c 153c 40dd 5bbd 0e57 d63c 7851 2d3c
000001b0: e172 03bd cb41 a93c b88d 833c 181b 0cbd
000001c0: 4921 0fbd 164c 173c e16e 5abc 7279 133c
000001d0: 859e 0bbd 6785 be3c cb00 663b 8424 183d
000001e0: 6e58 9dbc 5e9a c13a 627a 533c 4470 c9ba
000001f0: db3b 1b3c 6674 e23c 5f07 b63b 059d d5bc
00000200: a133 c6bc 5532 043d efec 0fbc bb4b 1dbd
00000210: 4af5 da3c e102 f3ba d446 80bc ad51 28bb
00000220: b0d4 0e3d c958 44bd 7da7 c2bb 06c6 eabc
00000230: 47d9 86bd 2e04 51bc d845 97bd 814e bebc
00000240: 6520 a43b 7337 65bc b06d 1bbc 6819 63bc
00000250: 05f0 823c 7185 05bd 36ee 15bd 4702 943b
00000260: 4308 a1ba 424f 3dbd af02 f5bb 5b44 d9bc
00000270: 336f 5abc d1a2 a13c c2a9 7d3c 134c 533c
00000280: f2df 3dbc 6110 1bbd 6464 c93c f85a 093c
00000290: 60d3 963c 814f dc3c f62b 4cbb 2699 89bb
000002a0: 7020 873c b1bd 9cbc be56 06bc 5442 cd38
000002b0: 8252 f6bb bf7d 2abd 3e75 523c e07e 9d3c
000002c0: ae21 bc3c 322d 00bc 6486 a5bc bded 8a3c
000002d0: ce7f 5c3c baa2 11bc fd13 25bb 3859 943c
000002e0: 85e7 e23c d1a4 febc fa62 9bbc 6b74 40bc
000002f0: c6b6 0dbd 4442 45bd ff51 32bd 6bb7 443d
00000300: d0d1 91bc 6f7d c13c fac4 033c 974f b83b
00000310: 84ce 963b db59 3dbc 95f9 c03c d6ff 8e3c
00000320: a5ca 4a3c 62de 96bb c2e9 e43c c473 1fbb
00000330: 2982 953c 8a9f f63c b69b 15bd 376e 40bb
00000340: 3108 1b3c 8307 183c 6aff 843b 7883 92bc
00000350: f499 6dbd 040e a63c d834 84bc 6b1f c1bc
00000360: 4c67 a43c 98c8 f83b 9bf2 a73c 1367 ab3c
00000370: f62e 17b9 28b5 c13b 6bee 493b 7e06 213c
00000380: fff0 403c 14c0 4b3d 75e3 75bd 02a6 883c
00000390: 7289 2dbd 5db7 253d e4f9 ae3b 81d0 173b
000003a0: 9fc5 063c eb54 03bc fa0d 293d 855f f73c
000003b0: 2126 68bc c6c5 11bd 8f2a 8cbc 9126 71bd
000003c0: 9347 033b 2f94 543b 5bc1 f0ba 4c34 253c
000003d0: bd78 29bd d60e 57bd 6076 49bc 7ff1 41ba
000003e0: e10b e63c 3058 4a3c 1c54 16ba d67a 443d
000003f0: 2e66 a1bc 970d b03b 9d67 debc 9368 a4bc
-0.052438848 -0.010380014 -0.014486197 0.0046291454 -0.019521013 0.0033985102 0.010104837 -0.047257848
0.03234589 0.05064407 -0.019792356 0.008136936 -0.019861754 0.016100626 -0.033615075 0.039203376
0.0057898974 0.0017059216 0.008638387 -0.008282259 -0.023822894 0.042738385 0.015329617 0.007838744
0.009374206 -0.015763769 0.009360137 -0.0043143774 0.022597315 -0.04776675 0.0006884728 -0.000882347
0.0073435283 -0.0023080101 0.052288402 0.012690004 0.0041907285 -0.02625332 -0.014443503 0.003471943
0.017222108 0.023897117 0.036646433 0.02179215 -0.025172157 0.0242168 0.007385959 0.028521484
0.0064870603 0.001609208 -0.038310427 -0.017162172 -0.018610949 -0.0132141635 0.018407486 0.01774681
0.008533906 0.0046622627 0.0026123694 0.07418453 -0.019995634 0.016582845 -0.014705171 0.020013731
0.0029497012 -0.018715821 0.014811076 -0.005247833 0.00294919 -0.00059630856 -0.00010389576 0.008691262
0.0050641685 -0.003972466 -0.018512534 -0.010741678 -0.025879653 0.017523542 0.006356331 -0.02359788
0.0032786005 -0.04190743 -0.03277182 -0.004176944 -0.018919386 -0.043692503 -0.00026269307 -0.01750624
0.02391586 0.042639017 -0.037709873 0.0062132147 -0.042956725 0.006049187 -0.0118466765 -0.029765554
0.01806695 -0.01728591 0.036570266 -0.004266181 -0.0010372543 -0.054475024 0.049096473 0.04378184
0.009123897 -0.053677797 0.026164558 0.010578506 -0.03209198 0.020661255 0.016058788 -0.034205526
-0.034943853 0.009234449 -0.0133321 0.009001123 -0.034086723 0.02325697 0.0035095687 0.0371442
-0.019207206 0.0014770736 0.012907596 -0.0015368541 0.00947472 0.027643394 0.005555078 -0.02607585
-0.02419454 0.032274563 -0.008784517 -0.0384023 0.026728291 -0.0018540287 -0.015658773 -0.0025683448
0.034870803 -0.047936235 -0.0059403763 -0.028658878 -0.06584411 -0.012757344 -0.073863685 -0.023230793
0.0050087445 -0.013990271 -0.009486601 -0.013861038 0.01598359 -0.032597963 -0.03660413 0.004516873
-0.0012285787 -0.046218164 -0.0074771265 -0.026521852 -0.013332176 0.019730957 0.015482368 0.0128965555
-0.011589037 -0.037857417 0.024584003 0.008383505 0.018411338 0.02689338 -0.0031154132 -0.004199165
0.01649496 -0.01913342 -0.008199392 9.787516e-05 -0.00751716 -0.041623827 0.0128453355 0.019225538
0.022965278 -0.007823275 -0.020205684 0.016959066 0.013458205 -0.008888895 -0.0025188916 0.018108949
0.027698288 -0.03108445 -0.018968094 -0.011746506 -0.034598134 -0.0481589 -0.04353523 0.048026484
-0.017800242 0.023619382 0.008042568 0.005624722 0.0046022553 -0.011557068 0.02355651 0.017455976
0.012377416 -0.004604147 0.027943496 -0.0024330476 0.018250542 0.030105371 -0.03652545 -0.0029362568
0.009462402 0.009279135 0.004058768 -0.017884955 -0.05800815 0.020270355 -0.01613848 -0.023574552
0.020068787 0.007592272 0.020501425 0.020923173 -0.00014417976 0.005911488 0.0030812274 0.009828208
0.011776208 0.049743727 -0.060031373 0.016680721 -0.042367406 0.040458072 0.005339848 0.002316505
0.0082258275 -0.0080158515 0.041273095 0.030196914 -0.014169247 -0.035589002 -0.017110137 -0.05887467
0.0020031675 0.0032436957 -0.0018368171 0.010083269 -0.04137491 -0.052504383 -0.012296289 -0.00073983514
0.028081836 0.012350127 -0.0005734579 0.047968708 -0.019702043 0.005372714 -0.027149016 -0.020069396

network_body._body_endoder.seq_layers.0.bias f4 [256]
00000000: aaea b6bc 8fd8 82bd bb9b 08bc 1b49 6fbd
00000010: 40d7 d3bc 0ae0 7fbc 21d9 2439 729b af3b
00000020: 64bd bebc e708 87bd f704 70bc 12e7 30bd
00000030: 9764 94bd dd55 01bd 3d20 7bbc 2244 d03c
00000040: f950 aabb 7624 32bd 13ce 1abd b276 94bc
00000050: 7d04 d5bc f4c4 fdbb 5093 a2bd c8dd fd3b
00000060: d5da 92bc 8969 e2bc 8120 0fbc f00c a9bc
00000070: e0ae 023c 6655 83bc 6334 19bd 4252 7b3c
00000080: 523c 42bd 358e 873c 45ad 10bd 5864 5dba
00000090: 7369 75bd 4951 2abd 0461 c0bc 0bdb afbc
000000a0: 455b 76bd 0c5e 4fbd df57 f9bc 22b1 5dbd
000000b0: 8bda edbc 6dab 3ebd 9e58 7ebd c842 63bd
000000c0: 974a 2bbd 7acd 59bd 66ae 063c d3f9 4fbd
000000d0: 52c7 80bc a072 b2bc 21b9 21bd 5170 4abd
000000e0: 945a edbb 3f15 0ebd 1356 eabc 9b56 20bd
000000f0: 1de6 783c 1ae5 52bd c591 813c 6df7 7fbd
00000100: 45e1 74bc 35c0 14bc 132a afbc 5105 1dbd
00000110: 8e94 09bc 1a35 243a 44eb 6cbd 090a f4bc
00000120: 926b 58bc 46d6 d0ba 943b 23bd d843 55bd
00000130: edf5 cb3b 15fe 5fbc 6fc3 cdbd c4cb a0bc
00000140: 47de 72bd 9210 a1bc a2e6 35bd 77c8 a8bd
00000150: f82b 2fbd 2add 98bd c88d 253c 1b36 27bd
00000160: eaeb 2dbd 3f7d 793c d08d 34bd cca8 46bd
00000170: f4b3 57bb 796a 183c 162a b63b c610 08bd
00000180: 158e 33bc b0c2 f5bc 570b 64bd cce6 1fbd
00000190: f716 1ebd d6cd dfbb 0bdc 59bd 8e3c a0bd
000001a0: 522c 993c bbf3 67bd c887 7abb 8e3b 95bd
000001b0: 0515 59bd 7f9a 66bd 9322 b63c 8bfd 9c3c
000001c0: e66c 89bd 4541 07bd 9d44 b7bc cab3 5abd
000001d0: 2bad 73bd dd5b 19bd 8055 13bd db4e 51bd
000001e0: 4d76 7ebd f8aa 993c b5f1 52bd a666 753c
000001f0: d32c bebc 420b d6bc 2f1a 05bd 0d10 a1bc
00000200: 3d32 7e3c e3aa 51bc a377 673c 530e aabb
00000210: c39e 4ebc cbb4 06bd 1d80 e3bc ec57 c8bc
00000220: d802 17bd 3425 f83a 9e3b adbc e3b9 84bb
00000230: 064e 22bc f6ba 7b3c 5df8 aabc 28cc c3bc
00000240: a1cd 51bd 9fb4 83bc a872 1cbc c42e 41bd
00000250: c032 5abc 39dc b1bc 3509 b7bc 834b cdbc
00000260: c92c 73bd 2d67 1cbc 193e 52bd 7eab d4bb
00000270: 55c5 c8bc 81a1 17bd 76c0 90bd 5b0b eabc
00000280: c93b 933c 1231 98bd 4659 c6bc a083 93bc
00000290: 403a d3bc a46c c5bc 37f9 eabc d512 dcbc
000002a0: 7267 3fbd e45b dfbc 8d9e 3f3a 06ee afbc
000002b0: ddc0 c2bc 5498 73bc 8eed 77bd 6271 3bbd
000002c0: a08c a6ba f6d8 70bc ee5b 393b d6ce 74bd
000002d0: 81e8 93bd 2c69 06bd 8c5f 0ebc 7969 45bd
000002e0: 1890 63bd 39c2 4ebc c797 a3bc dbd9 bcba
000002f0: fdf7 83bc 3896 99bc 1dc5 a13b f64e e43c
00000300: 4738 09bd 4e00 8838 445f 4fbd 6f70 49bd
00000310: a063 793c afd0 84bd c28f bf3c 70a4 b6bc
00000320: 32e3 0cbc 83b5 52bd e9a1 23bd 1baa 94bc
00000330: 0f1b d9bd c521 14bc 993f 2bba 628a 32bc
00000340: fe00 203c 6a97 80bd a2d2 8abd c8fd 66bd
00000350: 7fb7 f0bc 72fb 84bc 11ab 51bd 18cd c5bc
00000360: 2e80 3ebd f1db 8dbc 508e 29bd 481e 943c
00000370: 8daf 12bd 9f90 9fbc e13b 63bd 36da 82b9
00000380: 0f08 27bd 12ae 93bb 1a93 3f3a d28d 60bd
00000390: 728e 7fbc e214 33bd 0b9c 263c ab1d b7bc
000003a0: 47a3 60bd 3822 2cbd a239 ccbc 54ff 90bc
000003b0: 83bf 7c3c 740c 5b3c 5b97 51ba 5227 a4bb
000003c0: 6a26 c1bc 8b19 51bd 9e25 10bd 2a16 63bd
000003d0: f6af 253c 3da5 563c 9549 52bc 46b1 11bd
000003e0: e7b6 20bc 0837 5ebd cd2e ba3c 7b6e acbc
000003f0: 6293 e438 c7ae 42bd 8f0c 033d 627b 88bd
-0.022328693 -0.063889615 -0.00833791 -0.05841933 -0.025859475 -0.01561738 0.00015721146 0.0053591067
-0.023283668 -0.06593495 -0.014649621 -0.043189116 -0.072457485 -0.031576026 -0.01532751 0.025423113
-0.005197641 -0.043491803 -0.037794184 -0.018123005 -0.026003117 -0.007744426 -0.07938254 0.0077473857
-0.017926613 -0.027638214 -0.008735777 -0.020636052 0.007976264 -0.016031932 -0.037403475 0.015339436
-0.047420807 0.016547302 -0.035321493 -0.00084454333 -0.059915017 -0.041581426 -0.02348376 -0.021466753
-0.060145635 -0.0506268 -0.030437408 -0.054124005 -0.029034873 -0.046550203 -0.06209623 -0.05548361
-0.04181918 -0.053174473 0.008220291 -0.05077536 -0.015720043 -0.021783173 -0.039483193 -0.04942352
-0.007243464 -0.03468823 -0.028605497 -0.039145093 0.015191582 -0.05148802 0.015816579 -0.062491823
-0.014946287 -0.009079029 -0.021382367 -0.03833515 -0.008397235 0.0006264016 -0.057841554 -0.029789941
-0.0132092405 -0.0015932999 -0.03985174 -0.052066654 0.006224385 -0.013671418 -0.100470416 -0.019628413
-0.05929401 -0.019661222 -0.0444094 -0.08241361 -0.04276654 -0.07464059 0.010104604 -0.040823083
-0.042461313 0.015227615 -0.044080555 -0.04850082 -0.0032913657 0.009302729 0.0055592163 -0.03321912
-0.010959168 -0.03000006 -0.055674877 -0.039038464 -0.03859612 -0.0068299575 -0.053188365 -0.0782405
0.018697891 -0.056628924 -0.0038227905 -0.0728675 -0.05299856 -0.056299683 0.022233283 0.019163867
-0.06710224 -0.03302123 -0.022371585 -0.053394116 -0.059491318 -0.037441123 -0.03597021 -0.051100593
-0.06212454 0.018758282 -0.05150004 0.014978087 -0.023214733 -0.026128415 -0.032495674 -0.019660974
0.015514907 -0.01279709 0.014127645 -0.005189696 -0.012611094 -0.03288726 -0.02777105 -0.024455987
-0.036867946 0.0018931986 -0.021146592 -0.0040504797 -0.009906298 0.015364399 -0.020870382 -0.02390106
-0.051221494 -0.016077338 -0.009548821 -0.04716374 -0.013317764 -0.021711456 -0.022343257 -0.02506042
-0.059368882 -0.009546083 -0.051328752 -0.00649017 -0.024508158 -0.037019257 -0.07067959 -0.028569868
0.017972844 -0.074312344 -0.02421249 -0.0180071 -0.025784612 -0.024099655 -0.028683288 -0.026864449
-0.046729513 -0.027265497 0.00073096977 -0.021475803 -0.023773605 -0.014867861 -0.060529284 -0.045762427
-0.0012706704 -0.014700165 0.0028283554 -0.059767567 -0.07222081 -0.032815143 -0.008689772 -0.04819629
-0.05555734 -0.0126195485 -0.019969834 -0.0014408188 -0.016109461 -0.018748388 0.004936828 0.027869683
-0.033500936 6.485042e-05 -0.05062796 -0.04917949 0.015221506 -0.06485116 0.023383979 -0.022295207
-0.008599089 -0.051442634 -0.03994933 -0.018147519 -0.10600864 -0.009041254 -0.0006532609 -0.010897251
0.009765862 -0.0627888 -0.06778456 -0.05639437 -0.029384373 -0.01623318 -0.051188532 -0.024145648
-0.04650896 -0.01731679 -0.041395485 0.018080845 -0.03581195 -0.01947814 -0.055477027 -0.00024958112
-0.04077917 -0.004506835 0.00073079916 -0.05482275 -0.015597926 -0.043721087 0.0101690395 -0.022353014
-0.054843213 -0.04202482 -0.024929825 -0.017699875 0.015426519 0.013369668 -0.0007995271 -0.00500957
-0.023577888 -0.05104975 -0.035192125 -0.05544106 0.010112753 0.013100919 -0.012834926 -0.03556945
-0.009809232 -0.0542517 0.022727394 -0.021048775 0.000108993394 -0.047529962 0.0319944 -0.066641584

network_body._body_endoder.seq_layers.0.weight f4 [256, 158]
00000000: d48c 84be 78b5 21be a066 213d 5ed1 16bd
00000010: c54d a9bd 0227 77bc 3f2e 6fbd dd6f 143e
00000020: 5033 aebc 43ee d13d b78f 44bc 2297 de3d
00000030: ff52 af3d ffce ad3c 171c 09bd 5982 72bb
00000040: 27b5 e33d 1a91 303d c12e ae3b 284c 8abc
00000050: 750f bcbd b7f2 e5bd 1eba c33c 6452 af3d
00000060: 7b96 0f3c 8ea8 d2bb d304 ccbd 0ce8 31bc
00000070: 3d85 a23d 6992 2dbd e3d9 d2bd 7461 8d3d
00000080: 7e38 cfbc de82 923d b8c0 9f37 896f cbbc
00000090: b507 01be d2a3 01bc 4d8b 173e df27 efbd
000000a0: e5c7 863d 7fcc 6bbd 5d72 c93d fc18 a53d
000000b0: b7a4 78be 570d 263d 831b 07bc d079 39be
000000c0: 1379 573e 1ee2 67be 7945 973c d0fb 4ebc
000000d0: 9f7a 8b3c 0e2e a33c a386 be3c 4de4 b43d
000000e0: 5058 063e 57b2 8eba d294 fcbc 9d32 7abc
000000f0: 60bc c8bc 02c2 14be f035 a4bd ad4b 8d3d
00000100: a660 b3bd e65c d5bd b422 50bd fca2 3b3d
00000110: 99b1 22bd c23f 3b3d 2b07 26bd 2821 983d
00000120: 1e7b 573d e691 003e bb4a 00bd 1499 7abd
00000130: a94e fb3b e33d 4bbe 9e72 823d d1a1 12bb
00000140: 1bde 853d 4361 95bd 5d39 093d 19a7 bfbd
00000150: 1e3e b1bd 2b8a d03d 7d93 52be c2e9 5abd
00000160: b7b9 693d 9f7e 06be 68b3 4c3c d346 d7bd
00000170: 7e83 ed3c a69f 2dbd 398a 7e3d 5a8a 1e3e
00000180: 4c9a 9abd ffe2 a2bc 423c b0bc 7aaf c9bd
00000190: efb1 15be c408 de3b c5f1 b53b 2ae8 4cbd
000001a0: e73d 553d 77e7 39bc ee62 48bd 089d 9abc
000001b0: 9261 8b3d f5d2 c6bd 1cf7 da3d 365d bbbc
000001c0: 6ebd 50bd d63e 0dbe 64e6 f0bd 565e 65bd
000001d0: 1879 963b 0b91 a0bd 4287 d5bb 7a68 51be
000001e0: ce20 6139 614a cd3b efe1 413d cd13 2b3d
000001f0: a96e 29bd 9c21 85bc 2375 33bd 5a90 37be
00000200: a726 c4bb 3c9d c63c 3b68 083d 7ca6 b93d
00000210: e63a 31be 9437 203d 25a1 c5bc 97ac 5cbd
00000220: 86f5 103d b9a2 b7bd 8f0b 0cbe e339 793d
00000230: a83a 32bc 378c 253d 001c f43d eecf 94ba
00000240: bdd1 4f3d cb94 893d dee4 9a3d 83a4 263c
00000250: 1ec1 00be bd8a 1b3e 29af 56bb 26ee 713e
00000260: 7e0f c6bc edf1 143c f250 8f3d 53f4 1ebe
00000270: da2a 0c3d e449 593e 3a59 23be 72a3 03be
00000280: 4fa4 153e 991a 883d b73d 02bd 4745 3a3e
00000290: d6e9 ef3b 945a c93d 82c5 0bbe fd2b 313d
000002a0: 0035 033d c622 11be a9db 29be 13f6 f23c
000002b0: 559e 48bd eb81 573d 2ad4 d63d efe0 01b9
000002c0: b568 503e 1edc 893d bfba 8c3d 00d0 303d
000002d0: 8fa9 ff3c bfde dfbd 921e db3c 8892 4d3d
000002e0: 6e50 82bc 03ff 803d 5113 973c 8c15 49bd
000002f0: a3d7 7bbd ff22 a33d e55a 63bd ce01 d9bd
00000300: f4b0 dd3d 3884 463c 4789 86bd 634e debc
00000310: 9fa8 e63d eb76 c63d 08a0 ce3c 91a0 07be
00000320: a7e7 ea3c f3ec 223d 823a 90bd 7498 a8bd
00000330: 132f 10be f87f 9e3d 6f6b 973d 9de5 12be
00000340: dd26 bebc 1a94 92bc f72c 38bd 8912 ae3c
00000350: 22f2 3b3a bf37 b9bb d500 453c 3f7c ae3d
00000360: 858d 433e c10f 2f3e 6286 62bc f3b2 9bbd
00000370: 00d4 c23d d8b2 f23d 7527 34bd 0346 bf3d
00000380: 5775 5f3d 6393 1dbd a67c 0ebe e142 79bc
00000390: c703 c13d 967a ae3c f636 e03d deff 76bd
000003a0: 452c 113e 9168 6b3a ca1c 4ebc 7475 c9bc
000003b0: 2205 2abc f4aa 7e3d 5b32 9b3c 5596 ed3d
000003c0: 2c20 b2bd 0914 873d 60e4 603d a7a6 263e
000003d0: 22e2 c13c 1678 5cbd eb43 fa3d 7f27 81bb
000003e0: f51f 9abd ed55 843d b73d 903d 48d5 e1bc
000003f0: 8143 8e3b 34bb e23c 0f0e c33c 7023 41bd
-0.25888693 -0.15791881 0.03940451 -0.03682076 -0.082667865 -0.015084984 -0.058393713 0.14495797
-0.021264702 0.10250523 -0.011997155 0.1086867 0.08560752 0.021216867 -0.033474054 -0.0037003963
0.111185364 0.04310713 0.005315632 -0.016882017 -0.09182636 -0.11227935 0.023892459 0.08560637
0.008763905 -0.0064287847 -0.09961858 -0.010858547 0.079355694 -0.042375956 -0.10295465 0.06903353
-0.025295492 0.07153867 1.9044019e-05 -0.024833458 -0.12600596 -0.007912593 0.14799233 -0.11677527
0.065810956 -0.05756807 0.09836266 0.08061406 -0.24281584 0.040540066 -0.008246305 -0.18112874
0.2104228 -0.2264485 0.018465744 -0.012633279 0.017026244 0.019919422 0.02325756 0.088326074
0.13119626 -0.001088689 -0.030832682 -0.015270856 -0.024503887 -0.14527133 -0.080181 0.068992
-0.087586686 -0.104181096 -0.050814345 0.04580973 -0.03972015 0.0457151 -0.04053418 0.07428199
0.052607648 0.12555656 -0.03132127 -0.061181143 0.007669289 -0.19847827 0.06369518 -0.0022374282
0.06536504 -0.07293942 0.03350197 -0.09358043 -0.08654426 0.101826034 -0.20564075 -0.053445585
0.057061877 -0.1313424 0.012493946 -0.105115555 0.028993364 -0.04238858 0.06214354 0.15482464
-0.07548961 -0.01988363 -0.021513108 -0.098479226 -0.14618658 0.0067759473 0.005552503 -0.050026096
0.052060988 -0.011346689 -0.04892247 -0.018873706 0.068057194 -0.097082056 0.106916636 -0.022871595
-0.050961904 -0.13793501 -0.117626935 -0.05599817 0.004592072 -0.07840165 -0.006516368 -0.20450011
0.00021469893 0.00626497 0.047334608 0.04176693 -0.0413653 -0.016251378 -0.043812882 -0.1792616
-0.005986053 0.024244897 0.033302527 0.090649575 -0.17307624 0.039115503 -0.024124691 -0.053875532
0.0353904 -0.08966584 -0.13676284 0.06084622 -0.010878243 0.040416922 0.11919403 -0.0011353472
0.05073713 0.06717833 0.07563184 0.010171059 -0.12573668 0.15189643 -0.0032758212 0.23626003
-0.02417731 0.009090883 0.06997861 -0.1552289 0.034220554 0.21219593 -0.15952006 -0.12855318
0.1461346 0.06645698 -0.031797137 0.1819049 0.0073215766 0.098317295 -0.13649562 0.04325484
0.032032967 -0.14173421 -0.165877 0.029658353 -0.048979122 0.052614134 0.10489686 -0.00012386193
0.20352443 0.06731437 0.068715565 0.043167114 0.031208782 -0.10931157 0.026747975 0.05018857
-0.015907492 0.062986396 0.018441828 -0.049092814 -0.061484944 0.07965659 -0.055506606 -0.10596047
0.10824767 0.012116484 -0.06569152 -0.027136987 0.11262631 0.096906506 0.025222793 -0.13244845
0.028674914 0.039776754 -0.070424095 -0.08232203 -0.14080457 0.07739252 0.07393538 -0.14345403
-0.02321189 -0.017892886 -0.044964757 0.021249073 0.00071695645 -0.0056523974 0.012024124 0.08519792
0.19096954 0.17095853 -0.013825985 -0.07602491 0.09513092 0.11850518 -0.04398294 0.093395256
0.054555263 -0.038470637 -0.13914737 -0.015213699 0.094245486 0.021298688 0.10947983 -0.060302608
0.14177044 0.000898012 -0.012580106 -0.024592139 -0.0103772 0.062174752 0.01894491 0.11600939
-0.086975425 0.06595618 0.054905295 0.1627451 0.023667399 -0.05382546 0.122199856 -0.003941476
-0.075256266 0.064617015 0.07043021 -0.02756752 0.004341543 0.027677156 0.023810415 -0.047152936

network_body._body_endoder.seq_layers.2.bias f4 [256]
00000000: eca8 c2bc bd04 9cbb 9110 10bc 9c5f 283c
00000010: 7a79 57bc 3d1d d3bc c207 c4bc 24f6 4dbc
00000020: f036 60bd 5aa6 d7bc 6534 fcbc 88e7 d9bc
00000030: 1844 7fbc 4240 b6bc 529a 1abd 07b6 463c
00000040: f335 1138 fef0 75bd d442 e63b 45b8 08bd
00000050: 587a 84bc c97e 0b3c 4c99 98bc 158e 0abc
00000060: f7f5 e1bc 82cd 30bd 9e19 d43b 7c95 6dbc
00000070: 95cd aabc 8269 f5bb f51e 32bd 3141 a3ba
00000080: dafc f3bc b79f a83c 7e51 31bc 8fbe 9ebc
00000090: f709 3abd 5c23 183c 34d9 263c 9eef 9abb
000000a0: 1cfc 0ebd e21c 533b 705b ccbc 5e97 51bc
000000b0: eb51 603c 341a 50bc 0939 01bd 2c1a afbc
000000c0: 0175 bdbc c1df 0bbd 6969 1dbd 3839 1abd
000000d0: 7a4c 07ba 7870 56bc fa99 67bd 4dbc 27bd
000000e0: 7d5b c33c af26 243c 137d 16bd ea3a 81bc
000000f0: ec6b 32bd 9e1f 093c dccc c23c ad74 40bb
00000100: f313 3abd 837b b63b 8c5d e2bb a0ff 1dbd
00000110: 57b6 57bd 95be 38bb 6b4c 80bc 73c4 ddb9
00000120: e37d 68bd bcaf 9b3b 1d32 4cbd dc85 a6bb
00000130: 7a44 dabc b257 d3bc 23ab b2bc 77a8 c53c
00000140: 8163 a3bc 12b6 70bc b825 8d3c d9de 4b3c
00000150: 322f 33bc c4f8 14bc 2b94 9cbb 0fb1 29bc
00000160: f10f c5bc ecdf 66bc 35b4 31bd 47b6 7bbc
00000170: 3196 b6bb f665 99bc d415 dfbc 0836 b5bc
00000180: 1f1c 5dbd b0e5 9fbc c3ca 42bc 40ec d1bc
00000190: a7de 38bb db1e 3a3c 59ba 053d 4582 d9ba
000001a0: 5ef6 eebc 3bbc 13bd 2f6c d1bc 7de8 74bb
000001b0: d9db b8bc 4f37 96bc 09be 843b cf77 313a
000001c0: 0634 0abc 3765 6bbd 1c0e ebbc ee2d 3fbd
000001d0: fff8 f6bc 7c11 b6bc 0e22 363c b434 22bd
000001e0: bf93 cdbc 2c32 afbc 0541 39bc ca12 83bc
000001f0: ca4b 7ebc 3d1f 00bd 0d8f 42ba a841 f3bb
00000200: 0f2a 49bc e59b 3cbd 9474 1bbd c90a e83b
00000210: 3dd4 d1bc 48a5 6abd 8a0d e0bb a637 573a
00000220: ac27 45bc d9bd 5abb acdf b73b 8377 92bc
00000230: 9a1a 49bd af49 c9bc a354 76bd 8000 35bc
00000240: 66a3 06bd cc10 153c 5d83 0fbd 04bc d2bb
00000250: 7fab 08bb cb68 113b 7e09 11bc 9441 9abc
00000260: 9195 f7bb 97f5 19bd 918b 1cbd 5d96 08bd
00000270: e289 b3bc 2cec 60bd 9cbc 4fbc a6ab 59bb
00000280: 2eb0 78bc 1d58 33bd 2f24 5dbd 604b 65bb
00000290: 0a6a 02bd ea4e 5cbd 9a3f 213b 3fdc 96bc
000002a0: eb1a 79bc 0e4e 3d3b 2ffc 4bbd 4f91 69bc
000002b0: 5e67 09bd 61cd dabc 2ca5 67bc 133e dabb
000002c0: abed 29bd d921 1fbd 2a60 21bd 3948 f33c
000002d0: c388 9abc e89d 1abd 9352 91bc c6e0 37bc
000002e0: 5383 42bd 4bd0 95bb 7b84 36bd 93a1 a83b
000002f0: 3094 8dbc f345 e3bc c260 d53a 4f42 74bc
00000300: 5df3 5db8 6a68 8bbc 5b2e 39bd dc45 dfbc
00000310: e201 2fbd 4ac2 b2bc 8c81 d2bc 4977 ecbc
00000320: b8e7 f8bc 202a 33bd 855d e8bc dd30 b5bc
00000330: 9972 dcbc 8b52 af3c 4253 c8bc 4c0f adbc
00000340: 8ec3 fc3c 8307 4dbd 2c33 7bbc 8cce 0fbd
00000350: 8308 edbc ff45 6cbc 82c5 b7bc 87f8 a9bb
00000360: 7150 d3bc 8add f7bb 3726 bcbc 971d ce3a
00000370: fa50 673b a055 16bd f061 0abd 635c b7bb
00000380: 7838 48bd 3abb e0bc 5cc9 e7bc 7a53 1bbd
00000390: 4465 883c 1460 31bc 0e67 a0bb dddc bd3c
000003a0: caf2 37bc b6b5 60bc 8fa4 e0bb 71e2 12bd
000003b0: 1095 10bd ffa9 a2bb cdb1 eabc f4de 03bd
000003c0: d757 e3bc dda0 39bd 4a60 a4bd 182f 49bd
000003d0: 1582 acbc 4b55 ecbc ff12 6cbc cc7f 02bb
000003e0: e43a cfbc 459f 99bb 8e73 9bbb cb0d 6d3b
000003f0: 05d5 febc 8880 0abc d980 87bc ed6a 2b3d
-0.023762189 -0.004761307 -0.008793012 0.010276701 -0.013151521 -0.025770778 -0.02392948 -0.0125708915
-0.054739892 -0.02632444 -0.030786702 -0.02659966 -0.0155802 -0.022247437 -0.037744828 0.01212836
3.4620938e-05 -0.06004428 0.0070270095 -0.033378858 -0.01617162 0.008514115 -0.018627785 -0.008456727
-0.027583105 -0.043164738 0.0064727804 -0.014500972 -0.020849982 -0.007489384 -0.043486554 -0.0012455342
-0.029783655 0.02058397 -0.010822652 -0.019377975 -0.04541966 0.009285774 0.010183621 -0.0047282716
-0.0349084 0.003221326 -0.024945945 -0.012792436 0.013691406 -0.01270156 -0.031548534 -0.021374784
-0.02312708 -0.034148935 -0.038430605 -0.037652224 -0.0005161237 -0.013088338 -0.056543328 -0.040951062
0.023847336 0.0100189885 -0.036740374 -0.015775163 -0.043559954 0.0083693545 0.023779325 -0.002936642
-0.04542918 0.005568923 -0.0069081243 -0.03857386 -0.052664127 -0.0028189768 -0.015661439 -0.0004229877
-0.05676068 0.004751174 -0.04985248 -0.0050818752 -0.02664398 -0.025798652 -0.02181012 0.024128182
-0.019944908 -0.014691846 0.0172299 0.012443268 -0.010936545 -0.0090925135 -0.004778405 -0.010357155
-0.024055453 -0.014091473 -0.04338475 -0.0153632825 -0.0055721034 -0.018725377 -0.027232088 -0.02212049
-0.053981896 -0.019518703 -0.0118891625 -0.025625348 -0.0028208883 0.011359896 0.032648418 -0.001659461
-0.029170211 -0.036068182 -0.025564281 -0.003737002 -0.022565769 -0.01833692 0.0040509743 0.0006769867
-0.008435255 -0.057469573 -0.028693251 -0.04667466 -0.030148027 -0.022225134 0.011116518 -0.039601043
-0.025094865 -0.021386229 -0.011307006 -0.01600017 -0.015520999 -0.03127979 -0.0007421829 -0.0074235983
-0.012278094 -0.04604711 -0.037952974 0.007081364 -0.025613898 -0.05728653 -0.0068375515 0.00082098914
-0.012033384 -0.0033377318 0.0056113806 -0.017879253 -0.049097635 -0.024571268 -0.06013931 -0.0110474825
-0.032870673 0.009098243 -0.035037387 -0.0064311046 -0.0020854173 0.0022187706 -0.008852361 -0.018830098
-0.0075556715 -0.03758773 -0.03821904 -0.033346523 -0.021916334 -0.05491273 -0.012679245 -0.0033213883
-0.015178723 -0.043785203 -0.053989585 -0.0034987554 -0.031839408 -0.053786196 0.002460456 -0.018415568
-0.015204172 0.0028885636 -0.049801048 -0.014255836 -0.033545844 -0.02670926 -0.014138501 -0.006660232
-0.041486423 -0.03885064 -0.03939835 0.029697524 -0.018864041 -0.037748247 -0.01773957 -0.011223024
-0.04748852 -0.0045719496 -0.044559937 0.0051462143 -0.017282575 -0.027743315 0.0016279446 -0.014908387
-5.2917156e-05 -0.017017562 -0.045210224 -0.027254991 -0.042726405 -0.02182116 -0.025696538 -0.028865473
-0.03038393 -0.043741345 -0.028364906 -0.022118026 -0.026910113 0.021401664 -0.024453763 -0.021125458
0.030854966 -0.05005599 -0.015332025 -0.035109088 -0.028934723 -0.014420985 -0.022433046 -0.0051870975
-0.025795193 -0.0075642513 -0.022967441 0.0015725371 0.0035296069 -0.036702752 -0.033784807 -0.00559573
-0.048881978 -0.027433027 -0.028294258 -0.037921406 0.01664985 -0.0108261295 -0.0048950976 0.023176605
-0.011227319 -0.013715198 -0.0068555544 -0.035860483 -0.035298407 -0.004964113 -0.028649235 -0.032195047
-0.027751846 -0.045319427 -0.08026178 -0.049117178 -0.021058122 -0.028849265 -0.014408826 -0.0019912599
-0.025296636 -0.004688176 -0.004744 0.0036171551 -0.031107435 -0.008453496 -0.016540932 0.04185002

network_body._body_endoder.seq_layers.2.weight f4 [256, 256]
00000000: 0473 c8bd 8db8 89bc 8de3 bdbc 7043 62bc
00000010: d4a9 a13c d6c1 b9bd 278e 403d f2e4 44bd
00000020: 33d0 94bc 345b a8bd fbfd d8bd 98aa 443d
00000030: 2843 f3bc e126 5dbd a9e2 55bd f31a 29bd
00000040: 28f0 bdbd db69 36bd 5fcd cb3b 7d18 27bd
00000050: f050 34bd be3a 2dbc baa7 70be 7220 4c3d
00000060: b134 953d 5e51 523c dd02 d0bd 97f8 c1bc
00000070: 62f6 1439 b4a8 16bc 451f 46be 5f7b b03c
00000080: a815 0abc 8c59 be3c c1ad 78bd 5d8f 0bbe
00000090: d2bc 0ebd af8b 313d 19d1 c1bd 1f96 873d
000000a0: 843a 283d 3383 2fbc 5a43 14bd 62c2 a53d
000000b0: 958d bb3c 779c bd3d 45fc 013d 04f9 0ebd
000000c0: 33ac e338 b705 8e3d d830 68bc 8983 fdbc
000000d0: 5751 a2bd 386e 3e3d 927b 92bd 8ef3 9cbd
000000e0: 1d67 00be ace3 cb3c 2287 a0bd a613 49bd
000000f0: 192a a83b 9384 22be 64f8 4ebd 43c3 bf3d
00000100: b7fe cf3c 8513 153d e16a e23c 9d33 15be
00000110: b98a 5dbe 50b4 1d3c 9b33 c5bd 69f1 6f3d
00000120: 4722 7b3d 20b7 e5bd c9c7 afbd aa4a c43c
00000130: 0a37 f3bd 3163 b93c ca6b 023d 1582 d33c
00000140: 46d0 cbbc 2774 44bd 9324 a6bb e363 8f3c
00000150: 0c98 edbd 84e5 fcbd 73c0 0cbd 9d46 dfbc
00000160: e4c8 87bd 3d62 973d 760c eabc 7b9d 973d
00000170: 330c 32bd 0b35 91bd 01e7 6a3d 4d3a 49be
00000180: a756 ff3c 396e 073e c318 2abe f7bf 31bd
00000190: 94bf b43d 5003 ea3d b35c 57bd 794a 083e
000001a0: 2a9b 8a3d 6c37 13be ef74 a4bd fa5b 8ebd
000001b0: e3cc 06be c020 413c fbc6 d7bd 096f 37bd
000001c0: bac6 de3d 00b9 243c 8f85 bcb9 321d 153b
000001d0: 8229 b23b 3d83 d83b 6985 763d 3f61 9cbc
000001e0: 0521 1dbd 0456 95bd f8c8 79bd 1af2 49be
000001f0: 72e3 683d fd6d 1bbe 770e 67bd 3a58 b2bd
00000200: bc70 61bc 38ff debc a060 30be 644e 6c3c
00000210: 187a b3bc 9137 e73c 9a74 d9bd b665 52bd
00000220: 0f09 c23c bea2 e8bd 596a 94bc 477d 38be
00000230: 1fe8 0abe d77e e6bd f21f 4ebd 7a73 15bd
00000240: 0ca5 763d e2ed b53b cd91 27be 03df 5cbc
00000250: 357e b7bc 5203 053c bc44 1e3d c93b d5bc
00000260: f140 093d 207f 3a3d e363 3bbd a6af 94ba
00000270: bbcc 843d e84e 0dbb 5a4a 4a3d 1f8c 22be
00000280: db7e 66bd 26a5 a8bd cc22 a6bd b5aa 16bc
00000290: 1785 ebbb 2d69 69bd b389 b5bc 612a 3b3d
000002a0: f4d6 373c 6816 7c3c be6e 1a3e b644 8dbd
000002b0: c6ea 0abd 7d42 983d 146c 283d 5afd d03d
000002c0: a576 0fbe 7741 02bd 32cc 11bc bafb 28bc
000002d0: baa0 b7bd 7fee 773d 24e2 6abd 7b67 f6bd
000002e0: fe68 95bd 8fcb 10be fd18 2e3d 5f18 8d3b
000002f0: 2e82 de3c 6566 403d 00ce edbd 3f0e 22be
00000300: e224 a0bd 84b2 fbbd 0f20 4bbd 6cd4 903d
00000310: c7dc 90bd 6628 31bc 7ab1 4ebc 1d48 5cbd
00000320: d9a9 d0bd c2e0 76bd 073a 4e3d 28da b83d
00000330: 9a77 4dbd 9ab6 70bd b689 bfbd 92e2 9dbd
00000340: bcdf 06bd 5f3a 8cbd aa8f b93d 02cf cebd
00000350: e953 60bb 181b 4d3d 2a51 16be 179f b5bc
00000360: 7571 553d 6661 f2bd f2fe de3d e24f a3bd
00000370: ed10 f8bd 8c12 a93c 268a c93b b197 ebbc
00000380: f04d 113d c53a 4bbd 8ff3 e5bb 348c 123d
00000390: 76f9 9bbd 86a8 c33d bcbc 21bd e3f2 3fbd
000003a0: a8e8 abbc 47ca 93bb acd3 f33d ad81 c0bc
000003b0: 9ea1 cbbd 8d3b a43d fa3d b6bd 9653 2fbc
000003c0: 36c2 de3a 0530 87bd 554b 3f3d 48ca c83c
000003d0: f1ad b93d 323b 13be 3738 7ebd ac42 303d
000003e0: 74b2 3fbd 25b0 06be d579 1f3c 8b3c 8e3d
000003f0: 6517 50bc fb9a 78bd 8bd1 26bd cec2 a4bd
-0.097875625 -0.016811633 -0.023179794 -0.013810024 0.0197343 -0.090701744 0.047010567 -0.0480699
-0.018165683 -0.082205206 -0.10595318 0.048014253 -0.029695109 -0.053992156 -0.052218113 -0.041285466
-0.09274322 -0.044534545 0.0062195505 -0.04079484 -0.0440225 -0.010573087 -0.23501483 0.04983563
0.07285441 0.012836782 -0.10156796 -0.023678107 0.00014206165 -0.009195495 -0.19347866 0.021543203
-0.008428015 0.023236059 -0.06071258 -0.13628908 -0.03484804 0.043346103 -0.0946371 0.0662043
0.04107143 -0.010712433 -0.036197044 0.08093716 0.02289466 0.09258359 0.031734724 -0.03490545
0.00010856278 0.06934684 -0.0141718015 -0.03094651 -0.079256706 0.04649183 -0.071524754 -0.07663642
-0.12539335 0.024888836 -0.078382745 -0.049091004 0.0051319716 -0.15870886 -0.050529853 0.09363415
0.025390012 0.03639557 0.027638854 -0.1457047 -0.2163495 0.009625509 -0.096289836 0.058579836
0.061311986 -0.11216569 -0.08583028 0.023961384 -0.11875732 0.022630306 0.031841077 0.025818864
-0.024879586 -0.047962334 -0.005070278 0.017503684 -0.11601266 -0.12348464 -0.03436322 -0.02725535
-0.06630114 0.07391784 -0.028570395 0.07403084 -0.043468665 -0.07090195 0.05734921 -0.19651146
0.031169249 0.1322564 -0.16611008 -0.043395963 0.08825603 0.11426413 -0.05257864 0.13309659
0.067678764 -0.1437661 -0.08030116 -0.06951137 -0.13164096 0.011787593 -0.105359994 -0.044783626
0.10877748 0.010053873 -0.00035957663 0.0022752997 0.005437077 0.0066074417 0.060185824 -0.01908934
-0.038361568 -0.07291797 -0.060982674 -0.1972126 0.056857534 -0.15178676 -0.05641028 -0.08708234
-0.013759788 -0.027221307 -0.1722436 0.014422987 -0.021908805 0.028224738 -0.10617943 -0.05136653
0.02368596 -0.113591656 -0.018117117 -0.1801654 -0.1356511 -0.112546615 -0.050323434 -0.03648708
0.060215995 0.0055520395 -0.16364212 -0.0134809045 -0.022399047 0.008118467 0.03863977 -0.026029484
0.0335092 0.045531392 -0.045749556 -0.0011343851 0.06484362 -0.0021561924 0.049387313 -0.15873764
-0.056273323 -0.082346246 -0.08112106 -0.009195973 -0.0071874964 -0.05698507 -0.022160387 0.045694713
0.011220682 0.015386201 0.15081307 -0.06897871 -0.033915304 0.07434557 0.041118696 0.10204573
-0.14010103 -0.031800713 -0.008898782 -0.010313923 -0.08966203 0.060530182 -0.05734457 -0.12031456
-0.07295416 -0.14140151 0.0425043 0.004305884 0.027161684 0.04697265 -0.11611557 -0.15825747
-0.07819535 -0.122899085 -0.04959112 0.07071766 -0.0707336 -0.010812854 -0.012615556 -0.05377971
-0.10188646 -0.06027294 0.050348308 0.09025985 -0.05016289 -0.058767892 -0.09352438 -0.077092305
-0.032928213 -0.06847071 0.09060605 -0.10098077 -0.0034229702 0.050074667 -0.14679399 -0.022170587
0.052110154 -0.118349835 0.10888471 -0.07974221 -0.12112603 0.020638727 0.006150502 -0.028758856
0.035474718 -0.049616594 -0.00701756 0.03577824 -0.0761594 0.09553628 -0.03948663 -0.046862494
-0.020984963 -0.0045101973 0.119056076 -0.023499334 -0.099429354 0.08019171 -0.0889854 -0.010701081
0.0016995135 -0.06600956 0.0467027 0.024510518 0.0906638 -0.1437805 -0.06206533 0.043032333
-0.046801046 -0.13153131 0.009733637 0.069451414 -0.01270089 -0.060694676 -0.04072718 -0.080449685

network_body._body_endoder.seq_layers.4.bias f4 [256]
00000000: 769a 023c 3983 9dbc fbb7 7fbc 1f79 f4bb
00000010: 50fb 3fbc 7fde dfbb 964e f9bc dbf8 203b
00000020: 70a3 c8bb 778c 19bb 0498 863b 1c0c c6bc
00000030: 5ba3 d3bc 9f58 0eba 6faf 8c3c b235 a03b
00000040: 0b0c 54bc f9fd b9bc 3f18 c0bc b654 9d3c
00000050: 7dcd b03b 0a95 853b 09c6 99bb 8a82 7abc
00000060: 1043 a8bb 4b7d fbbb 503d 0239 2e7b 30bc
00000070: a5e0 6c3c 6153 3abc 232b 16bd d504 9eba
00000080: 0b28 8cbc d733 81bc 6fd4 58bc adcc 9cbc
00000090: 2eac 0bbc 1ad5 4ebc 6ac4 bdbb f8f0 9abc
000000a0: 697f 9ebb fdd2 04bd 6340 0abd 6779 25bd
000000b0: d8b5 83bc 07fb 0ebd a0a3 32bb 14f8 ad3c
000000c0: 62fd 55bc d392 bfbc 8a20 503c 8a38 a03c
000000d0: 79ef 493c 2e73 993a 6371 96bc 0dd0 a1bb
000000e0: 57cc 123d 6017 bf3a 3744 f0bc 46b1 473b
000000f0: e98f f7bc 3b98 9db6 22dd 9e3b 98a6 95bc
00000100: c6e9 9e3b 3ad8 65bc 8ef0 25bd f26d 59bc
00000110: ea6f a43c c831 6bbb 4b7d 99bc daac 97bb
00000120: 92d5 84bc b9f3 a3ba d55e 35ba 280d adbc
00000130: 6435 b0bc a141 c3bc 305e 76bc fb9a e2bb
00000140: 12e9 07bd ec48 46bc eb54 543c 6fa9 babb
00000150: a71e 7dbc d47a 4f3c 8d96 08bd d33e 02bd
00000160: dafc 813c 7350 1239 272a 53bb 2b17 9fbc
00000170: 2a99 e6bb a353 853c 9cd7 c13a aa85 3637
00000180: 4d8e 9b3b 3b88 c6bc e03d b4bb 6683 93bc
00000190: da2f 85bc fa42 88bc af1b a8bc d9fc 4abc
000001a0: 66fc 2bbc 1ebf 383a 0647 8abb 5dbd 94bb
000001b0: 9ba6 17bc 988c 56bc d9e1 0dbd 9a5b 45bc
000001c0: 7362 ccb7 978e 3ebd 15f6 bebb 2cc0 cebb
000001d0: 2395 93bb 470e a2bc 1ae0 093b 8de4 32bc
000001e0: 0927 cbbc bdab 2ebd 87db 143c a016 913b
000001f0: 8d19 ddbc 5989 83bc 07c7 d63b 15d7 763a
00000200: ec10 92bc 7178 4dbc 0275 b5bb 1720 dbbb
00000210: f987 40bc 9138 08bd 5b2b 8e3c 4f78 6fbb
00000220: f748 bd3c 6c41 9abc 73bc 12bd a379 6dbb
00000230: 6701 3b3b 9992 343c 9edb 8a3b fc65 923c
00000240: 4cb0 47bc 85a1 1ebc f881 8a3c d2de d6ba
00000250: 7347 ccbc a1af 39bc 4c54 da3b 6cdf 7dbc
00000260: 8e44 02bb 3067 b53b 986e debb 9059 22bc
00000270: 950a 71bc 8c02 fabb a557 bfbc 8941 9c3c
00000280: 60e9 37bc ddcb 27bc 4170 25bc c0be f0bb
00000290: 5d0b 7abc 973a e93c 6c22 83bc ce5a 50bd
000002a0: 9785 69bb 3228 82bc f323 bf3c 32e2 1b3c
000002b0: 9e62 0cbb 0de1 173b 8bee d0ba 3cc1 84bc
000002c0: dff5 9a3c 8215 70bc 2366 b4bc a5ea cebc
000002d0: 32d6 abbc 887f 333b 3022 3ebc c28c 3bbd
000002e0: 152f fa3b f08e 6f3c f468 db3b c3dc 143c
000002f0: a855 a9bc 233f af3c 7659 1dbc fde8 f6bc
00000300: 84a5 43bc f0e3 b1bb b0ed c4bc d57e 3a3b
00000310: da79 24bd f35c 95bc 9b96 f1bb 7ae8 013d
00000320: cad4 12bd 61b8 25bc 9ed4 f9bb 1305 ddbc
00000330: 7dc8 0ebc 2fe8 253b cad2 293c 2556 babc
00000340: 4a77 8f3b ce7f 95bc 7fa6 b1bc 53d3 d1bc
00000350: a9e2 913c d228 9fbc 4493 52bc 335f 84bb
00000360: 9fa8 98bb 168b d839 a009 5abc 85d4 abba
00000370: 4b24 203c e161 c83c abbd 11bc d1c4 b3bc
00000380: 2e98 a1bc 63c6 2f3b e9a5 bf3c f49c 9ebc
00000390: 1670 0cbc ad5b 2ebb c944 703c 2e20 66ba
000003a0: 2aee bbbc 655f 803c 74ab 74bc 2a38 de3b
000003b0: 84fe 26bc 7ee7 98bc f738 34bc 8ec6 3938
000003c0: 60c5 b83c ed14 9ebb 97ca a1bc 02e6 21bc
000003d0: f191 c4bc 6c0e 333d 8310 a4ba 7bde 3dbd
000003e0: cef8 76bc 4df5 c3bc eb0f ac3b 25b0 9bbc
000003f0: b64c a6bc 94ea bdbc 7bc2 dd3b 223a 3f3a
0.007971397 -0.01922761 -0.015607829 -0.007460728 -0.011717632 -0.0068319435 -0.03043298 0.0024562392
-0.006122999 -0.002342967 0.004107477 -0.024175696 -0.02583473 -0.00054300757 0.017173497 0.0048892135
-0.012942324 -0.022704111 -0.023449061 0.019205432 0.00539559 0.0040766047 -0.004692797 -0.015289912
-0.0051349476 -0.007674848 0.00012420607 -0.010771556 0.014457856 -0.011372418 -0.036662232 -0.0012055883
-0.017108938 -0.01577179 -0.013234242 -0.019140566 -0.008524938 -0.01262405 -0.0057912366 -0.018913731
-0.004836966 -0.032427777 -0.03375281 -0.04039898 -0.01607792 -0.034907367 -0.0027258173 0.021236457
-0.013060899 -0.02338544 0.01270307 0.01955821 0.012325161 0.00117073 -0.018364614 -0.0049381317
0.035839405 0.001457911 -0.029329402 0.0030470653 -0.030219989 -4.6966866e-06 0.0048481384 -0.018267915
0.0048496453 -0.014028603 -0.040512614 -0.013270842 0.020072896 -0.0035887826 -0.018736502 -0.00462876
-0.01621512 -0.0012508548 -0.0006918733 -0.021124437 -0.021509834 -0.023835005 -0.0150371045 -0.006915448
-0.033181258 -0.012102347 0.012959699 -0.0056964676 -0.015449203 0.012663562 -0.0333467 -0.031798195
0.01586764 0.00013953615 -0.003222117 -0.019420227 -0.0070373015 0.016275233 0.0014788988 1.0879166e-05
0.004747188 -0.024234882 -0.00550054 -0.018006992 -0.016258169 -0.0166335 -0.020521013 -0.012389385
-0.010497188 0.00070475216 -0.0042198924 -0.0045391754 -0.00925603 -0.013095044 -0.034639213 -0.012045765
-2.4364539e-05 -0.046522703 -0.005827675 -0.0063095298 -0.0045038625 -0.019782199 0.0021038116 -0.010918749
-0.024798887 -0.04264425 0.0090855425 0.004427746 -0.026989723 -0.016056703 0.0065544876 0.0009416205
-0.017830335 -0.0125409225 -0.00553763 -0.006687175 -0.011751168 -0.03325707 0.017354658 -0.0036540215
0.023106081 -0.018830024 -0.03582425 -0.0036235831 0.0028534771 0.01102128 0.004237606 0.017870896
-0.012188029 -0.009682064 0.016907677 -0.001639331 -0.024936413 -0.011333377 0.006662881 -0.015495162
-0.0019877288 0.0055359825 -0.006788086 -0.009909049 -0.014711996 -0.007629698 -0.023357222 0.019074218
-0.0112250745 -0.010241476 -0.010097564 -0.007346958 -0.015261498 0.02847032 -0.016007625 -0.050867848
-0.0035632604 -0.015888307 0.023332572 0.009514378 -0.0021421085 0.0023174912 -0.0015940232 -0.016205423
0.018916069 -0.014653565 -0.022021359 -0.025258372 -0.02097616 0.0027389247 -0.011604831 -0.045788534
0.007635007 0.014621481 0.006695861 0.009085837 -0.020670727 0.02139241 -0.009603849 -0.030140394
-0.0119413175 -0.0054287836 -0.02403912 0.0028456945 -0.04015527 -0.018232798 -0.00737269 0.031715848
-0.035847463 -0.01011476 -0.007624223 -0.026979959 -0.008714792 0.0025315394 0.010365197 -0.022746155
0.004378234 -0.018249419 -0.021685837 -0.025613463 0.017808275 -0.019428644 -0.012852494 -0.004039669
-0.004658773 0.00041302358 -0.013307959 -0.00131096 0.009774278 0.024460735 -0.008895318 -0.021944435
-0.019725885 0.0026821129 0.023394542 -0.01936195 -0.008571645 -0.0026604936 0.014664837 -0.0008778599
-0.022940714 0.015670488 -0.014933456 0.0067815976 -0.010192517 -0.018665072 -0.01099991 4.4292356e-05
0.022555053 -0.004824272 -0.019749923 -0.009881498 -0.023995372 0.043714926 -0.0012517128 -0.046354752
-0.015073968 -0.02392068 0.005250921 -0.01900489 -0.02030025 -0.023183145 0.0067675686 0.0007294734

network_body._body_endoder.seq_layers.4.weight f4 [256, 256]
00000000: a34b 093d 95af 81bd cfab 393b 3766 883e
00000010: bd3c 4cbc 841e 2cbd dee6 453d 879c 04be
00000020: b21d 5ebd 8241 00bd 4191 ca3c 7273 963d
00000030: 1a59 3bbc 1081 8ebd f76e 5e3d 8c7f 963b
00000040: cf6e 8dbd a723 b7bd 011c 043d b3f0 78bb
00000050: 3a9a 1f3d ebdb 3ebd 06a5 b93d 0d36 81bd
00000060: 21b1 20bd ca52 10bd 41e3 933c 3c37 21bd
00000070: 1217 113d 76dd 1ebc 4f92 f8bc 05cf 1b3d
00000080: 250e 833c b25c 1f3d cbd5 143d 7dd5 12bd
00000090: b7dd 99bc a76b a33d 4222 eabd 9584 ea3d
000000a0: bb36 78bd a586 183e 8a17 43be 6000 643d
000000b0: f9d6 743d 1f12 313d eba4 97bd d3f0 973d
000000c0: 84df 8a3d 6fad b83d f660 cfbd 9899 153e
000000d0: 3f6d b33d 99dc 78bc dd3d 65be 0a09 f5bc
000000e0: cafd b83c 9637 993c 7016 1d3c 1d3e 173e
000000f0: 4f57 b4bc 1a94 9d3b a916 023d c2b9 30bd
00000100: 0f9e 2f3d 453c 333d d8ad cdbd a804 20bd
00000110: 7078 afbc 434f 8abc c0ac c7bc 378d fe3d
00000120: ee37 7ebd 2a2e 65bd c59a afbd 04a9 0d3e
00000130: d47f d0bc 6fd2 bebd 24f5 a13d bf5d d53d
00000140: a95d e93c c45a e43d e2af 3f3d 1848 16bd
00000150: 8fbe 363d b799 20bb c35f 673d e5b5 76bd
00000160: 5558 593e cd96 353c 9783 503d 02e3 5fbb
00000170: 3981 e6bd cd7e 86bd 68ee 0ebb 9cc8 4a3c
00000180: af5f 7cbd 6096 533d ab42 ef3b a60b 2cbd
00000190: e56a d6bc c323 dd3d dcdf 65bc 7297 943d
000001a0: 7a21 bbbd 411d 65be f8a4 893d 8848 d2bc
000001b0: 3996 e73d 6260 afbd 9055 86bc 866f b53c
000001c0: cf70 dbbd 3728 05bd 677e 2ab9 4ffe 823d
000001d0: edd3 2bbd ab16 febb 481a 91bd 044b da3d
000001e0: 94d6 9cbc cec6 093d 059c 98bb 2d6b 643d
000001f0: 611f cdbc e611 1bbd fbf2 56bc b3cb af3d
00000200: 712d 85bc 7898 29be 581c 4cbd 5e70 08bd
00000210: ccef 6bbd 2349 4bbd b601 43be 4289 bcbd
00000220: 008d 223e 6822 a63d cd4b c0ba 3a10 623c
00000230: 3917 e13a f7e7 90bd d63c 5b3d 360c 7ebd
00000240: 9cd0 973c 371f 743d 618c e1bc 37ae bc3d
00000250: d7bf f73c 5440 afbd a71c 0cbd 46c5 413c
00000260: 1608 d9bc 2954 bbbd 1686 04bc ff19 16be
00000270: 5403 f0bd 6c54 75bd 969c 553c df22 363e
00000280: 5105 35bd c742 633d dc25 533d 2622 94bd
00000290: 3186 79bd bc22 92bc d2f1 793d f4df b4bd
000002a0: b0c8 65bc 9565 9fbd bb78 64bd 7032 0abe
000002b0: 34a3 b73d b3a7 93bc d232 dc3a d80b 043d
000002c0: dad3 69bd 8833 17be 3e71 08be e1c6 ac3a
000002d0: 4871 84bd d8b7 d03a 86d5 ba3c 8cfc f1bb
000002e0: 1421 15bd ab17 053d dae3 3fbd f7b2 333d
000002f0: 9b0f 8b3c b170 df3c 9e36 e23d 5a9e 623b
00000300: b66f 5cbe d5f3 20be ef63 4e3c 9221 99bd
00000310: d2a8 58bd 98ef 30be 0a8b 1cbd b77b 88bd
00000320: 5389 87bd 3af4 beba 39e0 4abe b833 45bd
00000330: d525 0abd 99d0 80ba eadf 603d 6238 823d
00000340: f0a0 56bc 89f5 503d 7255 4ebe 33dd a4bd
00000350: 8edb dcba 334a bf3d 0f29 3f3c fdbe 32bd
00000360: 3440 0cbe 8999 c13d 0852 393d fd2e d13c
00000370: bc46 1d3d 4bad 21be 686a 813d fc1c 6ebd
00000380: f194 d03b 84d5 bebd bde3 a5bc 34ed abbd
00000390: 9f46 ae3c 95ff 763d 3151 513d 7fe2 993d
000003a0: c846 7d3d bcd3 fcbc 22d8 14be 86df 46bd
000003b0: 6326 9d3c b660 283e 9936 0b3c 2f10 d6bb
000003c0: 6071 c43d e5fb 1d3e 2aee babd 1fc4 053d
000003d0: a6b0 393c e7f0 98bd 44c2 fd3c 3ba4 db3d
000003e0: 8041 91bd 9672 733c 64f8 1fbd 5e05 a23d
000003f0: a14a 92bd ac46 1d3c d385 f93c d628 e43b
0.0335194 -0.06332318 0.0028331166 0.26640484 -0.012465653 -0.04202129 0.048315875 -0.12950335
-0.05422754 -0.031312473 0.024727466 0.07346238 -0.011434818 -0.069582105 0.054305043 0.0045928415
-0.06905901 -0.08942347 0.03225327 -0.0037985265 0.03896544 -0.04659645 0.09064679 -0.063091375
-0.039231423 -0.035235204 0.018052699 -0.039359316 0.035422392 -0.009696355 -0.030343203 0.038039226
0.015997956 0.03890676 0.0363367 -0.03584813 -0.01878248 0.079795174 -0.114323154 0.11451069
-0.06059907 0.14895113 -0.19051948 0.05566442 0.059775326 0.043230172 -0.074045025 0.074189804
0.067809135 0.09017455 -0.10125916 0.14609373 0.087610714 -0.015189313 -0.2238688 -0.029911537
0.022581954 0.018703263 0.009587869 0.14769788 -0.022014288 0.004808915 0.03175989 -0.043145902
0.042875346 0.04375865 -0.10042924 -0.03906694 -0.021419734 -0.016883498 -0.024374366 0.12429278
-0.062065057 -0.05595223 -0.08574442 0.13834006 -0.025451578 -0.09317481 0.07908085 0.10418271
0.028487043 0.11150125 0.046798594 -0.036689848 0.044615325 -0.0024505684 0.05648781 -0.060232062
0.21225102 0.011083317 0.050906744 -0.0034162407 -0.11255116 -0.06567154 -0.0021809582 0.012376931
-0.06161469 0.05165708 0.0073016486 -0.042003296 -0.026174018 0.10797837 -0.014030423 0.072554484
-0.091372445 -0.2237444 0.067209184 -0.025669351 0.113079496 -0.085633054 -0.016398221 0.022147905
-0.10714876 -0.032509055 -0.00016259552 0.06396162 -0.041950155 -0.007754167 -0.07085091 0.10658839
-0.019145288 0.03363686 -0.004657271 0.055766273 -0.025039377 -0.037858866 -0.0131194545 0.085837744
-0.01625702 -0.16562068 -0.04983172 -0.033310287 -0.057601735 -0.049630295 -0.19043621 -0.09205867
0.158741 0.08112031 -0.0014671028 0.013797814 0.0017173059 -0.07075494 0.053524815 -0.062023364
0.01853209 0.05960008 -0.027532758 0.09212916 0.030242844 -0.085571915 -0.034207013 0.011826819
-0.026493113 -0.09146912 -0.008088609 -0.14658354 -0.11719385 -0.059894964 0.013037821 0.1778674
-0.044194523 0.055483606 0.051549777 -0.07233076 -0.06091899 -0.017838828 0.061021633 -0.08831778
-0.014024898 -0.07783047 -0.0557792 -0.13495803 0.089666754 -0.018024301 0.0016799814 0.032237858
-0.057086803 -0.14765751 -0.13324448 0.0013181829 -0.06466919 0.001592393 0.022806894 -0.0073848423
-0.0364085 0.032493275 -0.046848156 0.043871846 0.016975215 0.027275415 0.11045574 0.0034579248
-0.2152699 -0.15718015 0.012597068 -0.07477106 -0.052895375 -0.17278898 -0.038218535 -0.06664222
-0.066179894 -0.0014568635 -0.19812097 -0.048145026 -0.033727486 -0.0009827792 0.05490104 0.063584104
-0.013099894 0.05101541 -0.20149782 -0.08050003 -0.00168501 0.09340324 0.011667504 -0.043639172
-0.13696367 0.09453113 0.045244247 0.025535101 0.038397536 -0.15788762 0.063191235 -0.05813311
0.0063654114 -0.093180686 -0.020250196 -0.08394852 0.02127391 0.060302336 0.05110282 0.07513904
0.06183508 -0.030862682 -0.14535573 -0.048553012 0.019183343 0.16443142 0.008496904 -0.006532691
0.09591937 0.15428121 -0.091274574 0.03265774 0.01133362 -0.074678235 0.030976422 0.10724684
-0.07092571 0.014858862 -0.039055243 0.0791118 -0.071431406 0.009599369 0.03045932 0.006962876

network_body.observation_encoder.processors.0.normalizer.running_mean f4 [25]
00000000: 0000 0000 2de6 903d 790d 4b3c 9c81 9b3e
00000010: e133 2e3f 0000 0000 1d20 863d 25c9 ab3b
00000020: 4a6f b63e 126c 3a3f 0000 0000 aa7c f63d
00000030: 7f8d 763b 5f5c bf3e 0520 493f 0000 0000
00000040: a423 403d ef25 2539 f962 a03e d770 283f
00000050: 0000 0000 a423 403d ef25 2539 f962 a03e
00000060: d770 283f
0.0 0.070751525 0.012393349 0.30372322 0.6804791 0.0 0.06549094 0.005242484
0.35631782 0.7282115 0.0 0.120354965 0.003762096 0.3737516 0.7856448 0.0
0.04690899 0.00015749758 0.3132551 0.6579718 0.0 0.04690899 0.00015749758 0.3132551
0.6579718

network_body.observation_encoder.processors.1.normalizer.running_mean f4 [25]
00000000: 0000 0000 338b 093e b061 b53d 56b2 b63d
00000010: 4032 f43e 0000 0000 2cac 143e e170 153d
00000020: dbb6 c33d afc3 f43e 0000 0000 7b94 ef3d
00000030: c392 f73d 7108 c53d 44ff f63e 0000 0000
00000040: 2e1e 0a3e 3227 013c 2a48 ed3d 5b36 023f
00000050: 0000 0000 4780 ec3d 6052 c13d e8d1 ed3d
00000060: f2f0 023f
0.0 0.13432007 0.08856523 0.08920734 0.47694588 0.0 0.14518803 0.036484603
0.09556361 0.47805545 0.0 0.11698242 0.120885395 0.09620751 0.48241627 0.0
0.13488075 0.00788288 0.1158603 0.5086419 0.0 0.115479045 0.0943954 0.11612302
0.51148903
