Assets/Training/results/Run 2/DroneBehavior/DroneBehavior-3499755.onnx (onnx, 393309 bytes, 7 tensors)

action_model._continuous_distribution.log_sigma f4 [1, 3]
0.0029262211 -0.0044302326 0.009942761
00000000: d8c5 3f3b 7c2b 91bb f6e6 223c

action_model._continuous_distribution.mu.bias f4 [3]
0.0012016428 -0.0011113533 0.002609748
00000000: 7180 9d3a d4aa 91ba 4e08 2b3b

action_model._continuous_distribution.mu.weight f4 [3, 256]
-0.010601176 0.009611667 -5.9877046e-05 0.0061840755 0.0010526148 0.0012819851 0.017131679 0.016283516
0.011326681 0.0061717746 -0.00052840443 0.013076649 -0.021110578 -0.009107238 -0.0102627715 0.00087364303
0.018606577 -0.0028586893 0.011692783 -0.0033436809 0.006595016 -0.030353105 0.014582089 0.0132189775
-0.011439726 0.010440357 0.00060202146 -0.020652508 0.005742052 -0.018280905 -0.011513414 -0.009449443
-0.009914837 -0.00063719746 -0.01244663 0.003729105 -0.012784978 -0.0041217417 -0.010035297 0.01876317
-0.017358528 -0.0005575874 -0.0022251704 0.0119824745 -0.016044723 -0.018826772 0.006986364 -0.0049948683
-0.012011098 -0.009794882 0.018243045 -0.00408763 0.010999086 -0.03661298 0.015438134 -0.0024270942
-0.016682161 -0.008859867 -0.009559939 0.009607204 -0.011597553 -0.012023515 -0.0022247743 -0.004531997
-0.002734995 -0.02353382 -0.009930665 -0.0077348785 -0.011417013 -0.008512753 -0.02281626 -0.008573042
0.0017824207 0.0018452778 -0.009598133 0.0005606917 0.006685101 0.00751841 -0.009728338 0.011769064
0.001951115 0.0041876505 0.0011504601 0.00926771 -0.0012357159 0.011890478 0.0028912558 -0.0060136514
0.012791863 0.0068664453 0.009093698 0.005757548 -0.016882194 0.002086196 -0.017166315 0.0009227949
-0.0119965775 -0.019072928 0.016574657 0.015806403 -0.021720506 0.0046665706 -0.012710937 0.010891027
-0.017724652 -0.017573033 0.01086611 0.008663426 -0.004245862 0.007281453 0.0081444075 0.0012883776
-0.017062573 -0.01281969 0.0071279267 0.014009778 0.00475175 -0.014964065 -0.0029431458 -0.009345068
-0.018640902 0.013225561 0.0032374302 0.005267097 0.0036825791 0.0065195346 0.0075308583 0.012994529
-0.025419516 0.011848108 0.003944893 -0.016820414 0.00011211236 -0.012323253 0.013019147 -0.014728379
0.029759604 -0.034969755 0.0037613877 0.017862368 0.023428684 0.004308694 -0.0021714862 -0.004352474
-0.022014283 0.021899056 -0.004103869 -0.014782841 -0.005817641 -0.0019290413 0.021759752 -0.0008234776
-0.013924097 0.005983652 0.01712478 -0.0050296034 -0.0075479844 -0.024512114 -0.019530216 0.011912601
0.0038583428 -0.020107934 -0.0145968 0.0010085753 -0.012352284 0.009391627 0.00021784494 -0.019572333
0.010844634 -0.017194765 0.01701171 0.025995718 0.011646651 0.022942418 -0.007905069 0.005496732
-0.011239944 0.004546947 0.02693409 0.009810121 -0.002261899 -0.019136617 -0.0002822019 0.031605672
0.0073275026 -0.005793221 -0.0034387487 0.0030133137 -0.012421674 0.026311168 0.005151209 -0.008323166
0.00011041212 -0.00828427 -0.004977819 -0.00433237 0.0059758145 0.001193633 -0.018547028 0.0042171176
-0.011300941 -0.023216067 -0.0019393056 0.0075842617 -0.018229585 0.0036670978 -0.0069693206 -0.0017497458
-0.007873291 -0.00065752823 0.017888779 -0.005849668 0.014725557 0.017618356 -0.009985469 0.010068435
-0.012889248 0.009538492 -0.005718495 0.00056122174 -0.008530776 -0.00056422903 -0.015042274 0.0012828944
0.003699237 -0.026055926 0.0066166036 0.0004895196 0.035283055 0.007944731 0.005028719 -0.000987348
0.006523366 -0.016551811 0.010505014 -0.011384344 0.008126243 0.007901161 0.008050112 0.0073558576
-0.007038357 -0.0062349793 0.018716695 -0.0041709626 0.002819113 0.008281201 -0.013288507 0.0060343635
-0.0022788886 0.008940719 0.01027 0.0047677713 -0.0021973413 -0.01883738 0.0147714 -0.0062098317
00000000: 8eb0 2dbc 417a 1d3c 7d24 7bb8 c9a3 ca3b
00000010: e4f7 893a 4808 a83a bc57 8c3c 0265 853c
00000020: 8b93 393c 993c ca3b 9f84 0aba 713f 563c
00000030: 17f0 acbc 8636 15bc 2f25 28bc 3105 653a
00000040: d26c 983c d958 3bbb 1693 3f3c a821 5bbb
00000050: 011b d83b 13a7 f8bc b7e9 6e3c 6994 583c
00000060: b06d 3bbc 080e 2b3c fad0 1d3a 732f a9bc
00000070: d327 bc3b d6c1 95bc c2a2 3cbc d6d1 1abc
00000080: d771 22bc 9909 27ba f3ec 4bbc 0064 743b
00000090: 1678 51bc ad0f 87bb 166b 24bc 38b5 993c
000000a0: 7933 8ebc 0f2b 12ba 2ad4 11bb 2452 443c
000000b0: 3970 83bc 9a3a 9abc deed e43b feab a3bb
000000c0: 32ca 44bc b67a 20bc 7072 953c 87f1 85bb
000000d0: 8335 343c 7ef7 15bd 3af0 7c3c e20f 1fbb
000000e0: 07a9 88bc fa28 11bc 4aa1 1cbc 8967 1d3c
000000f0: aa03 3ebc 47fe 44bc 85cd 11bb 2581 94bb
00000100: 9a3d 33bb ffc9 c0bc 3ab4 22bc dd74 fdbb
00000110: 6c0e 3bbc 1379 0bbc 2ae9 babc f275 0cbc
00000120: 1da0 e93a 40dd f13a 7d41 1dbc 62fb 123a
00000130: b10e db3b ff5c f63b 9b63 1fbc 08d3 403c
00000140: 8ebc ff3a 8f38 893b 09cb 963a 98d7 173c
00000150: bff7 a1ba 48d0 423c 397b 3d3b 2a0e c5bb
00000160: f694 513c ebff e03b bcfd 143c d0a9 bc3b
00000170: 874c 8abc 90b8 083b 5fa0 8cbc b8e7 713a
00000180: 4b8d 44bc d43e 9cbc 93c7 873c 6e7c 813c
00000190: 34ef b1bc 08ea 983b 8941 50bc 4770 323c
000001a0: 4a33 91bc 52f5 8fbc c507 323c 0bf1 0d3c
000001b0: df20 8bbb 4199 ee3b 1f70 053c c7de a83a
000001c0: cfc6 8bbc ad09 52bc 6291 e93b 4589 653c
000001d0: 91b4 9b3b d62b 75bc cbe1 40bb 0e1c 19bc
000001e0: ceb4 98bc 06b0 583c 112b 543b 9d97 ac3b
000001f0: 6d57 713b d2a1 d53b 6bc5 f63b 01e7 543c
00000200: 973c d0bc 911e 423c 2944 813b f7ca 89bc
00000210: dd1d eb38 78e7 49bc 434e 553c 4d4f 71bc
00000220: 6aca f33c 723c 0fbd 9d81 763b 1a54 923c
00000230: 83ed bf3c f22f 8d3b 7e4f 0ebb 339f 8ebb
00000240: 4c57 b4bc a665 b33c c079 86bb bb33 72bc
00000250: e9a1 bebb e3d7 fcba 8241 b23c a5de 57ba
00000260: e521 64bc 8312 c43b 4449 8c3c 5fcf a4bb
00000270: 1555 f7bb a1cd c8bc d5fd 9fbc 122d 433c
00000280: 40dc 7c3b 65b9 a4bc 6b27 6fbc 2c32 843a
00000290: 3c61 4abc 57df 193c 4e6d 6439 2856 a0bc
000002a0: b1ad 313c 09dc 8cbc 245c 8b3c f9f4 d43c
000002b0: 98d1 3e3c bdf1 bb3c 4384 01bc ee1d b43b
000002c0: be27 38bc 8efe 943b e1a4 dc3c a1ba 203c
000002d0: 5e3c 14bb 65c4 9cbc 7ff4 93b9 f374 013d
000002e0: 8c1b f03b 0fd5 bdbb a15c 61bb 047b 453b
000002f0: 4784 4bbc 858a d73c 79cb a83b e35d 08bc
00000300: 0e8d e738 bfba 07bc f91c a3bb 8ef6 8dbb
00000310: c4d0 c33b ad73 9c3a f0ef 97bc bf2f 8a3b
00000320: 9527 39bc 9f2f bebc 4c30 feba 6685 f83b
00000330: 3656 95bc b153 703b e65e e4bb ba57 e5ba
00000340: fafe 00bc f95d 2cba 7d8b 923c 92ae bfbb
00000350: 7643 713c 5f54 903c 189a 23bc 14f6 243c
00000360: 6d2d 53bc 5647 1c3c 3762 bbbb f41e 133a
00000370: abc4 0bbc c5e8 13ba df73 76bc cb26 a83a
00000380: e66e 723b 3d73 d5bc 18d0 d83b 1b53 003a
00000390: f784 103d 9e2a 023c f4c7 a43b e769 81ba
000003a0: f6c1 d53b aa97 87bc 391d 2c3c 6685 3abc
000003b0: ef23 053c df73 013c 9ee4 033c 6809 f13b
000003c0: 05a2 e6bb cc4e ccbb c153 993c 92ac 88bb
000003d0: dec0 383b e0ad 073c 0ab8 59bc e9bb c53b
000003e0: 6859 15bb 187c 123c 8143 283c f73a 9c3b
000003f0: 4501 10bb d950 9abc be03 723c d87b cbbb

network_body._body_endoder.seq_layers.0.bias f4 [256]
-0.007950067 0.0068191416 -0.0033044352 -0.004616994 0.006458953 -0.0024506762 -0.00699049 0.005034036
-0.0046075042 0.003569116 -0.0086831935 -0.0007713639 -3.28864e-06 -0.0017288069 -0.021228699 0.013335449
-0.0020762577 -0.010765425 -0.0010341477 -0.00028155398 -0.0055698985 -0.0016420686 0.0023374776 0.0011913242
0.004562721 0.0012558417 4.0307375e-05 0.0039587663 -0.012357863 0.0004289464 -0.011035817 0.00051271275
0.0017977995 0.0015100501 -0.0014765443 0.01874137 -0.0004614842 -0.0005551061 -0.006172153 0.0024632749
-0.00044425696 -0.0035704183 -0.0027125205 -0.0017112087 -0.021656161 0.012539273 0.0017511593 0.013149865
-0.0013132151 0.0012014623 -0.002306306 0.0002466447 0.0021598064 -0.00027796288 0.0025189852 -0.002026312
0.00028011834 -0.018932281 0.01152282 -0.008265315 -0.0018599777 0.00025997622 0.0020384358 -0.0056463643
0.0012993279 -0.002009167 -0.012934162 -0.0026610272 -0.0011113813 -0.0051978575 -0.0058872974 -0.0066446248
-0.00333349 -0.0010581978 0.0074538533 -0.0050800256 -0.00034396755 0.0017866323 0.0040372224 -0.0033044666
0.0037970406 0.0029281038 -0.01650811 -0.0019417384 -0.0031904264 0.0026175722 0.004793216 -0.008271372
-0.0023698276 -0.0033785368 0.0012354247 -0.0045910333 0.014247155 -0.0017209767 0.004662738 -0.000775506
-0.018543236 0.00032585012 -0.0032010067 -0.0011759655 0.0005675122 0.0024069136 0.004569609 -0.00086993945
0.00034361376 0.0005768545 0.00010023006 0.002860352 -0.0006447595 0.0105662625 0.0014739083 0.010257752
0.0004113724 -0.0046210755 -0.0025302656 0.0043575885 -0.0022179936 -0.0016490802 -0.0004220442 0.010081919
0.007464001 -0.0013138948 -0.02023858 -0.0035600916 -2.8868797e-05 -0.0016791617 0.0005235616 0.010691541
-0.0076617245 -0.0071108807 0.00417174 -0.0011641987 0.0036110384 0.0015911706 -0.0018805898 -0.0053626387
6.631049e-05 -0.00018242231 -0.008559296 -0.004896698 -0.00021931321 0.008884813 -0.0068180216 -0.01045773
-0.0073351744 -0.0001469888 0.000119032535 0.0027323738 0.00029475777 -0.0019714609 -0.0030291413 -0.0027699717
0.0019515341 -0.007821887 -0.0032840078 0.0047742566 -0.013215034 -0.0016805294 -0.003070081 0.0021550395
-0.0057444414 0.0051353625 0.0061361035 -0.0033150152 -0.0014517563 -0.0078100637 0.00037646107 0.005480182
-0.0019039403 -0.0018245933 -0.025048338 -0.017260622 -0.0042917696 0.00070988864 0.00037471985 -0.004555969
0.016852796 -0.005027074 0.004662557 -0.0025442834 0.0024513542 -0.011143083 0.0026831215 0.0017528058
-0.0099753495 0.003670112 0.0012875119 -0.015522098 -0.000981396 -0.00254577 0.0026014664 -0.004099909
0.004323483 -0.001279985 0.001614252 0.0108190505 0.0019622734 0.003447864 -0.004408616 0.0019519354
0.01184195 0.000636525 0.0005663059 -0.010234791 0.0008418983 -0.0016620691 -0.0012814353 0.006959921
-0.0050315848 -0.002933038 -0.0008408383 -0.0024714984 -0.0041498 -0.0015203115 -0.0049357023 -0.0048381384
-0.010195062 -0.011641216 0.0014059684 -0.0024695247 0.0082254475 0.00054419483 0.006653224 0.0015752518
0.0029426485 0.0011985517 -0.015633333 0.0017906101 -0.0063261907 0.0024456768 -0.007723382 -0.0005848882
-0.0037620133 -0.004056979 0.00064309797 -0.006847667 0.0035636942 0.0008765041 -0.00031124303 -0.0057722186
0.002818462 0.014307566 0.007449796 0.0034588866 0.010046288 -0.0075642886 -0.0021132808 0.013988493
-0.0060804496 -0.0013829693 -0.00054530986 -0.010503926 -0.00022219156 0.01299961 -0.0025833864 0.0011247781
00000000: ff40 02bc 1b73 df3b 398f 58bb 274a 97bb
00000010: a0a5 d33b 869b 20bb 7b10 e5bb 8ef4 a43b
00000020: 8cfa 96bb d4e7 693b f443 0ebc 5b35 4aba
00000030: 68b2 5cb6 2299 e2ba cfe7 adbc ed7c 5a3c
00000040: d311 08bb 7761 30bc 3d8c 87ba 899d 93b9
00000050: b283 b6bb ae3a d7ba 5e30 193b 3526 9c3a
00000060: e182 953b 0e9b a43a b70f 2938 8ab8 813b
00000070: a278 4abc 36e4 e039 92cf 34bc 9267 063a
00000080: 24a4 eb3a e0ec c53a 9b88 c1ba 8087 993c
00000090: 5cf3 f1b9 8a84 11ba c63f cabb e56e 213b
000000a0: 29eb e8b9 aefd 69bb 8bc4 31bb a34a e0ba
000000b0: 4368 b1bc 8671 4d3c 2887 e53a 8872 573c
000000c0: 3020 acba 637a 9d3a 6525 17bb 1750 8139
000000d0: 8a8b 0d3b 8cbb 91b9 8f15 253b e0cb 04bb
000000e0: d9dc 9239 df17 9bbc 36ca 3c3c 3e6b 07bc
000000f0: 7fca f3ba 6b4d 8839 4797 053b 2305 b9bb
00000100: 364e aa3a 3bac 03bb cfe9 53bc a164 2ebb
00000110: c5ab 91ba ca52 aabb 3bea c0bb 27bb d9bb
00000120: af76 5abb 3ab3 8aba 743f f43b 5876 a6bb
00000130: 8b56 b4b9 6f2d ea3a ad4a 843b c08f 58bb
00000140: c5d7 783b 6ee5 3f3b 043c 87bc ee81 feba
00000150: 7916 51bb 938b 2b3b 6910 9d3b a684 07bc
00000160: 1c4f 1bbb 716a 5dbb f9ed a13a 6170 96bb
00000170: e66c 693c 6592 e1ba e2c9 983b 544b 4bba
00000180: fce7 97bc ddd6 aa39 fbc7 51bb db22 9aba
00000190: 19c5 143a 4fbd 1d3b a9bc 953b a60c 64ba
000001a0: 0f27 b439 0d38 173a 9b32 d238 be74 3b3b
000001b0: 1405 29ba 1e1e 2d3c 2830 c13a 2110 283c
000001c0: 78ad d739 646c 97bb d0d2 25bb 1aca 8e3b
000001d0: c25b 11bb f325 d8ba d045 ddb9 a22e 253c
000001e0: 9494 f43b fe36 acba 61cb a5bc 6d50 69bb
000001f0: 452b f2b7 5117 dcba a03f 093a 932b 2f3c
00000200: 340f fbbb 6402 e9bb 17b3 883b 0798 98ba
00000210: 2ca7 6c3b d38e d03a 1f7e f6ba 13b9 afbb
00000220: 2c10 8b38 9e48 3fb9 4a3c 0cbc 7b74 a0bb
00000230: 71f7 65b9 9b91 113c b669 dfbb e656 2bbc
00000240: e75b f0bb 0121 1ab9 1ba1 f938 a011 333b
00000250: b889 9a39 a033 01bb 8f84 46bb 6a88 35bb
00000260: 9eca ff3a 5f27 00bc 8238 57bb 5e71 9c3b
00000270: df83 58bc 3645 dcba 6933 49bb 903b 0d3b
00000280: de3b bcbb 8b46 a83b 5e11 c93b ba40 59bb
00000290: dc48 beba 90eb ffbb c05f c539 1993 b33b
000002a0: a38d f9ba 3127 efba 2c32 cdbc 2666 8dbc
000002b0: f9a1 8cbb d217 3a3a 0c76 c439 3d4a 95bb
000002c0: e00e 8a3c 27ba a4bb 5dc8 983b febd 26bb
000002d0: e6a6 203b 7a91 36bc 4fd7 2f3b 67be e53a
000002e0: a66f 23bc 4386 703b bbc1 a83a 6650 7ebc
000002f0: 2fa2 80ba efd6 26bb 5d7d 2a3b 8858 86bb
00000300: 01ac 8d3b 2bc5 a7ba 4f95 d33a 6342 313c
00000310: 7c99 003b 8ff5 613b 2776 90bb 15d8 ff3a
00000320: bd04 423c 78dc 263a 2574 143a d3af 27bc
00000330: d7b2 5c3a c9d9 d9ba d5f5 a7ba 0d10 e43b
00000340: fedf a4bb 3638 40bb b46b 5cba ddf8 21bb
00000350: 0cfb 87bb 3045 c7ba acbb a1bb 3f89 9ebb
00000360: 3009 27bc cdba 3ebc 7948 b83a c0d7 21bb
00000370: 07c4 063c 4ca8 0e3a 4a03 da3b ae78 ce3a
00000380: 73d9 403b b918 9d3a 7a11 80bc e8b2 ea3a
00000390: ef4b cfbb a647 203b 6d14 fdbb 2f53 19ba
000003a0: 1c8c 76bb 68f0 84bb 9395 283a 6562 e0bb
000003b0: de8c 693b 32c5 653a 552e a3b9 e124 bdbb
000003c0: f2b5 383b 486a 6a3c 6b1d f43b 7dae 623b
000003d0: 3099 243c dadd f7bb f87e 0abb fe2f 653c
000003e0: 823e c7bb c044 b5ba 20f3 0eba a918 2cbc
000003f0: 18fc 68b9 51fc 543c 084e 29bb 4a6d 933a

network_body._body_endoder.seq_layers.0.weight f4 [256, 121]
0.06790054 0.06331757 0.0074878 -0.11721531 -0.11376631 -0.025757812 -0.009871031 0.11324909
-0.0010277627 -0.27218208 -0.041834675 -0.112551086 0.12522085 -0.07526265 -0.15377682 -0.024958
0.13964595 -0.04690469 0.016701331 0.009927612 -0.10803215 -0.05791425 0.15949553 -0.063733526
-0.051207244 0.12444439 -0.15003584 -0.03524302 -0.029607339 -0.06471648 0.012486063 0.037052907
-0.1364893 -0.017279066 0.107523315 -0.0131345205 -0.13032657 0.08363675 0.027005445 0.013974245
0.052757487 -0.15934166 0.048864778 -0.120440155 -0.057598084 -0.0074601704 -0.05335499 0.010103973
-0.13637336 -0.13406174 -0.08232637 0.12677523 -0.07230634 -0.013428533 -0.03344729 -0.0047445223
-0.07004631 -0.020118443 0.07630972 -0.04382813 0.0743801 -0.19076295 0.07398149 -0.11039233
-0.049375474 0.052737854 0.07767399 -0.049353167 0.06603673 -0.080779895 -0.029220603 0.016534535
0.0018379736 0.14719243 0.14446123 -0.014975518 0.008789943 -0.043258768 -0.20770523 -0.1629207
0.23516953 -0.026696112 -0.10664422 0.024067879 -0.037414216 0.057871543 0.0466723 0.05673674
-0.115137205 0.086211905 0.041493297 -0.10346854 -0.11397387 -0.18950666 0.06472856 -0.03170651
0.030542297 -0.20924632 0.03018161 -0.15630697 -0.020617682 -0.025005637 -0.07534381 -0.062105358
0.03600135 -0.028149873 0.0017947835 -0.14777991 -0.14646916 0.05361323 0.084190294 0.058915958
-0.0714824 0.07811333 0.07015545 -0.04309616 0.075202994 0.11139511 -0.0857279 0.21935417
-0.15467325 0.085795514 0.070053354 -0.12284297 0.04868836 0.030883184 0.09242952 0.08017006
-0.1257269 -0.040657986 -0.052101903 -0.04918841 0.0637626 0.103630856 -0.04618187 0.091747425
-0.027127083 -0.04371962 0.0351739 -0.05636011 0.0647566 -0.06434013 0.05134897 -0.037616074
0.09691142 0.0765703 -0.13465452 0.0153869605 0.058487527 0.020563992 0.086030826 -0.042085182
-0.00085630117 0.20047681 -0.06426074 -0.06669517 -0.10816025 -0.13912317 -0.0012760799 0.21205881
0.113151275 -0.047360692 0.104890905 -0.084761165 0.16101532 -0.06826781 -0.011866676 0.01601019
0.08822547 0.007299585 -0.09863168 -0.070662476 -0.020296548 -0.019522173 0.075228 0.039030008
-0.013914068 -0.21681564 -0.06584293 0.15953746 0.06597352 -0.035779092 0.054179117 0.0009778937
-0.070013955 0.18742958 -0.019270876 -0.038668405 -0.14237843 -0.010309439 0.026474725 -0.07907055
-0.04705927 -0.096073106 0.02672758 -0.17360848 0.046003927 0.09039582 -0.04779775 -0.067336395
-0.03070546 0.1621088 -0.044559907 -0.069668524 -0.045458633 0.12706053 0.028537607 -2.1461396e-05
0.08868629 0.035175685 0.066422835 0.092386186 0.04776576 -0.030086305 -0.021899352 0.062953204
0.025144314 0.02334589 -0.001208611 -0.13428102 0.0018379777 0.12851812 -0.04290837 -0.04874862
0.04761382 -0.1261574 -0.07515097 0.083922714 0.061232947 -0.0107580805 -0.0045525306 0.06988602
-0.01455332 0.047686845 0.07295214 0.12703209 -0.002930279 0.06290386 -0.043189507 0.08605258
-0.07983448 -0.08657572 -0.06835408 -0.16332878 -0.14997686 -0.0755627 -0.07827118 0.026538167
-0.025598167 0.12220547 -0.029593041 0.05795615 0.122010365 0.07713499 0.14069627 0.004417873
00000000: 700f 8b3d a4ac 813d 385c f53b 950e f0bd
00000010: 50fe e8bd 0c02 d3bc 1bba 21bc 24ef e73d
00000020: feb5 86ba 735b 8bbe d65a 2bbd 2f81 e6bd
00000030: e539 003e 4e23 9abd ac77 1dbe b874 ccbc
00000040: 59ff 0e3e 221f 40bd 3bd1 883c 6ca7 223c
00000050: f63f ddbd 7e37 6dbd cc52 233e b986 82bd
00000060: b0be 51bd b3dc fe3d ffa2 19be fc5a 10bd
00000070: 178b f2bc 138a 84bd 5892 4c3c cac4 173d
00000080: dac3 0bbe d48c 8dbc 2f35 dc3d 2c32 57bc
00000090: 5474 05be bf49 ab3d 863a dd3c 3bf4 643c
000000a0: 3c18 583d 762a 23be 6f26 483d 54a9 f6bd
000000b0: f8eb 6bbd 7274 f4bb c38a 5abd 228b 253c
000000c0: 75a5 0bbe 7b47 09be ba9a a8bd 5ed1 013e
000000d0: 5915 94bd 5a03 5cbc 0700 09bd f077 9bbb
000000e0: 7174 8fbd 6fcf a4bc 4548 9c3d 2085 33bd
000000f0: 9854 983d 5d57 43be 9c83 973d 6015 e2bd
00000100: f03d 4abd a603 583d 8a13 9f3d 8c26 4abd
00000110: 443e 873d ee6f a5bd 0c60 efbc 6f73 873c
00000120: 29e8 f03a 9db9 163e a5ed 133e e05b 75bc
00000130: b103 103c 1b30 31bd aeb0 54be afd4 26be
00000140: 48d0 703e ceb1 dabc 4968 dabd 002a c53c
00000150: a63f 19bd b60a 6d3d 742b 3f3d c964 683d
00000160: 0ecd ebbd de8f b03d e0f4 293d 50e7 d3bd
00000170: 226b e9bd 090e 42be 6890 843d afde 01bd
00000180: d733 fa3c ab44 56be 6c3f f73c ef0e 20be
00000190: 6ae6 a8bc 9fd8 ccbc db4d 9abd 3062 7ebd
000001a0: 2776 133d 909a e6bc f13e eb3a 9e53 17be
000001b0: 03fc 15be 8c99 5b3d f66b ac3d dc51 713d
000001c0: 5d65 92bd e2f9 9f3d a9ad 8f3d 9985 30bd
000001d0: 0704 9a3d 1f23 e43d 1c92 afbd 619e 603e
000001e0: aa62 1ebe 8fb5 af3d 2278 8f3d 1895 fbbd
000001f0: 726d 473d bbfe fc3c b04b bd3d 3330 a43d
00000200: 8dbe 00be fd88 26bd ce68 55bd c979 49bd
00000210: f795 823d 6a3c d43d 3329 3dbd 13e6 bb3d
00000220: 9e39 debc 5813 33bd 8212 103d dcd9 66bd
00000230: 1c9f 843d c2c4 83bd 4c53 523d 5013 1abd
00000240: 7f79 c63d e4d0 9c3d e0e2 09be 9719 7c3c
00000250: 9e90 6f3d d175 a83c ee30 b03d 8361 2cbd
00000260: 6679 60ba cb49 4d3e 239b 83bd 7a97 88bd
00000270: 1f83 ddbd 4e76 0ebe 2342 a7ba f225 593e
00000280: dbbb e73d 49fd 41bd 0bd1 d63d 4397 adbd
00000290: 33e1 243e fecf 8bbd 726c 42bc cd27 833c
000002a0: 8eaf b43d 5b31 ef3b 68ff c9bd 7db7 90bd
000002b0: f244 a6bc f7ec 9fbc 2311 9a3d eedd 1f3d
000002c0: d5f7 63bc eb04 5ebe a8d8 86bd ca5d 233e
000002d0: 201d 873d 198d 12bd ecea 5d3d ab2c 803a
000002e0: 7a63 8fbd 8aed 3f3e f5dd 9dbc c362 1ebd
000002f0: a7cb 11be ece8 28bc 86e1 d83c beef a1bd
00000300: 39c1 40bd fac1 c4bd ccf3 da3c 6cc6 31be
00000310: 9d6e 3c3d 7221 b93d 93c7 43bd aae7 89bd
00000320: 048a fbbc d9ff 253e 7384 36bd 5fae 8ebd
00000330: d532 3abd 281c 023e b3c7 e93c ff07 b4b7
00000340: 28a1 b53d 6114 103d b208 883d f834 bd3d
00000350: 08a6 433d 8e77 f6bc 4566 b3bc 9ced 803d
00000360: 73fb cd3c e13f bf3c 416a 9eba f780 09be
00000370: 4ce8 f03a 419a 033e b0c0 2fbd a2ac 47bd
00000380: b506 433d 682f 01be c0e8 99bd acdf ab3d
00000390: 66cf 7a3d a942 30bc 652d 95bb 6720 8f3d
000003a0: 0c71 6ebc 4853 433d ee67 953d b314 023e
000003b0: ec09 40bb bdd3 803d 7be7 30bd 563c b03d
000003c0: 4380 a3bd 9c4e b1bd 39fd 8bbd a93f 27be
000003d0: 8993 19be 9ec0 9abd a44c a0bd 9266 d93c
000003e0: 3fb3 d1bc dd46 fa3d 1b6d f2bc 6e63 6d3d
000003f0: 92e0 f93d f3f8 9d3d af12 103e cec3 903b

network_body._body_endoder.seq_layers.2.bias f4 [256]
0.0010758514 -0.00042436243 0.011890581 -0.00080121605 -0.00067030557 -0.0033798676 0.0067017246 0.00094666233
-0.0012339327 -9.0100344e-05 0.004223664 -0.0027849833 0.0010796756 -0.002731724 -4.9077666e-05 0.011149958
0.0018837793 -0.0031105077 -0.001252733 -0.0022845422 0.0015168157 0.002107342 -0.0017413851 0.00021288899
0.001134417 0.004632762 -0.0020132025 -0.014612992 0.00041363228 -0.0027707175 -0.00048825325 -4.0474257e-05
-0.0017354375 -0.004109853 4.5438337e-05 -0.0074002063 0.0008322897 -0.0045412853 -0.0187664 -0.00017340633
-0.008076263 0.001671353 0.009169295 0.003027974 -0.002606982 -0.00017038714 -0.007600312 -0.002762911
-0.0012851103 -0.009027291 0.0053811413 0.007813324 -0.0006558232 -0.00012845123 0.0011511153 -0.0030591362
0.010193794 -0.00439683 0.00011560467 -0.0042151716 -0.0009412906 -0.0022501666 -0.0034203904 0.0064042243
-0.013447008 -0.0018170243 -0.00018687476 0.0005234349 0.0004202996 -0.003848521 1.4387279e-05 -0.0004585295
-0.0017888778 -0.0042581866 -0.0024952337 0.009440104 -0.00030954607 0.0054546557 -0.0016094823 0.0015513613
-0.0006585491 0.011019508 0.0010521132 3.6780246e-05 0.010843512 -8.998641e-05 -0.0012862354 -0.010395592
0.0037793238 0.00036066116 -0.0020884867 0.0016563335 -0.0014137869 0.0001505571 -0.0023679698 -0.0130343065
0.008146945 -0.0025160278 0.0043611852 -0.0007736119 -0.0013666548 0.0059230584 -0.0006163543 0.0028990298
0.0007763873 -9.030977e-05 -0.0025563382 -0.0013139694 -0.0038113412 -0.0032302174 0.0035221435 -0.0004192514
0.0068551153 0.0027381948 -0.001230445 0.0045587867 -0.00015329028 -0.0019546833 -0.0024084775 -0.002289682
0.00032952736 0.0014570713 -0.008071063 -0.01520605 0.00076825276 0.0013826721 -1.4785862e-05 0.000865819
-0.0059366473 0.0009700249 0.0011114998 0.0072114067 0.004052279 -0.0023783348 0.0027995503 0.004661922
-0.005809251 0.0014055326 0.00068288913 -0.0025748264 0.0064440137 0.007855955 -0.0006434119 0.01623544
-0.0072897878 -0.00033373415 0.0116441455 -0.00086794037 0.0031450668 -0.0005572265 0.0026252067 0.0045458837
-0.0011852355 -0.0015438078 0.0019366404 0.0024544913 -0.0032309142 -0.0047241105 0.0027971559 0.0057576946
0.0016343633 0.0044129295 -0.0057596476 -0.003099524 0.007958149 -0.0020514189 -0.0028516059 -0.0016193494
-0.000879331 -0.0111918105 0.00888559 0.002088962 0.005182822 0.0027331833 -0.0024442289 -0.0026460546
-0.00349779 0.0024204806 0.0040027434 0.00081098167 -0.0023564042 -0.0011307674 -0.0033490676 -0.00092323206
-0.0004279729 -0.00077939854 0.008941356 -0.0001532141 -0.00027901313 0.00044048583 -0.0003151042 0.003027765
0.0025436843 -0.02351089 -0.0019194406 -0.0023697927 -0.002993191 0.0071445075 -8.351875e-05 0.0013567925
0.001094097 0.0013391189 0.0018270985 -0.0004929026 0.004714694 0.0011641588 -0.0005386358 -0.0033581073
-0.00944338 -4.0210827e-05 -0.00044422396 0.0038257176 -0.00074863527 0.0007167957 -0.0022498611 -0.00093539903
-0.0028214464 0.0015479876 -0.0024253223 -0.00048120442 -0.00032639332 -0.0011822211 -0.009917968 -0.0086075375
0.0063504656 3.6776833e-05 0.006967758 0.0025250653 0.003727633 -0.0033749766 -0.004744228 0.00011746525
0.000974296 -0.016734244 0.00470961 0.0007647949 -0.0057530375 -0.00076685334 0.019415358 0.0025683523
0.0014620331 0.0008313418 0.0038858617 -0.0012381027 0.004485016 -0.0011107528 -0.0035431415 0.0008534472
0.005288759 0.0018065048 -0.0006845725 0.001746883 0.002548637 0.0009487454 -0.0019472465 -0.007343365
00000000: 9503 8d3a f67c deb9 b6d0 423c b308 52ba
00000010: 72b7 2fba c580 5dbb 249a db3b 6f29 783a
00000020: e9bb a1ba 41f4 bcb8 a966 8a3b 4484 36bb
00000030: e783 8d3a b906 33bb bed8 4db8 50ae 363c
00000040: 25e9 f63a a9d9 4bbb bf32 a4ba 42b8 15bb
00000050: e4cf c63a 551b 0a3b 303f e4ba f43a 5f39
00000060: b8b0 943a 6dce 973b efef 03bb 556b 6fbc
00000070: c9dc d839 ed94 35bb 3efc ffb9 e7c2 29b8
00000080: 9f77 e3ba f2ab 86bb 0b95 3e38 6e7d f2bb
00000090: 042e 5a3a 10cf 94bb febb 99bc 68d4 35b9
000000a0: 4d52 04bc 4d11 db3a d03a 163c f970 463b
000000b0: e6d9 2abb f3a9 32b9 0a0c f9bb f411 35bb
000000c0: 2571 a8ba 34e7 13bc 4954 b03b 7503 003c
000000d0: 8deb 2bba ddb0 06b9 05e1 963a ca7b 48bb
000000e0: df03 273c 4913 90bb c970 f238 6c1f 8abb
000000f0: f1c0 76ba 8877 13bb a128 60bb 87da d13b
00000100: d750 5cbc 3829 eeba d0f3 43b9 1f37 093a
00000110: a85b dc39 7837 7cbb e560 7137 ca66 f0b9
00000120: c778 eaba 4288 8bbb 1387 23bb aaaa 1a3c
00000130: 924a a2b9 f8bc b23b 44f5 d2ba 0c57 cb3a
00000140: 7ba2 2cba 2b8b 343c 10e7 893a 7d44 1a38
00000150: fca8 313c 16b7 bcb8 e696 a8ba 4652 2abc
00000160: 88ae 773b 1f17 bd39 fede 08bb 5419 d93a
00000170: d14e b9ba ddde 1d39 f12f 1bbb d88d 55bc
00000180: c47a 053c f1e3 24bb 46e8 8e3b 37cc 4aba
00000190: 5321 b3ba 3716 c23b d692 21ba a6fd 3d3b
000001a0: 7886 4b3a b064 bdb8 3d88 27bb 7f39 acba
000001b0: b2c7 79bb 0eb2 53bb c3d3 663b f8ce dbb9
000001c0: e0a0 e03b 4973 333b e246 a1ba e061 953b
000001d0: 8cbc 20b9 251a 00bb 8cd7 1dbb 7d0e 16bb
000001e0: 6ac4 ac39 33fb be3a 7e3c 04bc cc22 79bc
000001f0: 9264 493a c73a b53a cb10 78b7 21f8 623a
00000200: 3588 c2bb 4549 7e3a bfaf 913a aa4d ec3b
00000210: fbc8 843b d6dd 1bbb a978 373b 09c3 983b
00000220: 885b bebb d939 b83a ea03 333a 6bbe 28bb
00000230: 4e28 d33b 43b6 003c a4aa 28ba 2f00 853c
00000240: 2cdf eebb 0af9 aeb9 16c7 3e3c 7e86 63ba
00000250: 771d 4e3b d612 12ba a90b 2c3b a3f5 943b
00000260: e759 9bba 9859 caba ded6 fd3a 88db 203b
00000270: bfbd 53bb b6cc 9abb 7d50 373b 0bab bc3b
00000280: 2238 d63a 569a 903b 6dbb bcbb 6221 4bbb
00000290: e562 023c 1971 06bb 02e2 3abb 5940 d4ba
000002a0: e882 66ba db5d 37bc de94 113c f7e6 083b
000002b0: a9d4 a93b 351f 333b 5b2f 20bb 6e69 2dbb
000002c0: 2e3b 65bb eda0 1e3b 7229 833b 0f98 543a
000002d0: e76d 1abb 4236 94ba 087c 5bbb 0e05 72ba
000002e0: 8d61 e0b9 8d50 4cba c47e 123c 19a8 20b9
000002f0: 8248 92b9 02f1 e639 9234 a5b9 786d 463b
00000300: f1b3 263b e999 c0bc bd95 fbba 864e 1bbb
00000310: 6929 44bb 791c ea3b ca26 afb8 67d6 b13a
00000320: ce67 8f3a 6085 af3a 417b ef3a 2236 01ba
00000330: b87d 9a3b b096 983a 3d33 0dba b113 5cbb
00000340: 68b8 1abc 0ca8 28b8 bbe6 e8b9 e4b8 7a3b
00000350: 1040 44ba 58e7 3b3a 6872 13bb 9135 75ba
00000360: 04e8 38bb d8e5 ca3a 28f2 1ebb 2a4a fcb9
00000370: c51f abb9 c2f4 9aba f97e 22bc a106 0dbc
00000380: 9117 d03b d340 1a38 ca51 e43b 917b 253b
00000390: 4e4b 743b b62e 5dbb 7875 9bbb ad57 f638
000003a0: e667 7f3a 4116 89bc 1253 9a3b 847c 483a
000003b0: fa83 bcbb a806 49ba f50c 9f3c cd51 283b
000003c0: b1a1 bf3a 67ee 593a f1a9 7e3b d547 a2ba
000003d0: 0bf7 923b ae96 91ba 0d34 68bb dfb9 5f3a
000003e0: 534d ad3b 3ec8 ec3a e274 33ba abf7 e43a
000003f0: 0907 273b 3ab5 783a c03a ffba 9ca0 f0bb

network_body._body_endoder.seq_layers.2.weight f4 [256, 256]
0.03225059 -0.011764662 0.09320096 0.01022966 -0.055829067 0.09970662 0.22124474 0.119643085
0.0192984 0.031171903 0.06449591 -0.040596742 0.028790155 0.047884263 -0.009443988 0.070473656
-0.0786965 -0.11584212 -0.0035068523 0.011570366 -0.017635668 0.010336356 -0.021489779 0.08514858
0.049183685 -0.13929462 -0.09220168 0.058448117 -0.050139684 0.022616727 -0.008688073 -0.00013035182
-0.104133464 0.025311574 -0.0037215957 0.016545478 -0.022322332 -0.0056899977 0.029441694 -0.0538927
0.03288219 -0.0181111 0.02216231 0.017052764 -0.021824542 -0.05003276 0.018902246 0.020462066
-0.08414439 -0.010174432 0.07365946 -0.0076773204 -0.038868383 0.016402988 0.11479979 0.13571866
-0.0147120515 -0.06969272 -0.0020920574 0.03520791 -0.0028135532 -0.012632631 0.033693902 -0.02667412
-0.03234958 -0.08766382 -0.09276068 0.06649309 0.023566684 0.10357345 -0.09690544 0.039039474
0.07949679 0.04905053 0.08706114 -0.008292413 0.07921179 -0.11420546 0.0529356 -0.002913251
0.015557285 -0.012459588 -0.027793316 -0.024281796 0.0196421 -0.042320944 -0.062455297 0.0055332226
0.108813286 -0.055917986 0.045205586 -0.009801058 0.027691511 0.05034026 -0.004247933 0.054967694
-0.036137518 -0.021535302 0.034579195 0.029474538 0.047751438 0.064996384 -0.15772037 0.01246732
0.033432584 0.024616588 0.027528383 0.03246383 0.020977778 -0.040682714 0.021029929 0.05362755
0.04518024 -0.03658118 0.0014585883 0.08810235 0.1390287 -0.02159904 0.033148956 -0.08355637
-0.016061911 -0.036240492 0.015548813 0.03830209 0.022400118 -0.011118805 0.011879472 -0.02654972
-0.10925396 -0.0021293866 -0.025162933 -0.06304398 -0.01391925 0.036203016 -0.014949255 -0.045040164
0.11896426 -0.016842386 -0.09684074 -0.08679247 -0.029060753 0.089698374 0.03433598 0.018746672
-0.03980155 0.041027445 0.03379684 -0.014973678 0.0409265 -0.016292606 0.0027978835 0.005759877
-0.02249053 -0.044290703 0.015131719 0.006047229 -0.07717889 -0.028044656 -0.025578327 -0.014142571
0.023741905 0.069243066 0.15836646 0.0078063547 -0.058539733 0.020571237 0.08510421 -0.02853512
-0.059040632 -0.058039796 0.042569965 -0.039897915 0.02468765 -0.06617116 0.007487239 -0.088988446
0.07506627 0.005974733 -0.05000484 0.0066632787 0.14682876 -0.012393544 0.040873837 0.09307998
-0.036757376 0.13598341 0.019172637 -0.02445782 -0.030704003 -0.08319645 0.024770275 -0.036324166
0.015003399 0.035372116 -0.0081122285 0.042099904 -0.02832512 0.1239626 -0.08961339 -0.09615262
0.014644688 0.049343836 0.032441515 -0.011164814 -0.045021527 0.0224425 0.020323424 0.12247809
-0.024053339 0.10633192 -0.040209994 0.02532629 0.1057563 0.050727725 -0.12991673 0.031261824
-0.010680559 -0.05711061 0.11275507 0.04549231 -0.03020598 -0.02646795 -0.027338518 -0.08489951
0.098974116 -0.06836699 0.007914206 -0.10479573 -0.054511297 -0.0140915485 0.002433218 0.002058152
-0.042742122 -0.02132955 -0.04665374 -0.08939343 0.0103364745 -0.045312412 -0.015129523 -0.028209854
0.090847544 -0.0021990875 0.045909233 0.040247727 0.011672183 -0.09892926 -0.07651082 0.07985835
-0.0055047288 0.06388251 0.01671323 0.045631688 0.0741252 0.021753335 0.0031649391 0.04285987
00000000: 3219 043d 92c0 40bc 25e0 be3d 4e9a 273c
00000010: 05ad 64bd fc32 cc3d fb8d 623e 6f07 f53d
00000020: ae17 9e3c 385c ff3c 6f16 843d c548 26bd
00000030: 55d9 eb3c 4a22 443d f5ba 1abc 7e54 903d
00000040: a12b a1bd a23e edbd 38d3 65bb a291 3d3c
00000050: ad78 90bc d259 293c 550b b0bc 6162 ae3d
00000060: d574 493d 40a3 0ebe 3cd4 bcbd 4b67 6f3d
00000070: 455f 4dbd b746 b93c 6b58 0ebc 0daf 08b9
00000080: ed43 d5bd 385a cf3c 04e6 73bb 628a 873c
00000090: 53dd b6bc 2973 babb b52f f13c 97be 5cbd
000000a0: 7aaf 063d bb5d 94bc bc8d b53c 3db2 8b3c
000000b0: 62c9 b2bc 27ef 4cbd e2d8 9a3c 10a0 a73c
000000c0: e553 acbd a9b2 26bc c5da 963d 0892 fbbb
000000d0: 7434 1fbd 8f5f 863c 271c eb3d d5f9 0a3e
000000e0: d10a 71bc 0fbb 8ebd e61a 09bb 2b36 103d
000000f0: 9763 38bb 18f9 4ebc 9e02 0a3d af83 dabc
00000100: fe80 04bd 1789 b3bd 50f9 bdbd 872d 883d
00000110: eb0e c13c 511e d43d 5c76 c6bd dbe7 1f3d
00000120: 37cf a23d 35e9 483d 1c4d b23d e7dc 07bc
00000130: ca39 a23d 8de4 e9bd 00d3 583d 3eec 3ebb
00000140: fce3 7e3c 4d23 4cbc cfae e3bc 9eea c6bc
00000150: 78e8 a03c ba58 2dbd 20d1 7fbd 0950 b53b
00000160: 80d9 de3d 420a 65bd 7e29 393d 9e94 20bc
00000170: 4fd9 e23c 9731 4e3d 3f32 8bbb ce25 613d
00000180: ef04 14bd cd6a b0bc eaa2 0d3d 9674 f13c
00000190: 0397 433d d31c 853d 7381 21be bb43 4c3c
000001a0: 9bf0 083d baa8 c93c 3483 e13c cbf8 043d
000001b0: 97d9 ab3c eba2 26bd f546 ac3c 90a8 5b3d
000001c0: ea0e 393d 26d6 15bd 1a2e bf3a 016f b43d
000001d0: 8a5d 0e3e 78f0 b0bc 33c7 073d 9a1f abbd
000001e0: 4594 83bc e970 14bd 73c0 7e3c a7e2 1c3d
000001f0: 7480 b73c a62b 36bc 1ea2 423c cc7e d9bc
00000200: 8ac0 dfbd 2e8d 0bbb 7f22 cebc 341d 81bd
00000210: 910d 64bc 9d49 143d b8ed 74bc 097c 38bd
00000220: 89a3 f33d 0bf9 89bc 7054 c6bd 40c0 b1bd
00000230: d110 eebc c8b3 b73d e2a3 0c3d 9f92 993c
00000240: f306 23bd 650c 283d 8e6e 0a3d 2854 75bc
00000250: 8ca2 273d 1278 85bc b25c 373b 5abd bc3b
00000260: 0f3e b8bc 2b6a 35bd 08eb 773c d527 c63b
00000270: f70f 9ebd e8bd e5bc a489 d1bc 3eb6 67bc
00000280: 627e c23c 4fcf 8d3d d12a 223e 73cc ff3b
00000290: 5cc7 6fbd 0385 a83c 1e4b ae3d 7cc2 e9bc
000002a0: 97d4 71bd 23bb 6dbd d85d 2e3d ff6b 23bd
000002b0: c13d ca3c bf84 87bd 8357 f53b 933f b6bd
000002c0: 58bc 993d b1c7 c33b e0d1 4cbd a257 da3b
000002d0: 475a 163e 4b0e 4bbc 536b 273d b7a0 be3d
000002e0: e78e 16bd 3c3f 0b3e ef0f 9d3c c45b c8bc
000002f0: f686 fbbc e662 aabd 08eb ca3c a6c8 14bd
00000300: d1d0 753c 5ae2 103d 27e9 04bc f370 2c3d
00000310: 150a e8bc 1be0 fd3d 3a87 b7bd aaeb c4bd
00000320: 46f0 6f3c c31c 4a3d 65e1 043d a0ec 36bc
00000330: 7e68 38bd 55d9 b73c 4f7d a63c cbd5 fa3d
00000340: 820b c5bc 8dc4 d93d 3cb3 24bd 1479 cf3c
00000350: c296 d83d e0c7 4f3d e408 05be 660c 003d
00000360: 83fd 2ebc d1ec 69bd 21ec e63d 2556 3a3d
00000370: 8872 f7bc 50d3 d8bc 07f5 dfbc cbdf adbd
00000380: f1b2 ca3d fe03 8cbd 96aa 013c 259f d6bd
00000390: 3d47 5fbd 3de0 66bc a076 1f3b 10e2 063b
000003a0: 5d12 2fbd 4fbb aebc fe17 3fbd e713 b7bd
000003b0: 515a 293c 8299 39bd d2e1 77bc 5a18 e7bc
000003c0: 470e ba3d 911e 10bb 520b 3c3d cdda 243d
000003d0: af3c 3f3c 6d9b cabd b4b1 9cbd c68c a33d
000003e0: 0361 b4bb d5d4 823d 2fea 883c 4be8 3a3d
000003f0: f4ce 973d 0d34 b23c de6a 4f3b d58d 2f3d
