Assets/Training/results/Run 2/DroneBehavior/DroneBehavior-2999971.onnx (onnx, 393309 bytes, 7 tensors)

action_model._continuous_distribution.log_sigma f4 [1, 3]
0	0x3b569220	0.0032740906
1	0xbb999a04	-0.0046875495
2	0x3c195540	0.009358704

action_model._continuous_distribution.mu.bias f4 [3]
0	0x3a241a1f	0.0006259996
1	0xbaf14dd8	-0.001841004
2	0x3b6b267c	0.0035881093

action_model._continuous_distribution.mu.weight f4 [3, 256]
0	0xbc38492a	-0.011247912
1	0x3c1907bb	0.009340222
2	0xb9a977a6	-0.00032323337
3	0x3bc59d78	0.0060307346
4	0x3a803508	0.000978143
5	0x3a924e04	0.0011162166
6	0x3c832240	0.016007543
7	0x3c879b76	0.016553622
8	0x3c381485	0.011235361
9	0x3bbaa959	0.0056964573
10	0xba097995	-0.00052442524
11	0x3c5340ba	0.01289385
12	0xbcad8cfe	-0.021185394
13	0xbc173b88	-0.009230502
14	0xbc270c29	-0.01019577
15	0x3a891b03	0.0010460321
16	0x3c9317c9	0.017955678
17	0xbb45b128	-0.0030165408
18	0x3c3af840	0.0114117265
19	0xbb60855b	-0.0034259174
20	0x3be1bede	0.006889208
21	0xbcf21224	-0.029549666
22	0x3c68f382	0.014218213
23	0x3c591709	0.013250121
24	0xbc3a1abc	-0.011358913
25	0x3c239e72	0.009986507
26	0x39df501f	0.0004259357
27	0xbca38625	-0.019961426
28	0x3bb4c0f1	0.0055161645
29	0xbc9761d6	-0.018479269
30	0xbc3d152f	-0.011540695
31	0xbc190023	-0.0093384115
32	0xbc28a09e	-0.0102922
33	0xbaa962c2	-0.0012923109
34	0xbc4e9d03	-0.012610677
35	0x3b8de2b2	0.0043300027
36	0xbc546a67	-0.012964821
37	0xbb6d7fce	-0.0036239508
38	0xbc173143	-0.0092280535
39	0x3c965b53	0.018354094
40	0xbc896816	-0.016773265
41	0x38a45dd8	7.837609e-05
42	0xbb1cd48d	-0.00239304
43	0x3c4973c6	0.012295669
44	0xbc853f8e	-0.016265657
45	0xbc9bb92b	-0.019009193
46	0x3bf2e9b9	0.007413116
47	0xbbacdbff	-0.005275249
48	0xbc3eb0b5	-0.01163881
49	0xbc14dc77	-0.009085766
50	0x3c8f29b5	0.017475942
51	0xbb8c1335	-0.0042747506
52	0x3c312f0e	0.010814441
53	0xbd174577	-0.03693148
54	0x3c7fa725	0.015603815
55	0xbb357588	-0.0027688462
56	0xbc880618	-0.016604468
57	0xbc0733f5	-0.008252134
58	0xbc1b2563	-0.009469363
59	0x3c3097b1	0.010778354
60	0xbc30f480	-0.010800481
61	0xbc468c22	-0.012118371
62	0xbb0bf651	-0.0021356533
63	0xbba0d728	-0.004908461
64	0xbb119895	-0.002221619
65	0xbcbc71f9	-0.023003565
66	0xbc149ec4	-0.009071056
67	0xbc01d53d	-0.007924375
68	0xbc3a90c7	-0.011387057
69	0xbbea7390	-0.0071548894
70	0xbcbc8563	-0.023012822
71	0xbc04e0a7	-0.008110202
72	0x3b1e3c9e	0.0024145017
73	0x3b34cfc2	0.0027589654
74	0xbc20516c	-0.0097850375
75	0xb94df6e1	-0.00019642293
76	0x3bde0ab8	0.00677618
77	0x3be28d55	0.0069138207
78	0xbc327de8	-0.010894276
79	0x3c3a6165	0.01137576
80	0x3b19eaa0	0.0023485795
81	0x3b82b846	0.0039892523
82	0x3a2bd09e	0.00065542187
83	0x3c0ba8e9	0.008524158
84	0xba786675	-0.00094757165
85	0x3c3d287b	0.011545296
86	0x3b4f90a1	0.00316719
87	0xbbba2dc3	-0.0056817248
88	0x3c4b0585	0.012391453
89	0x3bdb5d39	0.0066944626
90	0x3c124e3b	0.008929784
91	0x3bb6f756	0.005583684
92	0xbc8ae3d7	-0.016954346
93	0x3b0f11eb	0.0021830748
94	0xbc8ed1e9	-0.017434077
95	0x3ace30ae	0.001573106
96	0xbc44f195	-0.012020488
97	0xbc9938ee	-0.018703904
98	0x3c899b52	0.016797695
99	0x3c85a3f8	0.016313538
100	0xbcb29976	-0.021801692
101	0x3ba11254	0.004915515
102	0xbc532ddf	-0.0128893545
103	0x3c3d4e9a	0.011554385
104	0xbc9318dd	-0.017956192
105	0xbc9264e2	-0.01787037
106	0x3c2f8ff4	0.010715473
107	0x3c1088b6	0.008821657
108	0xbb858c89	-0.004075591
109	0x3c0064fd	0.0078365775
110	0x3c1338bd	0.008985695
111	0x3a819bc5	0.0009888342
112	0xbc8530c0	-0.016258597
113	0xbc4c5ee4	-0.012473796
114	0x3be709df	0.0070507373
115	0x3c7bfc93	0.015380043
116	0x3b9567b4	0.0045594815
117	0xbc7114b5	-0.01471441
118	0xbb45c90c	-0.0030179648
119	0xbc1a3892	-0.0094129015
120	0xbc995dc8	-0.018721476
121	0x3c5570f8	0.013027422
122	0x3b68e540	0.0035537034
123	0x3bc9a375	0.006153519
124	0x3b637384	0.0034706304
125	0x3bc82951	0.006108441
126	0x3be90f18	0.007112395
127	0x3c519031	0.012790726
128	0xbccde72f	-0.025134651
129	0x3c3ffad7	0.01171752
130	0x3b88dee3	0.004176961
131	0xbc87c8b6	-0.016575199
132	0xb9f1c7b9	-0.00046115907
133	0xbc3d7c67	-0.011565304
134	0x3c41fce9	0.011840084
135	0xbc7316f3	-0.0148370145
136	0x3cf90764	0.030399032
137	0xbd0c5c9f	-0.034268018
138	0x3b4d320e	0.0031310352
139	0x3c93202a	0.017959673
140	0x3cb9c30c	0.022676013
141	0x3b99695a	0.0046817483
142	0xbb17b73d	-0.002314999
143	0xbb86afb0	-0.004110299
144	0xbcb1a8a5	-0.021686861
145	0x3cafef61	0.02147645
146	0xbb8778e1	-0.004134283
147	0xbc71d02a	-0.014759103
148	0xbbb383dc	-0.0054783653
149	0xbb160030	-0.0022888295
150	0x3ca5eac0	0.02025354
151	0xba1bdf07	-0.00059460144
152	0xbc6b71aa	-0.014370361
153	0x3bc5bce5	0.006034481
154	0x3c8e2444	0.017351277
155	0xbba222cf	-0.004947997
156	0xbbe801fa	-0.0070803137
157	0xbcc6b837	-0.024257762
158	0xbca47664	-0.020075984
159	0x3c379cf8	0.011206858
160	0x3b7235a7	0.0036958249
161	0xbca398d0	-0.019970328
162	0xbc6ae4a4	-0.014336739
163	0x3aa93899	0.0012910544
164	0xbc4fb262	-0.012676807
165	0x3c167379	0.009182804
166	0x387c5e79	6.0169466e-05
167	0xbca12bba	-0.01967417
168	0x3c311109	0.010807284
169	0xbc8855d9	-0.016642498
170	0x3c83661b	0.016039899
171	0x3cd3f0a8	0.02587159
172	0x3c3a6a95	0.01137795
173	0x3cb70429	0.02234085
174	0xbbf4a8bd	-0.0074664042
175	0x3baedb07	0.0053361687
176	0xbc3bfa50	-0.011473253
177	0x3b8a7ec0	0.0042265356
178	0x3cdef0a1	0.02721435
179	0x3c203485	0.009778147
180	0xbb1e82bd	-0.0024186813
181	0xbc9dc8d3	-0.0192608
182	0xb9e60a9c	-0.00043876923
183	0x3d00a778	0.03140971
184	0x3be35043	0.006937058
185	0xbbc898c5	-0.006121727
186	0xbb687a80	-0.0035473406
187	0x3b318a11	0.002709035
188	0xbc507713	-0.012723702
189	0x3cda400e	0.026641872
190	0x3ba4bde4	0.0050275195
191	0xbc0ee81d	-0.008722332
192	0xb9dd031b	-0.00042154719
193	0xbbf57cde	-0.007491692
194	0xbba757b1	-0.005106889
195	0xbb609e15	-0.0034273912
196	0x3bc0b052	0.005880394
197	0x3a4c6386	0.00077968126
198	0xbc99e24c	-0.018784665
199	0x3b809075	0.0039234706
200	0xbc3a77c2	-0.011381092
201	0xbcbeb488	-0.023279443
202	0xbb09ef60	-0.002104722
203	0x3bf82ed6	0.0075739427
204	0xbc958c97	-0.018255515
205	0x3b5e8aff	0.003395736
206	0xbbe4fb78	-0.006987985
207	0xbaa94279	-0.0012913487
208	0xbbf32acf	-0.0074208747
209	0xba56c042	-0.0008192101
210	0x3c8efe28	0.017455176
211	0xbbcd3a05	-0.00626302
212	0x3c6bd573	0.014394152
213	0x3c8f1dfa	0.017470349
214	0xbc25a0a4	-0.0101091005
215	0x3c1e6b30	0.00966911
216	0xbc562256	-0.01306971
217	0x3c194eab	0.009357135
218	0xbbbe4113	-0.0058060973
219	0x3a01b72e	0.00049482554
220	0xbc0b9d7d	-0.008521435
221	0xba5d918f	-0.0008452171
222	0xbc682d25	-0.01417092
223	0x3abd28fd	0.0014431771
224	0x3b56e341	0.0032789262
225	0xbcdad0a6	-0.02671082
226	0x3bccec59	0.006253761
227	0x39796146	0.00023782728
228	0x3d0e6fba	0.03477452
229	0x3c0790d2	0.008274274
230	0x3b9e3b07	0.004828814
231	0xbaa30677	-0.001243784
232	0x3bd17f0c	0.006393319
233	0xbc82b024	-0.015953131
234	0x3c1f36c7	0.00971765
235	0xbc3bf933	-0.011472988
236	0x3c144591	0.009049789
237	0x3bf11961	0.0073577617
238	0x3bf5a3b8	0.0074963234
239	0x3be8ef85	0.007108631
240	0xbbd7fc91	-0.0065913876
241	0xbbd3ae0d	-0.0064599575
242	0x3c9bd8af	0.019024221
243	0xbb86f400	-0.0041184425
244	0x3b4092a1	0.0029384273
245	0x3bff48c9	0.007790659
246	0xbc4a3c46	-0.012343472
247	0x3bb732ae	0.0055907583
248	0xbae2cc7d	-0.0017303374
249	0x3c1556d8	0.009114943
250	0x3c32a442	0.01090342
251	0x3b9aca8a	0.0047238516
252	0xbb034de2	-0.0020035435
253	0xbc993d27	-0.018705918
254	0x3c6cd1f4	0.014454354
255	0xbbbab71a	-0.005698097

network_body._body_endoder.seq_layers.0.bias f4 [256]
0	0xbbf0ab03	-0.007344605
1	0x3be94bed	0.0071196468
2	0xbb6bf563	-0.0036004416
3	0xbb8ebe39	-0.0043561724
4	0x3be147a7	0.0068749967
5	0xba69112a	-0.0008890802
6	0xbbb31bf4	-0.0054659788
7	0x3bb7d92a	0.005610605
8	0xbb962bf1	-0.004582875
9	0x3b1883b9	0.0023271872
10	0xbc076b40	-0.0082653165
11	0xbad52d11	-0.0016264041
12	0xbaa91875	-0.0012900966
13	0xba9b266f	-0.0011837016
14	0xbca81138	-0.020516023
15	0x3c69c1d0	0.0142674
16	0xbb5f5045	-0.0034074944
17	0xbc1c0c69	-0.009524443
18	0xbb10dd99	-0.0022104739
19	0xba866ee6	-0.0010256439
20	0xbba31895	-0.0049772956
21	0xbb0ca4ae	-0.0021460461
22	0x3b0a3ec9	0.0021094552
23	0x3a9207e9	0.0011141273
24	0x3ba38b42	0.004990966
25	0x3b0bf14b	0.0021353539
26	0xb99a6736	-0.00029450067
27	0x3ba0a7c8	0.0049028136
28	0xbc410fb8	-0.011783533
29	0xb9baee6a	-0.00035654317
30	0xbc1d4e81	-0.009601236
31	0xb9e96cf4	-0.000445224
32	0x3aaaf18b	0.0013041956
33	0x3ab08c57	0.0013469559
34	0xbab897e9	-0.0014083359
35	0x3c9f4415	0.019441644
36	0x39f20cf8	0.000461675
37	0xba0ca08f	-0.0005364501
38	0xbbb5c480	-0.0055471063
39	0x3b13c378	0.0022546928
40	0xbab262f5	-0.0013609814
41	0xbb996112	-0.004680761
42	0xbb21cdf1	-0.00246894
43	0xb95b8dc0	-0.00020938274
44	0xbca35538	-0.019938096
45	0x3c44c8c7	0.01201076
46	0x3b05ec01	0.0020434859
47	0x3c693090	0.01423277
48	0xba4467c3	-0.00074922683
49	0x3994c339	0.00028374212
50	0xbab6682e	-0.0013916546
51	0xb4cf72a0	-3.8640155e-07
52	0x3a983a59	0.0011614069
53	0xba015711	-0.00049339334
54	0x3b4b882f	0.0031056514
55	0xbac20178	-0.0014801463
56	0x3a3e6d41	0.0007264205
57	0xbc8d608d	-0.017257953
58	0x3c4d75fb	0.012540336
59	0xbc0b1424	-0.008488689
60	0xbae8000c	-0.0017700209
61	0xb89a419a	-7.3555115e-05
62	0x3b49932f	0.0030757894
63	0xbbab2bfa	-0.0052237483
64	0x3b12a93e	0.0022378708
65	0xbb289a5a	-0.0025726766
66	0xbc507ca3	-0.012725028
67	0xbb1f883d	-0.002434268
68	0xba811339	-0.0009847648
69	0xbb96fab7	-0.0046075243
70	0xbbd2b3cf	-0.0064301263
71	0xbbd8a15f	-0.006611034
72	0xbae20d61	-0.0017246419
73	0xb9e7d237	-0.00044216376
74	0x3c054dee	0.008136256
75	0xbba6a42b	-0.0050854883
76	0xb9952b95	-0.00028451966
77	0x3b4228e1	0.0029626417
78	0x3b35bc53	0.0027730658
79	0xbb81e0e3	-0.003963576
80	0x3b975d95	0.00461931
81	0x3b530401	0.0032198431
82	0xbc7cb72c	-0.015424531
83	0xbb3011a2	-0.0026865979
84	0xbb173aa7	-0.002307573
85	0x3b82d96c	0.003993204
86	0x3b73af15	0.0037183214
87	0xbbcd122f	-0.006258271
88	0xbaca531e	-0.0015436148
89	0xbb57ecac	-0.0032947464
90	0x3ad5576b	0.0016276663
91	0xbb51a1e1	-0.0031987356
92	0x3c8170e3	0.015800899
93	0xba3ae790	-0.00071298424
94	0x3ba7dece	0.005122996
95	0xba80e418	-0.0009833602
96	0xbc879d49	-0.016554492
97	0xb8b9e6d6	-8.864484e-05
98	0xbb793c26	-0.0038030236
99	0xbaac5706	-0.0013148494
100	0x3a1cd3b8	0.0005982476
101	0x3b3073db	0.0026924524
102	0x3b9ad9cc	0.0047256704
103	0xba81736e	-0.000987632
104	0x3941e009	0.00018489374
105	0x3af227dc	0.0018475014
106	0x392a6ffb	0.0001625418
107	0x3b8245a9	0.0039755893
108	0xbacfad76	-0.0015844542
109	0x3c3e7698	0.011624955
110	0x3a3444b6	0.0006876694
111	0x3c3e5510	0.01161696
112	0xba7af879	-0.00095737685
113	0xbba27429	-0.004957695
114	0xbb093845	-0.002093808
115	0x3b9f77fa	0.0048665972
116	0xba4319b5	-0.00074424903
117	0xba1c5499	-0.0005963534
118	0x38f0eef4	0.000114886
119	0x3c1f6e9b	0.00973096
120	0x3c060a4a	0.008181164
121	0xba92ab98	-0.0011190055
122	0xbc9ea51d	-0.019365842
123	0xbb81c804	-0.0039606113
124	0x3a95940a	0.0011411917
125	0xbb563840	-0.0032687336
126	0x3a889943	0.0010421652
127	0x3c47a4e3	0.012185308
128	0xbbef1b80	-0.0072969794
129	0xbbf4c9a4	-0.0074703265
130	0x3b8d6800	0.0043153763
131	0xba766c84	-0.00094003254
132	0x3b65ffc9	0.0035095087
133	0x3af2615c	0.001849215
134	0xbaec98d0	-0.0018050913
135	0xbbcf3c0c	-0.006324297
136	0x3a73df8b	0.0009303025
137	0x3a04197c	0.0005039198
138	0xbbc40747	-0.005982313
139	0xbb9c7db7	-0.0047757286
140	0x3741026d	1.1504261e-05
141	0x3c1a4193	0.009415048
142	0xbc003987	-0.007826216
143	0xbc2d5131	-0.01057844
144	0xbbb8ce09	-0.0056397957
145	0xba70e712	-0.00091897056
146	0xba05bacb	-0.00051013817
147	0x3b98297b	0.0046436167
148	0xb7f8c912	-2.9657534e-05
149	0xbb2ae0ed	-0.0026074008
150	0xbb3b410b	-0.0028572704
151	0xbb34d8cb	-0.002759504
152	0x3b463ac6	0.0030247434
153	0xbbfbafdc	-0.007680876
154	0xbb41a979	-0.0029550476
155	0x3b953ef1	0.0045546223
156	0xbc5b31ce	-0.013378574
157	0xba900eca	-0.0010990736
158	0xbb67d519	-0.0035374819
159	0x3ad9bb04	0.0016611521
160	0xbbd29ae8	-0.0064271577
161	0x3bb3a008	0.0054817237
162	0x3bcc04bb	0.00622615
163	0xbb6c0959	-0.0036016314
164	0xbb3efa78	-0.002914099
165	0xbbf714b6	-0.0075403107
166	0x3a864483	0.0010243807
167	0x3bdbf5bb	0.006712643
168	0xbb4f2f70	-0.0031613968
169	0xbb377740	-0.0027994663
170	0xbcc17551	-0.023615511
171	0xbc783ecb	-0.01515169
172	0xbb960b3d	-0.0045789764
173	0xb94f0bdc	-0.00019745476
174	0xbac3295e	-0.0014889648
175	0xbbbfcabe	-0.005853026
176	0x3c8a69f7	0.016896231
177	0xbb683df1	-0.003543731
178	0x3b9b8aed	0.004746786
179	0xbb3a765d	-0.0028451898
180	0x3b262371	0.0025350715
181	0xbc2add6e	-0.0104287695
182	0x3b22c953	0.0024839237
183	0xb9587653	-0.00020643444
184	0xbc2b00c1	-0.010437191
185	0x3b8a65c8	0.004223559
186	0x3adc50cd	0.0016808748
187	0xbc7ca262	-0.015419574
188	0xba959db6	-0.0011414799
189	0xbb46396e	-0.0030246633
190	0x3b4846d8	0.0030559804
191	0xbb3ef9df	-0.0029140634
192	0x3b8f0517	0.0043646204
193	0x39132ba8	0.00014035276
194	0x3b3f209b	0.0029163721
195	0x3c4a2173	0.0123370765
196	0x39a445d8	0.00031332555
197	0x3b8840a2	0.0041580955
198	0xbba86c8a	-0.005139892
199	0x3abce612	0.0014411828
200	0x3c3c4e03	0.011493209
201	0x3a81b1e2	0.0009894932
202	0x3a768049	0.0009403271
203	0xbc1c4830	-0.009538695
204	0xb95fe5e2	-0.00021352575
205	0xba587711	-0.00082574884
206	0xbb0b7a1f	-0.0021282507
207	0x3c039fa7	0.00803367
208	0xbb76f567	-0.0037682892
209	0xbb3fc92c	-0.0029264195
210	0xba05eded	-0.0005109001
211	0xbb431313	-0.0029766008
212	0xbb84a2e3	-0.004047738
213	0xba1ae700	-0.00059090555
214	0xbbb912be	-0.005647986
215	0xbbc12cc8	-0.005895231
216	0xbc04f383	-0.008114698
217	0xbc36b5e1	-0.011151762
218	0xb9ba3ff0	-0.00035524322
219	0xbb1b3ecc	-0.0023688553
220	0x3c0f745c	0.00875577
221	0x3afc3617	0.0019242194
222	0x3bcd287f	0.006260931
223	0x3a48a6c1	0.0007654243
224	0x3b870e2a	0.0041215615
225	0x3a8596c7	0.001019203
226	0xbc7a5f5c	-0.0152815245
227	0x3ad17655	0.00159807
228	0xbbdec7b7	-0.00679871
229	0x3b4da119	0.003137654
230	0xbc04cf37	-0.0081060445
231	0xba08268e	-0.00051937334
232	0xbb722476	-0.0036948002
233	0xbb7cf088	-0.0038595516
234	0x3a0be5e4	0.00053366856
235	0xbbc2c878	-0.005944308
236	0x3b5cfbee	0.0033719498
237	0x3aa52d1e	0.0012601947
238	0x391ba1af	0.00014842184
239	0xbbc484bb	-0.005997268
240	0x3b56f252	0.0032798243
241	0x3c7ebc5e	0.01554784
242	0x3bce4bda	0.0062956633
243	0x3b1cefa0	0.0023946539
244	0x3c2ebda2	0.010665329
245	0xbbd1a868	-0.0063982494
246	0xbb53f0e9	-0.0032339639
247	0x3c70783d	0.014677105
248	0xbbe57f68	-0.0070037134
249	0xba0c5beb	-0.0005354273
250	0xb82eadf3	-4.1646836e-05
251	0xbc50f090	-0.012752667
252	0xb5b7f538	-1.370593e-06
253	0x3c513fdd	0.012771574
254	0xbb87f5d9	-0.0041491804
255	0x3a5f9460	0.00085288845

network_body._body_endoder.seq_layers.0.weight f4 [256, 121]
0	0x3d8b0f70	0.06790054
1	0x3d80d842	0.06291248
2	0x3bfc8c04	0.007707121
3	0xbded89af	-0.11598527
4	0xbde7ebd1	-0.11324275
5	0xbcd3020c	-0.025757812
6	0xbc1d588e	-0.009603633
7	0x3de7f4ee	0.113260135
8	0x39a34186	0.00031138601
9	0xbe8afb2e	-0.2714476
10	0xbd2b5ad6	-0.041834675
11	0xbde6812f	-0.112551086
12	0x3e009dfb	0.12560265
13	0xbd973aa0	-0.07384229
14	0xbe1ce74b	-0.15322606
15	0xbccc74b8	-0.024958
16	0x3e0eff59	0.13964595
17	0xbd3d8e19	-0.046278093
18	0x3c970aec	0.018437825
19	0x3c2be248	0.010490961
20	0xbddd3ff6	-0.10803215
21	0xbd6d377e	-0.05791425
22	0x3e23f709	0.16012205
23	0xbd7df07e	-0.06199693
24	0xbd4f6ff7	-0.050643887
25	0x3dfedcb3	0.12444439
26	0xbe1a21a8	-0.15051901
27	0xbd0ecce8	-0.034863383
28	0xbceeddf2	-0.029158566
29	0xbd836971	-0.06416596
30	0x3c4c9258	0.012486063
31	0x3d15bc79	0.036556695
32	0xbe0a58cd	-0.13510437
33	0xbc8b051d	-0.016970212
34	0x3ddd1c95	0.10796467
35	0xbc57322c	-0.0131345205
36	0xbe065f39	-0.13122262
37	0x3dab3989	0.08360583
38	0x3ce20937	0.027592285
39	0x3c6fcfd7	0.014636955
40	0x3d58183c	0.052757487
41	0xbe237f06	-0.15966424
42	0x3d4ec9e2	0.0504855
43	0xbdf5f602	-0.12009813
44	0xbd6aa016	-0.057281576
45	0xbbf47472	-0.0074601704
46	0xbd5cf895	-0.053948004
47	0x3c1c18b3	0.009527373
48	0xbe0af31f	-0.13569306
49	0xbe08982c	-0.13339299
50	0xbda89aba	-0.08232637
51	0x3e01b940	0.12668324
52	0xbd90e807	-0.07075506
53	0xbc554fa0	-0.013019472
54	0xbd07404e	-0.03302031
55	0xbb9b77f0	-0.0047445223
56	0xbd8f7471	-0.07004631
57	0xbca7ad94	-0.02046851
58	0x3d9d6dcc	0.07686958
59	0xbd31210c	-0.043244407
60	0x3d985498	0.0743801
61	0xbe43508e	-0.19073698
62	0x3d96c4f7	0.07361787
63	0xbde0d5a1	-0.109782465
64	0xbd47a9bc	-0.048745856
65	0x3d5803a6	0.052737854
66	0x3d9f138a	0.07767399
67	0xbd4bf059	-0.04978976
68	0x3d88daac	0.06682333
69	0xbda42bed	-0.08016191
70	0xbcef600c	-0.029220603
71	0x3c87736f	0.016534535
72	0x3a025686	0.00049719994
73	0x3e176da2	0.14787915
74	0x3e14974f	0.14510845
75	0xbc755be0	-0.014975518
76	0x3c1003b1	0.008789943
77	0xbd36ae00	-0.044599533
78	0xbe53fca9	-0.20701851
79	0xbe262b05	-0.16227348
80	0x3e70d048	0.23516953
81	0xbcdab1ce	-0.026696112
82	0xbdd9de6d	-0.106381275
83	0x3ccfddd5	0.025374332
84	0xbd155d59	-0.036465976
85	0x3d6d0ab6	0.057871543
86	0x3d3db4c1	0.04631496
87	0x3d6864c9	0.05673674
88	0xbdea39ef	-0.11436831
89	0x3db20a74	0.086934
90	0x3d29f4e0	0.041493297
91	0xbdd4a2b1	-0.103825934
92	0xbde96b22	-0.11397387
93	0xbe414478	-0.18873775
94	0x3d860afe	0.06545065
95	0xbd01deaf	-0.03170651
96	0x3cf79e70	0.030226916
97	0xbe5569e7	-0.2084118
98	0x3cfc0e36	0.030768495
99	0xbe1f88ce	-0.1557953
100	0xbca8e66a	-0.020617682
101	0xbccc0320	-0.024903834
102	0xbd99491e	-0.07484649
103	0xbd7bade0	-0.061445117
104	0x3d15bfa6	0.036559723
105	0xbce69a90	-0.028149873
106	0x3aed86ae	0.0018121803
107	0xbe1752d1	-0.14777686
108	0xbe154062	-0.14575341
109	0x3d5e346a	0.054249205
110	0x3dac6bf6	0.084190294
111	0x3d7161c0	0.058931112
112	0xbd955eca	-0.0729347
113	0x3da16ee1	0.078824766
114	0x3d90f77b	0.07078453
115	0xbd308599	-0.04309616
116	0x3d9a0bf3	0.075218104
117	0x3de129b2	0.10994281
118	0xbdae1d1d	-0.08501647
119	0x3e61433d	0.21998306
120	0xbe1e0eaf	-0.15435289
121	0x3dafb58f	0.085795514
122	0x3d905a58	0.07048482
123	0xbdfc5181	-0.12320233
124	0x3d4e06f8	0.050299615
125	0x3d03971d	0.032126535
126	0x3dbd4bb0	0.09242952
127	0x3da503ec	0.08057389
128	0xbe01cdc4	-0.1267615
129	0xbd22344c	-0.039600655
130	0xbd510984	-0.051034465
131	0xbd4979c9	-0.04918841
132	0x3d8295f7	0.0637626
133	0x3dd44898	0.10365409
134	0xbd385e2e	-0.04501169
135	0x3dbd6878	0.092484415
136	0xbcde399e	-0.027127083
137	0xbd331358	-0.04371962
138	0x3d0eed45	0.034894247
139	0xbd61c3f1	-0.055118505
140	0x3d85ebc4	0.06539109
141	0xbd83c4c2	-0.06434013
142	0x3d52534c	0.05134897
143	0xbd1b388d	-0.037895728
144	0x3dc9046e	0.09815298
145	0x3d9e1d8c	0.07720479
146	0xbe09e2e0	-0.13465452
147	0x3c7fdd44	0.015616719
148	0x3d70d2ee	0.05879491
149	0x3ca818af	0.020519583
150	0x3db0cd9d	0.086329676
151	0xbd2c6183	-0.042085182
152	0xba3a6334	-0.00071101193
153	0x3e4ce887	0.20010577
154	0xbd833616	-0.064068004
155	0xbd87a25f	-0.06622767
156	0xbddd831f	-0.10816025
157	0xbe0e0ca0	-0.13872004
158	0xbabb8945	-0.0014307877
159	0x3e599e81	0.2125187
160	0x3de8715d	0.11349747
161	0xbd41fd49	-0.047360692
162	0x3dd77664	0.10520628
163	0xbdae6d4a	-0.08516939
164	0x3e253550	0.16133618
165	0xbd8b1db2	-0.06792773
166	0xbc426c72	-0.011866676
167	0x3c84e7f2	0.016223881
168	0x3db3df78	0.08782858
169	0x3bf66cf8	0.0075203143
170	0xbdc98344	-0.0983949
171	0xbd90b77d	-0.070662476
172	0xbca44134	-0.020050623
173	0xbca4cd70	-0.020117491
174	0x3d9a4977	0.075335436
175	0x3d2108b0	0.039314926
176	0xbc63f7d5	-0.013914068
177	0xbe5e04eb	-0.21681564
178	0xbd879195	-0.066195644
179	0x3e2395d6	0.15975127
180	0x3d879252	0.06619705
181	0xbd128d19	-0.035779092
182	0x3d5d2e5b	0.053999286
183	0xb7d79d09	-2.5703122e-05
184	0xbd8f5386	-0.06998353
185	0x3e4022e1	0.18763305
186	0xbc9dddf5	-0.019270876
187	0xbd1e62c3	-0.038668405
188	0xbe11c472	-0.14235094
189	0xbc2639ff	-0.010145663
190	0x3cd97633	0.02654562
191	0xbda1efbe	-0.07907055
192	0xbd40c139	-0.04705927
193	0xbdc56fd2	-0.09640469
194	0x3cd9cea0	0.026587784
195	0xbe31c365	-0.17359693
196	0x3d3c6e9d	0.046003927
197	0x3db92172	0.09039582
198	0xbd45234f	-0.048129376
199	0xbd8a30f2	-0.06747617
200	0xbcfb7252	-0.03069416
201	0x3e25ffd9	0.1621088
202	0xbd368473	-0.044559907
203	0xbd8f35e5	-0.069927014
204	0xbd35740b	-0.04430012
205	0x3e034a3a	0.12821284
206	0x3ce9c7b3	0.028537607
207	0xba954bac	-0.001139035
208	0x3db5a128	0.08868629
209	0x3d10eef6	0.03538414
210	0x3d88aa64	0.066731244
211	0x3dbd34f8	0.092386186
212	0x3d3f1232	0.04664821
213	0xbcf6778e	-0.030086305
214	0xbcb1b12a	-0.021690924
215	0x3d818f4e	0.06326161
216	0x3ccdfb73	0.025144314
217	0x3cc11634	0.023570158
218	0xbaa4ee21	-0.0012583175
219	0xbe095333	-0.13410644
220	0x3b02c0ee	0.001995142
221	0x3e039a41	0.12851812
222	0xbd2ea410	-0.04263693
223	0xbd4a6a9f	-0.049418088
224	0x3d441fc3	0.047881853
225	0xbe00f882	-0.12594798
226	0xbd99e8c0	-0.07515097
227	0x3dac0d29	0.084009476
228	0x3d79b924	0.06096758
229	0xbc2b4c19	-0.010455155
230	0xbb8c7fba	-0.004287687
231	0x3d8f2067	0.06988602
232	0xbc6cf229	-0.014462032
233	0x3d3d7366	0.04625263
234	0x3d95f25d	0.07321618
235	0x3e024f62	0.12725595
236	0xbb4009ec	-0.002930279
237	0x3d81039b	0.06299516
238	0xbd36c75d	-0.04462372
239	0x3db0c6c5	0.08631662
240	0xbda30af2	-0.07961072
241	0xbdaff7f6	-0.08592217
242	0xbd8bfd39	-0.06835408
243	0xbe26e5cd	-0.162986
244	0xbe16e998	-0.14737546
245	0xbd9aee51	-0.075649865
246	0xbda16d7e	-0.07882212
247	0x3cd96692	0.026538167
248	0xbccf52bd	-0.025308007
249	0x3dfb866e	0.122815
250	0xbceef4f2	-0.029169533
251	0x3d6d9f05	0.05801298
252	0x3df9e092	0.122010365
253	0x3d9df8f3	0.07713499
254	0x3e10d135	0.14142306
255	0x3ba495c3	0.005022736

network_body._body_endoder.seq_layers.2.bias f4 [256]
0	0x3b102b3e	0.002199843
1	0xba611028	-0.00085854763
2	0x3c4fa8a8	0.012674488
3	0xba84bbc2	-0.0010126757
4	0xb987046e	-0.00025752507
5	0xbb767fbc	-0.0037612757
6	0x3b9f37c4	0.0048589427
7	0x39988b18	0.00029095332
8	0xbac99404	-0.0015379195
9	0x39c6a4d9	0.00037888324
10	0x3bb35036	0.0054722084
11	0xbb558542	-0.0032580649
12	0x3aaad6e0	0.0013034008
13	0xbb3e1f05	-0.0029010188
14	0x39e05d71	0.0004279423
15	0x3c4f5c33	0.012656259
16	0x3a47e8bd	0.0007625928
17	0xbb1c45d2	-0.0023845327
18	0xbb163e41	-0.002292529
19	0xbb199592	-0.0023435098
20	0x3b2196c4	0.0024656514
21	0x3b0b595d	0.0021262981
22	0xbb2f75a0	-0.002677299
23	0x3865ba25	5.4771215e-05
24	0x3ae94e16	0.0017799761
25	0x3ba22b7a	0.0049490305
26	0xbb5158a7	-0.003194371
27	0xbc671d45	-0.0141060995
28	0x39a22aa4	0.00030930818
29	0xbb27281a	-0.002550608
30	0xba1e6b34	-0.0006043196
31	0xb9f35201	-0.0004640967
32	0xba9dae6b	-0.001203013
33	0xbb99ca8c	-0.004693335
34	0x3a941925	0.0011298998
35	0xbbf340bd	-0.007423489
36	0x39f3ba18	0.00046487222
37	0xbbaf951b	-0.005358351
38	0xbc91ee4d	-0.017813826
39	0xbabb5e20	-0.0014295019
40	0xbc186bca	-0.009303043
41	0x3b32efc7	0.0027303563
42	0x3c2c159c	0.010503199
43	0x3b6afe3e	0.0035857107
44	0xbb200409	-0.0024416468
45	0x3a3da630	0.00072345417
46	0xbc0a6a69	-0.008448222
47	0xbb641ab1	-0.0034805948
48	0xba9af700	-0.0011822879
49	0xbc143768	-0.009046413
50	0x3bc7d774	0.006098682
51	0x3c0447ce	0.00807376
52	0xbac95fbe	-0.0015363616
53	0xb90cef80	-0.00013440661
54	0x3a67726f	0.00088290026
55	0xbb9aa7bc	-0.0047197025
56	0x3c39d688	0.011342652
57	0xbb902183	-0.004398526
58	0xb9503715	-0.00019856945
59	0xbb9b938d	-0.004747814
60	0xb9c25a1b	-0.00037069697
61	0xbb101a7a	-0.0021988438
62	0xbb602119	-0.0034199415
63	0x3bdd29c7	0.006749365
64	0xbc5dad31	-0.013530062
65	0xbaabd84c	-0.0013110726
66	0xba1f1a12	-0.00060692534
67	0x3a1a1ef3	0.00058792456
68	0xb931f3ac	-0.0001697081
69	0xbb807a84	-0.003920855
70	0x3a88a703	0.001042575
71	0x399501d2	0.0002842085
72	0xbb3c7fe7	-0.002876276
73	0xbbab48aa	-0.005227168
74	0xbb52f3be	-0.0032188739
75	0x3c27e31a	0.010247016
76	0x381a2b65	3.6756875e-05
77	0x3b8f4d87	0.0043732557
78	0xbaaa06a7	-0.0012971953
79	0x3aa22560	0.0012370758
80	0xbb1037e5	-0.0022005972
81	0x3c45c18f	0.012070074
82	0x3aef6138	0.0018263226
83	0xbadf177c	-0.0017020549
84	0x3c4a2293	0.012337345
85	0xbb01dea2	-0.0019816537
86	0xb9a4d2a4	-0.00031437457
87	0xbc0ecedd	-0.008716312
88	0x3b8f9cb8	0.004382696
89	0x3948e9fe	0.00019160655
90	0xbb265cd0	-0.002538491
91	0x3b1a74cb	0.002356815
92	0xbab208b8	-0.0013582921
93	0xb9c5a1fb	-0.00037695453
94	0xbb17f870	-0.0023188852
95	0xbc4603e7	-0.012085891
96	0x3c1ae360	0.0094536245
97	0xbb66870c	-0.003517571
98	0x3b8ee69c	0.004360987
99	0xba9bcd60	-0.0011886768
100	0x38ab3e14	8.165478e-05
101	0x3bbad59d	0.005701734
102	0xba596383	-0.00082927215
103	0x3b761cee	0.0037553865
104	0x3adbb184	0.0016761278
105	0x3a57d40b	0.0008233196
106	0xbb3b621d	-0.0028592416
107	0xba886075	-0.0010404723
108	0xbb573e5b	-0.0032843563
109	0xbbb45925	-0.005503791
110	0x3b881b78	0.004153665
111	0xbafb758d	-0.0019184813
112	0x3c008d88	0.007846244
113	0x3b856e5c	0.0040719938
114	0xba866a59	-0.0010255083
115	0x3b8dda95	0.0043290355
116	0x3a3a9773	0.00071179046
117	0xbacf0aaf	-0.0015796031
118	0xbb3bd83c	-0.0028662821
119	0xbb0758ba	-0.002065225
120	0x3a670b7b	0.00088136614
121	0x3a887d10	0.0010413248
122	0xbc0a8d12	-0.008456485
123	0xbc5703f0	-0.013123497
124	0x39192a4c	0.00014606974
125	0x3ad7693e	0.0016434563
126	0xba16b071	-0.0005748338
127	0x38c1e62c	9.24583e-05
128	0xbb9eaf74	-0.004842693
129	0x3ad4c4ee	0.0016233006
130	0x3b043426	0.0020172684
131	0x3bf27197	0.007398795
132	0x3b4d2b75	0.003130642
133	0xbadb7879	-0.0016744278
134	0x3b633051	0.003466625
135	0x3bba90ea	0.0056935446
136	0xbbc4ac3a	-0.0060019763
137	0x3b1d0a44	0.0023962418
138	0x3981fa38	0.00024791225
139	0xbb4786fc	-0.0030445447
140	0x3bd4635b	0.0064815707
141	0x3c119f47	0.008888072
142	0x33430720	4.5408456e-08
143	0x3c8e8c94	0.017401017
144	0xbbe45037	-0.00696757
145	0xb9d15805	-0.00039929166
146	0x3c545e8b	0.012961994
147	0xba16b8d5	-0.0005749588
148	0x3b8ec367	0.00435679
149	0x39c8d290	0.00038303854
150	0x3aafe1cd	0.0013418734
151	0x3bbc2246	0.0057413904
152	0xba9cbe01	-0.0011958481
153	0xbb2602c2	-0.0025331234
154	0x3aa6ea20	0.001273457
155	0x3b5aa826	0.0033364384
156	0xbb399767	-0.0028319003
157	0xbb95571a	-0.0045575025
158	0x3b7169c9	0.0036836735
159	0x3be00b46	0.0068372814
160	0x3ae0f610	0.0017163176
161	0x3ba8113b	0.005129007
162	0xbba05c24	-0.0048937965
163	0xbb8ec3b2	-0.004356825
164	0x3c191a28	0.009344615
165	0xbb478c99	-0.0030448793
166	0xbb7bfa47	-0.0038448737
167	0xbac03605	-0.0014664537
168	0xbb030cb9	-0.0019996597
169	0xbc30e26b	-0.01079617
170	0x3c1361fb	0.008995528
171	0x3a4821dc	0.000763444
172	0x3ba556d5	0.0050457516
173	0x3b4035f1	0.0029329027
174	0xbb2a4c93	-0.0025985583
175	0xbb3a5567	-0.0028432251
176	0xbb81aa8e	-0.0039570993
177	0x3b66f920	0.0035243705
178	0x3b849dc9	0.00404713
179	0xbaf3dfee	-0.0018606165
180	0xbaeaf986	-0.0017927147
181	0xba8259aa	-0.0009944935
182	0xbb80239d	-0.0039104954
183	0xbabd4f75	-0.0014443236
184	0xb9c14c79	-0.00036868805
185	0xbabf54e6	-0.0014597445
186	0x3c2127cb	0.009836148
187	0xba81f94a	-0.0009916213
188	0x395cce97	0.00021057796
189	0xba6de5ff	-0.00090751046
190	0xbae30fd7	-0.0017323446
191	0x3b2032bd	0.0024444305
192	0x3ad1ab6d	0.0015996523
193	0xbca76d87	-0.020437969
194	0xbac33009	-0.0014891635
195	0xbb0e2204	-0.0021687755
196	0xbb494cc5	-0.0030715924
197	0x3c05708e	0.008144511
198	0xb81b0e05	-3.6967936e-05
199	0x3b162d7e	0.00229153
200	0x3aed80d9	0.0018120065
201	0x3af6ae47	0.0018820249
202	0x3b01b9fc	0.0019794693
203	0xb9904e8b	-0.0002752434
204	0x3bc28a89	0.005936925
205	0xba260141	-0.00063325843
206	0x380b6aa8	3.3239514e-05
207	0xbb8fc300	-0.0043872595
208	0xbc3710a4	-0.011173401
209	0x3902a0da	0.00012457688
210	0xbabb64c0	-0.0014296994
211	0x3b642dcb	0.0034817334
212	0xbafcd889	-0.0019290607
213	0xb8d4931e	-0.000101363505
214	0xbb33cf7d	-0.0027436905
215	0xbaf61781	-0.0018775315
216	0xbb1718b3	-0.0023055493
217	0x3b0a0d84	0.0021065185
218	0xbb3eec9f	-0.0029132736
219	0xb8a9f6ec	-8.104541e-05
220	0xba978912	-0.0011561236
221	0xbad8fdf6	-0.0016555178
222	0xbc17776c	-0.009244781
223	0xbc259a23	-0.01010755
224	0x3bf84136	0.007576133
225	0x3a8dd773	0.0010821655
226	0x3c0091c3	0.007847252
227	0x3b53b78d	0.003230545
228	0x3b379376	0.0028011478
229	0xbba392b9	-0.004991856
230	0xbb7c70d9	-0.003851941
231	0x3aab3b9c	0.001306403
232	0x3a0ac32e	0.0005293366
233	0xbc86f596	-0.016474526
234	0x3b673593	0.0035279735
235	0xb9e70d72	-0.0004406977
236	0xbbd24347	-0.0064167115
237	0x392ae715	0.00016298548
238	0x3ca6dd4b	0.020369193
239	0x3b45d369	0.0030185825
240	0x3afa4f30	0.0019097086
241	0x3b032e92	0.0020016772
242	0x3b893edb	0.004188401
243	0xba9a3fe3	-0.0011768307
244	0x3ba865dc	0.0051390957
245	0xbb2abad4	-0.00260513
246	0xbadc08e1	-0.0016787314
247	0xbabd9194	-0.0014462941
248	0x3bdc372e	0.006720445
249	0x3ad6ee68	0.0016397955
250	0xba491067	-0.00076699856
251	0x3b24235d	0.0025045492
252	0x3b47a02d	0.0030460462
253	0x3acb8a03	0.0015528802
254	0xbb3a4fde	-0.0028428952
255	0xbc008172	-0.007843362

network_body._body_endoder.seq_layers.2.weight f4 [256, 256]
0	0x3cfd2892	0.030903134
1	0xbc36a22c	-0.011147063
2	0x3dbfad85	0.09359268
3	0x3c28c75c	0.010301437
4	0xbd652556	-0.05594381
5	0x3dc9cea7	0.09853869
6	0x3e612955	0.21988423
7	0x3df19c8c	0.11797437
8	0x3ca1ed78	0.019766554
9	0x3cfe7381	0.031060936
10	0x3d812e97	0.063077144
11	0xbd23200d	-0.039825488
12	0x3cedb177	0.029015286
13	0x3d455426	0.048175953
14	0xbc2f6eb6	-0.010707548
15	0x3d906df3	0.07052221
16	0xbda03aeb	-0.07823738
17	0xbdefb331	-0.117041
18	0xbb3d4f0b	-0.0028886225
19	0x3c27fb84	0.010252837
20	0xbc9ad237	-0.018899066
21	0x3c2ea1dd	0.010658708
22	0xbcadc106	-0.021210205
23	0x3daf555f	0.08561205
24	0x3d46de98	0.048552126
25	0xbe0f18be	-0.13974282
26	0xbdbd3c58	-0.09240025
27	0x3d707dfe	0.058713906
28	0xbd515d66	-0.051114462
29	0x3cbbffe9	0.022949176
30	0xbc261d58	-0.010138832
31	0x3a0ec365	0.0005445986
32	0xbdd4b36b	-0.10385784
33	0x3cdbe90f	0.02684453
34	0xbb609df8	-0.0034273844
35	0x3c86e5e3	0.01646704
36	0xbcb2af6a	-0.02181216
37	0xbbb35ccb	-0.0054737083
38	0x3ce6158b	0.028086444
39	0xbd5d073c	-0.053961977
40	0x3d08aba3	0.03336681
41	0xbc91f532	-0.017817114
42	0x3cb5c2cb	0.022187611
43	0x3c8d85df	0.017275749
44	0xbcbda5b8	-0.02315031
45	0xbd484aa6	-0.048899315
46	0x3c96cc7a	0.018408049
47	0x3cab38a8	0.02090104
48	0xbdab6f5b	-0.08370849
49	0xbc1eab01	-0.009684325
50	0x3d97c07f	0.074097626
51	0xbc100b29	-0.008791723
52	0xbd1bd12d	-0.038041282
53	0x3c8761de	0.016526159
54	0x3deb1005	0.11477665
55	0x3e0b6ab7	0.13614927
56	0xbc6d0251	-0.014465884
57	0xbd92b169	-0.071627446
58	0xbb18455b	-0.0023234698
59	0x3d0a027c	0.033693776
60	0xbba85275	-0.005136783
61	0xbc3ce802	-0.011529924
62	0x3d0ff358	0.03514418
63	0xbcd80800	-0.026371002
64	0xbd0274b6	-0.031849585
65	0xbdb1fe03	-0.08691027
66	0xbdc0b2c4	-0.09409097
67	0x3d85e8f9	0.06538577
68	0x3cc3f02e	0.023918238
69	0x3dd4779a	0.10374375
70	0xbdc96f3d	-0.0983567
71	0x3d1a40c5	0.037659425
72	0x3da541de	0.08069204
73	0x3d4e4471	0.05035824
74	0x3db16ecc	0.08663711
75	0xbc1e9c76	-0.009680858
76	0x3da2af41	0.07943583
77	0xbdec0de6	-0.115260884
78	0x3d5a3ab0	0.053278625
79	0xbb276293	-0.0025540933
80	0x3c864837	0.016391857
81	0xbc325075	-0.01088344
82	0xbcef3ca9	-0.02920373
83	0xbcc25159	-0.02372043
84	0x3c9bd679	0.019023167
85	0xbd2cfe95	-0.042234976
86	0xbd7e2505	-0.062047023
87	0x3b8d1d81	0.0043064957
88	0x3ddf84f7	0.10914033
89	0xbd61a546	-0.055089258
90	0x3d38a481	0.04507876
91	0xbc2da67f	-0.010598778
92	0x3ce38b3f	0.027776359
93	0x3d4ed0ba	0.050492026
94	0xbb909656	-0.0044124527
95	0x3d63e2d5	0.055636246
96	0xbd19a40e	-0.03750997
97	0xbcadc77d	-0.021213287
98	0x3d0f12e1	0.034930114
99	0x3cf76f79	0.030204521
100	0x3d3f288e	0.046669535
101	0x3d85edaa	0.065394714
102	0xbe219887	-0.15780841
103	0x3c4bf739	0.012449079
104	0x3d0a7002	0.033798225
105	0x3cc402f1	0.023927184
106	0x3ce1ca37	0.027562244
107	0x3d09b5de	0.033620708
108	0x3caf2fbc	0.021385066
109	0xbd2d0876	-0.042244397
110	0x3ca2ee57	0.01988904
111	0x3d5983e6	0.053104304
112	0x3d3c3755	0.045951206
113	0xbd114fe2	-0.035476573
114	0x3ad86c78	0.0016511818
115	0x3db3ea20	0.0878489
116	0x3e0d580e	0.13803121
117	0xbcba6a23	-0.022755688
118	0x3d09687c	0.03354691
119	0xbdadc9c4	-0.08485749
120	0xbc818e85	-0.015815029
121	0xbd13c4cb	-0.03607635
122	0x3c5f2512	0.013619678
123	0x3d1e824b	0.038698476
124	0x3cbbce8f	0.022925643
125	0xbc26d57b	-0.010182734
126	0x3c400503	0.011719945
127	0xbccb4a12	-0.024815593
128	0xbde50674	-0.111828715
129	0xbb5068cd	-0.0031800747
130	0xbccd000f	-0.025024442
131	0xbd8089e4	-0.062763005
132	0xbc6144d6	-0.013749322
133	0x3d14bdaa	0.03631369
134	0xbc6e29b2	-0.014536308
135	0xbd3d8353	-0.04626782
136	0x3df0bb9b	0.11754533
137	0xbc862f5c	-0.016380005
138	0xbdc921b9	-0.09820885
139	0xbdb16354	-0.086615235
140	0xbceb57e6	-0.028728437
141	0x3db5b90b	0.08873185
142	0x3d0ec9f7	0.034860577
143	0x3c8e1031	0.017341705
144	0xbd281f4e	-0.04104548
145	0x3d29c18b	0.041444343
146	0x3d0b5343	0.03401495
147	0xbc5f164f	-0.013616159
148	0x3d28d464	0.041218176
149	0xbc7c2e4b	-0.0153918965
150	0x3b4b1407	0.003098728
151	0x3bd4c68a	0.0064933943
152	0xbcb4bb53	-0.02206198
153	0xbd3f2258	-0.046663612
154	0x3c801a43	0.015637523
155	0x3ba2c614	0.0049674604
156	0xbda11b2c	-0.07866511
157	0xbce010dc	-0.02735179
158	0xbcc873ae	-0.024469223
159	0xbc537c00	-0.012907982
160	0x3cc62024	0.024185248
161	0x3d8ddf58	0.06927365
162	0x3e219728	0.15780318
163	0x3c022ac1	0.007944764
164	0xbd747e93	-0.059691023
165	0x3cae7f07	0.021300806
166	0x3daf5fa7	0.08563166
167	0xbceb9d49	-0.028761523
168	0xbd6fa33a	-0.058505274
169	0xbd6c8924	-0.057747975
170	0x3d292049	0.041290555
171	0xbd2a795a	-0.041619636
172	0x3ccbf0fc	0.024895184
173	0xbd86d509	-0.06583602
174	0x3c006d55	0.007838567
175	0xbdb8600a	-0.09002693
176	0x3d99e12f	0.075136535
177	0x3bad1035	0.005281473
178	0xbd502b8c	-0.05082278
179	0x3be51e08	0.0069921054
180	0x3e16f8a8	0.14743292
181	0xbc66389c	-0.014051583
182	0x3d280c08	0.0410271
183	0x3dbdccb9	0.092675634
184	0xbd1d5005	-0.03840639
185	0x3e0be689	0.13662161
186	0x3c9f959b	0.019480517
187	0xbcd2a84f	-0.025715021
188	0xbd01ab2d	-0.031657387
189	0xbda9d57c	-0.08292672
190	0x3ccdeac3	0.025136357
191	0xbd144233	-0.036195945
192	0x3c74068a	0.014894137
193	0x3d0dac00	0.03458786
194	0xbc19942f	-0.009373709
195	0x3d2492fd	0.04017924
196	0xbcf2b7ab	-0.029628595
197	0x3dfcfec0	0.12353277
198	0xbdb678b7	-0.08909743
199	0xbdc4012c	-0.09570536
200	0x3c4e3647	0.012586183
201	0x3d4d9380	0.050189495
202	0x3d06674f	0.032813367
203	0xbc4d7b32	-0.012541579
204	0xbd3638d4	-0.04448779
205	0x3cbb5d63	0.022871679
206	0x3caa5127	0.02079065
207	0x3dfb8181	0.1228056
208	0xbcd05ef7	-0.025435908
209	0x3dda4ee4	0.106595784
210	0xbd299a27	-0.041406777
211	0x3cc56bb1	0.024099203
212	0x3dd8dd82	0.10589124
213	0x3d5258dc	0.051354274
214	0xbe04abdd	-0.12956186
215	0x3d0508b3	0.032479
216	0xbc427bc2	-0.0118703265
217	0xbd6f9875	-0.058495004
218	0x3de4aa49	0.11165292
219	0x3d382369	0.044955645
220	0xbcf62e5d	-0.030051405
221	0xbccd6661	-0.025073232
222	0xbce6cc38	-0.028173551
223	0xbdad47ef	-0.08460986
224	0x3dccb9a7	0.09996348
225	0xbd8a60be	-0.06756733
226	0x3bdb4a14	0.0066921804
227	0xbdd5dcfb	-0.10442539
228	0xbd5de8d5	-0.054177124
229	0xbc624502	-0.013810398
230	0x3aa1f8a0	0.0012357421
231	0x3b1580fa	0.0022812472
232	0xbd340bf7	-0.043956723
233	0xbcaa4057	-0.020782633
234	0xbd39b132	-0.045335002
235	0xbdb9a37e	-0.09064387
236	0x3c29575b	0.010335769
237	0xbd3b51be	-0.045732252
238	0xbc6c2721	-0.014413626
239	0xbce2ffc5	-0.027709851
240	0x3dbbbd4e	0.091669664
241	0xbac2e95a	-0.001487057
242	0x3d392d8b	0.04520945
243	0x3d278bd5	0.04090484
244	0x3c3cc03e	0.0115204435
245	0xbdcccc80	-0.09999943
246	0xbd9c2949	-0.07625062
247	0x3da25cbc	0.07927844
248	0xbba00901	-0.004883886
249	0x3d80424a	0.06262644
250	0x3c90d619	0.017680215
251	0x3d386417	0.045017328
252	0x3d94a3ff	0.07257842
253	0x3cbe0dda	0.023199964
254	0x3b6faa9f	0.0036570204
255	0x3d30a02e	0.04312151
