Assets/Training/results/Run 2/DroneBehavior/DroneBehavior-3499978.onnx (onnx, 661208 bytes, 19 tensors)

101 f4 [15]
0.0005345241 0.4540001 0.024061153 0.41728505 0.31361702 0.0005345241 0.3437606 0.0005345241
0.34617618 0.12401271 0.0005345241 0.3437606 0.0005345241 0.34617618 0.12401271
00000000: 4e1f 0c3a b372 e83e e51b c53c 63a6 d53e
00000010: 6992 a03e 4e1f 0c3a 6401 b03e 4e1f 0c3a
00000020: 013e b13e 60fa fd3d 4e1f 0c3a 6401 b03e
00000030: 4e1f 0c3a 013e b13e 60fa fd3d

104 f4 [25]
0.0005345241 0.2742345 0.002329929 0.33972198 0.1859665 0.0005345241 0.15943435 0.0005345241
0.19219443 0.067407265 0.0005345241 0.22978434 0.0005345241 0.26255345 0.09426122 0.0005345241
0.1593147 0.0005345241 0.22743611 0.07639446 0.0005345241 0.1593147 0.0005345241 0.22743611
0.07639446
00000000: 4e1f 0c3a 7768 8c3e b9b1 183b 0af0 ad3e
00000010: 016e 3e3e 4e1f 0c3a c242 233e 4e1f 0c3a
00000020: 9ece 443e d20c 8a3d 4e1f 0c3a 964c 6b3e
00000030: 4e1f 0c3a 686d 863e 070c c13d 4e1f 0c3a
00000040: 6523 233e 4e1f 0c3a 03e5 683e b374 9c3d
00000050: 4e1f 0c3a 6523 233e 4e1f 0c3a 03e5 683e
00000060: b374 9c3d

107 f4 [3]
10.986624 2.0634568 12.816824
00000000: 36c9 2f41 ad0f 0440 b611 4d41

95 f4 [25]
0.0005345241 0.32947907 0.050275825 0.4918057 0.3077386 0.0005345241 0.36133823 0.023424841
0.49258935 0.28256592 0.0005345241 0.37454373 0.0311677 0.49043888 0.28098103 0.0005345241
0.34171855 0.025151912 0.48013845 0.28152964 0.0005345241 0.34171855 0.025151912 0.48013845
0.28152964
00000000: 4e1f 0c3a 7bb1 a83e 06ee 4d3d f5cd fb3e
00000010: ea8f 9d3e 4e1f 0c3a 5301 b93e 74e5 bf3c
00000020: ac34 fc3e 7bac 903e 4e1f 0c3a 32c4 bf3e
00000030: 6853 ff3c ce1a fb3e bfdc 8f3e 4e1f 0c3a
00000040: bcf5 ae3e 620b ce3c b5d4 f53e a724 903e
00000050: 4e1f 0c3a bcf5 ae3e 620b ce3c b5d4 f53e
00000060: a724 903e

98 f4 [55]
0.0005345241 0.22842306 0.0056819525 0.4153396 0.24208133 0.0005345241 0.20785223 0.0053451443
0.4282774 0.24125919 0.0005345241 0.20992148 0.0061874148 0.43823314 0.23734413 0.0005345241
0.06526661 0.0026186125 0.33285666 0.17077655 0.0005345241 0.12313082 0.0052643605 0.37965062
0.19389105 0.0005345241 0.010239176 0.0005345241 0.28162774 0.14031516 0.0005345241 0.11052933
0.0020701988 0.32421714 0.1565573 0.0005345241 0.01736657 0.0005345241 0.3549303 0.16346931
0.0005345241 0.022745457 0.0016035705 0.37038544 0.16908805 0.0005345241 0.02014421 0.0005345241
0.35142216 0.16844462 0.0005345241 0.02014421 0.0005345241 0.35142216 0.16844462
00000000: 4e1f 0c3a bce7 693e ac2f ba3b 64a7 d43e
00000010: 2be4 773e 4e1f 0c3a 37d7 543e 5226 af3b
00000020: 2d47 db3e a60c 773e 4e1f 0c3a a8f5 563e
00000030: ccbf ca3b 1860 e03e 570a 733e 4e1f 0c3a
00000040: 80aa 853d 079d 2b3b 306c aa3e 0ce0 2e3e
00000050: 4e1f 0c3a 032c fc3d a880 ac3b 9161 c23e
00000060: 608b 463e 4e1f 0c3a 38c2 273c 4e1f 0c3a
00000070: 8331 903e c7ae 0f3e 4e1f 0c3a 345d e23d
00000080: 2cac 073b caff a53e 8f50 203e 4e1f 0c3a
00000090: 5644 8e3c 4e1f 0c3a 6db9 b53e 8064 273e
000000a0: 4e1f 0c3a ae54 ba3c e62e d23a 29a3 bd3e
000000b0: 6b25 2d3e 4e1f 0c3a 7805 a53c 4e1f 0c3a
000000c0: 9bed b33e bf7c 2c3e 4e1f 0c3a 7805 a53c
000000d0: 4e1f 0c3a 9bed b33e bf7c 2c3e

action_model._continuous_distribution.log_sigma f4 [1, 3]
0.0076672668 -0.008213823 0.0019996522
00000000: b23d fb3b 4593 06bc 990c 033b

action_model._continuous_distribution.mu.bias f4 [3]
-0.0061702323 -0.011540478 0.016958158
00000000: a92f cabb 4614 3dbc d6eb 8a3c

action_model._continuous_distribution.mu.weight f4 [3, 256]
-0.009348502 -0.021708049 0.02382357 -0.0015257521 -0.030844022 0.0057277144 0.014858125 0.023440951
-0.016749637 -0.021952726 0.015908957 0.0302984 -0.0041207788 0.0154867945 -0.013058655 0.0058236406
0.030715233 -0.025448916 0.031993423 0.0036383201 0.0031210661 -0.021261659 -0.022849167 -0.0036532301
0.018541452 -0.004783539 -0.020868199 -0.0065907543 -0.024846448 0.014958014 0.014330263 -0.044126943
-0.005759372 0.00762307 -0.030935196 -0.016199827 -0.017378254 0.011952282 -0.03148184 -0.0131652
0.0024201523 0.007346608 -0.007576479 0.028028782 -0.013979649 -0.006416956 0.048441004 -0.017295405
0.026643088 0.011852457 -0.006783153 -0.005313068 0.01642137 -0.03164938 -0.013586935 -0.022131622
0.007566838 -0.0049626115 0.00033883247 0.036942795 -0.0136140045 0.010750906 0.022296498 0.021477714
-0.041590706 0.036941938 -0.005847947 -0.026691422 -0.015108952 0.019013714 -0.001932642 -0.0181243
-0.011596959 -0.020750465 -0.036044613 0.009468082 -0.024917886 -0.028172087 -0.010582442 0.027888767
0.04012736 -0.028501876 -0.01844616 -0.021704437 -0.022260448 0.019445337 -0.016165871 0.022311764
0.0018640917 0.011000239 -0.00010450927 0.025199028 -0.016902762 0.021536922 -0.01934844 0.009086065
0.017755264 -0.019373033 0.016738271 0.0264199 0.0050175814 -0.00022984129 0.002715968 -0.0044370485
-0.0020262818 -0.012432887 0.008226605 0.026917228 0.0076533854 -0.013382359 0.005901515 0.009214068
0.0015785857 0.005605344 -0.016132334 -0.022197898 0.043129247 -0.010030923 -0.0058515673 -0.004425344
-0.0029936575 0.0002280375 0.005030312 -0.022387473 -0.016694635 0.0163291 0.018982861 0.0027805534
-0.020960545 0.006262937 -0.007932695 -0.0021097222 -0.0023343554 -0.022013241 -0.020378375 -0.01980778
-0.0110922 0.01587399 0.008176895 0.015645634 0.006924231 0.018787432 -0.04165847 -0.02841469
-0.014181689 -0.014914168 -0.001846596 0.007194874 -0.023787176 -0.005732627 0.009970596 -0.040196545
0.022916388 0.004138643 0.009101575 0.018102987 -0.0040276907 0.00087740284 0.028502723 -0.0011043743
-0.008868599 -0.012077595 0.0042598904 -0.0072048665 -0.014871395 0.000166475 -0.038383354 0.028641982
0.01550413 0.038424637 -0.0031857153 -0.003408062 -0.006667113 -0.025761532 0.016665304 -0.018466972
-0.006495662 0.03079364 -0.010905176 0.020421097 -0.010556208 -0.014624724 -0.04664162 -0.011663117
0.01825668 -0.0036752 0.026574321 0.024116313 0.0072560315 0.0059288926 0.029989474 -0.011331567
-0.03309114 -0.018328173 -0.00018052346 -0.015416007 -0.02300272 -0.01009199 0.017104944 0.0044327946
0.00075979903 -0.02300753 -0.0153353335 0.027575873 0.013540542 -0.010850473 -0.015201117 -0.0038708234
0.0034931367 0.012264132 -0.020041808 -0.021049464 0.035154372 0.010511792 -0.02116056 -0.026759595
-0.0068842964 -0.01861827 0.021873908 -0.0016926089 0.022961223 -0.03524435 -0.0076956935 0.011223984
-0.010740206 -0.0036041623 -0.0055132364 0.032162566 0.023483643 -0.015618318 0.021896373 -0.008379483
0.015194855 0.004635554 -0.0051685795 -9.6047595e-05 0.0026368534 -0.02108999 -0.026077673 0.013104328
-0.0034070346 0.006472265 0.002968022 -0.027445702 -0.0019451586 0.019795354 -0.029857831 -0.022745252
-0.010602723 0.008905074 -0.017638613 -0.03480756 0.00091037934 -0.0293396 0.0004867307 -0.0036273918
00000000: 762a 19bc 14d5 b1bc a629 c33c bffb c7ba
00000010: 9aac fcbc 8daf bb3b 7e6f 733c 3d07 c03c
00000020: 8936 89bc 34d6 b3bc 8053 823c 5a34 f83c
00000030: 9907 87bb 53bc 7d3c f8f3 55bc 3dd4 be3b
00000040: 839e fb3c 3f7a d0bc 890b 033d e270 6e3b
00000050: cd8a 4c3b ee2c aebc 2d2e bbbc 086b 6fbb
00000060: 3ee4 973c 3cbf 9cbb c9f3 aabc 41f7 d7bb
00000070: c78a cbbc 7512 753c 7bc9 6a3c 74be 34bd
00000080: 1db9 bcbb f2ca f93b cf6b fdbc 80b5 84bc
00000090: d75c 8ebc 81d3 433c 1af3 00bd dab2 57bc
000000a0: 6b9b 1e3b d1bb f03b 1d44 f8bb 9e9c e53c
000000b0: e60a 65bc 5445 d2bb 136a 463d 18af 8dbc
000000c0: 9b42 da3c cf30 423c 3645 debb 3f19 aebb
000000d0: 1c86 863c c8a2 01bd bc9b 5ebc 604d b5bc
000000e0: 3df3 f73b 679d a2bb 53a5 b139 5451 173d
000000f0: 460d 5fbc 9124 303c 25a7 b63c 08f2 af3c
00000100: 045b 2abd 6e50 173d 23a0 bfbb f8a7 dabc
00000110: 8a8b 77bc a6c2 9b3c b450 fdba 6979 94bc
00000120: 2c01 3ebc e1fc a9bc 84a3 13bd 0420 1b3c
00000130: 9820 ccbc 26c9 e6bc fb61 2dbc fc76 e43c
00000140: 965c 243d c47c e9bc 671c 97bc 81cd b1bc
00000150: 8b5b b6bc d44b 9f3c 4a6e 84bc 29c7 b63c
00000160: 8a54 f43a 593a 343c fd2b dbb8 316e ce3c
00000170: a977 8abc 336e b03c 9f80 9ebc b8dd 143c
00000180: 7d73 913c 32b4 9ebc b31e 893c 8c6e d83c
00000190: 866a a43b 8d01 71b9 62fe 313b a964 91bb
000001a0: 5ecb 04bb 4fb3 4bbc e2c8 063c 8581 dc3c
000001b0: 40c9 fa3b af41 5bbc 7f61 c13b 9af6 163c
000001c0: 8ce8 ce3a 09ad b73b f527 84bc 5ed8 b5bc
000001d0: 4ba8 303d be58 24bc 81be bfbb 7a02 91bb
000001e0: 3d31 44bb 5a1d 6f39 51d5 a43b ef65 b7bc
000001f0: 30c3 88bc 9bc4 853c f281 9b3c f239 363b
00000200: 73b5 abbc 5339 cd3b 22f8 01bc 4443 0abb
00000210: fcfb 18bb 1d55 b4bc 8df0 a6bc ed43 a2bc
00000220: 0fbc 35bc 2b0a 823c 62f8 053c 462b 803c
00000230: a9e4 e23b 1ae8 993c 12a2 2abd edc5 e8bc
00000240: 515a 68bc 8e5a 74bc 7b09 f2ba fac2 eb3b
00000250: 53dd c2bc c3d8 bbbb b65b 233c 22a5 24bd
00000260: 26bb bb3c 749d 873b c61e 153c b74c 943c
00000270: b8fa 83bb 8201 663a 8b7e e93c a7c0 90ba
00000280: 9a4d 11bc 1be1 45bc 8d96 8b3b cd16 ecbb
00000290: 27a7 73bc cb8f 2e39 dd37 1dbd 97a2 ea3c
000002a0: 0905 7e3c 2763 1d3d 6fc7 50bb cb59 5fbb
000002b0: cc77 dabb d909 d3bc ad85 883c 0c48 97bc
000002c0: 90d9 d4bb f242 fc3c a0ab 32bc 254a a73c
000002d0: f2f3 2cbc 8a9c 6fbc 490b 3fbd a916 3fbc
000002e0: 088f 953c a0db 70bb 64b2 d93c 938f c53c
000002f0: 01c4 ed3b 2847 c23b 7cac f53c 09a8 39bc
00000300: 938a 07bd f724 96bc e64a 3db9 6b93 7cbc
00000310: 3370 bcbc e058 25bc ab1f 8c3c fa40 913b
00000320: 402d 473a 4a7a bcbc 0d41 7bbc cce6 e13c
00000330: 26d9 5d3c 2fc6 31bc 1b0e 79bc a4ad 7dbb
00000340: 1ced 643b 7fef 483c b82e a4bc ed6f acbc
00000350: 08fe 0f3d a739 2c3c e958 adbc f036 dbbc
00000360: aa95 e1bb 5885 98bc e930 b33c 88da ddba
00000370: 2d19 bc3c 615c 10bd 282c fcbb cde4 373c
00000380: b0f7 2fbc cf33 6cbb 61a8 b4bb e5bc 033d
00000390: c560 c03c f9e3 7fbc 0660 b33c 194a 09bc
000003a0: d7f3 783c d8e5 973b 305d a9bb 296d c9b8
000003b0: 0fcf 2c3b eac4 acbc d8a0 d5bc 89b3 563c
000003c0: 8e48 5fbb 4b15 d43b 2583 423b cfd5 e0bc
000003d0: b1f4 feba de29 a23c 6998 f4bc 4054 babc
000003e0: 0bb7 2dbc 96e6 113c da7e 90bc 5f92 0ebd
000003f0: 86a6 6e3a 9a59 f0bc e42f ff39 89b9 6dbb

network_body._body_endoder.seq_layers.0.bias f4 [256]
0.014525403 0.017246302 -0.02883636 -0.011831877 0.021399051 0.031214545 -0.0008617543 0.015989233
0.0018480134 0.004805146 0.0002993072 0.039584327 0.020906381 -0.022588328 -0.022084013 -0.015548477
0.023623735 0.009207493 -0.0068267365 -0.02217732 0.006382142 -0.012730333 0.02785817 -0.023257423
0.0072476338 0.017588016 0.0023182046 -0.0084555475 -0.012560451 0.014355057 0.012260671 0.022667782
0.032299865 -0.00069078634 0.012656413 0.04797725 0.062391315 0.015022138 0.01681694 0.034140047
0.0068685273 -0.0018997625 0.00888947 0.013083193 -0.012982308 0.0075515974 0.0057186955 -0.0146362465
0.0041857525 -0.008668843 0.009821306 0.028423555 0.0030523336 0.030979645 0.011718713 -0.0021615364
-0.006394896 0.00981005 -0.0028496177 0.027860617 -0.0023626024 0.0036989874 0.027794069 0.008796001
0.031329677 -0.0057527535 -0.0046567162 0.04900313 0.033316042 -0.002458182 0.0026556207 0.005955782
0.057166044 -0.010263333 0.029308384 -0.01544461 0.003399953 0.03595584 0.0036228825 -0.0036490208
0.01853269 -0.0046687336 0.040676303 -0.0022695404 -0.00463524 0.01912866 0.0071989396 0.016543232
0.0013643727 0.0041210544 -0.0015422483 -0.0031537695 0.03897383 0.02111277 0.050937556 0.040178433
0.005098321 -0.0068999217 0.014987625 0.012529493 -0.012140991 -0.007736404 -0.005237403 0.0033877513
0.039408144 -0.019242743 -0.008528711 -0.010692514 -0.011417935 0.029231014 0.025632283 0.006767022
0.0047214087 0.025965523 0.028398171 0.018734284 0.0044068117 -0.01170522 -0.013333452 0.00086787145
0.018758308 0.016697668 0.0245851 0.010413977 0.04290512 0.017263172 0.0052786754 0.019502938
0.019694243 -0.0046742638 -0.0009510447 -0.024456369 -0.00056805427 -0.004110831 0.042016134 0.011382804
0.020900296 0.005258982 -0.028094025 -0.019030381 0.022369819 -0.0114878835 0.010726379 -0.0038996285
0.04996158 0.0032295948 -0.0041817655 -0.0041115712 -0.012671269 -0.003897875 0.0034695547 0.012885357
-0.015780456 -0.012604856 0.012156971 0.014078513 0.026502602 0.009758449 0.013260897 0.005165222
0.041363493 -0.004977881 -0.0015110961 0.008983003 0.027536694 0.03980106 0.009423699 0.064092726
-0.0048667793 0.028914336 -0.011205096 0.037694946 -0.012779954 0.005736676 0.008951429 -0.012273267
0.006476654 -0.0067115957 -0.01793509 -0.02014349 0.0073485356 -0.0054277875 0.010782525 0.065425165
0.058983255 0.020333104 0.029468251 -0.02316701 0.007646692 0.00040809158 0.028554682 0.0093271285
-0.00790763 0.028678913 -0.0068650316 0.0042620357 0.0045269663 0.031326987 0.008246647 0.023685455
-0.03218339 -0.0038134851 -0.0166592 -0.013587777 0.03319218 0.0326983 0.0341334 -0.011457459
0.0071166893 0.0142455185 -0.0025101204 -0.018783187 0.006304865 0.012752575 -0.0031646038 -0.0036365027
-6.2543586e-05 0.010564942 -0.00087283266 -0.016955141 0.015284943 -0.003721792 -0.0044857427 0.0062274267
0.01248331 0.008800737 0.049121622 -0.015827142 -0.014548157 0.003254618 0.06330323 0.036444277
0.0004636732 -0.00046317722 0.042899866 -0.0137947 0.006464282 -0.010389126 -0.018511897 -0.02171336
-0.0068671475 -0.024882054 0.01970602 -0.0065347194 0.016684227 0.027867349 0.011758751 0.0037708227
0.029982744 -0.017955601 -0.020675652 0.024634816 -0.0012868976 0.0076212585 0.0024343135 -0.01575033
00000000: f5fb 6d3c 1e48 8d3c 3b3a ecbc 7dda 41bc
00000010: 104d af3c a5b5 ff3c 5ae7 61ba dafb 823c
00000020: 0a39 f23a 7c74 9d3b 55ec 9c39 2d23 223d
00000030: dc43 ab3c 280b b9bc 88e9 b4bc 0abf 7ebc
00000040: 9086 c13c 06db 163c d1b2 dfbb 36ad b5bc
00000050: 4a21 d13b e392 50bc d136 e43c 5a86 bebc
00000060: 8f7d ed3b be14 903c 05ed 173b 2389 0abc
00000070: 5aca 4dbc 7931 6b3c fbe0 483c c9b1 b93c
00000080: dd4c 043d e315 35ba d85c 4f3c cb83 443d
00000090: 098e 7f3d 6a1f 763c aec3 893c 6fd6 0b3d
000000a0: 6211 e13b 7401 f9ba 24a5 113c e45a 563c
000000b0: bfb3 54bc 6473 f73b e563 bb3b decc 6fbc
000000c0: a328 893b c307 0ebc 8be9 203c 84d8 e83c
000000d0: a909 483b 06c9 fd3c d8ff 3f3c 90a8 0dbb
000000e0: 478c d1bb 55ba 203c a7c0 3abb f33b e43c
000000f0: e4d5 1abb b66a 723b 63b0 e33c 1a1d 103c
00000100: 8c53 003d 9881 bcbb 5e97 98bb 82b7 483d
00000110: 6776 083d 7319 21bb ec09 2e3b b828 c33b
00000120: f126 6a3d 8a27 28bc 2318 f03c 640b 7dbc
00000130: bfd1 5e3b 6e46 133d e26d 6d3b 6924 6fbb
00000140: ded1 973c 2dfc 98bb 329c 263d 92bc 14bb
00000150: 36e3 97bb b5b3 9c3c 15e5 eb3b ac85 873c
00000160: c0d4 b23a e909 873b 4425 caba 79af 4ebb
00000170: 06a3 1f3d b0f4 ac3c e6a3 503d 2492 243d
00000180: d10f a73b bd18 e2bb a88e 753c 8148 4d3c
00000190: 02eb 46bc a981 fdbb 859e abbb 0905 5e3b
000001a0: 6f6a 213d f5a2 9dbc 02bc 0bbc a72f 2fbc
000001b0: 4a12 3bbc e175 ef3c cbfa d13c e5bd dd3b
000001c0: 0cb6 9a3b a6b5 d43c 48a3 e83c a478 993c
000001d0: 0467 903b 40c7 3fbc 8d74 5abc de81 633a
000001e0: 06ab 993c 8cc9 883c b166 c93c 639f 2a3c
000001f0: 47bd 2f3d 7f6b 8d3c bdf8 ac3b a0c4 9f3c
00000200: d255 a13c 912a 99bb 884f 79ba b958 c8bc
00000210: 7ae9 14ba 26b4 86bb 1c19 2c3d f17e 3a3c
00000220: 1937 ab3c 8a53 ac3b 7125 e6bc 9ae5 9bbc
00000230: e940 b73c ad37 3cbc b2bd 2f3c e990 7fbb
00000240: 84a4 4c3d 9ca7 533b 3107 89bb 5cba 86bb
00000250: 279b 4fbc 7e73 7fbb 7861 633b 1b1d 533c
00000260: 0446 81bc 9984 4ebc 082e 473c 90a9 663c
00000270: fc1b d93c e7e1 1f3c 3c44 593c 0641 a93b
00000280: c46c 293d 7e1d a3bb f90f c6ba 722d 133c
00000290: a294 e13c 7006 233d dc65 1a3c 0c43 833d
000002a0: 8179 9fbb c2dd ec3c 9495 37bc 0466 1a3d
000002b0: 0363 51bc bafa bb3b 04a9 123c d015 49bc
000002c0: 1d3a d43b f2ec dbbb 9cec 92bc f603 a5bc
000002d0: fccb f03b 95db b1bb 30a9 303c a1fd 853d
000002e0: 6d98 713d 9c91 a63c 6767 f13c bec8 bdbc
000002f0: 1a91 fa3b 20f5 d539 82eb e93c d0d0 183c
00000300: 018f 01bc 0af0 ea3c 0ff4 e0bb 8ca8 8b3b
00000310: f256 943b ba50 003d f21c 073c 0008 c23c
00000320: bbd2 03bd aaeb 79bb e078 88bc 449f 5ebc
00000330: 86f4 073d a7ee 053d 77cf 0b3d 11b8 3bbc
00000340: 1e33 e93b 0966 693c d580 24bb 33df 99bc
00000350: 0a99 ce3b 2df0 503c 3e65 4fbb 6452 6ebb
00000360: d529 83b8 9418 2d3c cfce 64ba 82e5 8abc
00000370: b36d 7a3c 4fe9 73bb 23fd 92bb 710f cc3b
00000380: cc86 4c3c f730 103c c133 493d eca7 81bc
00000390: 655b 6ebc 6e4b 553b 20a5 813d 9846 153d
000003a0: 2a19 f339 98d6 f2b9 c5b7 2f3d 2a03 62bc
000003b0: 54d2 d33b 2737 2abc 43a6 97bc 37e0 b1bc
000003c0: cf05 e1bb 73d5 cbbc 856e a13c 3321 d6bb
000003d0: 5cad 883c 114a e43c c7a7 403c e81f 773b
000003e0: 5f9e f53c a017 93bc fc5f a9bc f4ce c93c
000003f0: 1ead a8ba c0bb f93b 0189 1f3b d606 81bc

network_body._body_endoder.seq_layers.0.weight f4 [256, 123]
-0.022083838 -0.04270971 -0.0038390711 -0.047648888 0.03331936 0.019914242 0.08229765 0.045559686
0.034431145 0.100163706 -0.02893284 -0.04153436 -0.062667236 0.027560385 -0.08168702 -0.14919288
0.02846536 0.015790295 -0.105356105 0.04658367 0.06467284 -0.17251451 0.017441768 -0.010438558
0.033017784 -0.077640146 0.024799652 0.07139501 -0.04734633 -0.06690176 -0.0067442954 -0.13053647
-0.004180255 -0.08682447 -0.12577021 0.020593734 -0.07682134 0.11887972 0.12177258 -0.11529901
-0.057966243 -0.06314931 0.029731056 0.057707902 -0.036340475 -0.13327771 0.13017519 0.07084527
0.11129853 0.09613303 -0.08690589 -0.0784975 0.032440722 0.019012967 0.09735536 0.010861308
0.030005543 -0.06533817 -0.009727925 -0.083315074 0.028892389 -0.03943089 -0.045587312 -0.06044385
-0.114715666 0.069422044 -0.061224688 -0.1177964 0.018084466 0.009037446 -0.025353493 -0.05353624
0.056752916 -0.028877588 -0.015992356 0.115399815 0.06660178 0.060075868 -0.02242118 -0.16300231
0.034180082 -0.029428331 -0.12395474 0.0073689474 0.11999381 -0.029244846 0.09540185 -0.033791862
-0.054219767 -0.0047322623 -0.05157011 -0.075684376 0.089235045 0.02207615 -0.019844187 -0.09054311
0.034560233 -0.047766566 -0.054904576 -0.1130657 0.004555958 -0.024486726 0.09535889 0.12105625
0.05596215 0.06520092 0.046781782 -0.05174716 0.00020223444 -0.04564645 -0.047975555 0.10134512
0.078400955 0.07794885 -0.0015732177 -0.05366511 -0.092776015 0.15709168 0.06725679 -0.038787175
-0.1731153 -0.04366601 -0.09872005 -0.15223342 -0.008583324 0.025306337 0.100201026 0.015294277
0.08357708 0.1868439 -0.01255835 0.09222705 -0.10309428 0.013801741 -0.03947017 0.08938488
0.025749737 0.19804834 -0.002424239 0.08920954 -0.020274686 0.012161583 0.07403802 -0.010101949
-0.040714737 -0.02759509 0.031686205 -0.051889624 -0.183751 -0.09815499 -0.044002786 -0.16682842
0.031140825 0.019078027 -0.014739865 -0.01709722 -0.12741874 0.028683975 -0.026845345 -0.116287224
-0.052150883 -0.076606385 0.05304932 0.07475521 0.043721784 -0.14408134 0.055496935 -0.029288504
0.07181259 0.06124889 0.0493214 -0.10546429 0.14017998 0.106217876 0.06307625 -0.061628222
0.020345375 -0.17015524 -0.0033494392 0.04768263 -0.19662274 0.05949159 -0.09705284 0.047426652
-0.03350374 -0.012232741 -0.012184738 -0.07120684 0.029043104 -0.09052561 -0.1956886 0.017662797
-0.060746733 -0.02071076 -0.012956497 -0.03666504 0.046100184 -0.07670219 -0.052957702 0.056334663
0.042091187 -0.030147033 -0.08083422 -0.075392455 -0.14537998 -0.062389694 -0.0050508725 -0.0017016534
0.0012176903 0.011537341 0.08722639 0.03992443 -0.16987091 -0.10850007 0.038624965 0.0051588006
0.057003666 0.09203716 0.021667559 -0.0011428905 0.12738617 -0.13073424 -0.0061718035 -0.02148131
0.036581554 0.0806266 0.0021529056 -0.024445856 0.06375134 -0.07277929 0.0036961064 0.20016554
0.024478678 0.07878813 -0.05091 -0.13082373 0.17207132 0.05134153 0.0030863467 0.20001605
0.012913641 0.0176941 0.011928489 0.14016606 -0.07365917 0.010492198 -0.032521024 0.05227981
-0.007816255 -0.0059426334 -0.010547978 -0.012307183 0.12515843 -0.060264993 0.10054775 -0.00415241
00000000: 2ae9 b4bc 60f0 2ebd ed98 7bbb 7b2b 43bd
00000010: e279 083d 3123 a33c ac8b a83d cb9c 3a3d
00000020: ac07 0d3d a122 cd3d 9004 edbc ef1f 2abd
00000030: ae57 80bd 51c6 e13c 864b a7bd 05c6 18be
00000040: 3030 e93c a65a 813c f1c4 d7bd 85ce 3e3d
00000050: 3273 843d a5a7 30be 0ae2 8e3c 7c06 2bbc
00000060: a83d 073d cc01 9fbd a428 cb3c 8c37 923d
00000070: 3aee 41bd ca03 89bd 40ff dcbb 5aab 05be
00000080: 85fa 88bb 07d1 b1bd e8c9 00be 31b4 a83c
00000090: 8254 9dbd 3677 f33d e763 f93d e321 ecbd
000000a0: 036e 6dbd 6d54 81bd 8b8e f33c 1f5f 6c3d
000000b0: c0d9 14bd f479 08be a54c 053e 5317 913d
000000c0: 7cf0 e33d 65e1 c43d b7fb b1bd 4cc3 a0bd
000000d0: 90e0 043d 15c1 9b3c 3f62 c73d a1f3 313c
000000e0: 2fce f53c 05d0 85bd e061 1fbc 18a1 aabd
000000f0: bbaf ec3c 4982 21bd c3b9 3abd f893 77bd
00000100: 0cf0 eabd 252d 8e3d bdc6 7abd 3d3f f1bd
00000110: e025 943c cc11 143c 21b2 cfbc d148 5bbd
00000120: bf75 683d b190 ecbc 6702 83bc bd56 ec3d
00000130: 8466 883d 1d12 763d 9fac b7bc 14ea 26be
00000140: 6a00 0c3d af13 f1bc fcdb fdbd 3677 f13b
00000150: 51bf f53d e392 efbc 0c62 c33d 5669 0abd
00000160: 8c15 5ebd 1811 9bbb 2e3b 53bd 6900 9bbd
00000170: ddc0 b63d 0bd9 b43c 4790 a2bc ab6e b9bd
00000180: 088f 0d3d e0a6 43bd 9fe3 60bd fd8e e7bd
00000190: 254a 953b 6398 c8bc 864b c33d 57ec f73d
000001a0: 9138 653d 0f88 853d 419e 3f3d d4f4 53bd
000001b0: e50e 5439 c6f7 3abd 0482 44bd 088e cf3d
000001c0: ae90 a03d a6a3 9f3d 6d34 ceba f2cf 5bbd
000001d0: 5a01 bebd a4dc 203e eebd 893d 4ddf 1ebd
000001e0: 2345 31be 21db 32bd bd2d cabd 14e3 1bbe
000001f0: 12a1 0cbc 3c4f cf3c 3236 cd3d d994 7a3c
00000200: 762a ab3d 0254 3f3e 8ac1 4dbc 89e1 bc3d
00000210: 1823 d3bd b320 623c 79ab 21bd 6c0f b73d
00000220: 1df1 d23c 2fcd 4a3e fbdf 1ebb 7eb3 b63d
00000230: 1917 a6bc 6041 473c 3fa1 973d a582 25bc
00000240: 7fc4 26bd 190f e2bc 65c9 013d 378a 54bd
00000250: 3929 3cbe 7c05 c9bd 443c 34bd 12d5 2abe
00000260: 0b1b ff3c 8649 9c3c 7a7f 71bc 780f 8cbc
00000270: 0f7a 02be a8fa ea3c c5ea dbbc ff27 eebd
00000280: 2a9c 55bd cfe3 9cbd 3e4a 593d 4219 993d
00000290: 9d15 333d 0f8a 13be c150 633d 72ee efbc
000002a0: 7b12 933d 1ee0 7a3d 3c05 4a3d a9fd d7bd
000002b0: 578b 0f3e c288 d93d 1f2e 813d e06d 7cbd
000002c0: 58ab a63c 2d3d 2ebe 4482 5bbb dd4e 433d
000002d0: 7957 49be 74ad 733d a4c3 c6bd 7342 423d
000002e0: 383b 09bd d66b 48bc 7fa2 47bc e4d4 91bd
000002f0: ceeb ed3c 7e65 b9bd 9862 48be 92b1 903c
00000300: 91d1 78bd 9da9 a9bc 7d47 54bc 152e 16bd
00000310: 8cd3 3c3d 0a16 9dbd 2dea 58bd 2dbf 663d
00000320: cf67 2c3d e9f6 f6bc 698c a5bd 5c67 9abd
00000330: 7dde 14be 568c 7fbd ca81 a5bb 030a dfba
00000340: e89a 9f3a 1e07 3d3c c0a3 b23d cd87 233d
00000350: a4f2 2dbe 4935 debd 3635 1e3d 280b a93b
00000360: ad7c 693d fb7d bc3d 2a80 b13c 0bcd 95ba
00000370: 8571 023e 32df 05be d73c cabb 92f9 afbc
00000380: 8ad6 153d 8f1f a53d c317 0d3b ad42 c8bc
00000390: 1090 823d 4f0d 95bd 603a 723b 32f8 4c3e
000003a0: 8287 c83c ac5b a13d 0187 50bd a8f6 05be
000003b0: 7733 303e 7f4b 523d 4e44 4a3b 02d1 4c3e
000003c0: bc93 533c 38f3 903c b66f 433c b187 0f3e
000003d0: 9eda 96bd 78e7 2b3c c434 05bd 5b23 563d
000003e0: c00f 00bc 6cba c2bb 6dd1 2cbc 11a4 49bc
000003f0: 8829 003e 6dd8 76bd fbeb cd3d f110 88bb

network_body._body_endoder.seq_layers.2.bias f4 [256]
-0.0034340986 -0.008326799 -0.0044390294 0.010256308 0.023542615 -0.008742646 0.06253828 -0.018837573
0.0064216517 0.020645903 -0.0069685755 -0.015246001 -0.0022429256 0.022896996 0.050236654 0.024268357
0.052776974 0.023133093 -0.018560013 0.025452022 -0.01807565 0.03308648 0.017310748 0.00943834
0.0014815172 -0.0028028232 0.020606827 -0.0052069393 -0.0005548782 0.018334439 0.013629109 -0.008465622
0.008102819 0.0002252674 -0.0051383274 0.009796465 -0.0027157872 0.010520366 0.028458027 0.024441
-0.0090737 0.03546904 0.008499477 -0.02287781 0.029045636 0.009716316 0.026832554 -0.0076705636
-0.00053346885 0.047394045 0.03341132 -0.0026037826 -0.0075902087 0.029010082 0.011189238 0.005380252
-0.008051738 -0.010482794 0.004607131 -0.01126135 -0.0005598951 0.0029444594 -0.0036646216 -0.0030459617
0.017701192 0.033272814 -0.0033470977 0.015276506 -0.0034370124 0.0005138327 -0.010225695 -0.00028542438
0.029054733 0.0068082926 -0.015686316 0.021376716 0.006688757 -0.009570398 0.021303486 0.0030779357
0.021651754 -0.020635609 -0.017608654 -0.015542673 -0.012175349 -0.008990502 -0.021899624 -0.012395939
0.0184119 -0.019677691 -0.0126287965 -0.009623969 0.0007692583 0.019140428 -0.015386787 0.037943907
0.029162943 -0.0072306246 -0.0151755735 0.009003967 0.040366665 0.021975253 0.016119419 0.031421427
0.022301262 -0.02131373 0.0052218013 0.0031457236 -0.008264106 -0.014817194 0.0066050333 -0.008659337
0.03738782 0.035119724 0.04582572 0.0030721147 -0.0084467 0.03381179 0.0045062136 0.01583439
0.013976797 0.0023963675 0.0072197714 0.0013918425 0.0071930676 0.0068349033 -0.008631505 -0.0071900017
-0.0066282493 -0.008829452 -0.00934603 -0.009292696 -0.016931377 0.0007556542 0.0015277851 0.0036276449
-0.014933388 -0.0047726077 0.016759021 -0.010697876 -0.015986608 -0.014927388 0.013836755 -0.0016604224
0.024888562 0.008046608 0.018292204 -0.005496673 0.01547964 -0.0009855238 0.020985257 0.004722094
-0.011383757 0.008638454 0.018911125 0.00033799422 0.04951295 -0.00048544083 -0.0024689606 0.027460864
0.006574153 0.014364756 -0.017289681 0.01472659 0.014792036 -0.0031883882 -0.04110299 -0.007628739
0.018890008 0.03368904 0.0016010556 0.007148982 0.010690291 0.015286259 0.00080336485 -0.0198866
0.010637599 0.028739635 -0.005254314 0.00754737 0.003463972 0.052217044 -0.012117435 0.007906315
0.02569654 0.0008629213 -0.0009875513 0.021426225 -0.00713001 0.015613947 0.016155241 -0.0065784436
0.024600474 -0.0027412935 0.027789954 0.010028301 0.022460664 0.009323418 0.0047000926 0.032755893
-0.013941358 0.03693858 -0.027859485 0.010235252 0.03470127 0.019783687 -0.0010413126 -0.0076168203
0.008960517 0.03050006 -0.01354503 -0.0061562867 -0.0011384822 -0.006731841 0.05305958 0.017416624
-0.002880246 0.024897851 -0.017908793 0.014154514 -0.0047579957 0.043670386 0.019065363 -0.005858803
0.0070596877 0.00451052 0.0062999898 0.00036974583 0.013544749 0.035159957 0.0050573433 -0.024098726
0.01461618 0.007975403 -0.012769358 -0.0013873097 -0.005554561 0.017071357 -0.012360023 0.013947465
0.0089970445 0.0049934625 -0.0035008646 -0.00017748111 -0.013514416 -0.013395943 -0.0020034297 0.0026478586
-0.0010243425 -0.006913899 0.040071886 -0.010067588 -0.0031303642 -0.018073278 -0.008528163 -0.008085701
00000000: 9d0e 61bb 206d 08bc 4775 91bb 130a 283c
00000010: 71dc c03c 513d 0fbc 1214 803d 4151 9abc
00000020: b86c d23b 9921 a93c a658 e4bb 5dca 79bc
00000030: 0cfe 12bb 7b92 bb3c f3c4 4d3d 6fce c63c
00000040: ab2c 583d 9d81 bd3c 2b0b 98bc c280 d03c
00000050: 6313 94bc b085 073d 45cf 8d3c 44a3 1a3c
00000060: 782f c23a 92af 37bb a6cf a83c f99e aabb
00000070: 3f75 11ba 1b32 963c a04c 5f3c 64b3 0abc
00000080: b0c1 043c c235 6c39 6a5f a8bb 5a81 203c
00000090: 59fb 31bb 9d5d 2c3c cf20 e93c 7e38 c83c
000000a0: dba9 14bc fc47 113d 6441 0b3c 3f6a bbbc
000000b0: 1df1 ed3c 2f31 1f3c f2cf db3c 5a59 fbbb
000000c0: 7dd8 0bba 4220 423d 4fda 083d 39a4 2abb
000000d0: 49b7 f8bb 8da6 ed3c 1153 373c d34c b03b
000000e0: 70eb 03bc 06c0 2bbc 6af7 963b 8681 38bc
000000f0: edc5 12ba d5f7 403b 262a 70bb c29e 47bb
00000100: 1702 913c 1349 083d fb5a 5bbb 4f4a 7a3c
00000110: 803f 61bb bbb2 063a ac89 27bc 03a5 95b9
00000120: 3104 ee3c 1918 df3b 9780 80bc 391e af3c
00000130: 5c2d db3b 29cd 1cbc a684 ae3c 31b7 493b
00000140: 055f b13c 020c a9bc 0640 90bc b2a6 7ebc
00000150: 1d7b 47bc e64c 13bc d766 b3bc 5618 4bbc
00000160: 8ed4 963c 1c33 a1bc 03e9 4ebc daad 1dbc
00000170: 0da8 493a 63cc 9c3c dd18 7cbc 126b 1b3d
00000180: 20e7 ee3c e0ee ecbb f8a2 78bc 6085 133c
00000190: 8457 253d 7205 b43c df0c 843c c1b3 003d
000001a0: 23b1 b63c 229a aebc a51b ab3b 7c28 4e3b
000001b0: 2c66 07bc d1c3 72bc 096f d83b e4df 0dbc
000001c0: f923 193d b3d9 0f3d c0b3 3b3d 8855 493b
000001d0: 0764 0abc 3b7e 0a3d dca8 933b 1fb7 813c
000001e0: f0fe 643c 600c 1d3b d593 ec3b 7c6e b63a
000001f0: d3b3 eb3b 53f7 df3b 286b 0dbc 1b9a ebbb
00000200: c931 d9bb 68a9 10bc 1720 19bc 6440 18bc
00000210: acb3 8abc 1817 463a f63f c83a c8bd 6d3b
00000220: 2bab 74bc 8963 9cbb 374a 893c 2546 2fbc
00000230: 59f6 82bc 0192 74bc 8fb3 623c 88a2 d9ba
00000240: 19e3 cb3c ecd5 033c 88d9 953c 6f1d b4bb
00000250: 519e 7d3c b12c 81ba 46e9 ab3c ccbb 9a3b
00000260: f082 3abc 4d88 0d3c 81eb 9a3c d134 b139
00000270: 17ce 4a3d c482 feb9 49ce 21bb 9bf5 e03c
00000280: fe6b d73b 275a 6b3c 17a3 8dbc cc47 713c
00000290: 4c5a 723c 47f4 50bb 9c5b 28bd 80fa f9bb
000002a0: 38bf 9a3c 85fd 093d 83da d13a 0242 ea3b
000002b0: 5526 2f3c 3873 7a3c e798 523a 39e9 a2bc
000002c0: 5349 2e3c 626f eb3c 612c acbb ee4f f73b
000002d0: ce03 633b 8ae1 553d 3588 46bc 7d89 013c
000002e0: 8d81 d23c ab35 623a b970 81ba 0d86 af3c
000002f0: dca2 e9bb a4d1 7f3c ff57 843c fc8f d7bb
00000300: ef86 c93c 46a7 33bb c2a7 e33c be4d 243c
00000310: 6dff b73c 40c1 183c 3c03 9a3b 0b2b 063d
00000320: 4b6a 64bc e94c 173d 9339 e4bc c2b1 273c
00000330: eb22 0e3d 6611 a23c a77c 88ba 8596 f9bb
00000340: 22cf 123c 43db f93c f9eb 5dbc adba c9bb
00000350: 2039 95ba c696 dcbb 0155 593d 4fad 8e3c
00000360: 82c2 3cbb 94f6 cb3c 76b5 92bc 56e8 673c
00000370: f6e8 9bbb b8df 323d f72e 9c3c 34fb bfbb
00000380: f454 e73b fccc 933b 2570 ce3b 72da c139
00000390: cbea 5d3c e303 103d 12b8 a53b b16a c5bc
000003a0: b478 6f3c 44ab 023c 9236 51bc 64d6 b5ba
000003b0: 0903 b6bb 3bd9 8b3c b281 4abc e983 643c
000003c0: 5768 133c 33a0 a33b c36e 65bb 391a 3ab9
000003d0: 926b 5dbc a87a 5bbc f94b 03bb b287 2d3b
000003e0: 3b43 86ba fd8d e2bb 6b22 243d 86f2 24bc
000003f0: cc26 4dbb 690e 94bc b5b9 0bbc e379 04bc

network_body._body_endoder.seq_layers.2.weight f4 [256, 256]
0.021254107 -0.10807756 -0.050168887 0.043621246 0.18517435 0.028043397 -0.021756293 -0.002424066
0.10965035 0.027577503 0.035916507 0.016432434 -0.05298281 -0.101234816 0.07016732 -0.010483551
-0.0076885326 -0.03218655 -0.03692815 0.072251074 -0.06928273 -0.033891365 0.024487616 0.05552246
-0.07436361 -0.0074924435 -0.0012946225 0.0085094925 0.10496038 -0.058685202 -0.090836205 -0.016582558
0.043211047 -0.07837472 -0.018439218 -0.18660054 0.049460787 -0.11559689 -0.004436598 0.03348655
-0.035327848 -0.05468796 -0.078101896 0.033904143 0.07174543 -0.05707851 0.07530241 0.049573332
0.043411765 -0.11407854 -0.0017788326 0.034884844 0.057480294 -0.016701298 0.015367703 -0.040767968
-0.1312521 0.034053177 0.03788569 -0.009757702 -0.048391946 -0.016169198 0.11940456 0.009404704
0.061162498 0.07958035 -0.009512802 0.005126579 -0.038765047 -0.013791222 -0.026369298 -0.10804922
0.0076718526 0.039350584 0.13580361 0.04137166 0.009064918 -0.026546113 0.060337987 -0.014994589
0.05548218 -0.012076982 -0.011101879 0.010876944 0.06343375 -0.0037404653 0.10651153 -0.008147055
0.011690685 -0.03532617 0.113384075 0.049385805 -0.110632144 0.0059351814 0.04721611 -0.017047442
0.0763066 0.105227664 -0.031102296 0.044441037 -0.03482297 0.11268869 0.02253803 0.04640743
0.018480018 -0.031096784 -0.0021365688 0.03250835 -0.12360802 -0.13618377 -0.02650664 -0.025822613
-0.037971664 -0.058736686 0.07851562 -0.06658633 -0.05912572 -0.046038862 -0.089976616 -0.054772664
-0.045281325 0.054816596 0.08229439 0.042246345 0.12768649 0.035194043 0.016783783 -0.03745772
-0.019800268 -0.074633285 0.06466462 -0.043744776 0.013015551 -0.0013012532 -0.060990155 -0.06124055
-0.0133262705 -0.1671231 0.05083697 0.0009990766 0.030878332 0.21145068 -0.08338197 -0.084685996
-0.1538936 -0.080176905 0.09914096 0.0067673526 0.06441406 -0.113255 -0.07234883 0.042708054
-0.023620298 -0.032679003 0.0007285561 -0.100611456 0.07115791 0.04622231 0.009968958 0.06107862
0.024028966 0.06176069 0.021966195 -0.0939104 -0.023137419 0.0615036 -0.023894168 0.10821624
0.028154543 0.0071294294 0.09493154 -0.031822838 0.1187144 0.014563811 0.04853369 -0.034427445
-0.116000675 0.019662831 0.08049473 0.040906113 0.04487701 -0.02745296 -0.011673576 0.12467562
-0.06942258 0.015834128 -0.0014866835 -0.094351634 0.02034701 -0.043944426 -0.030314092 -0.0453376
-0.115648344 -0.0058745644 0.13130055 0.007053479 0.08689322 -0.00073179556 -0.045225218 -0.053696632
0.07432711 0.0425725 0.19299904 -0.02048277 0.11567178 0.055432633 0.007897707 -0.015123287
-0.0041362843 -0.027045907 -0.07229926 -0.015488851 -0.046693143 0.095991276 -0.045682736 0.07750332
-0.029338628 -0.032711715 0.055688437 0.04774071 -0.012608044 -0.023005018 -0.06913687 -0.03197637
0.01168789 0.0050319997 0.039187994 -0.061145272 -0.02353919 -0.046406038 0.16593887 0.1363447
0.051968545 0.069241084 0.044561625 -0.07843968 -0.0209342 0.1551948 0.06849718 0.015075481
-0.13792057 -0.049668554 -0.025845274 -0.09708477 -0.07185771 0.1096113 -0.014656704 -0.007432562
0.04178397 0.017335454 -0.121024214 -0.078173935 0.03308123 -0.00547478 -0.042552657 0.051525585
00000000: 181d ae3c c557 ddbd e47d 4dbd 31ac 323d
00000010: 589e 3d3e 44bb e53c 413a b2bc 14dd 1ebb
00000020: 5d90 e03d 37ea e13c 301d 133d 509d 863c
00000030: 8104 59bd 3354 cfbd e2b3 8f3d 33c3 2bbc
00000040: 16f0 fbbb 0bd6 03bd f941 17bd 5ff8 933d
00000050: 1be4 8dbd acd1 0abd 419a c83c 856b 633d
00000060: f34b 98bd 2c83 f5bb 53b0 a9ba 666b 0b3c
00000070: 78f5 d63d e55f 70bd 5508 babd 25d8 87bc
00000080: 11fe 303d ed82 a0bd d80d 97bc 3614 3fbe
00000090: 6597 4a3d 10be ecbd e260 91bb 3129 093d
000000a0: efb3 10bd 7b00 60bd e3f3 9fbd 12df 0a3d
000000b0: 45ef 923d 28cb 69bd 2638 9a3d 680d 4b3d
000000c0: 89d0 313d 02a2 e9bd b827 e9ba 69e3 0e3d
000000d0: 7570 6b3d 29d1 88bc d1c8 7b3c 50fc 26bd
000000e0: f366 06be 587b 0b3d 062e 1b3d c5de 1fbc
000000f0: a236 46bd 4475 84bc 618a f43d 3016 1a3c
00000100: 8785 7a3d 06fb a23d 95db 1bbc ddfc a73b
00000110: 19c8 1ebd 94f4 61bc 6d04 d8bc e948 ddbd
00000120: 2a64 fb3b 142e 213d 1a10 0b3e 5475 293d
00000130: 0685 143c 3c77 d9bc f724 773d ddab 75bc
00000140: 4841 633d 89de 45bc a8e4 35bc 3635 323c
00000150: 8ee9 813d 9822 75bb b822 da3d 3a7b 05bc
00000160: 498a 3f3c 2db2 10bd e935 e83d c548 4a3d
00000170: 1b93 e2bd e97b c23b ae65 413d 14a7 8bbc
00000180: a246 9c3d 9a81 d73d 3eca febc ce07 363d
00000190: 88a2 0ebd 54c9 e63d ada1 b83c b815 3e3d
000001a0: 6863 973c afbe febc ad05 0cbb 7a27 053d
000001b0: 3426 fdbd c273 0bbe 7424 d9bc f289 d3bc
000001c0: 2d88 1bbd e195 70bd cccc a03d 6a5e 88bd
000001d0: d02d 72bd 3f93 3cbd a945 b8bd 4d59 60bd
000001e0: e978 39bd 5e87 603d f689 a83d 810a 2d3d
000001f0: 3fc0 023e a127 103d 257e 893c 446d 19bd
00000200: 2c34 a2bc 56d9 98bd e26e 843d b92d 33bd
00000210: 2d3f 553c d08e aaba d0d0 79bd 5fd7 7abd
00000220: 6e56 5abc 5122 2bbe 6d3a 503d 73f3 823a
00000230: 8ef4 fc3c 8786 583e 2bc4 aabd da6f adbd
00000240: 4996 1dbe ca33 a4bd 6a0a cb3d abc0 dd3b
00000250: 85eb 833d 3df2 e7bd a02b 94bd a4ee 2e3d
00000260: 5b7f c1bc 6bda 05bd 92fc 3e3a 610d cebd
00000270: 3dbb 913d 9b53 3d3d d754 233c 932d 7a3d
00000280: 65d8 c43c c7f8 7c3d 73f2 b33c 1954 c0bd
00000290: af8a bdbc 33eb 7b3d b4bd c3bc 7aa0 dd3d
000002a0: 5ba4 e63c fd9d e93b 786b c23d aa58 02bd
000002b0: 8920 f33d 0d9d 6e3c 43cb 463d cb03 0dbd
000002c0: c391 edbd f213 a13c 6cda a43d 2b8d 273d
000002d0: f5d0 373d 08e5 e0bc 8742 3fbc ee55 ff3d
000002e0: 6d2d 8ebd 93b6 813c d2dc c2ba 6e3b c1bd
000002f0: c6ae a63c 12ff 33bd 4255 f8bc ebb3 39bd
00000300: 0ad9 ecbd 6b7f c0bb a773 063e df20 e73b
00000310: 13f5 b13d f8d5 3fba 143e 39bd 00f1 5bbd
00000320: d038 983d 8060 2e3d 8aa1 453e 7bcb a7bc
00000330: 54e5 ec3d 540d 633d 6265 013c aac7 77bc
00000340: ab89 87bb 618f ddbc a211 94bd f3c4 7dbc
00000350: 4f41 3fbd 1397 c43d d21d 3bbd 10ba 9e3d
00000360: 9057 f0bc b8fc 05bd 8f19 643d c38b 433d
00000370: f891 4ebc 0575 bcbc a297 8dbd a7f9 02bd
00000380: 907e 3f3c 79e3 a43b 9783 203d 7773 7abd
00000390: 42d5 c0bc 4214 3ebd e1eb 293e f29d 0b3e
000003a0: f8dc 543d 45ce 8d3d 4086 363d fca4 a0bd
000003b0: 337e abbc 63eb 1e3e 4048 8c3d 26ff 763c
000003c0: 0d3b 0dbe 4171 4bbd 78b9 d3bc 61d4 c6bd
000003d0: 232a 93bd e47b e03d ac22 70bc d98c f3bb
000003e0: ab25 2b3d 1503 8e3c 8bdb f7bd a819 a0bd
000003f0: 2f80 073d c965 b3bb b24b 2ebd 7e0c 533d

network_body._body_endoder.seq_layers.4.bias f4 [256]
0.017890068 0.020053474 0.008957481 0.020322923 0.021748235 0.0014065878 -0.01642762 0.017565526
-5.0234532e-05 0.01586292 0.019320736 0.010369429 -0.0019789662 0.01628003 -0.010283606 -0.009866212
-0.00837229 0.017379947 0.00801449 -0.0031164489 -0.012938826 0.019707933 0.006553305 0.009988349
0.008528301 0.0035096856 0.012252766 0.016504891 0.027548911 0.011521451 0.026824424 0.034844946
0.018743148 0.010138923 0.0029532786 0.0058791786 0.0098600695 -0.016867533 0.035791896 0.00095808785
0.025664726 -0.0006703576 0.01846098 0.00078306743 0.032156345 0.03495345 -0.0032276253 0.033573892
0.0032469726 0.0072994162 0.0281632 0.012297948 0.0008818714 0.01320814 0.040984828 0.016148612
-0.0044185603 0.014940513 0.001823639 -0.0027767052 0.002193297 -0.009070827 -0.007457332 0.02386915
0.009366597 0.0095301615 -0.005972874 0.011831386 0.00034513942 0.021513863 -0.009865741 -0.0036231913
0.0056634806 -0.003999452 0.0018819553 0.0036020107 -0.0072957575 0.0069622197 -0.008446954 0.0112704
-0.006905191 0.020477619 0.006731365 -0.000862286 0.0051253513 0.020043166 -0.0013901448 0.007209828
-0.01702836 -0.009841139 0.01721351 0.0017125799 -0.007896674 0.0038314383 0.014130108 0.0111640375
-0.004501146 0.010380967 0.006478298 -0.012124292 0.00617995 0.015731007 0.036824077 0.0075281155
-0.012454256 0.0177334 0.012118408 0.016161334 0.018366497 0.011886216 -0.00828404 -0.0076127914
-0.014535196 0.00348564 0.04091532 0.037321445 0.00076429266 -0.0030192428 0.0031773648 0.013428406
0.021212677 -0.012396622 0.0013469482 -0.004635941 0.008204196 0.020846404 -0.0104285935 -0.015184472
0.0020709222 -0.00064267684 0.0009819092 -0.0041746865 0.017880525 0.008422586 0.03706137 0.034567814
-0.0097390935 -0.014753526 -0.020384314 -0.007549117 0.022557551 -0.002116845 0.018613266 0.0033456294
-0.0009777823 -0.011422572 -0.012677999 0.016386956 -0.0014738011 -0.006670213 -0.005852602 0.018000998
-0.0004739347 0.018071916 -0.0064366385 0.004090212 0.0073548737 0.011092999 0.0035407979 -0.01272661
0.02111769 0.013672225 -0.0115762865 -0.0011000194 0.040286798 0.02802837 0.020358652 0.019981693
0.0023836181 0.0061430433 0.0014805917 -0.0016453121 -0.012695799 0.018068366 0.008106128 0.01140287
-0.018378131 -0.0058355625 0.0017184173 0.031609472 0.0040415516 -0.0026147056 0.012735634 -0.007396129
0.030546645 0.009055727 -0.0046907295 0.017578881 0.030496724 -0.01913129 -0.007979146 0.035291225
0.0019722108 0.011863659 0.0050461153 0.0069607464 -0.0017267275 0.031174026 -0.012511738 -0.010677917
-0.01191769 0.006277893 0.00030923757 -0.0008492883 0.022489427 0.037156742 0.0075469064 -0.0014785021
0.012643357 0.012973984 0.023729023 -0.008388163 0.025938358 0.0044515496 0.0020464377 0.01620073
0.008589742 0.001933582 -0.010769059 -0.002401752 0.012166583 0.0017297743 0.03577918 0.009122723
0.0021194168 0.008194682 -0.004348567 -0.020161565 -0.0008611549 -0.011670993 0.0042151 0.0176986
-0.017698588 0.005750076 0.01622165 0.010672509 -0.011757162 0.025099883 -0.0024433513 0.0029480977
0.024077117 -0.019754678 0.02580529 0.020616243 0.010089331 0.0030878969 0.013657897 -0.00406001
0.039568007 -0.0016076805 0.015532067 0.0045423163 0.027383186 -0.002261618 -0.01239446 0.016032914
00000000: 318e 923c 2f47 a43c 66c2 123c 427c a63c
00000010: 5b29 b23c 415d b83a 3793 86bc 94e5 8f3c
00000020: ebb2 52b8 f4f2 813c 8546 9e3c 8ae4 293c
00000030: 8bb1 01bb b35d 853c 927c 28bc e4a5 21bc
00000040: ee2b 09bc 6460 8e3c 354f 033c 563d 4cbb
00000050: 5ffd 53bc 8872 a13c 1bbd d63b 2ca6 233c
00000060: 49ba 0b3c c102 663b d3bf 483c 4435 873c
00000070: 41ae e13c 78c4 3c3c e5be db3c 93b9 0e3d
00000080: 3b8b 993c ba1d 263c cb8b 413b 20a6 c03b
00000090: 218c 213c c82d 8abc 869a 123d 3028 7b3a
000000a0: d53e d23c f0ba 2fba 7b3b 973c c446 4d3a
000000b0: 5fb6 033d 592b 0f3d 9186 53bb c784 093d
000000c0: 29cb 543b f12f ef3b 83b6 e63c 557d 493c
000000d0: 632d 673a f466 583c b5df 273d 184a 843c
000000e0: 92c9 90bb 0ec9 743c 2c07 ef3a 62f9 35bb
000000f0: 6bbd 0f3b ce9d 14bc a35c f4bb 3c89 c33c
00000100: 5b76 193c 6524 1c3c 19b8 c3bb 6ed8 413c
00000110: d4f3 b439 d73d b03c eba3 21bc 1073 6dbb
00000120: b894 b93b d60d 83bb f1ab f63a b60f 6c3b
00000130: 4011 efbb 5523 e43b 1865 0abc 7ca7 383c
00000140: f144 e2bb aec0 a73c c892 dc3b 090b 62ba
00000150: 90f2 a73b 9131 a43c 8535 b6ba 6c40 ec3b
00000160: 0f7f 8bbc bb3c 21bc 5903 8d3c a578 e03a
00000170: 0d61 01bc de18 7b3b f881 673c 5ee9 363c
00000180: 597e 93bb ee14 2a3c e747 d43b f7a4 46bc
00000190: 2e81 ca3b 50de 803c d8d4 163d 69ae f63b
000001a0: f00c 4cbc a345 913c 4a8c 463c c664 843c
000001b0: 5675 963c 67be 423c c8b9 07bc b974 f9bb
000001c0: 0825 6ebc 566f 643b d396 273d 5fde 183d
000001d0: d05a 483a 7dde 45bb 563b 503b d102 5c3c
000001e0: 35c6 ad3c 341b 4bbc 158c b03a 17e9 97bb
000001f0: e46a 063c 14c6 aa3c b1dc 2abc 4bc8 78bc
00000200: 4fb8 073b 5079 28ba 68b3 803a cfcb 88bb
00000210: 2e7a 923c e3fe 093c aacd 173d fb96 0d3d
00000220: b890 1fbc c6b8 71bc 01fd a6bc 955e f7bb
00000230: 9dca b83c c4ba 0abb d97a 983c 5942 5b3b
00000240: ee28 80ba bd25 3bbc 62b7 4fbc f03d 863c
00000250: 8f2c c1ba cd91 dabb 2fc7 bfbb d476 933c
00000260: 707a f8b9 8e0b 943c 70ea d2bb 2f07 863b
00000270: 2701 f13b 69bf 353c bb0c 683b 4583 50bc
00000280: 01ff ac3c 7801 603c 77aa 3dbc 872e 90ba
00000290: c503 253d c19b e53c 30c7 a63c a6b0 a33c
000002a0: 7a36 1c3b 954b c93b 6a10 c23a 83a7 d7ba
000002b0: 0a02 50bc 1c04 943c 91cf 043c 1ad3 3a3c
000002c0: bc8d 96bc 3f38 bfbb 843c e13a ef78 013d
000002d0: fe6e 843b 7b5b 2bbb 1fa9 503c 3a5b f2bb
000002e0: f53c fa3c 795e 143c b1b4 99bb 9601 903c
000002f0: 44d4 f93c 39b9 9cbc f7ba 02bc 888d 103d
00000300: 3540 013b cb5f 423c e259 a53b f916 e43b
00000310: 5c53 e2ba ac60 ff3c 08fe 4cbc 6ef2 2ebc
00000320: 6a42 43bc c9b6 cd3b 2a21 a239 c6a2 5eba
00000330: bf3b b83c ab31 183d 0a4c f73b 4cca c1ba
00000340: 1526 4f3c d590 543c 5e63 c23c 816e 09bc
00000350: ae7c d43c 4ede 913b 871d 063b 65b7 843c
00000360: fdbb 0c3c 3f70 fd3a b570 30bc b666 1dbb
00000370: 5956 473c 98b9 e23a 308d 123d 7977 153c
00000380: eae5 0a3b fd42 063c 6d7e 8ebb de29 a5bc
00000390: 21bf 61ba b137 3fbc d21e 8a3b a8fc 903c
000003a0: a1fc 90bc 226b bc3b 44e3 843c bfdb 2e3c
000003b0: 1da1 40bc 459e cd3c a220 20bb df34 413b
000003c0: 603d c53c 90d4 a1bc 9e65 d33c 65e3 a83c
000003d0: b94d 253c 505e 4a3b 5fc5 5f3c d509 85bb
000003e0: 1012 223d ceb8 d2ba 367a 7e3c b6d7 943b
000003f0: b452 e03c a737 14bb 2212 4bbc 7557 833c

network_body._body_endoder.seq_layers.4.weight f4 [256, 256]
-0.054083247 -0.005378904 0.03693262 -0.06579009 0.06368247 -0.064035974 0.020140128 0.033063237
0.0064577097 0.016378587 0.055956762 0.034121737 -0.06971142 -0.03153283 0.017357834 0.045653425
-0.031235214 0.069618136 0.040575463 0.13511746 -0.019029493 0.011835121 0.104011714 0.049792875
-0.014576282 0.07644486 -0.055790365 -0.09048134 -0.030111907 0.019077687 -0.11313986 0.047823563
-0.054404937 -0.0520162 0.046087075 0.024733732 0.063366055 0.021075139 -0.012692147 0.074085325
-0.093134694 -0.0068758926 -0.04947046 0.034926753 -0.010925048 0.06521792 0.057944197 -0.06542387
0.02478896 -0.079952165 -0.026970346 -0.15870114 -0.017132774 0.025932359 0.04318839 -0.024799056
-0.027876318 0.023110472 -0.039667074 -0.032170106 0.07090169 0.023472061 0.002186683 -0.065882
-0.08851649 0.15713453 -0.025123691 0.016454827 0.015205157 0.052073836 -0.03344023 0.018676534
0.107808515 -0.034494534 -0.027954366 -0.037162445 0.05730973 0.021804817 0.15486823 -0.15538983
0.004755905 -0.10747325 -0.0631893 0.02416851 -0.09078948 -0.060772534 0.017188884 0.005666788
0.0620937 -0.033473834 -0.0052223797 0.061826896 0.087953776 -0.012801073 0.008984635 0.005781641
0.08495139 -0.07648137 0.070476405 0.08528497 0.10938347 0.0649573 -0.09342773 0.025268162
0.033332944 -0.091748625 -0.038531933 0.04481239 0.06543937 0.038632043 -0.10981113 -0.1392255
-0.0010451097 -0.04595782 0.029461315 0.049752716 -0.04278786 -0.010525 -0.0045029693 -0.058808498
0.0079325605 0.022541823 -0.041281763 -0.11780207 0.114917465 0.014134183 -0.061337158 -0.028727466
0.013088065 0.050547212 -0.010735339 0.017665988 -0.08897149 -0.10807675 0.023215199 0.067204244
0.0028635678 -0.007762506 -0.029151091 -0.06854643 -0.021407673 0.006697632 -0.03807456 -0.023585135
-0.0128823295 -0.066945635 0.032892548 0.013642602 0.06990806 0.06575881 0.07374273 0.102569036
-0.020167943 0.03934591 0.011471825 -0.0132030975 0.0062936624 0.20581003 0.036907304 0.035852797
-0.005283435 -0.028961027 0.06642145 0.035843566 -0.030559843 -0.066885345 -0.029138811 -0.024233058
-0.05582712 -0.015198104 0.037776746 0.018993609 -0.09004227 -0.024201905 0.08268389 -0.079747915
0.029874803 0.06408642 0.0771394 -0.007897975 -0.13338074 0.045629364 -0.049305078 0.05846403
0.029817652 0.031386208 0.06853772 0.10028916 0.01824196 -0.035025153 -0.023977345 -0.023634223
-0.047341526 0.027511671 0.14475285 0.027548485 0.062257208 0.047049224 -0.036506873 0.04168081
-0.0071348567 0.023451867 0.02488134 -0.01228303 -0.09192964 -0.061906796 0.035619844 0.014021056
0.09827055 -0.0139921615 -0.12939766 -0.07388594 -0.024357218 0.022646876 0.0035320986 -0.081313565
-0.044173744 0.12607694 -0.07298134 -0.008792508 0.05504883 0.04930531 -0.173118 -0.08309665
0.08655694 0.039706603 -0.0025588768 0.0029536828 -0.0015029316 0.055932052 -0.03551382 -0.04220928
0.12718487 0.033382595 -0.02845664 -0.025927268 -0.027665623 -0.09703619 0.040848438 -0.056701772
-0.069131106 0.016266963 0.06956374 0.042428657 -0.076453336 0.048590943 0.10440324 -0.021760557
0.09322909 -0.069860555 -0.012755057 -0.007032078 0.044632114 0.030791236 0.01723579 -0.041415513
00000000: 6586 5dbd 8441 b0bb a946 173d f4bc 86bd
00000010: f46b 823d 4b25 83bd e9fc a43c 516d 073d
00000020: 329b d33b 632c 863c eb32 653d 3cc3 0b3d
00000030: dcc4 8ebd 9228 01bd 0432 8e3c 16ff 3a3d
00000040: fee0 ffbc f493 8e3d 7532 263d 3b5c 0a3e
00000050: bde3 9bbc 18e8 413c 1804 d53d 9df3 4b3d
00000060: 5cd1 6ebc 1f8f 9c3d 7084 64bd 484e b9bd
00000070: 3fad f6bc cf48 9c3c dfb5 e7bd a4e2 433d
00000080: b6d7 5ebd f00e 55bd cdc5 3c3d 659e ca3c
00000090: 10c6 813d c5a5 ac3c b9f2 4fbc 0cba 973d
000000a0: 67bd bebd 2b4f e1bb 89a1 4abd 5b0f 0f3d
000000b0: f9fe 32bc f990 853d e556 6d3d f3fc 85bd
000000c0: 3812 cb3c f6bd a3bd eaf0 dcbc 8d82 22be
000000d0: 085a 8cbc 1970 d43c 4fe6 303d 6427 cbbc
000000e0: e05c e4bc 2c52 bd3c f179 22bd cdc4 03bd
000000f0: e834 913d 7b48 c03c 744e 0f3b 24ed 86bd
00000100: 2248 b5bd e0e7 203e 33d0 cdbc 46cc 863c
00000110: 0d1f 793c 604b 553d 9ff8 08bd 88ff 983c
00000120: b6ca dc3d 244a 0dbd 8e00 e5bc a637 18bd
00000130: 9cbd 6a3d 04a0 b23c c795 1e3e 831e 1fbe
00000140: 6cd7 9b3b ef1a dcbd 6469 81bd 0afd c53c
00000150: d6ef b9bd 9fec 78bd b4cf 8c3c 77b0 b93b
00000160: f755 7e3d dc1b 09bd 7f20 abbb 333e 7d3d
00000170: 1c21 b43d 97bb 51bc 4a34 133c ec73 bd3b
00000180: fffa ad3d 44a2 9cbd ef55 903d e3a9 ae3d
00000190: 7104 e03d 5508 853d 0a57 bfbd 2dff ce3c
000001a0: 2088 083d b4e6 bbbd a9d3 1dbd 328d 373d
000001b0: 1405 863d a23c 1e3d a8e4 e0bd 2191 0ebe
000001c0: 10fc 88ba 443e 3cbd db58 f13c 81c9 4b3d
000001d0: 5342 2fbd 0d71 2cbc a58d 93bb 2ee1 70bd
000001e0: 92f7 013c a1a9 b83c 1117 29bd 3642 f1bd
000001f0: d959 eb3d 0f93 673c ac3c 7bbd dd55 ebbc
00000200: 536f 563c 980a 4f3d 46e3 2fbc 43b8 903c
00000210: af36 b6bd 5857 ddbd cd2d be3c 61a2 893d
00000220: b2aa 3b3b 9f5c febb 45ce eebc 1262 8cbd
00000230: 255f afbc cf77 db3b 12f4 1bbd 9d35 c1bc
00000240: 6810 53bc cb1a 89bd 56ba 063d 3885 5f3c
00000250: f52b 8f3d 8eac 863d 6e06 973d b70f d23d
00000260: 3e37 a5bc 2d29 213d 52f4 3b3c ce51 58bc
00000270: 113b ce3b ddbf 523e 1d2c 173d 62da 123d
00000280: aa20 adbb ad3f edbc f807 883d b4d0 123d
00000290: a358 fabc 2ffb 88bd 84b4 eebc 6884 c6bc
000002a0: faaa 64bd 7801 79bc cabb 1a3d 7c98 9b3c
000002b0: 1568 b8bd 1343 c6bc 2c56 a93d e052 a3bd
000002c0: 01bc f43c be3f 833d 43fb 9d3d 8266 01bc
000002d0: f694 08be dbe5 3a3d 1ff4 49bd fb77 6f3d
000002e0: 2644 f43c d38e 003d 815d 8c3d 6764 cd3d
000002f0: 2a70 953c 8976 0fbd 236c c4bc 8f9c c1bc
00000300: 30e9 41bd 2860 e13c 173a 143e 5cad e13c
00000310: 6a01 7f3d b0b6 403d 3b88 15bd 7fb9 2a3d
00000320: 84cb e9bb 211e c03c f4d3 cb3c c33e 49bc
00000330: 9b45 bcbd fb91 7dbd 1de6 113d 92b8 653c
00000340: 1242 c93d 613f 65bc d280 04be 8351 97bd
00000350: ca88 c7bc f185 b93c c87a 673b ba87 a6bd
00000360: 87ef 34bd 501a 013e 3e77 95bd 740e 10bc
00000370: e27a 613d 5df4 493d d845 31be 942e aabd
00000380: c444 b13d 64a3 223d d4b2 27bb 9392 413b
00000390: 04fe c4ba 0219 653d f076 11bd a3e3 2cbd
000003a0: c03c 023e 30bc 083d e61d e9bc 6c65 d4bc
000003b0: 04a3 e2bc e9ba c6bd b150 273d 1e40 68bd
000003c0: 9c94 8dbd 4b42 853c 6f77 8e3d acc9 2d3d
000003d0: 9193 9cbd 4c07 473d 5ed1 d53d 3243 b2bc
000003e0: e5ee be3d 0d13 8fbd 96fa 50bc 596d e6bb
000003f0: 2ad0 363d e73d fc3c 1232 8d3c 50a3 29bd

network_body.observation_encoder.processors.0.normalizer.running_mean f4 [25]
0.0 0.12391053 0.0025337262 0.40984496 0.6977069 0.0 0.1544066 0.00054886023
0.41423512 0.74091923 0.0 0.16876224 0.00097229006 0.40268382 0.7390841 0.0
0.13499452 0.0006328605 0.3604737 0.70847017 0.0 0.13499452 0.0006328605 0.3604737
0.70847017
00000000: 0000 0000 cec4 fd3d df0c 263b 33d7 d13e
00000010: eb9c 323f 0000 0000 c41c 1e3e 63e1 0f3a
00000020: a016 d43e e2ac 3d3f 0000 0000 02d0 2c3e
00000030: 48e1 7e3a 932c ce3e 9e34 3d3f 0000 0000
00000040: 013c 0a3e 8de6 253a 0290 b83e 4d5e 353f
00000050: 0000 0000 013c 0a3e 8de6 253a 0290 b83e
00000060: 4d5e 353f

network_body.observation_encoder.processors.1.normalizer.running_mean f4 [55]
0.0 0.05522691 3.200017e-05 0.77838135 0.88684213 0.0 0.0452503 2.828592e-05
0.758026 0.8823744 0.0 0.046201102 3.80002e-05 0.74073327 0.8813128 0.0
0.004277742 6.5714653e-06 0.8730955 0.9459099 0.0 0.015398092 2.7428765e-05 0.8253708
0.9273076 0.0 0.000104572115 0.0 0.91313165 0.9641942 0.0 0.012369535
4.000025e-06 0.88063353 0.95476735 0.0 0.00030143023 0.0 0.8521772 0.9434504
0.0 0.00051743235 2.285725e-06 0.83587945 0.93910336 0.0 0.00040571718 0.0
0.85565805 0.9402419 0.0 0.00040571718 0.0 0.85565805 0.9402419
00000000: 0000 0000 9d35 623d ec37 0638 0044 473f
00000010: 1608 633f 0000 0000 6158 393d 8d47 ed37
00000020: fe0d 423f 4ae3 613f 0000 0000 5e3d 3d3d
00000030: 6762 1f38 b2a0 3d3f b79d 613f 0000 0000
00000040: 4d2c 8c3b 7580 dc36 3083 5f3f 2727 723f
00000050: 0000 0000 4748 7c3c d316 e637 804b 533f
00000060: 0864 6d3f 0000 0000 ba4d db38 0000 0000
00000070: ffc2 693f 6ed5 763f 0000 0000 97a9 4a3c
00000080: f437 8636 3371 613f a26b 743f 0000 0000
00000090: 4809 9e39 0000 0000 4928 5a3f f785 713f
000000a0: 0000 0000 4ca4 073a 7564 1936 32fc 553f
000000b0: 1469 703f 0000 0000 70b6 d439 0000 0000
000000c0: 680c 5b3f b1b3 703f 0000 0000 70b6 d439
000000d0: 0000 0000 680c 5b3f b1b3 703f

network_body.observation_encoder.processors.2.normalizer.running_mean f4 [15]
0.0 0.2905133 0.00057914585 0.2245482 0.55231756 0.0 0.1369173 0.0
0.8607802 0.9583875 0.0 0.1369173 0.0 0.8607802 0.9583875
00000000: 0000 0000 29be 943e d2d1 173a f7ef 653e
00000010: af64 0d3f 0000 0000 0c34 0c3e 0000 0000
00000020: 175c 5c3f e258 753f 0000 0000 0c34 0c3e
00000030: 0000 0000 175c 5c3f e258 753f
