Assets/Training/results/Run 2/DroneBehavior/DroneBehavior-4499895.onnx (onnx, 661208 bytes, 19 tensors)

101 f4 [15]
00000000: 9327 f739 e908 ed3e 5223 b53c 1801 c33e
00000010: 9388 9a3e 9327 f739 8def 9d3e 9327 f739
00000020: 1b50 9f3e 4f1c e43d 9327 f739 8def 9d3e
00000030: 9327 f739 1b50 9f3e 4f1c e43d
0.00047140996 0.4629586 0.022111569 0.38086772 0.30182323 0.00047140996 0.30846825 0.00047140996
0.31115803 0.11138212 0.00047140996 0.30846825 0.00047140996 0.31115803 0.11138212

104 f4 [25]
00000000: 9327 f739 4dca b33e 1fe8 103b 2212 cb3e
00000010: a8ed 663e 9327 f739 7269 103e 9327 f739
00000020: adde 393e 9469 933d 9327 f739 2c2d 813e
00000030: c2c3 2e3a b06a 8f3e cd00 be3d 9327 f739
00000040: 924d 103e 9327 f739 cb0b 563e 4d4c 9e3d
00000050: 9327 f739 924d 103e 9327 f739 cb0b 563e
00000060: 4d4c 9e3d
0.00047140996 0.3511528 0.0022111011 0.39662272 0.22551596 0.00047140996 0.14102724 0.00047140996
0.1815135 0.07197872 0.00047140996 0.25229776 0.00066667434 0.28011084 0.092774965 0.00047140996
0.1409209 0.00047140996 0.20902936 0.07729397 0.00047140996 0.1409209 0.00047140996 0.20902936
0.07729397

107 f4 [3]
00000000: 105f 2e41 450d fc3f b5f1 5f41
10.898209 1.969155 13.9965105

95 f4 [25]
00000000: 9327 f739 a634 c73e b3a7 3d3d 633b f13e
00000010: 7d1d 9c3e 9327 f739 0e93 cb3e c923 b03c
00000020: c1dc f03e a517 923e 9327 f739 5f6b ca3e
00000030: fbb1 f53c e3e9 ef3e e2cd 903e 9327 f739
00000040: b596 b93e 0daf b83c 0b10 e73e 59b0 943e
00000050: 9327 f739 b596 b93e 0daf b83c 0b10 e73e
00000060: 59b0 943e
0.00047140996 0.38907355 0.04630251 0.4711562 0.30491248 0.00047140996 0.3976063 0.021501439
0.47043422 0.28533664 0.00047140996 0.39535043 0.029992094 0.4685813 0.28282076 0.00047140996
0.36247793 0.022544408 0.45129427 0.29040793 0.00047140996 0.36247793 0.022544408 0.45129427
0.29040793

98 f4 [55]
00000000: 9327 f739 c232 a73e b013 ae3b c411 ea3e
00000010: 98ee 893e 9327 f739 b839 9b3e 5d50 ab3b
00000020: 7fca ea3e c3b7 853e 9327 f739 f425 9c3e
00000030: 3e48 bb3b 1882 ee3e cbd4 833e 9327 f739
00000040: fe96 e03d cca0 5c3b 7d49 b63e aa3b 3a3e
00000050: 9327 f739 6c61 2e3e 2945 a13b 0550 ce3e
00000060: 9db0 503e 9327 f739 55f3 133c bf59 973a
00000070: 2e6b a03e a0c0 1f3e 9327 f739 56a9 0e3e
00000080: a759 173b e2bb b53e 14af 3b3e 9327 f739
00000090: fdef 7a3c 9327 f739 7456 b63e 7165 2f3e
000000a0: 9327 f739 6854 a43c 7427 f73a c17a c63e
000000b0: b639 503e 9327 f739 5289 913c 9327 f739
000000c0: bfe3 b53e d16a 3a3e 9327 f739 5289 913c
000000d0: 9327 f739 bfe3 b53e d16a 3a3e
0.00047140996 0.32655913 0.0053124055 0.4571668 0.26939845 0.00047140996 0.30317473 0.005228086
0.45857617 0.26116762 0.00047140996 0.30497706 0.005715399 0.4658363 0.25748286 0.00047140996
0.109662995 0.0033665178 0.35602942 0.18186823 0.00047140996 0.17029351 0.0049215746 0.40295425
0.20379873 0.00047140996 0.009030183 0.0011547132 0.31331772 0.15600824 0.00047140996 0.13931784
0.0023094208 0.35494906 0.18328506 0.00047140996 0.015316007 0.00047140996 0.35612833 0.1712854
0.00047140996 0.02005978 0.0018856362 0.3876553 0.20334515 0.00047140996 0.017765675 0.00047140996
0.3552532 0.1820481 0.00047140996 0.017765675 0.00047140996 0.3552532 0.1820481

action_model._continuous_distribution.log_sigma f4 [1, 3]
00000000: 7cc0 f63b f861 04bc a462 683b
0.00753027 -0.008079998 0.0035459185

action_model._continuous_distribution.mu.bias f4 [3]
00000000: 5d6f c8bb 46cc 25bc ee8a 883c
-0.006116791 -0.010119503 0.01666781

action_model._continuous_distribution.mu.weight f4 [3, 256]
00000000: 92a7 1abc f801 bdbc 18f7 df3c 0cd0 b439
00000010: 451c f8bc d369 6d3b 8b28 7b3c 9e50 e63c
00000020: 9ac2 8bbc c3c5 a7bc f0c6 8c3c 9f68 0a3d
00000030: c66a 88bb c54c 9a3c 422a 6ebc 1dd2 9b3b
00000040: 8f89 013d 194d e0bc facb 0b3d 9658 443b
00000050: 6248 373b aa08 bcbc 2586 d6bc 38ea 4bbb
00000060: 9913 ab3c af05 aebb d07d adbc 61e7 cebb
00000070: 28cd dbbc 55b4 763c 0444 7b3c d5be 37bd
00000080: 87d5 d3bb b276 ee3b 10a4 02bd 3a3f 90bc
00000090: d37a a3bc 0927 643c 97f5 f5bc 82e5 7ebc
000000a0: 0842 833b 07d7 143c e6a4 eebb 84b1 ee3c
000000b0: c3a6 81bc c017 18bc cb55 5a3d 60e1 afbc
000000c0: 179b cb3c b49b 5d3c d3d3 b1bb 6c33 77bb
000000d0: b2ba 813c a0b4 05bd afee 54bc 7464 b8bc
000000e0: d442 3a3c 7dcc 4abb 3cc6 c639 80c4 193d
000000f0: 5cc7 85bc dae2 513c ee55 ba3c b7f3 bd3c
00000100: d3d4 33bd c6c5 283d 5641 c4bb 4b22 ecbc
00000110: c3e7 a0bc fed9 a93c 9ed9 ceb9 b432 aabc
00000120: 2553 3bbc 1bba b7bc f811 1fbd 94e9 203c
00000130: 4e2b ddbc 12dc f5bc afd3 3abc 5631 e33c
00000140: f6f5 243d 2907 04bd becb a4bc e867 bebc
00000150: 82dc c1bc 150c b23c 544b 8bbc 97a4 c03c
00000160: 5ebc 92ba ac52 563c 22b6 7d38 24d7 f63c
00000170: 684d 8cbc 71a8 c43c 04fb b8bc 4d3d 343c
00000180: a15f 9b3c 4f2d adbc 4d15 9b3c 6b1d ec3c
00000190: 59cd 733b 4767 573a 2126 383b ed28 c9bb
000001a0: d1f4 d1ba 8202 2dbc f7b5 373c 57d5 013d
000001b0: c64a 0c3c c72a 55bc d0b6 c03b ac2b fd3b
000001c0: 30c3 a83a 9536 953b c22d 70bc aa22 b6bc
000001d0: 7f2d 383d f853 3bbc aa80 f0bb 46b0 94bb
000001e0: 9676 3abb 24e2 adba 72e3 a73b 3b6e c5bc
000001f0: aed5 95bc f4d0 853c 8642 a53c b17a 533b
00000200: 53cf b7bc 7fa7 f23b dc86 31bc fcdf 22bb
00000210: c0a6 c3ba c564 b3bc aa79 b0bc f56c a1bc
00000220: 0f35 48bc adef 913c 7fba 1b3c 6ed2 823c
00000230: eae6 cd3b 2462 9e3c 22d5 2cbd 972e ecbc
00000240: 6958 8abc a438 87bc 931d 6fbb 537a 1a3c
00000250: 7a3d cdbc 9fe7 b7bb ec2f 313c ab5e 31bd
00000260: 33f6 b13c 5874 913b 8b68 103c 3f50 973c
00000270: a00d 62bb 5360 d73a d742 063d 067b 2ebb
00000280: bb7f 29bc a9c5 5abc 6e34 873b 86fc febb
00000290: 9065 68bc 1e91 183b 859f 20bd 9419 053d
000002a0: f223 913c c696 1d3d 119d 5fbb 2785 a4bb
000002b0: 9027 f8bb 3e89 e5bc df73 a53c 9491 9abc
000002c0: 67e0 d2bb f909 003d 629e 43bc c026 c73c
000002d0: a09b 33bc 6bdb 8fbc 17b1 47bd d93f 2abc
000002e0: da31 aa3c 8381 babb f8a4 f93c 4f2c db3c
000002f0: 5f6a 0d3c dcfb c23b 4294 003d 0179 31bc
00000300: c43c 0bbd 1bac 8cbc 728a aaba e9cc 8abc
00000310: f4c7 c2bc 050e 1cbc 03de 833c cfba b93b
00000320: ec98 123a a718 cdbc 2b0c 85bc 5481 fb3c
00000330: f3b9 853c 68c8 25bc 619e 8cbc 87af 0ebb
00000340: d327 923b 9a8b 6f3c bf09 b3bc d8f5 c4bc
00000350: bf0d 1e3d 5f55 5b3c 6d74 bebc 7588 e9bc
00000360: 5724 02bc 071e a0bc 5541 b53c 0aa4 b8ba
00000370: eaf8 cf3c 0249 17bd 8a53 d6bb 2a52 5b3c
00000380: c8b7 2cbc 0912 b1bb 1b2c b0bb d420 0d3d
00000390: 0b1c d23c e6f4 8cbc e095 d33c 23f8 f7bb
000003a0: 272b 833c 3886 763b 3557 9fbb 5167 a63a
000003b0: deaf 0f3b e534 bfbc 53d1 e7bc 2838 7e3c
000003c0: 2e7d 49bb 86c6 b93b 04b6 a03b 85ec eabc
000003d0: 7d8f 12bb 71f0 c23c b3e7 02bd 5a9c b6bc
000003e0: 4c7b 1cbc d3ca 403c 7de5 91bc e69a 1dbd
000003f0: 7feb 9a39 44d6 f4bc f386 e53a 5584 4cbb
-0.009439366 -0.023072228 0.027339503 0.00034487282 -0.030286917 0.0036226406 0.01532949 0.028114613
-0.017060567 -0.020480042 0.017184705 0.03379118 -0.004163119 0.018835435 -0.014536442 0.004755272
0.031625327 -0.027380513 0.034130074 0.0029960028 0.0027966728 -0.02295335 -0.026187012 -0.0031114947
0.020883368 -0.005310736 -0.021178156 -0.0063142036 -0.026831225 0.015057643 0.01533604 -0.044859726
-0.0064646634 0.007277333 -0.031894743 -0.017608274 -0.019956028 0.013925322 -0.030024333 -0.015557649
0.0040056743 0.00908447 -0.007282841 0.02913738 -0.015826588 -0.009283006 0.053304475 -0.021469772
0.024854226 0.013525892 -0.0054268627 -0.0037719859 0.015836094 -0.03264296 -0.01299636 -0.022508837
0.011368472 -0.0030944638 0.000379132 0.037540913 -0.016330414 0.012810433 0.022746053 0.023187501
-0.043904137 0.041204236 -0.005989234 -0.028824946 -0.019641763 0.02073383 -0.0003945352 -0.02077613
-0.011433397 -0.02242761 -0.038835496 0.009821314 -0.026998188 -0.030012164 -0.011403008 0.027733486
0.04027363 -0.03223339 -0.020116683 -0.023242906 -0.023664717 0.021734277 -0.017003693 0.023515983
-0.0011195054 0.013081234 6.0489525e-05 0.030131884 -0.017126754 0.0240061 -0.022580631 0.011000943
0.018966498 -0.021139769 0.018931055 0.028822621 0.0037201254 0.00082169886 0.0028098898 -0.006138912
-0.0016018396 -0.01055968 0.011212817 0.031697597 0.008562749 -0.013010687 0.005881168 0.0077261534
0.0012875553 0.004553626 -0.014659347 -0.022233326 0.044965263 -0.011433594 -0.0073395567 -0.004537615
-0.002845203 -0.0013266248 0.005123549 -0.024100414 -0.018290367 0.016334988 0.020173322 0.0032269175
-0.022437727 0.007405221 -0.010835376 -0.0024852743 -0.0014927015 -0.021898637 -0.021542389 -0.019705275
-0.012219681 0.017814482 0.009504913 0.015969481 0.0062836306 0.019333906 -0.042195447 -0.02883081
-0.01688786 -0.0165065 -0.0036486133 0.009428578 -0.025053728 -0.005612328 0.010814648 -0.043303173
0.021723842 0.004438918 0.0088139875 0.018470882 -0.0034492984 0.0016431905 0.032778587 -0.002662362
-0.010345395 -0.01335279 0.004126123 -0.007781568 -0.014184371 0.0023279856 -0.03921463 0.032495096
0.017717335 0.038473867 -0.0034120718 -0.005020756 -0.0075730756 -0.028019544 0.020196853 -0.018868245
-0.0064354423 0.03125951 -0.011939617 0.02431047 -0.010962397 -0.017560681 -0.04875287 -0.010391199
0.020775724 -0.0056917085 0.030474171 0.026754526 0.008631318 0.005950434 0.03139139 -0.010832072
-0.033993497 -0.01717191 -0.0013011231 -0.016943412 -0.023776986 -0.009524827 0.016097074 0.0056680213
0.0005592245 -0.02503617 -0.016241154 0.030701317 0.016324019 -0.010118581 -0.017165365 -0.0021772103
0.004460314 0.014620686 -0.021855233 -0.024043009 0.038587328 0.013387053 -0.023248876 -0.02850745
-0.007943234 -0.019545568 0.02212588 -0.0014086973 0.025387246 -0.03693486 -0.0065407204 0.013386289
-0.010541864 -0.0054037613 -0.0053763515 0.034455135 0.025648138 -0.01720662 0.025828302 -0.007567422
0.016011788 0.0037616622 -0.004862691 0.0012695586 0.0021924893 -0.023340652 -0.028298056 0.015516318
-0.003074478 0.005669418 0.0049045105 -0.028677234 -0.0022363358 0.023796292 -0.031959247 -0.022291351
-0.009550881 0.011767107 -0.017809624 -0.0384778 0.00029548627 -0.029887326 0.0017511531 -0.0031206806

network_body._body_endoder.seq_layers.0.bias f4 [256]
00000000: f1c0 7f3c 8c79 963c f6c6 e2bc 9066 66bc
00000010: fd2d bb3c f455 063d 1852 3eba ba8d 953c
00000020: 88a4 453b 9fa5 0a3c 91d3 333a 963f 223d
00000030: 1588 ba3c c18a d7bc 8d9a 98bc c1c8 73bc
00000040: d954 d73c a061 2a3c e392 80bb e2de bebc
00000050: 5b1e 113c dfce 47bc e5e4 e33c ac58 bfbc
00000060: 4804 273c d220 9c3c 1cdb 313b f8d6 05bc
00000070: a1e7 29bc 177f 723c 745b 553c c80c c23c
00000080: c2e3 083d c185 0db9 9a1d 8a3c 5104 4a3d
00000090: 1953 833d 5e96 543c d3a6 893c 24a4 183d
000000a0: 58bb dc3b 18ab 67bb 0f6d fa3b 87f2 663c
000000b0: 0715 2bbc 5141 ed3b 8abe 023c 85b5 82bc
000000c0: c9ef 813b 6843 1dbc f1a2 2c3c 312e e43c
000000d0: b5fb 263b be1c ed3c a8d3 403c 2470 3cbb
000000e0: 3eff c2bb 4a45 2c3c 58cb 8cbb 9274 f33c
000000f0: aa96 0abb 94b8 073c 23f8 f43c 4a0a 133c
00000100: 431e 113d 7176 54bb c060 24bb eeba 5d3d
00000110: e7e1 0b3d 311a 41ba 5cc4 f33b 126a ba3b
00000120: c718 6c3d 8190 2dbc 36d6 ed3c 85f4 55bc
00000130: cb17 e63b 15cf 1f3d 01ee 593b 4477 f6ba
00000140: 8cde 943c 8b43 1bba 54b7 293d 63ae 20bb
00000150: 83da b7bb 83d6 a53c dd67 023c 9020 973c
00000160: f5d1 273b 2556 bf3b f88e 36bb 7154 fb37
00000170: 86cc 243d b203 b03c ba09 613d c4f1 323d
00000180: 3ea1 b63b 57c3 bbbb b153 6a3c 2c53 523c
00000190: 55ba 72bc 5874 e1bb 6f4e adbb 80eb 663b
000001a0: 32b1 233d ec34 96bc 5aae 0abc a33d 34bc
000001b0: 53b0 25bc f093 f53c 2ba1 d73c 7864 273c
000001c0: 2658 e93b 85c4 f03c 2b79 f73c dc97 a53c
000001d0: cad6 d73b d120 62bc ca0e 54bc 0bd7 143b
000001e0: 8516 a93c 5174 8c3c 373e c73c d8b3 3c3c
000001f0: 85fe 343d 88b1 9c3c 7727 913b c8ef 9a3c
00000200: 40ec 933c 6920 f8ba f94f 0cba 8d60 cbbc
00000210: 9137 b4ba a401 d3bb 29fc 333d 1a32 2b3c
00000220: 6005 af3c e65f c93b 16e4 eabc ba19 a4bc
00000230: a519 c43c a1d5 33bc 48aa 2e3c 38e1 a4bb
00000240: e4fb 483d 1ff6 a73b d7a2 0cbb ba03 f1ba
00000250: 37b1 28bc 6b7a 6abb ae3e ae3b 8fd4 433c
00000260: 8b6b 91bc aff4 43bc 62a5 783c 8ede 8c3c
00000270: a023 d73c e679 3f3c 2fb7 623c b6de e03b
00000280: 930e 333d b29c 9aba 4bc5 873a e1df ee3b
00000290: 660b f53c 779f 373d 5bb8 363c 8e7e 863d
000002a0: c387 8fbb 97f4 033d 5506 09bc 0efe 243d
000002b0: 9e7a 7cbc 6d4c fc3b 8ba6 263c 307b 33bc
000002c0: aefa 0a3c 2ea5 10bc 3208 8cbc 415d b5bc
000002d0: 2b33 0a3c 7360 ddbb 77fb 1c3c fd7f 833d
000002e0: 1a18 793d ba6c a53c a09c 033d 678f b7bc
000002f0: 7e6d 123c 3ca9 db3a 9a60 f83c 4cff 4f3c
00000300: 5587 b5bb cfc1 fe3c fd5f b9bb 6881 e93b
00000310: 95f5 db3b 861a 003d f583 223c c184 bf3c
00000320: 818e 0cbd ebb1 97ba f1b7 8ebc 0951 63bc
00000330: af94 073d ee6b 123d 7532 133d bbf7 44bc
00000340: f15a 043c f948 713c 9584 83bb dcac 86bc
00000350: bbf4 e83b 2cc4 8f3c b795 1dbb dea0 82b8
00000360: 8784 5aba 667c 2a3c 0bc8 493a f8c4 89bc
00000370: 81b3 923c 7cc9 47bb 1166 a6bb f782 023c
00000380: 605e 1f3c abd9 0b3c 2348 4f3d 049c 6fbc
00000390: d08e 89bc 7c10 b53b 3fea 823d 9749 1b3d
000003a0: 6fad a4ba 24b7 803b 40e4 373d 78bb 52bc
000003b0: 941f 013c 11d9 24bc bfa8 8fbc 9f3a c1bc
000003c0: 28b9 c8bb 9e5f e5bc fd1f b53c 85e1 f9bb
000003d0: 2daf 943c b885 e43c be2f 7d3c 1284 bf3b
000003e0: 340e f93c 9895 8cbc 60b5 9ebc 5e9c db3c
000003f0: 1142 8fbb 0e64 0c3c a8fe ef3a 41de 7abc
0.015609966 0.018368505 -0.027682763 -0.014062539 0.022849077 0.032796815 -0.0007260158 0.018256057
0.0030157883 0.008462339 0.0006859834 0.03961142 0.022769967 -0.02631128 -0.018628383 -0.014879406
0.026285576 0.010399252 -0.0039237603 -0.023299638 0.008857335 -0.012195318 0.027819106 -0.023357712
0.010193892 0.019058619 0.0027138656 -0.008168928 -0.010370166 0.014800808 0.013022292 0.023687735
0.03342033 -0.00013496635 0.016859818 0.049320523 0.06412334 0.012975303 0.01680318 0.03726591
0.0067362003 -0.0035349783 0.0076423953 0.014095909 -0.010442025 0.0072404523 0.007979998 -0.015955696
0.003965352 -0.00959859 0.010536895 0.027854057 0.002547962 0.02894437 0.011769213 -0.0028753364
-0.0059508374 0.010514567 -0.0042967014 0.029718671 -0.0021146932 0.008283753 0.029903477 0.008974621
0.03542925 -0.003241923 -0.0025082082 0.05413335 0.034150984 -0.00073662685 0.0074391793 0.005688914
0.057640817 -0.010593534 0.029032808 -0.013058786 0.0070218793 0.03901585 0.0033253434 -0.0018803854
0.018172525 -0.00059228454 0.0414346 -0.0024518005 -0.0056107654 0.020243889 0.007959333 0.018448144
0.0025607322 0.0058391267 -0.0027856212 2.9960853e-05 0.04023411 0.021486137 0.054940917 0.043687597
0.005573421 -0.0057300734 0.01430218 0.0128372125 -0.014814933 -0.0068803243 -0.005288891 0.0035235584
0.03996391 -0.018335782 -0.00846442 -0.011001023 -0.01011284 0.029977769 0.026321968 0.010216825
0.007121104 0.029390583 0.030209145 0.020214014 0.006586884 -0.013801769 -0.012942979 0.0022711183
0.020640621 0.017145308 0.024321659 0.0115174875 0.04418804 0.019127622 0.0044297534 0.018913165
0.018056989 -0.0018930557 -0.0005352493 -0.024826312 -0.001374947 -0.0064394046 0.04394165 0.010448957
0.021364868 0.006145465 -0.028673213 -0.020031799 0.02393801 -0.010976226 0.010660715 -0.005031731
0.049068347 0.0051257755 -0.0021459365 -0.0018387951 -0.010296158 -0.0035778533 0.0053175306 0.011952533
-0.017751476 -0.011960193 0.015176149 0.017195966 0.026262105 0.011686778 0.01383762 0.0068624867
0.04371507 -0.0011795966 0.001035848 0.007289872 0.029912662 0.044829812 0.011152352 0.06567107
-0.0043801977 0.03221568 -0.008363326 0.040281348 -0.015410094 0.0076995404 0.010171543 -0.010954663
0.008482618 -0.008828444 -0.017093752 -0.022139193 0.008435051 -0.0067558824 0.009581438 0.06420896
0.060814 0.020193446 0.03213179 -0.022407247 0.008937238 0.001675881 0.0303195 0.012695145
-0.0055398145 0.031098275 -0.0056571946 0.007126022 0.0067126253 0.031275295 0.009919156 0.023378732
-0.03431559 -0.001157341 -0.017421694 -0.013874301 0.03310078 0.03574746 0.03593679 -0.012021954
0.008078323 0.014726871 -0.0040136077 -0.016439848 0.0071092523 0.017549597 -0.0024045536 -6.228847e-05
-0.0008335788 0.010405635 0.000769735 -0.016817555 0.01790786 -0.0030485084 -0.005078085 0.007965795
0.009727091 0.008535783 0.050605904 -0.014624599 -0.016791731 0.0055256467 0.06392335 0.037911978
-0.0012563894 0.003928082 0.04489541 -0.012862079 0.007881064 -0.010061518 -0.01753652 -0.023587523
-0.006125588 -0.027999695 0.02210998 -0.007625761 0.018149937 0.027895793 0.015453277 0.0058446014
0.03040228 -0.017161176 -0.019373596 0.02680796 -0.0043718894 0.008568777 0.0018310146 -0.0153117785

network_body._body_endoder.seq_layers.0.weight f4 [256, 123]
00000000: 2ae9 b4bc 113f 37bd 0d9e 023b 3f05 46bd
00000010: 9259 003d 3123 a33c c9d4 a93d 9883 323d
00000020: c58d 0b3d 5565 cb3d 9004 edbc 89dc 30bd
00000030: 153e 82bd a345 de3c cb98 a9bd 05c6 18be
00000040: 898d dd3c b6ca 903c c0cd d9bd fae1 393d
00000050: 3273 843d fb1b 32be 2252 9e3c 324d 3bbc
00000060: 1e51 023d cc01 9fbd b54d af3c 8d8d 943d
00000070: 64ed 4abd 0842 8cbd 40ff dcbb 12c0 08be
00000080: 6ee3 17bb 7ef4 b7bd 97d5 01be 31b4 a83c
00000090: b086 a2bd bc25 f43d 879a f93d b21d ebbd
000000a0: 036e 6dbd 916b 86bd 43a3 053d ca51 753d
000000b0: e5bc 0bbd f479 08be 33f9 023e 1773 943d
000000c0: 498b db3d ab98 c53d b7fb b1bd c8da a0bd
000000d0: 251f 043d 084d c33c a4f5 cd3d a1f3 313c
000000e0: 3e57 f33c e35f 84bd d597 07bc 8ab8 a7bd
000000f0: bbaf ec3c 78cb 21bd c3b9 3abd ecba 82bd
00000100: abf2 efbd 252d 8e3d d622 7bbd 93f7 efbd
00000110: d8ba a33c 7253 2d3c 21b2 cfbc 6c9c 5bbd
00000120: bf75 683d 77b1 f1bc dc2f 91bc bd56 ec3d
00000130: af3c 883d 1d12 763d 65cd bcbc c0af 28be
00000140: 6a00 0c3d a666 ebbc aa9f f9bd 39eb d53b
00000150: 0bfc f23d e392 efbc 1378 c13d 5669 0abd
00000160: 78cb 59bd 8d83 6fbb 2e3b 53bd 62ea 9cbd
00000170: ddc0 b63d 196d bd3c 81bc 99bc ab6e b9bd
00000180: 703e 003d ef0d 47bd 358b 5bbd 6086 e4bd
00000190: 254a 953b 4a9d ccbc 864b c33d 3500 fa3d
000001a0: b39f 673d 0f88 853d e1d5 403d 872e 4cbd
000001b0: 30ce f239 9077 37bd 0482 44bd 6e8c ce3d
000001c0: ae90 a03d 2f15 a33d bf88 4ab7 f2cf 5bbd
000001d0: f402 bfbd a4dc 203e 772f 8d3d 437a 18bd
000001e0: 9fc1 31be 6f82 36bd 65d5 c4bd 14e3 1bbe
000001f0: 8476 27bc df7f e93c c773 cb3d 1cfe 6e3c
00000200: 762a ab3d 1339 3b3e 03f7 6abc 7766 bb3d
00000210: dfb8 d4bd b320 623c 3777 38bd cb01 bf3d
00000220: b13b c53c 786c 493e fbdf 1ebb b021 b53d
00000230: 661b adbc 124c 393c 7c15 973d a582 25bc
00000240: 0fe8 29bd 6613 e9bc 2d98 fc3c 93a1 55bd
00000250: 3929 3cbe a9b6 cabd 22a4 2fbd 0e08 2cbe
00000260: def8 fa3c 8649 9c3c 5902 7ebc 0a08 83bc
00000270: 6f0a 04be e608 e73c c5ea dbbc c93d efbd
00000280: 3559 50bd 4252 a3bd 94d1 513d 4219 993d
00000290: 7fc9 283d d352 12be dc8b 603d 9a7b e8bc
000002a0: 7b12 933d 7b41 713d ca78 4e3d de1d d8bd
000002b0: 338f 103e c288 d93d 4713 813d 259f 73bd
000002c0: 4679 a03c dade 2fbe 4482 5bbb 1b0d 423d
000002d0: ba25 48be 4ea1 6c3d 277f ccbd 7342 423d
000002e0: cb95 09bd d66b 48bc ac8f 53bc caff 93bd
000002f0: ceeb ed3c 9da0 b9bd 73e7 47be bd6c 913c
00000300: 2ff2 78bd 9da9 a9bc 31d6 55bc 152e 16bd
00000310: 83a5 393d 0245 9cbd 2dea 58bd 6e5b 663d
00000320: cf67 2c3d e652 fdbc 61bb a4bd 5c67 9abd
00000330: 47e7 18be 9d8d 78bd 6c26 cabb bfc5 3fbb
00000340: e89a 9f3a 5297 2c3c c0a3 b23d 1c51 263d
00000350: 469b 2dbe 4935 debd 4a19 1a3d 280b a93b
00000360: fc45 6c3d aa2c bd3d 2a80 b13c 2aa1 b6ba
00000370: 60a2 033e aafe 05be bd90 d4bb 92f9 afbc
00000380: c067 133d 8f1f a53d c4f5 153b 6198 c8bc
00000390: 1090 823d 8129 96bd 81f9 9b3b 0af3 4d3e
000003a0: 43de d13c ac5b a13d 0cfd 52bd a8f6 05be
000003b0: 8a03 313e 1c13 553d 4e44 4a3b 7e33 4c3e
000003c0: bc93 533c ae73 973c 7b8e 4e3c 0878 163e
000003d0: 4a2f 99bd 126a d83a c434 05bd 7ede 543d
000003e0: 5920 1fbc e216 f6bb d8f3 38bc 11a4 49bc
000003f0: da0a 023e 4a63 6ebd 45cc ca3d 8c79 c4bb
-0.022083838 -0.04473788 0.0019930631 -0.048344847 0.03133542 0.019914242 0.08292539 0.04358253
0.03407075 0.09931437 -0.02893284 -0.04317907 -0.063594975 0.027132815 -0.08281096 -0.14919288
0.027045028 0.017674785 -0.10634947 0.045381524 0.06467284 -0.17393486 0.019326273 -0.011431979
0.03181564 -0.077640146 0.021399358 0.07253561 -0.0495428 -0.06848532 -0.0067442954 -0.13354519
-0.002317633 -0.0898218 -0.12679134 0.020593734 -0.07935846 0.1192126 0.12187677 -0.11480273
-0.057966243 -0.065634854 0.0326264 0.059892453 -0.03411569 -0.13327771 0.12790374 0.07248514
0.10719926 0.0964826 -0.08690589 -0.07854229 0.032256264 0.023840442 0.10056618 0.010861308
0.029704686 -0.064636014 -0.008275946 -0.08189495 0.028892389 -0.039500684 -0.045587312 -0.06383309
-0.11716207 0.069422044 -0.06131252 -0.11717143 0.019986555 0.010578977 -0.025353493 -0.053615972
0.056752916 -0.029503567 -0.017723016 0.115399815 0.066521995 0.060075868 -0.023047158 -0.16473293
0.034180082 -0.02873547 -0.12188657 0.006528285 0.1186448 -0.029244846 0.094467305 -0.033791862
-0.05317256 -0.0036546916 -0.05157011 -0.076618925 0.089235045 0.02312331 -0.018766643 -0.09054311
0.031309545 -0.048597272 -0.053599555 -0.111584425 0.004555958 -0.024977345 0.09535889 0.12207071
0.056548785 0.06520092 0.04707897 -0.04984906 0.0004631146 -0.044791758 -0.047975555 0.100853786
0.078400955 0.07963025 -1.2071977e-05 -0.05366511 -0.09326735 0.15709168 0.06893819 -0.037225973
-0.17359017 -0.044557985 -0.09611014 -0.15223342 -0.010221127 0.028503357 0.09934192 0.014586952
0.08357708 0.18283491 -0.014341119 0.09150403 -0.10386824 0.013801741 -0.045035567 0.09326514
0.024076315 0.19670284 -0.002424239 0.08844316 -0.021131229 0.0113096405 0.07377145 -0.010101949
-0.041481074 -0.028451633 0.030834282 -0.052156042 -0.183751 -0.09898121 -0.04288114 -0.16799948
0.030636247 0.019078027 -0.015503489 -0.015995044 -0.12894605 0.028202485 -0.026845345 -0.116817065
-0.050866324 -0.07974674 0.05122526 0.07475521 0.041207787 -0.14289407 0.05482088 -0.02837925
0.07181259 0.058900338 0.050408162 -0.10552572 0.14117126 0.106217876 0.06302505 -0.059477944
0.019589078 -0.17174855 -0.0033494392 0.04737578 -0.19545642 0.05777102 -0.0998519 0.047426652
-0.03359012 -0.012232741 -0.012912672 -0.07226522 0.029043104 -0.09063838 -0.19521885 0.017752046
-0.06077784 -0.02071076 -0.0130515555 -0.03666504 0.04532386 -0.0763035 -0.052957702 0.056239538
0.042091187 -0.030923318 -0.08043552 -0.075392455 -0.14931975 -0.060681928 -0.006169131 -0.0029262153
0.0012176903 0.010534124 0.08722639 0.040604696 -0.16953763 -0.10850007 0.037621774 0.0051588006
0.05768393 0.092370346 0.021667559 -0.0013933529 0.1285491 -0.13085428 -0.0064869807 -0.02148131
0.035987616 0.0806266 0.0022882083 -0.024486722 0.06375134 -0.07332135 0.004759968 0.20112243
0.025618678 0.07878813 -0.051510856 -0.13082373 0.17286506 0.052020177 0.0030863467 0.19941518
0.012913641 0.018487778 0.012607212 0.14694226 -0.07479723 0.0016511104 -0.032521024 0.051969998
-0.009712302 -0.007510052 -0.011288606 -0.012307183 0.12699452 -0.05820016 0.099022426 -0.005995935

network_body._body_endoder.seq_layers.2.bias f4 [256]
00000000: 5dc6 2fbb 2f8f d1bb 1939 d8bb 762f 383c
00000010: 03d2 c63c 8b0f 07bc 01c3 833d 825c 88bc
00000020: 397a c53b b03f b13c 3399 d4bb eab0 7bbc
00000030: db11 73ba d8c9 cf3c 9311 533d bc8e d43c
00000040: 014f 5a3d 92f0 be3c fbcb 86bc abdd cd3c
00000050: e2da 81bc 2338 093d 4555 9a3c b984 003c
00000060: 1b83 c73a 0302 1ebb 72f7 aa3c 28fa 41bb
00000070: 5ad4 d1ba ef71 9c3c c7a8 6f3c 8203 bebb
00000080: 30af f23b e1c6 4f3a 74d9 b2bb ea19 0e3c
00000090: 0e56 34bb ffda 313c 3334 fa3c 5a8f d03c
000000a0: 0746 09bc e2ad 123d 0952 1c3c 27af b4bc
000000b0: 4847 ed3c 5793 133c 4f15 e43c 612c 89bb
000000c0: 2734 ed39 32a5 483d c359 123d 0261 aeb8
000000d0: 5522 09bc 96a6 f13c 876f 3a3c 2af4 b23b
000000e0: f5ee cdbb e17c 34bc 9ac4 883b b27a 13bc
000000f0: f20c e839 e131 ac3b bacb 03bb 748e e3ba
00000100: 5716 a03c 5f48 113d 8828 2ebb 725f 843c
00000110: 2ea8 f3b9 0076 823a 3782 19bc e766 03ba
00000120: a7d1 f43c be96 cd3b ab9f 92bc 8609 b53c
00000130: 7c54 bf3b 8afa 14bc db3c c03c 17b0 8e3b
00000140: a123 ac3c a24a a8bc a78b 75bc c135 83bc
00000150: 1460 5dbc de2e 03bc 4888 a6bc c821 43bc
00000160: 188e 9c3c 3c78 91bc ecaa 2abc d7e7 edbb
00000170: 6578 003b c652 a43c 7302 6ebc 4f54 233d
00000180: 15bf f93c c425 01bc bb49 70bc 10f6 2d3c
00000190: b070 293d 7473 bd3c 7134 983c d8a3 013d
000001a0: fb23 bb3c 5c30 9dbc d9d5 943b 76ca bc3a
000001b0: fa1c c2bb ca98 63bc 6122 a43b 607e 1fbc
000001c0: 894e 203d ec44 113d 68fc 3a3d d0a0 723b
000001d0: 35c2 dcbb ee83 0a3d 5873 c53b 5c88 8f3c
000001e0: 22ec 7a3c e91d e93a 99dd f93b 0b48 a93a
000001f0: bc4d fe3b f848 e23b 1ec4 06bc a956 96bb
00000200: 7ba2 9dbb 5b01 c7bb 5232 3fbc c59f 2dbc
00000210: 927a 8bbc f111 d73a 494a 333b a66c ca3b
00000220: d566 7abc 01c0 b3bb be63 9a3c ad6f 38bc
00000230: f0dc 61bc 3af9 4abc 552a 803c c1ac 16b8
00000240: e5df d63c 26f3 213c 364e a03c baff dabb
00000250: b483 963c f3a3 fc38 376d be3c 4a60 b13b
00000260: 4e86 15bc 1d96 143c 40fa 973c bc18 5a3a
00000270: 9052 4e3d 358a 87ba 2aad 01bb 49e1 f63c
00000280: 410e db3b f865 8f3c 19cd 78bc 810e 683c
00000290: 74ed 843c 963c 22ba c229 2abd 6b75 eabb
000002a0: 5cdd 8f3c ab83 0e3d 6b58 d63a f2a2 e83b
000002b0: a11d 353c 2c13 743c c5d0 8e3b 4e6d a4bc
000002c0: 2217 573c 428c ef3c d42a 82bb 062f 283c
000002d0: 304d ac3b cd47 5b3d dcaa 44bc 123d 183c
000002e0: 2cc0 db3c 40ff 86b9 2fd8 033a fbf7 c23c
000002f0: cd63 bdbb bf11 863c 7350 883c c49e f8bb
00000300: 5804 cf3c bf88 043b 414f ec3c 1f3f 473c
00000310: 9a04 c13c ba21 333c 0320 b73b a02f 0a3d
00000320: 568b 49bc e114 1e3d 6fd8 e3bc 71af 223c
00000330: 11f3 0c3d d7b4 af3c 6ac9 883a 7747 0bbc
00000340: c72d 263c 9574 f33c 904e 54bc 71f5 cebb
00000350: 7210 18bb e871 e3bb 5e49 5e3d 4f4c 823c
00000360: 89bf 7ebb f104 e13c 0c6d 7bbc 847c 6e3c
00000370: 2a99 d5ba 806f 343d adfa a43c 9238 a9bb
00000380: 17f2 023c ab9a cf3b 40ef 2b3c c87c 883b
00000390: 51f6 653c 2dc2 143d 7fcd b23b 693c b3bc
000003a0: a123 733c f312 f63b 9f62 48bc 4fde 583a
000003b0: ddfc 53bb de13 973c 31be 5abc 8402 7a3c
000003c0: 6a80 153c b2de b43b 9c73 c4b9 f591 333b
000003d0: 5d39 61bc 1cc3 3abc b4ad 6fb8 56f9 413b
000003e0: 613c 18ba 0ced 79bb 3c51 203d 1aaf 1bbc
000003f0: 4f74 fcba 0fd8 87bc db64 d3bb 9a6a f5bb
-0.0026821115 -0.0063952426 -0.0065986034 0.011241784 0.024270063 -0.008243452 0.064336784 -0.016645674
0.006026533 0.021636814 -0.0064879893 -0.015362004 -0.0009272375 0.025364801 0.051530432 0.025946967
0.053298 0.023308072 -0.016454687 0.025130114 -0.015851442 0.0335008 0.018839488 0.007844144
0.0015221568 -0.0024110086 0.020869944 -0.0029598568 -0.001600872 0.019097297 0.014627642 -0.005798758
0.007406138 0.00079260586 -0.0054580513 0.008673171 -0.0027517113 0.010855435 0.030542469 0.02545898
-0.008378512 0.03581036 0.009541043 -0.022056175 0.028964654 0.0090072965 0.027842192 -0.0041861986
0.0004524302 0.048985668 0.035730135 -8.315036e-05 -0.008370002 0.02949838 0.011379129 0.0054612355
-0.0062845894 -0.011016102 0.0041738274 -0.009001421 0.00044260133 0.0052549695 -0.0020110444 -0.001736118
0.019541902 0.03546941 -0.0026574451 0.016158793 -0.00046473875 0.000995338 -0.009369425 -0.0005012587
0.029885126 0.0062740734 -0.017898401 0.022099268 0.0058389287 -0.009092936 0.023466518 0.0043544876
0.021013083 -0.0205434 -0.014986909 -0.016016843 -0.013511676 -0.0080067795 -0.020328656 -0.01190991
0.019110724 -0.017757528 -0.0104167275 -0.0072603035 0.001960301 0.020059 -0.014526951 0.039875325
0.030486623 -0.007882539 -0.014666016 0.010617748 0.041367233 0.023126341 0.018579694 0.031650394
0.022844305 -0.019188099 0.004542094 0.00144036 -0.0059238644 -0.013891408 0.005008981 -0.00973472
0.039137397 0.03546612 0.04565087 0.0037022121 -0.0067370185 0.033817224 0.006025713 0.017521076
0.0153150875 0.0017785403 0.0076252935 0.0012915147 0.0077607315 0.006905671 -0.008225469 -0.0045879674
-0.004810629 -0.0060731596 -0.011669712 -0.010597174 -0.01702622 0.0016408545 0.002735751 0.0061775027
-0.015283306 -0.005485535 0.018846389 -0.011257094 -0.013785586 -0.012388522 0.015645185 -3.5923676e-05
0.026229808 0.009884631 0.019568544 -0.006683317 0.018373348 0.00012046834 0.023245437 0.00541309
-0.009126259 0.009068993 0.018551946 0.0008319726 0.050371706 -0.0010340872 -0.0019787052 0.030136721
0.006685049 0.017504677 -0.015185618 0.014163614 0.016226508 -0.00061888376 -0.04154373 -0.0071551106
0.017561607 0.034793537 0.0016353255 0.0070995027 0.011054427 0.014897149 0.0043583834 -0.020071652
0.013128074 0.029241685 -0.0039723907 0.0102651175 0.005258225 0.05353527 -0.012003627 0.009291904
0.026825033 -0.00025748648 0.0005029467 0.023799887 -0.0057797194 0.016365884 0.016639924 -0.0075872857
0.025270626 0.0020223109 0.028846385 0.012161045 0.023561765 0.010933334 0.005588533 0.033736825
-0.012301287 0.03859413 -0.027813165 0.009929524 0.034411494 0.021448536 0.0010436003 -0.008500925
0.01014275 0.029718677 -0.012958184 -0.00631588 -0.0023203162 -0.006941069 0.054269187 0.015905527
-0.0038871488 0.027468177 -0.015345823 0.014556054 -0.0016296257 0.044051647 0.020139063 -0.0051642144
0.007992289 0.0063355765 0.010494053 0.0041652657 0.014035777 0.036317993 0.005456626 -0.021879392
0.014840038 0.007509583 -0.012230544 0.00082728727 -0.0032346763 0.01844209 -0.013351009 0.015259389
0.009124855 0.0055197114 -0.0003747017 0.002740023 -0.013746587 -0.011399057 -5.7143814e-05 0.0029598079
-0.0005807337 -0.0038135676 0.03913997 -0.009502197 -0.0019260737 -0.016582517 -0.006451232 -0.0074895145

network_body._body_endoder.seq_layers.2.weight f4 [256, 256]
00000000: d915 b13c 0a0a dfbd 7ccd 4fbd 304b 303d
00000010: 058d 3f3e 7700 ea3c cf87 b4bc 5334 f8ba
00000020: 3e36 df3d 96ce d23c 8ea8 143d 5229 863c
00000030: 93bc 5bbd 734a cfbd 2d8a 953d 0cad 1ebc
00000040: 4094 c9bb 6dda fbbc 64bc 1abd 6a1b 933d
00000050: 14df 8ebd b8b5 0cbd b4e2 d13c c6a8 583d
00000060: 411f 9abd 1c3b ebbb 0776 3ebb 3a30 e43b
00000070: f908 d63d 8838 74bd 1a17 bfbd a412 78bc
00000080: b2f8 313d 6825 9fbd 156d aabc ebd4 40be
00000090: 6b11 483d 6e45 eabd 39db 76bb aef8 133d
000000a0: 353e 0ebd c04a 60bd 07d5 a2bd 3a04 013d
000000b0: 6bcf 963d cbdf 67bd 3a74 973d 8e2a 493d
000000c0: 5141 2f3d c4a6 e7bd 9da9 17bb d6a6 143d
000000d0: 77e1 673d f4a4 8bbc 0c96 833c 64ca 2cbd
000000e0: 7369 06be a0c0 0d3d bdc6 1e3d b2b0 1dbc
000000f0: a94d 46bd 0395 78bc 6ab3 f63d a90e 313c
00000100: 0ba7 7d3d a478 a23d 1470 3ebc 11d1 7f3b
00000110: f956 20bd 695e 4fbc bd8d d2bc d28f debd
00000120: 01f3 023c e0ed 1c3d 8ef8 093e d12c 253d
00000130: 9c47 103c a2d8 dabc cf80 7a3d 586e 70bc
00000140: 5719 643d 9780 5ebc 6be5 48bc c3c1 0a3c
00000150: b955 803d dad8 97bb d591 d83d 6418 c0bb
00000160: 1387 2e3c 1048 09bd 1b57 ea3d b9fe 4a3d
00000170: c533 dfbd 6381 9d3b 31b3 423d 2d41 93bc
00000180: ce48 9d3d 2402 dd3d 37b5 00bd ded0 3a3d
00000190: 859b 0fbd c73b e53d 777a b63c 999c 363d
000001a0: 42fc 6c3c a056 03bd ba34 17bb 6cb8 023d
000001b0: 676a fabd fea6 09be 7dd0 efbc e6bf cfbc
000001c0: f5d1 23bd bd65 6abd 7b1b a53d 24bf 87bd
000001d0: afce 72bd ce79 3abd c0ef b7bd 87b6 62bd
000001e0: e986 41bd cdd9 653d 7d70 aa3d b3bc 303d
000001f0: b25c 033e 671e 0b3d 15cf 6c3c cc23 1bbd
00000200: b818 a7bc ac72 98bd c6fa 833d f15c 34bd
00000210: fe8e 313c 5967 70bb 4ed9 80bd 15b3 77bd
00000220: 50ce 4ebc 23e1 2bbe 43f9 4c3d 5080 23ba
00000230: 5cea fe3c 8398 583e 92c4 a6bd 4f11 b0bd
00000240: 5551 1ebe dcf9 a1bd eb7c ca3d af3d bd3b
00000250: ec4f 813d 29d8 e8bd 1911 95bd 07e6 283d
00000260: f173 cabc 7bc4 04bd b058 1d3b 7117 d1bd
00000270: d068 8e3d fcc5 373d 6dc5 103c 22ba 7f3d
00000280: c440 d03c 504c 793d de0e aa3c 61f9 c3bd
00000290: 82c8 babc 4df4 783d 18e1 c0bc a4d6 df3d
000002a0: 1fcb db3c ac02 1d3c 8e48 c73d 65f5 07bd
000002b0: fbcc f13d ed74 6a3c 310d 493d 6583 03bd
000002c0: 6a54 f0bd 6637 a63c 5f44 a73d 4ec1 243d
000002d0: 0771 3a3d b86d d8bc f201 55bc e562 fb3d
000002e0: 62ee 8ebd fce7 6c3c f2f8 33ba a857 c5bd
000002f0: 010b b13c 2658 3dbd ea5a 00bd 565c 3cbd
00000300: 4582 eebd ae72 4dbb 0cad 073e 67fe 9c3b
00000310: 30f7 b23d b9b9 ddba a5b5 36bd bc3a 5fbd
00000320: e923 953d 4b51 393d d5e4 453e 3979 9ebc
00000330: a671 e93d 8ebd 6a3d ebd1 293c 6ca3 6ebc
00000340: f33c 9abb 8b6c ccbc bb0b 98bd 0f09 91bc
00000350: 53ee 3fbd 2871 c73d a6e1 33bd 41c0 a13d
00000360: 0b8a f1bc 61b6 04bd 0b65 5a3d 3171 433d
00000370: dd83 55bc 01bf bbbc 9d9d 8dbd 6559 09bd
00000380: 5f53 223c fb73 1d3b de60 243d 046f 80bd
00000390: af51 b6bc 5bfd 48bd ea07 2c3e bfdd 0c3e
000003a0: fc03 523d 2a86 883d 2448 3e3d 4654 a2bd
000003b0: 814f 9ebc c362 1e3e 366b 8b3d 5a37 623c
000003c0: 2aa7 0abe fed6 4cbd 7a65 d1bc 6c43 c5bd
000003d0: 3b77 97bd 79b5 dd3d 10a6 66bc 17df d2bb
000003e0: 299d 273d e6f7 963c 5d9f f8bd d961 a0bd
000003f0: 051e 053d 3650 bfbb 488e 29bd 0017 503d
0.021616863 -0.10890587 -0.050733075 0.043040454 0.18706138 0.028564675 -0.022037415 -0.0018936492
0.10899018 0.025733273 0.03629356 0.016377125 -0.053646635 -0.10121622 0.073017456 -0.009684812
-0.006151706 -0.030743802 -0.03777732 0.07182963 -0.069761425 -0.034352988 0.025620796 0.05289533
-0.075254925 -0.0071786772 -0.002906205 0.006963757 0.1045093 -0.059624225 -0.09330578 -0.015141163
0.043450065 -0.077708066 -0.020803967 -0.18831222 0.048844736 -0.11439024 -0.0037667288 0.03612583
-0.034727294 -0.054758787 -0.07950788 0.03149817 0.073637806 -0.05660991 0.07395215 0.04911285
0.0427869 -0.11311105 -0.002314187 0.03629192 0.056611504 -0.01704643 0.016062759 -0.042185202
-0.13126163 0.03460753 0.03876375 -0.009624647 -0.048413906 -0.015172246 0.12045939 0.010806718
0.061926883 0.079331666 -0.011623401 0.0039034525 -0.039145444 -0.0126567865 -0.025702352 -0.10867275
0.007992507 0.038312793 0.13473722 0.040325943 0.0088061355 -0.026714627 0.061157998 -0.0146747455
0.05568823 -0.013580463 -0.012261729 0.008469048 0.0626635 -0.004634005 0.1057469 -0.0058622826
0.010652321 -0.03351599 0.11442395 0.04955933 -0.10898546 0.004806684 0.04753417 -0.017975414
0.07679902 0.10791424 -0.03142282 0.045609348 -0.035060424 0.11193042 0.022275193 0.044582937
0.01446444 -0.032065034 -0.00230722 0.03191416 -0.12227326 -0.13442609 -0.02927422 -0.025360059
-0.039995153 -0.05722593 0.08061882 -0.06628254 -0.05927914 -0.04552632 -0.089812756 -0.055349853
-0.0472478 0.056115914 0.08322237 0.043148708 0.12828329 0.03396454 0.014453669 -0.037875935
-0.020397529 -0.07443747 0.064443156 -0.04403395 0.010837315 -0.0036682694 -0.062914476 -0.06047352
-0.012622431 -0.16785102 0.050042402 -0.00062370766 0.03111761 0.21151929 -0.081429616 -0.08597051
-0.15460713 -0.07908985 0.098871075 0.0057751755 0.06314072 -0.11369354 -0.07278652 0.041234996
-0.024713488 -0.03241394 0.002400916 -0.10209549 0.06953585 0.044866547 0.0088361325 0.06243337
0.025421508 0.060863793 0.020759042 -0.095690496 -0.022800688 0.06077986 -0.023544833 0.10929611
0.026830254 0.009583157 0.097306356 -0.03319301 0.11806675 0.014310104 0.049084846 -0.03210773
-0.11734851 0.020290088 0.081673376 0.040223412 0.045517948 -0.026419505 -0.013000952 0.12274722
-0.06979062 0.014459606 -0.0006865404 -0.0963586 0.021611692 -0.046226643 -0.031336702 -0.045986496
-0.11645941 -0.0031348872 0.13249606 0.0047910693 0.087385535 -0.0016916312 -0.044606823 -0.054499373
0.0728224 0.045243543 0.19325574 -0.019344913 0.1139863 0.05730968 0.01036499 -0.01456533
-0.0047069727 -0.024954101 -0.074241124 -0.017704515 -0.046858143 0.0973838 -0.043916367 0.07897998
-0.02948477 -0.032400493 0.05331902 0.04771537 -0.013031927 -0.022918226 -0.06914828 -0.03353252
0.0099075725 0.0024025429 0.040131442 -0.062711746 -0.022255747 -0.049069744 0.16799894 0.13756464
0.05127333 0.06666215 0.046455517 -0.0792623 -0.01932502 0.15467362 0.06807558 0.013807142
-0.1354033 -0.05000972 -0.025561083 -0.09632 -0.07395788 0.10825629 -0.014077678 -0.006435286
0.040921364 0.018428754 -0.12139771 -0.07831163 0.032499332 -0.0058384193 -0.041395456 0.050803185

network_body._body_endoder.seq_layers.4.bias f4 [256]
00000000: 5036 9c3c 7eeb a43c 796a 153c 096a a43c
00000010: 4a24 bd3c 6f06 573b 7769 62bc 1d9e 923c
00000020: 180c 7f39 0b4e 853c 3ce3 9a3c d86b 383c
00000030: 539e 2fbb ceb5 883c 2bc4 d2bb cfb5 babb
00000040: 454d f6bb 822d 923c c111 093c 982b c3ba
00000050: 2f1c 2bbc 3c29 9d3c 802e 063c 9ff5 373c
00000060: 10a7 1d3c 0b19 513b b235 433c 2893 873c
00000070: cc77 e33c 7050 2f3c b973 d83c 79fe 0f3d
00000080: 1075 913c 59b5 353c 1b2f 5f3b d3e8 e03b
00000090: 042e 223c b4b7 57bc b837 133d 3dc8 063b
000000a0: 9007 ce3c e042 bcba f214 9f3c 6f31 0d3a
000000b0: c585 073d ff27 123d da97 75ba e246 0f3d
000000c0: fa46 2d3b 3a18 073c fc28 e03c 33b9 553c
000000d0: 7eb3 573b acf2 5c3c 6d18 293d d899 7d3c
000000e0: eb64 3ebb ea2e 6c3c 6633 ed3a 1ac2 b4ba
000000f0: 2211 923b 5482 04bc a927 d4bb 0ed8 c23c
00000100: ad14 1d3c 0d48 2d3c 9ec7 78bb 6e10 433c
00000110: 13aa e43a daaf af3c 9d2b 1ebc e2e2 bbba
00000120: 1ac0 b83b 28d8 72bb 061b 6e3b d339 553b
00000130: 8317 b7bb ef65 f53b 0b28 cfbb 6d4c 473c
00000140: 7504 b2bb dd3f b03c 6569 db3b b985 8f39
00000150: 64b5 c93b 0eab a03c 0e42 3fba fe01 133c
00000160: 92d5 7cbc ade3 08bc 229e 8b3c 4b2d 8e3b
00000170: d74c f1bb e899 a73b 966a 813c 9176 483c
00000180: a468 2bbb 5450 2d3c cc2a ed3b 8bdb 20bc
00000190: 5d25 a23b 9471 783c ca16 193d e1e4 173c
000001a0: 4762 2abc cc2c 8a3c faed 4d3c 0e25 873c
000001b0: ebdf 9c3c 0467 563c 4fd4 cebb 7be8 c0bb
000001c0: 1d7e 4fbc 568e c43b 4246 2b3d 6579 1c3d
000001d0: b883 053b 9fbd 12bb 0beb a23b b454 4f3c
000001e0: 03e2 ba3c 49d2 19bc 1249 903a 636d 1bbb
000001f0: 0d57 053c 1d61 b93c 883d e6bb 83b4 54bc
00000200: e460 863b 017b 3cba e1fe 353b 9428 84bb
00000210: 2a6b 913c 14a7 f83b ba5b 1f3d 390a 0f3d
00000220: a485 a9bb 96e5 2cbc 85e8 96bc fa6e a7bb
00000230: 5f84 c33c 2589 9138 2427 9c3c e0e5 543b
00000240: 262c d23a cb90 22bc 1bd9 18bc e0c1 8a3c
00000250: 137f 4fba ee54 a3bb bad1 c5bb f47a 993c
00000260: 53e3 9338 c6d0 9d3c 490f cebb 6174 ed3b
00000270: bc55 e63b 055c 2f3c 5b6c a83b 1283 28bc
00000280: bb90 b93c 994d 803c 2411 20bc 35b1 e33a
00000290: f5d2 273d 96b4 e33c ed90 ab3c c3e3 aa3c
000002a0: d487 7d3b ed21 ec3b 9a97 253b 7076 133a
000002b0: fc7a 2abc 85ab a03c d960 013c b7d7 353c
000002c0: 0955 8cbc 8bd0 58bb c368 da3a cdbf 083d
000002d0: be2a 603b c76a 1aba fe1a 553c 58d9 9bbb
000002e0: 31ff 013d 1a28 373c dc18 87bb 8fb1 9a3c
000002f0: d60e 013d 2566 72bc d7fb c8bb 442b 143d
00000300: 2474 103b b9f7 383c 2c52 e83b 0fa5 df3b
00000310: 9d40 bdb9 c1ac 013d b31d 20bc 9763 ddbb
00000320: d6af 14bc 28a3 f03b 3308 353a 3a3a f13a
00000330: 18c5 bf3c 1a75 1b3d 3762 f73b 6ea7 00bb
00000340: d4c3 573c c157 523c d3c0 d03c 9d77 fabb
00000350: 541c db3c a4c3 903b 5692 863b fc94 883c
00000360: bd13 263c 5c2e 6e3b c1c4 12bc 91fb b8ba
00000370: a28b 423c 86e4 303b 3a89 143d 25cd 133c
00000380: a9c8 443b d3fc e93b f1f8 fdba bba6 71bc
00000390: 0420 7a3a ef16 23bc 91a4 a33b d3e5 8c3c
000003a0: bfc0 80bc 18aa a53b 8e91 8b3c 874a 1d3c
000003b0: 55ee 39bc 4eda d93c 5860 c2ba 3692 743b
000003c0: b855 c73c 9ffd 90bc c7e8 d93c 6adb ab3c
000003d0: 90f0 0f3c 8851 653b 0318 5d3c 5af9 9ebb
000003e0: 98d9 253d a8d2 caba 8dca 843c 8f3b 9a3b
000003f0: d98e e93c 4aae daba 48dc 07bc f84b 823c
0.019068867 0.020131823 0.009119623 0.020070093 0.023088593 0.0032810231 -0.01381909 0.01789766
0.000243232 0.016272565 0.018907182 0.011256181 -0.002679725 0.016688254 -0.0064320765 -0.005697943
-0.0075165355 0.017843965 0.008366049 -0.0014890311 -0.010443731 0.019184701 0.008189797 0.011227994
0.00962235 0.0031905796 0.011914657 0.016549662 0.027767085 0.01070033 0.026422368 0.035154793
0.017756015 0.0110906 0.0034055177 0.0068636923 0.009898666 -0.013166357 0.03594181 0.0020566129
0.02515009 -0.0014363192 0.019419167 0.00053860893 0.033086557 0.035682674 -0.0009368636 0.03497971
0.002644001 0.008245522 0.027363293 0.013044643 0.0032913382 0.013485592 0.04128306 0.015478574
-0.002905185 0.014415482 0.0018096983 -0.0013790757 0.004457609 -0.008087713 -0.0064744544 0.023784664
0.009587449 0.01057626 -0.0037960778 0.011905773 0.0017445706 0.021446157 -0.009653953 -0.0014334584
0.0056381347 -0.0037055109 0.0036332025 0.0032535687 -0.0055875196 0.007488958 -0.006321912 0.012164217
-0.00543266 0.021514827 0.0066959136 0.00027374717 0.0061556567 0.019612815 -0.00072959147 0.008972643
-0.0154317785 -0.008355063 0.017043177 0.0043388954 -0.0073638964 0.0051147826 0.015797894 0.0122353
-0.00261549 0.010578234 0.007237768 -0.009817968 0.0049483017 0.015163798 0.03737525 0.009270878
-0.010399408 0.016867064 0.012568945 0.016497161 0.019149741 0.013086084 -0.0063119303 -0.005887089
-0.012664345 0.005998413 0.04181505 0.03820171 0.00203727 -0.0022390855 0.004971867 0.012654472
0.022812849 -0.009388515 0.0011008105 -0.0023716323 0.00813843 0.022629315 -0.007026378 -0.0129824905
0.0041009057 -0.000718996 0.0027770328 -0.0040331576 0.017751295 0.0075882766 0.038905837 0.03492186
-0.005173402 -0.010552784 -0.01842142 -0.005109665 0.02386683 6.939684e-05 0.019061632 0.003248565
0.0016034886 -0.009922217 -0.009329106 0.01693815 -0.0007915359 -0.0049844896 -0.0060369642 0.018735386
7.051849e-05 0.01926459 -0.006288443 0.0072465395 0.0070292633 0.0107030915 0.00513987 -0.010285156
0.02265202 0.015662001 -0.009769712 0.0017371537 0.04097267 0.027796071 0.02094313 0.020860558
0.0038685696 0.0072061927 0.0025267364 0.00056252535 -0.010405298 0.019613037 0.007896625 0.011098794
-0.017130392 -0.0033083286 0.0016663302 0.03338604 0.0034205164 -0.0005890545 0.013006924 -0.004756134
0.03173751 0.011178995 -0.0041228365 0.018883495 0.03150829 -0.014794861 -0.0061335373 0.036174074
0.0022041881 0.01128953 0.007089874 0.0068250964 -0.0003609703 0.03165889 -0.009772706 -0.006756257
-0.009075126 0.0073436685 0.0006905824 0.0018404194 0.023409411 0.037953474 0.00754955 -0.0019631046
0.013169248 0.012838305 0.02548257 -0.0076436535 0.026746906 0.0044178534 0.0041068 0.016672604
0.010136542 0.003634355 -0.008958043 -0.0014113059 0.011874111 0.002699168 0.036263682 0.009021078
0.003002683 0.0071407347 -0.0019376558 -0.014749224 0.0009541514 -0.009954198 0.004993983 0.017199432
-0.015716908 0.005055677 0.01703718 0.009600288 -0.011348327 0.026593354 -0.0014829738 0.0037318594
0.024332866 -0.017699061 0.026600255 0.020978648 0.008785382 0.0034991223 0.013494494 -0.0048515024
0.040490717 -0.0015474157 0.016209865 0.004706807 0.028510498 -0.0016684022 -0.008292265 0.015905365

network_body._body_endoder.seq_layers.4.weight f4 [256, 256]
00000000: bb70 4fbd e94a 93bb f5f7 123d 26ad 89bd
00000010: 1683 783d 6083 83bd 0a0f b43c ea91 fa3c
00000020: e5f8 9e3b eee0 743c d309 653d d2f7 073d
00000030: efba 8bbd 2ff8 04bd c58a 8a3c 1322 433d
00000040: 5d66 f6bc 4de4 8e3d bca2 1c3d 7096 0a3e
00000050: ab40 a6bc 90d8 4e3c db34 d83d cc58 453d
00000060: e4a0 7fbc 5973 9d3d 4cf4 62bd 3e51 b8bd
00000070: c447 f9bc 5441 8f3c d220 e4bd 7170 493d
00000080: fdfd 66bd dd2a 5bbd c7a6 393d e584 c93c
00000090: 8585 863d 7d2e a43c c8cc 44bc fcd3 973d
000000a0: e7b4 c1bd 6e71 d1bb 0f20 45bd 6d57 133d
000000b0: 6bdc 03bc f0ee 823d b875 653d fee3 84bd
000000c0: bbae cf3c ba77 a0bd 6196 d2bc 4207 21be
000000d0: 67e6 90bc 5928 d83c e65f 2e3d 4eb1 d3bc
000000e0: a461 dcbc 1f50 b13c 7519 21bd a94b febc
000000f0: ab9b 923d f6d6 c43c fd57 543b a536 85bd
00000100: a5d1 aebd 92be 233e 28bd d0bc 11ef 943c
00000110: 1b61 7f3c 3227 583d 87e5 0dbd 80d4 9c3c
00000120: 1d07 dc3d 7b0b 0dbd e605 e2bc a89d 0dbd
00000130: 6d57 6c3d 4b4e b53c 8b95 213e 4dcf 1dbe
00000140: 48fd d23b 1e78 ddbd 1bef 84bd a95d cd3c
00000150: 1dd4 bbbd c271 81bd f795 8e3c 3216 e33b
00000160: 1ec1 863d 0d62 11bd 06d8 4bbb 6c0c 803d
00000170: 15c7 b43d 8ccf 2bbc 4d96 f83b 8fc9 053c
00000180: c541 ac3d 39ed 9dbd 72a9 903d 06bd af3d
00000190: 90d1 df3d ea94 883d 9e37 bdbd a381 d93c
000001a0: f446 0c3d d7a3 c2bd f5e7 21bd dd5d 3a3d
000001b0: 5d62 823d 30a4 203d 27ff e3bd b5a2 0fbe
000001c0: 3742 fcb9 86c5 37bd 217c f03c 210a 533d
000001d0: 0295 3dbd eab3 1ebc 33fe a4bb c8f8 71bd
000001e0: 61a0 293c be03 ad3c 2918 3abd 7a12 f4bd
000001f0: 9674 ec3d 3c2a 683c d6f8 77bd fe60 d9bc
00000200: 89a8 543c bf10 523d e91c 10bc 4a37 8c3c
00000210: 9245 b5bd 2122 dfbd efca aa3c ca8a 8a3d
00000220: 71c1 003b 95b2 14bc 20ed edbc 9786 8cbd
00000230: 0d13 bdbc f322 363b 3d74 0bbd 4ab1 c2bc
00000240: e05e 1bbc c0d0 8ebd 9f12 123d d80e 613c
00000250: 04d7 8b3d 1abf 823d e972 9b3d 9b8c d53d
00000260: a366 aebc 2154 223d e8e4 313c 8054 56bc
00000270: 7458 fa3b 5aea 523e 6b41 143d ac6a 193d
00000280: 58c9 a8bb 7aca e0bc c0b2 803d ef84 103d
00000290: 8dac e6bc 5e60 8bbd 972f f9bc 202d dabc
000002a0: 00ff 61bd b0f6 63bc 976a 1a3d ae8f aa3c
000002b0: d79a bbbd 775d c4bc b03d ac3d ba7e a6bd
000002c0: 2bbc f73c bf2d 813d a0aa 9e3d 9771 94bb
000002d0: 9429 0abe b81c 413d 67fd 4abd a2ed 673d
000002e0: 010e 013d 5113 fb3c 2094 8f3d b8c2 ce3d
000002f0: cdd5 7e3c 596f 06bd c63e bfbc 52bd cfbc
00000300: e272 43bd ecb9 d63c 0787 123e 6765 ec3c
00000310: c58d 813d 4273 463d 644a 14bd 1a88 293d
00000320: 6d12 f4bb 06de c23c cadd c63c de5e 3bbc
00000330: ad6d bebd af33 7cbd 3bce 0d3d 9a7b 463c
00000340: afc5 cd3d fb04 54bc a8f8 05be 8cec 97bd
00000350: acd8 c2bc a093 b73c 21df c13b c970 a6bd
00000360: c573 35bd 4d3f 043e d232 99bd 1fd5 1bbc
00000370: 378a 5b3d 3666 4e3d bf4d 32be 37ec a9bd
00000380: 76db b53d 2f63 283d 5f20 44bb 4949 603a
00000390: 666f a8b8 5fd6 693d 7931 12bd a870 34bd
000003a0: 1175 003e 3a88 093d c8e3 e3bc 77b9 dabc
000003b0: 1d20 d6bc ce00 ccbd 5501 253d 8b59 61bd
000003c0: 914f 8dbd 5d84 7e3c 121a 8a3d 6667 303d
000003d0: dd1c 9ebd 41e9 403d b192 d73d 17ce b1bc
000003e0: ec16 bf3d 106e 8fbd c80f 35bc 1820 e3bb
000003f0: 04c1 3c3d 5663 eb3c b378 963c 6bce 2fbd
-0.050644618 -0.004495014 0.035881 -0.067224786 0.06067189 -0.06421542 0.021979827 0.030587155
0.004851448 0.014946206 0.055917572 0.033195324 -0.06822764 -0.03246325 0.016911874 0.047639918
-0.030078107 0.06977139 0.038241133 0.1353395 -0.020294508 0.012624875 0.105569564 0.048180386
-0.015602324 0.076880164 -0.05540876 -0.08999871 -0.030429728 0.017487206 -0.111390725 0.049179498
-0.056394566 -0.053507674 0.045325067 0.024599502 0.065684356 0.020041699 -0.012011714 0.0741348
-0.094583325 -0.0063916957 -0.048126277 0.035972048 -0.008048157 0.0639323 0.05602047 -0.064887986
0.025351873 -0.07835336 -0.025706472 -0.15725425 -0.01768799 0.026386427 0.042571925 -0.025841381
-0.026902027 0.02164465 -0.03933092 -0.031041937 0.071585976 0.024028283 0.0032401078 -0.06504563
-0.0853608 0.15990666 -0.025480822 0.018180402 0.015587117 0.052771755 -0.034642722 0.019144297
0.10743544 -0.034434777 -0.027590703 -0.03457418 0.057700563 0.02213206 0.15779702 -0.1541111
0.006438885 -0.10813926 -0.06490918 0.025069075 -0.09171317 -0.06320526 0.017405493 0.006930136
0.06579803 -0.0354939 -0.0031104102 0.06252369 0.088270344 -0.010486495 0.0075862766 0.008165731
0.08410982 -0.07711262 0.07063569 0.08580975 0.10928643 0.06669028 -0.09239124 0.026551073
0.034247354 -0.09503906 -0.039527852 0.04549967 0.063664176 0.03921908 -0.11132651 -0.14026912
-0.0004811452 -0.044866107 0.029356064 0.05152333 -0.046284683 -0.00968645 -0.0050351857 -0.059075147
0.010353179 0.021119948 -0.045433197 -0.119175866 0.115456745 0.014170226 -0.060540043 -0.026535507
0.012979635 0.0512855 -0.008795955 0.017116208 -0.0885116 -0.108951814 0.02084872 0.06764753
0.001964655 -0.00907578 -0.029043734 -0.068616085 -0.023080373 0.0027791827 -0.0340464 -0.023766179
-0.009483069 -0.0697341 0.03566229 0.013736449 0.0682812 0.06384106 0.07590277 0.10427209
-0.021289175 0.039631013 0.010857798 -0.01308167 0.007639939 0.2059721 0.0361952 0.037455246
-0.005150955 -0.027440298 0.06284094 0.035283025 -0.02815845 -0.0680549 -0.0304182 -0.026632845
-0.055174828 -0.013913795 0.03769931 0.020820465 -0.09160393 -0.023970349 0.084102035 -0.0812964
0.030241093 0.063075535 0.07747388 -0.0045301425 -0.13492423 0.04714653 -0.04955807 0.05662311
0.031507496 0.03064886 0.070106745 0.100957334 0.015553904 -0.032821033 -0.023345362 -0.02535883
-0.047716983 0.026211701 0.14309321 0.028856946 0.063258685 0.048449762 -0.036203757 0.041389562
-0.0074484856 0.02378751 0.02427568 -0.011436192 -0.09298263 -0.061572727 0.034620505 0.01211443
0.10047471 -0.012940641 -0.13083136 -0.074181646 -0.023784958 0.02240926 0.0059164916 -0.08126981
-0.04429986 0.12914772 -0.07480396 -0.009511261 0.05359861 0.050390445 -0.1741247 -0.082970075
0.088797495 0.041110214 -0.0029926521 0.0008555842 -8.031614e-05 0.057089206 -0.035691712 -0.04405275
0.12544657 0.03357718 -0.027818576 -0.026699765 -0.02613836 -0.09961091 0.040284473 -0.055017035
-0.06899942 0.015534488 0.06743254 0.04306736 -0.07720349 0.04709745 0.10526026 -0.021704717
0.09330544 -0.07003415 -0.011051126 -0.006931316 0.04608251 0.02873389 0.0183681 -0.042921465

network_body.observation_encoder.processors.0.normalizer.running_mean f4 [25]
00000000: 0000 0000 d16b 3e3e 99c2 0c3b 964e aa3e
00000010: b36a 263f 0000 0000 818f 493e c175 f239
00000020: 1246 a93e 87fc 303f 0000 0000 6a8c 463e
00000030: 170d 6c3a c4ae a63e 8353 323f 0000 0000
00000040: be55 1f3e e749 053a 5fca 913e 2550 273f
00000050: 0000 0000 be55 1f3e e749 053a 5fca 913e
00000060: 2550 273f
0.0 0.18595816 0.0021478294 0.3326308 0.6500656 0.0 0.19683649 0.0004624557
0.33061272 0.69135326 0.0 0.19389501 0.0009004636 0.3255521 0.6965868 0.0
0.15560052 0.00050845597 0.2847471 0.65356666 0.0 0.15560052 0.00050845597 0.2847471
0.65356666

network_body.observation_encoder.processors.1.normalizer.running_mean f4 [55]
00000000: 0000 0000 9891 f83d ebe2 ea37 4ad6 333f
00000010: 77d0 583f 0000 0000 b2b7 d13d 176e e337
00000020: 4d03 333f 6603 5a3f 0000 0000 648b d43d
00000030: b415 0838 c180 2e3f 5aa9 593f 0000 0000
00000040: 8b75 473c ed6a 3a37 79de 593f d215 703f
00000050: 0000 0000 e3e2 f43c d854 c937 1ec8 4b3f
00000060: b207 6b3f 0000 0000 8d92 aa38 6522 9535
00000070: 68c0 633f e07e 743f 0000 0000 0837 a23c
00000080: 2381 ab36 8826 5a3f 6686 703f 0000 0000
00000090: 92d6 7539 0000 0000 e1d8 593f 40d4 703f
000000a0: 0000 0000 7c00 d339 8db3 5f36 b7d7 503f
000000b0: 3383 6b3f 0000 0000 2c72 a539 0000 0000
000000c0: d511 5a3f a953 6f3f 0000 0000 2c72 a539
000000d0: 0000 0000 d511 5a3f a953 6f3f
0.0 0.12137145 2.800064e-05 0.70248854 0.8469309 0.0 0.10240115 2.7111773e-05
0.6992691 0.85161436 0.0 0.10378149 3.244514e-05 0.6816521 0.85024035 0.0
0.0121740205 1.11113595e-05 0.8510509 0.93783295 0.0 0.029893344 2.4000576e-05 0.7960223
0.9180862 0.0 8.133529e-05 1.1111375e-06 0.88965464 0.95506096 0.0 0.019801632
5.1112306e-06 0.85215044 0.93955076 0.0 0.00023444954 0.0 0.85096556 0.9407387
0.0 0.00040245417 3.3334102e-06 0.81579155 0.9199707 0.0 0.00031556317 0.0
0.8518346 0.9348703 0.0 0.00031556317 0.0 0.8518346 0.9348703

network_body.observation_encoder.processors.2.normalizer.running_mean f4 [15]
00000000: 0000 0000 834c 9f3e a838 003a cc47 343e
00000010: 8010 003f 0000 0000 0619 da3d 0000 0000
00000020: 9f31 643f c2a8 773f 0000 0000 0619 da3d
00000030: 0000 0000 9f31 643f c2a8 773f
0.0 0.3111306 0.0004891255 0.17605513 0.50025177 0.0 0.10649304 0.0
0.89138216 0.9674188 0.0 0.10649304 0.0 0.89138216 0.9674188
