Assets/Training/results/Run 2/DroneBehavior/DroneBehavior-5499948.onnx (onnx, 697640 bytes, 21 tensors)

105 f4 [25]
0	0x39df8ee6	0.00042640342
1	0x3e8eaab7	0.2786462
2	0x3d2ffa72	0.042963453
3	0x3effea6f	0.49983546
4	0x3ea32151	0.31861356
5	0x39df8ee6	0.00042640342
6	0x3e841ec8	0.25804734
7	0x3d5aaa1e	0.053384893
8	0x3eea6b6d	0.45785084
9	0x3e9f5090	0.31116152
10	0x39df8ee6	0.00042640342
11	0x3e9cecf5	0.30649534
12	0x3cf36085	0.02970911
13	0x3effdb1a	0.4997185
14	0x3e897bed	0.2685236
15	0x39df8ee6	0.00042640342
16	0x3e7a8233	0.2446373
17	0x3d16c4f5	0.036808927
18	0x3edd2f7f	0.432003
19	0x3e84f595	0.25968614
20	0x39df8ee6	0.00042640342
21	0x3e7a8233	0.2446373
22	0x3d16c4f5	0.036808927
23	0x3edd2f7f	0.432003
24	0x3e84f595	0.25968614

108 f4 [25]
0	0x39df8ee6	0.00042640342
1	0x3eda8e2a	0.42686588
2	0x3d31335a	0.043261863
3	0x3e87cae8	0.26521993
4	0x3e838045	0.256838
5	0x39df8ee6	0.00042640342
6	0x3ed7d8f1	0.421577
7	0x3d37ea63	0.044901263
8	0x3e8c8393	0.27444133
9	0x3e8449ad	0.2583746
10	0x39df8ee6	0.00042640342
11	0x3eda560d	0.42643777
12	0x3d27a494	0.04092844
13	0x3e87057c	0.26371372
14	0x3e83006f	0.25586268
15	0x39df8ee6	0.00042640342
16	0x3ed2a2d2	0.41139847
17	0x3d3ab61c	0.04558383
18	0x3e9f0b0a	0.3106311
19	0x3e86c7f3	0.26324424
20	0x39df8ee6	0.00042640342
21	0x3ed2dc78	0.4118383
22	0x3d1e5023	0.038650643
23	0x3e9921ee	0.299087
24	0x3e875033	0.26428375

111 f4 [55]
0	0x39df8ee6	0.00042640342
1	0x3e111f7f	0.14172171
2	0x3bb73e3a	0.005592135
3	0x3ec2d4fe	0.38053125
4	0x3e880308	0.26564813
5	0x39df8ee6	0.00042640342
6	0x3dcb09e8	0.09913999
7	0x3c2e156c	0.010625225
8	0x3edd365a	0.4320553
9	0x3e8ff44c	0.2811607
10	0x39df8ee6	0.00042640342
11	0x3dd0bccf	0.101922624
12	0x3bd45b42	0.0064806053
13	0x3ed6efcf	0.41979834
14	0x3e8d44a3	0.27591428
15	0x39df8ee6	0.00042640342
16	0x3d03e91a	0.032204725
17	0x3c56f75c	0.0131204985
18	0x3ec2618b	0.37965044
19	0x3e5b4a4a	0.21415058
20	0x39df8ee6	0.00042640342
21	0x3d8514c6	0.06498103
22	0x3bdb95f0	0.0067012236
23	0x3ecf5cea	0.40500575
24	0x3e65ebc7	0.22453223
25	0x39df8ee6	0.00042640342
26	0x3c7fa84a	0.015604088
27	0x3c4a37e4	0.012342427
28	0x3e841cd4	0.25803244
29	0x3e120fdb	0.14263861
30	0x39df8ee6	0.00042640342
31	0x3d70d101	0.05879307
32	0x3b5f8e06	0.0034111752
33	0x3ea4f947	0.32221434
34	0x3e3d7a0b	0.18503587
35	0x39df8ee6	0.00042640342
36	0x3bf1f878	0.007384356
37	0x3c0c968a	0.008580813
38	0x3ed41b18	0.4142692
39	0x3e46502a	0.19366518
40	0x39df8ee6	0.00042640342
41	0x3ce1b2da	0.027551103
42	0x3b373e5f	0.002796076
43	0x3ede2a2f	0.4339156
44	0x3e6324c9	0.22182001
45	0x39df8ee6	0.00042640342
46	0x3ba9f59b	0.005186749
47	0x3a5f8ed9	0.0008528061
48	0x3efbc22f	0.49171588
49	0x3e7f4f01	0.24932481
50	0x39df8ee6	0.00042640342
51	0x3ba9f59b	0.005186749
52	0x3a5f8ed9	0.0008528061
53	0x3efbc22f	0.49171588
54	0x3e7f4f01	0.24932481

114 f4 [25]
0	0x39df8ee6	0.00042640342
1	0x3eda8e2a	0.42686588
2	0x3d31335a	0.043261863
3	0x3e87cae8	0.26521993
4	0x3e838044	0.25683796
5	0x39df8ee6	0.00042640342
6	0x3ed2ae6d	0.411487
7	0x3d2efc5b	0.042721134
8	0x3e88841f	0.266633
9	0x3e839c01	0.2570496
10	0x39df8ee6	0.00042640342
11	0x3edeb690	0.4349866
12	0x3d320733	0.043463897
13	0x3e8fb989	0.2807124
14	0x3e8737a9	0.26409653
15	0x39df8ee6	0.00042640342
16	0x3ec7cfdc	0.39025772
17	0x3d31e963	0.043435466
18	0x3e9dce7f	0.30821607
19	0x3e87c896	0.26520222
20	0x39df8ee6	0.00042640342
21	0x3ee0d162	0.43909746
22	0x3d26b282	0.040697582
23	0x3eaa1620	0.33220005
24	0x3e8e4bef	0.27792308

117 f4 [25]
0	0x39df8ee6	0.00042640342
1	0x3e42f39d	0.19038244
2	0x3b2552ae	0.0025226283
3	0x3ea5f8ce	0.32416385
4	0x3e572be6	0.2101284
5	0x39df8ee6	0.00042640342
6	0x3dfd3e37	0.12365382
7	0x3b8e7d46	0.00434843
8	0x3e4719ef	0.19443487
9	0x3dce34fb	0.10068699
10	0x39df8ee6	0.00042640342
11	0x3e0df444	0.13862711
12	0x3b0e7d7f	0.0021742282
13	0x3e921fe6	0.28539962
14	0x3e3128f5	0.1730078
15	0x39df8ee6	0.00042640342
16	0x3dfa7780	0.12229824
17	0x39df8ee6	0.00042640342
18	0x3ed952bc	0.42445934
19	0x3e6f392b	0.23361652
20	0x39df8ee6	0.00042640342
21	0x3dfa7780	0.12229824
22	0x39df8ee6	0.00042640342
23	0x3ed952bc	0.42445934
24	0x3e6f392b	0.23361652

120 f4 [3]
0	0x4110b222	9.043489
1	0x3fae9b1c	1.3641086
2	0x412cfd5f	10.811858

action_model._continuous_distribution.log_sigma f4 [1, 3]
0	0xbc67eaf8	-0.014155142
1	0x3d14667d	0.036230553
2	0xbd843689	-0.06455714

action_model._continuous_distribution.mu.bias f4 [3]
0	0xbc25c2eb	-0.010117273
1	0xbcc0babb	-0.02352654
2	0x3d32cd58	0.043652862

action_model._continuous_distribution.mu.weight f4 [3, 256]
0	0xbc290777	-0.010316721
1	0x3bb512f8	0.005525943
2	0x3ba8ad24	0.005147593
3	0xbd77eced	-0.060528684
4	0x3d370f2c	0.044692203
5	0xbce507b9	-0.027957784
6	0x3df58d18	0.11989802
7	0xbb3c65a8	-0.0028747115
8	0xbb7255d2	-0.0036977422
9	0xbd43481c	-0.04767619
10	0xbd09ddb5	-0.033658702
11	0xbd049d3c	-0.032376513
12	0xbcc2d6de	-0.023784097
13	0x3d6d3531	0.057912055
14	0xbb7c2f4e	-0.0038480344
15	0x3cc5ee39	0.024161445
16	0xbc51425c	-0.012772169
17	0x3cbfa4ad	0.023393953
18	0xbd972a60	-0.07381129
19	0x3b8badaf	0.004262648
20	0x3cca36c2	0.024684314
21	0xbd679b44	-0.056544557
22	0x3c33680b	0.010950099
23	0xbd02cda2	-0.031934388
24	0x3ba17464	0.004927205
25	0x3baa83f7	0.0052037197
26	0x3d281981	0.041039947
27	0x3c0dd1f1	0.008656011
28	0xbbeaca88	-0.007165257
29	0xbc2c0775	-0.010499825
30	0xbd5fd087	-0.054642227
31	0xbc9eb1d8	-0.019371912
32	0x3d3efe7c	0.046629414
33	0x3c92b60e	0.017909076
34	0xbc6979ef	-0.014250263
35	0xbc2ff43a	-0.0107393805
36	0x3c9420b2	0.018081997
37	0xbd2325d3	-0.039830994
38	0xbb0f3514	-0.0021851705
39	0x3c90eea6	0.017691921
40	0xbc6adbe5	-0.0143346535
41	0xbcbd3bc3	-0.023099786
42	0x3cb42806	0.02199174
43	0xbd98aef7	-0.07455247
44	0xbc9e72a8	-0.019341782
45	0xbcf224d8	-0.029558584
46	0xbd29682e	-0.04135912
47	0x3c0738e0	0.008253306
48	0x3d17fe66	0.037107848
49	0xbc0c1bfb	-0.008551593
50	0x3c6cda78	0.014456384
51	0xbd22ccc2	-0.039746054
52	0xbbfb52d9	-0.0076697883
53	0x3bd68fa8	0.006547887
54	0x3d1a0c2e	0.03760927
55	0x3d6c6587	0.05771401
56	0xbc644406	-0.013932234
57	0x3cdd6c59	0.027029203
58	0xbc5fcd7d	-0.013659832
59	0x3d03c214	0.03216751
60	0xbd157cec	-0.036496088
61	0xbd2567fe	-0.040382378
62	0xbbdb7399	-0.00669713
63	0xbd3b78ac	-0.04576938
64	0x3b32aef8	0.0027264934
65	0x3cb3baca	0.021939654
66	0xbd250961	-0.040292148
67	0x3bf0f560	0.0073534697
68	0xbb994aee	-0.004678122
69	0x3c131af9	0.008978599
70	0x3cd5e997	0.02611236
71	0xbaedf7a2	-0.0018155465
72	0xbd02884f	-0.031868275
73	0x3c3884f5	0.011262168
74	0xbca3fc83	-0.020017868
75	0xbbf6690c	-0.007519847
76	0x3cdf4924	0.027256556
77	0x3c1f015d	0.009704915
78	0xbb7e5392	-0.0038807136
79	0x3b697ad3	0.0035626187
80	0xbc9f5d08	-0.01945354
81	0xbcd58669	-0.026065068
82	0xbc5eb02a	-0.0135918055
83	0xbc5ec74a	-0.013597319
84	0xbd0cac94	-0.03434427
85	0x3c692272	0.014229404
86	0x3c549b5b	0.012976493
87	0xbd272a61	-0.0408119
88	0x3c457e28	0.012054004
89	0xbc8e0489	-0.017336147
90	0xbbbb4d71	-0.005716019
91	0xbafcb4b4	-0.0019279928
92	0xbbc09f70	-0.0058783814
93	0x3d7f0bd5	0.062267143
94	0xbd00ac0e	-0.031414084
95	0x3c9f6ba0	0.0194605
96	0x3d39a8eb	0.04532711
97	0xbd93ff0e	-0.07226382
98	0x3c0d8acb	0.008639048
99	0x3d0c3060	0.03422582
100	0x3d809f71	0.06280411
101	0xbc97a6bc	-0.018512122
102	0x3da69978	0.081347406
103	0xbd521b11	-0.051295344
104	0x3a076499	0.00051648315
105	0xbccb74b1	-0.024835916
106	0x3d992fb4	0.07479802
107	0xb99e5764	-0.0003020122
108	0x3b230012	0.0024871868
109	0xbdb7013f	-0.089357845
110	0xbcabefe0	-0.020988405
111	0xbd98c29b	-0.07458993
112	0xbc8ba490	-0.017046243
113	0x3a6fcab0	0.0009147329
114	0xbcc1935a	-0.023629833
115	0x3c85eb69	0.016347604
116	0xbc58886c	-0.013216119
117	0x3d45df34	0.048308566
118	0x3c84a1e0	0.01619047
119	0x3c41362d	0.011792702
120	0xbd1c5eab	-0.03817622
121	0x3db1409e	0.08654903
122	0xbcf06307	-0.029344095
123	0xbc6b7e6d	-0.014373404
124	0xbc859fac	-0.016311489
125	0x3d56aef3	0.05241294
126	0x3a87dfc3	0.0010366369
127	0xbd5a1c98	-0.053249925
128	0x3d50fcb1	0.051022235
129	0xbd0a418d	-0.03375392
130	0x3cf7310b	0.030174753
131	0xbd9a79f5	-0.07542793
132	0x3d671a1b	0.05642138
133	0xbc6654b8	-0.014058284
134	0xbd381c84	-0.04494907
135	0xbc0f6c34	-0.008753825
136	0x3c4a1f1c	0.012336519
137	0xbd3f53e1	-0.046710853
138	0xbba0236a	-0.004887034
139	0xbc2254a8	-0.009907879
140	0x3d0628b6	0.03275367
141	0xbc5932c5	-0.013256733
142	0xbce4e3e3	-0.027940696
143	0xbd929bb4	-0.07158604
144	0xbd80ff52	-0.062986985
145	0x3c660d08	0.014041193
146	0x3c8e78fa	0.01739167
147	0xbc946043	-0.018112307
148	0x3d836ac9	0.06416852
149	0xbcf72892	-0.030170713
150	0x3aa605c7	0.0012666517
151	0xbcd6645a	-0.026170898
152	0x3bac344a	0.005255257
153	0xbbd651cf	-0.006540514
154	0xbd2f7b2d	-0.04284208
155	0xbc911504	-0.017710216
156	0xbbb67506	-0.0055681495
157	0xbbdc896f	-0.0067302505
158	0x3d53e648	0.051733285
159	0xbd3e405c	-0.046448097
160	0x3d253f06	0.040343307
161	0xbd428afa	-0.04749582
162	0xbb40b7f9	-0.0029406531
163	0xbd4b0ce2	-0.049572833
164	0xbce903dd	-0.028444225
165	0xbca1a991	-0.019734176
166	0xbcaf0b16	-0.02136759
167	0x3c25fe2f	0.010131403
168	0xbc8ffe9c	-0.017577462
169	0xbc227b91	-0.009917156
170	0xbced5919	-0.02897315
171	0x3d1bb9c0	0.038018942
172	0xbd44bf53	-0.048034023
173	0x3b86e64c	0.004116809
174	0xbbeb0f8c	-0.007173484
175	0x3af2ed34	0.0018533827
176	0x3c2c0085	0.010498171
177	0x3b16a8f1	0.002298888
178	0x3d5a7846	0.053337358
179	0xbc9b2a5e	-0.0189411
180	0x3c481ad9	0.012213432
181	0xbd9b4b4d	-0.07582722
182	0x3d4f9947	0.050683286
183	0x3c4b5de1	0.012412519
184	0x3d1b4211	0.037904803
185	0x3d2b40f4	0.04180999
186	0xbd36f5e5	-0.044668097
187	0x3ca742af	0.02041754
188	0xbdaad771	-0.083418734
189	0x3c8728e7	0.016498996
190	0xbd0b0d52	-0.03394825
191	0xbb5a81f5	-0.003334162
192	0xbd024e7e	-0.031813137
193	0xbcb94250	-0.022614628
194	0x3ca00687	0.019534362
195	0xbd91d783	-0.07121184
196	0xbd619d74	-0.0550818
197	0xbce0b0a8	-0.027427986
198	0x3cfea437	0.031084163
199	0x3cccee48	0.025015965
200	0x3cb702d9	0.022340225
201	0x3c9ed487	0.01938845
202	0x3c88947d	0.016672367
203	0x3ca5a0f8	0.020218357
204	0xbd4fe20b	-0.05075268
205	0x3ca7ab8d	0.020467544
206	0xbc0b59a4	-0.008505259
207	0xbcd70646	-0.026248109
208	0x3c6ee1eb	0.01458023
209	0x3d26126d	0.040544916
210	0x3d2c7744	0.042105928
211	0x3d31dba4	0.043422356
212	0xbbe5d631	-0.007014059
213	0xbc2dc10c	-0.010605108
214	0xbcaa6589	-0.020800369
215	0xbcac7b82	-0.021054987
216	0xbc9e970a	-0.01935913
217	0xbcdf6c6a	-0.027273376
218	0x3d57308c	0.052536532
219	0xbb9e2810	-0.004826553
220	0x3cf9b63d	0.030482406
221	0x3d36d0ea	0.04463283
222	0x3d65872e	0.05603712
223	0xbbe5922c	-0.0070059504
224	0xbda978e4	-0.08275011
225	0x3c3ae5b1	0.011407302
226	0xbcb931b4	-0.022606708
227	0xbca25ffc	-0.01982116
228	0xbc9124ce	-0.017717745
229	0x3d243091	0.04008538
230	0x3cb37f44	0.02191127
231	0x3cac3dfd	0.021025652
232	0x3d20f9cb	0.03930072
233	0xbd33d738	-0.04390642
234	0xbc5e04f2	-0.013550984
235	0x3d34ae45	0.04411151
236	0xbc977b73	-0.018491482
237	0x3d4b51a7	0.049638417
238	0xbd648ec6	-0.05580022
239	0xbc804c6a	-0.015661437
240	0x3b12be33	0.00223912
241	0x3adc5cf7	0.0016812374
242	0x3c013918	0.007887147
243	0x3c012237	0.007881693
244	0x3c11ef2d	0.008907122
245	0xbc8222a5	-0.01588566
246	0xbde1f53e	-0.11033104
247	0x3d266673	0.040625047
248	0x3d22f02b	0.039779823
249	0x3b968de1	0.00459455
250	0x3cc605da	0.024172712
251	0xbcbe9e8a	-0.023268957
252	0xbd6cacc0	-0.057781935
253	0xbd8eddc7	-0.069758944
254	0xbc841b32	-0.016126249
255	0x3bda7747	0.006667051

network_body._body_endoder.seq_layers.0.bias f4 [256]
0	0xbd84f6d0	-0.06492388
1	0xbbe02c8f	-0.0068412493
2	0xbdcef18c	-0.10104665
3	0xbd28435f	-0.041079875
4	0xbd8403b1	-0.064460166
5	0xbaaf192a	-0.001335894
6	0x3d4abc6e	0.049496107
7	0x3d4d15f6	0.05006977
8	0xbb4dfe06	-0.0031431927
9	0x3b8f51f5	0.0043737837
10	0xbc5fc215	-0.013657113
11	0xbd618e25	-0.0550672
12	0xbc9d0393	-0.019166743
13	0xbcb6f37c	-0.0223329
14	0xbc97b554	-0.018519081
15	0x3b93b17d	0.0045072422
16	0xbc76be74	-0.015060056
17	0xbc7882f1	-0.015167938
18	0xbd637dd5	-0.055539925
19	0x3d0bd93e	0.034142725
20	0xb91beba8	-0.0001486974
21	0xbd7d5bc4	-0.061855093
22	0xbda684f0	-0.081308246
23	0xbc5f9160	-0.0136455
24	0xbdbf73d2	-0.09348263
25	0xbd3cc129	-0.04608265
26	0xbcdeed50	-0.027212769
27	0x3d4440c0	0.047913313
28	0xbc225aad	-0.009909314
29	0xbce7dd4f	-0.02830377
30	0xbd2cddfd	-0.042203892
31	0xbce1688d	-0.027515674
32	0xbca622ed	-0.020280326
33	0xbcec8c4e	-0.028875496
34	0xbd75707d	-0.05992173
35	0xb94d84c6	-0.00019599785
36	0x3ca19574	0.019724585
37	0xbd906674	-0.070507914
38	0xbd59509a	-0.053055383
39	0xbd6f0bd8	-0.058360904
40	0xbcf35ebc	-0.029708259
41	0xbd877aad	-0.066151954
42	0x3b5964a9	0.003317157
43	0xbd3b013b	-0.04565547
44	0xbd7882a9	-0.060671482
45	0xbb80f04d	-0.003934896
46	0xbd52765c	-0.051382408
47	0xbd179ede	-0.037016742
48	0xbc5c922d	-0.013462585
49	0xbc94c4a7	-0.018160177
50	0x3d27c517	0.040959444
51	0xbd97cfce	-0.074126825
52	0xbd2b4cea	-0.041821398
53	0x3b6b804c	0.0035934625
54	0x3cb79ff8	0.022415146
55	0xbd84976f	-0.06474196
56	0xbd43d523	-0.047810685
57	0xbcb9f83f	-0.02270138
58	0xbda7283a	-0.081619695
59	0xbd815dbc	-0.063167065
60	0xbd418e7b	-0.04725502
61	0xbd40b2eb	-0.04704563
62	0xbc803969	-0.015652375
63	0x3d07a3cd	0.033115197
64	0xbc2d114c	-0.010563206
65	0xbdd474e6	-0.10373859
66	0xbca2725f	-0.019829927
67	0xbd6d4f18	-0.057936758
68	0x3c8f2170	0.017471999
69	0x3c76925c	0.015049543
70	0xbd38bcd4	-0.045101956
71	0x3dc8cbdb	0.09804507
72	0xbd1a3377	-0.037646737
73	0xbd9dbc7b	-0.077019654
74	0xbc89fad1	-0.016843231
75	0xbc97d8c5	-0.018535981
76	0x3bd6cf4b	0.006555473
77	0x3bf98887	0.0076151523
78	0x3c907271	0.017632695
79	0xbc10d03a	-0.008838708
80	0xbd6db6a3	-0.058035504
81	0x3b2c3812	0.0026278538
82	0xbd352292	-0.044222422
83	0xbc8ddb0c	-0.017316364
84	0xbd2ee3cf	-0.042697724
85	0xbd016a3d	-0.031595457
86	0xbd1a031b	-0.037600618
87	0xbc724102	-0.014786007
88	0x3d19f23f	0.03758454
89	0xbd2e6426	-0.042575978
90	0xbc2710ef	-0.010196908
91	0xbc9ca310	-0.019120723
92	0x3cc7e6d4	0.02440206
93	0xbd1227f2	-0.035682626
94	0xbd948f71	-0.07253922
95	0xbd776756	-0.060401283
96	0x3c824729	0.015903072
97	0xbdae90da	-0.08523722
98	0x3cbca2de	0.02302688
99	0xbd640cc9	-0.055676255
100	0x3d120ca1	0.035656575
101	0xbc8a1db9	-0.016859876
102	0x3d862f29	0.06551964
103	0xbceaa94d	-0.028645182
104	0xbc93b86a	-0.018032271
105	0xbd464b54	-0.048411682
106	0xbd2f29b2	-0.042764373
107	0x3c86a31a	0.016435195
108	0xbd508fdb	-0.05091844
109	0x3c66eb5f	0.014094203
110	0x3cc91a82	0.024548773
111	0xbc28099a	-0.010256195
112	0xbdd8093d	-0.10548637
113	0xbd7bc03a	-0.06146262
114	0xbd2e14ae	-0.04250019
115	0x3c8574ff	0.01629114
116	0xbd81d06e	-0.06338583
117	0x3cda1332	0.026620481
118	0x3d854205	0.06506733
119	0xbd7d46de	-0.061835162
120	0xbd2579c9	-0.040399347
121	0xbc27721f	-0.01022008
122	0xbda29329	-0.07938225
123	0xbbb83752	-0.005621829
124	0xbcac8354	-0.021058716
125	0x3d071f9b	0.032989126
126	0xbdcaa989	-0.098956175
127	0xbb036370	-0.0020048283
128	0x3cde50f9	0.02713822
129	0x3cb82439	0.02247821
130	0x3cc78004	0.024353035
131	0xbd39d946	-0.045373224
132	0xbd88a884	-0.06672767
133	0x3cc4f5a0	0.024042904
134	0xbaf9951f	-0.0019041634
135	0xbc017a4f	-0.007902696
136	0xbd3377a8	-0.043815285
137	0x3bfcd2e6	0.0077155707
138	0xbc07c432	-0.008286523
139	0xbce6c679	-0.028170811
140	0x3baf8750	0.0053567067
141	0xbd97e3c5	-0.074164905
142	0xbc3b38a2	-0.0114270765
143	0xbd31add6	-0.043378673
144	0x3b41878d	0.0029530257
145	0xbb132c05	-0.0022456658
146	0x3ca71ba9	0.020398932
147	0xbd6a53dc	-0.05720888
148	0xbd7f6f60	-0.062362075
149	0xbdbc8f07	-0.09206968
150	0xbdced510	-0.10099232
151	0xbd50bff5	-0.050964314
152	0xbb421868	-0.0029616598
153	0xbd9a277d	-0.07527063
154	0xbbf2fcca	-0.0074153887
155	0x3c8359a1	0.01603395
156	0xbd513377	-0.05107447
157	0x3d6ecc03	0.05830003
158	0xbdbc0c38	-0.09182018
159	0xbc453b5e	-0.01203808
160	0xbd972c0b	-0.073814474
161	0x3b9424ec	0.004521003
162	0xbc736737	-0.014856151
163	0xbb9e4c34	-0.0048308615
164	0x3c9a3126	0.018822264
165	0xbca57204	-0.020195968
166	0xbd25df10	-0.040495932
167	0xbbc076c4	-0.005873533
168	0xbcc77a5b	-0.024350336
169	0x3bbdcb93	0.00579209
170	0x3cd41e90	0.02589348
171	0xbc2f42cc	-0.010697078
172	0x3d4d94ac	0.050190613
173	0x3c5c20ce	0.013435556
174	0xbb32d0d0	-0.0027285106
175	0xbd2e485e	-0.042549483
176	0xbbe9dd59	-0.0071369824
177	0xbd037182	-0.03209067
178	0xbc8049d3	-0.015660202
179	0xbd431bec	-0.04763405
180	0xbd5c75f0	-0.05382341
181	0x3c138a0b	0.00900508
182	0x3d088db6	0.03333827
183	0x3bb03300	0.0053771734
184	0xbda49a68	-0.08037263
185	0xbd633db5	-0.05547877
186	0x3d22c0ca	0.03973464
187	0xbdaa0f35	-0.08303682
188	0xbb20af1e	-0.002451844
189	0xbc970229	-0.018433647
190	0xbd11ec3d	-0.035625685
191	0xbc99838c	-0.018739484
192	0xbd2ce85e	-0.04221379
193	0xbc2a2f5f	-0.010387271
194	0xbd913865	-0.070908345
195	0x3d36d443	0.044636022
196	0xbd765dab	-0.060147922
197	0x3b2416a6	0.0025037914
198	0xbd6f6601	-0.058446888
199	0x3c3745e4	0.011186097
200	0xbc9fbb94	-0.019498624
201	0xbad8bd86	-0.0016535975
202	0xbd8208da	-0.063493446
203	0xbbcf3aa1	-0.006324128
204	0xbd808918	-0.062761486
205	0x3c6ffb02	0.014647247
206	0xbd06acd2	-0.032879658
207	0xbdad9f10	-0.084776044
208	0xbd4ee8ec	-0.0505151
209	0xbb80baf5	-0.003928537
210	0xbd9b74d1	-0.0759064
211	0xbd098f70	-0.03358406
212	0x3ccf888f	0.02533367
213	0x3d1ee07b	0.0387883
214	0x39b58c27	0.00034627432
215	0x3c37a42c	0.011208575
216	0xbccebcec	-0.02523657
217	0xbd9d3f7e	-0.07678126
218	0xbc9e628a	-0.019334096
219	0x3a943db2	0.001130989
220	0x3ce4143c	0.02784168
221	0xbdea3ea1	-0.11437727
222	0xbcfda726	-0.030963492
223	0x3cc91fb8	0.024551257
224	0xbd10580d	-0.03524022
225	0xbd0259c6	-0.031823896
226	0x3c4c55e1	0.012471647
227	0x3bb9f5fe	0.0056750765
228	0x3d7af8c1	0.061272386
229	0xbcc40db1	-0.02393231
230	0x3cfb3c17	0.030668302
231	0x3b1d0bdf	0.0023963375
232	0xbd3b5fd4	-0.045745686
233	0xbd528c35	-0.051403243
234	0xbca9ca60	-0.020726383
235	0xbdb8911e	-0.09012054
236	0xbd42dad0	-0.047571957
237	0xbd0267b0	-0.031837165
238	0xbd2b06ab	-0.041754406
239	0xbd64512a	-0.055741467
240	0xbcbbbb72	-0.02291653
241	0xbd920cfa	-0.07131381
242	0x3d915076	0.07095425
243	0x3d007bcd	0.031368066
244	0xbdb19886	-0.0867167
245	0xbd151d48	-0.036404878
246	0xbd4e47bc	-0.05036138
247	0x3ccd0fcb	0.025031945
248	0x3a652ef6	0.00087426545
249	0xbc4164c2	-0.011803808
250	0xbcf75268	-0.030190662
251	0xbd842c12	-0.06453718
252	0xbd06305b	-0.03276096
253	0x3c7384c9	0.014863201
254	0xbc94a032	-0.018142793
255	0xbda4c078	-0.08044523

network_body._body_endoder.seq_layers.0.weight f4 [256, 158]
0	0x3d9719ca	0.07377966
1	0xbceda4ec	-0.029009305
2	0x3d306195	0.04306181
3	0xbd59dd6b	-0.053189676
4	0x3d8d6564	0.06904104
5	0x3c900ad7	0.017583294
6	0x3d98d1b3	0.07461872
7	0xbdc1bc08	-0.09459692
8	0x3c8baa3b	0.017048946
9	0x3e186a1f	0.14884232
10	0x3e455430	0.19270396
11	0xbe25644b	-0.1615154
12	0x3e07b610	0.13253045
13	0x3d94f833	0.07273903
14	0xbdcafad6	-0.099111244
15	0x3e2a6520	0.16640139
16	0xbe2910c1	-0.16510297
17	0xbdb895ec	-0.0901297
18	0x3dc744e7	0.09729939
19	0xbc8f361d	-0.017481858
20	0xbe1740c5	-0.14770801
21	0xbd412937	-0.047158446
22	0x3cbbc345	0.02292026
23	0xbcee2acf	-0.029073147
24	0xbdf0f2d3	-0.11765065
25	0x3d7fcd83	0.06245185
26	0xbdf32579	-0.11872382
27	0xbcc98fd5	-0.024604717
28	0xbe371e97	-0.17882763
29	0xbdb57e02	-0.08861925
30	0xbe2ac06d	-0.16674967
31	0xbd6f35d2	-0.058400936
32	0xbbad075e	-0.0052804193
33	0xbd7e09d5	-0.062021095
34	0x3daec5d1	0.08533824
35	0x3db91099	0.09036369
36	0x3b611263	0.0034343235
37	0xbd31c7f2	-0.043403573
38	0x3d76a910	0.060219824
39	0x3b5e4a92	0.003391896
40	0xbd7cb917	-0.061699953
41	0x3d075be4	0.033046618
42	0xbd92d98a	-0.071703985
43	0xbc426f27	-0.011867321
44	0xbb91078f	-0.00442595
45	0x3cb1e60f	0.021716146
46	0x3dfefa96	0.12450139
47	0x3c430e82	0.011905314
48	0x3e0ffd1e	0.140614
49	0xbd19ba79	-0.03753135
50	0x3d899ce1	0.067193754
51	0x3aec48d9	0.0018027081
52	0xbb01499f	-0.001972772
53	0x3ca31829	0.019908981
54	0xbc98d3fb	-0.018655768
55	0xbd2983f9	-0.041385625
56	0xbde0d7b1	-0.1097864
57	0x3d5c40a8	0.0537726
58	0xbd6ebd4e	-0.058286004
59	0x3d7340d9	0.059388015
60	0xbcc76adb	-0.024342945
61	0xbdb52ee1	-0.08846832
62	0x3d830968	0.063982785
63	0xbdcedde6	-0.101009175
64	0xbd813b4b	-0.06310137
65	0xbd26c42e	-0.040714435
66	0x3d4110a7	0.04713502
67	0x3dd1b7f8	0.102401674
68	0xbdfbf673	-0.12302866
69	0x3dc78b53	0.09743371
70	0xbd0c1e7b	-0.034208756
71	0xbd0b13cc	-0.033954427
72	0xbd9442a5	-0.07239274
73	0x3e889ed8	0.26683688
74	0x3e30cb1c	0.1726498
75	0xbe434864	-0.19070584
76	0x3d1aa581	0.037755493
77	0xbda83ff1	-0.08215321
78	0x3d52f1d7	0.051500168
79	0x3d4b820c	0.04968457
80	0x3bf34204	0.007423641
81	0xbd0e04ce	-0.03467255
82	0xbdbe0ae0	-0.09279418
83	0x3e034b6e	0.12821743
84	0x3e4f6add	0.20255609
85	0xbe28ac0e	-0.16471884
86	0x3d302898	0.043007463
87	0x3c355d53	0.0110696135
88	0x3d95830c	0.07300386
89	0x3c8760ad	0.01652559
90	0x3e8b70ab	0.27234396
91	0xbd87e699	-0.0663578
92	0xbcd1ed55	-0.025625864
93	0xbdd12d18	-0.10213679
94	0xbcec94db	-0.028879574
95	0x3a7563ea	0.00093608967
96	0x3e4a1aa7	0.1973673
97	0xbdbd1e09	-0.092342444
98	0x3e4675ea	0.19380918
99	0xbd550f69	-0.05201665
100	0xbd8784e5	-0.066171445
101	0x3db17591	0.08665002
102	0xbdfdd570	-0.123942256
103	0xbab50785	-0.0013811445
104	0x3c1c3766	0.009534692
105	0x3d6bfde9	0.057615194
106	0x3d5f0a78	0.054453343
107	0x3e84820a	0.25880462
108	0x3b050715	0.002029841
109	0x3d3496b8	0.04408905
110	0x3d661464	0.05617179
111	0x3c1b7475	0.009488215
112	0xbdd8b420	-0.10581231
113	0xbdf44742	-0.11927654
114	0x3d2dfa41	0.04247499
115	0xbd973906	-0.07383923
116	0xbc97d024	-0.018531866
117	0xbe194e2d	-0.14971228
118	0x3da924a8	0.08258945
119	0x3d9f3307	0.077734046
120	0xbdf3b59f	-0.11899876
121	0xbc1333bf	-0.008984505
122	0x3e07704c	0.13226432
123	0x3de3ba07	0.11119466
124	0x3d214f82	0.039382465
125	0xbd90b338	-0.07065433
126	0xbe803978	-0.25043845
127	0xbc1bc3e6	-0.009507155
128	0x3db2c656	0.08729236
129	0xbdf2e44b	-0.1185995
130	0x3d8f042d	0.06983218
131	0xbc5b7eab	-0.013396899
132	0xbde0566b	-0.10953983
133	0x3cd25b95	0.025678435
134	0x3d07c6bb	0.03314851
135	0x3b90eae0	0.0044225305
136	0xbd3d8f79	-0.046279404
137	0xbcb6cf84	-0.022315748
138	0xbaa035e3	-0.0012223091
139	0x3cd0986c	0.025463305
140	0xbcf0803b	-0.02935802
141	0xbc03cd60	-0.008044571
142	0xbdc776f5	-0.09739486
143	0x3e52505c	0.20538467
144	0x3e1f6965	0.15567549
145	0xbd566920	-0.05234635
146	0x3ceb1177	0.028694851
147	0xbd4870dd	-0.04893576
148	0xbad34951	-0.0016119872
149	0xbddab89c	-0.10679743
150	0x3cb514f3	0.022104716
151	0xbd2237b6	-0.03960391
152	0xbe2865e2	-0.16445115
153	0x3d2c2395	0.04202612
154	0xbc6d3365	-0.014477585
155	0x3ecbeb40	0.3982792
156	0xbd92eddd	-0.07174275
157	0xbe3eef9d	-0.18646093
158	0xbd00972f	-0.03139418
159	0xbe0738bc	-0.13205236
160	0xbc78c8b2	-0.015184568
161	0xbe34dc67	-0.17662202
162	0x3dd2bcca	0.10289915
163	0xbe2eadf0	-0.1705854
164	0xbdb24b81	-0.087058075
165	0xbe18c927	-0.14920484
166	0xbdacfc28	-0.084465325
167	0x3e5c309c	0.21502918
168	0xbd4a25df	-0.049352523
169	0xbe220336	-0.15821537
170	0xbde6920b	-0.11258324
171	0xbdd7a35f	-0.105292074
172	0xbc157bb9	-0.009123736
173	0xbe074780	-0.13210869
174	0xbcb0bbd8	-0.021573946
175	0xbd691e25	-0.056913514
176	0x3d9edb5b	0.077566825
177	0x3de47c76	0.111565515
178	0xbdbefdda	-0.09325762
179	0x3b2bc8ae	0.0026212144
180	0xbd48bfbd	-0.04901098
181	0x3c25d68f	0.010121956
182	0x3cdae128	0.026718691
183	0x3c95937c	0.018258803
184	0x3dabf2ca	0.08395918
185	0x3d83db9f	0.06438374
186	0x3c8d225d	0.0172283
187	0x3c4050ea	0.011738041
188	0xbd67a502	-0.056553848
189	0xbcd4a9e1	-0.02595991
190	0xbd004ca5	-0.031323094
191	0x3d3269dd	0.04355799
192	0xbd6744d2	-0.056462117
193	0x3c84cb48	0.016210213
194	0x3e380f8d	0.17974682
195	0xbcb9bb92	-0.022672448
196	0x3d92a15e	0.071596846
197	0xbdf5514d	-0.119783975
198	0x3d6ae89a	0.057350732
199	0xbd3f02cc	-0.046633527
200	0xbc4ba99e	-0.012430577
201	0xbdc678c9	-0.09691007
202	0xbcac3672	-0.021022055
203	0xbb93519d	-0.004495813
204	0xbd9d1321	-0.07669664
205	0xbe043f26	-0.12914714
206	0x3dcf1fe2	0.10113503
207	0xbcc7e9dd	-0.024403507
208	0xbdb84b7a	-0.08998771
209	0xbca89b49	-0.020581858
210	0x3c18d049	0.009327003
211	0x3c86a2c8	0.016435042
212	0x3dd0467f	0.10169696
213	0x3c117f19	0.0088804
214	0xbe063890	-0.13107514
215	0xbadaf78e	-0.0016705857
216	0xbd80fdaf	-0.06298386
217	0x3bf586ea	0.0074928897
218	0xbd988719	-0.07447643
219	0xbdc82644	-0.097729236
220	0x3dff08da	0.1245286
221	0x3dbcd9b8	0.09221214
222	0x3e131d77	0.14366709
223	0x3b9c0ef5	0.004762525
224	0xbd19e4ea	-0.037571825
225	0x3dbb4db2	0.091456786
226	0xbc8af3de	-0.016961988
227	0xbdb8d4bb	-0.0902495
228	0xbc66a0c0	-0.014076412
229	0xbd745fbd	-0.059661616
230	0xbd89858b	-0.067149244
231	0xbccfb704	-0.025355823
232	0xbd83d12c	-0.06436381
233	0xbdf58753	-0.11988702
234	0xbd4c0560	-0.049809813
235	0x3d801497	0.06253927
236	0xbdaca793	-0.084304
237	0xbd6fccc6	-0.058544897
238	0x3c6d6b71	0.014490948
239	0xbdb3040d	-0.08741007
240	0xbdfdb439	-0.1238789
241	0xbb42162b	-0.0029615264
242	0x3c2b6c72	0.010462867
243	0xbb913d32	-0.004432344
244	0x3e0444e9	0.12916912
245	0x3dd3f53c	0.10349509
246	0x3e95fce0	0.2929449
247	0xbc2ce94f	-0.010553672
248	0x3dd102ad	0.102055885
249	0xbe06dd87	-0.13170443
250	0x3e4d0571	0.20021607
251	0xbca74b44	-0.020421632
252	0xbdab869e	-0.083752856
253	0x3bf903c2	0.007599325
254	0x3d0d0e62	0.034437545
255	0x3cb74a12	0.022374187

network_body._body_endoder.seq_layers.2.bias f4 [256]
0	0xbd818c0b	-0.06325539
1	0xbd11eb50	-0.035624802
2	0xbd8e82bf	-0.069585316
3	0x3b2f81d5	0.0026780267
4	0xbd30518f	-0.04304653
5	0xbd2677c3	-0.040641557
6	0xbd8eae51	-0.06966842
7	0xbd7a34dd	-0.06108557
8	0xbd75a5a1	-0.05997241
9	0xbcc77d68	-0.02435179
10	0xbcbdf3e3	-0.023187583
11	0xbdd58637	-0.1042599
12	0xbc7dcd25	-0.015490805
13	0xbd6cfd0e	-0.05785852
14	0x3c3106a0	0.010804802
15	0xbd293a0e	-0.04131513
16	0xbd638e0b	-0.055555385
17	0xbda3450b	-0.07972153
18	0xbd87753e	-0.06614159
19	0xbd324c30	-0.04352969
20	0xbd0680a1	-0.032837514
21	0xbd0ecc7d	-0.034862984
22	0x3c79f548	0.0152562335
23	0xbd65d1c5	-0.056108255
24	0xbd399f88	-0.045318156
25	0xbd511749	-0.051047597
26	0xbcd3704b	-0.025810381
27	0xbd9473c7	-0.07248645
28	0xbd5d0a89	-0.053965125
29	0xbda453c1	-0.08023787
30	0x3ca73d6a	0.020415027
31	0xbd8d43cb	-0.06897696
32	0xbd5b525e	-0.05354535
33	0xbd157ab8	-0.036493987
34	0xbd2594fa	-0.04042528
35	0xbd7703c4	-0.060306326
36	0xbe04486e	-0.12918255
37	0xbd1c2f71	-0.03813118
38	0xbce485fb	-0.027895918
39	0xbc998b83	-0.018743282
40	0xbd6e99cf	-0.058252152
41	0xbd44f6e0	-0.048087
42	0xbde8e5a1	-0.11371923
43	0xbd4ffb20	-0.0507766
44	0xbb52d3f1	-0.0032169784
45	0xbceae2c6	-0.028672587
46	0xbc80c065	-0.01571674
47	0x3bf755e6	0.0075480817
48	0xbd24827d	-0.040163506
49	0xbcd37428	-0.025812224
50	0xbd9e55e5	-0.07731227
51	0x3c46b614	0.012128372
52	0xbd82b469	-0.06382067
53	0xbda6ad8e	-0.08138572
54	0xbd47020a	-0.04858593
55	0xbc3bbc48	-0.011458464
56	0xbd1d7b96	-0.03844794
57	0xbc0eaa61	-0.008707614
58	0xbda4789a	-0.080308154
59	0xbbc8f337	-0.006132509
60	0xbd519294	-0.05116518
61	0xbd49f83a	-0.049308993
62	0xbda0d466	-0.07853012
63	0xbdb02812	-0.08601393
64	0xbd8f0ddb	-0.069850646
65	0xbd304526	-0.043034695
66	0xbd1f6d2a	-0.038922466
67	0xbd5c3d14	-0.053769186
68	0xbd99f7c7	-0.07517963
69	0xbd30d00f	-0.04316717
70	0xbdbcec56	-0.09224765
71	0xbcef6612	-0.029223476
72	0xbdb89543	-0.090128444
73	0xbc865c99	-0.016401576
74	0xbd7cf022	-0.061752446
75	0xbd2df2f6	-0.042468034
76	0xbc9e6146	-0.019333493
77	0xbcd50b74	-0.026006438
78	0xbccda106	-0.025101196
79	0xbc3e6f3f	-0.011623203
80	0xbd5e45b8	-0.054265708
81	0xbd9fd148	-0.07803589
82	0xbc69af02	-0.0142629165
83	0xbd602ead	-0.054732013
84	0xbd5b77aa	-0.053580917
85	0x3b918a6a	0.004441549
86	0xbd4a2d73	-0.04935975
87	0xbcf6b8e3	-0.030117458
88	0xbb3b8c6d	-0.0028617636
89	0xbda55aa1	-0.08073927
90	0xbd5dd3de	-0.05415713
91	0xbd78cf29	-0.06074444
92	0x3cbacc7d	0.022802586
93	0xbd4a4555	-0.049382526
94	0xbdaf5f48	-0.08563095
95	0xbd79235e	-0.060824744
96	0xbcbb95ba	-0.022898544
97	0xbd5b163d	-0.053488005
98	0x3c3d7ba4	0.011565123
99	0xbc6995c2	-0.014256896
100	0xbd277ad0	-0.040888608
101	0xbd3fa62c	-0.046789333
102	0xbd6800ba	-0.056641318
103	0xbd418160	-0.047242522
104	0xbd909b36	-0.07060854
105	0xbd830f59	-0.06399412
106	0xbd6295b8	-0.055318564
107	0xbc8057ae	-0.015666809
108	0xbd1556ee	-0.036459856
109	0xbd18742d	-0.03722017
110	0xbcda33fa	-0.026636112
111	0xbd7042d1	-0.05865747
112	0xbdb23c57	-0.08702915
113	0xbd8b32d4	-0.06796804
114	0xbc90b098	-0.017662331
115	0x3c8ba1fe	0.017045017
116	0xbd6395cc	-0.05556278
117	0xbcd94f24	-0.026526995
118	0xbcc067ed	-0.023487056
119	0xbd1f045b	-0.038822513
120	0x3c14565e	0.009053795
121	0xbd0abc6a	-0.033871092
122	0xbd965b98	-0.07341689
123	0xbd3c707f	-0.046005722
124	0xbd1db9c5	-0.03850724
125	0xbd4d4345	-0.05011298
126	0x3ccf35a2	0.025294129
127	0xbd385d5c	-0.04501091
128	0xbd161874	-0.036644414
129	0xbddc664d	-0.107617
130	0xbce0ce9f	-0.027442275
131	0xbd7ce6b9	-0.06174347
132	0xbcfe714b	-0.031059882
133	0x3cb45625	0.022013733
134	0xbc0032c0	-0.0078246
135	0xbd359de7	-0.04434004
136	0xbd0ef98f	-0.034905966
137	0xbd787fdd	-0.060668815
138	0xbb20f2a7	-0.0024558695
139	0xbd82e077	-0.063904695
140	0xbda480a5	-0.080323495
141	0xbde44d1b	-0.11147519
142	0x3cdc5355	0.026895205
143	0xbba97976	-0.00517195
144	0xbc8bd551	-0.01706949
145	0xbd8d7e97	-0.06908911
146	0x3ba929c9	0.005162452
147	0x3bd015de	0.006350263
148	0xbd6f96a6	-0.05849328
149	0xbd668104	-0.056275383
150	0xbd811409	-0.063026495
151	0xbc89fd2b	-0.016844353
152	0xbce73b72	-0.028226588
153	0xbcd56f81	-0.026054146
154	0x37b7dd2d	2.1918293e-05
155	0xbca5499b	-0.0201767
156	0xbd3e31df	-0.04643428
157	0x3b9bc6d1	0.0047539254
158	0xbdea4bfb	-0.114402734
159	0xbda5aec4	-0.080899745
160	0xbd48a6fb	-0.04898737
161	0xbd0f5348	-0.034991533
162	0xbd344183	-0.04400779
163	0xbd6356eb	-0.055502813
164	0xbd97c3e5	-0.07410411
165	0x3a5e74dd	0.0008486042
166	0xbcce706a	-0.025200088
167	0xbcf38e59	-0.029730963
168	0xbc1df3ae	-0.009640617
169	0xbc96f6e6	-0.018428277
170	0xbd2f3a39	-0.042780135
171	0x3c147ebb	0.009063418
172	0xbcb80955	-0.022465387
173	0xbc1a4084	-0.009414796
174	0xbcd320c5	-0.025772462
175	0xbd14fbde	-0.03637301
176	0xbd91c349	-0.07117326
177	0xbd014c4d	-0.031566907
178	0xbdda1bd4	-0.10649839
179	0xbcb0e347	-0.02159275
180	0xbcd2d5b9	-0.025736677
181	0xbd0bc9b3	-0.034127902
182	0xbd96e2a3	-0.07367446
183	0x3a9bc7d5	0.0011885116
184	0xbcbb4bfe	-0.022863384
185	0xbd10aed8	-0.035322994
186	0xbd1e76d3	-0.03868754
187	0xbdbb5e71	-0.09148873
188	0xbda9f581	-0.08298779
189	0xbcf038ad	-0.0293239
190	0xbd9d13f5	-0.07669822
191	0xbcaea35a	-0.021318126
192	0xbd5f9fbf	-0.054595705
193	0x3c264225	0.010147606
194	0xbd1263d0	-0.03573972
195	0xbbccdf76	-0.0062522246
196	0x3c67f5c3	0.014157715
197	0xbda492fb	-0.08035847
198	0xbb89acfd	-0.00420153
199	0xbddd77f2	-0.108138934
200	0xbd724281	-0.059145454
201	0xbd664998	-0.05622253
202	0xbd3f9747	-0.04677513
203	0xbd971fa7	-0.07379084
204	0xbd80066d	-0.062512256
205	0xbd96050a	-0.0732518
206	0xbcd08188	-0.02545239
207	0xbbf48922	-0.0074626366
208	0xbd3e86ff	-0.04651546
209	0xbcb48370	-0.02203533
210	0x3ceac68e	0.028659131
211	0xbd69c574	-0.05707307
212	0xbd835ff1	-0.06414784
213	0xbdf7b5ef	-0.12095248
214	0xbcf93546	-0.03042091
215	0x3c07ec52	0.008296089
216	0xbcf65477	-0.030069573
217	0xbd57afff	-0.052658077
218	0xbbb7c282	-0.005607904
219	0xbb873c20	-0.0041270405
220	0xbc436b88	-0.011927493
221	0xbc6d19e7	-0.014471508
222	0xbdbceac1	-0.09224463
223	0xbcf3e036	-0.029769998
224	0x3c0b2fef	0.008495315
225	0xbd009e80	-0.031401157
226	0xbd630269	-0.05542222
227	0xbd0c59c1	-0.034265283
228	0xbd5e4e72	-0.05427403
229	0xbd6f838c	-0.058475062
230	0xbd0b3856	-0.033989273
231	0xbd67be11	-0.056577746
232	0xbd38da33	-0.045129966
233	0x3d1ae376	0.03781458
234	0x3cb168c0	0.021656394
235	0xbd36e04f	-0.04464751
236	0xbd35c8f1	-0.044381086
237	0xbd062b07	-0.032755878
238	0xbd21db94	-0.039516047
239	0xbcc1f460	-0.023676097
240	0xbdaeb4fe	-0.08530615
241	0xbd843652	-0.06455673
242	0xbdc9634e	-0.09833394
243	0x3c6ff922	0.0146468
244	0xbdb6992f	-0.08915936
245	0xbcdcb6f0	-0.0269427
246	0xbc990261	-0.018677892
247	0xbdb14f45	-0.086576976
248	0xbda9b6aa	-0.082867935
249	0xbcc4e5d0	-0.024035364
250	0xbc6be2d1	-0.014397339
251	0xbcf13885	-0.029445896
252	0xbda0becf	-0.07848894
253	0xbd5c4135	-0.053773124
254	0xbdf6bd6b	-0.12047847
255	0xbd133811	-0.03594214

network_body._body_endoder.seq_layers.2.weight f4 [256, 256]
0	0xbdeab557	-0.11460369
1	0x3c7acb3f	0.015307247
2	0xbd4da813	-0.050209116
3	0xbb739d39	-0.003717257
4	0xbd4c4c90	-0.049877703
5	0xbe351a8b	-0.17685907
6	0xbe197016	-0.14984164
7	0xbcf1186b	-0.029430589
8	0x3ddfcee6	0.109281346
9	0xbdc0d476	-0.09415524
10	0xbd99462c	-0.07484087
11	0x3d163375	0.036670167
12	0xbd2b7e1a	-0.041868307
13	0xbdb541d4	-0.08850446
14	0x3c8aaa53	0.01692692
15	0x3d994b1e	0.074850306
16	0xbd6da406	-0.058017753
17	0xbd05e9e6	-0.032693766
18	0x3c033e53	0.008010465
19	0xbd870cf8	-0.065942705
20	0xbd2b3715	-0.041800577
21	0xbdd6619b	-0.104678355
22	0x3dc12109	0.09430129
23	0xbe4461fb	-0.19178002
24	0xbdda4a0d	-0.10658655
25	0x3ba0cbd9	0.004907113
26	0xbd198bb1	-0.037486736
27	0x3b78cd85	0.0037964296
28	0xbd123090	-0.035690844
29	0xbd9ec803	-0.07752993
30	0xbd92661f	-0.07148384
31	0x3be91dbc	0.0071141403
32	0xbd2cfe7b	-0.04223488
33	0x3c3b3cad	0.01142804
34	0xbd17cbea	-0.037059702
35	0x3e2b2e71	0.16716935
36	0xbcea025c	-0.028565578
37	0xbe11c109	-0.14233793
38	0x3d27e045	0.040985364
39	0x3beb5413	0.0071816533
40	0xbd4aa7b1	-0.04947633
41	0x3dec08ff	0.11525153
42	0xbcb703b4	-0.022340633
43	0xbd99b33c	-0.07504889
44	0xbcd71392	-0.026254449
45	0xbd9d017c	-0.07666299
46	0xbd61ed63	-0.05515803
47	0x3e84be54	0.2592646
48	0x3d5b9ab7	0.053614344
49	0xbdbc8a8b	-0.092061125
50	0x3db8ccce	0.090234384
51	0x3c1dbbb7	0.009627274
52	0xbdc4a30d	-0.09601412
53	0xbd4937ff	-0.049125668
54	0xbdd8ea2c	-0.1059154
55	0x3d2e310c	0.042527243
56	0x3c902d84	0.017599829
57	0xbde2e2fc	-0.1107845
58	0x3d6936f8	0.056937188
59	0x3e335f30	0.1751678
60	0xbdb3beac	-0.08776602
61	0x3cdb8acd	0.026799584
62	0x3d99b241	0.07504702
63	0xbd614f8a	-0.055007495
64	0x3b193a9c	0.0023380881
65	0xbe27d054	-0.16388065
66	0xbd4730db	-0.048630577
67	0x3cc3cbac	0.02390083
68	0x3e180a38	0.14847648
69	0xbd68e57f	-0.05685949
70	0x3e204af0	0.15653586
71	0xbe7f76eb	-0.24947707
72	0xbcc7c9b9	-0.024388181
73	0xbdca8304	-0.098882705
74	0x3d293139	0.041306708
75	0xbe216108	-0.1575967
76	0xb94084fb	-0.00018360086
77	0x3c2527da	0.010080302
78	0x3d2fee40	0.042951822
79	0xbd9d7138	-0.076876104
80	0xbe07fd26	-0.13280162
81	0xbcb972a1	-0.022637667
82	0xbd8cc491	-0.068734296
83	0xbe3ca0c0	-0.18420696
84	0x3de4db9d	0.111747004
85	0xbde803ff	-0.11328887
86	0x3cc0455e	0.023470577
87	0x3d6657e5	0.056236167
88	0xbe526796	-0.20547327
89	0x3d855ceb	0.06511863
90	0x3c515024	0.012775455
91	0x3d896ae0	0.06709838
92	0xba7189fd	-0.0009213982
93	0xbdec9015	-0.11550919
94	0xbd2171bf	-0.039415117
95	0xbcc8e1f3	-0.024521803
96	0xbc8c842d	-0.01715287
97	0x3c75e8d5	0.015009125
98	0xbca2dfd7	-0.019882126
99	0x3d42e679	0.047583077
100	0x3d873d75	0.06603519
101	0xbd8a8aba	-0.06764741
102	0xbdbe1c2d	-0.09282718
103	0x3d66394d	0.05620699
104	0x3d10d8c9	0.035362992
105	0x3d640aa9	0.05567423
106	0x3db5ae75	0.08871166
107	0x3d82144b	0.06351527
108	0xbce000ac	-0.02734407
109	0x3d2af7e9	0.04174033
110	0xbc1016b7	-0.008794478
111	0x3e1b6f7b	0.15179245
112	0xbcb8c10f	-0.022552995
113	0xbdc1ac5f	-0.09456705
114	0xbd1698ac	-0.036766693
115	0xbdfcd986	-0.12346177
116	0xbd7eedf6	-0.062238656
117	0x3cdc46fa	0.026889313
118	0xbd746b4f	-0.05967265
119	0xbda84ef5	-0.08218185
120	0xbd0db50b	-0.034596484
121	0xbd731d52	-0.059354134
122	0x3d32ddc2	0.043668516
123	0x3e28be32	0.16478804
124	0x3d6d2244	0.057894006
125	0x3da1413e	0.07873772
126	0x3d28bfb5	0.04119845
127	0x3c17d8f9	0.009268039
128	0xbdf93efa	-0.12170215
129	0x3c05f56e	0.008176191
130	0x3c99d8a6	0.018780064
131	0xbc61a40f	-0.013772025
132	0x3d1bc54d	0.038029958
133	0xbe1fecc3	-0.15617661
134	0xbe191846	-0.14950666
135	0xbdffe1bf	-0.124942295
136	0x3da50d47	0.08059173
137	0xbd9a85d7	-0.07545059
138	0x3dc69426	0.09696226
139	0xbdafed40	-0.08590174
140	0xbd997efd	-0.07494924
141	0xbc336aac	-0.0109507255
142	0xbe3217a1	-0.17391826
143	0x3c086ed4	0.008327205
144	0xbcfed886	-0.031109106
145	0xbb4e7d2e	-0.0031507718
146	0x3d6c7bef	0.05773538
147	0xbdaf3928	-0.085558236
148	0xbc4e6ce2	-0.012599202
149	0xbdc35206	-0.09537129
150	0x3d5254c8	0.051350385
151	0x3d6ff8aa	0.058586754
152	0xbd299024	-0.04139723
153	0x3dfabae2	0.12242676
154	0x3d57ea67	0.052713778
155	0xbd83f108	-0.064424574
156	0x3dee4bd4	0.11635557
157	0xbd2aa6b3	-0.041662883
158	0x3c75c17b	0.014999743
159	0x3d2c1f8a	0.042022265
160	0x3df7df78	0.1210317
161	0xbe6b67b4	-0.22988778
162	0xbd548041	-0.051880125
163	0x3dc788f9	0.09742922
164	0xbd6e97c3	-0.0582502
165	0xbd0feb5e	-0.035136573
166	0xbde6d4a4	-0.11271027
167	0xbd6e33ae	-0.058154754
168	0xbce15840	-0.027507901
169	0xbd57a495	-0.052647192
170	0xbd1a1185	-0.037614364
171	0xbe1de232	-0.15418318
172	0xbc939d7f	-0.018019436
173	0x3ca78595	0.020449439
174	0xbdeba968	-0.11506921
175	0x3d6c2604	0.057653442
176	0x3e09bfcf	0.13452075
177	0x3e1640e0	0.14673185
178	0xbd2e668a	-0.042578258
179	0xb9cb13c0	-0.00038733892
180	0x3d555b54	0.05208905
181	0x3e192362	0.14954904
182	0xbd97f71b	-0.074201785
183	0x3d6dcffc	0.058059677
184	0xbd27d4e6	-0.04097452
185	0x3e193975	0.14963324
186	0xbdb2542e	-0.08707462
187	0xbdf0fc88	-0.117669165
188	0xbdb7112c	-0.08938822
189	0xbd937ddd	-0.07201741
190	0xbdc3b339	-0.095556684
191	0x3b03d7f4	0.0020117732
192	0x3d766d0d	0.060162593
193	0xbbbd6249	-0.005779539
194	0xbe0b93b8	-0.13630569
195	0xbe00bd63	-0.12572245
196	0x3c11434e	0.008866144
197	0xbd4bb242	-0.049730547
198	0xbd83ad44	-0.06429532
199	0xbb1d0c00	-0.0023963451
200	0xbdc9c404	-0.0985184
201	0x3d859397	0.06522291
202	0xbe2741cb	-0.16333692
203	0xbe6cb9d8	-0.23117769
204	0xbd78d3b9	-0.06074879
205	0xbdec53be	-0.1153941
206	0xbcf577d3	-0.029964363
207	0xbd1250b3	-0.035721492
208	0x3d11e17b	0.035615426
209	0x3dd6148c	0.10453138
210	0xbdd662ed	-0.10468087
211	0xbd3c68f9	-0.045998547
212	0x3d0a0fbd	0.033706415
213	0x3d70e29e	0.05880987
214	0x3dc6e5d0	0.09711802
215	0x3d8796a0	0.06620526
216	0xbd6eef4e	-0.058333687
217	0x3d61aad8	0.05509457
218	0x3dcb1887	0.099167876
219	0xbd349053	-0.04408295
220	0x3849f280	4.814798e-05
221	0x3bcdceb3	0.006280744
222	0x3d34f622	0.044180043
223	0xbd8f4d78	-0.06997198
224	0xbbb0868a	-0.005387132
225	0xbd161e38	-0.036649913
226	0xbdeb3448	-0.11484581
227	0xbdd4d4b9	-0.10392136
228	0xbe3307c5	-0.17483433
229	0xbe03d329	-0.1287352
230	0xbdb68d6a	-0.08913691
231	0xbe0f32eb	-0.13984267
232	0xbca28562	-0.019838993
233	0xbb9bffd9	-0.004760724
234	0xbd770fd5	-0.060317833
235	0xbd8a480c	-0.06752023
236	0xbcf2e542	-0.029650334
237	0xbdf3cf12	-0.1190473
238	0xbd904633	-0.070446394
239	0xbd710e8f	-0.058851775
240	0x3c130c35	0.008975078
241	0xbc175495	-0.0092364745
242	0xbd870230	-0.06592214
243	0x3d43039c	0.047610864
244	0x3e0fc007	0.14038096
245	0xbd92ede6	-0.07174282
246	0x3d961979	0.07329077
247	0x3d31eb84	0.043437496
248	0xbd6aeee8	-0.057356745
249	0x3d671033	0.056411933
250	0xbdc55443	-0.09635212
251	0xbd2ffb4c	-0.042964265
252	0xbdb33ffe	-0.0875244
253	0x3de0c8df	0.10975813
254	0xbc94c869	-0.01816197
255	0x3d94c36d	0.07263837

network_body._body_endoder.seq_layers.4.bias f4 [256]
0	0xbd19afc8	-0.037521154
1	0xbc7ec6c6	-0.015550321
2	0x3c1f2495	0.009713312
3	0x3c645b0d	0.013937724
4	0xbca5299b	-0.02016144
5	0xbd3668a8	-0.0445334
6	0x3c43a5db	0.0119413985
7	0xbd132048	-0.035919458
8	0xbd705795	-0.058677275
9	0xbc91edb0	-0.017813534
10	0xbcf13e55	-0.029448668
11	0xbcd64115	-0.02615408
12	0x3bec1161	0.00720422
13	0xbcb887f5	-0.022525767
14	0xbd6e5f32	-0.058196254
15	0xbcac314e	-0.021019604
16	0xbce33df1	-0.027739497
17	0xbb76d147	-0.003766136
18	0xbc94bfd1	-0.018157871
19	0xbc9e12a7	-0.019296004
20	0xbcc22d2c	-0.02370318
21	0xbbaa6f4b	-0.0052012554
22	0xbd378574	-0.044805005
23	0x3d1e3e0d	0.038633395
24	0xbd05ffef	-0.03271478
25	0x3bd178b4	0.0063925628
26	0xbc871d18	-0.016493365
27	0xbd9b8e5d	-0.07595513
28	0xbd973943	-0.07383969
29	0xbd272c69	-0.040813837
30	0xbb678d74	-0.0035332115
31	0xbbe1a088	-0.006885592
32	0xbc909f77	-0.017654164
33	0xbcf7d78b	-0.030254146
34	0xbd689a6c	-0.056787893
35	0xbd4515df	-0.04811656
36	0xbd1c3dee	-0.038145
37	0x3a2a393c	0.0006493514
38	0xbc9ae105	-0.018906126
39	0xbd7c1c04	-0.061550155
40	0xbc3cc4b0	-0.011521503
41	0xbb54c75d	-0.0032467463
42	0xbd1218c4	-0.03566815
43	0xbbcc9de8	-0.00624441
44	0xbd3a734b	-0.04552011
45	0xbc90314e	-0.017601635
46	0xbcf5d3da	-0.030008245
47	0xbd3ea53c	-0.0465443
48	0xbce0d609	-0.02744581
49	0xbd722d89	-0.059125457
50	0xbd931244	-0.07181218
51	0xbccc7319	-0.024957227
52	0x3b98ed05	0.004666927
53	0xbd4d40c0	-0.05011058
54	0xbd36f03b	-0.044662695
55	0x3b488773	0.0030598312
56	0xbba29ee3	-0.0049627884
57	0xbcab32e9	-0.0208983
58	0xbd343458	-0.04399523
59	0xbd4cefe0	-0.05003345
60	0xbc08d706	-0.008352047
61	0x39ed0285	0.0004520604
62	0xbcf0b5f2	-0.029383633
63	0x3c2bbc75	0.010481943
64	0xbc7e53fe	-0.015522955
65	0xbd5e0c63	-0.05421103
66	0x3ce1f482	0.02758241
67	0x3c1ced65	0.009578084
68	0xbcebace2	-0.02876896
69	0xbd976918	-0.07393092
70	0xbd10664c	-0.035253808
71	0xbd145f7e	-0.03622388
72	0xbc82a1b6	-0.01594625
73	0xbd38b345	-0.04509284
74	0xbd4e0c27	-0.050304558
75	0xbcf9c2f0	-0.030488461
76	0xbd3d3dff	-0.046201702
77	0xbd522fb5	-0.05131503
78	0xbd56ce25	-0.05244269
79	0xbc1f0602	-0.009706022
80	0xbd044e57	-0.032301273
81	0xbcf92f7e	-0.030418154
82	0xbc20ce35	-0.009814789
83	0xbd3bf913	-0.045891833
84	0xbc4d2c6b	-0.012522797
85	0xbc05d4d1	-0.008168415
86	0xbc4f9fa8	-0.012672342
87	0x3d6f8246	0.058473848
88	0xbc3cff26	-0.0115354415
89	0xbd0f3b9a	-0.03496895
90	0x3a4c738a	0.0007799199
91	0xbd90b76f	-0.07066237
92	0xbd54a629	-0.051916275
93	0xbb84f64d	-0.0040576817
94	0xbcd5eab9	-0.026112901
95	0xbd75a85c	-0.059975013
96	0xbc813998	-0.015774533
97	0x3d1a117f	0.03761434
98	0xbb427f86	-0.002967806
99	0xbd53212b	-0.051545303
100	0xbbd4b466	-0.0064912317
101	0xbd1c0ebc	-0.03809999
102	0x3b5fb012	0.0034132046
103	0x3d1a2bae	0.037639312
104	0xbd5b9700	-0.0536108
105	0x3ca598cf	0.020214466
106	0xbcb421d3	-0.021988785
107	0xbd3094f9	-0.04311082
108	0x3d6dfb53	0.05810101
109	0xbad3ef52	-0.0016169345
110	0xbbc3923e	-0.005968361
111	0x3be0f6dd	0.006865366
112	0xbd238074	-0.039917424
113	0xbcb99cbd	-0.022657746
114	0xbb941141	-0.0045186584
115	0xbcd9ba0c	-0.026577972
116	0xbd48e06a	-0.049042143
117	0x3ce39901	0.027782919
118	0xbd08fca4	-0.033444062
119	0xbd8d5c06	-0.06902318
120	0xbc840781	-0.01611686
121	0x3ca46e33	0.020072078
122	0xbcaedb26	-0.021344732
123	0xbd0004f5	-0.031254727
124	0xbd6a6f09	-0.057234798
125	0xbbb87c77	-0.0056300717
126	0xbcd48313	-0.025941407
127	0xbcfee2f8	-0.031114087
128	0xbd015c25	-0.031582016
129	0x3b6f58d1	0.0036521445
130	0xbc7bd0f1	-0.01536964
131	0x3ce32a27	0.02773006
132	0xbc1aa0ad	-0.009437722
133	0x3c940f03	0.018073564
134	0x3c8ea8e1	0.017414512
135	0xbd6a2262	-0.057161696
136	0xbcf6b207	-0.030114187
137	0xbc803236	-0.015648942
138	0xbbc5ace0	-0.006032571
139	0xbc10c64c	-0.00883634
140	0xbcd89b45	-0.026441226
141	0xbd6875ef	-0.056753095
142	0x3bbf8357	0.0058445144
143	0xbc849844	-0.016185887
144	0x3a2322c7	0.0006223139
145	0xbd5bb79e	-0.053641908
146	0xbcac987e	-0.021068808
147	0xbd12642f	-0.035740074
148	0xbc13537e	-0.008992074
149	0xbd829369	-0.063757725
150	0x396853e2	0.00022156493
151	0x3c0eba59	0.008711421
152	0xbc384da6	-0.011248982
153	0xbcd40ac9	-0.025884049
154	0x3d4ce30b	0.050021213
155	0xbc52c328	-0.012863912
156	0xbbc33cde	-0.0059581837
157	0xbd71c9dc	-0.0590304
158	0xbd14a65a	-0.036291458
159	0xbcb10e55	-0.02161328
160	0xbcbba7ac	-0.0229071
161	0xbd030af1	-0.031992856
162	0xbd543cd9	-0.05181584
163	0xbd12748c	-0.03575568
164	0xbcb2153b	-0.02173864
165	0xbd33242a	-0.04373566
166	0xbc7a5636	-0.015279343
167	0xbd2efd59	-0.04272208
168	0xbc28730b	-0.010281335
169	0xbc2cc02c	-0.010543864
170	0xbbf6cac5	-0.007531496
171	0xbce59f9f	-0.028030215
172	0xbd34f0e7	-0.044175055
173	0xbd103e2b	-0.035215538
174	0xbd096433	-0.033542823
175	0xbc84116e	-0.016121592
176	0xbd19aaec	-0.03751652
177	0xbd0edcc3	-0.034878504
178	0x3c4ab2cc	0.01237173
179	0xbc604946	-0.013689345
180	0xbd0a1dbf	-0.033719774
181	0x3d63add9	0.055585716
182	0xbd223ae9	-0.039606962
183	0xbd629b45	-0.055323858
184	0xbd19cb26	-0.037547253
185	0xbcd1e3c1	-0.025621297
186	0x3a46dfbf	0.00075864414
187	0xbc94f0cb	-0.018181225
188	0x3c935af9	0.017987715
189	0xbcb03544	-0.021509774
190	0xbc821b54	-0.015882172
191	0xbcd14f99	-0.02555065
192	0xbcc00bc9	-0.02344312
193	0xbd0f9e92	-0.035063334
194	0xbd8fbb2a	-0.070181206
195	0x3bd31e30	0.0064428076
196	0xbb5e24b6	-0.0033896393
197	0x3c20f166	0.009823179
198	0xbd1ef45c	-0.038807258
199	0xbc1c0622	-0.009522947
200	0xba22665a	-0.0006195061
201	0xbcd33124	-0.025780268
202	0xbda09d22	-0.07842471
203	0xbb180e0a	-0.0023201727
204	0x3d1d84fa	0.038456894
205	0xbd36f092	-0.04466302
206	0xbd03d2b3	-0.03218336
207	0xbd00cef7	-0.031447377
208	0xbcc4a09c	-0.024002366
209	0xbd45bd5f	-0.0482763
210	0x3b582e64	0.0032986635
211	0x3bcf2611	0.0063216765
212	0xbd061be7	-0.032741453
213	0xbd4c3743	-0.04985739
214	0xbc154938	-0.009111695
215	0x3cd87025	0.026420662
216	0xbcd2f96b	-0.025753697
217	0xbc0c1f67	-0.008552409
218	0xbd135ef8	-0.03597924
219	0xbc9c6579	-0.019091355
220	0xbd485851	-0.04891235
221	0xbb6e7824	-0.0036387527
222	0xbcaa3a51	-0.02077976
223	0xbd71bbf7	-0.059017148
224	0x3c94c4c9	0.01816024
225	0xbd0f9fac	-0.035064384
226	0xbd3fbad4	-0.046809033
227	0xbd1fb52d	-0.038991142
228	0xbd5f70dc	-0.05455099
229	0xbd8b88e7	-0.068132214
230	0xbdaacadf	-0.08339476
231	0xbd8ae99f	-0.06782841
232	0xbd694a5d	-0.056955684
233	0xbbbcc6a0	-0.0057609826
234	0xbc8fc2d3	-0.017548954
235	0xbd8028e6	-0.06257801
236	0xbc469a02	-0.012121679
237	0xbcea5965	-0.02860708
238	0x3c1f7411	0.009732262
239	0xbceef0fb	-0.029167643
240	0xbd450d5c	-0.048108444
241	0xbd1401f3	-0.03613467
242	0xbcb50e1e	-0.022101458
243	0xbd3fff0a	-0.046874084
244	0xbd956aae	-0.07295738
245	0xbd17835c	-0.03699051
246	0x3d1d4993	0.038400244
247	0xbd5a4424	-0.05328764
248	0x3b05878f	0.0020374989
249	0xbcd615e8	-0.026133493
250	0xbd5d927c	-0.054094777
251	0xbcb487e5	-0.022037456
252	0x3d69c6a2	0.057074197
253	0xbc55b892	-0.013044493
254	0xbc5f9f25	-0.013648783
255	0xbd07bc83	-0.033138763
