Assets/Training/results/Run 5/DroneBehavior/DroneBehavior-3499973.onnx (onnx, 661208 bytes, 19 tensors)

101 f4 [15]
00000000: 541f 0c3a 79df e03e 3fa0 613d d026 513e
00000010: 2797 643e 541f 0c3a 1fa9 df3d 541f 0c3a
00000020: 4d5e 113e d298 963d 541f 0c3a 1fa9 df3d
00000030: 541f 0c3a 4d5e 113e d298 963d
0.00053452444 0.43920496 0.055084463 0.20424962 0.22323285 0.00053452444 0.10920929 0.00053452444
0.14196129 0.07353367 0.00053452444 0.10920929 0.00053452444 0.14196129 0.07353367

104 f4 [25]
00000000: 541f 0c3a fc4f ab3e b829 463a e758 c23e
00000010: 0848 bf3d 541f 0c3a 3b81 6e3d 541f 0c3a
00000020: c71e a03e de65 423e 541f 0c3a 1045 8c3d
00000030: 541f 0c3a 665d 853e c019 073e 541f 0c3a
00000040: 5db9 c03d 541f 0c3a 9610 943e 74a7 5d3e
00000050: 541f 0c3a 5db9 c03d 541f 0c3a 9610 943e
00000060: 74a7 5d3e
0.00053452444 0.3345946 0.0007559317 0.37958452 0.09339911 0.00053452444 0.058228713 0.00053452444
0.3127348 0.18984172 0.00053452444 0.0684911 0.00053452444 0.2604782 0.13193417 0.00053452444
0.09410355 0.00053452444 0.28918904 0.2164591 0.00053452444 0.09410355 0.00053452444 0.28918904
0.2164591

107 f4 [3]
00000000: 0b2a 3241 2806 8b3f 18d4 5141
11.135264 1.0861254 13.114281

95 f4 [25]
00000000: 541f 0c3a 4a24 c43e 303b 773d c000 e63e
00000010: 1c86 863e 541f 0c3a 040b 9d3e 9782 453d
00000020: 1885 e33e aa75 8d3e 541f 0c3a 19da 953e
00000030: 3f4e 703d 07b1 ea3e ae72 823e 541f 0c3a
00000040: bcb8 963e 7dfa 583c 77d7 f13e ef0b 953e
00000050: 541f 0c3a bcb8 963e 7dfa 583c 77d7 f13e
00000060: ef0b 953e
0.00053452444 0.38308936 0.06035918 0.44922447 0.26274192 0.00053452444 0.30672467 0.048220243
0.4443748 0.27628833 0.00053452444 0.29267958 0.05866837 0.45838186 0.2547812 0.00053452444
0.29437816 0.013243315 0.472347 0.29110667 0.00053452444 0.29437816 0.013243315 0.472347
0.29110667

98 f4 [55]
00000000: 541f 0c3a 3dc5 a93e c4fc 723c a34c da3e
00000010: f1b9 fb3d 541f 0c3a 9d1c 4a3e 527c 9d3c
00000020: d1e3 b23e 3d66 0d3e 541f 0c3a 8454 4a3e
00000030: 060f 893c e9fc ba3e 007d 0e3e 541f 0c3a
00000040: e873 1e3d f5b2 723a 1400 a43e aaf3 3d3e
00000050: 541f 0c3a 4fcc 363d b829 463a 2277 ab3e
00000060: 6c1a 213e 541f 0c3a 7d05 1b3d 541f 0c3a
00000070: a909 d03e ee32 853e 541f 0c3a 4243 353d
00000080: 541f 0c3a 2cb8 c93e 509a 5e3e 541f 0c3a
00000090: f679 4c3d 541f 0c3a b9a6 c43e 04d1 883e
000000a0: 541f 0c3a def2 5c3d 541f 0c3a 9c43 d53e
000000b0: 434e 7f3e 541f 0c3a 5341 a43d 541f 0c3a
000000c0: 3e30 b73e 67a6 743e 541f 0c3a 5341 a43d
000000d0: 541f 0c3a 3e30 b73e 67a6 743e
0.00053452444 0.33158293 0.014830772 0.42636594 0.12291325 0.00053452444 0.19737478 0.01922432
0.34939435 0.13808532 0.00053452444 0.19758803 0.016730797 0.3652108 0.13914871 0.00053452444
0.038684756 0.0009258234 0.3203131 0.18549982 0.00053452444 0.044628438 0.0007559317 0.3348933
0.15732735 0.00053452444 0.03784703 0.00053452444 0.4063237 0.2601542 0.00053452444 0.044253595
0.00053452444 0.39398324 0.21738553 0.00053452444 0.049921 0.00053452444 0.3840845 0.26721966
0.00053452444 0.053942554 0.00053452444 0.41653144 0.24932198 0.00053452444 0.08020272 0.00053452444
0.35778993 0.23891602 0.00053452444 0.08020272 0.00053452444 0.35778993 0.23891602

action_model._continuous_distribution.log_sigma f4 [1, 3]
00000000: 7072 4b3c 5199 a83b 50c8 11bc
0.012417421 0.00514523 -0.008897856

action_model._continuous_distribution.mu.bias f4 [3]
00000000: 9c9e e1bb 5453 6cbc dee6 a2ba
-0.006885363 -0.014424164 -0.0012428423

action_model._continuous_distribution.mu.weight f4 [3, 256]
00000000: 4f33 7e3c cbdc 59bc abf8 e43b e446 ed3b
00000010: 5161 6c3c d821 e5bc 6ef0 a8bc 55ae ce3a
00000020: 51d3 bd3b b478 27bd f66d 35bb 6b81 1f3c
00000030: 2d67 33bc 92e2 c1bc 23ee dbbc 8fa4 333c
00000040: bfa6 6c3b cb69 bd3c 8297 8cba 2726 013b
00000050: 8dc5 45bc 57db dd3c 66b9 9bbc fdeb 143d
00000060: 8d55 303c 8232 aabc b1ff c23b b6d1 4cbc
00000070: 1c2e d73b 73a6 d23c 67b2 c1bc 4080 c63c
00000080: 65f7 fc3a 6ec7 c13c 80dd d03c cdba 193d
00000090: f6c9 a03c c1c2 843c db75 543b 5297 7d3c
000000a0: fb01 233b fd54 79bc 8c49 f1bc e2a9 953b
000000b0: 5fdd 5d3b f8b7 9c3b 959f 1abc 5b63 023d
000000c0: b975 93bb f8ce c43c a6b3 09bc f0d1 ba3c
000000d0: d979 943c e18d 9a3c cc1e 08ba 447a 913c
000000e0: 654f 6cbc efef a7bb 4ad1 cabb f674 5c3b
000000f0: 7f99 97bb 310a eebc 5f0e 9d3b f78a d5bc
00000100: 61d1 ebbc 498f 1fbc 259f babb 531a 67bb
00000110: 67c4 c5bb e758 58bc 87d0 af3c d629 a53b
00000120: 7ff0 11bd f1fc 683b a3f6 5a3a a96f 133a
00000130: d4d4 c13c 3868 7ebd aabc 8d3b c360 37bc
00000140: 251f 0b3c affd 563c 9179 58b9 4bd2 913c
00000150: eb29 d5bc 71b6 4b3c dbb1 07bd 0249 0dbd
00000160: 9228 963b 2ea3 81bc 454f e8bb 96cd 283c
00000170: ec10 113c cee6 1dbd c463 88bc 10ba 48bc
00000180: 23da 763a d90d c73c 5e63 e7bc 20e2 0d3b
00000190: e753 3dbc 95ab 6fbc 2922 eabc 183b e53c
000001a0: 36f9 a4bb 1fd7 c5bb e0e4 7e3b be26 883c
000001b0: 9d4c 9cbc 9fad febc 3473 3fbb adbe 803c
000001c0: e5f5 b2ba 625f 12bb 9516 28bc 749c 10bc
000001d0: 79e3 0bbd 6968 ddbc 7c45 2e3c 7f52 97bc
000001e0: abd1 10bc 96c5 72bc a6c4 b3bc 9109 2abb
000001f0: 660e bf3c 1ba3 e03b 8f79 a83b 39ab 9cbc
00000200: 3b0b 103c 51f8 bcbc 7f01 bc3b fd87 82bc
00000210: 974d 09bc 6b17 503c a10e 903c e7d1 c53c
00000220: a16b bd3c 03a7 7f3c 5d8b e9bc 5d99 fd3c
00000230: bce5 063c b1e6 023d c71d a1bc 3c1e 5b3c
00000240: 712b 8ebc 9e1c 79bc 4415 0ebc 8719 5c3a
00000250: 1803 80bc f728 b0bb 8d85 be3c f980 f63a
00000260: fc87 f2bc 4d9e 93bb 3cd2 92bc 6318 6ebc
00000270: b16a 67bc 230e cd3b 80e6 0abc 0dcd b43b
00000280: 5ec1 e33c 9cee 92bc 9c94 05bc 3b75 ae3c
00000290: 11a0 eebc f46c 54bc 6f6e 0bbb 0efc b63b
000002a0: 3c79 99bc 4908 0fbd 42bc c73b 45a8 e63c
000002b0: bcb1 c0bc 8c2c 34bc 5358 6dbc 6739 f53c
000002c0: c862 b0bc 2cb3 023c 1790 80bc 7e1f a93c
000002d0: ec9b 09bd 2a8d c4bc 0807 3dbc 089b 47bc
000002e0: 1ec9 413b ec29 ca3b 8b5f ad3c d26d a339
000002f0: 7182 033c dc12 d1bc 0409 85bc 7191 793c
00000300: 3468 823c 0597 583c 0fdb 2b3c 0bb4 b03c
00000310: 4c23 863c 1749 ff3c acb3 fb3c 8c57 283c
00000320: 6232 c4bc 7a37 af3c 542f 98bc 5f32 9dbc
00000330: cfe5 353c a9ed 203c cbea 6a3c 6f50 f13c
00000340: 7481 8bbc 9543 ab3c 354e ed3c 4952 17ba
00000350: 6ff8 82bc 8ce7 b43c 462b 873c 859c aabb
00000360: 5146 eebc ab40 09bd 5a48 833b 5ca7 3cbc
00000370: a178 643c b5d7 3ebc 2a8f f33b 70ae d43c
00000380: 7270 00bc c8d6 503d 99cb e3ba 0a55 b63c
00000390: 195e bd3c 557e f5bc d775 a53b d69e 15bd
000003a0: 96d5 3cbc 31bd 683c aa1a 0e3b 6b7f 6c3c
000003b0: 2efa 2e3d cd89 a13b 4913 b2bb 8bec 99bc
000003c0: 5bd0 0a3c bc64 823c baae 9bba 4a91 3d3d
000003d0: 7495 423c cab4 153d 4b49 a83c 8550 c33c
000003e0: b1bf 11bb d821 493c ff30 4cbc 7808 09bb
000003f0: 6548 023d f2b5 4e3b be4a 083d 6d38 e33c
0.015515163 -0.01329727 0.0069876513 0.007241117 0.014427499 -0.02797024 -0.020622458 0.0015768508
0.005793013 -0.040886596 -0.002768395 0.0097354455 -0.010949892 -0.023667607 -0.02684695 0.010964527
0.003611013 0.023121735 -0.0010726305 0.0019706578 -0.012071026 0.027082128 -0.019009303 0.03635787
0.010762584 -0.020776037 0.005950891 -0.012501171 0.006566776 0.025714135 -0.02364464 0.024231076
0.0019299804 0.023654666 0.025496244 0.037531663 0.019627552 0.016206147 0.003241888 0.015477972
0.0024873007 -0.015218017 -0.029454015 0.0045673708 0.0033853871 0.004782673 -0.009437461 0.031833034
-0.0045001176 0.024024472 -0.008404648 0.022805184 0.018124508 0.018866481 -0.00051925774 0.017758496
-0.014423226 -0.005125038 -0.0061895 0.003363905 -0.0046264525 -0.029057594 0.004792973 -0.02606724
-0.028786363 -0.009738752 -0.005695241 -0.0035263493 -0.006035376 -0.01320479 0.021461738 0.0050403876
-0.035629746 0.0035551155 0.0008352792 0.00056242436 0.023661055 -0.06211111 0.004325469 -0.011192503
0.008491312 0.013122006 -0.00020644652 0.01780047 -0.026020965 0.012433634 -0.0331286 -0.034493454
0.004582473 -0.01582488 -0.007089528 0.010302922 0.008854132 -0.03855019 -0.016649134 -0.012251392
0.000941666 0.024298595 -0.028245624 0.0021649674 -0.011555648 -0.014628311 -0.028580742 0.02798228
-0.005034591 -0.0060376073 0.0038893744 0.016620036 -0.0190795 -0.031088648 -0.0029212954 0.015715921
-0.0013653605 -0.0022334685 -0.01025929 -0.008826364 -0.03415248 -0.027027326 0.010636684 -0.018471954
-0.008839051 -0.014817616 -0.021944355 -0.0025945643 0.023322295 0.006855381 0.005141444 -0.019124614
0.00879174 -0.023067625 0.005737483 -0.015933985 -0.008380315 0.012700896 0.0175851 0.02414794
0.02312261 0.015603784 -0.028508836 0.030956918 0.008233484 0.031958286 -0.01966752 0.013373908
-0.017354699 -0.015204577 -0.008672062 0.0008396138 -0.015626475 -0.005375977 0.023257041 0.0018806747
-0.029605858 -0.004504955 -0.017922513 -0.014532181 -0.014124558 0.0062577887 -0.008477807 0.005517608
0.027802166 -0.017936043 -0.008153107 0.021296134 -0.02912906 -0.01296543 -0.002127554 0.0055842465
-0.018734567 -0.03492001 0.00609544 0.028156409 -0.02352225 -0.010996949 -0.01448639 0.029934598
-0.021531478 0.007977288 -0.015693707 0.0206449 -0.033595964 -0.023993094 -0.011537321 -0.012182958
0.0029569338 0.0061695483 0.021163723 0.00031171605 0.008026705 -0.025521688 -0.01623965 0.01523243
0.015918829 0.0132196 0.010489239 0.021570226 0.016374253 0.031162782 0.030725323 0.010274779
-0.023949806 0.021388758 -0.018577255 -0.019189058 0.011102154 0.009822288 0.014338206 0.029457299
-0.017029501 0.020906249 0.028967956 -0.00057724543 -0.015987603 0.022083066 0.016500127 -0.005206647
-0.029086264 -0.033508938 0.0040064277 -0.011514511 0.013944776 -0.011648108 0.007432838 0.025962085
-0.007839309 0.05098608 -0.0017379402 0.022257347 0.023116158 -0.029967466 0.005049448 -0.03652843
-0.011525532 0.014205263 0.0021683373 0.014434676 0.04271906 0.004929757 -0.005434428 -0.01878955
0.008472527 0.015917175 -0.0011877634 0.046281137 0.011876453 0.036549367 0.020542761 0.023842106
-0.00222395 0.012276135 -0.012462853 -0.0020909589 0.031807322 0.0031541553 0.033274405 0.027736867

network_body._body_endoder.seq_layers.0.bias f4 [256]
00000000: 1c51 d03c db8e 1e3d 5e9b 953b d11c 4f3b
00000010: 92c4 37bc a3d9 a33b 1874 9c3c 032a e0bb
00000020: 502c b53c 1e32 e7bb 9965 983c 9cbc b83c
00000030: 01d1 b83b 50bb d2bb 86be 0a3c 9950 5fbc
00000040: 705a 36bc 98bf 8dbb 97bd 6c3b e95e e83c
00000050: 871a 233c d32a 7a3c addc e83a 017f 893a
00000060: 8ae0 2dbb 49de 0d3c 4d10 58bb e530 8f3b
00000070: d2b7 df3c b88a 66bb 044c 1abc 2899 1c3d
00000080: 6fd1 933b 13e9 f13b 7947 b83c 2d84 d33b
00000090: 8b13 aebb 94b9 083d 7e07 873c 2e4a f73a
000000a0: 7cc6 ea3b 7f4d d3bc 77fe 08bc a4c3 613c
000000b0: 8e78 52bb 8d74 253d e08d 6b3c bb16 6fbc
000000c0: 401f b23c aff9 333d fa55 3b3b 3c3e 333d
000000d0: 4aa6 dabb 4a9d e73c 8e8e e4bb e8aa 14bb
000000e0: 2ee7 8f3c 2e21 9d3c c077 ca3c 1ddf 44bc
000000f0: 1755 b53c 039d 373c 181b bf3b 1f76 23ba
00000100: 47b8 03bc bb03 043d 769f cb3a 5c93 f83c
00000110: 0ac9 82bb a2d4 913c a834 f53b ffd3 74bc
00000120: a71a 31bb d9c4 ea3c f946 3b3c 9c00 1b3d
00000130: 3162 aebb 1a41 cd3c b11e 013c 9c36 fd3c
00000140: be76 cfba a87b 88bb f977 233d 744f 663a
00000150: 1538 cbbb 68f3 113d e6d8 06bc dd75 813b
00000160: 3377 2e3d ee32 7bbb b6cb 95bc 69b3 3ebb
00000170: bb7d e8bc abe6 f1bc 63fe 513d 2342 b839
00000180: 12b7 de3b 9d32 6e3a 5f2f 67bb eb5b c63c
00000190: 3bd1 90ba 73a3 c9b9 db0b cabb 362c 81bc
000001a0: 42ab 2a3c cd17 5b3d df7a 893c d7c0 a03c
000001b0: 83e4 703c 4e5e 13bc 5a8d a639 0424 01bb
000001c0: 7774 803c 3c7d da3c c257 84bb 520d 2d3c
000001d0: 64f4 bb3c 81e9 cf3b 9a0f c93c 1c61 c53b
000001e0: 1a60 1f3c c89c 90bb 08f4 823c bc59 be3c
000001f0: ed09 c43c c874 2e3c f519 753c 841b 3b3c
00000200: 5e76 e4bb 26fa e23c cae9 33bc 473a bf3b
00000210: 2d6e f5bb 0f4d b2bb c291 8aba 8b81 ccbb
00000220: fdb5 ac3c 399c 04bc c1d4 b73b 05fd 3e3a
00000230: 7f3e e83b 2658 913c fb4b f13c f100 993c
00000240: dc6b 1a3c 8d4c d33c 3bbd b53b 9bea 403c
00000250: 270c 133d 4c0a 33bb 1dca 323c 9678 9d3c
00000260: 2fb9 683c b236 91bc caff 85bc a3f5 153c
00000270: 3bd2 a3bb 157f 253c 8b3d debb 4539 253c
00000280: 49fc e83c ec1e 443c a11c 8b3c e905 a13c
00000290: b2d7 013d 15bf f03b f4c2 003b d35d 373c
000002a0: 0578 923b 2eaa 3fbb c8cd 1b3d b482 063d
000002b0: 4848 8cbb a20b 11bc 0b47 c439 a793 8ebc
000002c0: a257 803c c453 523b 10de 20bb cd67 093d
000002d0: 90ba 7a3c 29e3 ad3b 062f 823c 1172 00bc
000002e0: 570b d0bb 8299 093d 8cee e6bb 932b 253d
000002f0: 4933 d43c 64f7 c9bb bdae f03c 560e 0a3d
00000300: 9407 853b e457 63bb 3e4e abbc ea19 82bc
00000310: 3534 59bc 346e 81bc 8f4b ca3c 524b ecbb
00000320: dafe 18bc a3e4 a63c 5bd1 17bc ddeb ac3b
00000330: 04e6 c83b 0f14 c33c 1ce0 4b3c 2fd3 43bc
00000340: 0478 b13a dcc8 ae3b 3433 943b d7f0 c2ba
00000350: 35ee cd3b afec 603c d95f 303c 2526 113b
00000360: 4eff e53b da56 96bc 451e 1a3c 6d3b 81ba
00000370: a203 803c 1c2e 19bc 8e4b 4c3c b13d 8f3c
00000380: 2c84 aabb 9370 7e3c 07ab e93a 9143 bb3b
00000390: 637a 513c ff5f ac3b 48b7 3239 a548 e43a
000003a0: 8f01 dc3c 43c5 dcbb 3ece 9c3b ee97 293b
000003b0: 2e46 a93c 340a 9e3c 6a99 56bc 0b11 783b
000003c0: 84d5 15bc 01cb b73c 77ab 513c 644f 683c
000003d0: 9279 033d cb2c 033d c833 12bb 0755 e13c
000003e0: 8ee3 063d 7fd9 053b 9cdf ee3b b26e 0cbc
000003f0: dd14 bdbb 1d10 b8bc 2fe6 bd3c 038c 863c
0.025429301 0.038710456 0.0045656404 0.003160287 -0.0112163 0.0050003096 0.019098327 -0.0068409457
0.022115856 -0.007055535 0.018603133 0.022550873 0.0056401496 -0.006431021 0.008468276 -0.013630056
-0.01112996 -0.0043258183 0.0036123747 0.02836557 0.009955055 0.015268999 0.0017765962 0.0010490121
-0.002653154 0.008658954 -0.00329687 0.0043698424 0.027309332 -0.0035177898 -0.009417538 0.038232
0.0045110504 0.007382521 0.022495018 0.0064549656 -0.0053123883 0.033380106 0.016483065 0.0018866712
0.0071647745 -0.025793789 -0.00836145 0.0137795545 -0.0032115313 0.040394355 0.014377087 -0.014592822
0.021743417 0.04393929 0.0028585182 0.043760523 -0.006672655 0.028273243 -0.0069750017 -0.0022684876
0.01756629 0.01918086 0.024715304 -0.012016085 0.0221353 0.011206868 0.0058320872 -0.0006235558
-0.008039541 0.03223012 0.0015535194 0.030343704 -0.003991251 0.017801587 0.0074830838 -0.014943122
-0.0027023943 0.028658317 0.011430495 0.037842378 -0.005321764 0.025055457 0.007880853 0.030909829
-0.0015828235 -0.0041651316 0.039909337 0.0008785643 -0.006201754 0.03563252 -0.008230424 0.003950818
0.042594146 -0.0038329917 -0.018285614 -0.0029098636 -0.028380265 -0.029528936 0.051267993 0.0003514449
0.006796726 0.00090865215 -0.0035276038 0.024213752 -0.0011048684 -0.00038459487 -0.006165964 -0.015768152
0.010416808 0.053489495 0.016782222 0.019623203 0.014702919 -0.008994652 0.00031767302 -0.0019705305
0.015680535 0.026671045 -0.004038782 0.010562258 0.022943683 0.0063449745 0.024543572 0.006023539
0.009727502 -0.004413221 0.015985504 0.023236148 0.023930514 0.01064796 0.014959802 0.011420134
-0.0069721183 0.02770717 -0.010981033 0.0058358046 -0.0074899406 -0.005441315 -0.0010572004 -0.0062410287
0.021082873 -0.008093887 0.005610079 0.00072856277 0.0070875282 0.017742228 0.029455176 0.018677207
0.00942513 0.025793338 0.0055462397 0.011774684 0.03590026 -0.002731937 0.010912445 0.019222539
0.014204307 -0.017726276 -0.016357321 0.009152803 -0.0049994267 0.0101010995 -0.006782239 0.010084455
0.028440611 0.011970263 0.016981425 0.019656138 0.031699844 0.0073469975 0.001964745 0.011191803
0.004469874 -0.0029245722 0.038038045 0.032839492 -0.0042810775 -0.008852871 0.00037436964 -0.01740439
0.015666787 0.0032093385 -0.0024546422 0.033546258 0.015303269 0.0053066206 0.015891563 -0.007839696
-0.006349008 0.033593662 -0.00704748 0.04032476 0.02590336 -0.0061635245 0.029380197 0.033705078
0.0040597413 -0.0034689838 -0.020911332 -0.015881497 -0.013257076 -0.01579962 0.024694232 -0.0072111273
-0.009338105 0.020372694 -0.009266223 0.0052771405 0.0061309356 0.023813276 0.012443569 -0.011952206
0.0013539796 0.005334003 0.0045227055 -0.0014872801 0.0062845 0.013728305 0.010765039 0.002214798
0.00701896 -0.01835196 0.009406631 -0.0009859629 0.015626732 -0.009349372 0.0124691855 0.017485471
-0.0052037444 0.0155297695 0.0017827459 0.0057148417 0.012785527 0.005260467 0.0001704368 0.0017416669
0.026856212 -0.0067373826 0.004785328 0.002587791 0.020663347 0.019291975 -0.0130981 0.0037851955
-0.009145144 0.022435667 0.012797228 0.014179084 0.03209836 0.03202514 -0.0022308696 0.027506365
0.032931857 0.0020423827 0.00728984 -0.008571314 -0.0057703094 -0.02246862 0.02318105 0.016424185

network_body._body_endoder.seq_layers.0.weight f4 [256, 123]
00000000: 6e3e ec3b b67c b13d f935 803d 59a8 693e
00000010: 0035 af3c ca8d f0bb 99c8 a1bd 36d3 5fbd
00000020: a966 74bd d49b 99ba 893c 56bd 051b 713d
00000030: a18b 16bd 1c09 51bd e735 d53d b08d e03d
00000040: 11c7 0e3d 618c cfbc 2daa 423d 88d1 19bd
00000050: 197c 02be 1f9d 173a fecd 163d 1b89 283e
00000060: 95da 19be 3482 b4be 4c4c d53c f0e1 29bd
00000070: 9a06 2e3d 507f 65bc 3dae 09bc c30b 463d
00000080: 83f0 363d 2021 943d c6d9 583e ccb2 c6bc
00000090: de48 03be 0b3f e7ba 7240 263d 5338 f33d
000000a0: 91a7 a73d 3750 9dbd f9c2 ac3d c2ce 923d
000000b0: badc 033c de84 0dbc 9989 dabd dc63 4d3d
000000c0: 2737 a8bd e7b4 703c 8f0b 393d 7961 ad3c
000000d0: 83bc 7f3d dbad 063d 4caa f83c 6c64 6a3d
000000e0: d017 943d 3c2c 49be 3fae e73d f43b 363d
000000f0: 620f 47bd fcf6 2c3e f35a 753d 53b3 b6bd
00000100: 9d94 94bd 89f3 a43c efbb 003d 8699 563c
00000110: a27a cdbc 7a1f 2b3d 6fe1 8d3d bb1c 1abc
00000120: a0ae 69bd b5d8 103e e72d d93d 78bb 523e
00000130: e790 24be 0c5e 1bbd 06ed 173d ef61 dfbd
00000140: e3b5 313c e25b a13d e137 4abe d51d 06bd
00000150: fc99 963d f618 2e3e e509 6c3d da39 193d
00000160: 602b 2fbd 0265 5c3d 4888 7bbc b065 233c
00000170: a4c4 b1bd 7142 2a3c bab9 1dbd 48fd 213d
00000180: f369 143b 3d89 e8bb 7246 5b3d 6ff1 25bd
00000190: 3327 77bd 9ac6 0b3d bb9c d4bd 243f 473e
000001a0: e07e 38bd 449c 5dbc d866 17be 4c4d 7ebc
000001b0: 931e c6bd 3650 e23c be74 2ebe d071 063e
000001c0: 47d5 383d e1c9 093c ac5d 8e3d b15e 213d
000001d0: 2c3d cabc 1dad 06bd deca 073d dd57 02be
000001e0: bae4 06be 5e63 0b3e 254a d6bd 210d 9cbc
000001f0: 990b 2fbe bf01 df3d caf8 d33d 3433 d23d
00000200: 082b 4f3e 3aa7 22bd 6f8c 84bb 6195 903d
00000210: 89bc 7f3d 3a6e 1cbe dc5e c2bb 371d 2cbe
00000220: ebd9 8e3d ec33 5b3d 8044 263e ecde 8f3d
00000230: 6ed3 2cba cf04 07be 2814 e53c c77b f0bd
00000240: 1d39 8b3d 9008 aabd b780 893d 5339 27bd
00000250: 5161 383a 9962 4fbe 4dea f63d 1765 353e
00000260: d6a8 b33d 7a2b 9ebc 4f81 0dbd 384c 03be
00000270: 6a56 2b3c 9e7f ad3d 56b2 cf3c 9d8c 1bbe
00000280: 3101 dbbc fe0b ff3b 2ca7 e73d 7c19 3ebd
00000290: 5abf 103d 761c 66bc f561 ddbd 19af bebd
000002a0: 62f4 a23d ff25 c0bd b36d 443c cb9d 033c
000002b0: 49a8 3f3d 7481 323e aed9 42bd 7ccf 033e
000002c0: 3d01 613d 7aa4 34bd 7007 17bd 300a a0bc
000002d0: d689 803b 47ce ea3d 203c 5c3d 4c51 6f3d
000002e0: a071 913d b4d6 e4bc 38d1 0abd 32d9 0d3d
000002f0: 01fd 2cbd 5ccc 243d 9df5 7c3d 51d2 d53d
00000300: 684c 98ba cf5c 14be 19a6 0abd 4bfd 203c
00000310: 7325 f7bc 98c1 803d 3501 04be ab1b 9ebc
00000320: 8a53 97bd ff25 f5bc 1b75 0abe a946 a9bc
00000330: 178c c13d 53bc 64bd 8d0e c33d f64d eabc
00000340: d1c9 cabd b40e d93d ec1e 1abc ba56 c7bd
00000350: 2fd0 c9bc ef10 eebd 8f22 b23c a9a6 673c
00000360: 5c08 b13d 81fe 353e 2718 853d b33f b7bd
00000370: 6bb6 433d 9ba3 2fbe 48f6 b1bc 6e61 d0bd
00000380: bc78 023d 06e7 a43d 2b79 eabd 8764 813e
00000390: a2e5 6bbd 0d98 51be 2c20 42bd 3b69 883d
000003a0: f852 06be dd45 59bd e347 323c f3ed 60bd
000003b0: 34ed 393d 4f69 c43d c3c3 003d 95b4 4f3d
000003c0: fc30 103c a416 903c af37 093d dbb1 d83b
000003d0: 4ad4 bcbc 3f77 2c3d 667e 0abe c5ff 90bc
000003e0: 388d 3fbe ab29 593c 7776 8cbd c16e 81bc
000003f0: 0703 c8bd 3fb0 84bc 7e02 8b3d 9b4d 12bd
0.0072095906 0.08666365 0.062602945 0.22818126 0.021387577 -0.0073411213 -0.07899589 -0.054644786
-0.059668217 -0.0011719414 -0.052303825 0.05886366 -0.036754254 -0.051034078 0.10410672 0.10964525
0.034857813 -0.025335493 0.047525574 -0.03755334 -0.12742652 0.0005783606 0.036817543 0.16458552
-0.15024789 -0.35255587 0.026037358 -0.041475236 0.042486764 -0.014007404 -0.008403358 0.04835106
0.044662964 0.072328806 0.21176824 -0.024255179 -0.12820765 -0.001764269 0.040588804 0.11875977
0.08186258 -0.076813154 0.084356256 0.07168342 0.008048231 -0.008637635 -0.10670776 0.05014406
-0.082136445 0.014691568 0.04517704 0.021164643 0.06243564 0.032880645 0.030354641 0.057224676
0.072311044 -0.1964578 0.11312532 0.04449077 -0.048598655 0.16891092 0.05990119 -0.08920922
-0.07254908 0.020135658 0.031429227 0.013098126 -0.02508289 0.041778065 0.06927764 -0.009406264
-0.0570513 0.14145167 0.10604458 0.20579326 -0.16070901 -0.037931487 0.037091278 -0.10907351
0.010846588 0.078788534 -0.19747879 -0.032743294 0.07353589 0.1700171 0.057626624 0.037408687
-0.042765975 0.053807266 -0.015352316 0.009972975 -0.08680084 0.010391817 -0.0385072 0.03954819
0.0022646158 -0.007096438 0.05353398 -0.040513452 -0.060340118 0.034124948 -0.103814565 0.1945768
-0.045042872 -0.013526026 -0.14785326 -0.015521359 -0.096738 0.027626138 -0.17036721 0.13129354
0.045125272 0.008409948 0.0695146 0.039396945 -0.024687372 -0.032879937 0.033152454 -0.1272883
-0.1317319 0.13612124 -0.10463361 -0.01904923 -0.17094268 0.10889005 0.10350187 0.102636725
0.20231259 -0.03971026 -0.0040450613 0.07059742 0.06243566 -0.15276423 -0.0059317183 -0.1680802
0.06975158 0.053516313 0.16237068 0.07024941 -0.0006592785 -0.13185428 0.027963713 -0.11742359
0.06798003 -0.083024144 0.067140035 -0.040826153 0.0007033544 -0.20252456 0.12056408 0.17714344
0.08772437 -0.01930784 -0.034547146 -0.12822044 0.010457614 0.08471607 0.025353592 -0.15190358
-0.026733967 0.007783412 0.113111824 -0.046411023 0.035338737 -0.014044872 -0.108096994 -0.09310741
0.079567686 -0.09382247 0.011989045 0.008033226 0.04679135 0.17432195 -0.047570877 0.12872118
0.05493282 -0.04410217 -0.036872327 -0.019536108 0.0039226813 0.114651255 0.053768277 0.05842714
0.071017504 -0.02793441 -0.033890933 0.03463096 -0.04223347 0.040233955 0.061757673 0.10440505
-0.001161945 -0.14488529 -0.03384981 0.009826015 -0.030169224 0.06286925 -0.12891085 -0.019300302
-0.07388981 -0.029925345 -0.13521235 -0.020663576 0.09450548 -0.055843662 0.0952426 -0.028601628
-0.09901775 0.105985075 -0.009406786 -0.09733339 -0.024635402 -0.116243236 0.021744994 0.014138856
0.086441725 0.17772867 0.06498747 -0.089476965 0.04778139 -0.17152254 -0.021723881 -0.10174833
0.031853423 0.08051877 -0.11448892 0.2527201 -0.05759204 -0.20468159 -0.047393963 0.06660696
-0.13117588 -0.053045142 0.010881397 -0.054914426 0.04539223 0.095903985 0.031436693 0.050709326
0.008800741 0.01758892 0.03350037 0.006612999 -0.023050446 0.04210591 -0.1352478 -0.017700085
-0.18706214 0.013254563 -0.06858533 -0.015799882 -0.097662024 -0.016197322 0.06787585 -0.03571854

network_body._body_endoder.seq_layers.2.bias f4 [256]
00000000: 4321 ca3a 0ac9 573c 86ef 4e3b e9a0 ee3c
00000010: addd b43a e685 853c b06f 3fbc f9be ab3b
00000020: d314 acba 2892 aebb d36a d0b9 3313 91bb
00000030: 7714 5a3a a612 40ba c0ff 913b e98e 023d
00000040: edad 00ba 8355 303d 5046 163b 06a7 263c
00000050: 9a39 32bb 5721 baba 74b3 573c 0f36 2aba
00000060: 598d 4bbc 2487 853c 7d90 dc3b 1c8e 063c
00000070: 9a5c 22b9 408f 023a 72af f33c 6eb1 36bc
00000080: 296d 92bc 38e6 503a 72b7 95bb bef7 ac3c
00000090: d4ef 453c 1695 383c d20c f2ba 82b4 c3bb
000000a0: 9634 063c 58d3 853c 4492 e33b a918 ca3c
000000b0: 8986 b4bb ab02 733c 52cb 783c fb38 893b
000000c0: 4ffa 49bc 4393 f63c ca89 8f3c d53c 12bc
000000d0: e7f9 1d3c 2b8a 903b 7b9f babb b310 d43b
000000e0: 8711 383a 4324 37bc 4146 0d3d 48f8 03ba
000000f0: 9bcf 5abb 7456 0a3d 2f5c 35bc 80ef 7abb
00000100: 7ed1 d83c 01b6 353c e180 973b 6ab0 363c
00000110: 05bf 92b9 08c4 cd3c 4300 e9bb 766b 4c3c
00000120: a1d2 e83b 0d59 23ba 5ded 93bb b669 c63c
00000130: cc7e f6ba 322e 903c abde cd3c f98f 6bbc
00000140: 518f 0d3b f7cd 84bb 6903 76bc 541f c13c
00000150: de65 f73c 3f8e d03c bb74 8b3c ab14 f53c
00000160: b964 a03c 43c1 293b 5506 92bc 5eef f43c
00000170: a44b dc3b 0925 f13c be74 21bc 87f4 08bc
00000180: 8f51 aa3c 2b0d e03a 06d9 303c a85c f2bb
00000190: 3ca8 3b3c aef5 44bb 94e4 05bc 1975 2a3d
000001a0: b1e4 3c3b 563f de3c ff14 b93c e8a2 9abb
000001b0: d55d 5a3c 9aa9 df3b 35c0 1ebc dbe9 713b
000001c0: 5a8b 35bb 365e 7dba b33b bf3b 7518 3ebb
000001d0: 545c 713b dabc a3bb 872e 193c 9282 6bbb
000001e0: d615 1938 66f2 b63b fa1e b4ba 28bf 89bc
000001f0: 51de b53c 65d6 0dbb c6ec 8c3c 13c4 dc3a
00000200: 7075 4dbc 2d61 7b3c 4718 0b3c bf4c 003c
00000210: 25bb 583c c16c 02bc b737 9d3c c934 8ebc
00000220: 4dff 9f3b d6c0 fa3c 93d9 813c e142 f13c
00000230: 27de ad3c 060c 62bc 7866 9fba 58a1 1f3d
00000240: a981 df3c f02e 663b 5cf4 033b cefc b93b
00000250: d3c9 083d 6ef8 693b 29d7 59bb 85cd e03c
00000260: cf7c 1e3c ae10 05bc fc17 9abb dd58 413c
00000270: 0bab 22bc 5c9c 39bc ef11 903c d40c f33b
00000280: 04b2 1dbb d915 363c ab60 833a 9b49 37bc
00000290: 71f8 1e3c ee17 fa3b 38e1 383c c802 3bbb
000002a0: c565 0b3b 2045 543c a74b d33b 386b c63c
000002b0: 4a19 113d 0ec5 b0bb 5d99 b03a 1308 aa3c
000002c0: 09ed 0ebc 7fed 55bb 368e 773c 602c 473c
000002d0: 3b45 5cbb 905f be3c e66d 7c3c 3e8e 4cbb
000002e0: b0d7 123c e691 0d3d 0c22 e83c 73a3 b5bc
000002f0: 3277 893b 94a2 3f3b 4965 f3bb 8929 633c
00000300: 73ad 5e3c fc2a d9bb eaa1 deba 5a65 5b3c
00000310: a304 633c cd9d be3b 1a7d 9d3c 6e6b d43b
00000320: c648 393d c8c4 9ebb d9e4 2ebc 5754 873c
00000330: bca3 1c3b b72a ccbb aecd 383b 0db7 f33c
00000340: fdb3 873c 17c0 c439 6b0d 5839 ab0f f03c
00000350: 294d 213c 8f91 e3b9 da60 a53b 8dac d8bb
00000360: 81dc 583c 39dd ef3b 677b d2bb 2e0b d6bb
00000370: e237 0d3d 62eb 1abb 6450 a43c 0bd4 f4bb
00000380: 7656 c73a 5274 54bc 86e5 ffba 5174 2db9
00000390: 32ef 353a b6ab 993a e168 433b fca4 dfba
000003a0: 4546 eaba 420b 533d df9b d23c 7ea9 533c
000003b0: 03a0 5d3b 10dd 993c e059 6a3b b940 d9bb
000003c0: ad45 84ba 420f 573c 934f 733c c745 be3a
000003d0: 624c 3d3c 64f2 f83a 3ac6 56bb 9c1b 813c
000003e0: 68b8 043c ac23 983c 0b04 4fba 131a 8e3b
000003f0: c316 2cbb db65 c4b8 f64c 2438 e461 dcbb
0.001542129 0.01317049 0.0031575873 0.029129462 0.0013798975 0.0162992 -0.011684343 0.0052412716
-0.0013128765 -0.005327482 -0.00039752442 -0.0044273376 0.00083190895 -0.00073269976 0.0044555366 0.03187457
-0.00049087295 0.0430503 0.0022930093 0.010171657 -0.0027194978 -0.001420061 0.013165344 -0.0006493041
-0.012423837 0.016299792 0.0067310915 0.008212592 -0.0001548402 0.00049804524 0.029746745 -0.011150701
-0.017874317 0.00079688756 -0.0045689875 0.021114226 0.012081105 0.011266014 -0.0018466956 -0.005972446
0.008191248 0.016336128 0.0069449265 0.024669962 -0.005509202 0.014832179 0.015185194 0.004187701
-0.012327745 0.030099517 0.017521758 -0.008925636 0.009642101 0.004411002 -0.005695281 0.0064717173
0.0007021655 -0.011178079 0.034490827 -0.000503425 -0.0033387903 0.033773854 -0.011069342 -0.0038289726
0.026467081 0.011090756 0.004623518 0.011150459 -0.0002798961 0.025117889 -0.007110627 0.012476793
0.007105187 -0.0006231226 -0.00451438 0.024220329 -0.0018806099 0.017600153 0.02513059 -0.0143775875
0.0021600316 -0.0040528732 -0.0150154615 0.023574509 0.030199941 0.025458453 0.017023435 0.029917082
0.019579278 0.0025902546 -0.017825285 0.029899295 0.0067228843 0.029436605 -0.009854494 -0.008359081
0.020790843 0.0017093768 0.01079393 -0.0073962994 0.011453684 -0.0030053663 -0.008172173 0.04161558
0.0028822834 0.02712981 0.02259302 -0.004719127 0.013328035 0.006825638 -0.00968938 0.003691307
-0.0027701468 -0.00096652226 0.005835974 -0.0029006277 0.0036828713 -0.004996878 0.009349472 -0.003593598
3.649838e-05 0.0055830954 -0.0013742142 -0.016814783 0.022200735 -0.0021642682 0.017202746 0.0016843103
-0.012540206 0.015342993 0.008489675 0.007830798 0.0132282125 -0.007960499 0.019191606 -0.017359154
0.004882729 0.03060953 0.015850818 0.029450836 0.021224095 -0.013796812 -0.0012161275 0.03897223
0.027283506 0.0035123192 0.0020134663 0.0056758886 0.0333956 0.0035701054 -0.0033239818 0.02744175
0.009673311 -0.0081216525 -0.004702566 0.011800972 -0.009928475 -0.011328783 0.017586676 0.0074173007
-0.0024062404 0.011113607 0.0010023316 -0.0111869825 0.009702788 0.007632247 0.011284165 -0.0028535593
0.0021270376 0.012955934 0.0064482274 0.024221048 0.03542451 -0.0053945845 0.001347344 0.020755803
-0.008723506 -0.003264278 0.015109589 0.012156576 -0.00336106 0.023238927 0.015407061 -0.0031212713
0.008962557 0.034562968 0.028336547 -0.022172665 0.0041951174 0.0029241191 -0.0074278456 0.013864883
0.013591158 -0.0066274386 -0.001698551 0.013390863 0.013856086 0.005817151 0.019224692 0.006482533
0.045235418 -0.0048452355 -0.010674679 0.016519709 0.0023901304 -0.006230678 0.0028198767 0.029750371
0.016565317 0.0003752715 0.00020604364 0.029304346 0.009845057 -0.00043405264 0.005046946 -0.0066123665
0.013236166 0.007320073 -0.006423402 -0.0065320944 0.034477122 -0.0023638834 0.020057864 -0.0074715666
0.0015208262 -0.012967186 -0.0019523359 -0.00016541897 0.0006940245 0.0011724147 0.0029817151 -0.0017062719
-0.0017873725 0.05152441 0.02570909 0.012918828 0.0033817298 0.018782169 0.0035759136 -0.00663003
-0.0010091566 0.013126196 0.014850515 0.0014516645 0.011553856 0.0018993136 -0.003277196 0.015760235
0.0081006065 0.018571697 -0.0007897026 0.0043366044 -0.0026258684 -9.36498e-05 3.9172322e-05 -0.0067255367

network_body._body_endoder.seq_layers.2.weight f4 [256, 256]
00000000: ccde b83b 2d49 123d 585f 83bd 3923 c33d
00000010: c1fa 123e 918c 4dbd 9ea9 45bd 9d07 823d
00000020: 82a5 343d 01f4 17bd 179b 953d 527c ad39
00000030: 1c44 21bc 7fce 8d3d 5539 0ebc 29c5 0dbe
00000040: 7d35 0bbd b19e 223b 68e0 51bc 529f 81bd
00000050: 6532 aa3d ab24 52bd caa4 c33d 6cda 0dbc
00000060: 24e5 8abd 11a7 7ebd e050 3a3d 3537 0dbd
00000070: 2463 473d de52 883b 8621 7b3c a503 38bd
00000080: e162 1cbc 0705 1fbc 0fec 493d d178 a3bd
00000090: 0fcb 0cbb 3c8a 233d 4079 d7bc e132 24be
000000a0: ab28 bfbc ac80 f93c e189 5b3d 545f bfbb
000000b0: bc17 dbbc 5efb c43c c1a7 afbb dba9 80bd
000000c0: 954f 2a3d e635 d93d b741 443d f3fb edbd
000000d0: e7fd 06bd 5e86 26be 3d67 6a39 fe28 1b3d
000000e0: 67b9 193d e077 8dbd 7d08 e23a d27b f6bc
000000f0: 109b 05bb 57c0 053e d32a c83c 15b7 ba3c
00000100: 9b95 53bd 2c42 60bd 408a c1bc 015f 673d
00000110: 8600 a9bc 19f8 cb3d 4e1f 653d 0da2 913d
00000120: 4bdb 9bbc 5897 9dbc cfb9 983d 55ea 733d
00000130: a4bd b4bc c961 943d 034e dabd ca37 c7bd
00000140: 9608 cebb c84f 773c 7e8d 08be c05a 8f3d
00000150: 10ca 313d 2611 a83c 0212 6fbd 8f1b 923d
00000160: 8f3e a33c e571 933d 7690 b6bc 2285 cf3b
00000170: cdbd 6939 8977 653d 0ab9 a13d 06fb 3dbc
00000180: 3210 9a3d 5673 373b 90e6 40bd 9565 b8bd
00000190: 9bc2 833d 6eae a33d 142e 093e b2b6 bf3d
000001a0: 0816 793d 7d0f f4bd c07d a13d c33c 1c3d
000001b0: 1b5c 413d d541 e23b 7600 993c 96ce aabc
000001c0: f1e9 3bbd 3b76 fa3c f952 35bc cc5d 58bd
000001d0: 5f0c 5ebc 985c 173e 31fc 0dbb 587b 1f3b
000001e0: adef 993d 7a7d 833c 865a 633d 96da 553d
000001f0: 36b0 e1bc 5a7f 123d 3645 97bd fbe1 983d
00000200: 85d3 10bc 0e32 a4bd 6925 4fbc 3670 dfbd
00000210: d617 b1bd 06ae e43c 8871 40b9 10fc 573d
00000220: 3610 9b3d c675 b7bc 1cd8 04be 3437 70bc
00000230: 7904 07bd f596 d23d e618 4e3d 740e 13bd
00000240: 1145 1bbd 2309 e3bc a26b 43bd 489a e7bd
00000250: a2f9 95bd c567 b53d 70c9 4cbd 709f 153d
00000260: 711a cabd 69d3 67bc 1380 82bd 961b 17bc
00000270: 4e49 e7bb 0cb9 26bd cd71 ac3c d3eb 1abd
00000280: d0c2 00bd 041c 4f3d e364 cd3d d640 18bc
00000290: b55c 4fbd 7163 f53c 5349 b7bb 7c79 5f3c
000002a0: 3a72 86bd a43f 743c c86e 643d 8cc4 02bd
000002b0: e5eb 7e3d ad04 af3d d20c aebc a6c3 67ba
000002c0: 851b 9c3d 9bbb 8b3b 5d32 923d 8a0f 223a
000002d0: 51ac a23c 2249 9cbc 1d28 edbc 0ab4 d0bd
000002e0: 9751 9abd f961 b33b 0664 8a3d 0998 d6bd
000002f0: 56c6 04bc 4a6d ae3c 9f14 48bd 6a93 3f3d
00000300: c93e 37bd 7429 e53d 6bdf 133d d051 803c
00000310: 3c85 b43d 672c 9bbc a8ba 20bd c73a 4f3c
00000320: 337d d03b b582 75bd bd2c 663d f4d1 c73d
00000330: c41f 7f3d d0c4 253d 89c8 f5ba 7d38 e0b9
00000340: ed25 b63d c43f 4dbc b9d9 953d 28f8 a23d
00000350: 393b 19bd 2d70 c9bd cb03 8fbd 3c3e 1a3d
00000360: 9c89 cd3d e7b0 a7bd ad3d c53d 2418 793c
00000370: 74ed be3d 7011 25bd 9513 c63d 47a7 4e3a
00000380: 4a0c 85bc 5df7 393d ec05 babd 8e60 5cbd
00000390: 2cfc c0bb 2cea b5bc 527b 94bd b457 41bc
000003a0: 79d2 3a3d 9f89 253c c96e 84bb f10d e83d
000003b0: 2635 903d e9e7 ebbc 65dc 343d a8b1 1bbd
000003c0: a544 a53c 06b8 73bd f49a bd3c 52cb 143d
000003d0: dbd3 4f3d c345 aebd db1b e0bd f9eb 9a39
000003e0: de04 e9ba a3b7 583d 21f0 a7ba 0687 9cbd
000003f0: 66a6 0d3b 4e73 34bd 038d 913d 1db7 b83a
0.005641794 0.035714317 -0.0641467 0.095282026 0.14353468 -0.050182883 -0.048257463 0.06349108
0.044103153 -0.037097935 0.07304972 0.00033089757 -0.009842899 0.06924152 -0.008680661 -0.13844742
-0.033986557 0.0024813826 -0.01280985 -0.06329216 0.08310393 -0.0513045 0.095529154 -0.008658033
-0.06781986 -0.062171046 0.045487285 -0.034476478 0.048678532 0.004160269 0.015327817 -0.04492535
-0.009545059 -0.009705788 0.04929739 -0.07982028 -0.0021483337 0.039926752 -0.026302934 -0.16035034
-0.023334822 0.030456863 0.05359829 -0.0058402214 -0.026744716 0.024045642 -0.005360574 -0.06282397
0.0415798 0.106059834 0.047914233 -0.11620321 -0.032956984 -0.16262195 0.00022354438 0.03788089
0.03753033 -0.0690763 0.0017244961 -0.030088339 -0.0020386614 0.13061653 0.024434483 0.022792378
-0.051656347 -0.054750606 -0.023625493 0.056487087 -0.020630132 0.0995943 0.055938058 0.07110987
-0.019025465 -0.019237205 0.07457315 0.05954965 -0.022063084 0.072452135 -0.10659411 -0.09727438
-0.0062876446 0.015094705 -0.13335225 0.06999731 0.043405592 0.02051599 -0.058366783 0.07134163
0.019927291 0.07199458 -0.022285681 0.0063330093 0.00022291318 0.0560222 0.078966215 -0.011595493
0.0752262 0.002799233 -0.04709488 -0.0900375 0.064336024 0.07992254 0.13396484 0.09361018
0.060812026 -0.11917017 0.07885313 0.038143884 0.04720698 0.0069048204 0.018676978 -0.020850461
-0.0458774 0.030573955 -0.0110671455 -0.052823827 -0.013552754 0.14781415 -0.002166521 0.0024334993
0.07516418 0.016051043 0.05550625 0.052210413 -0.027549844 0.035765983 -0.07386248 0.07464977
-0.008839493 -0.0801736 -0.012643197 -0.109100744 -0.086471245 0.027915012 -0.0001835284 0.05273062
0.07571451 -0.022395026 -0.12973064 -0.014661599 -0.03296325 0.10282699 0.050316714 -0.035902455
-0.037907664 -0.027714318 -0.04771007 -0.11308724 -0.07323004 0.08857683 -0.049996793 0.036529005
-0.098683245 -0.014149525 -0.063720845 -0.009222886 -0.007058299 -0.04070382 0.021050358 -0.037822556
-0.031435788 0.050563827 0.10029008 -0.009292802 -0.05062552 0.029954644 -0.0055934577 0.013639804
-0.06564756 0.014907751 0.05576971 -0.031925723 0.062236685 0.08545814 -0.021246348 -0.00088411046
0.076224364 0.0042643077 0.07138512 0.0006182125 0.019857557 -0.019077841 -0.028949792 -0.1019059
-0.07535093 0.0054743257 0.06757359 -0.10478217 -0.008103928 0.021292347 -0.04884779 0.046771444
-0.04473761 0.11189547 0.03610174 0.015664011 0.08814475 -0.018942071 -0.03924051 0.012648291
0.006362581 -0.059939105 0.05619501 0.09756842 0.062286153 0.0404709 -0.0018751781 -0.00042766696
0.088939525 -0.01252741 0.07316918 0.07957488 -0.037409995 -0.09835849 -0.06983145 0.037657008
0.100360125 -0.08188038 0.09630904 0.0152035095 0.09322634 -0.040299833 0.09671704 0.00078832026
-0.016241211 0.04540192 -0.09083161 -0.05380302 -0.005889436 -0.022206388 -0.07250084 -0.011800695
0.04561088 0.010103612 -0.004041527 0.11330784 0.07041387 -0.028797107 0.044155497 -0.038011223
0.020174334 -0.05950167 0.023145176 0.036326714 0.05073915 -0.085094 -0.10942813 0.00029548982
-0.001777794 0.052909505 -0.0012812653 -0.07642941 0.0021614074 -0.044055276 0.07106974 0.0014092658

network_body._body_endoder.seq_layers.4.bias f4 [256]
00000000: b23b ba3c 9698 433c aa8a 233c d15b 16bc
00000010: 63b3 753b e193 403c 7870 ffb9 b6b3 0c38
00000020: 99f0 2ebb cdbc 023c 4943 313c ee86 e6bb
00000030: 36f1 b53c a3cf 4bbb 7684 45bb 7587 333c
00000040: da6a 1a3c 52fc 0cbb d367 52bb 6a21 c0bb
00000050: 02e2 933c 09c6 013c 6bd6 94bb c071 a2bb
00000060: 6108 ae3c f6a8 be3c 00d4 1a3c 5c94 d73b
00000070: 4015 9abb 1db8 0ebc 39a2 a8ba 4e28 e53a
00000080: fb52 ae3b 3ae8 ddbb e19f 7639 84a4 bdbb
00000090: 2f54 de3b d6f5 de3a 1830 06bc a54b ccba
000000a0: f361 44bc 4d0d ec3a ebef dd3b f069 ad3c
000000b0: 7c81 4e3c cda6 a4bb 7dc2 2abc 480d f7bb
000000c0: b94b a33b 9f6b 06bc 5c65 563c 6fb8 193b
000000d0: c552 12bc 9f31 01bc 83c0 8cba 7b48 4b3c
000000e0: 6b0a f83b 2035 18bc b446 f2bb 1b3f 9c3c
000000f0: d042 87bb 169d dc3c 0208 97bb 2d1b 763b
00000100: 352d dc3c 8c40 da3c 5ff6 df3b 40e2 71bb
00000110: cf8b 7f3c 56d3 fb3b 3ddc ea3b 198f a5bb
00000120: 1dd9 173b fd38 77bb 6cd4 dbba 276f cc3b
00000130: 35e3 23bb 3bb0 853c acab 183c 199e 1e3c
00000140: 5c62 693a 39dd 543c 0292 933c 595f fbbb
00000150: 4a31 d43b f5fc 293b 8068 9e3c 2d9c d83c
00000160: 721e 513c e35f 6a3b c4b2 b63c 6996 58bc
00000170: 247f b23c 1743 f93b 8d18 8d3a 7509 7a3c
00000180: 5318 483c a573 b0bb 946e 403c 8f1a a1bc
00000190: 5a25 adbb e600 903b 2576 ca3c f2e9 1dbc
000001a0: f06f 973c e416 383c ffad d93c 784e 21bb
000001b0: 7500 473c fa60 7b3c 49b3 453c 9697 393c
000001c0: c7fe a53b 0675 b1bb e549 8b3c db2a b43b
000001d0: b969 653c 1e6c d03c d959 0abc 4b56 aa3c
000001e0: d747 4dbb 1102 1a3c 6a4d bc3c d7b4 aa3c
000001f0: dac1 b93b 74d7 ecbb 1f97 733b 653a ac39
00000200: f7af 1cbc 0df1 863c 279f 903a 88d8 a3bb
00000210: 92a8 5ebb 0892 723b 9ce9 e13c 693c a53a
00000220: a4c2 8bbb 80d0 1c3c cba5 be3c 7245 903c
00000230: 0815 c73b cae5 80b8 52c4 613c efd2 293b
00000240: 4f55 4e3c c3cd 763c 6dc8 0bbb 69f1 0b3d
00000250: d377 903c 3846 893c 59a3 66ba 854a 8b3c
00000260: df53 d93c 4e62 bd3c 7272 bb3a 9f53 433c
00000270: 4e5d 3b3c 28d5 0dbb f093 a03c 8e91 b8bb
00000280: 8cd7 233a dfa7 b23a b594 fe37 9dd7 e23a
00000290: 630a b83c 8a07 663a 9626 23bb 9483 133c
000002a0: f77b be3c 0b3d 693c e9a8 dc3b 29cb ca3c
000002b0: 5e69 183c 4fbd c43b dc05 1bbb 444b 113c
000002c0: ac51 ed3c e4b0 bcbb 0365 15ba dd1e 4b3a
000002d0: 1e7b 6ebb 9174 5c3c 1cd0 233c 631b 963c
000002e0: 1f4a 103c 1ca3 8cbb 0302 1dbc c4c8 9b3c
000002f0: 239d 4fbc d68a 983c 6c48 413c 4241 03bc
00000300: 179f 9f3c 7daf 943a 3316 0cba 2552 e4bb
00000310: 1280 f7bb cdec 61bb e672 1cba b891 1bbc
00000320: 25fc 233b e705 ccbb 9891 a03c e457 22bc
00000330: 8b14 f43b 2c85 03bc 441a dfbb 4de8 4a3c
00000340: a0ad 9bbb b031 73bb d08f c5ba ab90 87bb
00000350: 49f3 a8bb 6e3c 9c3c 064b e83c 492c 7cbc
00000360: 705c 2d3c 326c c83b 1944 5bbb 8bdf 313a
00000370: f8b5 9cbb bf61 62ba 3ff0 823c 66ed 29bb
00000380: ef3b ad3c 696b f4bb d544 e2bb 4e29 0cbc
00000390: d3ba 19bc 5b7d f23c f3ad e2bb c139 223c
000003a0: e731 923c acd9 9fbb 8655 1cbc 6e4c 7fbb
000003b0: 8b41 cb3c 98fe 38bb c73b b33c 073f 4d3c
000003c0: a867 663c 6b37 ecb9 9668 22b9 2e28 983b
000003d0: 8ae7 563b 921f b93b 4aaf 4dbb 569b 573b
000003e0: fb17 423c 78b4 71bb a5fe 913b 8cec 39bb
000003f0: 8a2e b33c fefc 393c c142 b53b 55fc ff3b
0.022733543 0.011938235 0.009981791 -0.009177164 0.0037490956 0.011754007 -0.00048721186 3.354597e-05
-0.00266937 0.007979584 0.010819265 -0.007035128 0.022209745 -0.0031099103 -0.0030138767 0.010957588
0.009424889 -0.00215127 -0.003210534 -0.0058633583 0.018052105 0.00792075 -0.004542162 -0.0049574077
0.02124423 0.023273926 0.009449959 0.006578965 -0.00470224 -0.008710888 -0.0012865729 0.0017483325
0.0053199506 -0.0067720683 0.00023519948 -0.005787434 0.006784938 0.0017010521 -0.008190177 -0.0015586509
-0.011986244 0.0018009335 0.006772985 0.021168679 0.012604114 -0.005024767 -0.010422346 -0.007539425
0.004983392 -0.00820437 0.013085689 0.0023455878 -0.008930867 -0.007885366 -0.0010738525 0.012407417
0.0075696013 -0.00929001 -0.0073936824 0.01907306 -0.0041278377 0.026930373 -0.004609109 0.003755282
0.026877025 0.026642106 0.0068347896 -0.0036908537 0.015597298 0.0076851053 0.0071673677 -0.005052459
0.002317018 -0.0037723177 -0.0016771681 0.0062388363 -0.0025007252 0.016319385 0.0093182735 0.009681248
0.00089029013 0.012992197 0.018013958 -0.0076712784 0.0064756023 0.0025938128 0.019336939 0.026441658
0.012763606 0.003576272 0.022302039 -0.013219454 0.021789141 0.0076068747 0.0010764763 0.015261044
0.012212831 -0.0053848797 0.011745114 -0.019665984 -0.0052839937 0.0043946384 0.024714539 -0.009638296
0.018485993 0.011235926 0.026572226 -0.0024613421 0.012146105 0.015342945 0.012066671 0.011327645
0.005065772 -0.0054155616 0.01700301 0.005498273 0.014002257 0.02544218 -0.008444273 0.0207931
-0.0031323337 0.009399907 0.022986133 0.020838184 0.005668861 -0.0072278325 0.0037168933 0.00032849904
-0.009563438 0.016472364 0.0011033759 -0.005000178 -0.0033974987 0.003701331 0.027577214 0.0012606505
-0.0042651463 0.009571195 0.023272416 0.01761124 0.006075505 -6.146317e-05 0.013779717 0.002591308
0.012593581 0.015063706 -0.002132918 0.034165774 0.017635262 0.016757116 -0.00087981444 0.017003307
0.02652925 0.023118164 0.0014301075 0.011921792 0.01143582 -0.0021641944 0.019601792 -0.005632586
0.00062500755 0.0013630352 3.0348407e-05 0.0017306689 0.02246589 0.0008774927 -0.0024894825 0.009003539
0.02325247 0.014235745 0.006734003 0.024755077 0.009302465 0.0060040127 -0.0023654616 0.008868042
0.028969608 -0.0057583917 -0.0005698951 0.00077484344 -0.0036389302 0.013455526 0.009998348 0.018323606
0.008806734 -0.004291905 -0.009582999 0.019016631 -0.012671742 0.01862089 0.011797052 -0.008011164
0.01948504 0.0011343803 -0.0005343884 -0.0069678 -0.007553109 -0.003447342 -0.0005968049 -0.009495191
0.0025022116 -0.0062262896 0.019600675 -0.00990865 0.007448738 -0.008027356 -0.006808551 0.012384486
-0.0047509223 -0.0037108473 -0.0015072767 -0.004137119 -0.005155955 0.019071784 0.028356086 -0.015391418
0.010581121 0.0061164135 -0.0033457337 0.00067853247 -0.0047824346 -0.0008635781 0.015983699 -0.0025928854
0.021146743 -0.0074590934 -0.006905178 -0.00855477 -0.009382921 0.02960079 -0.006917709 0.009901465
0.01784606 -0.0048782434 -0.009541875 -0.0038955468 0.024811527 -0.0028227922 0.02187909 0.012527234
0.0140627995 -0.00045054717 -0.00015488485 0.0046434617 0.0032791817 0.0056495154 -0.0031384998 0.0032898984
0.011846538 -0.003688125 0.004455405 -0.0028369753 0.021872777 0.011351822 0.0055316393 0.0078120627

network_body._body_endoder.seq_layers.4.weight f4 [256, 256]
00000000: 779a 103d 0290 0b3d f2c5 bb3d 8d99 2e3d
00000010: 7d30 b0bc b194 cbbd 7a23 56bd 7fc2 81bd
00000020: bc1f d9b8 8af2 c7bc d11a b33d 99f6 82bd
00000030: 01f6 7fbd 87b2 4f3d 3e85 d33c 9795 203d
00000040: 4d2b 64bd 0987 573c 3d48 cbbd 02a0 833c
00000050: 2003 1ebd 7323 a9bd 2d12 dabd d101 abbc
00000060: ceb4 8bbd c4fb d93c 2ce4 56bd 8371 a43c
00000070: 19ed a0bd f0df 533c d3ad 3dbc 2a64 dc3d
00000080: 7350 ec3c 056d 8b3d b6e2 67bd 2a6b a2bd
00000090: 7f9f 6d3d c67b b4bd b879 093d 7573 04bc
000000a0: eace a5bd cdb8 8dbd a0aa 25bc 4faf 783d
000000b0: 6c89 0dbd 7c34 bfbc 7d98 2abd 00ea 21bd
000000c0: f537 f3bd 4042 e1bc 3ab6 893d 4566 9abc
000000d0: ae29 abbd f573 b13b 1a1e 2cbc 8cec 07be
000000e0: 37a3 863b ea5d bdbd 6f05 a63d e958 843c
000000f0: d04a 5f3d 6a32 403d bdf4 973b 8628 5b3d
00000100: 4d44 8e3c ab95 c1bb f0e0 66bd 05b4 733d
00000110: 0d87 b63d 546c 2bbd bbb3 1a3e e4fd a4bd
00000120: 686c de3d 4eec 96bc 47a1 2b3d 0147 14bd
00000130: 746c 89bd f3fa 6abd dffc 8a3d 5fca 4ebd
00000140: 41cf 64bc 3d7b 3b3d 4e25 cabd 723f 0dbe
00000150: 062d db3c 6b0b 4b3e 2c8c 99bd fddf ce3c
00000160: bdbf 813d 4ac7 59bd 45e6 d03c 8356 b13a
00000170: 7fa5 06be d247 80bb 35a2 2bbd 1bb5 e2bb
00000180: 5101 50bd 5104 d8bb af9c 3b3d 504b 81bd
00000190: fee1 d13c 550c 0abe e066 c4bd 9176 c73d
000001a0: 088f 5ebb fdc6 fabd 74c2 103e 708c e2bb
000001b0: 8bd2 f3bc b4af 13bd 8c5d 853d 40be 7ebd
000001c0: 35b6 a6bd c273 683d c15a 99bd d51f 4abd
000001d0: 289c 67bd fe53 36bc 59eb 093e c635 5d3d
000001e0: 0e19 b53d 8caf 3ebc d4cf 7a3d 4096 c7bc
000001f0: 5458 2f3b 4743 adbd e18c c93b 6f22 9ebd
00000200: 1322 a83d 17be 6b3d 4541 acbc bdcd a03d
00000210: c6c8 3d3c ef5c 873c 91ad 3a3d 4c98 3dbd
00000220: e1cf 3c3d 016a 443e b9bf 3d3d d934 923d
00000230: 3480 f33b bb32 95bd 0563 2a3b f237 133c
00000240: 39b7 e33d 71d1 893c 0318 753d 7094 1bbd
00000250: 34ea 3a3c 9694 bebc 7bcb 383d 7ca9 ecbc
00000260: d043 1cbd daed 14bc b79d a83c 0b17 c53d
00000270: e3a5 00bc dc92 82bd 95e6 813d 2686 84bd
00000280: 7d89 e73c c2d0 53bd 390b b73c 9d64 5e3e
00000290: a31d 393d 9d8c a2bc 5f2a 3cbd c75f b63d
000002a0: de34 07bd da3b 663d b7ae 083b 0c3d 7b3c
000002b0: 185c a23c ecfd 083c d1d4 183d 9fc8 163d
000002c0: e051 3bbb 166f a5bd b70a ce3d e8ba b23d
000002d0: d85c dc3b 8499 23bc 3bd8 293d 2c74 05be
000002e0: 477b 3abc a31f b43d 233c 363d 6fca 81bd
000002f0: 62d5 e9bc bc6f b93d 220d 73bd 3e0e 98bc
00000300: d671 603c 1e17 edbd bbdd 31bd 8895 8d3d
00000310: 3daf 313d be4b 003c d662 9cbd 2bac af3d
00000320: 1739 c73b 6466 53bd ccc1 813d 123b 4f3c
00000330: 20c7 3f3d 3f13 453d 7e55 aabd 17f8 593d
00000340: 9a9b 58bd 9682 c53c fa33 6cbd 1f1e 093e
00000350: fb8e 203d bb5d 513d 6cdb 083d 1309 3bbc
00000360: e52d d83b e7a5 5f3d 28f5 70bd 89ca f1bc
00000370: 0c00 7b3d 3722 a43d a126 17bd 2770 e1bd
00000380: c9df e2bc 1a7f 063b 4585 adbc 84d9 fc3c
00000390: 2113 7cbd 5632 ca3d d7ff 9c3d 97b6 82bd
000003a0: aab8 99bd fa7e 81bc 4458 f23d d321 183e
000003b0: 75b7 9fbd c9c8 3fbc ff3e a83d 5388 363d
000003c0: b3d8 4b3d a3fb 2d3e 2a04 393c 03b1 67bd
000003d0: 97e7 69bd b5d0 2fbd 0a98 d5bc 894e 09bd
000003e0: 655e 953d a3af 163d 2087 0fbe 47a1 95bd
000003f0: a262 14bc b1d7 883d 971f 8c3b 4cad 29bd
0.03530356 0.034072883 0.091686144 0.042626906 -0.021507496 -0.0994047 -0.052279927 -0.06335925
-0.00010353277 -0.024407644 0.08745349 -0.06394691 -0.062490467 0.050707366 0.02582037 0.03920516
-0.055705357 0.0131547535 -0.09925888 0.016067509 -0.0385772 -0.082587145 -0.10647998 -0.02087489
-0.06821595 0.026609309 -0.052463695 0.020073658 -0.07857723 0.012931809 -0.011577087 0.10761292
0.028846955 0.06807903 -0.056612693 -0.07930596 0.058013435 -0.088126704 0.033563346 -0.008084168
-0.08096106 -0.069200136 -0.010111481 0.060714062 -0.034554884 -0.023340456 -0.04164933 -0.0395298
-0.11875907 -0.02749741 0.0672421 -0.018847594 -0.08357559 0.0054154345 -0.010505224 -0.13273829
0.004108812 -0.09246428 0.08106505 0.016155677 0.054514706 0.04692308 0.0046373294 0.053505443
0.017366553 -0.0059077344 -0.05636686 0.059497852 0.08912478 -0.041851357 0.15107624 -0.08056238
0.108605206 -0.018423226 0.041901853 -0.036200527 -0.06710139 -0.05736823 0.067865126 -0.050485965
-0.013965429 0.045771826 -0.098703966 -0.13793734 0.026754867 0.19828574 -0.07497439 0.02525329
0.06335399 -0.053168572 0.025500426 0.0013529811 -0.13149069 -0.0039148116 -0.04190274 -0.006918562
-0.050782505 -0.0065923114 0.045803722 -0.06313193 0.025620457 -0.13481267 -0.09589934 0.097394116
-0.0033959765 -0.12244985 0.14136678 -0.006913714 -0.02976348 -0.036056235 0.06511983 -0.062193155
-0.08140222 0.05675102 -0.07488013 -0.049346764 -0.056545407 -0.011128424 0.13468684 0.05400636
0.088426694 -0.011638533 0.061233357 -0.024363637 0.0026755529 -0.08460098 0.0061508273 -0.077214114
0.08209624 0.05755433 -0.021027217 0.078517415 0.011583513 0.016523806 0.045575682 -0.04628782
0.046096686 0.19181062 0.04632542 0.07138986 0.0074310545 -0.07285067 0.0025998962 0.008985506
0.11118931 0.016823502 0.059837352 -0.037983358 0.011408377 -0.02326421 0.04511593 -0.02888941
-0.03815061 -0.009089911 0.020583017 0.09623536 -0.0078520505 -0.063756675 0.06342808 -0.06470899
0.028263802 -0.05171276 0.022344219 0.21718068 0.04519428 -0.01984244 -0.045938846 0.08904987
-0.033009402 0.056209423 0.0020856091 0.015334379 0.019819304 0.008361321 0.037312333 0.03681242
-0.0028582737 -0.080778286 0.100606374 0.08727056 0.006724935 -0.009985331 0.04146598 -0.13032597
-0.011381931 0.08795097 0.044490945 -0.06337439 -0.028544132 0.09054515 -0.059338696 -0.018561479
0.013699016 -0.11576675 -0.04342435 0.069132864 0.04338001 0.007830558 -0.07636039 0.0857776
0.0060798037 -0.05161132 0.06335792 0.012648361 0.04682076 0.048114058 -0.083170876 0.053215113
-0.05288277 0.02411012 -0.057666756 0.13390397 0.039198857 0.05111478 0.033412382 -0.011415738
0.006597268 0.054601576 -0.05882755 -0.029515522 0.06127934 0.080143385 -0.036902074 -0.110077195
-0.0276946 0.0020522536 -0.021181712 0.030865438 -0.06154168 0.09872882 0.07665985 -0.063824825
-0.07505925 -0.015807617 0.118332416 0.14856653 -0.077986635 -0.011705586 0.082151406 0.044563603
0.049767207 0.16990523 0.011292497 -0.056565296 -0.057105627 -0.042923648 -0.026073474 -0.033522163
0.07293395 0.036788594 -0.1401639 -0.07306152 -0.009056719 0.06681765 0.0042762267 -0.041425034

network_body.observation_encoder.processors.0.normalizer.running_mean f4 [25]
00000000: 0000 0000 b6f9 363e 64a3 6f3b 7498 8f3e
00000010: 79a9 3c3f 0000 0000 914f d73d f7b7 183b
00000020: 7da6 8a3e 5b5e 343f 0000 0000 99c4 c13d
00000030: 0658 623b 88be 993e 8eea 3e3f 0000 0000
00000040: d349 c43d e2a6 3739 0c0b ac3e ebc4 393f
00000050: 0000 0000 d349 c43d e2a6 3739 0c0b ac3e
00000060: ebc4 393f
0.0 0.17868695 0.0036565894 0.28046 0.73696095 0.0 0.10513223 0.002330301
0.27080145 0.70456475 0.0 0.09461326 0.003453733 0.30028176 0.7457665 0.0
0.09584393 0.00017514409 0.33602178 0.725661 0.0 0.09584393 0.00017514409 0.33602178
0.725661

network_body.observation_encoder.processors.1.normalizer.running_mean f4 [55]
00000000: 0000 0000 b6c8 003e 9763 6639 76dc 423f
00000010: 3299 723f 0000 0000 8f52 263d 3eb0 c139
00000020: e88f 5b3f cb39 763f 0000 0000 53b2 263d
00000030: eca6 9239 406c 573f 1a2d 753f 0000 0000
00000040: 8462 c43a 8764 1935 0349 623f 4333 713f
00000050: 0000 0000 fdc5 023b 8964 9934 ed0b 5f3f
00000060: f929 733f 0000 0000 67f5 bb3a 0000 0000
00000070: f397 4a3f ea3e 623f 0000 0000 2695 003b
00000080: 0000 0000 f7cf 4e3f 73b9 693f 0000 0000
00000090: c6b5 233b 0000 0000 e0f3 513f 6d43 633f
000000a0: 0000 0000 3d3c 3f3b 0000 0000 64ce 463f
000000b0: 3195 633f 0000 0000 3c24 d43b 0000 0000
000000c0: 6c69 593f 516a 693f 0000 0000 3c24 d43b
000000d0: 0000 0000 6c69 593f 516a 693f
0.0 0.12576565 0.0002197161 0.76117647 0.9476501 0.0 0.040606078 0.0003694314
0.8576646 0.96181935 0.0 0.040697407 0.00027971657 0.8414955 0.95771945 0.0
0.0014982973 5.714323e-07 0.8839266 0.94218844 0.0 0.0019954436 2.857162e-07 0.8712757
0.9498592 0.0 0.0014340103 0.0 0.79138106 0.8837725 0.0 0.001962015
0.0 0.8078608 0.912986 0.0 0.0024980172 0.0 0.8201275 0.8877476
0.0 0.0029180192 0.0 0.7765868 0.88899523 0.0 0.006474046 0.0
0.84926486 0.9117785 0.0 0.006474046 0.0 0.84926486 0.9117785

network_body.observation_encoder.processors.2.normalizer.running_mean f4 [15]
00000000: 0000 0000 0ea8 853e d56f 473b 78ab 323d
00000010: 4041 f63e 0000 0000 14ca 453c 0000 0000
00000020: 97bb 7a3f 55b4 7d3f 0000 0000 14ca 453c
00000030: 0000 0000 97bb 7a3f 55b4 7d3f
0.0 0.26104778 0.0030431647 0.043620557 0.48096657 0.0 0.012072105 0.0
0.9794249 0.9910329 0.0 0.012072105 0.0 0.9794249 0.9910329
