Assets/Training/results/Run 5/DroneBehavior/DroneBehavior-2999897.onnx (onnx, 661208 bytes, 19 tensors)

101 f4 [15]
000000 fb 59 17 3a 8e 7f e2 3e 2f b2 2d 3d 7c 0a 61 3e
       0.0005773601 0.44237942 0.042406257 0.21976656
000010 ca ae 66 3e fb 59 17 3a 1f 57 f1 3d fb 59 17 3a
       0.22527614 0.0005773601 0.11784195 0.0005773601
000020 fb 16 19 3e e9 ff 9c 3d fb 59 17 3a 1f 57 f1 3d
       0.14950173 0.076659985 0.0005773601 0.11784195
000030 fb 59 17 3a fb 16 19 3e e9 ff 9c 3d
       0.0005773601 0.14950173 0.076659985

104 f4 [25]
000000 fb 59 17 3a 62 12 ab 3e fb 59 17 3a 4c d9 c2 3e
       0.0005773601 0.33412462 0.0005773601 0.3805641
000010 75 d7 c3 3d fb 59 17 3a 9c b9 80 3d fb 59 17 3a
       0.095625795 0.0005773601 0.06285402 0.0005773601
000020 03 9a 9e 3e 7d 24 3e 3e fb 59 17 3a d6 71 97 3d
       0.30976877 0.18568607 0.0005773601 0.07394759
000030 fb 59 17 3a 7d 7b 87 3e f0 30 07 3e fb 59 17 3a
       0.0005773601 0.26461402 0.13202262 0.0005773601
000040 42 f7 96 3d fb 59 17 3a 01 aa 8c 3e bd f0 4f 3e
       0.073713794 0.0005773601 0.27473453 0.20306678
000050 fb 59 17 3a 42 f7 96 3d fb 59 17 3a 01 aa 8c 3e
       0.0005773601 0.073713794 0.0005773601 0.27473453
000060 bd f0 4f 3e
       0.20306678

107 f4 [3]
000000 71 7f 3b 41 5d 88 8b 3f 73 a6 5d 41
       11.718614 1.090099 13.853137

95 f4 [25]
000000 fb 59 17 3a e6 88 c0 3e 1d 83 3a 3d 08 1d ee 3e
       0.0005773601 0.37604445 0.045535196 0.46506524
000010 8a 98 81 3e fb 59 17 3a 25 a0 9c 3e cf 26 12 3d
       0.2531169 0.0005773601 0.3059093 0.035681542
000020 e2 87 eb 3e c9 be 8b 3e fb 59 17 3a 16 fc 8f 3e
       0.46002108 0.27293995 0.0005773601 0.28122014
000030 3b 9f 66 3d 0c a7 f2 3e b0 3d 7e 3e fb 59 17 3a
       0.056304198 0.47393072 0.2482822 0.0005773601
000040 01 c5 92 3e 54 02 5d 3c 78 82 f7 3e d7 95 90 3e
       0.28665927 0.013489325 0.48341727 0.2823932
000050 fb 59 17 3a 01 c5 92 3e 54 02 5d 3c 78 82 f7 3e
       0.0005773601 0.28665927 0.013489325 0.48341727
000060 d7 95 90 3e
       0.2823932

98 f4 [55]
000000 fb 59 17 3a 81 9a a9 3e 15 0b 56 3a e3 9d d3 3e
       0.0005773601 0.3312569 0.00081651035 0.41331396
000010 89 63 ed 3d fb 59 17 3a 6f de 4f 3e 27 27 a8 3b
       0.115912504 0.0005773601 0.20299695 0.0051316204
000020 87 24 ae 3e 7e 05 07 3e fb 59 17 3a a5 16 50 3e
       0.34012243 0.13185689 0.0005773601 0.20321138
000030 86 8b 12 3b 3e 27 ba 3e 60 72 0a 3e fb 59 17 3a
       0.0022360994 0.36358064 0.13520193 0.0005773601
000040 e4 1e 2b 3d fb 59 17 3a cb be 9e 3e 7e eb 36 3e
       0.041777506 0.0005773601 0.31004938 0.1786327
000050 fb 59 17 3a 62 6b 45 3d fb 59 17 3a bd b8 ad 3e
       0.0005773601 0.04819811 0.0005773601 0.33930007
000060 2a ba 1f 3e fb 59 17 3a 0a 6a 27 3d fb 59 17 3a
       0.1559836 0.0005773601 0.04087261 0.0005773601
000070 26 53 ca 3e 81 e0 7e 3e fb 59 17 3a c6 c2 43 3d
       0.39516562 0.24890329 0.0005773601 0.047793172
000080 fb 59 17 3a de 56 c6 3e 5c 79 56 3e fb 59 17 3a
       0.0005773601 0.3873815 0.20944732 0.0005773601
000090 3d 12 1d 3d fb 59 17 3a 62 e2 b9 3e 3c 12 7f 3e
       0.03834747 0.0005773601 0.3630553 0.249093
0000a0 fb 59 17 3a 15 cf 25 3d fb 59 17 3a 59 f5 d1 3e
       0.0005773601 0.040480692 0.0005773601 0.41007498
0000b0 74 07 74 3e fb 59 17 3a 57 88 51 3d fb 59 17 3a
       0.23830968 0.0005773601 0.051155414 0.0005773601
0000c0 4c d4 ae 3e 63 ad 63 3e fb 59 17 3a 57 88 51 3d
       0.34146345 0.2223411 0.0005773601 0.051155414
0000d0 fb 59 17 3a 4c d4 ae 3e 63 ad 63 3e
       0.0005773601 0.34146345 0.2223411

action_model._continuous_distribution.log_sigma f4 [1, 3]
000000 4b 06 45 3c 47 21 a1 3b cb a0 03 bc
       0.012025426 0.004917297 -0.0080339415

action_model._continuous_distribution.mu.bias f4 [3]
000000 34 d6 ef bb 9a 10 4e bc c7 02 65 ba
       -0.007319236 -0.0125772 -0.00087360706

action_model._continuous_distribution.mu.weight f4 [3, 256]
000000 43 1a 4a 3c d9 23 58 bc f6 e2 f7 3b 43 17 ff 3b
       0.012335363 -0.0131921405 0.0075648976 0.0077847554
000010 74 49 69 3c 0c d5 eb bc ac 91 a5 bc 93 bc 2a 3b
       0.014238704 -0.028788112 -0.020211063 0.002605234
000020 fc 06 d2 3b 41 33 27 bd c1 e5 0a bb 28 5e 27 3c
       0.006409524 -0.040820364 -0.0021194073 0.01021532
000030 d8 3d 3a bc 59 a3 ba bc 0f 45 e0 bc 2e 5a 0e 3c
       -0.011367284 -0.022782968 -0.02737668 0.008688493
000040 14 73 46 3b 18 97 bb 3c 0d e3 54 b9 e0 82 05 3b
       0.0030280994 0.022899196 -0.00020302479 0.0020372197
000050 dc 9a 42 bc e3 c0 e6 3c 1b e2 8f bc e1 65 16 3d
       -0.011877742 0.028168147 -0.01756387 0.036718253
000060 ee 01 15 3c 57 9b b0 bc 86 d5 c6 3b 45 7e 5e bc
       0.009094698 -0.021558447 0.0060679344 -0.01357991
000070 7d a3 fc 3b 45 c6 dd 3c 0f 33 cb bc 16 97 c4 3c
       0.007709919 0.027072081 -0.02480462 0.023997825
000080 f5 09 2b 3b bf 24 c6 3c 7c bc d5 3c 19 ea 11 3d
       0.0026098464 0.024187444 0.026090853 0.035623644
000090 6f 5b a2 3c fc 9b 85 3c 07 4d 83 3b c2 c6 7b 3c
       0.01981899 0.01630973 0.004006985 0.015367212
0000a0 85 d3 5a 3b 7b dc 7d bc fd cc ea bc 51 a9 3d 3b
       0.0033390236 -0.015494461 -0.0286622 0.0028940032
0000b0 8e 6a 3b 3b e5 ca 9f 3b cc 69 14 bc 17 cc 02 3d
       0.0028597447 0.004876482 -0.009058427 0.031932916
0000c0 b8 2f a8 bb e8 ac c5 3c 24 1d 04 bc f6 4f b6 3c
       -0.0051326416 0.0241303 -0.008063588 0.022254925
0000d0 9a 67 99 3c 58 9a 9c 3c 13 8c a5 3a 68 09 82 3c
       0.018726159 0.019116566 0.0012630246 0.015873626
0000e0 a8 79 69 bc 30 08 58 bb 2f 7a a6 bb ce 8b 38 3b
       -0.0142501965 -0.0032963865 -0.0050804834 0.0028159502
0000f0 47 e0 91 bb 1f 18 f7 bc 1b 87 a7 3b e3 ef da bc
       -0.004451785 -0.030162869 0.0051125414 -0.026725715
000100 2b 7f f5 bc df 80 11 bc 74 2d a4 bb 98 d0 83 bb
       -0.029967865 -0.008880823 -0.0050103012 -0.004022669
000110 fa 3a f3 bb cc fc 4e bc 21 49 a0 3c d8 d9 b9 3b
       -0.007422802 -0.012633514 0.01956612 0.005671721
000120 25 b5 12 bd 97 c6 15 3b 78 f4 d6 ba 91 47 cc 3a
       -0.035817284 0.0022853964 -0.0016399762 0.0015585293
000130 b1 c8 c2 3c 14 1c 76 bd 05 5a 94 3b f3 71 48 bc
       0.023777338 -0.06008537 0.0045273327 -0.012234199
000140 16 ca e0 3b bd 83 35 3c 6d 21 4c bb 81 46 95 3c
       0.006860028 0.011078772 -0.0031147853 0.018222095
000150 99 ee d4 bc af 5b 43 3c 0a 7b 0a bd e4 0c 10 bd
       -0.025992678 0.011923715 -0.033808745 -0.035168543
000160 99 e0 77 3b 6d b7 68 bc 22 bf f1 bb fc 88 2a 3c
       0.003782308 -0.014203888 -0.007377521 0.010408636
000170 99 76 eb 3b 87 5d 1a bd da bd 8f bc 42 73 30 bc
       0.007185769 -0.03768685 -0.017546583 -0.010769667
000180 ff 0a db 3a c3 24 b9 3c 03 75 e6 bc 39 7c e3 3a
       0.0016711651 0.022600537 -0.028131967 0.0017355747
000190 22 e2 39 bc d4 1c 4a bc 14 5f f2 bc 2b 40 e1 3c
       -0.011345418 -0.012335975 -0.029586352 0.027496418
0001a0 9d d2 71 bb 37 b5 b4 bb 78 3d ad 3a 14 f0 8d 3c
       -0.0036899217 -0.0055147666 0.0013217172 0.017326392
0001b0 96 35 94 bc 9d 5b 00 bd d7 af 8a bb 2e 72 65 3c
       -0.018091958 -0.03133737 -0.0042323875 0.014004273
0001c0 e7 dd 11 bb 34 01 dc b9 fa 9d 32 bc ba 5b 15 bc
       -0.0022257508 -0.00041962566 -0.010901922 -0.009116108
0001d0 3f 03 08 bd ac 08 ee bc 9f 1a 2c 3c 40 db 9c bc
       -0.03320622 -0.02905687 0.010504394 -0.019147515
0001e0 87 75 ff bb e1 d8 73 bc 83 08 bb bc 58 d3 67 bb
       -0.007795993 -0.014883251 -0.022831207 -0.0035373773
0001f0 e7 6b b4 3c 39 e5 e4 3b b9 91 cb 3b 52 1f 8b bc
       0.022024108 0.0069853333 0.00621244 -0.016982708
000200 73 34 14 3c 6e 7d c2 bc 1b 5f 8b 3b 69 98 8a bc
       0.009045708 -0.02374145 0.004253281 -0.016918378
000210 1f 84 04 bc 6a b0 48 3c 9d 86 83 3c 88 7b b1 3c
       -0.008088141 0.012249092 0.0160554 0.02166535
000220 77 50 c7 3c 7c 7a 70 3c d5 f6 e9 bc 6d 71 de 3c
       0.02433036 0.01467764 -0.028560081 0.027153695
000230 05 0f 01 3c 92 6a 06 3d b8 55 a4 bc 05 e6 47 3c
       0.007877116 0.032816477 -0.020060405 0.012200837
000240 2f 4f 87 bc a1 ec 8f bc 72 41 1d bc 4c b6 b8 ba
       -0.01651725 -0.017568888 -0.009598123 -0.0014092415
000250 84 8a 6e bc 6b 10 cd bb 69 53 ad 3c 62 b3 8c b9
       -0.014559392 -0.0062580607 0.021157937 -0.00026836531
000260 56 0a fb bc 0a b6 a5 bb d9 2b 88 bc f5 77 63 bc
       -0.030644577 -0.005057101 -0.01662247 -0.01388358
000270 7e f8 58 bc 72 4e bf 3b e1 32 0f bc c2 06 c2 3b
       -0.013242839 0.005838209 -0.008740158 0.0059212158
000280 2a ac d8 3c 77 b0 88 bc b3 98 fa bb 15 a7 a4 3c
       0.026449282 -0.016685707 -0.0076475977 0.020099202
000290 98 0d f3 bc fd c1 6f bc fa f3 e6 ba 97 cc 9a 3b
       -0.029669568 -0.014633653 -0.0017620318 0.004724096
0002a0 42 10 8f bc 61 69 0d bd 1b 01 9a 3b 9d 5f d7 3c
       -0.017463807 -0.034524325 0.004699839 0.02629071
0002b0 86 62 be bc 19 44 32 bc 2d c8 6a bc b5 8a ed 3c
       -0.023240339 -0.010880494 -0.014329952 0.028996805
0002c0 31 84 bf bc f3 ca e9 3b 98 f0 75 bc f3 03 aa 3c
       -0.023378463 0.007134789 -0.015010975 0.020753836
0002d0 73 07 09 bd f2 93 c5 bc d8 b3 3e bc de 2d 3a bc
       -0.03345437 -0.024118397 -0.011639558 -0.011363475
0002e0 d7 b3 4f 3b 56 20 fd 3b f6 53 ad 3c b5 4b 32 bb
       0.0031692886 0.007724802 0.0211582 -0.002720577
0002f0 85 db 0a 3c 15 7a e4 bc 41 9a 83 bc 02 fc 6f 3c
       0.008475189 -0.027890244 -0.016064765 0.014647486
000300 5c 0f 73 3c 21 02 63 3c 2e 4f 1e 3c 44 49 af 3c
       0.014835205 0.013855488 0.009662433 0.02139724
000310 6a da 82 3c 55 65 f8 3c 43 20 f3 3c 0d 2e 2d 3c
       0.015973289 0.030321756 0.02967847 0.010570061
000320 d4 e0 b7 bc 54 d5 b4 3c 44 aa a1 bc 84 22 98 bc
       -0.022446074 0.022074379 -0.01973451 -0.018571146
000330 1c 6c 15 3c ba 1e 1b 3c 16 a9 6e 3c 55 d6 e7 3c
       0.009120014 0.009467775 0.01456668 0.028300444
000340 f7 ed 8e bc ce 3d af 3c 56 64 f2 3c 07 f0 4f ba
       -0.017447455 0.021391775 0.02958886 -0.000793219
000350 69 29 73 bc 79 a3 a6 3c 34 75 73 3c a5 0d d9 bb
       -0.014841416 0.020341622 0.014859486 -0.006623941
000360 83 05 f4 bc 44 9c 03 bd 80 fd 3e 3b 9b 02 2d bc
       -0.029787784 -0.03213145 0.0029142797 -0.010559703
000370 3e ac 54 3c 54 b1 39 bc e4 5e 00 3c 25 f3 e3 3c
       0.012980519 -0.011333782 0.007835124 0.027825901
000380 31 19 13 bc 8b 68 41 3d b8 0b f3 ba 93 38 b2 3c
       -0.008978174 0.04721884 -0.0018542921 0.021755492
000390 8b a6 bc 3c cd b0 fd bc 4a c1 c3 3b 77 97 17 bd
       0.023028633 -0.030968094 0.0059739696 -0.037009683
0003a0 df 75 42 bc 22 62 62 3c f5 c9 14 3b 10 46 78 3c
       -0.011868923 0.013817342 0.0022703384 0.015153423
0003b0 9a 05 1f 3d 4d 1f 5f 3b d6 f0 cb bb d4 0b a2 bc
       0.0388237 0.0034045756 -0.0062237782 -0.01978103
0003c0 c8 10 e7 3b 3f b0 86 3c 54 5a bb ba 0c 78 39 3d
       0.007051561 0.016441463 -0.0014293888 0.0452805
0003d0 6e c4 38 3c a3 3b 0f 3d 3f 34 b3 3c e6 2e b2 3c
       0.011277301 0.034968983 0.021875499 0.021750879
0003e0 fa f3 c8 ba 03 cb 47 3c 44 f3 44 bc 60 ea 22 bb
       -0.00153315 0.012194398 -0.01202089 -0.0024858937
0003f0 cf 37 fd 3c 82 9a 08 3b cb 96 06 3d 80 ac d9 3c
       0.0309104 0.0020844047 0.03285865 0.026571512

network_body._body_endoder.seq_layers.0.bias f4 [256]
000000 f9 6c b0 3c 6c 2e 08 3d fd 5f ac 3b 0f e4 3f 3b
       0.021536337 0.033247396 0.005260466 0.002928022
000010 92 28 22 bc d6 ef a0 3b b0 1b 96 3c db 32 9c bb
       -0.009897368 0.004911403 0.01832375 -0.0047668046
000020 b7 c0 a2 3c 28 db ec bb 92 04 86 3c 2a a2 ac 3c
       0.019867284 -0.007228274 0.016359601 0.02107342
000030 6d 4c f9 3b 35 51 d3 bb 2d b2 23 3c 61 d1 52 bc
       0.0076079876 -0.0064488896 0.009991211 -0.012867303
000040 5e 06 28 bc 22 57 9c bb 98 cf 59 3b c8 8c e0 3c
       -0.010255424 -0.004771129 0.0033235308 0.02741088
000050 7d af 02 3c 93 b8 5a 3c 30 e0 43 3b a5 1d ac 3a
       0.00797641 0.01334967 0.0029888265 0.0013131393
000060 a2 cf ef ba a1 6a f6 3b 63 57 bc bb bd 50 ad 3b
       -0.0018296132 0.0075200354 -0.005747722 0.005289166
000070 3a df bd 3c e2 bb 53 bb 07 c4 13 bc 9e 3d 14 3d
       0.023177732 -0.0032308032 -0.0090189045 0.036191575
000080 6c 57 b0 3b 6f 40 e1 3b 0a 39 b3 3c df 42 e2 3b
       0.0053815152 0.006874136 0.021877784 0.0069049443
000090 92 5d 91 bb 9b 14 09 3d 56 87 6a 3c cd 1e 3d 3b
       -0.0044362033 0.033466917 0.014314493 0.002885747
0000a0 71 86 de 3b ff 4f e0 bc 71 7b cc bb 0a ab 63 3c
       0.006790929 -0.027381895 -0.0062403013 0.013895759
0000b0 41 9a 9b ba 7a e7 15 3d 11 de 50 3c 6b 8d 68 bc
       -0.0011871533 0.036597706 0.012748257 -0.014193873
0000c0 ac cd ac 3c 95 e9 29 3d 02 3b 74 3b 7b 2b 28 3d
       0.021094166 0.041482527 0.0037266617 0.04105709
0000d0 28 13 bb bb 05 58 e1 3c be ce c8 bb ec 4b 27 bb
       -0.0057090707 0.027507791 -0.006128161 -0.002552743
0000e0 3d 3c 7e 3c 12 24 96 3c 3a 6d ae 3c fd 7f 41 bc
       0.015517292 0.018327747 0.021292318 -0.0118103
0000f0 d5 69 9c 3c 84 59 11 3c d1 53 6e 3b ec be dd ba
       0.019093433 0.00887144 0.0036365876 -0.0016917861
000100 1d 3a dc bb 0d 29 01 3d fe 31 58 3a 68 42 d5 3c
       -0.006720795 0.03153329 0.00082471955 0.026032642
000110 62 1c 73 bb 8c 97 71 3c 59 aa fc 3b fa 57 6c bc
       -0.0037095775 0.014745604 0.0077107367 -0.014425272
000120 04 e1 a0 ba 7a 7f cd 3c 12 9a 11 3c 57 cc 12 3d
       -0.0012274091 0.0250852 0.008886831 0.035839405
000130 5e e4 cc bb 15 47 bd 3c 14 95 f1 3b 89 79 f5 3c
       -0.0062528094 0.023105184 0.007372508 0.029965179
000140 a9 b7 ec b9 fe 6f fe ba b6 78 22 3d 7d e5 03 3b
       -0.00045150265 -0.0019412038 0.0396659 0.00201258
000150 5a 71 91 bb 33 aa 09 3d a3 b1 f9 bb de 05 8f 3b
       -0.0044385614 0.03360958 -0.007620053 0.004364713
000160 26 c4 15 3d 0e 32 ce ba 5e a9 77 bc ec 01 2e bb
       0.036564015 -0.001573147 -0.015116064 -0.0026551438
000170 1d 94 e4 bc b0 db e4 bc 04 9d 49 3d a3 76 ce 39
       -0.027902657 -0.027936786 0.049222007 0.00039379773
000180 e0 4b e0 3b ae 0b 8d ba 23 86 3a bb 34 07 bb 3c
       0.0068449825 -0.0010760927 -0.00284613 0.022830583
000190 65 76 af ba 63 d1 6b b9 3f e1 cf bb 4f 13 7d bc
       -0.0013386725 -0.00022489349 -0.00634399 -0.015446498
0001a0 d1 f9 45 3c 41 29 4f 3d 08 ab 9e 3c 30 0a 8c 3c
       0.012083487 0.050576452 0.019368663 0.017094702
0001b0 d5 9c 68 3c 15 10 15 bc ca dd c6 b9 b9 b8 5e bb
       0.014197548 -0.009098073 -0.0003793075 -0.0033984615
0001c0 be 7c 69 3c 86 fb c3 3c 7f cb 2e bb a7 32 0c 3c
       0.014250932 0.023923647 -0.0026671586 0.008556998
0001d0 4b f0 b9 3c 79 ee 07 3c 2f 43 d0 3c ca ca f2 3b
       0.022697588 0.008296602 0.02542266 0.0074094282
0001e0 2c c1 01 3c 5f ba 3f bb 5e 89 6c 3c 6a ff a7 3c
       0.007919591 -0.0029255373 0.014437048 0.020507533
0001f0 1d f6 98 3c ef c6 32 3c 26 26 3a 3c d4 14 30 3c
       0.018672043 0.010911687 0.011361634 0.010747153
000200 1d 44 b2 bb 6e d0 c7 3c c7 a0 60 bc 10 9c 95 3b
       -0.0054402486 0.02439138 -0.013710207 0.0045657232
000210 8f 3c d0 bb b2 4f 95 bb 47 d2 28 ba 4b ee 8d bb
       -0.0063548754 -0.0045566196 -0.0006440025 -0.0043313853
000220 c4 0d 8f 3c 73 c9 b1 bb 2b cf bf 3b 1e 3b 08 3b
       0.017462619 -0.005425626 0.005853554 0.002078719
000230 c2 c8 d1 3b ba b8 88 3c 4f a9 e0 3c 4d 91 86 3c
       0.006402106 0.016689647 0.027424483 0.016426707
000240 58 3b 07 3c 23 ce dc 3c 25 3a bc 3b e4 24 33 3c
       0.008253895 0.026953762 0.005744236 0.010934088
000250 1a 67 0d 3d 89 2c 3b bb 06 58 46 3c 65 45 97 3c
       0.034522153 -0.002856048 0.012105947 0.018465707
000260 c9 fe 40 3c 15 af 86 bc 29 ab 56 bc 5c 42 28 3c
       0.0117794955 -0.016440907 -0.013102331 0.010269728
000270 22 3e d0 bb bf 87 22 3c 73 62 de bb b6 f2 18 3c
       -0.006355063 0.00992006 -0.0067866384 0.009335211
000280 d6 90 d1 3c 11 8a 37 3c 91 0f 7a 3c e3 65 9a 3c
       0.025581758 0.011202351 0.0152625 0.018847411
000290 59 d0 ef 3c b3 b8 0c 3c a9 e7 6a 3a 27 80 18 3c
       0.029274153 0.008588958 0.00089609117 0.009307898
0002a0 37 cd ce 3a 14 71 e9 ba 0b 5d 0c 3d 3e de ed 3c
       0.0015777712 -0.0017810189 0.03426842 0.029036637
0002b0 b0 08 49 bb 60 e4 f8 bb 99 98 7e 3a e1 d1 7a bc
       -0.0030675344 -0.007595584 0.000971207 -0.015308828
0002c0 f2 8f 6f 3c 81 f2 90 3b 93 31 11 ba 62 c4 0b 3d
       0.014621722 0.00442344 -0.0005538698 0.034122832
0002d0 48 e6 84 3c 66 cd 8f 3b 20 44 60 3c f5 b7 11 bc
       0.016223088 0.004388499 0.013688117 -0.008893956
0002e0 2e 60 10 bc e5 67 00 3d 73 4e 08 bc b4 d1 18 3d
       -0.0088119935 0.03134908 -0.008319485 0.037309363
0002f0 5d 08 c0 3c 2e 34 9e bb 9f 51 c9 3c 33 ef 04 3d
       0.023441488 -0.0048279976 0.024575053 0.03245468
000300 2b c3 e0 3b e2 85 b6 ba 88 d3 a6 bc b4 d9 7c bc
       0.0068592033 -0.0013925398 -0.020364538 -0.015432764
000310 64 08 40 bc a1 c9 6e bc 7a 97 b9 3c c6 f7 cb bb
       -0.0117207505 -0.014574439 0.022655237 -0.0062246053
000320 4d eb 13 bc 38 52 99 3c 1c cb e3 bb e6 b6 cf 3b
       -0.009028268 0.018715963 -0.0069517028 0.006338942
000330 7f 58 20 3b 7b 49 ae 3c 3a 83 52 3c bf 17 1a bc
       0.002446681 0.021275273 0.01284867 -0.009405076
000340 ba f0 11 3b 85 54 c3 3b 44 72 70 3b 65 0e 5d b9
       0.0022268728 0.0059610032 0.0036689201 -0.00021081565
000350 b9 df 11 3c 75 2c 45 3c 34 a0 23 3c 49 a6 1a 3b
       0.008903437 0.012034525 0.009986926 0.0023597649
000360 f7 09 ec 3b 9e d6 83 bc 95 4b f7 3b 7c 3e 22 b9
       0.0072033363 -0.016093548 0.007546852 -0.00015472801
000370 a6 92 69 3c c5 12 29 bc 0f 88 54 3c aa ef 8e 3c
       0.014256155 -0.010319416 0.012971892 0.017448265
000380 06 b4 c2 bb d5 fb 61 3c 83 ed 2f 3b 68 c9 ab 3b
       -0.0059418706 0.013792952 0.002684445 0.0052425154
000390 41 55 52 3c 04 25 b1 3b 36 d9 31 3a 03 9c 0e 39
       0.012837709 0.005406024 0.0006784381 0.00013600294
0003a0 a4 50 cf 3c db 80 cb bb 1c 65 ff 3a b1 7e a4 3a
       0.025307007 -0.006210429 0.0019485089 0.0012549964
0003b0 d2 0d 97 3c 86 51 97 3c 0e 46 62 bc 83 72 98 3b
       0.018439207 0.01847149 -0.013810648 0.0046523227
0003c0 ad 8f 0d bc 9e ac 9b 3c b6 da 4c 3c 17 06 4f 3c
       -0.008640212 0.019003209 0.012503317 0.012635729
0003d0 d7 bb fb 3c 3a 48 eb 3c 71 0a 1d bb ad 45 d4 3c
       0.030729217 0.028720964 -0.0023962522 0.02591213
0003e0 ca 16 f6 3c af 85 ea b9 1b 75 d6 3b b4 2f f4 bb
       0.030040164 -0.0004473156 0.006544722 -0.0074519757
0003f0 3b c3 d9 bb 46 9a a3 bc d4 58 bb 3c a6 c4 80 3c
       -0.0066455877 -0.019971024 0.022869505 0.01571877

network_body._body_endoder.seq_layers.0.weight f4 [256, 123]
000000 6e 3e ec 3b d4 cb ab 3d f1 8b 6d 3d 84 f2 68 3e
       0.0072095906 0.083884865 0.057994787 0.22748762
000010 99 8a c1 3c ca 8d f0 bb da 6a a2 bd b5 de 5e bd
       0.023625659 -0.0073411213 -0.079305366 -0.05441161
000020 92 1d 65 bd f8 0e 8d 3b 89 3c 56 bd bf f9 6d 3d
       -0.055936404 0.004304763 -0.052303825 0.058099505
000030 bc 98 1f bd 77 87 47 bd 25 4a df 3d b0 8d e0 3d
       -0.03896402 -0.048713174 0.10902814 0.10964525
000040 99 d7 09 3d 3c 7c d4 bc 0a 86 51 3d 31 c9 09 bd
       0.033652876 -0.025938146 0.05115322 -0.033639137
000050 19 7c 02 be 1d 42 24 ba 0c 56 14 3d 18 40 2c 3e
       -0.12742652 -0.0006265955 0.036214873 0.16821325
000060 6a d8 15 be 34 82 b4 be f2 a5 dd 3c fe eb fe bc
       -0.14633337 -0.35255587 0.027056668 -0.03111839
000070 bf d6 1c 3d eb ad 9b bc 3d ae 09 bc 30 0b 4b 3d
       0.038290735 -0.019003829 -0.008403358 0.049571216
000080 1f 92 42 3d 4d 24 96 3d a2 7b 59 3e cc b2 c6 bc
       0.047502633 0.073311426 0.21238568 -0.024255179
000090 ba c8 01 be 22 d2 17 3b 46 bc 23 3d 2d 7c ee 3d
       -0.12674227 0.002316602 0.039974473 0.116447784
0000a0 91 a7 a7 3d fb a6 9c bd 27 86 b2 3d bd 8f 9a 3d
       0.08186258 -0.076490365 0.08716994 0.07546947
0000b0 84 82 5f 3c de 84 0d bc e2 69 d4 bd 03 b6 55 3d
       0.013641957 -0.008637635 -0.10371758 0.052175533
0000c0 d9 95 a4 bd 25 69 77 3c 8f 0b 39 3d ad 41 ae 3c
       -0.08036394 0.015100752 0.04517704 0.021271551
0000d0 83 bc 7f 3d 66 0f 14 3d c2 26 09 3d 6c 64 6a 3d
       0.06243564 0.036147498 0.033484228 0.057224676
0000e0 0d 5c 94 3d 3c 2c 49 be d8 44 e8 3d 4a 84 33 3d
       0.0724412 -0.1964578 0.11341256 0.043827333
0000f0 62 0f 47 bd ce 38 2c 3e f3 5a 75 3d d4 dd ad bd
       -0.048598655 0.16818544 0.05990119 -0.08489576
000100 e4 0a 8b bd 89 f3 a4 3c 37 bd fa 3c 86 99 56 3c
       -0.067891866 0.020135658 0.030607803 0.013098126
000110 83 2e ad bc 96 45 36 3d 6f e1 8d 3d 07 0b 21 bc
       -0.021140343 0.044499956 0.06927764 -0.009829289
000120 a0 ae 69 bd ee 93 13 3e 2a 5c de 3d 78 bb 52 3e
       -0.0570513 0.144119 0.10857423 0.20579326
000130 c8 ff 24 be 0c 5e 1b bd e4 d9 22 3d ac 33 da bd
       -0.16113198 -0.037931487 0.039758578 -0.10654387
000140 e3 b5 31 3c ac 74 a2 3d 96 ca 4c be f5 78 00 bd
       0.010846588 0.0793241 -0.19999155 -0.031365354
000150 19 f6 9f 3d f6 18 2e 3e a2 ed 6e 3d da 39 19 3d
       0.07810611 0.1700171 0.058332093 0.037408687
000160 08 26 32 bd 38 a3 59 3d 48 88 7b bc 71 f4 2e 3c
       -0.0434933 0.053134173 -0.015352316 0.010678397
000170 a4 c4 b1 bd da 57 1e 3c 84 7b 20 bd 48 fd 21 3d
       -0.08680084 0.0096645 -0.039180294 0.03954819
000180 fd cd 53 3b 13 f8 a5 bb 7c ea 53 3d 40 2d 2f bd
       0.0032318824 -0.005064973 0.051737294 -0.042767763
000190 33 27 77 bd 64 7c 0c 3d bb 9c d4 bd d7 23 46 3e
       -0.060340118 0.034298316 -0.103814565 0.1934961
0001a0 a3 cf 39 bd 44 9c 5d bc 1d e1 16 be 4c 4d 7e bc
       -0.045364033 -0.013526026 -0.14734311 -0.015521359
0001b0 80 c8 c7 bd 12 9a d6 3c be 74 2e be 1a 11 06 3e
       -0.09755039 0.026196513 -0.17036721 0.13092461
0001c0 47 d5 38 3d c6 27 24 3c 9d 84 91 3d b1 5e 21 3d
       0.045125272 0.010019248 0.07105372 0.039396945
0001d0 18 43 cd bc 1d ad 06 bd 4e 62 0e 3d 6b c4 00 be
       -0.025056407 -0.032879937 0.03476172 -0.12574928
0001e0 45 32 06 be 00 3b 0f 3e 8e e3 d2 bd 21 0d 9c bc
       -0.13105114 0.1398735 -0.10297309 -0.01904923
0001f0 90 32 2d be e6 ca d9 3d c1 65 d6 3d 63 cc d9 3d
       -0.1691382 0.10634403 0.10468627 0.10634687
000200 08 2b 4f 3e 1d 6a 18 bd ba a1 e6 bb c6 4d 97 3d
       0.20231259 -0.037210573 -0.0070383223 0.07387881
000210 b2 d6 89 3d 3a 6e 1c be ca da 13 bc ca c1 27 be
       0.06730403 -0.15276423 -0.009024331 -0.16382518
000220 df 16 95 3d 87 99 6b 3d 80 44 26 3e 5f e5 8f 3d
       0.07279753 0.057519462 0.16237068 0.07026171
000230 e0 36 2b 3b c9 ea 02 be 9e 91 04 3d c7 7b f0 bd
       0.0026125237 -0.12784876 0.032365434 -0.11742359
000240 90 3f 8b 3d 26 55 a3 bd c2 b4 91 3d d7 31 15 bd
       0.06799233 -0.07975225 0.07114555 -0.036424484
000250 51 61 38 3a ae bd 4a be 76 f6 ec 3d 7e df 32 3e
       0.0007033544 -0.1979892 0.11570446 0.17468068
000260 60 27 b0 3d 7a 2b 9e bc f8 f8 f6 bc 78 58 03 be
       0.0860126 -0.01930784 -0.030148014 -0.12826717
000270 59 92 c9 3b 4a 11 a5 3d 56 b2 cf 3c f4 ac 16 be
       0.006151479 0.08059938 0.025353592 -0.14714414
000280 b6 aa da bc 9b a7 a8 3b e7 ce e3 3d 7c 19 3e bd
       -0.02669273 0.0051469333 0.11123448 -0.046411023
000290 61 72 16 3d f3 20 82 bc 6d 7a d8 bd e8 9f b8 bd
       0.036730174 -0.015884852 -0.10570226 -0.09014875
0002a0 62 f4 a2 3d 47 73 b6 bd ef 95 24 3c 53 b2 1b 3c
       0.079567686 -0.08908706 0.010045513 0.009502965
0002b0 0e 56 40 3d 74 81 32 3e f7 0a 40 bd 7c cf 03 3e
       0.04695707 0.17432195 -0.046885457 0.12872118
0002c0 68 fa 61 3d 28 51 33 bd 70 07 17 bd a6 3d 99 bc
       0.055170447 -0.04377857 -0.036872327 -0.018706154
0002d0 d6 89 80 3b 83 77 e5 3d 39 df 50 3d 4c 51 6f 3d
       0.0039226813 0.11204436 0.05099413 0.05842714
0002e0 83 27 91 3d b4 d6 e4 bc 48 c0 f0 bc ef 83 1c 3d
       0.070876144 -0.02793441 -0.029388562 0.03821176
0002f0 01 fd 2c bd be 98 26 3d 9d f5 7c 3d ea 55 d8 3d
       -0.04223347 0.04067301 0.061757673 0.10563262
000300 e8 d0 7e ba cf 5c 14 be 6f a0 0a bd 4b fd 20 3c
       -0.00097204605 -0.14488529 -0.033844408 0.009826015
000310 b5 e2 d9 bc 7f c9 88 3d 35 01 04 be 7c 10 9e bc
       -0.02659736 0.06679057 -0.12891085 -0.01929497
000320 8a 53 97 bd 41 e3 d7 bc 36 71 06 be a9 46 a9 bc
       -0.07388981 -0.02635348 -0.13129124 -0.020663576
000330 d6 91 c4 3d 76 83 71 bd 42 a2 cb 3d 5e c1 c1 bc
       0.095981285 -0.05896326 0.099430576 -0.023651775
000340 d1 c9 ca bd e6 a2 dd 3d ec 1e 1a bc 79 c3 cf bd
       -0.09901775 0.10822086 -0.009406786 -0.10144705
000350 a2 52 e7 bc ef 10 ee bd 61 73 c4 3c a9 a6 67 3c
       -0.028237645 -0.116243236 0.023980798 0.014138856
000360 9d 9b a8 3d 2b 4e 32 3e 27 18 85 3d 60 05 ae bd
       0.08232806 0.17412631 0.06498747 -0.08497119
000370 78 c0 3b 3d e0 b0 32 be 2d 73 c4 bc 6e 61 d0 bd
       0.04583785 -0.17450285 -0.023980701 -0.10174833
000380 13 0d 08 3d 06 e7 a4 3d ec f5 eb bd 35 b9 81 3e
       0.033215594 0.08051877 -0.11521515 0.25336614
000390 a2 e5 6b bd 4b ef 4f be 2c 20 42 bd b2 f0 84 3d
       -0.05759204 -0.20306127 -0.047393963 0.064912215
0003a0 be b0 07 be dd 45 59 bd 51 ce 36 3c f3 ed 60 bd
       -0.13251016 -0.053045142 0.011157588 -0.054914426
0003b0 75 2a 46 3d 0f 0a cb 3d c3 c3 00 3d 32 d6 50 3d
       0.048380334 0.09914028 0.031436693 0.050985523
0003c0 fc 30 10 3c 30 91 a8 3c 28 79 16 3d a2 64 0c 3c
       0.008800741 0.020577043 0.036736637 0.008568915
0003d0 72 a5 93 bc 11 23 27 3d 66 7e 0a be 64 63 81 bc
       -0.018023226 0.040804926 -0.1352478 -0.015794463
0003e0 ac cb 3c be 30 7f 54 3c fd 1a 8c bd c1 6e 81 bc
       -0.1843707 0.012969777 -0.06841085 -0.015799882
0003f0 de 4a c8 bd c6 4f 86 bc b9 4f 88 3d d3 9e 16 bd
       -0.09779905 -0.01639546 0.06655831 -0.03677256

network_body._body_endoder.seq_layers.2.bias f4 [256]
000000 5d f3 c2 3a f8 4a 44 3c 05 06 80 3b 0a 50 c9 3c
       0.0014873553 0.011980765 0.0039069676 0.024574298
000010 9e f1 34 3a 37 58 7e 3c 69 b3 1e bc d2 35 d4 3b
       0.0006902459 0.015523962 -0.009686329 0.0064761424
000020 06 a5 47 bb be 53 82 bb 4f 55 84 ba 64 bb 47 bb
       -0.0030463352 -0.003977268 -0.0010096225 -0.0030476684
000030 5a fd 0c 3b 12 df 75 3a 34 e9 4b 3b d7 f9 e7 3c
       0.0021513314 0.00093792484 0.0031114342 0.028317375
000040 34 1c 27 3a 1b be 22 3d 6c 48 86 3b 3f ba 00 3c
       0.0006374747 0.03973208 0.004097989 0.0078569045
000050 3f 09 7a bb b4 02 ba b9 cf 1f 4b 3c 08 eb 9a 3a
       -0.0038152484 -0.000354787 0.0123977205 0.0011819312
000060 7c c8 3b bc 1b 25 72 3c da 4b 07 3c 3a c0 c0 3b
       -0.011461373 0.014779354 0.0082578305 0.00588229
000070 ab 3c 9c ba df dc 3a ba 7d c7 df 3c ab 0b 57 bc
       -0.0011919936 -0.0007128249 0.027316803 -0.01312534
000080 88 4c 86 bc ae af e0 ba 89 7f 85 bb d7 f6 a6 3c
       -0.016393915 -0.00171422 -0.0040740413 0.020381374
000090 c7 16 40 3c c6 db 26 3c 14 8e 3a ba 2f 21 90 bb
       0.011724181 0.010184234 -0.0007116508 -0.004398487
0000a0 4e 78 06 3c c1 a5 7f 3c 8d 8f 0f 3c d6 49 c7 3c
       0.008207394 0.015603484 0.0087622525 0.0243272
0000b0 ad b1 9a bb 6b 89 80 3c 25 be 5b 3c dc a6 c2 3a
       -0.0047208876 0.015690526 0.013412033 0.0014850753
0000c0 c2 6f 1b bc 2a b9 eb 3c d2 4f 88 3c 92 c2 07 bc
       -0.009487094 0.028774817 0.016639624 -0.008286135
0000d0 98 ac e9 3b 92 bd 80 3b d2 81 ae bb 41 84 cb 3b
       0.0071311705 0.0039288485 -0.0053255344 0.0062108343
0000e0 f8 bb 18 38 6b cb 27 bc df 9e 00 3d 7b 8d 0f ba
       3.6414684e-05 -0.01024137 0.03140151 -0.00054760993
0000f0 7b 2c 42 bb 79 f2 fa 3c 6d 27 20 bc 9a 1b 44 bb
       -0.0029628563 0.030633198 -0.009775025 -0.0029923678
000100 f3 59 c2 3c 62 be 3b 3c a7 d1 bc 3b a3 ff 01 3c
       0.023724532 0.011458965 0.005762297 0.007934484
000110 9e 25 7d ba 11 bc d5 3c 19 58 db bb 71 3a 4b 3c
       -0.00096567895 0.026090654 -0.0066938517 0.01240407
000120 ac a3 d9 3b 15 58 e9 ba 84 1e 6a bb 8b ea cc 3c
       0.0066418257 -0.001780274 -0.0035723755 0.025014183
000130 46 e8 0c bb 6c 1f 89 3c 5e 02 bc 3c cd 9c 4f bc
       -0.002150075 0.016738616 0.022950348 -0.012671662
000140 da ab 2b 3b 47 5c 61 bb f4 22 68 bc 01 0c ba 3c
       0.002619496 -0.0034387277 -0.01416849 0.022710802
000150 3b 6e f0 3c c0 11 bc 3c 5e de 6e 3c fb 28 df 3c
       0.029349437 0.022957683 0.014579384 0.02724122
000160 20 c2 8b 3c 64 fa 0c 3b b6 e7 7b bc 28 bb f3 3c
       0.01706034 0.002151155 -0.015375068 0.029752329
000170 a8 e4 04 3c 79 15 dd 3c dc 21 fc bb 58 0b 0f bc
       0.0081111565 0.026987778 -0.007694466 -0.008730732
000180 3b fd 90 3c 3e 51 b9 39 d4 32 47 3c f6 f8 81 bb
       0.017698875 0.0003534648 0.012158114 -0.003966446
000190 98 3e 41 3c b1 00 f9 ba d4 06 c2 bb 33 30 1b 3d
       0.011794709 -0.0018997398 -0.005921224 0.037887763
0001a0 8b e3 15 3b 2f ea d6 3c 6b 83 a8 3c 97 aa 30 bb
       0.0022871222 0.026234714 0.020570477 -0.0026957148
0001b0 f6 26 4a 3c fb 2d d3 3b ae bb 20 bc e6 e7 57 3b
       0.012338391 0.0064446903 -0.009810371 0.0032944619
0001c0 0d a5 26 bb 2a 6d 91 b9 a2 8d ca 3b b4 fa 29 bb
       -0.0025427968 -0.0002773789 0.0061814347 -0.0025936784
0001d0 03 05 bc 39 16 45 ab bb 23 fa 1a 3c 31 b8 2b bb
       0.00035861888 -0.0052267415 0.009459051 -0.0026202316
0001e0 d1 19 4c b9 95 ea 95 3b bf 16 f3 b8 83 6f 81 bc
       -0.00019464573 0.0045750835 -0.0001159138 -0.015800243
0001f0 6c 50 a1 3c b6 57 a2 b9 fc 29 87 3c e1 35 1f 3b
       0.019691668 -0.00030964398 0.016499512 0.002429359
000200 ff 27 43 bc 51 19 65 3c 8e 12 08 3c 9f 4e de 3b
       -0.011911391 0.013983087 0.008305205 0.0067842747
000210 f9 52 40 3c 1b c0 ce bb e9 ac 93 3c 7d 28 86 bc
       0.011738532 -0.006309522 0.018026786 -0.016376728
000220 2b d5 9a 3b 0d c9 e4 3c 5e 1a 70 3c f3 46 e3 3c
       0.0047251186 0.0279279 0.014654724 0.027743792
000230 e7 35 a5 3c 40 dd 3e bc a1 25 b3 ba 31 ed 15 3d
       0.020167304 -0.01164943 -0.001366783 0.036603156
000240 f4 c8 d0 3c 3e 5a 2e 3b 13 5d a9 3a c3 f7 be 3b
       0.025486447 0.0026604082 0.0012921415 0.0058278753
000250 f1 47 ff 3c 94 ee 5c 3b c0 79 10 bb 9e af c2 3c
       0.031162234 0.003371154 -0.0022045225 0.023765381
000260 c9 f0 1a 3c 6c 4f bd bb 4d 9f ad bb 45 f1 4e 3c
       0.009456822 -0.00577729 -0.005298531 0.012630765
000270 21 fc 25 bc 07 d1 2f bc 86 98 83 3c d3 5a 03 3c
       -0.010130913 -0.010730988 0.01606394 0.00801726
000280 f6 86 ac ba 1a 11 47 3c db d9 29 3a b7 a1 1a bc
       -0.001316278 0.012150073 0.00064793014 -0.00943797
000290 3f 91 18 3c 0c 2b c9 3b 4a db 39 3c d9 de 06 bb
       0.009311973 0.006139165 0.0113437865 -0.0020579605
0002a0 a8 0b e0 3a cf dd 46 3c 41 2c f2 3b 00 06 bd 3c
       0.0017093318 0.012137844 0.0073905294 0.02307415
0002b0 04 c6 03 3d 81 f1 b7 bb 98 74 01 3b 8c d4 8d 3c
       0.032171264 -0.0056135063 0.0019753333 0.017313264
0002c0 93 15 d6 bb 26 91 15 bb 66 c5 50 3c bf 92 2b 3c
       -0.0065333336 -0.002282211 0.012742376 0.010471999
0002d0 9b 37 5e bb b4 c9 ad 3c b2 e5 83 3c bf c8 09 bb
       -0.0033907655 0.021214344 0.016100738 -0.0021024195
0002e0 e1 13 2a 3c 70 8b f9 3c 6d ee d7 3c 59 d0 a3 bc
       0.010380716 0.030461997 0.026358807 -0.019996809
0002f0 d4 18 69 3b f9 17 cc 3a c4 b2 b1 bb 43 c1 4f 3c
       0.0035567777 0.0015571109 -0.005422922 0.0126803545
000300 c8 9d 2e 3c a3 a3 9f bb 45 52 5a ba 83 b3 1e 3c
       0.010657735 -0.004871802 -0.0008328299 0.009686354
000310 fb 3f 5b 3c ef 16 d4 3b 7f 71 a3 3c 04 b9 98 3b
       0.013381953 0.0064724605 0.01995158 0.0046607275
000320 80 30 30 3d b3 3a 93 bb f8 d1 1e bc 7c 3d 43 3c
       0.043015003 -0.0044930815 -0.009693615 0.0119165145
000330 ee 81 dd b9 f0 ee 96 bb 08 0d 48 3a b1 89 e3 3c
       -0.0004224921 -0.0046061203 0.00076313363 0.027775617
000340 7f 2e 84 3c aa 33 b0 3a 22 cf aa 3a 32 89 dd 3c
       0.016135452 0.0013443131 0.0013031701 0.027042959
000350 14 9a f1 3b e0 17 6f 39 1b 1f ae 3b a2 45 a5 bb
       0.007373104 0.0002280171 0.0053137667 -0.0050437013
000360 1b a3 3c 3c 46 4a d8 3b 5a 24 a3 bb 05 78 88 bb
       0.011513497 0.006600651 -0.0049786987 -0.004164698
000370 40 c6 01 3d 61 f8 7e bb f3 56 91 3c 42 85 f0 bb
       0.031683207 -0.003890537 0.017741656 -0.0073401043
000380 df 43 23 3b 57 61 4b bc c4 5f 16 b9 d4 92 07 3a
       0.002491228 -0.012413344 -0.0001434079 0.00051717204
000390 c5 05 88 3a 19 6a 99 3a 3a 76 8b 3b 09 41 32 bb
       0.0010377696 0.0011704593 0.004256037 -0.0027199409
0003a0 49 51 1b bb 47 59 4a 3d 58 f6 ae 3c b9 67 50 3c
       -0.0023699573 0.049401548 0.0213577 0.012720042
0003b0 b9 e3 4e 3b f1 3f 9a 3c 43 ad 81 3b ba 83 d9 bb
       0.0031568839 0.018829318 0.003957422 -0.0066380175
0003c0 03 ca 86 ba ff 3e 51 3c 55 48 60 3c b4 ee 2b 3b
       -0.0010283593 0.012771367 0.01368912 0.0026234807
0003d0 79 b8 41 3c 1e 6c e8 3a 06 cf 34 bb e6 88 80 3c
       0.011823767 0.0017732417 -0.0027589216 0.015690278
0003e0 50 7d d6 3b 9c 80 89 3c 57 ea a6 b9 13 12 ab 3b
       0.0065457 0.016784959 -0.00031836584 0.0052206605
0003f0 45 db 15 bb 76 00 45 3a cc b8 cf 3a 42 8d cf bb
       -0.002286629 0.00075150223 0.001584792 -0.006333978

network_body._body_endoder.seq_layers.2.weight f4 [256, 256]
000000 cd b0 ba 3b 3d 22 1b 3d 33 4b 83 bd a5 de c5 3d
       0.005697346 0.03787445 -0.064108275 0.09661607
000010 7b 51 13 3e b5 df 51 bd 4e 7d 4d bd 39 c4 83 3d
       0.14386551 -0.051238734 -0.050168328 0.06433911
000020 34 26 36 3d fe 91 17 bd 74 fd 97 3d 6b 63 a4 b8
       0.044470027 -0.037004463 0.07421389 -7.8386474e-05
000030 c7 2b 2b bc 5b df 8b 3d 48 a3 16 bc 91 60 0c be
       -0.010447449 0.06829711 -0.009194203 -0.13708712
000040 de 7e 0e bd 77 1b 36 3b 83 16 2d bc af b7 7e bd
       -0.03478896 0.0027787366 -0.010564449 -0.062186893
000050 d7 5a ad 3d 6c a1 58 bd 74 05 c4 3d 76 16 08 bc
       0.08464592 -0.05288832 0.095713526 -0.008306136
000060 50 9b 8a bd da 73 82 bd dc a9 38 3d 00 f6 0a bd
       -0.06767905 -0.06369753 0.045083866 -0.03392601
000070 ff 91 43 3d 0b 05 91 3b f6 6e 75 3c 36 a5 38 bd
       0.047746655 0.00442565 0.014980068 -0.045079432
000080 2d fd 0e bc 2c 1b 15 bc a5 ca 48 3d 7f 14 a1 bd
       -0.008727354 -0.009100717 0.049021382 -0.078652374
000090 0b 95 b8 ba 08 ef 23 3d b6 4c d5 bc 2c 9d 23 be
       -0.0014082504 0.04002288 -0.026037555 -0.15977925
0000a0 1c 2a c6 bc 83 b1 fe 3c 4c 8b 5a 3d 39 25 a8 bb
       -0.024190001 0.031090504 0.0533555 -0.0051313904
0000b0 f4 95 e8 bc c3 65 c2 3c 47 b1 b1 bb dd b6 7d bd
       -0.028391816 0.023730164 -0.0054227444 -0.06194197
0000c0 2a ad 29 3d 78 18 da 3d d3 62 45 3d ff a9 ed bd
       0.041424908 0.10649198 0.04818995 -0.1160469
0000d0 25 47 06 bd 07 6c 27 be a2 0c 32 3a 30 79 1b 3d
       -0.032782692 -0.16349803 0.00067920436 0.03795737
0000e0 1e d5 17 3d 79 d1 8c bd 3f ae b9 3a 35 3a f0 bc
       0.03706848 -0.06875891 0.0014166309 -0.02932463
0000f0 b4 f3 76 bb 38 9e 05 3e fe 1f d1 3c ac b0 b4 3c
       -0.003768188 0.13048637 0.02552795 0.0220569
000100 fc bd 53 bd fc 51 60 bd 56 77 bd bc 76 41 64 3d
       -0.051694855 -0.054765686 -0.023128193 0.05572649
000110 3c 2b a1 bc 9d 36 c8 3d 9b 15 65 3d ce 03 93 3d
       -0.019673936 0.09776042 0.055928808 0.0717846
000120 bd 0f a1 bc 4e cf 9d bc 7d ce 97 3d 3f 84 6d 3d
       -0.019660825 -0.01926389 0.074124314 0.057987448
000130 78 cc b4 bc 99 a5 94 3d ba 71 d7 bd e8 f7 c7 bd
       -0.022070155 0.07258148 -0.105197385 -0.09764081
000140 a2 e2 ac bb bd c0 7c 3c 77 c7 07 be 5c 41 8c 3d
       -0.00527604 0.015426812 -0.13259684 0.06848404
000150 43 98 26 3d 73 58 b0 3c 81 6a 6c bd 17 cf 91 3d
       0.04067255 0.02152655 -0.057718758 0.071195774
000160 8a a9 a5 3c 4d fb 93 3d fa fc b0 bc 8a 4e ef 3b
       0.020222444 0.07225666 -0.021605004 0.0073030638
000170 d1 59 e3 39 9b 81 5d 3d b0 ae a1 3d be e9 4d bc
       0.00043363732 0.05407868 0.07894647 -0.0125679355
000180 cd 45 99 3d 21 35 7c 3b ad 0f 42 bd ad 4f b6 bd
       0.074840166 0.0038483816 -0.04737823 -0.08901916
000190 93 6d 85 3d ef e2 a2 3d 47 83 09 3e 06 05 bf 3d
       0.0651504 0.079534404 0.13428985 0.0932713
0001a0 26 d5 7b 3d 27 3c f3 bd 1d 9b 9e 3d eb bc 19 3d
       0.06148257 -0.118767075 0.07744429 0.03753368
0001b0 08 ed 41 3d 8f 58 dd 3b 94 ee 9b 3c 20 61 af bc
       0.04734519 0.006754942 0.019034661 -0.021408617
0001c0 3f e9 3e bd 69 07 f6 3c 70 7d 44 bc 56 8c 60 bd
       -0.04660916 0.03003283 -0.011992797 -0.054821335
0001d0 26 0d 5f bc b6 cc 16 3e f4 a1 98 ba 62 5d fb 3a
       -0.013613975 0.14726529 -0.0011644945 0.001917761
0001e0 ca 50 97 3d 80 f8 87 3c 23 a7 63 3d 93 11 50 3d
       0.07388456 0.016597986 0.055579316 0.05079801
0001f0 20 59 d7 bc 9e 1c 0c 3d 69 8e 97 bd ea 67 99 3d
       -0.026287615 0.03420698 -0.074002095 0.07490523
000200 64 5d 19 bc 8c 2a a5 bd 42 98 3d bc 5c d4 de bd
       -0.009360645 -0.08064756 -0.011571946 -0.10880348
000210 0a 27 af bd 82 4a eb 3c 06 72 1d ba 00 46 56 3d
       -0.08552368 0.028722052 -0.00060060655 0.05231285
000220 95 1a 9b 3d 7e b0 b9 bc 84 98 04 be 4d 0e 76 bc
       0.075734295 -0.022667166 -0.12948805 -0.015018058
000230 85 ee 06 bd bc d0 d2 3d 60 f0 50 3d 32 48 17 bd
       -0.032942314 0.10293719 0.05101049 -0.036934085
000240 3a 7a 17 bd 0e 9d ee bc 1d 78 40 bd 4e 38 e6 bd
       -0.0369818 -0.029127624 -0.04698955 -0.11241208
000250 d9 00 98 bd 3c 9e b5 3d 43 60 4a bd fa 5e 15 3d
       -0.07422037 0.088680714 -0.04940821 0.03646753
000260 31 64 c7 bd 29 05 5f bc 5e fa 87 bd 01 51 11 bc
       -0.09735907 -0.01361207 -0.066395506 -0.0088694105
000270 e7 48 ce bb 96 87 24 bd 33 65 ab 3c db c9 18 bd
       -0.0062953117 -0.040168367 0.020922279 -0.03730188
000280 5e 2b f9 bc fc 0c 4c 3d 68 94 d0 3d 07 f7 1f bc
       -0.030416187 0.04981707 0.10184556 -0.009763486
000290 39 c0 4a bd 1b 17 f1 3c 72 87 ad bb f8 1b 64 3c
       -0.049499724 0.029429963 -0.0052956874 0.013922684
0002a0 be 47 87 bd 13 c3 6f 3c 56 ad 5d 3d c2 b9 01 bd
       -0.066054806 0.014633912 0.054120384 -0.031671293
0002b0 d9 40 80 3d e5 a8 af 3d b9 fc a6 bc c8 81 28 b9
       0.06262369 0.08577136 -0.02038418 -0.00016070076
0002c0 d8 fe 9b 3d af d5 7e 3b 34 a9 94 3d ae 45 7b 3a
       0.07616967 0.003888469 0.072588354 0.0009585273
0002d0 80 43 a3 3c b3 84 97 bc 5c c5 f2 bc 53 e3 cf bd
       0.019929647 -0.018495893 -0.029635124 -0.101507805
0002e0 ba 86 98 bd 2d 60 c1 3b 2e 81 8c 3d a0 83 d7 bd
       -0.07447572 0.0059013576 0.068605766 -0.10523152
0002f0 2e 4c 27 bc 4a 12 ae 3c 78 b0 46 bd 41 48 42 3d
       -0.010211034 0.021248955 -0.048508137 0.047432188
000300 6d 3e 35 bd 24 02 e5 3d 17 d6 16 3d df 92 82 3c
       -0.044248987 0.11182049 0.036825266 0.015939174
000310 0b 53 b4 3d 15 bd 96 bc ca e2 20 bd 8b d0 55 3c
       0.08804902 -0.018400708 -0.039278783 0.013050209
000320 a7 de c5 3b c3 d6 6e bd 57 d3 66 3d 85 74 c8 3d
       0.006038505 -0.05831028 0.056353893 0.09787849
000330 a9 a5 82 3d 4c 1f 21 3d 77 39 b1 ba bf 04 d9 b8
       0.063792534 0.039336488 -0.0013521154 -0.0001034825
000340 e7 a7 b3 3d e6 3a 35 bc 70 3c 93 3d 09 bb a4 3d
       0.08772259 -0.011061406 0.07189262 0.080434866
000350 7a 73 1d bd 3a a7 c3 bd c2 1c 8d bd 3b 25 22 3d
       -0.038440205 -0.0955338 -0.06890251 0.039586287
000360 a9 12 ca 3d db 08 a6 bd e3 9c c3 3d 06 6f 86 3c
       0.098668404 -0.08107158 0.09551408 0.016410362
000370 f6 a6 bf 3d e1 44 21 bd f8 ef c6 3d ad 52 f3 39
       0.09358017 -0.03937233 0.09713739 0.0004641017
000380 63 b9 8a bc aa a1 3d 3d 78 bf b8 bd 37 48 5a bd
       -0.016934102 0.046296753 -0.09020895 -0.053291526
000390 28 40 ab bb 53 74 b6 bc d2 6f 92 bd 94 7b 42 bc
       -0.005226154 -0.022272265 -0.07150234 -0.011870284
0003a0 a2 ce 38 3d 29 93 1e 3c 99 d1 f2 ba 30 d8 e8 3d
       0.045118935 0.00967864 -0.00185256 0.113693595
0003b0 bc a1 8e 3d 98 e9 ef bc 96 e5 35 3d c7 f1 18 bd
       0.06964442 -0.02928619 0.044408403 -0.03733995
0003c0 56 51 a9 3c db 65 74 bd 37 ab bf 3c 7d f2 18 3d
       0.020668667 -0.05966745 0.023397071 0.03734063
0003d0 34 26 51 3d 77 92 ae bd 07 9e e0 bd 2f 9a a1 39
       0.051061824 -0.0852403 -0.10967641 0.0003082319
0003e0 c4 f6 65 ba 7a 2e 57 3d 6f 01 a7 ba a0 be 9b bd
       -0.00087724277 0.052534558 -0.0012741516 -0.07604718
0003f0 b5 2b 08 3b 50 f9 35 bd 8e 31 91 3d 1a 48 fc 3a
       0.0020778005 -0.044427216 0.0708953 0.0019247562

network_body._body_endoder.seq_layers.4.bias f4 [256]
000000 77 9a 9a 3c 1f 8d 3f 3c 99 22 e9 3b 7d 8b 01 bc
       0.018872483 0.011691361 0.00711472 -0.007906792
000010 25 34 06 3b 72 0a 3f 3c ec 9f 81 39 5d 7d 59 39
       0.0020477858 0.011660205 0.00024723948 0.00020741434
000020 91 a0 cb ba 89 83 0e 3c 33 0e 27 3c f1 d4 e3 bb
       -0.0015535523 0.008698353 0.010196256 -0.006952875
000030 64 7e a3 3c 29 98 29 bb 7d 0b d0 ba 8b 0a ff 3b
       0.019957729 -0.0025878048 -0.0015872564 0.0077832392
000040 ce d5 0b 3c 5b c2 74 ba 4b 15 47 bb 1d 24 b5 bb
       0.008534862 -0.00093368225 -0.0030377682 -0.0055279867
000050 8c 0b 8e 3c 9d 0b e2 3b 57 9f 84 bb 76 69 88 bb
       0.01733949 0.006898357 -0.004047315 -0.0041629625
000060 67 54 9f 3c 8b 56 ae 3c 51 4e 12 3c 04 05 cb 3b
       0.019449426 0.021281501 0.008929805 0.0061956663
000070 45 e5 72 bb f2 e9 f2 bb 11 5f 82 b8 26 83 3f 3a
       -0.0037062925 -0.0074131424 -6.2165906e-05 0.00073056144
000080 d6 d4 bb 3b 62 ac c1 bb 8c d2 5b 39 b3 0f ad bb
       0.005732159 -0.005910442 0.00020963902 -0.0052814125
000090 c6 be b7 3b 8c 42 36 3a a0 f3 e3 bb 8e f9 03 bb
       0.0056074588 0.0006952665 -0.0069565326 -0.002013776
0000a0 76 ab 3d bc 54 61 2e 3b 2d 3e e6 3b 5b 45 98 3c
       -0.011576524 0.0026608305 0.007026455 0.018587759
0000b0 bd 05 28 3c ed 8b 79 bb 75 cb 0d bc 50 e8 f0 bb
       0.010255274 -0.0038077787 -0.008654465 -0.0073519126
0000c0 89 85 93 3b 82 d5 04 bc 29 1a 3f 3c 77 05 15 3a
       0.0045020026 -0.008107545 0.011663952 0.0005684713
0000d0 17 33 11 bc 8a 99 c9 bb 0c 25 3f ba b7 d3 39 3c
       -0.008862278 -0.0061523365 -0.0007291592 0.011341981
0000e0 f8 b3 f8 3b 08 37 11 bc 30 43 cb bb 12 72 7c 3c
       0.0075898133 -0.008863218 -0.0062030777 0.015408056
0000f0 03 7e 5f bb 87 aa d0 3c 22 e6 b3 bb b7 ce a0 3b
       -0.0034102208 0.025471939 -0.0054900805 0.004907455
000100 22 f1 d3 3c 7d f1 c2 3c 24 29 c6 3b 06 b9 0e bb
       0.025871817 0.023796791 0.006047385 -0.0021777763
000110 c9 29 5b 3c a5 2e f1 3b ed 3b bc 3b fb c8 7e bb
       0.013376662 0.007360297 0.0057444484 -0.0038877118
000120 84 6f 4a 3b 4f 77 5f bb 1b 9c de b9 39 a4 ac 3b
       0.0030889222 -0.0034098213 -0.00042459447 0.0052686003
000130 14 7a 27 bb 4a 2a 84 3c 1c 30 f3 3b 1f 19 24 3c
       -0.0025554942 0.016133446 0.0074215066 0.010015755
000140 4c 1b ff 39 89 f9 1d 3c a1 e8 81 3c 2a 12 e6 bb
       0.00048657728 0.009642013 0.015857996 -0.0070212083
000150 fa 43 f0 3b e4 f5 12 3b eb 2f 98 3c b3 37 d3 3c
       0.007332322 0.0022424394 0.018577537 0.025783395
000160 33 f9 3f 3c 36 8d 4e 3b 11 d6 a3 3c 4f db 53 bc
       0.011717129 0.0031517274 0.019999536 -0.012930705
000170 67 ce 9a 3c aa 70 fe 3b 48 89 07 3b 9c 5d 47 3c
       0.018897248 0.0077648954 0.0020681191 0.012168314
000180 82 ad 2b 3c d7 7e a7 bb aa 4e 4f 3c 52 80 95 bc
       0.010478379 -0.005111556 0.012653032 -0.018249664
000190 76 86 8d bb 81 be 9b 3b e7 e9 be 3c f9 57 11 bc
       -0.0043190075 0.0047529344 0.023304893 -0.008871072
0001a0 ec ec 82 3c 59 43 28 3c d8 82 d2 3c 98 5f 2a bb
       0.015982114 0.010269963 0.025697157 -0.002599692
0001b0 c4 32 3a 3c 48 17 78 3c c9 a1 3c 3c f0 24 1f 3c
       0.0113646425 0.015142269 0.011513182 0.009713396
0001c0 05 12 bd 3b 2a d0 89 bb 71 ae 91 3c e8 04 b2 3b
       0.0057699704 -0.0042057233 0.017783375 0.005432714
0001d0 47 98 5e 3c 2f ae c3 3c 95 6e f4 bb 6b a6 9d 3c
       0.01358611 0.023886768 -0.0074594715 0.019244393
0001e0 dd 7b 1f bb 6f 11 0a 3c 18 3a b2 3c 02 12 a5 3c
       -0.0024335303 0.008427008 0.021756217 0.020150188
0001f0 34 25 6b 3b 45 f3 da bb b5 f4 85 3b d6 b4 61 3a
       0.003588033 -0.006681832 0.0040880092 0.00086100155
000200 b3 fa 13 bc 10 4b 80 3c 30 1a 96 3a 92 8d 49 bb
       -0.009031939 0.015660793 0.0011451896 -0.0030754548
000210 20 6f 34 bb 45 99 62 3b 9d ed cf 3c ef d8 61 3a
       -0.0027532056 0.003457622 0.025381858 0.00086153945
000220 01 c0 6b bb e2 b9 e6 3b 09 1d b2 3c 60 19 5a 3c
       -0.0035972598 0.007041202 0.02174236 0.013311714
000230 2c 1f 9d 3b 13 3a 9e b8 7f c8 53 3c 1d 01 16 3b
       0.0047949757 -7.544844e-05 0.01292622 0.0022888847
000240 90 36 39 3c 74 88 6e 3c 55 ec 58 ba 9f 64 fa 3c
       0.011304513 0.0145589 -0.00082749623 0.030565558
000250 5f a4 75 3c 1d 7e 70 3c ba 1d 57 ba 3a b7 76 3c
       0.014992802 0.014678505 -0.0008206029 0.015058333
000260 87 91 c8 3c 0f 69 a2 3c af a2 19 3b 1b ab 3a 3c
       0.024483455 0.019825486 0.0023442914 0.011393334
000270 44 7a 30 3c 33 83 24 bb a0 11 92 3c ec 02 8f bb
       0.010771338 -0.0025102615 0.01783067 -0.004364362
000280 6c 1a 99 b8 9f 18 19 3b ec bc 46 39 38 93 bd 3a
       -7.30053e-05 0.0023360623 0.0001895313 0.001446343
000290 a7 e4 ae 3c 74 d6 2d 3b 9e 8a 50 ba 7a ed 0f 3c
       0.021349264 0.002652553 -0.0007955226 0.008784646
0002a0 7a ca b6 3c 65 a2 69 3c 09 59 ac 3b 0b b5 9f 3c
       0.022313345 0.014259909 0.0052596373 0.019495508
0002b0 8e b3 2a 3c d1 ae cf 3b 6e e5 a8 ba a2 f0 d6 3b
       0.010418786 0.0063379784 -0.0012885758 0.0065594474
0002c0 6d e5 e3 3c b5 00 a9 bb 3c 72 3f ba 93 1e 1e 3a
       0.02781936 -0.005157555 -0.0007303094 0.00060317776
0002d0 d2 20 11 bb 36 4e 53 3c ba d5 2d 3c d4 ba 89 3c
       -0.0022144807 0.012897065 0.010610038 0.01681272
0002e0 10 d9 00 3c c3 e8 6b bb 65 96 1b bc 71 3e 93 3c
       0.007864252 -0.003599689 -0.009496306 0.01797411
0002f0 25 00 3c bc ec cc 91 3c e9 bf 35 3c d5 a7 f2 bb
       -0.011474644 0.01779791 0.011093118 -0.007405261
000300 53 65 84 3c 4b 65 91 3a 99 52 9b 39 bc 51 c7 bb
       0.016161596 0.001109281 0.00029625444 -0.0060827415
000310 15 db e2 bb b7 a1 60 bb 4a 74 ad ba 4b 65 0e bc
       -0.0069230893 -0.0034276077 -0.0013233509 -0.008691142
000320 3a d9 45 3b d3 93 8d bb e4 59 98 3c a3 b2 09 bc
       0.0030189292 -0.0043206005 0.01859755 -0.008404407
000330 d8 48 37 3b 4c a9 e6 bb 84 5c ba bb f1 61 21 3c
       0.0027967002 -0.0070392247 -0.0056872983 0.009850011
000340 aa 05 85 bb cc c6 4a bb 0a 79 ae ba b5 ab 50 bb
       -0.004059513 -0.0030941246 -0.0013311219 -0.0031840627
000350 70 08 71 bb 3d 32 8b 3c 96 fa c6 3c 6c 39 61 bc
       -0.003677871 0.016991729 0.02428941 -0.013746601
000360 ec 27 3c 3c 03 b2 b9 3b 59 c8 54 bb 9d a8 54 3a
       0.0114841275 0.0056669726 -0.003246805 0.00081122835
000370 01 05 5e bb 52 ea 52 39 63 ed 7e 3c d9 16 10 bb
       -0.0033877494 0.00020114452 0.015559527 -0.0021986275
000380 f8 4f a3 3c 20 eb 03 bc cd 88 a4 bb 1c da 07 bc
       0.019935593 -0.008051664 -0.0050211907 -0.008291747
000390 e5 eb 11 bc 3b 6a e3 3c 3f 61 ba bb 4b d3 2c 3c
       -0.008906339 0.027760616 -0.005687862 0.010548423
0003a0 60 ea 88 3c d3 3a a3 bb 68 8b 06 bc f9 fd 89 bb
       0.016713321 -0.0049813776 -0.008211948 -0.004211184
0003b0 60 2f a3 3c 9e 67 e7 ba ba ed 9f 3c 27 1f 40 3c
       0.019920051 -0.0017654782 0.019522537 0.011726177
0003c0 b5 2a 3c 3c 58 bc d0 b9 67 f6 af 39 8c 5d 54 3b
       0.0114847915 -0.0003981318 0.00033562185 0.003240439
0003d0 b5 d5 a8 3a 3e f2 8a 3b 0f 0b 34 bb 08 ce 45 3b
       0.0012881072 0.0042403033 -0.0027472412 0.0030182619
0003e0 74 04 2c 3c b9 4c 40 bb 2f d9 af 3b 0a 72 eb ba
       0.010499109 -0.0029342605 0.0053664665 -0.0017963063
0003f0 7b 82 9f 3c 6a 39 20 3c 46 3b 80 3b 96 bf bf 3b
       0.019471398 0.009779314 0.003913316 0.0058516962
