Assets/Training/results/Run 5/DroneBehavior/DroneBehavior-499900.onnx (onnx, 661208 bytes, 19 tensors)

101 f4 [15]
00000000: d561 b93a 79a1 dd3e 9d5a 943c 76de d13e
00000010: 6a5f 943e d561 b93a 384c 803e d561 b93a
00000020: 69f8 893e c52b b13d d561 b93a 384c 803e
00000030: d561 b93a 69f8 893e c52b b13d
0.0014143536 0.43287256 0.018109614 0.40990037 0.28979045 0.0014143536 0.2505815 0.0014143536
0.26947334 0.086509265 0.0014143536 0.2505815 0.0014143536 0.26947334 0.086509265

104 f4 [25]
00000000: d561 b93a fdd4 2d3d d561 b93a 6f90 0d3e
00000010: ee8f a33d d561 b93a fdd4 2d3d d561 b93a
00000020: 3de9 713e acaf 163e d561 b93a b72f d13d
00000030: d561 b93a 751e 7c3e b28c 143e d561 b93a
00000040: fdd4 2d3d d561 b93a 3f35 af3e 2be7 8a3e
00000050: d561 b93a fdd4 2d3d d561 b93a 3f35 af3e
00000060: 2be7 8a3e
0.0014143536 0.04243945 0.0014143536 0.13824628 0.07986437 0.0014143536 0.04243945 0.0014143536
0.2362413 0.14715451 0.0014143536 0.10214179 0.0014143536 0.24620993 0.14506796 0.0014143536
0.04243945 0.0014143536 0.3422031 0.27129492 0.0014143536 0.04243945 0.0014143536 0.3422031
0.27129492

107 f4 [3]
00000000: 813c 5b41 5ace b73f 64f2 8241
13.702271 1.4359848 16.368355

95 f4 [25]
00000000: d561 b93a 5892 633e 2043 a63c fc27 f63e
00000010: 1db9 6f3e d561 b93a f08e 6a3e a560 653c
00000020: 4e9d ff3e ee1b 8e3e d561 b93a 7630 793e
00000030: ff3d 433c 386e ff3e dfa1 873e d561 b93a
00000040: b2d3 803e d561 b93a 6210 fe3e c274 a63e
00000050: d561 b93a b2d3 803e d561 b93a 6210 fe3e
00000060: c274 a63e
0.0014143536 0.22223794 0.02029568 0.4807738 0.23410459 0.0014143536 0.22906089 0.014000093
0.499247 0.27755684 0.0014143536 0.24334893 0.0119166365 0.49888778 0.26490685 0.0014143536
0.2516151 0.0014143536 0.49621874 0.32510954 0.0014143536 0.2516151 0.0014143536 0.49621874
0.32510954

98 f4 [55]
00000000: d561 b93a d561 b93a d561 b93a 09c8 3f3e
00000010: 0953 c83d d561 b93a d561 b93a d561 b93a
00000020: 65ec 813e 61ba 033e d561 b93a 1fdb 3c3d
00000030: d561 b93a 2e78 923e 58c6 013e d561 b93a
00000040: d561 b93a d561 b93a 9d59 7f3e 655d 163e
00000050: d561 b93a b5f5 b63d d561 b93a ba51 b33e
00000060: 7e7f 213e d561 b93a d561 b93a d561 b93a
00000070: a682 c93e 69a8 743e d561 b93a e523 b73d
00000080: d561 b93a 3786 df3e 406e 803e d561 b93a
00000090: d561 b93a d561 b93a 0324 d33e 1e82 923e
000000a0: d561 b93a 1fdb 3c3d d561 b93a ac85 f93e
000000b0: c55c 9d3e d561 b93a d561 b93a d561 b93a
000000c0: 79f4 d13e 0845 943e d561 b93a d561 b93a
000000d0: d561 b93a 79f4 d13e 0845 943e
0.0014143536 0.0014143536 0.0014143536 0.18728651 0.09781463 0.0014143536 0.0014143536 0.0014143536
0.25375667 0.12864067 0.0014143536 0.046107408 0.0014143536 0.28607315 0.12673318 0.0014143536
0.0014143536 0.0014143536 0.24936529 0.14684065 0.0014143536 0.08933584 0.0014143536 0.3502329
0.1577129 0.0014143536 0.0014143536 0.0014143536 0.3935749 0.23892368 0.0014143536 0.08942393
0.0014143536 0.43657085 0.25084114 0.0014143536 0.0014143536 0.0014143536 0.41238412 0.28614897
0.0014143536 0.046107408 0.0014143536 0.48734796 0.3073484 0.0014143536 0.0014143536 0.0014143536
0.4100683 0.28958917 0.0014143536 0.0014143536 0.0014143536 0.4100683 0.28958917

action_model._continuous_distribution.log_sigma f4 [1, 3]
00000000: 15c3 003c c7e4 5e3c 3317 153c
0.007859011 0.013604349 0.009099769

action_model._continuous_distribution.mu.bias f4 [3]
00000000: a157 8fbb f08a 39bc 3506 b03b
-0.00437446 -0.011324629 0.0053718337

action_model._continuous_distribution.mu.weight f4 [3, 256]
00000000: c341 d83c 0848 a63c acc4 30bc 84a8 81bc
00000010: a860 893c 17f7 1fbc 183c 113c c3ab 913c
00000020: 916e a4bc b22d 46bc 440e 0bbc ea23 9e3b
00000030: f489 13bb a01f 463c 2145 df3b f22e d5ba
00000040: 34bc ee3a 5fbb 8ebb fbd4 02bd 598c 39bc
00000050: 9456 ccbb ee24 ba3b debd ee39 01bc fd3c
00000060: 7504 0cbb 322a dc3b d159 b73c aec8 073c
00000070: c58e 633c f643 31bb d792 f43b 3f44 893c
00000080: 4a04 a4bb 846b 6dbc 8b96 a63b d99f 07bd
00000090: ce51 1dbc ef87 593c 01e5 a9bb 1eda 0e3c
000000a0: b21d 6ebc a44b c1bc 69ff 3e3c 4863 36bc
000000b0: 9323 2fbb c818 a23c 6fac aa3b 794c c23b
000000c0: 5612 59bc e058 95bc 6d7c 49bc 9a7a da3c
000000d0: 834f 88bb 42a1 a33c 22f9 e53c 9260 09bc
000000e0: 99c7 80bc 333c 9dbc ccd5 8ebb 4759 43bb
000000f0: c0b4 4d3c de71 ee3c 162e 5bbc f61f 7fbb
00000100: 2e06 023c 56ab 32bb 4c26 7d3c e4f8 873c
00000110: a1bf 9b3b 9a97 30bb c2c0 923c b131 a7bc
00000120: 66c2 0d3c 90fb 3b3c 4aa5 463c 4d7b b8bc
00000130: 8ab7 66bb 621a 2cbb 156f c7bb 035a af3b
00000140: 4c62 55bb 4c92 99ba d295 93bb 1819 a4bc
00000150: fce9 ebbb cd47 973c e227 9abb 84a8 9abc
00000160: 658e cb3b 12ed d8bb d704 abbc 118f f8bb
00000170: bd53 dbba c6ef 6cbc 0c9a c8bb 07a0 093c
00000180: f146 943c c3d2 ccbb 0f20 96bc b24c 393c
00000190: b86d 1cbb cdd4 283a 80a7 313c 0677 73bc
000001a0: cac4 56bc 5ed2 213c a655 733c 3911 143c
000001b0: bd05 b53c f0e8 6ebc d448 923b 7032 8fbb
000001c0: e42f 5ebb 9f4c 2fbc 7984 1ebc 7de4 03bc
000001d0: 870d bbbc cc50 3fbc 8f0b fbba 27b8 fdbb
000001e0: 431e c6bb fb16 3dbc 1b19 cdbb 8801 0ebc
000001f0: b297 763c f4c3 953b ee6c 1e3c 40d3 fdbc
00000200: bd80 05bd d313 61bc 8ba5 62bc 936f 09bc
00000210: 655c 9fbb 116f eabc 40be 3ebc be7f 913a
00000220: 927b e5bc dcf4 9d3c 64b2 44bc 4e51 7dbc
00000230: e8be 26bc 5c83 77bc 8af5 763c fcb9 18bc
00000240: 549f 46bc d540 a93a c0ab 62bc cc7b e6bc
00000250: 090e e6bb edb1 a03c ba4b b3bc 9bb4 d6bc
00000260: e5f4 83bc f1bc 383c a66c c4ba 0cdf 4f3c
00000270: e12a 3bbc a4b7 e93a f8b2 0e3c 0f8e 653c
00000280: abd3 3dbc 2f41 55bc 603f 14bd d793 99bc
00000290: 5578 4abb 63b7 063d 3686 10bc 17f3 463c
000002a0: c32f f7bc 285d d7bb 528f 10bb 7a9c 93bb
000002b0: a594 963b c9f0 c53b 53ef 013c 3cd7 273c
000002c0: 5fd9 c5bb 5ffa 1ebb 85c6 f73a 6f9a 69bc
000002d0: c20f 23bb 1c86 b3bc bec6 463b 6321 76bc
000002e0: 19e7 663a 4e18 91bb c481 f4bb bd34 073d
000002f0: d102 24bc 0d73 9c3c fe01 00bc 5eb6 233c
00000300: 66fd 60bc 8225 c13c 2e19 8f3c 591b 6b3c
00000310: 59d3 cfba 885b 263b 4ce2 983b fc05 50bc
00000320: bbea c73c a4b7 0c3c 2191 af3c 5ad1 adbb
00000330: f191 9d3c 700f 263c 5992 613c b641 893c
00000340: c9b5 243c abaa 9c3c 30f6 1bbc 62ae 773c
00000350: f1cf 733c b55a 9138 13b0 223b 196c 8cbc
00000360: d6b5 f239 e48a 913c 8d0f bfbb b7bd 8c3c
00000370: 523a 3a3c 84b5 96bb ce14 f8ba 4eec a4bc
00000380: dd67 1dbc 8c12 5bbc 28e8 dd3c ccbd a63c
00000390: 3035 3b3c 1dbb ce3b 6a65 fb3c 869d 9b3c
000003a0: e4ff 8c3b 71ad dd3c ebe1 ebbc 9445 ad3c
000003b0: 70f8 833c 7a3a d53c 475a edbb 1865 083c
000003c0: 51c8 54bb 3541 aa3a fd53 bf3b a5db 4cbb
000003d0: eccc d33b 6def a73c 7541 d33b 8606 973c
000003e0: d317 0dbc 58fe 0fbc fbfe fc3b d531 383c
000003f0: 7e51 a8bb 1005 cfbb ad36 a6bc edf7 fdbb
0.026398545 0.020298019 -0.010789078 -0.015827425 0.016769722 -0.009763501 0.008864425 0.017782098
-0.020072253 -0.012095856 -0.008487288 0.0048260586 -0.0022512646 0.012092501 0.0068136607 -0.0016264601
0.0018214048 -0.0043558325 -0.031941395 -0.011324965 -0.006235907 0.005680672 0.0004553636 0.030973436
-0.0021364961 0.0067188973 0.022381695 0.008287592 0.013889019 -0.0027048565 0.0074637937 0.016756175
-0.005005394 -0.014490966 0.005083864 -0.033111427 -0.009602023 0.013277038 -0.00518477 0.008718995
-0.014533447 -0.023595639 0.011657574 -0.011132069 -0.0026724085 0.019787207 0.005208544 0.0059295264
-0.013249001 -0.018230855 -0.012297732 0.02666979 -0.004159869 0.019974355 0.028072897 -0.008384841
-0.015720176 -0.019193744 -0.0043589827 -0.0029807852 0.012555301 0.02910703 -0.013377687 -0.0038928962
0.007936044 -0.0027262769 0.015451025 0.016598172 0.0047530686 -0.002694583 0.01791418 -0.020409437
0.008652305 0.011473551 0.012124369 -0.022519732 -0.0035204613 -0.0026260843 -0.00608624 0.0053513064
-0.003255981 -0.0011716573 -0.004503944 -0.020031497 -0.007199524 0.018466854 -0.0047044614 -0.018879183
0.006212043 -0.006620058 -0.020876331 -0.007585414 -0.001673333 -0.014461463 -0.0061218794 0.00839997
0.018100234 -0.0062507107 -0.018325834 0.0113097895 -0.0023869108 0.0006440401 0.010843158 -0.01485992
-0.013108442 0.009876816 0.014851963 0.009037309 0.022097463 -0.014581904 0.004464248 -0.0043700263
-0.0033903057 -0.01069942 -0.009675139 -0.008050081 -0.022833599 -0.011676978 -0.0019153225 -0.0077429
-0.006046088 -0.0115411235 -0.0062590963 -0.008667357 0.015050815 0.0045704786 0.009669526 -0.03098452
-0.032593478 -0.013737637 -0.013833414 -0.008388418 -0.004863309 -0.028617414 -0.011642039 0.0011100692
-0.028013024 0.019281797 -0.012005422 -0.015461279 -0.010177352 -0.015107002 0.0150731895 -0.009321686
-0.012122948 0.0012912998 -0.013834894 -0.028135203 -0.007020716 0.019616092 -0.021886695 -0.026209166
-0.016107986 0.011275516 -0.0014985993 0.012687456 -0.011423797 0.0017831218 0.008709662 0.01401092
-0.01158611 -0.013016029 -0.03619325 -0.018747253 -0.0030894477 0.032889735 -0.008821061 0.012142918
-0.030174142 -0.0065723844 -0.0022058082 -0.0045047374 0.0045953565 0.0060406667 0.0079305945 0.010244187
-0.0060378755 -0.002425812 0.0018903768 -0.014258011 -0.0024881219 -0.021914534 0.0030330862 -0.015022608
0.000880824 -0.004427946 -0.0074617583 0.03300928 -0.010010437 0.01909783 -0.007812975 0.00999221
-0.01373229 0.023577455 0.017468061 0.014349782 -0.0015855833 0.0025384147 0.0046656486 -0.012696739
0.02440392 0.008588705 0.021431508 -0.0053044977 0.01923463 0.0101355165 0.013767802 0.016754966
0.010053107 0.01912435 -0.009519145 0.01511726 0.01488112 6.931034e-05 0.0024824187 -0.017141389
0.00046293315 0.017766424 -0.005830711 0.017180307 0.011366444 -0.004599275 -0.0018927099 -0.02013221
-0.0096072825 -0.013371121 0.02708824 0.020354174 0.011426255 0.0063089267 0.030688006 0.018996011
0.0043029655 0.027060242 -0.02879425 0.021151341 0.016109675 0.02602886 -0.007243428 0.008324884
-0.003246803 0.0012989404 0.0058388696 -0.0031258848 0.0064636376 0.02049991 0.006447012 0.018435728
-0.008611637 -0.008788668 0.0077208257 0.01124235 -0.0051366678 -0.006317742 -0.020289743 -0.0077505023

network_body._body_endoder.seq_layers.0.bias f4 [256]
00000000: f084 4f3b 8d22 ae39 c58c b4bb 24e9 35bb
00000010: 1e94 5d3b 47eb 173c efac 94bb 5e03 973c
00000020: 1da1 883c f04a 1cbc 2114 533a ead9 d53c
00000030: c7c6 013c a0c6 aebb 9834 aa3b 05b8 40b9
00000040: f9ae e9bb dd06 883b dc7d 0c3c c3a5 be3b
00000050: a703 5fbc 4eec 4d3c 9759 3bbc 8e7f 81bb
00000060: 2d58 303c 86fc b83b 6a5f 393b 716f 003c
00000070: 2934 ce3a 08d6 d93b d33c 4cbc b6d9 eb3a
00000080: 27a6 933c 9226 b73c 24ed ff3b e8d6 663b
00000090: a26d 5c3c 2e88 1d3b f27a b73a 8271 d83b
000000a0: 28c4 923c 77ce 64bb 14d4 0fbb 4056 fcbb
000000b0: aa02 2e3c 62a3 3f3b 74e5 ac3b 86f5 53ba
000000c0: f66c bdbb cd50 203c 65f3 5a3a 0141 3c3c
000000d0: 5e32 43bb 3b38 033c 0084 23bb 6b96 223c
000000e0: d99d 5abc 0453 ab3c d560 763b 1c5d 2dbc
000000f0: eae2 953c 12d3 be3c a8b0 903c 6038 2bbb
00000100: d65a a23a 1026 0b3c d50f 24bc e2c8 9b3b
00000110: dc83 dbbb 3891 25ba 0284 3a3c 8571 51ba
00000120: abd0 e2bb bdd4 9a3c 83fd c4bb 0748 343c
00000130: 35cd 7ebc 94f0 3ebc 1162 85bc f221 04bc
00000140: 062f b43a 7067 523c d58b 01bc fbc3 d33c
00000150: 9a69 a0ba d7b2 f33b 0a7b 083c 91e4 6ebb
00000160: f5a0 01bb 3bea 9e3c b2ba 08bc e60e 6b3c
00000170: c900 01b9 2b20 9d3c ce3d d5ba 72d4 21bb
00000180: 2b91 983c 36d3 4e3c 23b0 093c 5294 f43c
00000190: a203 383c 2d3c c63c f1da 673c 7874 eaba
000001a0: a051 17bc 2dce 1d3b c4e1 923c 5515 67bc
000001b0: cd61 dd3b 2f79 843c 1b90 48bb 2172 573c
000001c0: 619e 413c 2003 783c 6a1d 043c 7244 303c
000001d0: b4cf c6bb 2deb 26bc 3e98 6a3c 88ac 853c
000001e0: 3a49 bdba 94b4 9fbb bdac f53b 4dd4 9f3b
000001f0: 1a81 a9bb a94e f8bb 7db0 ae3c 4243 5aba
00000200: 1f49 06bc 0a5a 113c be9c e9ba da12 88ba
00000210: 5743 3f3a 7ba9 68bc f41b 843c abb6 bd3c
00000220: de6f bc3c dc86 3bbc 6364 283b a111 0abc
00000230: 0dc3 53bb 7179 b23b 7fe8 bfbb 9450 8abb
00000240: bdad 173c 937b 61bb e92b 8abc b758 d03b
00000250: d759 66bb 37c8 5fbc 4a3e 2f3b 3c81 7dba
00000260: b407 84b9 b1a8 febb bd03 4ebc 78ca 9dbc
00000270: 07cb f6bb 9ab2 2abc 41bd adbb 1eb6 bbbb
00000280: 4000 8a3c f1fc ffbb 3897 193c e5ec 20bc
00000290: ddd7 eebb f163 f8bb fcd6 ffbb 833d 22bc
000002a0: 041c 2d3b a0cf 423c bca1 503c 67b6 af3c
000002b0: b831 503c 8dc7 083c 388f 40bc 6e4d 8d3c
000002c0: d9a6 8d3c c708 9fbb 294e d03b 9804 e1bb
000002d0: 0f9a 06bc 7a7d 6a3a 7acc af3b 6add aa3a
000002e0: 31ff 0f3b 5786 503b 2891 8f39 65f0 56bc
000002f0: 9aff f3bb ed0a 07bc 8860 57bb ed8a 073c
00000300: 420e 5d3c c04e 553c d07c 933b e461 bdbb
00000310: f951 493c 2bd8 f6bb fa12 3ebc 3a1d 493a
00000320: dcdf 313b ab92 323c 69c3 5e3b a4ca 543b
00000330: c046 2439 33dd 19bb f50d 4cbc 5e34 eabb
00000340: a425 533c 40df 4b3c 24cd 9e3c d91d 913c
00000350: 9e36 833c 07ed 1ebc e515 5a3c b44e a8ba
00000360: 7678 e73b 1b5d 24bb 8555 9c3c b407 73bc
00000370: ac60 21bb 3840 51bc e154 143c 2d7c 91bb
00000380: 41fc e23b f62c 5dbb f562 9c3c 19b5 213c
00000390: 0e16 c33b 01f5 c839 ec29 8c3c 502a 753c
000003a0: 024b b83b ab71 833c b05a b43b e979 313c
000003b0: b00c a43c e5ee 67bc aacd b2bb 6828 863b
000003c0: 04f4 963b cc58 66bc 9a3b 0abc c2e9 92bb
000003d0: 221e b8ba b6b1 16bc dfd4 cd3a 9463 b03c
000003e0: d8e4 91bc 5a21 cd3c 5dd5 a33c 2def 1d3b
000003f0: 62e3 993c 6cf2 233b 2641 123c e1cd a33c
0.003166493 0.0003321361 -0.005509945 -0.002775737 0.0033810209 0.009272403 -0.004537217 0.018434223
0.016678387 -0.009539351 0.00080520107 0.026104886 0.007920927 -0.0053337365 0.005194258 -0.000183791
-0.007131454 0.004151209 0.008574929 0.0058181 -0.013611711 0.012568546 -0.011434934 -0.0039519733
0.01076321 0.0056453375 0.002828563 0.00783907 0.0015732098 0.006647829 -0.0124656735 0.001799396
0.018023564 0.022357259 0.007810252 0.003522331 0.013453873 0.0024037468 0.0013998433 0.006605328
0.0179158 -0.0034913102 -0.0021946477 -0.0077007115 0.010620752 0.002924167 0.0052763764 -0.0008085597
-0.0057808114 0.009784889 0.00083523087 0.0114901075 -0.002978466 0.008009012 -0.0024950504 0.009923558
-0.013343298 0.020913608 0.0037594337 -0.010581281 0.018296678 0.023294006 0.017662361 -0.0026126131
0.001238669 0.0084929615 -0.01001354 0.0047541717 -0.0066990685 -0.000631589 0.011384012 -0.0007989633
-0.006921848 0.01890027 -0.0060116663 0.011003501 -0.015551855 -0.011654038 -0.016282113 -0.008064734
0.0013746924 0.012842044 -0.007906874 0.025850287 -0.0012238503 0.007437091 0.008330116 -0.0036452154
-0.0019779776 0.0193988 -0.008345293 0.014346814 -0.00012302691 0.019180378 -0.001626903 -0.0024693278
0.018623909 0.012623599 0.008403811 0.02985588 0.011231335 0.024198616 0.014151321 -0.0017887494
-0.0092357695 0.002407919 0.017929919 -0.014104207 0.0067560435 0.016171066 -0.0030603472 0.013149769
0.011817546 0.015137464 0.0080636535 0.010758506 -0.0060672406 -0.010187906 0.014318524 0.01631762
-0.0014441379 -0.0048738215 0.0074973986 0.004877603 -0.005172861 -0.0075777364 0.02132439 -0.0008326062
-0.008196144 0.008871565 -0.0017823202 -0.0010381595 0.0007296106 -0.014200564 0.01612661 0.023158392
0.023002561 -0.011445727 0.00256946 -0.008427055 -0.0032312304 0.005446606 -0.005856573 -0.0042210314
0.009257731 -0.0034405931 -0.016866641 0.006358232 -0.0035148764 -0.013658575 0.0026740008 -0.00096704415
-0.0002518274 -0.0077715744 -0.012574133 -0.019261584 -0.007531527 -0.0104185585 -0.005302102 -0.005728497
0.016845822 -0.0078121354 0.009374432 -0.009822105 -0.0072889165 -0.0075802733 -0.0078076106 -0.009902361
0.0026414404 0.011890322 0.012733873 0.02144928 0.012707166 0.008348358 -0.011752896 0.017248835
0.017291473 -0.0048533413 0.0063569737 -0.0068670027 -0.008215441 0.0008945089 0.0053649517 0.0013035957
0.0021972174 0.0031818354 0.00027383235 -0.013118838 -0.0074462416 -0.008242351 -0.0032863934 0.008272869
0.013492169 0.013019264 0.004500963 -0.0057794917 0.01228761 -0.0075330934 -0.011601204 0.00076718966
0.0027141487 0.010899226 0.0033990985 0.0032469416 0.00015666615 -0.0023477792 -0.0124544995 -0.007147356
0.012887392 0.012443364 0.019384928 0.017714428 0.016017254 -0.009700066 0.013310884 -0.0012840838
0.0070639206 -0.002507991 0.019083748 -0.01483338 -0.0024624271 -0.012771659 0.00905344 -0.0044398517
0.0069270437 -0.0033748723 0.019090155 0.009869837 0.005953557 0.00038329515 0.017109834 0.014963701
0.005624176 0.016045412 0.005503975 0.010832288 0.020025581 -0.014156078 -0.005456646 0.0040941723
0.0046067256 -0.014059257 -0.008437062 -0.0044834325 -0.0014047066 -0.009197643 0.0015703699 0.021531858
-0.017809317 0.025040317 0.0199992 0.0024098859 0.018785182 0.002501632 0.008926665 0.019995632

network_body._body_endoder.seq_layers.0.weight f4 [256, 123]
00000000: 93a6 a7bd 68c7 c2bd 624a 6fbd 9931 833d
00000010: a4a9 353d aa0c a63d 5ae3 be3d 0483 5fbc
00000020: bafc a33d db5e 2a3d b418 24be 6cd2 083e
00000030: cfa7 7d3d 5498 bf3c 88f3 2abe 20b4 5f3d
00000040: 8870 483d 989b 503c 86a7 51bc 841e 1dbc
00000050: 65d9 a83b 7f1e bfbc fac1 c3bb d47b adbc
00000060: a9e4 da3d ed3e 443d bb64 61be 53a8 313d
00000070: 323e 293e 3649 103e faae c6bd da78 983c
00000080: 8d71 5fbe e275 c73d 528a f03c 5f8f 0cbd
00000090: e4a8 443d 83f6 3b3e e018 9bbd 64ff 993c
000000a0: b1ff d3bd 5be8 773d f36c 7cbc 608c f83d
000000b0: 3ade 97bd f203 47be 2f78 173b a5e6 92bd
000000c0: 794b 723c 236c 30bd a7d5 eabd c9e8 cf3d
000000d0: bee3 833d 0ea0 d23d e31c 713c 5705 1e3d
000000e0: 1a16 20be 6a5e 26ba cafe b9bd be7a 88bb
000000f0: f0a1 c3bb fa25 3e3c 8eff ae3d c27b f3bc
00000100: cd64 4f3d 65db 7f3d e86b 033e d28f 2c3d
00000110: 8252 46bd 9a64 373b 7d33 873c 858e aa3d
00000120: b8b0 3abd 5182 7bbc f6b5 92bd 86c6 e93d
00000130: a24f 2a3d ee7d 533d ae07 6d3d bd3c 423d
00000140: 35f5 a8bc c7de 193d f120 fabc 827c bfbd
00000150: 3275 8c3e 4b41 58bd 53bf 213d f5f8 083e
00000160: 6d3e 2cbd 3981 26be 825e cbbd 53d3 53bd
00000170: 846c 8cbc 9a00 e13d e7da 9bbd ec83 2fbd
00000180: fbbe 10bc b5ae 67bc 9b04 a2bc 2344 33bd
00000190: f537 35bd 9ffe 89bd a719 c4bc 8d22 3a3b
000001a0: 2982 d03d 2e7c 1bbd 821a c73d 55f7 d5bc
000001b0: bb56 e6bc d6a7 06be f6eb d53c a2dc 8e3d
000001c0: bf56 f4bd 67bc 05bb 123d 26bd 47cd 223d
000001d0: ab56 efbc e92b 2a3b 4608 c23b 6a6a 123e
000001e0: 04e9 153d f4ee a7bd baa0 d23c 4137 b23d
000001f0: fb46 8ebc d80a 893d 7bce a3bc 841e 033e
00000200: c9c2 2bbb a2b5 56be 2c78 633c 86ad 243e
00000210: f504 9dbd 4220 b5bd b18b 813b 4237 4cbe
00000220: 1427 10bd 3acb 8c3d b2c1 98bc 46fd c8bd
00000230: d5df c8bd 9443 c6bd 9ff0 89bd b9fe c7bd
00000240: 6dc4 cb3d bd8b bf3c 0ede b6bd cbad 993d
00000250: 6b43 a03e b801 46bd 2a83 82bd da80 71bc
00000260: 716c 583b b6fa 993d 1c6e 163e 226e 69bd
00000270: 7021 3bbd 6359 2ebe 88d0 d33d c3b4 f53b
00000280: c845 8cbb c59a 3b3e ad18 aa3d d102 ed3c
00000290: c28f 5dbd c899 46bd 22ae d93c fb78 cc3d
000002a0: 4f79 8fbc c382 353d ad8a c53d 1c6c 84bd
000002b0: 55ad 0ebd 5a09 033e a9f8 ffbc 046b d4bd
000002c0: 63b3 323e be49 dc3c ae6b 693d e583 08be
000002d0: af54 533d 4512 fabc d964 40bc 9f6a 48be
000002e0: 73c3 5e3d 522e c6bb 8f96 9f3b c2ab 1cbd
000002f0: 2b83 5bbd 4746 dabd 3cca 58bd c111 c13d
00000300: b30a a43d fe5c febc e6fd a7bd 62b2 a63d
00000310: a83b 223c c1a3 a0be 2a59 1d3d fefe 213e
00000320: b462 b8bd 36f9 87bd fe40 cdbd 4926 e1bc
00000330: e3a5 b23c 07ed 3fbe 14b9 ae3a 4042 f4bc
00000340: 5a32 083e 4192 163c abcf 96bd 7b1e 21be
00000350: de78 953d b83e 823d c214 fc3b 8b61 8bbe
00000360: c939 80be 3336 0ebd 14b7 153e 9f63 87bd
00000370: c5d0 a23c 61e6 bdbc 298b d4bb afcb 03be
00000380: 1288 d0bd 93b4 2abc 4653 cf3d 0106 37bd
00000390: f733 0a3e 2c0a 163d 5931 a73d d46b 653d
000003a0: 4742 ac3c f8a1 933d 1f0d 7dbd e357 23bc
000003b0: fed2 5a3d c8c5 e13d bfb5 aebd 4caa 203e
000003c0: b8c2 493d c96f a9bd 0cb8 2e3e 81ef b43d
000003d0: a628 44bd b0e9 093d bccd 733d f2aa 29be
000003e0: 5483 4d3d 872f 003c e960 4e3d 43fd 13bd
000003f0: 7a7e 91bc 8cfd ab3d 8a6e 7abd f92d 8f3d
-0.081860684 -0.0951069 -0.058420546 0.064059444 0.044351235 0.08107884 0.093207076 -0.013642076
0.08007188 0.041594367 -0.16025048 0.1336152 0.061927613 0.023388065 -0.16694462 0.05461514
0.048935443 0.012732409 -0.012796288 -0.009589795 0.0051528686 -0.023329971 -0.0059740515 -0.02117721
0.10688145 0.047911573 -0.22011082 0.043373417 0.16527632 0.14090428 -0.09701343 0.018612314
-0.2182066 0.09739281 0.029362831 -0.034316417 0.04801263 0.18355756 -0.07573104 0.018798538
-0.10351504 0.060524326 -0.015406835 0.121361494 -0.07415433 -0.19435099 0.0023112406 -0.07172898
0.014788502 -0.043071877 -0.11466532 0.10151822 0.06439923 0.10284434 0.01471636 0.03857931
-0.15633431 -0.0006346466 -0.090818 -0.0041650226 -0.005970232 0.011605734 0.08544837 -0.029722098
0.05063324 0.06246509 0.12834132 0.042129345 -0.04841853 0.0027983547 0.016504044 0.08327965
-0.04557869 -0.015350894 -0.071636125 0.114148185 0.04157985 0.051633768 0.057868652 0.047421206
-0.020624736 0.037565973 -0.030533286 -0.0934992 0.27433163 -0.052796643 0.0394891 0.1337622
-0.04205172 -0.16260232 -0.09930135 -0.051715206 -0.017141588 0.10986443 -0.07610112 -0.04285042
-0.008834596 -0.0141407745 -0.019777587 -0.043766152 -0.044242818 -0.06738018 -0.023938013 0.0028401942
0.10181076 -0.037960224 0.09721853 -0.026118914 -0.028117528 -0.13149962 0.026113492 0.06975676
-0.11930608 -0.0020406486 -0.040585585 0.03974655 -0.029216131 0.0025966114 0.0059213964 0.14298406
0.036599174 -0.081998736 0.025711406 0.08701945 -0.01736783 0.066915214 -0.019995918 0.1280461
-0.002620863 -0.20967725 0.013883632 0.16081819 -0.07666961 -0.08844043 0.00395342 -0.19942954
-0.035193518 0.068747 -0.018647049 -0.09813933 -0.098083176 -0.09680858 -0.06735348 -0.09765381
0.099495746 0.023382062 -0.08929072 0.075038515 0.31301436 -0.048341483 -0.06372674 -0.014740193
0.003302362 0.075185224 0.14690441 -0.056989796 -0.045686185 -0.17026286 0.103425086 0.007498355
-0.0042807795 0.18320759 0.08305488 0.028932007 -0.054092176 -0.0484865 0.02657229 0.09984013
-0.0175139 0.044314157 0.09645591 -0.06465933 -0.03483327 0.12796536 -0.0312465 -0.10371974
0.17451243 0.026890632 0.056987457 -0.13331564 0.051594432 -0.03052629 -0.011742794 -0.19571923
0.054385614 -0.0060480023 0.004870243 -0.03824974 -0.05359189 -0.106579356 -0.05292724 0.094272144
0.08009853 -0.031050202 -0.08202724 0.081394926 0.0099019185 -0.31374934 0.03841511 0.15819928
-0.09003201 -0.0663933 -0.10022162 -0.027484076 0.021807617 -0.18742763 0.0013330304 -0.029816747
0.13300458 0.009190143 -0.07363828 -0.15734284 0.07298444 0.06359619 0.007692904 -0.27222857
-0.25044087 -0.034719657 0.1462062 -0.06610798 0.01987494 -0.023181142 -0.0064863157 -0.12870668
-0.10182203 -0.010419029 0.10123305 -0.04468346 0.13496386 0.036630794 0.08163709 0.056011036
0.021027697 0.072086275 -0.06178009 -0.009969684 0.053423874 0.11024052 -0.08530759 0.15689963
0.049257964 -0.082732745 0.17062396 0.08834744 -0.047890328 0.033670127 0.059522375 -0.16569117
0.050174072 0.007823831 0.05038539 -0.0361302 -0.017760504 0.083979696 -0.061140575 0.069911905

network_body._body_endoder.seq_layers.2.bias f4 [256]
00000000: e67d d83c 088a c1bb 3f0e 1abc bcd5 933c
00000010: 9422 393c 4a26 553c adb2 043c 5a08 3b3c
00000020: 63f6 1ebb 789d 433b 4ce4 193c e733 09bc
00000030: 16d6 7bbc 8f09 0fbb 2037 b1bb 75fc 2fbc
00000040: 8d80 4f3b a484 1e3c a97e 15bb 7bca dd3c
00000050: b775 1e3c c951 92bb a096 a53c a2d3 8b3b
00000060: d0e1 edba ea9e cdba bf83 003c f3d3 d3bb
00000070: 6b23 75bc a13e dfbb e5db 043c c8ba 9abb
00000080: c630 ab3b 1f5c f83b 8916 77bb 05d0 093c
00000090: a0bc 94ba 02f0 ffb9 dcf8 5a3c 4567 dc3b
000000a0: 1a65 ca3c 7014 8b3c 17cd 043b 3ad7 c2bb
000000b0: 3590 c6bb e2b9 353c 7a81 d63c 6e0e f8ba
000000c0: aae1 08bc 35a2 f3b9 61ed d0bb 536a bd3b
000000d0: 2017 64bb 7ddc 553c a1a6 3fbb 3908 d93b
000000e0: 0e0c 10b8 e42c 81bc acb2 80b9 c04e 52bc
000000f0: 1501 793c 2493 203c 7e3e 6f3c ca0f a6bb
00000100: 15aa 383c 3e7d 9d3b d088 743c 6ad3 3dba
00000110: 8e3f 903c eb94 0fbc e4ef 82bb a77b 4d3c
00000120: 7de8 a7bb f5a6 563a 50ea f33b e554 89bc
00000130: 1d95 54bc 4819 74bc c996 8abb b9d5 3f3c
00000140: 1c44 ea3b 3b52 653c 5f91 02bb bb24 83bb
00000150: 8a00 913c 4c55 063b fffb 143c 6619 773b
00000160: 2536 99bb 091b 843c 9623 56bc 9897 e5bb
00000170: 3900 b23c 23f2 1bbc 6ef0 873c b77c 81bc
00000180: 0c56 cb3b a6b5 06ba 1f6f f7bb 8b0d 1dbb
00000190: a4db 933c 6c78 67bb 6455 04bc 5fbf 24bc
000001a0: 3192 40ba e782 ee3b 441f debb 60ec 29bc
000001b0: e9e0 ebba dd45 cabb 5979 b33c 8ccc 90bb
000001c0: 1998 03bb ca41 863c 511e f23b fb45 393c
000001d0: bfbf 3abc 545c 2739 ad78 9d3b 9fe9 d53b
000001e0: c82e c93b 1aba 0b3c f4fe 253c 0cde 963c
000001f0: 7c61 c2ba 2095 c33c d909 c8bb abdb 263c
00000200: 8434 5a3c b73b 33bc 21a2 353a 3485 48bb
00000210: 09e7 863b 98fa 983c 9510 3abc acf7 c5ba
00000220: 4bd7 ef3a 6719 99ba e0a9 973a 57c1 1a3c
00000230: 06c3 543c f6c0 9c3b fe25 ddba 17b7 fcbb
00000240: fe38 253c 3fd0 1dbc 5bc9 45bc 9090 d9ba
00000250: 852d 533c b5b8 d33b c1e2 1ebb 6c79 953b
00000260: 4c95 7dbb 6e3a 1d3c 5f66 8c3b 421b 8c3b
00000270: f3a4 c23c 424e ab3c 6da1 633c c963 0a3b
00000280: 8ed2 6d3b 8620 7bbb a59d d3bb 699f 2dbc
00000290: 73d0 86bb 059a 8e3c ce2e 5fbb 018b 283b
000002a0: a121 f43b 7c7c 6d3c 5948 f13b bb44 66bc
000002b0: 4352 3f3c 987b 36bb 9fe7 a03b 52a7 1abc
000002c0: 71ec a0bb cf9a 9a3b e814 32bc e4a9 453c
000002d0: aab0 873c 639c 3e3b b148 123c dd87 463a
000002e0: 8786 f93b 048d 9e3b 6952 e3bb 5ba7 633b
000002f0: 178e 9bbb 757a 31bc 1325 2cbc 2b13 c0bb
00000300: 14dd 3e3b cd88 97bb 31a3 e4bb 3d65 823c
00000310: 527b 07bc bc8a 5c3c 7f91 203c ecfe 61ba
00000320: 9fd5 a03c 759b 663a a567 b63c adc3 443c
00000330: a199 4db9 fe13 46ba 7e12 c73b 8ec5 c63b
00000340: 4d4c 473b 701a 803c a1f4 e1bb ab38 0bbc
00000350: 6f68 44ba 0951 a73c c13b 933b ef20 d5bb
00000360: 06e8 573c a191 193c 50d6 9c39 eb09 4d3c
00000370: b9d9 47bb 01bd 913c 0a81 993c 1067 0f3c
00000380: 6d84 d23b 31aa 35bb a758 123c 316e 2c3b
00000390: 7e42 e03b 575c 67bc 690f 57bc 1776 ecbb
000003a0: daaf aa3a 45e3 c7bb f32d a1bb 1031 a83c
000003b0: ed4b 2f3c 0324 193b 8ca6 ae3b 4473 f83a
000003c0: 0c85 00bc e285 f5bb 6e17 6c3c 09f1 033c
000003d0: d240 e7ba c985 813c fc98 193c cc57 41ba
000003e0: 8a1a 2bbc bacf 993b 0f5a 7cbc dd6b 5a3c
000003f0: 76a8 9939 9d42 863c 8ac2 d0bb bb59 54bb
0.02642722 -0.005906347 -0.009402811 0.018046252 0.011299748 0.013009617 0.00809924 0.011415565
-0.0024255745 0.0029848497 0.009392809 -0.008374191 -0.015370866 -0.0021825766 -0.0054081827 -0.010741343
0.0031662316 0.009675179 -0.002281109 0.02707409 0.00967162 -0.004465316 0.020213425 0.004267172
-0.0018148962 -0.0015687619 0.007843911 -0.0064644753 -0.014962058 -0.006812886 0.008109068 -0.004721973
0.00522432 0.007579341 -0.003770264 0.008411412 -0.0011347719 -0.0004881621 0.013364997 0.006726178
0.024706412 0.016977519 0.0020263845 -0.005946067 -0.0060596713 0.011091681 0.026184786 -0.0018925199
-0.008354584 -0.00046469425 -0.006375954 0.005780497 -0.0034803823 0.013053057 -0.0029243606 0.0066232947
-3.4343502e-05 -0.015768476 -0.00024547183 -0.012836158 0.015198012 0.009800706 0.014602302 -0.0050678
0.0112710195 0.00480619 0.014925197 -0.0007241281 0.01760843 -0.008763532 -0.0039958823 0.012541688
-0.0051241503 0.00081883307 0.0074437037 -0.016764114 -0.0129750045 -0.014898606 -0.004229401 0.01170867
0.0071492326 0.013996656 -0.0019923074 -0.0040021813 0.017700452 0.0020497618 0.009093284 0.0037704348
-0.004675644 0.016126173 -0.013070008 -0.007006597 0.021728622 -0.009518179 0.016594138 -0.015806539
0.006205326 -0.0005138762 -0.0075510885 -0.002396437 0.018049069 -0.003531958 -0.008076999 -0.010055392
-0.0007346003 0.0072787884 -0.0067786295 -0.010371298 -0.0017996106 -0.006172879 0.021908449 -0.004418915
-0.002007967 0.016388793 0.007388868 0.011308189 -0.011398255 0.00015960756 0.0048056454 0.006528094
0.00613961 0.008528257 0.010131586 0.018416427 -0.0014830078 0.02387482 -0.0061046896 0.010184209
0.013318185 -0.01093953 0.0006928761 -0.0030596973 0.004116897 0.01867418 -0.0113564925 -0.0015103719
0.0018298415 -0.0011680544 0.0011571012 0.00944551 0.01298595 0.004783745 -0.0016872284 -0.0077122557
0.010084389 -0.009632169 -0.012071933 -0.0016598869 0.012889271 0.006461228 -0.0024244043 0.0045615938
-0.0038693724 0.00959645 0.0042846645 0.0042757103 0.023760295 0.02091134 0.013893467 0.0021116605
0.003628883 -0.0038318946 -0.0064580017 -0.010597088 -0.0041142046 0.017407427 -0.0034054997 0.0025717618
0.007450298 0.014495011 0.007363361 -0.014054473 0.011677328 -0.0027844664 0.004910424 -0.009439306
-0.0049109985 0.0047181617 -0.010869242 0.012064431 0.016563732 0.0029084913 0.008928464 0.0007573346
0.007614914 0.0048385877 -0.0069373143 0.0034737203 -0.004747163 -0.010832419 -0.010506886 -0.00586166
0.0029123472 -0.004624462 -0.0069774617 0.015917415 -0.008269148 0.013460811 0.009800314 -0.0008621055
0.019633112 0.00087969686 0.022266218 0.012009543 -0.00019607555 -0.00075560797 0.0060752025 0.006066031
0.003041047 0.015637606 -0.006895617 -0.008497397 -0.00074923685 0.020424383 0.004493207 -0.00650417
0.013177877 0.0093731 0.00029914314 0.012514572 -0.0030494763 0.01779032 0.018738288 0.008752599
0.006424478 -0.002771985 0.008932269 0.0026310796 0.006843864 -0.014121137 -0.013126233 -0.007216226
0.0013022379 -0.0061000907 -0.0049188077 0.020531207 0.010699254 0.0023367412 0.0053299125 0.001895525
-0.007844221 -0.0074927667 0.014409883 0.008053073 -0.0017643219 0.015810864 0.009374853 -0.00073754485
-0.010443339 0.0046939524 -0.015402331 0.013331381 0.00029307947 0.016389186 -0.006370847 -0.0032402116

network_body._body_endoder.seq_layers.2.weight f4 [256, 256]
00000000: 0fda acbd 0df3 98bb 9543 dfbb 93d6 35bd
00000010: 3ce2 0e3e 89b8 ad3d 7efc 0d3d 4878 7a3d
00000020: 1845 783d ba91 c6bb 95d6 d4bc bc03 8e3d
00000030: 2b03 953b 17b2 dbbd b8de 493d 5668 2cbb
00000040: 8b0a 79bd 9109 8d3c de9a c9bb 25ab 8ebd
00000050: f8b6 8e3c 2412 783d fb75 20be e1cb 2f3b
00000060: c2da 783c 814c ae3c 4cfa 953d 3013 bf3d
00000070: 7ac9 0abe 1473 f4bd 0de0 e6bc 8248 83bd
00000080: 1b9f 323d 9bdc 3fbc a7f5 283d c1cd 72bd
00000090: 8dee 37bd 56e2 81bb 7bfe a93d 29f9 cd3c
000000a0: d363 fd3c bded 323d efeb 37bd 447a a0bd
000000b0: a669 dd3c b54d 1bbd 186c 993d 8ec2 29bc
000000c0: f63f 7b3b faba 423d e85f ab3d bd81 ab3d
000000d0: 1767 063e 3966 0ebb 17dc 0d3d 0aa9 a3bc
000000e0: 60b6 2dbd a2c3 e1bb ce78 353c 242e bbbd
000000f0: 5d0f 683a 12d5 003c 9ed3 d4bc 9d15 63bd
00000100: 6036 35bd c6ee 943d fc91 e43d 3902 62bc
00000110: 6d56 083c 866c baba 0123 c83d b50f 37bd
00000120: aaef 9c3d 3a9b f2bd 099e 513d b3e5 593d
00000130: 038a 87bd c87e 9dbd 1698 0bbd cd6a cd3c
00000140: a09f 99bb 84bf 92bc cbfd 30be 0376 0fbc
00000150: 49a9 98bc 93de 96bd ec3a 01bd b4c0 e03c
00000160: 411f 45be aa75 18bd 60a2 ff3d cfb8 303d
00000170: f8cd 4cbb 3a10 17bd 7071 d1bd 72be 33bd
00000180: 7d87 33bd e901 09be ad16 17bd 2b4b 1f3e
00000190: 1525 00bc d722 9a3d 4ec0 bebd 8574 043d
000001a0: a87c 7c3c b45c ccbc 5530 a53d c6a5 3f3d
000001b0: 8321 b93c 8ef4 24bd 3628 5e3d 252a 5dbd
000001c0: d782 9e3d 6673 8fbc 5b19 97bd bff8 63bc
000001d0: bc8d 51bd f72a 01bd 08ea 1f3e 339a 833d
000001e0: 31af a9bd 39b4 0cbd b190 d6bd a226 11bd
000001f0: eee2 2abd 806b abbc 8bb1 143d dcaa d73d
00000200: 5af6 b53d 084c 5e3d 1de7 8bbd 766d 43bd
00000210: 0464 9cbd 90da d9bd d62e 68bc d840 8dbd
00000220: 9fd9 433d f9f0 d3bc 92fc 973c d751 89bb
00000230: 7ec3 303d 3e4a a3bb 1fd8 e6bc 833c 883d
00000240: 2802 e0bd 6de3 93bd 6389 3ebd 3dfc 533c
00000250: de4e 2c3d fb2e 77bd 5d3b ef3c 56ba 1ebd
00000260: 18e9 2fbd e73a 7f3d 3f15 61bc 1524 a9ba
00000270: 564d 02be 396c b03d 6f64 e9bd 044e 1b3d
00000280: 5d20 29bc e391 bfbd 57cf 01bd 0ebe 793d
00000290: 3600 de3c edcf 263b c2c0 6dbd 71ac 183d
000002a0: be97 cabc 8710 d0bc 0fef 4e3d e7b8 98bb
000002b0: 3ad2 ba3d bad8 033e 0455 b8bc 0e2a 153d
000002c0: acee e93c e1f9 1dbe 2a36 75bd dda4 ebbc
000002d0: 4cb9 85bd eec6 8bbc b641 4cbd 7bcf b13c
000002e0: 946f 483b b6ae 793b 03bb ccbb 4942 b33c
000002f0: 60da 55bd f4ab f4bd fa51 823d 8d3d 933c
00000300: c30f e5bc be5a 703d be0b e43c bed5 3a3d
00000310: 178c 5a3c be63 e53b 58c7 d1bd 55f1 1e3d
00000320: 5af7 153e 1138 04bd 7332 0dbe 2d65 d53c
00000330: bcc3 8f3d f7ea 383e a7f2 75bc 8de4 17be
00000340: 0a92 b73d 6245 69bd 6e3d 62bd 8a02 8fbd
00000350: 3e60 aa3b d897 f63c 7663 183d dcb4 833c
00000360: 83b1 53bc b100 89bd 580f 713d 644b 08bd
00000370: 5e20 a03c 5026 b83c 5233 a73d 3bf4 0fbd
00000380: ef3b 923c ec46 a5bd 2c46 7d3d 70f3 ea3c
00000390: 293f 853d 1bcc 073c b4b0 783d 7cce 433d
000003a0: 8615 8dbd 74d1 2d3d a1c5 0dbd 4bd5 bcbd
000003b0: 26e8 9c3d 48f8 053d a845 3abd bf06 d5bd
000003c0: 2419 bf3d 6082 d0bd 7646 9abd edb5 e1bc
000003d0: 03ca 6d3d 57d0 d2bd 31a4 093d 257d 97bd
000003e0: e613 83bd 69db 913d d982 4e3c b827 2d3d
000003f0: e722 903d 0608 543c 3308 b9bd a0b8 16bd
-0.08440029 -0.004667646 -0.0068134763 -0.044394087 0.13953489 0.08482463 0.034664623 0.061149865
0.060612768 -0.0060598524 -0.025981227 0.06934306 0.004547497 -0.10727327 0.049284667 -0.0026307306
-0.06080107 0.017216476 -0.006152495 -0.06966237 0.01742123 0.060564175 -0.15670006 0.0026824402
0.015188875 0.021276714 0.07323131 0.093298316 -0.1355342 -0.11936012 -0.028183008 -0.06410314
0.043608766 -0.011710311 0.041249897 -0.059278253 -0.044905234 -0.003963749 0.083004914 0.025143223
0.030931389 0.043683756 -0.04490274 -0.0783582 0.027027916 -0.037915904 0.0749132 -0.010361327
0.0038337684 0.047541596 0.08367902 0.08374355 0.13125263 -0.002172841 0.034633722 -0.019978065
-0.042410254 -0.0068897763 0.011076165 -0.0913966 0.0008852387 0.0078633 -0.025979813 -0.055440534
-0.04424131 0.07272105 0.11160657 -0.013794475 0.008321387 -0.0014223016 0.097723015 -0.044692714
0.076629 -0.11846013 0.051176105 0.053197574 -0.066181205 -0.07690197 -0.034080587 0.02507534
-0.0046882182 -0.017913587 -0.17284314 -0.0087561635 -0.018635409 -0.073666714 -0.031550333 0.027435638
-0.19250204 -0.03722159 0.124821424 0.043144997 -0.0031250697 -0.03688071 -0.102267146 -0.043882795
-0.043830384 -0.13379635 -0.03688686 0.15556018 -0.007821341 0.075261764 -0.09314023 0.032337684
0.01541058 -0.024946548 0.08065859 0.046788953 0.022598987 -0.040272288 0.054237567 -0.05399527
0.077397995 -0.017511081 -0.07377883 -0.013914286 -0.05116056 -0.031535115 0.1561662 0.064258955
-0.08285368 -0.03435156 -0.104768164 -0.035437234 -0.041720323 -0.020925283 0.03630213 0.10530636
0.088848785 0.054271728 -0.06831191 -0.047711812 -0.07636264 -0.106373906 -0.014171323 -0.068971336
0.04781496 -0.02587174 0.018553052 -0.0041906643 0.043155186 -0.0049832156 -0.028179226 0.06652167
-0.10937911 -0.072211124 -0.04651774 0.012938556 0.0420674 -0.06034754 0.029203111 -0.038751923
-0.042946905 0.062312033 -0.013737976 -0.001290443 -0.12724814 0.08614392 -0.11396109 0.0379162
-0.010322657 -0.093539976 -0.031691875 0.060972266 0.02709971 0.0025453523 -0.058045156 0.037273828
-0.02473056 -0.025398506 0.050520953 -0.004660714 0.09122129 0.12875643 -0.022501476 0.03641706
0.02855619 -0.15427352 -0.059866108 -0.028765136 -0.06529483 -0.01706263 -0.049867354 0.02170538
0.0030584084 0.003809852 -0.0062478795 0.021882193 -0.05221021 -0.1194686 0.06363292 0.017973686
-0.027961617 0.05868029 0.02783763 0.045613997 0.013339064 0.0070004156 -0.102431 0.03880437
0.14645138 -0.03228003 -0.13788776 0.026049221 0.07019755 0.18058382 -0.015011466 -0.14833279
0.089634016 -0.056950934 -0.055234365 -0.06982906 0.0051994612 0.030101702 0.03720423 0.016077451
-0.01292074 -0.06689585 0.058852524 -0.033275023 0.019546684 0.022479206 0.081640854 -0.035145026
0.017850844 -0.08070168 0.0618345 0.028680533 0.065061875 0.008288409 0.060715392 0.04780434
-0.06888871 0.04243608 -0.0346123 -0.0922037 0.07661466 0.032707483 -0.045476586 -0.10401677
0.09330967 -0.10181117 -0.075329706 -0.02755257 0.05805398 -0.10293644 0.03360385 -0.07396916
-0.0640028 0.07121927 0.012604439 0.042274207 0.07037907 0.012941366 -0.09034767 -0.036797166

network_body._body_endoder.seq_layers.4.bias f4 [256]
00000000: 9daa e8bb 0889 fa3b ea2e d1bb 8663 313b
00000010: 86e9 aabb 9ee2 86bb bb18 3b3c 08c7 d6bb
00000020: c471 c43b c7b0 803c cd66 7e3c 95f6 123c
00000030: 64fb b9bb 55eb 9f3b 42d7 87ba f9ff 49bc
00000040: e46a f13b 5ab4 c6bb 33c7 80b9 32e0 233a
00000050: d273 273c 7c0d 3cbb 58b2 01bc 3d87 97bb
00000060: efa9 9dbb 0173 3a3c d4df 43bc 616d 5ebb
00000070: efb3 45bc a54a a23b 48f3 4b3c 22c4 9539
00000080: b025 8fbb 1529 823c 2a48 60b9 3f99 3e3c
00000090: e0cd 1bba f80c 333c 2865 3a3c b2b8 56bb
000000a0: f8bc 0ebb 46e9 8cbb 64db 963b 3325 243c
000000b0: 2d8b 0e3a 3533 0dbb 0973 a13a c1f2 133c
000000c0: fafd f43a 2c19 693c b3ee 793c 43c2 cc3b
000000d0: 5053 683c 5aba 153c 5599 37bb 5e5e 1aba
000000e0: bcff a93b af2f 6a3c e0c1 40bb 1a53 5ebc
000000f0: bfc5 1c3c a4ee 173c 57ec 1a3b fcbc e53a
00000100: 783b d0ba a7da 25bc f2d4 2dbc 9bda 85b9
00000110: 805b 4a3c f2b0 713c 593f 43bc ffe0 b33a
00000120: 65c4 463c a811 bfbb 9e63 04bc 3c9a 343b
00000130: 99c6 19bc c595 c83b 48c2 fd3b 048f 17bc
00000140: d25c 6dbb f655 53ba 743f 9dbb f7c9 a13a
00000150: da2c a13b 1281 23bc 3dc8 df3b ed1a 23ba
00000160: 2955 ceb9 8c4f c93b f5ec 4a3c 09ec dbbb
00000170: 821f 9a3c e07e 603c 285b dbbb 1c3c 0fbc
00000180: 1999 9e3b 3407 173c bc06 5d3b 3c6d 1bbc
00000190: a3b4 523c 4fd8 5f3c 2987 2fbc ab32 db3b
000001a0: 7b34 9dba 8de1 5fba aade ff3a b759 25bc
000001b0: 5e64 f0ba 5ce3 3f3c 4954 a23c de11 b43b
000001c0: 41e1 2e3c d9d9 b83b 9a3e 5dbc f6cf f3bb
000001d0: 6702 1d3c e3ac 2b3c 765c 5fbb 8372 feba
000001e0: ffd4 063b e293 e23b 4f01 e03b 8182 1ebc
000001f0: 27d3 8fbb 5f2a 253c f620 dcbb 8829 273b
00000200: bcfd 8a3a 1452 92bb 9be6 b63b 5fbb 163c
00000210: bf8e bc3b 1278 033c 95f0 393c 48d0 333c
00000220: 0563 b23b c151 2c3c 288d a23b b97e 8fbb
00000230: c492 3dbb bce1 2a3c d946 2bbc 6b40 8eba
00000240: c9ad 2e3c dcb8 353a bd80 603c 3256 143c
00000250: 2750 033c c08a da3b 9fe0 873c 2ab5 e1ba
00000260: 4039 783c 0a02 b1bb 75c7 a73b 2b7a 2fbb
00000270: 5bd7 d4bb 9a8e e7bb aa96 4a3b a457 313b
00000280: 38e3 febb 4f22 d43b a8a1 263c 5780 693c
00000290: 94dc 42bb ed63 913b 6f6a c0bb 8bea 673c
000002a0: 8c00 8c3b 7e1e cebb 3fc7 3a3c 70b6 813a
000002b0: dce6 743c 1211 243b d8b1 133c 13c4 883b
000002c0: 7fa7 263c a7d3 08bc cffe afba 9ca4 e83a
000002d0: 25f0 2a3c 7a10 e73b c4d6 12bb a605 2dbc
000002e0: af98 673a 84ac 9c3b cd49 233c 7be7 e2ba
000002f0: 1571 f1bb c11d d2bb 2aff 5fb9 6cc3 11bc
00000300: 6b2f 90bb 9678 4e3b f149 063b 516e 10bc
00000310: 2632 f6bb fe58 c7bb ee10 58bc 9fed a43c
00000320: b86c 9eba e674 873c 6aaf 02bc 508a d0bb
00000330: d770 4c3c e15a 61bc 67c6 be3b 2503 0f3b
00000340: 6859 2a3c 9b5c 9cbb a4fb 06bc 28a9 443b
00000350: b70d 3abc ed20 a43b 677f e8bb 9703 003c
00000360: a59d 333c 45bb b2b9 1d3c 09bc 40d4 8ebb
00000370: 9963 6a3c 3d6d 813c 168d 70bc 40b8 053c
00000380: 55a3 1fbb 137e 5e3c 7a7c 2dbc d49b ce3b
00000390: 5ac4 8bbb c81d e4bb 39bf 43bc 0008 29bc
000003a0: 0ed7 33ba 852f c1bb 28d7 423c 1934 a6bb
000003b0: 0597 f4bb 5f3e e4bb a1af 8d3c 6d1e f5bb
000003c0: 4f2f 43bb 1379 2fbb 1b92 003c c2e5 bf3b
000003d0: 6616 b03b b427 d6bb 42c1 093c 2458 8ab9
000003e0: cb5a 9dba fa11 603c 590f 82bc b27c 34bb
000003f0: 3366 bb3a 3f5c aabb 201a 963b 1198 313b
-0.007100417 0.00764573 -0.0063837664 0.0027067377 -0.0052158264 -0.0041163703 0.01141947 -0.006554488
0.005995007 0.015709294 0.015527439 0.008969923 -0.00567572 0.0048803487 -0.0010363834 -0.012329095
0.0073674787 -0.00606398 -0.00024562477 0.0006251364 0.010220485 -0.002869456 -0.007916056 -0.004624276
-0.0048115174 0.011379958 -0.01195522 -0.0033939707 -0.012066825 0.004952746 0.0124481395 0.00028565625
-0.0043685064 0.01588873 -0.00021389188 0.011633216 -0.00059434585 0.010928385 0.011376657 -0.0032763896
-0.0021780115 -0.0043002693 0.00460379 0.010018635 0.0005437609 -0.0021545414 0.0012317608 0.009030045
0.0018691414 0.014227193 0.015254664 0.0062487437 0.0141800195 0.009138668 -0.0028014977 -0.00058886956
0.0051879566 0.014293595 -0.0029412434 -0.013569618 0.009568631 0.009273205 0.0023639405 0.0017527635
-0.0015886864 -0.010122932 -0.010609852 -0.0002553061 0.012350917 0.01475166 -0.011916959 0.001372367
0.012131785 -0.005830962 -0.008080391 0.002755775 -0.009385728 0.0061213695 0.0077441074 -0.009250406
-0.0036218655 -0.00080618204 -0.004798824 0.0012343515 0.004918677 -0.009979503 0.00682929 -0.0006221969
-0.0003935483 0.006143516 0.0123855965 -0.006711487 0.018813852 0.013702124 -0.0066942163 -0.008742359
0.004840028 0.009218026 0.0033725938 -0.009486493 0.01286045 0.013662412 -0.010713377 0.0066893897
-0.001199379 -0.00085403846 0.0019521315 -0.0100921905 -0.0018340459 0.011711922 0.01981558 0.005495294
0.010673822 0.005641204 -0.013503695 -0.0074405624 0.009583092 0.010478231 -0.003408221 -0.0019412789
0.0020573733 0.0069146017 0.0068360935 -0.009674669 -0.004389185 0.010080903 -0.0067177964 0.0025506932
0.0010604183 -0.004465351 0.0055816895 0.009199946 0.0057543213 0.008024232 0.011348863 0.010974951
0.005443933 0.0105175385 0.004960675 -0.00437912 -0.002892659 0.010429796 -0.010453903 -0.0010852938
0.010661551 0.0006932148 0.013702569 0.009053754 0.008014715 0.0066693723 0.0165866 -0.0017220129
0.015150368 -0.0054018544 0.0051202127 -0.0026775699 -0.006495399 -0.00706656 0.0030912557 0.0027060295
-0.0077785514 0.0064738165 0.010170378 0.01425179 -0.0029733526 0.004436961 -0.005872063 0.0141550405
0.004272526 -0.006290256 0.011400043 0.000989629 0.014947619 0.0025034589 0.009014569 0.0041737645
0.01017177 -0.008351243 -0.0013427379 0.0017749253 0.0104332315 0.0070515247 -0.0022405842 -0.010560429
0.00088347023 0.0047813077 0.009966326 -0.0017311418 -0.0073682168 -0.0064122383 -0.00021361993 -0.00889669
-0.004400184 0.003150498 0.002049085 -0.008815364 -0.0075133024 -0.0060836067 -0.01318763 0.020132838
-0.0012086844 0.016535234 -0.007976392 -0.0063641444 0.012478075 -0.013754577 0.0058219912 0.0021821943
0.010397293 -0.0047717816 -0.008238707 0.0030008052 -0.011355809 0.005008808 -0.0070952657 0.007813356
0.010962878 -0.00034090332 -0.0083761485 -0.0043587983 0.0143059725 0.01579916 -0.014682075 0.008161604
-0.0024358828 0.013579863 -0.01058876 0.0063051973 -0.0042653503 -0.006961558 -0.0119474465 -0.010316849
-0.0006860354 -0.0058955573 0.011892118 -0.0050721285 -0.007464292 -0.006965443 0.01729566 -0.0074804337
-0.0029782837 -0.0026775047 0.007847334 0.0058562467 0.005373764 -0.0065354947 0.008407893 -0.0002638708
-0.0012005208 0.013676161 -0.015876459 -0.0027540145 0.0014297426 -0.005198985 0.004580751 0.0027098695

network_body._body_endoder.seq_layers.4.weight f4 [256, 256]
00000000: e734 37bd 3473 0fbe fc25 1ebe e5b7 a3bd
00000010: 2cbc 953d 56dd 08bd ed14 3a3c 92a6 9fbd
00000020: 6384 dabc 8287 083e 9b98 143d 8f31 893d
00000030: 3065 733b 1021 033e 4823 4dbb 0a62 ddbb
00000040: 7ddc 3bbb 90e5 ab3d 146f 233b 2fe8 593d
00000050: 37ef f7bc f62f f4bb 46ed a83c 0833 96bd
00000060: c413 35bd e1cf bf3d 7f9b 90bd a5e3 a9bc
00000070: c451 963d 2796 a1ba 157e e6ba f993 a03c
00000080: 6bf9 06bd 2049 243c d035 e13c 7994 f83c
00000090: 0556 55bd 32ba 013e 37bf 8abc 6ba1 29be
000000a0: 3b10 e53c b9b1 adbc a55c d0bc bcc5 9e3d
000000b0: b6e8 24bc c8a6 07be 75fd 3e3d b5f5 883d
000000c0: bd94 e0bc f355 cbb9 9362 9a3d 2172 6abd
000000d0: 7510 263c 5ec1 f43d 1431 6dbd 9163 93bc
000000e0: 71e6 043d e929 7b3c ef7d 8d3d 3566 0a3a
000000f0: b283 f93d 7906 bcbc 6c9a 0ebe 4480 cfbc
00000100: 8673 8f3b 271d 913d 5b1d a33d b81b a4bd
00000110: 9547 89bc 04fe 5bbb 3246 383c 7e9f 75ba
00000120: 2c94 ed3d 42ab 823c 3f48 07be 8543 69bb
00000130: b55c 6bbd 782d 6e3d 14fb 743d e2f0 293d
00000140: 3271 693d 0be9 d9bc 897c 9ebc 99c5 8ebd
00000150: 2702 1b3d 9eb1 f33d 36cb 8e3d 4e77 50bd
00000160: 1a11 e93c 9ff5 04bd 764e d0bd f205 6b3d
00000170: 5147 833d 353c e83c af4e ac3d 23b4 d93c
00000180: e315 a2bd c747 62bd 247f 66bd e1c0 86bd
00000190: c556 613d f0b1 a83d 2cf6 86bc b3b1 9e3c
000001a0: 41f6 3a3d 611f 4d3d 6c65 8ebc f0f5 b7bb
000001b0: b375 cebd 262c 943c 82b4 123d 0f34 e7bd
000001c0: 28ca 7fbc bad6 aa3c eb9a 203e 0eb7 993c
000001d0: 926f a13d 069c 01bd 6c29 daba 727b ffbc
000001e0: e591 dfbd 2f88 9e3d b639 d83d 9cd0 093d
000001f0: d558 183e abff 503d bc33 a53a 9b6b b63d
00000200: 3f44 55bd f369 233d 32ae 9a3d 6200 113d
00000210: c075 93bd 2899 c53d 67ca d3bb 1dd2 f23c
00000220: a6d4 573d 2aa6 333d 3858 80bd a3c1 f8bd
00000230: 7cfd d63c 1857 88bd 824c eebc 4859 f53d
00000240: 1f31 7abd a9fa 9cbc 1750 eb3d 6d22 85bc
00000250: 7881 923d 218d d6bd 5b3d 623d a0fd 9bbd
00000260: 219c 063e f1b0 883b c923 22bb cc29 b53d
00000270: a463 4ebc 581c babc 9169 89bd 7c9a c7bd
00000280: ffd8 83bc 9409 fd3d 5af2 14be 2e26 663c
00000290: 7871 f63d 64b0 33bd f885 12bc a099 85bd
000002a0: 0749 9e3c a53e bbbc f083 a2bc 49a4 233d
000002b0: a42a 1a3d a0f5 7d3d b132 f53c 4c5f 1d3d
000002c0: 3868 9dbd 6f00 cfbc 63ce 23bd a6f1 ac3c
000002d0: 19a2 52bc 7a5f f93c d4c2 083c 472c bc3d
000002e0: c162 b33d 5729 9b3c c2f0 963a 6936 ccbd
000002f0: 3100 52bc 5261 b83d ab3e 9cbc 9406 a93d
00000300: 3c9c 043d c86a 1a3d c92d c03d da76 ab3d
00000310: 0c96 373c dde6 583d 1062 8c3d 3a3d 2d3d
00000320: c4cd b93d 0bb4 6f3c d019 04bd 001d 8a3d
00000330: 19e7 8dbd e4a2 d5bd ae8f ecbc ff2b e13d
00000340: 0d77 32bd 2dd0 a5bd 946b bf3c c0d1 9cb9
00000350: 722e edba ba7f 913d acae 953d c631 e33c
00000360: f21d 27bd 36e8 c9bd 182e ce3d 2a87 02bd
00000370: 57c9 613d 4320 833c ff55 32ba 9255 673d
00000380: 955d f23c 1a01 06bc 2954 17be 1fbe 933c
00000390: 9afd 0a3d f4ce 55ba 1496 1f3c 2846 f6b9
000003a0: 8320 4e3d 5a0d 2dbd 323e c73c 3a57 11bb
000003b0: 2268 01bc 09b4 c8bc cbf2 8e3d ec37 3fbd
000003c0: 2918 ab3d d1ad 493d a596 263c 2f97 e23b
000003d0: b68d 84bb bc1f 1ebd 237c ccbd 6a55 f63d
000003e0: 3cc7 9f3b f779 b03c 18cd a33d 645c b8bd
000003f0: 5419 81bc 861d 8abd 3439 213c dd61 8f3c
-0.044728186 -0.1400879 -0.15444177 -0.079940595 0.073112816 -0.033414207 0.011357528 -0.07795443
-0.026674455 0.13332942 0.03627835 0.06698906 0.003713917 0.12805581 -0.0031301547 -0.006756072
-0.0028665357 0.08393395 0.0024938034 0.053199943 -0.030265434 -0.0074520065 0.020620953 -0.07333952
-0.044208303 0.09365822 -0.070609085 -0.020738432 0.07339814 -0.0012328074 -0.0017585183 0.019601809
-0.032952707 0.0100272 0.02749148 0.030344235 -0.052083988 0.12668684 -0.016936881 -0.16565482
0.02796184 -0.021202909 -0.025434801 0.077525586 -0.010065248 -0.13247216 0.046628434 0.0668749
-0.027414674 -0.00038783214 0.07538333 -0.057237748 0.01013576 0.11950944 -0.057908133 -0.017991813
0.03244633 0.015329816 0.069087856 0.0005279512 0.12183322 -0.022952305 -0.13926095 -0.025329717
0.004377785 0.070856385 0.079645835 -0.080130994 -0.016757766 -0.0033568153 0.011247205 -0.00093697745
0.11600527 0.015950803 -0.13211153 -0.0035593223 -0.05746146 0.05814883 0.05980976 0.04148949
0.056992717 -0.026600381 -0.019346492 -0.069712825 0.03784385 0.11899112 0.06972353 -0.050895028
0.028450537 -0.032460805 -0.10171215 0.057378717 0.06410087 0.028349021 0.08413445 0.026575154
-0.07914331 -0.055244233 -0.056273594 -0.065797575 0.05501439 0.08237064 -0.016474806 0.019371843
0.045645002 0.050078753 -0.017382346 -0.005614035 -0.10081043 0.018087458 0.035816677 -0.11289226
-0.015612163 0.020854343 0.15684097 0.018764045 0.078826085 -0.031642936 -0.0016644425 -0.031186793
-0.10916499 0.07740819 0.105578825 0.03364621 0.14877637 0.051025074 0.0012603919 0.08907243
-0.052067038 0.039895963 0.07552756 0.035400756 -0.072001934 0.09648353 -0.006463337 0.029641205
0.05269303 0.04385964 -0.062668264 -0.12146308 0.026243918 -0.06657237 -0.029089216 0.1197992
-0.061082 -0.019162493 0.11489885 -0.016251767 0.071536005 -0.10476137 0.055234294 -0.076167345
0.13145496 0.0041714837 -0.0024740568 0.08845863 -0.012596998 -0.022718593 -0.06709588 -0.097462624
-0.016094683 0.123553425 -0.14545575 0.014047189 0.12033361 -0.04386939 -0.008943073 -0.06523442
0.019321932 -0.02285702 -0.019838303 0.039951596 0.03763832 0.062001824 0.029931398 0.03842096
-0.07685894 -0.025268761 -0.039991748 0.02111132 -0.01285603 0.030441035 0.008347232 0.09188133
0.0875907 0.01894061 0.0011515843 -0.099713154 -0.012817428 0.090029374 -0.019072851 0.08253208
0.03237556 0.03769949 0.09383733 0.083722785 0.011205208 0.052954543 0.068546414 0.04229472
0.0907245 0.014630328 -0.03225118 0.067438126 -0.06928844 -0.104314595 -0.028877106 0.1099472
-0.043570567 -0.08096347 0.023366727 -0.00029910915 -0.0018095507 0.0710444 0.07308707 0.027733695
-0.040800042 -0.09858744 0.100673854 -0.031867184 0.055123653 0.016006595 -0.00068029755 0.05647809
0.029585639 -0.008178974 -0.14778198 0.018034993 0.03393326 -0.00081561436 0.009740371 -0.00046973047
0.050323974 -0.04224906 0.02432165 -0.0022177235 -0.007898362 -0.02449991 0.06979903 -0.04668419
0.083542176 0.04923803 0.010167752 0.006914995 -0.0040452136 -0.038604483 -0.09984615 0.1202801
0.0048760455 0.021542532 0.07998103 -0.09001997 -0.015759148 -0.067439124 0.009840298 0.01750272

network_body.observation_encoder.processors.0.normalizer.running_mean f4 [25]
00000000: 0000 0000 3a69 553d 2d00 d739 c627 233f
00000010: 355d 5e3f 0000 0000 8f8b 633d d876 4b39
00000020: 1008 073f 96cb 4c3f 0000 0000 8e75 813d
00000030: 6ad4 1239 a68a 083f b36a 513f 0000 0000
00000040: 611a 8b3d 0000 0000 4d91 e03e 647a 373f
00000050: 0000 0000 611a 8b3d 0000 0000 4d91 e03e
00000060: 647a 373f
0.0 0.052102305 0.00041008127 0.63732564 0.8686097 0.0 0.055553015 0.00019403861
0.5274668 0.7999815 0.0 0.0632125 0.00014002775 0.5333656 0.81803435 0.0
0.06792141 0.0 0.43860856 0.7167113 0.0 0.06792141 0.0 0.43860856
0.7167113

network_body.observation_encoder.processors.1.normalizer.running_mean f4 [55]
00000000: 0000 0000 0000 0000 0000 0000 87ae 763f
00000010: 5cd3 7b3f 0000 0000 0000 0000 0000 0000
00000020: 844a 6e3f 05b1 783f 0000 0000 047d 0b3b
00000030: 0000 0000 dcfa 683f 3214 783f 0000 0000
00000040: 0000 0000 0000 0000 0ff2 6e3f 0861 773f
00000050: 0000 0000 45c9 033c 0000 0000 2c5a 5b3f
00000060: 0e3c 733f 0000 0000 0000 0000 0000 0000
00000070: 36f2 4e3f b27c 663f 0000 0000 6c0c 043c
00000080: 0000 0000 9365 3e3f 7356 603f 0000 0000
00000090: 0000 0000 0000 0000 9661 483f dc4c 5d3f
000000a0: 0000 0000 047d 0b3b 0000 0000 6e9d 1c3f
000000b0: 06d4 4a3f 0000 0000 0000 0000 0000 0000
000000c0: 103d 493f c6e6 5c3f 0000 0000 0000 0000
000000d0: 0000 0000 103d 493f c6e6 5c3f
0.0 0.0 0.0 0.9636006 0.98369384 0.0 0.0 0.0
0.9308245 0.9714511 0.0 0.0021284232 0.0 0.9100778 0.96905816 0.0
0.0 0.0 0.933381 0.9663243 0.0 0.008043592 0.0 0.85684466
0.9501351 0.0 0.0 0.0 0.80838335 0.9003402 0.0 0.008059602
0.0 0.7437374 0.8763191 0.0 0.0 0.0 0.78273904 0.86445403
0.0 0.0021284232 0.0 0.6117772 0.7922977 0.0 0.0 0.0
0.786088 0.8628963 0.0 0.0 0.0 0.786088 0.8628963

network_body.observation_encoder.processors.2.normalizer.running_mean f4 [15]
00000000: 0000 0000 5fbf 7f3e 94f3 aa39 e0cc 5a3e
00000010: db49 213f 0000 0000 b0df 893d 0000 0000
00000020: edd1 6b3f e98c 7b3f 0000 0000 b0df 893d
00000030: 0000 0000 edd1 6b3f e98c 7b3f
0.0 0.24975346 0.00032606407 0.21367216 0.6300332 0.0 0.06732118 0.0
0.92117196 0.98261887 0.0 0.06732118 0.0 0.92117196 0.98261887
