Assets/Training/results/Run 9/DroneBehavior/DroneBehavior-7499881.onnx (onnx, 697640 bytes, 21 tensors)

105 f4 [25]
000000 c0 c2 db 3e d0 3e 78 3e b0 d3 5f 3c 42 0a ec 3e
       0.4292202 0.24242711 0.01366131 0.46101576
000010 64 a2 34 3e 86 5e d5 3e 91 16 ba 3d 18 a3 f2 3c
       0.17640072 0.41673678 0.090863355 0.029618785
000020 39 6b d8 3e bc 4b f8 3d 9a 87 de 3e 20 5f 94 3d
       0.42269304 0.1212382 0.4346283 0.07244706
000030 db 0d 48 3d a1 b8 e0 3e 45 ba 14 3e ee ea d2 3e
       0.04884134 0.4389086 0.14524181 0.41194862
000040 92 b2 bf 3d 8a 6c 19 3d 46 6c d6 3e c0 be ff 3d
       0.093602315 0.037457027 0.4187948 0.124875546
000050 ee ea d2 3e 92 b2 bf 3d 8a 6c 19 3d 46 6c d6 3e
       0.41194862 0.093602315 0.037457027 0.4187948
000060 c0 be ff 3d
       0.124875546

108 f4 [25]
000000 04 dd f7 3e 55 4a ff 3e 39 8f 3c 3e 2f 8f aa 3e
       0.4841081 0.49861398 0.1841401 0.33312365
000010 6b 9d 5f 3e b9 2a fd 3e f3 f0 fc 3e 9d 39 bb 3d
       0.21837394 0.49446657 0.4940258 0.09141848
000020 12 22 b3 3e 07 13 54 3e b6 34 f9 3e a8 7e fe 3e
       0.3498693 0.20710383 0.48673028 0.49706006
000030 13 c9 39 3e 10 b5 ae 3e d8 b0 67 3e 7b 32 f4 3e
       0.1814311 0.34122515 0.22626054 0.47694764
000040 36 1c fc 3e b0 7f 64 3d bd b1 d8 3e 91 aa 48 3e
       0.49240273 0.055785835 0.42323104 0.19596316
000050 e2 5d fa 3e 81 b2 f0 3e 34 72 c0 3d ed 25 e2 3e
       0.48899752 0.47011188 0.093967825 0.4416956
000060 ff ad 69 3e
       0.2282028

111 f4 [55]
000000 da e6 1c 3e b4 cb 82 3e c5 71 bf 39 30 95 95 3e
       0.15322438 0.25546038 0.00036515124 0.29215384
000010 be 6f 8d 3d 3a 9b 7e 3e cc 7e 09 3e c5 71 bf 39
       0.06906079 0.24863902 0.13427275 0.00036515124
000020 00 73 8e 3e 60 74 a6 3d 96 09 b2 3d 62 af 09 3e
       0.27822113 0.081276655 0.086932346 0.1344581
000030 c5 71 bf 39 38 0f 23 3e 2a f2 12 3d 86 71 2d 3e
       0.00036515124 0.15923774 0.035875477 0.16937837
000040 1a 50 b4 3c c5 71 bf 39 93 ca 2e 3e 9c 22 4d 3d
       0.022010852 0.00036515124 0.17069463 0.050081834
000050 74 e4 36 3e c3 b1 cb 3c c5 71 bf 39 23 8b 38 3e
       0.17860585 0.024865037 0.00036515124 0.18021826
000060 68 ff 3c 3d 25 70 40 3e c5 71 bf 39 c5 71 bf 39
       0.046142012 0.1879278 0.00036515124 0.00036515124
000070 ca 6f 40 3e e7 cb 82 3d 9f 3e 3d 3e 83 bc 3d 3c
       0.18792644 0.063865475 0.1848092 0.011580589
000080 c5 71 bf 39 3d 98 3d 3e be 4b 44 3d fc 99 3b 3e
       0.00036515124 0.18515106 0.047923796 0.18320459
000090 c5 71 bf 39 c5 71 bf 39 bd 99 3b 3e 81 42 52 3d
       0.00036515124 0.00036515124 0.18320365 0.051332954
0000a0 f1 4c 8a 3e c4 65 ee 3b c5 71 bf 39 af 57 8a 3e
       0.27011827 0.007275315 0.00036515124 0.27020022
0000b0 a6 e0 9a 3d aa c9 38 3e c5 71 bf 39 c5 71 bf 39
       0.075623795 0.18045679 0.00036515124 0.00036515124
0000c0 42 ca 38 3e ab 3a 30 3d aa c9 38 3e c5 71 bf 39
       0.18045905 0.0430247 0.18045679 0.00036515124
0000d0 c5 71 bf 39 42 ca 38 3e ab 3a 30 3d
       0.00036515124 0.18045905 0.0430247

114 f4 [25]
000000 08 dd f7 3e 55 4a ff 3e 4f 8f 3c 3e 2f 8f aa 3e
       0.4841082 0.49861398 0.18414043 0.33312365
000010 6c 9d 5f 3e ce a5 f9 3e 1f bb fe 3e bc 97 12 3e
       0.21837395 0.4875931 0.49752137 0.14315695
000020 76 60 b1 3e f0 c2 5c 3e 82 74 fa 3e 3d ba fd 3e
       0.34643906 0.21558738 0.48917013 0.4955615
000030 4b 6c 2d 3e 23 dc b1 3e 8e 40 62 3e 0e 88 fa 3e
       0.16935842 0.34738263 0.22094938 0.48931926
000040 f1 ad f1 3e 0b a6 c4 3d 91 1e e0 3e 98 69 59 3e
       0.4720302 0.09601983 0.4377332 0.21231687
000050 87 db f8 3e 5f 12 f5 3e 5d 9c c8 3d f6 53 de 3e
       0.48604986 0.4786558 0.09795449 0.43423432
000060 c3 56 65 3e
       0.22396378

117 f4 [25]
000000 84 fa f2 3d 98 bd 85 3e c5 71 bf 39 b5 01 91 3e
       0.11864188 0.2612121 0.00036515124 0.28321615
000010 a1 ea 89 3d f7 02 b5 3d be c5 18 3d c5 71 bf 39
       0.06734205 0.08838456 0.037297957 0.00036515124
000020 19 3c c4 3d 32 cc 10 3d 3c e5 b4 3c bf 35 21 3d
       0.09581775 0.035350986 0.022081964 0.039357897
000030 c5 71 bf 39 84 ce 38 3d 54 b9 9c 3c 95 af 80 3d
       0.00036515124 0.045118824 0.01913134 0.062834896
000040 be c5 18 3d c5 71 bf 39 ce 7c 95 3d fd 8b cb 3c
       0.037297957 0.00036515124 0.07299195 0.024847025
000050 95 af 80 3d be c5 18 3d c5 71 bf 39 ce 7c 95 3d
       0.062834896 0.037297957 0.00036515124 0.07299195
000060 fd 8b cb 3c
       0.024847025

120 f4 [3]
000000 a9 ac 11 41 bb 99 83 3f c9 fb 32 41
       9.104653 1.028129 11.186471

action_model._continuous_distribution.log_sigma f4 [1, 3]
000000 20 e2 97 bd 2f 56 ab bd 93 ca de bd
       -0.07416177 -0.083660476 -0.10878482

action_model._continuous_distribution.mu.bias f4 [3]
000000 45 aa 8c bc 25 b6 16 3b 3b 9c e6 3c
       -0.017171035 0.002299675 0.028150668

action_model._continuous_distribution.mu.weight f4 [3, 256]
000000 fb 8f 4f bd 69 39 a8 bc 24 2b 95 3c 6c 1e 50 bb
       -0.05067442 -0.020535188 0.018209048 -0.0031756414
000010 d7 46 d9 3b 41 1e 65 bc f3 80 b3 3b b2 22 78 39
       0.006630759 -0.013984264 0.0054780184 0.00023664048
000020 bd cb 0e 3c f2 04 10 bc ec da ea bc 47 28 7b ba
       0.008715567 -0.008790242 -0.028668843 -0.0009580892
000030 20 a3 ff bc a8 2a 01 bc 05 8c 65 bc ca ed fb 3c
       -0.031205714 -0.007883705 -0.014010434 0.030753035
000040 e2 4f bf bc 84 ef fb b7 63 13 85 3c 59 a6 20 bd
       -0.02335352 -3.0033065e-05 0.016244596 -0.03922114
000050 5c 52 7c bd 75 fd c5 3b 2d d2 80 3b 42 17 79 bc
       -0.06160198 0.0060421773 0.003931305 -0.015203299
000060 c5 a6 dc ba 6f 21 60 3c ae aa 41 3a 0e c0 5a 3c
       -0.0016834369 0.013679846 0.0007387799 0.0133514535
000070 81 93 aa 3b de d7 4a bb eb 5e 34 bc 31 ab ee 39
       0.005205572 -0.003095142 -0.011008958 0.00045522445
000080 ff fd 8a 3c 0f 55 1d bd 69 e2 01 3d 5e 20 72 3b
       0.016966818 -0.038411196 0.031710062 0.0036945562
000090 31 af 88 3c 28 51 83 3a 15 51 17 bc 9c 17 84 bd
       0.0166851 0.0010018693 -0.00923564 -0.06449816
0000a0 6c aa 1f 3c 67 09 56 3d ec 84 57 bc fb 8b 06 bd
       0.009745222 0.05225506 -0.01315425 -0.03284834
0000b0 e2 ef f1 3c aa 54 00 3c 12 94 b6 bc 35 ab e1 3b
       0.02953333 0.0078326855 -0.022287402 0.0068868645
0000c0 4d c7 9e bc 70 0a 07 3a b0 ae 72 bc 2e 6a af 3b
       -0.019382143 0.00051513966 -0.014812157 0.005353234
0000d0 df 06 63 bc 88 a1 05 bc be 67 37 3c ea 09 4e bc
       -0.013856619 -0.008156188 0.011194168 -0.012575606
0000e0 dd c5 9d 3c a2 ba 0c 3c 30 0e d4 bc fb f6 9f bc
       0.019259388 0.008589419 -0.025885671 -0.01952695
0000f0 22 82 56 3b e6 54 e1 bc 22 3e e4 bb 0d 51 ae bb
       0.0032731374 -0.027506303 -0.0069654146 -0.0053197206
000100 f9 6e a2 3c a2 fd f9 3b 8d 9e 9b bb 0b 64 00 3c
       0.019828307 0.0076291123 -0.0047491253 0.007836352
000110 3d 55 0b 3d 66 c0 53 bc 9c 1c ba 3c ed 6d 03 bd
       0.034016836 -0.012924289 0.02271872 -0.032087255
000120 ff 81 45 bc 98 ac 1e 3c 7b f1 f3 bc 24 63 89 bb
       -0.012054919 0.009684704 -0.029778233 -0.0041927267
000130 4f d9 a8 3b f7 d5 22 3c dc 19 c7 bc 94 40 be bc
       0.0051528583 0.0099387085 -0.024304323 -0.023224153
000140 0d 00 13 bd 56 b3 f2 ba f9 d3 60 3c 5c d3 da 3c
       -0.03588872 -0.0018516581 0.013722413 0.026712112
000150 b8 4a 3c bc 84 14 0a bd 1a 32 a9 bc 26 fb d2 bc
       -0.011492424 -0.03371097 -0.020653773 -0.025754523
000160 61 43 b3 3c 1c 16 3c 3c 70 66 9e 3c eb 66 0c bc
       0.021882715 0.011479881 0.019335955 -0.008569459
000170 42 4b 47 3c f7 d3 11 3c c0 35 ad bb 7e 4a bf 3c
       0.012163939 0.008900634 -0.0052859485 0.02335095
000180 2c ac 15 bd 89 0a 31 bc 9d 94 f7 bb b6 27 a4 ba
       -0.03654115 -0.010805734 -0.007555558 -0.0012524042
000190 4e 11 8d bc 18 82 9f ba 87 98 36 3c f2 36 8b 3c
       -0.017220166 -0.0012169508 0.011144764 0.016993973
0001a0 84 68 cd 3b 4c 9f 2d bc 7b 1a 63 3c 6c 17 0d 3d
       0.0062685627 -0.010597061 0.013861294 0.034446165
0001b0 ef 15 fd 3a 80 9a b9 ba 19 0d df 3a 9b 13 9b 3b
       0.0019308905 -0.0014160424 0.0017017453 0.0047325618
0001c0 fa a2 e8 3a fb 68 1f bd 1e ff d8 bc 92 24 f1 bb
       0.0017748766 -0.038918477 -0.026488837 -0.007359096
0001d0 39 a8 e5 3b fb e7 84 3c d4 48 aa bc a3 ee 14 3b
       0.007008579 0.016223898 -0.02078668 0.0022725246
0001e0 5d 42 49 3d f2 96 9c 3b 41 62 3f bc 3c 32 0d 3c
       0.049135555 0.0047787363 -0.01168114 0.008617934
0001f0 75 77 33 3c 00 29 49 bc 94 48 11 3b ee f2 9a 3c
       0.010953774 -0.012277842 0.0022168504 0.018914666
000200 d5 cd 56 3c ca 89 54 3c d3 b0 06 3c 6a b2 8c 3c
       0.013110598 0.012972305 0.008220869 0.017174918
000210 df a2 9a 3c e0 a3 05 bc 20 42 50 bc 20 da a5 bc
       0.018876491 -0.008156747 -0.012711078 -0.020245612
000220 97 9e 3a 3c 59 84 15 3a 6b b3 cf bc f1 b5 97 bb
       0.01139035 0.000570362 -0.025354108 -0.0046298434
000230 7e 51 be bc 85 af c8 3c c0 a6 5e 3b 05 1b 89 3c
       -0.023232218 0.024497757 0.0033973902 0.016736517
000240 70 0a 26 3c b4 50 58 3b 44 9f 4c bc 5b ef 81 bc
       0.010134324 0.0033007087 -0.012489144 -0.015861204
000250 81 9e 2a 3a 21 71 43 bd e7 40 ac 3b 95 90 0a 3c
       0.0006508604 -0.04771531 0.0052567604 0.008457323
000260 58 b5 84 3c 0b 0a ef 3c ec 9e 33 3c 64 9a c7 3c
       0.016199753 0.029179594 0.010963183 0.024365611
000270 3c ca 89 bc 98 06 60 3d 36 59 18 bc 8b cc 7c 3c
       -0.016820066 0.05469379 -0.009298613 0.015429626
000280 9e 74 4c 3c f2 03 40 bc 40 d4 31 3c 1e 5c 58 3b
       0.012478976 -0.011719691 0.010853827 0.003301389
000290 3d 7d a8 3b 80 a0 5b 3c 5b a0 83 3b b6 89 98 bc
       0.0051418827 0.013404965 0.0040169186 -0.018620353
0002a0 d1 96 a4 bc a0 d0 96 3b 5d 49 06 bc 0a e9 9a 3c
       -0.020091446 0.0046025068 -0.008196202 0.01890995
0002b0 a4 80 9e 3b 79 b5 33 bc a6 42 ba bb 7a 90 11 3b
       0.0048371125 -0.010968559 -0.0056842146 0.002221136
0002c0 2c 6f 99 bc a8 4b 14 3c 7f 93 b5 3b 76 b7 76 bc
       -0.018729769 0.009051241 0.0055412645 -0.015058389
0002d0 20 94 63 ba 82 55 30 bb c4 da 8f bc 39 b1 d7 bb
       -0.0008681435 -0.0026906435 -0.01756037 -0.006582406
0002e0 1f 52 a9 3b 99 3f 85 3b 14 8b 0c bc d7 4c f1 3c
       0.0051672603 0.0040664193 -0.008578081 0.029455585
0002f0 e3 9f 74 3c 6e 4c 2c bc 8e fd 91 3c 71 81 cd 3c
       0.014930698 -0.010516269 0.0178211 0.025086137
000300 0f 27 95 3c f7 6b 80 3c 67 44 1b bb 62 c5 ae 3c
       0.018207101 0.015676482 -0.0023691894 0.021334354
000310 9e 75 41 3c ad 35 06 bc 38 ad 8e 3b 7e 37 8e 3c
       0.011807827 -0.008191508 0.0043541454 0.017360445
000320 fb 2a 16 3d e4 95 54 3d 17 89 bc 3b 0a cd f7 3c
       0.036662083 0.05190076 0.005753647 0.030249137
000330 3e 53 07 bd af 37 5b bd 90 d0 aa bc 0f 5c 2c 3c
       -0.03303837 -0.0535199 -0.020851403 0.010519995
000340 5e 9a 87 bc 58 a2 f9 bb 16 8f e9 bb eb 35 e8 bc
       -0.0165531 -0.00761823 -0.007127653 -0.028346023
000350 5c a2 3b bc 2a d7 07 ba 65 f3 d7 3c 04 dd 05 bc
       -0.011452284 -0.0005181903 0.026361177 -0.00817037
000360 27 d0 0f bd ba 7d d2 3b 7d a9 b1 bc 9d 4c 80 bb
       -0.03511062 0.006423679 -0.021687264 -0.003915383
000370 09 24 06 3c a2 54 9a 3b ff 0d 2b 3b a4 48 2c 3d
       0.008187302 0.004709796 0.0026100872 0.042061463
000380 55 d5 4d 3b 3b ff f5 3b 9a d1 3f bc eb 1a 5f 3c
       0.0031407673 0.0075072325 -0.011707688 0.013617258
000390 66 28 d3 bc aa 68 87 bc f3 5b 0a bc 61 f0 9f bb
       -0.0257761 -0.0165294 -0.008444774 -0.0048809503
0003a0 bc 74 a4 bc 10 be 4c 39 1a 4c 98 3c 03 ca e8 3b
       -0.020075195 0.0001952576 0.018590976 0.00710416
0003b0 26 42 06 bc ce f9 12 3d d9 81 44 3d 72 c0 2d 3c
       -0.008194482 0.035882764 0.047975395 0.010604965
0003c0 21 78 8b 3c 79 98 11 3c a7 69 d7 bb e6 cd a0 3c
       0.017025055 0.00888645 -0.006573874 0.01962943
0003d0 18 71 df 3c ac 75 ce 3b 78 7e a5 3c fe d9 73 3c
       0.027275607 0.0063006487 0.020201907 0.014883516
0003e0 de 97 f5 bc cd cd c4 3c 6d c8 7f 3b 35 60 b8 3c
       -0.029979642 0.024023915 0.0039029375 0.022506813
0003f0 a5 99 4d bb c4 49 26 3c 43 4d 92 3b 68 96 93 3a
       -0.0031372097 0.010149423 0.0044647767 0.0011260035

network_body._body_endoder.seq_layers.0.bias f4 [256]
000000 5f d4 bb 3c 99 69 10 bd 5b 8a 24 3c 0e af a6 bc
       0.022928415 -0.035256956 0.010042752 -0.020347144
000010 03 2e 23 bc e5 d1 79 bc 9c 6c 1f bd 6f 90 20 bd
       -0.0099597005 -0.015247797 -0.038921937 -0.039200243
000020 47 4e de ba 13 16 82 bc e2 d9 2d 3c 92 51 24 bd
       -0.0016960584 -0.015879666 0.010611029 -0.040116854
000030 36 0c 0c bd dc b7 10 bd 39 3b c6 bc 96 93 87 bb
       -0.034191333 -0.035331592 -0.024198161 -0.0041374667
000040 7b 23 85 bd 65 94 23 bd 6c 63 49 bb 9b a2 52 bd
       -0.06500908 -0.039936442 -0.0030729426 -0.051424604
000050 8a 17 d2 bc fe bb 9a bd ff 09 ad 3c 6d 91 8a bd
       -0.02564599 -0.07555388 0.02112293 -0.06766019
000060 02 ca 50 bd c5 f5 54 bd 6a c5 de bc 59 a4 1a bd
       -0.0509739 -0.051992197 -0.027193744 -0.03775439
000070 25 8c 17 3d 30 c6 a7 bd ae df d4 bc 22 05 a2 3c
       0.036998887 -0.08192098 -0.025985565 0.019777838
000080 bf 88 24 3c ec 0f fd 3a 60 ab da 3d 56 39 3e bd
       0.010042368 0.0019307113 0.106772184 -0.0464414
000090 5f f2 4c bd 48 13 88 3b f4 6b 69 3c 7a 9f 63 bd
       -0.05003583 0.004152689 0.014246929 -0.05557201
0000a0 a0 f1 b3 3b c9 0a a1 bc 97 5b 06 bb cf cf 60 bd
       0.0054914504 -0.019658463 -0.002050137 -0.05488568
0000b0 84 9c fd bc 74 1c b9 bb be d4 49 bd 0e 70 69 bd
       -0.030958422 -0.005649144 -0.049275152 -0.05699163
0000c0 f7 28 9d bc 56 b4 04 3c 1a 80 59 bd 60 09 13 3c
       -0.019184573 0.008099636 -0.053100683 0.008974403
0000d0 5c 35 47 bd 7c f2 43 3c ec af 78 bc 14 9b b3 3a
       -0.04863487 0.011959668 -0.015178662 0.0013702833
0000e0 8c 49 ed bc cd 2d 7b bd 17 90 7a bd 23 8e 94 bb
       -0.028965734 -0.061322976 -0.06117257 -0.0045335456
0000f0 51 02 ea bc 4d cb c8 bc 24 06 bd bc 77 37 4e bd
       -0.028565558 -0.024511004 -0.023074217 -0.050345864
000100 ca 36 f9 3b 49 91 d1 bc 47 0c 8f bd 4d aa a2 bb
       0.0076054083 -0.025581973 -0.069847636 -0.004964149
000110 0a db cb bc d2 b3 02 3d 04 81 2c bd ec 2d 74 bd
       -0.02488472 0.03190977 -0.042115226 -0.059614107
000120 38 6f 55 bc 32 4e 4a ba 42 13 b9 bc 43 5e 15 bd
       -0.013027005 -0.00077173405 -0.02259219 -0.036466848
000130 85 db 8e bb a6 99 a1 bc 35 4d ed bc 5a de 1b bd
       -0.004359665 -0.019726586 -0.02896748 -0.038053848
000140 34 c3 72 3c a6 dc 80 bc 4d b2 a4 3c 86 cf 1d 3c
       0.014817048 -0.015730213 0.020104552 0.009631997
000150 ed 70 44 bd 0d fb b7 bc 35 2f ae 3a 31 6a 19 3c
       -0.047959257 -0.022458578 0.0013289215 0.009363697
000160 ae b0 b6 3c db 2e b9 3b fe 9b 71 3c 2c 1c 22 bd
       0.022301044 0.0056513376 0.014746664 -0.039577648
000170 b7 a5 2d 3c 36 83 f3 bc 76 51 d7 bc 1f 3f 95 bc
       0.0105985915 -0.029725652 -0.02628396 -0.018218575
000180 31 4d 18 3d 67 b2 b5 bd dd b7 1e 3d e8 0c 25 bc
       0.03718299 -0.08871918 0.038749564 -0.010073878
000190 9e fe 6c 3b b5 44 a6 bc 5f 06 7d 3c 45 35 22 3d
       0.0036162506 -0.020296434 0.0154434135 0.039601583
0001a0 4b 3f 2b 3a 23 6f bb bd 27 11 58 bd 64 da 94 bd
       0.0006532564 -0.09152057 -0.052750733 -0.07268217
0001b0 00 d6 a0 bc 6a b9 54 bd 44 15 32 bb 00 b1 21 bc
       -0.019633293 -0.051934637 -0.002717332 -0.00986886
0001c0 a7 0a 18 bd 78 f0 c8 bc 61 0e a8 bc 75 23 75 bc
       -0.037119534 -0.024528727 -0.020514669 -0.014962067
0001d0 f3 5c 31 bc fd ed f6 bc 08 70 51 bd f6 b6 c3 3c
       -0.0108253835 -0.030142779 -0.051132232 0.023890954
0001e0 a4 d2 57 3c 2f f1 fc bc 05 9d bc 3c 0c b4 e8 3b
       0.013172779 -0.030876724 0.023024091 0.0071015414
0001f0 93 c6 8a bc 49 b6 1c bd 01 90 1e bd 73 d8 51 bd
       -0.01694039 -0.03825978 -0.03871155 -0.051231813
000200 53 cd 69 bd 8e 37 4d bd a8 47 00 bd a6 d4 15 bd
       -0.057080578 -0.05010181 -0.031318337 -0.03657975
000210 8b 50 9c bc 1f 9b 7b 3c 08 d9 31 bd 11 c9 b7 3a
       -0.019081375 0.015356808 -0.043419868 0.0014021714
000220 40 1d a5 bd 61 42 90 bc f3 1d fd 3b be e9 11 bc
       -0.080622196 -0.017609777 0.0077245175 -0.008905826
000230 c5 52 6b bd c2 a1 8f bd d8 61 4e 3a 2b 38 bc bd
       -0.057451982 -0.07013275 0.0007872856 -0.09190401
000240 56 13 8e bd ba 39 ac bc f2 a8 3d 3d 60 2e a8 bb
       -0.06937282 -0.02102362 0.046303697 -0.0051324815
000250 2f 86 97 bd 02 cd 0f bd 7b 1e 8b bd 1e 3d 08 3d
       -0.0739864 -0.03510762 -0.06792923 0.03326141
000260 2e 45 35 bd 72 ee a9 bd 03 ae c0 bc 61 bf d6 bc
       -0.044255428 -0.08297433 -0.023520475 -0.026214303
000270 6d 04 2b 3c 90 2f 04 bd 98 e9 b3 bd 47 52 af bd
       0.010438067 -0.03227192 -0.08784789 -0.08560615
000280 cd d6 17 bc 3b a8 62 bd 7c da a7 bc 48 ec 02 bd
       -0.009267521 -0.05533622 -0.020489924 -0.031963617
000290 86 14 37 bd 90 fa cc bc b1 85 4d bd d3 e0 1c bd
       -0.044697307 -0.025021821 -0.050176326 -0.038300347
0002a0 25 dc 77 bc 5f bf b2 3c 73 bd ec bc 82 46 e3 bc
       -0.01512817 0.021819768 -0.02889893 -0.027743582
0002b0 84 61 6e bd 28 01 a5 bd 45 9e 03 bd 0a 5e 8a bd
       -0.058198467 -0.08056861 -0.03213336 -0.06756218
0002c0 a2 5c 42 3c 36 47 9b bc 23 bc f3 3b 31 2f 1d bd
       0.011862906 -0.018954854 0.007438199 -0.038375083
0002d0 fe 73 67 bd a4 65 48 bd 55 27 16 bd 0f ff e1 bc
       -0.056507103 -0.048925057 -0.036658604 -0.027587442
0002e0 49 dc f5 3b a5 22 fe 3b 35 50 bf bc 77 33 a1 bd
       0.0075030667 0.007755595 -0.023353675 -0.07871144
0002f0 ba fb 5e bd f1 eb 41 bc 0e e7 7f bd 9d fa d0 bb
       -0.054439284 -0.011836038 -0.06247621 -0.0063775317
000300 25 c8 a9 bc ea b9 2c bd 0a 15 d1 bc 23 ec 40 3c
       -0.02072532 -0.04216949 -0.025522728 0.011775049
000310 d4 15 b3 bc 59 a4 e7 bc e7 a0 f3 3b ae 56 93 bd
       -0.021860994 -0.02827661 0.0074349525 -0.07194267
000320 b0 04 82 bc eb 99 a6 bc e8 fd 55 bd ca 74 7e bd
       -0.015871376 -0.020337066 -0.052244097 -0.062123097
000330 c9 82 c8 bc 68 c9 8e bd e4 b7 b3 bc 50 d3 a6 3c
       -0.024476426 -0.06972009 -0.021938272 0.020364434
000340 3b a4 82 bd f9 14 5c bd d8 cf 52 3c 3a 9e 88 bd
       -0.06378981 -0.05373094 0.012866937 -0.06670804
000350 45 57 eb 3b c2 4b 25 3c b8 2c 40 3b 0c 98 5f bc
       0.007182034 0.010088863 0.002932353 -0.013647091
000360 3a 31 74 bc 2a 16 9e bc 07 66 47 bd 37 3a 0f bd
       -0.014904315 -0.019297678 -0.048681285 -0.034967627
000370 f3 aa 65 bd 7b 95 99 bc 2d 47 e9 bc 1b 91 0e 3d
       -0.056071233 -0.018748036 -0.028476322 0.034806352
000380 e8 ec ab 3c 43 0b 00 bd 27 b8 db bc 87 06 23 bd
       0.02098699 -0.03126074 -0.02682121 -0.039801147
000390 48 3d b4 bc 40 8a d1 bd 76 5d be 3c ce ed 1e bd
       -0.022001877 -0.10231447 0.023237925 -0.038801007
0003a0 94 0f 76 3c 30 aa 5c bd e7 33 3b bd 5b 23 b9 bb
       0.015018363 -0.05387324 -0.045703795 -0.0056499667
0003b0 19 dc 54 bd 5a c6 54 3c b3 bf fa bc 2d cd 52 bd
       -0.051967714 0.012986744 -0.030608987 -0.051465202
0003c0 71 f4 93 3b bd 73 6b bd 94 71 1f 3c 43 df 09 3b
       0.0045152237 -0.057483424 0.009731669 0.0021037615
0003d0 d2 53 fa bc 75 27 ab bc 50 06 f2 3c 9d 52 60 bd
       -0.030557547 -0.020892838 0.029544026 -0.054766286
0003e0 08 58 8c bd 57 a2 f9 bc b0 e0 12 bd 2a f9 3f 3c
       -0.06852728 -0.030472917 -0.03585881 0.01171712
0003f0 e9 a2 e2 bc 85 54 6a bb f0 cd 0c bc e4 ba 9a 3c
       -0.027665572 -0.0035755944 -0.008594021 0.018887945

network_body._body_endoder.seq_layers.0.weight f4 [256, 158]
000000 cd 7b 5b bd 6d cf 0d be 80 7f db bd c3 6c f6 3d
       -0.053584863 -0.13848658 -0.10717678 0.120324634
000010 36 32 db 3d e1 44 16 be ef bc 01 be 77 54 2c 3d
       0.10702936 -0.14674713 -0.12669729 0.04207274
000020 a0 38 8f 3e 68 3b 74 3e a7 f9 1e be 5b 6b d3 bc
       0.2797289 0.23850787 -0.15524922 -0.025808027
000030 5c f7 21 3e 01 4e 07 3e ee 85 18 3e d8 cd 58 3d
       0.15817016 0.1321335 0.1489484 0.052930683
000040 e9 a2 ce bd f9 89 ec bc 33 a6 8b 3d 0c 35 2d 3e
       -0.100896664 -0.028874384 0.06818809 0.16914767
000050 ec 84 51 bd 0d fd 35 bd e1 12 89 3c ef d2 c0 bd
       -0.051152155 -0.04443078 0.016732635 -0.094152324
000060 93 a9 34 bc a3 cb 13 3c a5 0a 11 be 78 2d 46 bd
       -0.011026758 0.009020719 -0.14164217 -0.048383206
000070 8d 2b 21 bd 02 55 02 3e 81 bb 9d 3d bb c2 0f 3e
       -0.039348174 0.1272774 0.07701779 0.14039128
000080 d9 0a 56 be 31 00 2d bd 2c 42 32 3e b3 65 d2 bd
       -0.20902576 -0.04223651 0.17408055 -0.10273304
000090 e8 5e 48 be 13 9b b3 bd fc 54 04 3c 8e 26 8a 3d
       -0.19567454 -0.087698124 0.0080769025 0.06745635
0000a0 6a 81 b1 bd f7 a9 19 bd 67 fb 55 bd a1 4c 9e bb
       -0.08667262 -0.037515607 -0.05224171 -0.004830912
0000b0 96 73 a8 bc 3f cb df bd 0e b2 10 be 64 68 31 3d
       -0.020562928 -0.10927438 -0.14130422 0.043312445
0000c0 ca 13 83 bc d1 b7 f3 3c 05 ac 7a bc 60 0f a7 3b
       -0.016000647 0.029750736 -0.015299802 0.0050982684
0000d0 44 f5 72 bd d8 22 6f bd d0 6c 08 bc 65 99 89 bd
       -0.059315935 -0.05838284 -0.008326724 -0.06718711
0000e0 a4 f4 e6 3a 7b 47 75 3d 29 16 34 be 35 d3 2d bd
       0.0017620516 0.059882622 -0.17586578 -0.04243775
0000f0 de ca f4 3c 68 1e 09 3e ef 5a a6 3d 65 15 d8 3a
       0.02988189 0.13390505 0.08122813 0.0016485868
000100 69 c0 f6 3d ab 95 1d bc 6c 0f 74 3d a2 a1 41 3d
       0.12048418 -0.009618203 0.05958502 0.047273286
000110 19 d3 46 be f4 34 2b 3d 67 98 58 bd 3e b3 51 3e
       -0.19416465 0.041798547 -0.052879717 0.20478532
000120 7d fd 25 be 4c 92 d7 bc 39 27 0e 3e d9 c2 77 3e
       -0.1620998 -0.026314877 0.1388215 0.24195422
000130 b0 66 ff 3d d5 6a dc bc 8a ac 15 bd c3 fb ca bd
       0.12470758 -0.02690641 -0.0365415 -0.09911301
000140 7a ec 50 3d 96 c6 76 bc 85 bb 01 bc 84 5d 0a bd
       0.05100677 -0.015061995 -0.007918243 -0.03378059
000150 c8 34 c6 bd d8 52 2a be 0f 58 17 bd 4f b9 80 3d
       -0.09678036 -0.16633165 -0.036949214 0.06285345
000160 3b ff aa 3c ce 7e 91 3c df 11 07 be 27 b7 28 3d
       0.020873656 0.01776066 -0.13190411 0.041190293
000170 29 1b f1 3d 4b a5 29 3e b2 1f 16 3e a2 86 c6 bd
       0.117727585 0.1656696 0.14660528 -0.09693648
000180 a6 26 cd bc 05 c4 69 bd 3c 41 a8 3d bb 83 b0 bd
       -0.025042843 -0.057071704 0.082155675 -0.086188756
000190 20 ed e1 3d 37 1f 16 3c 37 4e a2 bc cf 46 d0 3c
       0.11031556 0.009162716 -0.019812686 0.02542439
0001a0 3d 03 bb 3d bb c6 86 3c 9d 79 9a bd aa 73 0f bd
       0.09131477 0.016452184 -0.07542727 -0.035022415
0001b0 b1 11 81 3d ba b5 81 3d ef 96 07 bc b7 d0 13 bd
       0.063022025 0.0633349 -0.0082757315 -0.036087718
0001c0 ff 33 37 bd 63 f6 94 3d b1 a9 fe 3b 89 36 c1 bd
       -0.04472732 0.07273557 0.0077716936 -0.0943423
0001d0 ea 17 eb bd 64 7f 7e bd 24 a7 d4 3c 59 5f 4e 3d
       -0.114791706 -0.062133208 0.025958605 0.0503839
0001e0 5c 46 1b 3d fe a1 51 bd 54 ea f7 3d de c3 0c bd
       0.037908897 -0.05117988 0.121052414 -0.03436648
0001f0 b7 92 b9 3d de 66 10 bd 6a d4 f2 bc 94 da 53 3e
       0.09061187 -0.03525435 -0.029642303 0.2068885
000200 0a bc 3a 3e 3b 21 14 3d 55 db 42 3d e2 db 74 bd
       0.18235794 0.036164504 0.047572453 -0.05978001
000210 ce 5e a5 bd f0 6a e1 3a 67 d0 51 3d 84 a2 90 bd
       -0.08074723 0.0017198008 0.05122414 -0.070622474
000220 be 23 4f be 0b f8 1d 3e 24 50 74 bd 79 81 6f bc
       -0.20228478 0.15426652 -0.05964674 -0.014618271
000230 05 6f 06 3e 56 2c f2 bc 4d 02 b4 bd e0 7d 8e 3c
       0.13128288 -0.029562157 -0.08789501 0.017394006
000240 53 9c 33 bc 1b 37 85 bd 34 8a 89 bc 20 c7 4a 3d
       -0.010962564 -0.06504651 -0.016789533 0.049506307
000250 18 8d d6 3d 76 be c6 3d 41 f1 ca 3d 48 9e 35 3d
       0.1047613 0.09704296 0.09909297 0.044340402
000260 31 cd c2 3d 65 82 9f 3c 28 a2 f1 bc f8 01 12 be
       0.095117934 0.019471357 -0.029496267 -0.14258564
000270 fb b8 a6 3d 68 60 36 bd ff db 7d 3c 84 f5 03 bd
       0.08140751 -0.044525534 0.015494346 -0.032216564
000280 b0 c1 4c 3c 91 55 64 3d 95 c3 cd bc ec ad b6 bc
       0.012497351 0.055745665 -0.025117675 -0.02229973
000290 b4 80 8a 3d 37 73 d0 3c 85 81 b6 3d 01 97 79 bd
       0.067628294 0.025445564 0.08911423 -0.060935024
0002a0 5a a8 08 be e1 48 45 bd c2 bc 16 3d e5 cc 2e 3d
       -0.13345471 -0.048165206 0.036801107 0.04267587
0002b0 ed e5 88 3c 95 88 8d 3c 2a e5 d0 3c 47 fa 8c bd
       0.0167112 0.017277041 0.025499899 -0.06883674
0002c0 92 0a 81 3c f2 cc b5 bd b2 aa 34 bb 1c 52 d9 3c
       0.01575211 -0.08876981 -0.0027567563 0.02652841
0002d0 ea 07 9c bc 2e be 3f bc f3 9e 9d 3d 43 3a e4 3d
       -0.019046742 -0.011703057 0.07696333 0.11143925
0002e0 09 f1 09 3b 49 eb 2a be bd 82 07 be 8d 9a b7 bc
       0.002104821 -0.16691317 -0.13233466 -0.022412563
0002f0 91 3b 13 be 40 51 00 be 97 0a 29 be d6 d2 10 3e
       -0.14378192 -0.12530994 -0.16507946 0.14142928
000300 c0 12 b0 3d 3e 60 d2 3c 33 52 7b 3d a9 f2 e5 bd
       0.08597326 0.025680657 0.06135769 -0.112279244
000310 e6 71 0b bd 2f 42 3e bb aa 62 59 bc 98 33 1b bc
       -0.03404417 -0.0029031148 -0.013268152 -0.00947275
000320 22 0f 1f bd b2 bc 72 3c 6d 00 8a 3a e5 29 bf 3c
       -0.03883279 0.014815496 0.0010528691 0.023335407
000330 ab 00 40 be fa 08 b5 bb 2b 57 9e bd 37 c3 6f 3e
       -0.18750255 -0.0055247517 -0.0773147 0.23414312
000340 88 29 21 3d ec 7b 57 bd e1 4b 25 3d b8 ba 40 3e
       0.039346248 -0.052608415 0.040355567 0.18821228
000350 c0 18 73 3b 8a a0 29 be 8b 1b e3 bd 60 5f 6d 3d
       0.003709361 -0.16565147 -0.11089238 0.057952285
000360 61 29 ad 3d 61 c1 be 3d 8a 01 96 3c f6 d5 4f 3c
       0.08455158 0.09314228 0.01831128 0.01268529
000370 9e 8a 6a 3d fc 3c 98 3c 79 2e 62 3d 4d f4 75 bd
       0.057261102 0.018583767 0.0552201 -0.060047437
000380 7c f1 7d be 6a ad 87 bd a2 08 ec 3b f8 8d 6c bd
       -0.2479915 -0.06624873 0.0072031775 -0.05775258
000390 6b d7 54 bd e4 97 85 bd 0d f7 34 be bb 93 09 be
       -0.05196325 -0.065231115 -0.17672367 -0.13435261
0003a0 04 8e 79 bd f5 62 1d be 02 b7 e5 3c 23 6a 12 3d
       -0.060926452 -0.1536978 0.028041366 0.03574575
0003b0 b9 cd 3f 3d 86 35 64 bc a8 cb be 3c 49 68 a3 3d
       0.04682705 -0.013928777 0.02329047 0.07978875
0003c0 66 da ae 3c 79 cf 3d 3b c6 e3 7d 3d 43 fc 53 3d
       0.021344375 0.0028962775 0.0619848 0.051754247
0003d0 5f 42 d3 bc e7 54 0f 3d 7e 72 89 bd 22 97 a3 bd
       -0.025788484 0.03499308 -0.06711291 -0.07987811
0003e0 a1 b3 aa 3d b4 07 a5 3d 86 38 29 bb 4b 5e 06 bd
       0.08335043 0.0805811 -0.0025821044 -0.03280477
0003f0 1a ad 07 be 88 4a 20 bd d9 12 b9 bc fd ea 2a 3d
       -0.13249627 -0.03913358 -0.022591995 0.04172801

network_body._body_endoder.seq_layers.2.bias f4 [256]
000000 c2 bb a3 3c 70 e6 ef bc 71 ef 05 bb 2b ed bb bc
       0.01998699 -0.029284686 -0.0020436908 -0.022940239
000010 37 7d 2b bd 07 a6 32 bd f0 6b c5 b9 d6 bd 15 bd
       -0.04186746 -0.043615367 -0.00037655188 -0.036557995
000020 72 ff 4a bd 71 37 2c bd 9a 37 fe bc b2 b4 4d 3c
       -0.049560018 -0.04204506 -0.031032372 0.012555288
000030 50 08 c5 bc d0 63 8e 3c da f5 1f bd 56 56 fc bc
       -0.024051815 0.017381579 -0.03905282 -0.030802887
000040 a6 6d 48 bd dc 59 f1 bb 79 dd f4 3b 72 b9 50 bd
       -0.048932694 -0.0073654484 0.0074726907 -0.050958104
000050 93 91 88 bd e2 ce 88 bc 2e e6 b8 3b 0d c5 a7 bc
       -0.06668391 -0.016700212 0.005642674 -0.020479703
000060 90 35 d3 bb 6b a4 74 bd ed 63 34 bd 0e 94 6c bd
       -0.006445594 -0.059727114 -0.04404061 -0.057758383
000070 eb 0b ea bc 39 eb b8 3b 72 46 85 bd 55 65 ef b9
       -0.028570136 0.005643275 -0.06507577 -0.0004566113
000080 e6 21 83 bd c8 92 ed bb f9 0b 86 bd c1 91 82 bd
       -0.0640295 -0.0072501637 -0.06545252 -0.063754566
000090 b9 04 95 bc 31 40 2d 3b a1 bc 5b bd 95 0d cf bc
       -0.018190729 0.0026435966 -0.053646687 -0.025275031
0000a0 e6 ff 42 bc 8c d5 4c bd eb a9 59 bc b3 e3 be bc
       -0.011901831 -0.05000834 -0.0132851405 -0.023301935
0000b0 b5 b8 c7 3c a1 5f ad bc 81 81 d0 bc 81 df a9 bc
       0.024380067 -0.021163763 -0.025452377 -0.020736458
0000c0 12 67 cc ba 47 d6 72 bc c8 5c 4b bd 97 e8 98 bc
       -0.0015594682 -0.0148215955 -0.04964903 -0.018665595
0000d0 42 8b 7d bc e7 3c 7f 3c f3 4e 35 bc ef 60 3c bd
       -0.015475096 0.015578485 -0.011066186 -0.04599088
0000e0 4f d0 87 bd 4e 50 52 bd 8f 35 f8 bb 21 3c 1f bd
       -0.066315286 -0.051346116 -0.007574744 -0.038875703
0000f0 2c 85 59 bc 8e 20 07 bd 7c 0d 4d bc 70 a8 b3 ba
       -0.01327638 -0.03299003 -0.012515422 -0.0013706814
000100 66 90 1a bd 67 9e 3f bd c6 76 7e bc 87 c3 7a bc
       -0.037735365 -0.046781924 -0.0155312475 -0.015305406
000110 f8 69 c2 bc fb 48 ee bc 5a f8 ef bc 0b 59 4b bd
       -0.02373217 -0.029087534 -0.029293228 -0.049645465
000120 da 40 0a bd 3c 6f 3a bd 7c 6e 65 bd 72 35 b9 bc
       -0.033753254 -0.045516238 -0.05601357 -0.022608493
000130 01 16 f8 bb ea f4 18 bd 2a 0e 56 bd a2 86 3e bd
       -0.0075709824 -0.037342943 -0.0522596 -0.046515115
000140 b3 97 1e bb d7 17 03 bc 9b b9 f5 3b 3a ae 1e 3d
       -0.0024199306 -0.008001289 0.0074989325 0.038740374
000150 d1 2b 1c bd 56 0d 31 bd 67 1b d5 bb 94 21 69 bb
       -0.038127724 -0.04322561 -0.0065035108 -0.0035572993
000160 88 58 0c bd b7 40 19 bc 7f eb a0 bb 09 b0 e7 bb
       -0.034264117 -0.009353808 -0.004910886 -0.0070705456
000170 3d fd 2f bc af 3a 13 3c d0 71 9d bc 4b 37 14 bd
       -0.010741529 0.008986159 -0.01921931 -0.036185544
000180 58 0a fb 3c c5 21 0d 3c 11 c2 84 bd 54 96 8c bd
       0.03064458 0.008614008 -0.06482328 -0.0686461
000190 d1 88 10 bd 8f 17 b7 bc 6d e7 92 bd fd 6c 3b bd
       -0.03528673 -0.0223501 -0.07173047 -0.045758236
0001a0 a8 6b a0 bb 15 97 25 bd a7 ed 43 bd c6 79 05 bb
       -0.004895646 -0.040427286 -0.047834065 -0.0020366772
0001b0 ff c4 42 3c c4 81 1d bd 23 2a 61 3b 0c ea 12 bd
       0.011887788 -0.038453832 0.003435739 -0.035867736
0001c0 11 17 89 bc e2 f4 54 bc 87 89 64 3d d0 3e d5 bc
       -0.016734632 -0.012997838 0.05579522 -0.026030928
0001d0 54 32 2f bd 3e b9 c6 bc 40 1d 3a bd de 0d fe ba
       -0.042772606 -0.024258252 -0.04543805 -0.0019382795
0001e0 34 bb 74 3c 5d d9 94 bc 5a 77 85 3b 56 37 d5 bc
       0.014937211 -0.018170053 0.0040730657 -0.026027363
0001f0 44 7e 81 3b 44 83 69 bd 22 de bb bc 5b 4f e3 bc
       0.0039518196 -0.05700995 -0.02293307 -0.0277478
000200 01 5d ce bc ac 09 10 3a 89 2d 23 bd fe e7 23 bd
       -0.025190832 0.0005494605 -0.039838348 -0.040016167
000210 dd ca 88 bc f8 bf f7 bc df 81 2d 3c 74 22 1e bb
       -0.016698295 -0.030242905 0.010590046 -0.0024129422
000220 43 7f c4 bc 4b 05 09 bc 9e 73 8e bc 1e 19 72 bd
       -0.023986464 -0.008363078 -0.017389115 -0.059105985
000230 21 09 18 bb ce b4 10 bd ef 66 36 bc 44 ce 4d bd
       -0.00231988 -0.03532868 -0.01113294 -0.05024554
000240 25 2d 2a bd f5 7c 49 bd 1f b3 c4 bc ad b6 cb bc
       -0.04154696 -0.049191434 -0.024011193 -0.02486738
000250 9f 5a 0a bd c8 86 bc bb 5a d0 c5 bc 01 2d 12 bd
       -0.03377783 -0.005753372 -0.024147201 -0.03568745
000260 57 59 86 bc 87 49 7c bc 13 db 51 bd 38 04 20 ba
       -0.016400022 -0.01539839 -0.051234316 -0.0006104144
000270 64 56 82 bc e5 6d 51 bb e8 20 95 bc 04 06 c3 bc
       -0.015910335 -0.0031956371 -0.018204167 -0.02380658
000280 7a 7d a7 bc 34 23 5a 3c 55 78 2a bd 16 af d7 3b
       -0.020445574 0.013314057 -0.041618664 0.006582151
000290 7e 6e 08 bd 59 ad 4f 3a a7 6f 43 bc 6f 66 9e 3b
       -0.0333085 0.0007922254 -0.011928475 0.0048339884
0002a0 03 9f 89 bd 10 b4 bb bc 55 30 c6 bb bb 13 50 bd
       -0.06719782 -0.022913009 -0.006048242 -0.050800066
0002b0 d0 10 c5 bc 13 4f 6b bd d0 a2 c7 bc 8f 20 2b bc
       -0.024055868 -0.057448458 -0.024369627 -0.010444774
0002c0 bd a0 30 bc c4 98 65 bd 29 10 2e bd e3 23 12 bd
       -0.0107805105 -0.05605389 -0.04249588 -0.035678755
0002d0 4e 54 5a bd 45 da c1 bb 94 5d 87 bd 73 e7 b4 3a
       -0.053303055 -0.0059159123 -0.066096455 0.0013801887
0002e0 b9 db 02 bd e3 3e 50 bd 8f 2a f2 3c d2 18 06 bd
       -0.031947825 -0.050841223 0.02956131 -0.032738514
0002f0 c9 38 11 3b 5c c8 5d 39 81 08 88 bc 39 59 a3 bc
       0.002215909 0.00021150842 -0.016605617 -0.019940006
000300 2e 00 13 3c 30 f7 91 bc 02 b4 8a bc ba 31 2f bd
       0.008972211 -0.017818063 -0.016931538 -0.042772032
000310 fc 91 36 bd e0 54 f5 bc 5d 1f 33 bc 28 d2 05 bd
       -0.044572815 -0.029947698 -0.010932771 -0.032671124
000320 b8 e0 ac bc 68 82 88 bd b3 86 3e bd 36 18 25 bd
       -0.021103248 -0.06665498 -0.046515178 -0.040306292
000330 1e 60 f6 3b a1 1f 2e bc b5 3e 8b bd 31 25 b7 3a
       0.0075187823 -0.010627658 -0.0679907 0.0013972876
000340 c4 3f 1b bc bf b4 46 bc 65 52 ee bb b6 b3 0b bd
       -0.009475652 -0.012128054 -0.007273006 -0.034106933
000350 32 ab 8c bc 75 f6 ba 3a 14 ef 15 bc 1b 09 6e bd
       -0.017171476 0.0014264124 -0.009151239 -0.058114152
000360 be 1a 28 bd 70 61 0e 3c 45 de b0 bc 12 86 4d bc
       -0.04104113 0.008690223 -0.021590361 -0.012544172
000370 4a ed a2 bc 33 d3 8b 3b 4d 89 0b bd a9 a4 1e bd
       -0.019888539 0.0042671203 -0.034066487 -0.03873125
000380 fa 25 1e bd 09 cc bc bc 5a d9 6c bb d2 5b 8b bc
       -0.038610436 -0.02304651 -0.0036140294 -0.017011557
000390 5c 28 bc bc 31 0a 38 bc 20 50 37 bc 03 e2 ab bc
       -0.022968464 -0.011232899 -0.011188537 -0.020981794
0003a0 fb 2e be 3b ab cf 73 bc 24 56 8f 3c 77 de d7 3c
       0.0058039404 -0.014881055 0.01749713 0.026351197
0003b0 30 e2 1e bc f7 93 ba bc 08 76 93 bc fa 2b 1c bd
       -0.009697482 -0.022775633 -0.018000618 -0.038127877
0003c0 32 0e 7b bd 8a ee 70 bb aa 8f e2 3a b9 85 4a bd
       -0.061292835 -0.0036763274 0.0017285247 -0.049443934
0003d0 a2 37 6e bd af be 27 bd a9 1d 09 bd ee 48 00 bd
       -0.058158524 -0.040953334 -0.03347555 -0.03131955
0003e0 40 d6 e0 bc b0 1c f7 bb 14 9e b4 3c e4 9b 4d bd
       -0.027445912 -0.0075412616 0.022048034 -0.050197497
0003f0 b9 bd d0 bc f9 2c 8b bc b7 78 d9 bc 09 92 1c bd
       -0.025481092 -0.016989218 -0.02654682 -0.038225207

network_body._body_endoder.seq_layers.2.weight f4 [256, 256]
000000 1e 49 8e 3d 95 04 5c 3d 55 52 14 3c d1 96 14 bd
       0.0694754 0.053715307 0.009052833 -0.036276642
000010 61 2d 6a 3d 4b 5a b7 bc 33 e1 4f bc dc 5d 8b bd
       0.057172183 -0.022381922 -0.012687969 -0.06805012
000020 9f b6 96 3d 43 f9 c6 bd cf ba 0f 3e 98 9e b9 bd
       0.07359051 -0.09715512 0.14036106 -0.090634525
000030 cf 81 e7 3c d6 de 11 3e c5 cc 49 bd 4e 58 68 bc
       0.02826014 0.14245161 -0.04926755 -0.01418121
000040 f9 c2 a8 3d bc c0 c3 bc e7 9c 29 3d 81 c1 e4 bc
       0.08240313 -0.023895614 0.0414094 -0.027924301
000050 5f cb e8 bb e4 d1 04 3d 7e ec 46 bd 6d 01 46 3d
       -0.007104322 0.03242673 -0.04856538 0.048341203
000060 d3 62 82 bc 29 c8 a8 bd 14 a1 29 3d 5b a9 93 3c
       -0.015916264 -0.082413025 0.04141338 0.01802509
000070 de 94 0b bc 38 c0 cb 3c 86 4c b0 bd d7 3b 83 bd
       -0.008519379 0.02487193 -0.08608346 -0.06407898
000080 14 23 82 bc 10 25 08 be 2d 3b f5 3d 62 da cb 3c
       -0.015885867 -0.13295388 0.119741775 0.024884406
000090 73 26 97 3d d7 86 35 bd cc 15 3b 3d 4c 5b bb 3d
       0.073803805 -0.044318046 0.045675084 0.09148273
0000a0 09 0e 28 bd 1c 0f f5 bd 5c 57 8f bd 79 5c f7 bc
       -0.04102901 -0.119657725 -0.06999084 -0.030195462
0000b0 b4 a2 b5 3d d0 dd a5 bd e0 3c 1c 3e 7b dc 98 bc
       0.08868924 -0.08098948 0.15257597 -0.01865982
0000c0 d5 ee 09 bd c8 d1 25 bd f4 19 87 bd df ac 01 bc
       -0.033675034 -0.040483266 -0.06596747 -0.007914751
0000d0 d9 5d 90 bd 51 7d 07 be 53 40 84 bc 7b f2 a0 3d
       -0.0704915 -0.13231398 -0.016143953 0.078587495
0000e0 8d 3b 46 bd 66 13 bc bd 21 21 39 bd 53 45 0d 3e
       -0.048396636 -0.091833875 -0.04519761 0.13795976
0000f0 90 40 44 3c b0 13 38 3d c4 34 2b 3d 12 df 65 be
       0.0119782835 0.04494065 0.041798368 -0.22448376
000100 3f 39 0e be 25 a8 c1 bd 5d d1 df bc 6a 17 fa bd
       -0.13889025 -0.09455899 -0.027321512 -0.12211497
000110 6c 96 a3 3d 6d 28 18 3d 5d 92 a8 bd 90 b5 44 3c
       0.07987675 0.037147928 -0.082310416 0.0120061785
000120 aa 85 e9 bc cf 73 45 3d 5a 8d d4 3c 4e 47 d6 bc
       -0.028506119 0.048206147 0.025946308 -0.026157048
000130 2d f3 92 3c 8d 36 3b 3d 80 73 9c bd 6b 1d 54 3d
       0.01793822 0.04570632 -0.076392174 0.051785868
000140 fe 09 77 bd 66 b0 67 3d be f7 d2 3d 43 9b 80 3b
       -0.060312264 0.05656471 0.10301159 0.0039247586
000150 48 a7 b4 bd 58 1a fd bd 48 3e a8 3d 51 89 2a 3d
       -0.08820969 -0.1235854 0.08215004 0.04163486
000160 50 44 b0 3d 23 22 07 be 9a 80 60 bd 31 60 16 be
       0.086067796 -0.13196616 -0.054810144 -0.14685132
000170 b2 af 0e 3d b5 b3 9a bd 6e 15 81 bb cf 14 14 3b
       0.034835525 -0.07553808 -0.003939322 0.002259541
000180 33 14 c5 3c 65 d7 e6 3d 5b 25 ec 3d e6 bf 4c 3d
       0.024057483 0.11271552 0.115305625 0.049987696
000190 74 55 c7 bd fa 2e 05 3e f0 18 cf bd 2f ef eb bd
       -0.09733096 0.13006201 -0.10112178 -0.1152023
0001a0 c5 e2 20 bd c1 2a 4a 3c 8b 17 97 bd d6 fb 9f bd
       -0.039278764 0.012339295 -0.07377537 -0.07811706
0001b0 cb 5f 4e be e4 30 d2 bd c3 f9 97 bc 1f 01 9f bd
       -0.2015373 -0.102632314 -0.018551713 -0.07763886
0001c0 1a f2 98 bc 87 f1 9b 3d c1 76 10 bd 16 de d1 3c
       -0.01867013 0.07614427 -0.035269503 0.025618594
0001d0 25 b0 e9 bc 87 f1 7f bb f7 5f b0 3d 82 64 0b b8
       -0.028526375 -0.0039053874 0.08612054 -3.3233788e-05
0001e0 82 51 95 3b a3 6a 01 3e 84 a8 02 3d 02 c1 4e 3c
       0.0045568356 0.12638335 0.03189899 0.012619259
0001f0 b9 4b ca 3b a0 ac c5 3c b7 1f b6 3c 59 2a b1 bd
       0.0061735776 0.024130166 0.02223192 -0.08650655
000200 0c 6f 89 bd 16 84 62 3d 92 c1 ca 3d 1d c9 14 be
       -0.06710634 0.05530175 0.09900202 -0.14529844
000210 27 cd d7 bb c3 10 b4 3d b8 82 ad 3c cd 3e f3 bb
       -0.0065857354 0.087922595 0.021180496 -0.007423258
000220 c5 df 90 3b 8c 75 51 3d ca c9 3d 3b 2d 1c 62 ba
       0.0044212067 0.051137492 0.0028959387 -0.00086254143
000230 2f f1 27 bd 96 b5 ba bd 77 99 76 3c 61 d9 93 bd
       -0.041001495 -0.09116666 0.015051237 -0.07219196
000240 fb e5 b8 bd 68 a1 be bd 33 c4 31 3b c6 24 f6 3d
       -0.0902824 -0.093081295 0.0027125 0.12018733
000250 ba e9 08 bd 62 10 2d 3d f8 2f b3 3d da 7f a4 bd
       -0.033426024 0.042251952 0.08749384 -0.08032198
000260 ef 37 01 3d 94 f3 05 bd d0 74 46 3d e3 04 c7 bd
       0.031547483 -0.032702997 0.048451245 -0.09717729
000270 5f 15 13 3e ce a5 8a bc 4c 96 3c 3d c3 bb 82 3c
       0.14363621 -0.016924765 0.04604177 0.015958672
000280 a4 e3 ab 3d 90 87 dc 3b d0 8a 7e bd 0b fa b3 3c
       0.083930284 0.0067300275 -0.0621441 0.021969816
000290 16 e4 35 ba 0f 81 80 bd fd e7 1b 3d 0f d2 8a 3d
       -0.00069385895 -0.06274616 0.03806304 0.06778347
0002a0 d5 4d 46 bd 27 4c c2 3c 25 a3 85 3d 7f 32 0b be
       -0.04841407 0.023717953 0.06525258 -0.13593481
0002b0 0a aa 83 3d 08 96 4b 3d 1c f4 0f 3e f6 58 66 3d
       0.06428917 0.049703628 0.14057964 0.056237184
0002c0 66 1b b8 bd ae 0b 9d 3c 3c bd 8b 3c a4 a1 9f bc
       -0.08989601 0.019170608 0.017058007 -0.019486256
0002d0 53 53 20 bc 16 6d c2 3d 67 b2 02 3e 29 9c c4 bd
       -0.009785491 0.09493463 0.12763368 -0.09600098
0002e0 79 aa a9 bc 60 7f a4 bb 2e a9 2a bc ab 81 52 bd
       -0.02071117 -0.005020067 -0.010416312 -0.051393192
0002f0 bf 28 0a 3d 55 1c db 3c 7d 99 92 bc 43 a6 89 3d
       0.033730265 0.026746908 -0.017895455 0.06721165
000300 b5 9a e5 3d b0 b9 c4 bd 87 a5 d2 bd a5 c1 a5 bd
       0.11211149 -0.096057296 -0.10285478 -0.080935754
000310 5a 50 09 bd c4 a1 35 bd 23 78 9e 3d ec c7 42 bd
       -0.033523895 -0.044343725 0.07737758 -0.04755394
000320 cb bf 35 be 16 06 a0 3c 5d 96 55 bd 85 08 e6 3c
       -0.17748944 0.019534152 -0.05214535 0.028080234
000330 0e ed 94 3d 70 05 9a 3d 48 69 4e bd 50 f1 5f bd
       0.07271777 0.07520568 -0.050393373 -0.054673493
000340 4f f7 8e bd 59 2d 63 3d 1c 35 9b 3d 54 29 07 be
       -0.06980764 0.05546317 0.07578489 -0.13199359
000350 fe eb 8c 3c c2 c7 a1 bd 50 4b 09 3c e8 02 6a 3d
       0.017202374 -0.07899429 0.008379772 0.057131678
000360 f8 d7 af bd 8b eb c8 3d 56 97 5c 3d b5 60 07 3d
       -0.08586115 0.09810551 0.053855263 0.03305121
000370 50 fe 51 bc 50 1b 0f be 32 a7 df bc 83 ae 78 bd
       -0.0128169805 -0.13975263 -0.027301405 -0.060713302
000380 15 d8 ef 3b a2 8b 31 3d de f5 ec bc c9 51 3d 3d
       0.00731946 0.043346055 -0.028925832 0.046220575
000390 83 f9 c8 3d 9c 94 d4 3c ee 20 a3 bd 37 ec 0b 3e
       0.098132156 0.025949769 -0.07965265 0.13664328
0003a0 e5 51 a8 bd 32 97 b1 bd 27 a3 07 3e 5f 29 ba bd
       -0.08218745 -0.08671416 0.13245831 -0.09089922
0003b0 a2 17 39 3b dd 77 8e bd de c6 bb bd 15 31 3e bd
       0.0028242846 -0.06956456 -0.0916879 -0.046433527
0003c0 ac a8 22 bd 02 77 1d bd b3 e2 3a 3d 81 50 15 be
       -0.03971164 -0.038443573 0.045626353 -0.14581491
0003d0 d0 4f fd bc 7d 9d 01 3e c3 5f be bb f6 5f c9 3d
       -0.030921847 0.12657733 -0.0058097555 0.09832756
0003e0 3a 79 ab bc ab d9 ff bd 41 89 78 3d c2 6d 6b 3c
       -0.020931829 -0.12492689 0.06067777 0.01436943
0003f0 c1 04 ea 3d 7b 54 a4 bd 7b bf ce 3c 52 f0 76 3c
       0.11426688 -0.08023926 0.02523779 0.015071945

network_body._body_endoder.seq_layers.4.bias f4 [256]
000000 d3 1f a5 3c 67 8d c8 b7 78 0d 3c bd 56 7b 5c bd
       0.020156777 -2.3907704e-05 -0.045911282 -0.05382856
000010 6b b9 0e bd d7 de 8e bc 74 8b 61 bd 70 f4 cb bc
       -0.034844797 -0.017440243 -0.055064633 -0.02489683
000020 c3 ef ea bc ca 22 d7 bb 47 ef 08 3c 49 6c 1f bd
       -0.02867878 -0.0065654265 0.008357829 -0.03892163
000030 ca b7 20 bc ef eb ba bc 72 29 93 ba b8 aa 92 bc
       -0.009809444 -0.02281758 -0.0011227562 -0.01790367
000040 b9 a2 01 bd 9c 45 67 bc 51 b2 74 bb 83 bc 22 3d
       -0.031649325 -0.014115717 -0.003733773 0.03973056
000050 b4 c7 2a 3a 08 40 d2 bc 13 50 0f bd 35 10 ce bb
       0.00065147434 -0.025665298 -0.034988474 -0.006288553
000060 a3 d5 12 bd 5c c9 2b ba 1d 7a 39 bc ef bc a2 bb
       -0.03584827 -0.0006553137 -0.011320618 -0.0049663703
000070 06 15 9b bb ee 23 66 39 9d 54 50 bc 50 6d a9 bb
       -0.004732731 0.00021947894 -0.012715486 -0.005170502
000080 c0 e2 89 3b 75 a8 7d bc 7a a8 9b bc b9 1d 0c bc
       0.004207939 -0.015482058 -0.019001234 -0.008552008
000090 d4 5c ca bc f2 fd 28 bd de 75 8a bc b2 44 ba 3c
       -0.024702467 -0.041257806 -0.016901907 0.022737835
0000a0 68 fb 67 bc 50 68 41 3b e8 3b 07 bd f5 2b a1 bb
       -0.014159061 0.0029511638 -0.033016115 -0.00491857
0000b0 ac fd b2 bc fa cb 37 bd 3b d7 b1 bc d8 34 1e 3d
       -0.021849476 -0.04487226 -0.021709075 0.038624614
0000c0 2a f9 de bb 59 3d 0b bd ac 62 e2 bc 15 52 78 bc
       -0.006804605 -0.033994053 -0.027634941 -0.015156289
0000d0 a1 3e 6e bc 82 63 93 bc 16 c4 62 bd bd bc bc bc
       -0.014541299 -0.017991785 -0.055362783 -0.023039216
0000e0 2d 2f 0a bd 41 52 c6 bb b1 43 e1 bb 50 90 96 bc
       -0.033736397 -0.006052286 -0.0068745245 -0.01837936
0000f0 86 8d 85 bc 9e da 43 bd 53 4f 39 bc aa 86 29 bd
       -0.016302835 -0.04781591 -0.011310416 -0.04138819
000100 ab 39 23 bd de 27 ba bc eb 9e 9e bc 21 08 90 bc
       -0.03984992 -0.022724088 -0.019362887 -0.017582001
000110 bd f6 a2 ba 4f 85 1a 3b 62 b0 8b bc 73 39 d1 bc
       -0.0012433153 0.0023577993 -0.01705188 -0.02554009
000120 4d 5e 82 bc 68 63 0c bd 66 49 f2 3b 6c 7b c4 bc
       -0.015914107 -0.03427449 0.0073940037 -0.023984633
000130 58 f7 02 bd 28 87 4a bb 1b 8b c7 bc 42 9e 6f bc
       -0.031974167 -0.0030903313 -0.024358323 -0.014625134
000140 37 2a b8 bc 99 52 22 bc 96 2d be bc d7 e5 db bb
       -0.022481067 -0.009907388 -0.023215096 -0.0067107487
000150 05 2d e8 3b ba 82 84 bc 91 41 81 bc b0 b3 86 bc
       0.007085445 -0.016175617 -0.015778335 -0.016443104
000160 e5 b4 1c bd f1 80 b1 bc ca 24 0d bd 82 0b 2a bc
       -0.038258452 -0.02166793 -0.034458913 -0.01037872
000170 10 da 16 bc f6 bc f9 bc 00 a8 37 bd 61 00 31 bd
       -0.009207264 -0.030485611 -0.04483795 -0.043213252
000180 8e ca bd bb ec 67 ea bc 7f e5 31 bd f5 44 f2 bc
       -0.0057919687 -0.028614007 -0.043431755 -0.029573897
000190 7f 99 55 3b f3 9c 16 3c d5 3c 04 bd c1 22 6e bd
       0.0032592712 0.009192693 -0.032284576 -0.058138613
0001a0 b6 5a d7 bc 7a 37 37 bb 5f bb 22 bd f9 9d 4b bc
       -0.026288372 -0.002795665 -0.039729472 -0.0124278
0001b0 10 0d b1 bc f9 2b 23 bc 6f fa d2 bc 4a 39 de ba
       -0.021612674 -0.009959214 -0.025754182 -0.0016954329
0001c0 c8 24 12 bd 1f 1c 00 3c 5c 39 19 bd cb 52 90 bc
       -0.03567961 0.007819205 -0.037408218 -0.017617604
0001d0 c8 33 4d bd 06 52 f3 bc ef 11 b4 bc 29 3c 59 bd
       -0.05009821 -0.029702198 -0.021981208 -0.05303589
0001e0 a0 06 9f bc c4 41 f4 bc ad a3 bf 3c 3c 68 16 bd
       -0.019412339 -0.029816516 0.023393476 -0.0367205
0001f0 25 b5 f6 bc b8 bf 7a bc 2d 85 00 3c 0b 6b cf bb
       -0.030115673 -0.015304498 0.007844252 -0.006329899
000200 8c fd 1f bd 6e 88 fa bc 92 54 f0 3b fc f2 32 bd
       -0.03906016 -0.030582633 0.0073343003 -0.04368876
000210 22 30 5e 3b e5 f4 eb bc 08 1d 22 bd 2c ea ef bb
       0.00339032 -0.028803298 -0.039578468 -0.0073216166
000220 a7 7c 9b bb 0b 09 bc bc 88 80 28 3d 61 6c 0f bd
       -0.0047450843 -0.02295353 0.041138202 -0.035015468
000230 dc 86 3b bc c7 c5 b9 3c 04 b8 90 3c 39 a1 ee bb
       -0.011445727 0.022677315 0.01766587 -0.007282403
000240 e6 c4 a0 bc c6 3d 19 bd 64 d7 68 3b bc 61 3e 3c
       -0.019625138 -0.037412427 0.0035528773 0.011619981
000250 b4 82 47 bc 29 07 7e 3c bb d4 42 bd ad ca 02 bd
       -0.012177158 0.015504637 -0.047566157 -0.031931568
000260 65 17 a8 3c 72 fc 01 bd 87 c6 b1 bc 2d ff 3f bc
       0.020518968 -0.03173489 -0.02170111 -0.0117185535
000270 e0 32 9d bc 31 3c d9 bc 24 8c d0 bc b9 e6 31 bd
       -0.019189298 -0.02651796 -0.02545745 -0.043432925
000280 c8 58 e0 bc 53 f6 05 3d 9b d4 92 3a e3 86 2c bd
       -0.027386084 0.032705616 0.0011202277 -0.042120825
000290 54 36 62 bc 9d 45 38 3a 87 f9 c2 bb a3 52 78 bd
       -0.013806898 0.0007029416 -0.005950156 -0.060625684
0002a0 68 cb 91 bc 15 7c 46 bd 7d 42 21 3c 76 8f 20 bd
       -0.017797187 -0.048458178 0.009842512 -0.039199315
0002b0 8f 16 e4 bc 43 e4 2a bb d1 e9 7e bc 3e 53 c5 bc
       -0.027842788 -0.0026075996 -0.015558676 -0.024087545
0002c0 de 39 dd ba fe bd 1d bd 08 84 86 bc af a5 01 bd
       -0.0016878208 -0.03851127 -0.01642038 -0.03165215
0002d0 a0 fc 82 bc ea a6 a0 3c 3a 67 05 bd 6a 4e b0 bb
       -0.015989602 0.01961084 -0.032569148 -0.0053804414
0002e0 9b 0d 2d bd f0 e3 b4 bc d0 cf d4 bc 6c d7 2f bd
       -0.042249303 -0.022081345 -0.025977999 -0.04293005
0002f0 69 2c 4b bd 94 b5 86 bc 88 2d d2 bc ed df 04 bd
       -0.0496029 -0.016444005 -0.025656477 -0.032440115
000300 c0 92 e1 bc 6c 54 66 3c fd 67 1d bd 56 51 94 bc
       -0.027535796 0.014058214 -0.03842925 -0.01810519
000310 c3 fe 61 3c e6 f7 ea bc 9c a1 0d bd f9 f1 45 bd
       0.01379365 -0.02868266 -0.03457795 -0.048326466
000320 3f 74 e0 bc 70 b1 fc bc e0 3e a0 ba 02 23 15 bd
       -0.02739918 -0.030846328 -0.001222577 -0.03641034
000330 c2 4a 62 bd 1c e3 70 3c df 06 93 3c 27 9c 2f bb
       -0.055247076 0.014702585 0.017947612 -0.0026795955
000340 ca ed e2 3b e1 f4 00 bd 58 05 71 bc 0b 1a e0 bc
       0.0069253193 -0.031483535 -0.014710747 -0.027356168
000350 b7 70 2f bc 94 60 11 bd 13 01 c1 bc 31 8e 13 bc
       -0.010708026 -0.035492495 -0.023560083 -0.009006069
000360 d2 c2 b0 bc 99 0e dc bc 7e e6 86 bb 21 62 df bc
       -0.021577273 -0.02686243 -0.0041168323 -0.027268471
000370 09 14 0e bc ad ff a5 bc c3 41 03 bd 25 89 a8 bc
       -0.008671769 -0.020263517 -0.032045137 -0.020573208
000380 da 26 b6 bb 68 bc 11 bd ff d8 ce bb 75 e3 d0 bc
       -0.0055588307 -0.03558007 -0.006312489 -0.025499085
000390 a4 c0 b0 bc be b9 b5 bc cb d4 14 bc bf 8e 03 bd
       -0.021576233 -0.022183295 -0.009083937 -0.032118555
0003a0 f2 7a ea bc d1 83 0d bd 2d e1 3f bd 8c 6f c0 bc
       -0.028623078 -0.034549538 -0.046845604 -0.02349069
0003b0 c0 19 61 bd a3 66 4a bc 81 e1 f3 bc ea e7 63 bd
       -0.054956198 -0.012353572 -0.029770615 -0.055641092
0003c0 84 66 6d bd 79 3b 93 bc ae 0f ca bc 4c 65 16 bc
       -0.057959095 -0.017972695 -0.02466568 -0.0091794245
0003d0 a5 4c 0a bd 3b 48 0e bd 5c 94 6b bc 15 03 bd bc
       -0.0337645 -0.034736853 -0.014378633 -0.023072759
0003e0 12 12 c0 bc 1c 22 4c bd 2e b1 9f bc d8 27 57 bc
       -0.023446117 -0.049837217 -0.019493666 -0.013132058
0003f0 44 06 07 bd e7 45 b0 bc 7b cb 9d bc bb f5 6a bc
       -0.03296496 -0.021517707 -0.019262066 -0.014340813
