Assets/Training/results/Run 9/DroneBehavior/DroneBehavior-7999957.onnx (onnx, 697640 bytes, 21 tensors)

105 f4 [25]
00000000: d172 de3e 5bde 813e b52e 8b3c 3638 ef3e
00000010: 5704 3a3e bf14 d83e 51f3 eb3d 4d6b 093d
00000020: 8ba5 dc3e 7d22 fa3d f02d e23e c9de b23d
00000030: 58b3 413d 7dce e43e 2be9 193e bb29 d53e
00000040: 2482 f23d 99fb 413d 8a87 da3e e0c0 003e
00000050: bb29 d53e 2482 f23d 99fb 413d 8a87 da3e
00000060: e0c0 003e
0.43446973 0.25364956 0.016990045 0.46722573 0.18165718 0.42203328 0.11521018 0.033549596
0.4309505 0.12213609 0.44175673 0.08733899 0.047290176 0.44688788 0.15030353 0.416334
0.118412286 0.047359083 0.42681533 0.12573576 0.416334 0.118412286 0.047359083 0.42681533
0.12573576

108 f4 [25]
00000000: 0f80 f73e 5f79 ff3e 1109 453e e228 a73e
00000010: abf8 603e f7c1 fc3e fa90 fd3e 5184 de3d
00000020: bf95 af3e 5a67 553e 920c f93e 9dbc fe3e
00000030: 9796 413e ac31 ab3e 2c2a 693e 1d43 f33e
00000040: 3f68 fd3e 7e93 853d bef0 d43e 6034 493e
00000050: 4ca6 fa3e e860 f23e 2627 ca3d 9684 de3e
00000060: 7ced 6b3e
0.48339888 0.49897286 0.1924174 0.3264838 0.2196986 0.49366733 0.4952467 0.10865081
0.34293935 0.20840207 0.48642403 0.49753276 0.18905102 0.33436334 0.22769994 0.4751214
0.49493596 0.065222725 0.41589922 0.19648886 0.48955 0.4733956 0.09870748 0.4346053
0.23039812

111 f4 [55]
00000000: 6805 1d3e d461 843e 425d b939 81ea 963e
00000010: 5b60 8c3d a481 803e 88a4 093e 425d b939
00000020: ad82 8f3e a925 aa3d 6b4f af3d ebd1 093e
00000030: 425d b939 7475 223e cef9 0e3d b106 2c3e
00000040: 1896 ae3c 425d b939 f54b 2d3e d540 493d
00000050: 6e8e 343e a739 c53c 425d b939 901f 363e
00000060: 1625 3b3d 536b 433e 425d b939 425d b939
00000070: d66a 433e 5500 813d d72f 3e3e e3b5 373c
00000080: 425d b939 2a83 3e3e d8e1 433d 86e9 3f3e
00000090: 425d b939 425d b939 b4e9 3f3e b842 543d
000000a0: 400c 883e 81d3 e63b 425d b939 8b16 883e
000000b0: 9dd9 973d 05e2 483e 425d b939 425d b939
000000c0: 7ee3 483e ea4b 2c3d 05e2 483e 425d b939
000000d0: 425d b939 7ee3 483e ea4b 2c3d
0.15334094 0.25855887 0.00035355432 0.29475787 0.06854316 0.25098908 0.1344167 0.00035355432
0.28029385 0.08307964 0.0856007 0.13458984 0.00035355432 0.15865117 0.0349062 0.16799428
0.021311805 0.00035355432 0.16923507 0.049134094 0.17632458 0.024075342 0.00035355432 0.17785478
0.045689665 0.1908391 0.00035355432 0.00035355432 0.19083723 0.062988915 0.18572937 0.011212799
0.00035355432 0.18604723 0.047822803 0.18741426 0.00035355432 0.00035355432 0.18741494 0.05182144
0.26571846 0.007044256 0.00035355432 0.265797 0.07414553 0.1961747 0.00035355432 0.00035355432
0.19618031 0.042064585 0.1961747 0.00035355432 0.00035355432 0.19618031 0.042064585

114 f4 [25]
00000000: 1280 f73e 5f79 ff3e 2509 453e e228 a73e
00000010: abf8 603e f84d f93e 55ff fe3e 702c 1f3e
00000020: c0df ad3e c1c9 5e3e bac3 fa3e 87dd fd3e
00000030: 0c86 313e 9666 ae3e dbab 633e f08a fa3e
00000040: 749f f33e 070d d33d 6a5d dc3e 14db 5b3e
00000050: 2de8 f93e 2b9e f53e 6549 c63d 69a5 da3e
00000060: 4bd5 673e
0.48339897 0.49897286 0.1924177 0.3264838 0.2196986 0.48692298 0.49804178 0.15544295
0.3395977 0.2175665 0.48977453 0.49583074 0.17336291 0.34062642 0.22233526 0.48934126
0.4758259 0.10305219 0.4304002 0.2147029 0.4880995 0.47972235 0.09681968 0.42704323
0.22639959

117 f4 [25]
00000000: fbe1 f33d bb1e 873e 425d b939 b351 923e
00000010: 0dc5 883d a089 b73d a6eb 133d 425d b939
00000020: d4a4 c53d c009 0d3d 805c b13c 0d17 1c3d
00000030: 425d b939 c57a 333d 9d03 983c 6581 d03d
00000040: a6eb 133d 425d b939 34f7 dc3d c020 c83c
00000050: 6581 d03d a6eb 133d 425d b939 34f7 dc3d
00000060: c020 c83c
0.11908337 0.26390633 0.00035355432 0.28577957 0.066782095 0.08961797 0.036113404 0.00035355432
0.09650579 0.034433126 0.021650553 0.03810792 0.00035355432 0.043818254 0.01855641 0.1018093
0.036113404 0.00035355432 0.10789338 0.024429679 0.1018093 0.036113404 0.00035355432 0.10789338
0.024429679

120 f4 [3]
00000000: 85cd 0e41 bcc3 843f 34ed 3041
8.925176 1.0372233 11.057911

action_model._continuous_distribution.log_sigma f4 [1, 3]
00000000: a33b a4bd 6369 abbd 958a f1bd
-0.08019187 -0.0836971 -0.117940105

action_model._continuous_distribution.mu.bias f4 [3]
00000000: 90dd 8bbc 17a0 243b ef07 e73c
-0.017073423 0.0025119835 0.028202025

action_model._continuous_distribution.mu.weight f4 [3, 256]
00000000: 2b05 5ebd da32 a7bc 8af2 9e3c 51ff ccbb
00000010: 8959 063c 64ba 5bbc 887c b13b 5027 f736
00000020: a66a ed3b 793d 2cbc 452d dabc 81a4 8aba
00000030: f2af 0fbd 2150 f0bb 457e 82bc 2d96 003d
00000040: 90fb b5bc 7108 7dbb c9b4 7e3c 5006 2fbd
00000050: db68 77bd 08e2 f83b 0b11 213b c668 80bc
00000060: bee8 19bb 1dab 3e3c 529b 35ba 427a 343c
00000070: 599b c13b af95 b5bb c9f2 25bc 194d c739
00000080: b1e8 883c c23a 1abd 76df fe3c f1ab 193b
00000090: bb18 963c 971f 013b c1a2 42bc 3467 8abd
000000a0: 1f3d 1a3c a753 533d 2b66 6bbc 93e3 07bd
000000b0: 774b e63c a7a9 9a3b 172c c9bc 2601 cf3b
000000c0: b99d acbc 6fa4 1ebb 8356 51bc a688 9d3b
000000d0: da61 8abc 1e9f c4bb 6070 363c 16ae 2ebc
000000e0: 564a a53c 8446 ff3b d225 cebc 966f 93bc
000000f0: 6efc fd3a 0339 e7bc cc4c c2bb 5ef8 14bc
00000100: 278f a63c 8bc8 073c c577 babb 0a01 c93b
00000110: 859d 063d 5657 85bc 2b6a b33c 8c08 02bd
00000120: 4c19 4ebc 4ace 053c 96ce fabc b815 87bb
00000130: 8cdc 543b 4545 1d3c e6f4 c8bc 42dd b1bc
00000140: 00d7 10bd e4ce 9ebb e7a7 6a3c 03aa e83c
00000150: 53e4 3bbc d936 07bd 31ea b8bc 9042 d8bc
00000160: 6fec b83c 807b 0c3c de5c a23c 0c4f 57bc
00000170: e74c 4a3c 28ab 0d3c 6162 d9bb a77c c53c
00000180: 4be1 17bd c820 23bc 4c6d e0bb fd7e a0bb
00000190: b552 a4bc 32e7 44bb de9d 423c 10ce 963c
000001a0: 4646 bb3b 7fc7 3bbc eaf7 713c 8e2c 1a3d
000001b0: 5c76 063b 706b 55bb e530 08bb d61b 9b3b
000001c0: 6a10 803b fe1f 24bd 7dd4 dabc 14b6 24bc
000001d0: d4a9 aa3b 3e85 8b3c c2d9 a6bc 2f3a 8f39
000001e0: 3565 4d3d d416 773b 78a6 50bc 1c9e 003c
000001f0: 8831 533c 876c 76bc 24c4 1d3a 4fed a23c
00000200: d839 353c 057b 4c3c eb2c 053c 32de 7f3c
00000210: 00fc 9a3c a82f 1cbc 6454 6abc 465a 96bc
00000220: da14 183c a723 c8ba a05b dbbc 7e5f 8dbb
00000230: 7929 b5bc 6d75 c23c 58e4 273b 4597 783c
00000240: a3d1 0f3c a09a b23a 35c1 7dbc e11e 92bc
00000250: 9f5c 5aba 7012 40bd ff96 3b3b b6b3 003c
00000260: 8ef5 773c 2be8 ef3c 6b60 203c 375c c53c
00000270: 05ce 61bc 844e 613d 4091 37bc c3ea 813c
00000280: ed30 523c 4a42 56bc f748 073c 8643 b63a
00000290: 908a 963b 588c 523c 865c 613b d924 a1bc
000002a0: 70f8 b0bc 232a 543b 2f8f 27bc 3844 a63c
000002b0: ece9 c13b dec2 55bc d6a7 9fbb 83b4 553b
000002c0: 29dc a8bc e7cb 0c3c c6d2 9e3b bba8 83bc
000002d0: 85b2 37ba 2fd2 48bb 9e66 98bc 2251 19bc
000002e0: 4afa 513b e393 023b 83a6 39bc 09c0 ea3c
000002f0: 0277 733c 1a9c 48bc 0788 7e3c 19dd d33c
00000300: 393c 843c 4b8c 613c 3ca4 6abb 7e48 a73c
00000310: 0a88 223c ab95 fdbb 0152 a93b a5ec 963c
00000320: df4d 133d cf69 563d 3abe 863b ae0d 003d
00000330: 5c27 0ebd c5a4 5cbd bf8c a4bc 4958 293c
00000340: e401 99bc 6957 c3bb c0d9 dbbb 2236 e5bc
00000350: a6bd 3cbc 7d9b 92bb 486f cc3c e141 24bc
00000360: cef5 0dbd 9dab dc3b 4539 c4bc 8ae8 ccbb
00000370: 96c9 f83b dd97 a23b 7e9f 6a3a 62ad 2b3d
00000380: a20c 8e3b 0e48 f03b c381 4dbc edcd 513c
00000390: cc24 d3bc 3f5e 91bc 7627 efbb 817f aabb
000003a0: 8e6b a7bc f2ca 77ba 58de 853c 53ca 0e3c
000003b0: c8b9 35bc 111f 143d 0fd5 473d 13da 093c
000003c0: 8b9f 833c 95af 463c 132d 7ebb b9fc 9e3c
000003d0: 8867 e03c 7962 dd3b f018 9d3c d123 683c
000003e0: d5ee fdbc 6de6 b43c 2b0c af3b a7b2 b13c
000003f0: cee7 c4bb c44f 233c cf4f 4a3b e840 23bb
-0.054204147 -0.02040999 0.019402761 -0.006256022 0.008200058 -0.013411138 0.0054164566 7.36575e-06
0.0072453795 -0.010512703 -0.026632914 -0.001057759 -0.035079904 -0.007333771 -0.01592935 0.03139322
-0.02221468 -0.0038609768 0.015546032 -0.04273063 -0.060402732 0.0075953044 0.0024576809 -0.01567496
-0.0023484672 0.011637476 -0.00069277466 0.011015477 0.0059084115 -0.0055415253 -0.010128685 0.0003801368
0.016712518 -0.037653692 0.031112414 0.0023448432 0.01832234 0.0019702667 -0.011879624 -0.06757966
0.0094139865 0.05159345 -0.01436762 -0.033176016 0.028112156 0.004719931 -0.024557156 0.0063172756
-0.021071302 -0.0024206897 -0.012776974 0.0048075495 -0.016892362 -0.0060004136 0.011135191 -0.0106616225
0.020177048 0.0077903885 -0.025164519 -0.017997544 0.0019377598 -0.028225427 -0.005929565 -0.0090924185
0.020331932 0.008287559 -0.005690547 0.006134157 0.032865066 -0.016276997 0.02190121 -0.031746432
-0.012579273 0.008166859 -0.030616086 -0.004122462 0.003248009 0.009599035 -0.02453084 -0.02171195
-0.03536129 -0.0048464406 0.014322258 0.02840138 -0.011468011 -0.03301129 -0.022572609 -0.026398927
0.022573678 0.008574367 0.019819673 -0.013141405 0.0123474365 0.008646764 -0.006634042 0.02410729
-0.03708009 -0.009956546 -0.0068489667 -0.0048979507 -0.020058969 -0.003004503 0.011878459 0.018408805
0.0057151644 -0.011461138 0.01476858 0.037640147 0.0020517325 -0.0032565258 -0.0020781097 0.004733543
0.0039082067 -0.040069573 -0.02671265 -0.010053176 0.0052082334 0.017031308 -0.020367507 0.00027318436
0.050145347 0.0037702816 -0.012735002 0.007850196 0.012890227 -0.015040523 0.0006018302 0.019888548
0.011061154 0.012480502 0.008128385 0.01561694 0.018918991 -0.0095328465 -0.014302347 -0.018353593
0.009282315 -0.0015269414 -0.026777089 -0.004314362 -0.022114502 0.023737634 0.0025618281 0.015172784
0.008778009 0.0013626404 -0.015487959 -0.01783699 -0.00083298417 -0.046892583 0.0028623936 0.007855346
0.015134228 0.029285511 0.009788613 0.024091823 -0.013782029 0.05500652 -0.011204064 0.015859013
0.012829048 -0.013077328 0.008257142 0.0013905622 0.0045941547 0.012850843 0.0034387424 -0.01967089
-0.02160284 0.0032373748 -0.010227009 0.020296201 0.0059177782 -0.013046948 -0.0048723025 0.0032608814
-0.020612793 0.008593536 0.0048469035 -0.016071668 -0.00070074975 -0.0030642857 -0.01860362 -0.0093577225
0.0032040053 0.0019924573 -0.011331203 0.028656023 0.014859917 -0.012244249 0.015535361 0.025862264
0.016141998 0.013766359 -0.0035803458 0.02042031 0.00992013 -0.007738789 0.0051672463 0.018423388
0.035962936 0.052347 0.0041120322 0.031263046 -0.034705505 -0.053868074 -0.020086644 0.01033599
-0.01867766 -0.005961348 -0.0067093074 -0.027979914 -0.011519825 -0.004474102 0.024955407 -0.010025472
-0.034658246 0.006734325 -0.02395309 -0.0062533068 0.0075923903 0.004961951 0.0008950158 0.041913398
0.004335002 0.0073328083 -0.012543145 0.012805444 -0.025774382 -0.017745135 -0.0072984053 -0.005203188
-0.020437028 -0.00094525435 0.016341373 0.00871523 -0.011091657 0.03616244 0.048787173 0.008413809
0.016067287 0.012126823 -0.003878419 0.019407617 0.027393118 0.0067561236 0.01917693 0.014168696
-0.030997673 0.022082532 0.0053420267 0.021691633 -0.0060090786 0.009967748 0.0030870324 -0.0024910513

network_body._body_endoder.seq_layers.0.bias f4 [256]
00000000: 2fc1 be3c 744d 08bd ac73 5a3c 06ad 98bc
00000010: 6fab 2fbc 2572 78bc 9cf1 1bbd 51c8 1fbd
00000020: 86d5 52bb 1295 88bc 877f 2d3c 49eb 16bd
00000030: 40c8 01bd bded 13bd 9090 c0bc 3090 c1bb
00000040: 80f4 86bd 1e4b 22bd 7b4d e9ba b676 4dbd
00000050: 7a07 d1bc 7eb0 9bbd af54 bc3c 645c 8cbd
00000060: 1fad 4dbd 4ccc 4ebd 8cd9 e3bc 9b07 1dbd
00000070: e269 1b3d 00f6 a4bd 3cba dcbc b695 953c
00000080: b51a 1f3c a19f cd3a 624c da3d 22c1 46bd
00000090: c792 3dbd 023e 8e3b 6384 703c d17e 62bd
000000a0: 9aea e83b 5284 95bc f48e 71ba eec6 62bd
000000b0: 315b f6bc 8c0a 98bb 94ce 39bd d531 65bd
000000c0: 97d2 82bc b8e7 393c bf71 5dbd c8eb 173c
000000d0: eaf1 43bd 2e57 1b3c dbf6 83bc 405e c8b9
000000e0: fa3b e7bc bb4e 7bbd 277f 7ebd da6a aabb
000000f0: ee44 e3bc 4cac c5bc 7048 cfbc 8eb0 4fbd
00000100: 52a0 f33b 8ab3 b6bc 18b9 94bd 97c8 56bb
00000110: 5c83 c2bc f704 003d 9935 1dbd 9949 76bd
00000120: be1e 63bc c72e 96ba f944 babc 38cd 0fbd
00000130: 3a01 54bb 4c6b b1bc 0edf e0bc 06fa 1abd
00000140: 7838 7e3c 4d51 7ebc 6fc5 9b3c 4e86 263c
00000150: 8068 46bd e1df b8bc 0d3d 7f3a 804c 393c
00000160: f5f6 a83c 616c db3b 6a12 7b3c 18cb 25bd
00000170: f323 193c b4c7 f3bc 9040 dfbc 66bf 90bc
00000180: be01 193d 5585 b5bd d048 1b3d 7b08 2ebc
00000190: 3c6e bd3b 0ca4 b5bc f0d1 863c 6eda 253d
000001a0: 2596 e339 8a88 bebd 144c 56bd 474e 91bd
000001b0: a757 b3bc dc96 57bd f43f 5fbb c6de 31bc
000001c0: d0d0 17bd eea2 d1bc a834 bcbc 92f2 70bc
000001d0: 5c82 c9bb c8b6 01bd a03c 49bd 9b81 c23c
000001e0: 69d9 633c 325f 06bd 8b4c c33c 20b5 b93b
000001f0: e891 7cbc 2dd3 13bd 9c97 1dbd 41d6 53bd
00000200: 1afe 67bd ddd8 47bd d707 01bd eecb 06bd
00000210: 4ba4 aabc 4590 8d3c 545f 33bd 809d a9b9
00000220: 51a5 a7bd 46fe 95bc 36e3 063c 27af 1cbc
00000230: c2a6 64bd a14b 92bd 9edc bc39 0dfb bebd
00000240: bd84 8ebd 95fe a1bc c597 3a3d 5c03 a4bb
00000250: a8e1 97bd d5a9 0cbd 90be 87bd 8d14 103d
00000260: 934e 36bd 3ee0 a8bd afc0 c5bc afe6 edbc
00000270: 71d2 2b3c 3eeb 0fbd 91d6 b6bd 5fef b2bd
00000280: 2e48 05bc 4f30 64bd ce5e b9bc d003 fcbc
00000290: 000b 2ebd 3488 ccbc 4863 47bd 4da9 1dbd
000002a0: 57f5 68bc 2edf ca3c 0b12 f3bc 357e f8bc
000002b0: c4a4 67bd e7aa a5bd aa65 febc f2bb 8bbd
000002c0: 6177 2a3c 5765 9bbc 8f1b ea3b 1fa7 16bd
000002d0: e0de 65bd a3c9 49bd 71b9 1abd 4d26 e0bc
000002e0: fc3a 063c 2f39 fb3b 9602 bbbc 3b19 9cbd
000002f0: 08ff 5bbd 0c6d 58bc e3f6 84bd 2711 ebbb
00000300: b289 9dbc a91b 35bd e0e8 cfbc bfc6 383c
00000310: 891b aabc 4c72 e6bc 5ac0 bd3b 8e75 96bd
00000320: efdf 86bc bd5e 83bc df32 58bd f5e0 7abd
00000330: d117 c6bc c95b 90bd 412c babc fe11 a23c
00000340: 3063 82bd c94d 55bd b50b 793c 444f 84bd
00000350: b591 f43b b721 243c bee4 723b 52fb 80bc
00000360: ccdf 71bc 2974 8abc e74a 46bd 31f4 fdbc
00000370: 314e 64bd 5246 9fbc b03b e1bc 5884 133d
00000380: 5ac1 9c3c d31f 02bd 8e1e dabc 3914 1abd
00000390: f826 bbbc af59 c8bd 6ff6 c33c bfc5 08bd
000003a0: 78a0 7e3c be93 52bd 57fa 3dbd 4d3c 56bb
000003b0: 419b 56bd a6a6 5e3c e0de fbbc 3148 4fbd
000003c0: 4144 a13b d74c 73bd 1224 183c 7b41 953a
000003d0: def0 f8bc 9731 b5bc bd1e f63c 712d 5dbd
000003e0: 9941 88bd 449d 05bd ab20 0bbd 2874 583c
000003f0: 1042 dabc 54e9 39bb 47b5 10bc 9f0f 913c
0.023285476 -0.03327699 0.013333242 -0.018637192 -0.010722025 -0.015163933 -0.038072214 -0.039009396
-0.0032170727 -0.016672645 0.010589487 -0.03684548 -0.031685114 -0.036115397 -0.023506433 -0.005907081
-0.065896034 -0.03962242 -0.001779958 -0.05016204 -0.02551626 -0.076020226 0.022989599 -0.068535596
-0.05021393 -0.0504878 -0.027813695 -0.03833733 0.037942775 -0.08054733 -0.026944272 0.018259864
0.009710957 0.0015687832 0.106591 -0.04852403 -0.046282556 0.004340888 0.014680001 -0.055296723
0.007108045 -0.018251572 -0.0009214722 -0.055365495 -0.03007278 -0.004639929 -0.045363024 -0.055955727
-0.015969558 0.01134675 -0.054063555 0.009272523 -0.04783813 0.0094812345 -0.01610892 -0.00038217194
-0.028226841 -0.06135438 -0.06213298 -0.005200726 -0.02774283 -0.02413001 -0.025303096 -0.050705485
0.007434883 -0.022302408 -0.07261866 -0.003277337 -0.023744278 0.031254735 -0.038381193 -0.060128782
-0.01386231 -0.0011458033 -0.022737967 -0.03510782 -0.0032349364 -0.021657608 -0.02745011 -0.037836097
0.015516393 -0.015522313 0.019015042 0.010163857 -0.048439503 -0.022567691 0.00097365753 0.011309743
0.02062557 0.0066962694 0.0153242145 -0.04047689 0.00934695 -0.029758312 -0.027252465 -0.01766939
0.037355177 -0.08863322 0.037911236 -0.010622139 0.005780963 -0.02217295 0.016457528 0.040491514
0.0004340868 -0.093033865 -0.052318648 -0.07095008 -0.021892382 -0.052634105 -0.0034065219 -0.010856336
-0.037064373 -0.025590386 -0.022974327 -0.014706271 -0.0061495733 -0.031668454 -0.049130082 0.023743441
0.013906815 -0.03280563 0.02384021 0.0056673437 -0.015415646 -0.036090065 -0.038474664 -0.051718
-0.056638815 -0.0487908 -0.031501617 -0.032909326 -0.020830294 0.017280707 -0.043792084 -0.00032351539
-0.081858285 -0.018309724 0.008232882 -0.009563244 -0.055823095 -0.07143331 0.00036022527 -0.09325228
-0.069589116 -0.019774714 0.045554895 -0.0050052833 -0.074160874 -0.034341652 -0.06628144 0.03517585
-0.044508528 -0.08245896 -0.02413973 -0.029040663 0.010487185 -0.035136454 -0.08927644 -0.08737063
-0.008134885 -0.055710133 -0.022628214 -0.030763537 -0.04249096 -0.02496729 -0.048678666 -0.038491536
-0.01421865 0.024764623 -0.02967169 -0.030333618 -0.056553617 -0.08089238 -0.031054337 -0.06822957
0.010404439 -0.018969221 0.0071443985 -0.036780473 -0.056120753 -0.04926456 -0.037774507 -0.027362013
0.008192774 0.007666729 -0.022828382 -0.07622 -0.053710014 -0.013209593 -0.064924024 -0.0071736756
-0.019230697 -0.044215832 -0.025379598 0.0112778535 -0.020765083 -0.028130673 0.0057907524 -0.073466405
-0.016464202 -0.016036386 -0.05278289 -0.061249692 -0.024181278 -0.07048757 -0.02272618 0.01978397
-0.06366575 -0.052076135 0.015200545 -0.06460431 0.0074636587 0.010017804 0.003706261 -0.015744839
-0.01476283 -0.016901093 -0.048411276 -0.031000229 -0.05573863 -0.019442711 -0.027494282 0.036014885
0.019135166 -0.03176863 -0.026625898 -0.037616942 -0.02284573 -0.09782731 0.02392122 -0.03339171
0.015541188 -0.05141043 -0.04638132 -0.003268975 -0.052394155 0.013589537 -0.030745924 -0.050605956
0.0049214666 -0.059399452 0.009285944 0.0011387313 -0.030388292 -0.022118373 0.030043954 -0.053998414
-0.06653137 -0.032620683 -0.0339667 0.013211288 -0.02664283 -0.0028367834 -0.008832282 0.017707644

network_body._body_endoder.seq_layers.0.weight f4 [256, 158]
00000000: b9b7 56bd c916 0dbe d2eb debd 2fd5 f33d
00000010: ce1e d73d c08c 13be 690c ffbd 24c4 233d
00000020: 61d4 8d3e a195 713e 848f 20be 5f98 c9bc
00000030: aa9f 213e 5ecf 083e 1f9d 1b3e c11a 533d
00000040: 356b c6bd 7ae5 95bc 2c5c 8d3d df9f 2c3e
00000050: 0338 57bd 9e8d 25bd 60b7 df3c f61c bfbd
00000060: c9fc 3dbc 14e8 023c 80fd 0ebe 1df1 48bd
00000070: 166c 24bd 5576 003e 0c2f 9f3d c46c 103e
00000080: a966 56be 7e4f 32bd 952c 313e 070d cbbd
00000090: 1bb1 47be cb59 b5bd 20f4 9f3b 2fbd 843d
000000a0: 1fd2 abbd 444d 21bd 485d 58bd 845c c2bb
000000b0: 9f8e a8bc 4c0c d5bd 6c23 10be 93e4 2e3d
000000c0: 024b a9bc 50a1 d03c b5c9 78bc 0aac a33b
000000d0: 44f5 72bd 9573 6fbd 252f 02bc 1ade 89bd
000000e0: 4c2c fd3a 7b47 753d c7fb 33be 0d50 2abd
000000f0: 2acd ef3c 7448 093e ef5a a63d d913 103b
00000100: 6445 f53d 03ff febb e5b2 733d a2a1 413d
00000110: 63b2 48be cd5e 263d fd8e 53bd dda0 513e
00000120: 7dfd 25be cf0e e1bc 8991 0e3e f473 783e
00000130: b066 ff3d d56a dcbc e670 18bd 095a c8bd
00000140: 21c3 4e3d 2587 77bc 85bb 01bc ba34 08bd
00000150: 823c c5bd 0727 2abe 0f58 17bd 4fb9 803d
00000160: 7da0 a93c 9568 923c 1685 0bbe a196 283d
00000170: 291b f13d e20d 2e3e cd26 193e 4cdd cabd
00000180: a626 cdbc 05c4 69bd 0198 ac3d 3ccc aabd
00000190: 7696 dd3d 371f 163c 374e a2bc d1a1 e13c
000001a0: bcba c03d d8a9 7c3c 465f 96bd 4d37 12bd
000001b0: e3e2 7e3d c0f0 7b3d 47ac 35bc 072a 0cbd
000001c0: afe5 3bbd 35b6 963d 5ac3 f93b ae2b bfbd
000001d0: d265 ebbd 783c 8bbd ed15 d33c 2047 503d
000001e0: 77e1 1f3d 4cb0 5abd c051 f83d 1736 0abd
000001f0: fb6e b93d 116a 12bd f41e edbc 9612 4c3e
00000200: 4e55 3b3e aa99 153d 8ba5 443d 8b84 75bd
00000210: ce5e a5bd feb6 bc3a 74f3 4f3d 0a6d 8fbd
00000220: 1172 4fbe 0bf8 1d3e caa7 76bd 45a2 78bc
00000230: 2f0d 073e 1951 f3bc 4d02 b4bd 7301 8b3c
00000240: 2d35 3abc 2be0 81bd a4fc 8bbc 20c7 4a3d
00000250: 5868 d33d 945a c63d 3148 ce3d 1465 343d
00000260: 31cd c23d 62ef 923c b631 f3bc f509 11be
00000270: cf85 ab3d d441 20bd 8687 883c 8a3a 02bd
00000280: d1a7 ec3b 1f9f 5f3d a864 c4bc c613 a3bc
00000290: 6c52 8f3d 6fc0 ec3c 7038 b03d bee2 7dbd
000002a0: 5f39 08be 82bc 42bd faed 133d 5e5d 2c3d
000002b0: 0881 563c be1e 943c aa94 ed3c 34da a0bd
000002c0: a7e5 6e3c cdbe abbd e2f2 ffba 9c01 f63c
000002d0: ab87 ebbc aded 52bc 18ad a73d 2ff6 e63d
000002e0: 65a2 763b d632 2dbe 7ffa 0bbe 633f a4bc
000002f0: 560f 13be 6c8f 01be fc99 2abe dd50 123e
00000300: e5b7 b03d 8ce2 aa3c b76c 7d3d 7676 e9bd
00000310: 17d0 e3bc 985f 91ba ab09 b8bc dd56 4bbb
00000320: fa42 1fbd 7cf5 8b3c b3c1 113b 522b bc3c
00000330: bbe6 42be 8601 7abb be37 98bd 8dd7 713e
00000340: 9d31 233d a8dc 5fbd e14b 253d 9581 413e
00000350: 38f1 823b c533 27be e495 e5bd 605f 6d3d
00000360: 0608 a93d 1cbc bd3d 3c1b 9d3c ae63 443c
00000370: 9e8a 6a3d 2c34 923c 7b19 633d e41f 6cbd
00000380: 41c1 7fbe 6aad 87bd 0298 9d3b 0f9c 74bd
00000390: b2fe 47bd 1c0c 86bd 0df7 34be abb3 0cbe
000003a0: 6dfb 84bd aa5d 1cbe 02b7 e53c 236a 123d
000003b0: fcb8 3b3d f763 61bc 4f64 c03c ee31 a33d
000003c0: 66da ae3c 6596 313b d6ff 7c3d 8594 483d
000003d0: 5f42 d3bc e754 0f3d 19bf 83bd c6d3 9dbd
000003e0: 2f03 af3d 9be4 a43d 8638 29bb b5e8 0ebd
000003f0: e584 06be e64e 2abd d912 b9bc fdea 2a3d
-0.052421305 -0.13778223 -0.10884823 0.11905896 0.105039224 -0.1440916 -0.12453539 0.039981976
0.27701095 0.23592235 -0.15679747 -0.024608789 0.15783563 0.13360354 0.15196656 0.051539186
-0.09688417 -0.0182979 0.06902346 0.16857861 -0.05254365 -0.04041826 0.02730912 -0.09331696
-0.011595913 0.007989902 -0.1396389 -0.04905807 -0.04014214 0.1254514 0.07772645 0.14103991
-0.20937599 -0.04353284 0.17302163 -0.09914594 -0.19501154 -0.08855017 0.004881397 0.064813964
-0.08389687 -0.039380327 -0.052823335 -0.005931439 -0.02057582 -0.10402736 -0.14076012 0.042698454
-0.02066565 0.025467545 -0.015184809 0.004994874 -0.059315935 -0.058459837 -0.00794581 -0.06731816
0.001931557 0.059882622 -0.17576514 -0.04158025 0.029272635 0.13406545 0.08122813 0.0021984486
0.11976126 -0.0077818646 0.05949678 0.047273286 -0.19599299 0.040617753 -0.051650036 0.2047152
-0.1620998 -0.027472882 0.13922705 0.24262983 0.12470758 -0.02690641 -0.037217043 -0.09782798
0.05047906 -0.015107905 -0.007918243 -0.03325341 -0.096306816 -0.1661645 -0.036949214 0.06285345
0.02070641 0.017872134 -0.13624987 0.041159276 0.117727585 0.16997483 0.14956208 -0.0990549
-0.025042843 -0.057071704 0.0842743 -0.08339736 0.10819714 0.009162716 -0.019812686 0.02754298
0.09410617 0.015421353 -0.07342391 -0.03569727 0.062228095 0.061508894 -0.011088437 -0.034219768
-0.04587334 0.07358972 0.0076221647 -0.09334503 -0.1149403 -0.06798643 0.025767291 0.05084908
0.03903338 -0.053390786 0.121249676 -0.03374299 0.09054371 -0.035745684 -0.028945424 0.19928965
0.1829426 0.0365235 0.048009437 -0.059940856 -0.08074723 0.0014397798 0.050769284 -0.070032194
-0.20258357 0.15426652 -0.06021861 -0.015175407 0.13188623 -0.029701756 -0.08789501 0.016968464
-0.011365217 -0.06341585 -0.017088242 0.049506307 0.10322636 0.09685245 0.10072363 0.044041708
0.095117934 0.017936412 -0.02968679 -0.14163955 0.08375131 -0.03912528 0.016666185 -0.03179411
0.0072221537 0.05459511 -0.023973778 -0.01990689 0.069981426 0.028900353 0.086045146 -0.061983816
-0.13303135 -0.047543056 0.036115624 0.04208123 0.013092287 0.018081065 0.029001553 -0.07854119
0.014581121 -0.08386002 -0.0019527341 0.030030064 -0.028751215 -0.012874049 0.08187312 0.112774245
0.0037633416 -0.16913924 -0.13669775 -0.020049756 -0.14361319 -0.12652367 -0.16660303 0.1428866
0.08628825 0.02085998 0.061871257 -0.11399548 -0.027809186 -0.0011091111 -0.022465548 -0.0031027116
-0.038882233 0.01708483 0.0022240698 0.022969875 -0.19033329 -0.003814788 -0.07432507 0.23617382
0.039842237 -0.054653794 0.040355567 0.18897088 0.0039960407 -0.16328342 -0.1121023 0.057952285
0.082534835 0.09264395 0.019178025 0.011986656 0.057261102 0.017847143 0.055444222 -0.0576476
-0.24976064 -0.06624873 0.0048093805 -0.05971914 -0.04882688 -0.065452784 -0.17672367 -0.13740413
-0.06493268 -0.15270105 0.028041366 0.03574575 0.04583071 -0.013756744 0.02348533 0.07968508
0.021344375 0.0027097699 0.06176742 0.048969764 -0.025788484 0.03499308 -0.06432933 -0.07706408
0.08545529 0.080514155 -0.0025821044 -0.034889895 -0.13136633 -0.04157915 -0.022591995 0.04172801

network_body._body_endoder.seq_layers.2.bias f4 [256]
00000000: 73fa a23c 9f9c f7bc c719 47bb de7a cfbc
00000010: a51b 26bd 275c 2fbd fce4 d23a b0b3 21bd
00000020: 1787 43bd 6851 26bd 1057 dabc aab9 513c
00000030: d268 c7bc 176c 8d3c 5c64 25bd 3e33 f4bc
00000040: c974 4dbd 3c30 d3bb 161e c73b e6ae 53bd
00000050: 26a8 87bd 1b78 84bc 9985 a93b 26ab a9bc
00000060: 1611 a6bb 529c 6dbd 32d9 30bd 38f9 6bbd
00000070: 9d72 f3bc d6ba d23b 9108 7ebd 8090 8139
00000080: d048 84bd 6df0 b3bb ab6a 85bd 7864 73bd
00000090: 9c69 a1bc 2048 6a3b df67 68bd ff22 c7bc
000000a0: 6ff1 44bc 12eb 4fbd dfa8 5bbc 8488 c0bc
000000b0: ad2c df3c 307a 9fbc 04b0 cdbc be77 b5bc
000000c0: ee44 6dbb 3beb 96bc 5ece 40bd 4301 8dbc
000000d0: b036 72bc b097 503c 792f 5dbc 444a 38bd
000000e0: f4ce 8bbd 95a1 52bd d92a 01bc 91fe 30bd
000000f0: 4f0f 57bc 6cbf 09bd e6c7 5dbc d05e 7eba
00000100: 96a4 20bd 4ad1 41bd fda4 6abc 1b66 63bc
00000110: 1870 babc 56fd e3bc 98a0 f0bc 0158 3abd
00000120: 715b 0bbd 347b 3bbd eabe 67bd b05c c4bc
00000130: fb18 c6bb 1c25 13bd 4cfa 5cbd bf00 3fbd
00000140: 6afa a6bb 9859 b8bb a6db f43b b086 183d
00000150: b575 18bd ccde 32bd b249 d2bb cdd5 96bb
00000160: 2ff3 14bd ac5b 09bc 3c55 8cbb 3955 e9bb
00000170: 775c 33bc 7c52 173c f248 82bc 221e 11bd
00000180: 5271 f83c 8ee0 e23b a3ce 84bd 23ba 8cbd
00000190: 3c72 0dbd 1635 a2bc 4044 96bd 2170 3abd
000001a0: 802a 97bb eef3 2abd e783 4abd 36c4 7dbb
000001b0: ac35 4c3c 365d 18bd 422b 483b f5bc 1abd
000001c0: 81ad 7cbc c022 39bc 14ac 5b3d 5aa1 ccbc
000001d0: 2b44 1fbd 0451 d9bc cfcf 3dbd 5c0f bbba
000001e0: f6c7 713c f540 7fbc cb49 8b3b 8524 d1bc
000001f0: 875f ba3b 886a 6ebd 9b5c a5bc 3463 e6bc
00000200: ac24 d6bc 0ccb 1dbb bdd3 26bd a0cb 24bd
00000210: ad3c 97bc 15a2 01bd 14c8 4c3c e222 08bb
00000220: a6d2 cebc 407f 1ebc 9199 91bc 2f36 6ebd
00000230: 00e5 1ebb d440 14bd 30a8 20bc bea3 4fbd
00000240: ca63 30bd 2e14 46bd adbe c6bc 907d bfbc
00000250: 3198 12bd 453a b9bb 97c4 b7bc 6510 09bd
00000260: ec16 88bc d874 93bc cdac 48bd fb59 84ba
00000270: 12c6 91bc 8580 17bb 82f6 8dbc 4608 bdbc
00000280: 193e b3bc 818e 443c b436 2abd 0c99 b43b
00000290: 67a1 0bbd e7b1 6b3b 887d 42bc 862f 643b
000002a0: b1aa 8fbd 5f40 bebc 4a3c 48bb dd77 4dbd
000002b0: b30d bbbc f9b5 6abd e8ba c0bc 23f9 27bc
000002c0: 81d2 2abc e147 67bd 5322 2dbd 07fb 11bd
000002d0: 9274 5ebd 2983 6dbb ec37 84bd cdcf a73a
000002e0: 3927 f5bc 9df4 53bd b4f0 fd3c 17f3 05bd
000002f0: 131a e03a 986e e3ba 7b05 81bc 674f a9bc
00000300: 6e2e 343c 0ca6 99bc c0d9 8cbc 7003 36bd
00000310: cd09 36bd 648e ebbc 00a7 45bc b835 01bd
00000320: b17b 9ebc fff5 86bd 963b 40bd e5b8 1ebd
00000330: d543 ed3b d157 46bc fa7c 8abd 6973 ed3a
00000340: 3ba3 11bc 8162 2ebc 41a7 11bc c784 e9bc
00000350: 4093 8fbc f5c7 463a d8a1 21bc a444 65bd
00000360: a9e4 21bd f9bb 063c 55d2 a9bc 02d9 55bc
00000370: 4e2e 94bc f3ee 823b 30a9 0abd 5556 1fbd
00000380: e47f 1bbd 18f2 c5bc eadb 77bb 2b61 72bc
00000390: 240e afbc c4bb 5bbc baa7 2bbc a2df b4bc
000003a0: e438 ea3b 81d3 4cbc df1c 8d3c 3a85 d73c
000003b0: 5399 cabb 211c b8bc fc44 92bc 7b0a 17bd
000003c0: df20 76bd bf61 c7ba fa1b 373b dc7e 45bd
000003d0: c16d 6ebd 0585 2ebd 447a 0ebd 41d6 fabc
000003e0: e65c e5bc fa35 cdbb 4976 ae3c 4e71 4cbd
000003f0: 15bc d3bc 5fca 88bc b842 b6bc 8bf5 1ebd
0.019894814 -0.03022605 -0.0030380355 -0.025327142 -0.040553708 -0.042812493 0.0016089971 -0.039478004
-0.047736254 -0.04060498 -0.026652843 0.012800613 -0.024341974 0.017263455 -0.040378913 -0.02980959
-0.050160203 -0.006444959 0.0060765846 -0.051680468 -0.06623869 -0.016170552 0.005173397 -0.020711493
-0.005067955 -0.058010407 -0.043175884 -0.05761072 -0.029717738 0.006430964 -0.06201989 0.00024712458
-0.064592004 -0.0054913075 -0.06514486 -0.059421986 -0.019703679 0.0035748556 -0.056739684 -0.02430868
-0.012020453 -0.05076129 -0.013406961 -0.023502596 0.027242983 -0.019467443 -0.025108345 -0.022151824
-0.0036204415 -0.018422714 -0.047071807 -0.017212516 -0.014783546 0.012731478 -0.013500088 -0.0449927
-0.068265826 -0.051423628 -0.007883751 -0.043211523 -0.013126208 -0.03362982 -0.013536429 -0.0009703459
-0.03921946 -0.047318734 -0.014321563 -0.013879324 -0.022758529 -0.02783076 -0.029373452 -0.045494083
-0.034022752 -0.045771793 -0.056578554 -0.023969978 -0.0060454584 -0.035924062 -0.05394964 -0.04663157
-0.0050957697 -0.005625915 0.007472473 0.037237823 -0.03722163 -0.043669507 -0.0064174766 -0.0046031238
-0.03636473 -0.008383673 -0.0042826217 -0.007120755 -0.010947338 0.009235974 -0.015903924 -0.035429128
0.030327473 0.0069237417 -0.06484725 -0.0687144 -0.03453277 -0.019800704 -0.073372364 -0.04551709
-0.0046132207 -0.041736536 -0.049442198 -0.0038721687 0.012463968 -0.037198268 0.0030543362 -0.03777786
-0.015422226 -0.011299789 0.053630903 -0.024979282 -0.03888337 -0.02652789 -0.04634076 -0.0014271545
0.014757147 -0.015579452 0.00425074 -0.02553011 0.0056876573 -0.058207065 -0.02018576 -0.028123476
-0.026140533 -0.0024077324 -0.040729273 -0.040233254 -0.01846155 -0.031648714 0.012498874 -0.0020772745
-0.02524693 -0.009673893 -0.017773421 -0.058157142 -0.0024245381 -0.036194637 -0.009805724 -0.050693266
-0.043063916 -0.04835909 -0.024260843 -0.023375303 -0.035789672 -0.005652698 -0.022432609 -0.0334629
-0.016612493 -0.018000051 -0.04899292 -0.0010097617 -0.017794643 -0.0023117375 -0.017329458 -0.023075234
-0.021880196 0.011996866 -0.041556075 0.0055114087 -0.034089472 0.0035964192 -0.011870749 0.0034818365
-0.07014979 -0.023224054 -0.0030553513 -0.05016314 -0.02283368 -0.05730245 -0.023526624 -0.01025227
-0.010426165 -0.056465033 -0.042269062 -0.03563979 -0.05431039 -0.0036241508 -0.06455979 0.0012803018
-0.02992593 -0.051746953 0.030998565 -0.03270253 0.0017097614 -0.0017351685 -0.015749684 -0.020667745
0.010997398 -0.018755935 -0.017193675 -0.044436872 -0.04444294 -0.02875442 -0.012063742 -0.03154537
-0.01934609 -0.06589889 -0.046931826 -0.038750548 0.007240752 -0.012105898 -0.06762119 0.001811606
-0.008889015 -0.010643602 -0.008889974 -0.028505696 -0.017526269 0.00075828965 -0.009865247 -0.055973664
-0.039524708 0.008223527 -0.020730177 -0.013052227 -0.018088486 0.00399577 -0.033852756 -0.038900692
-0.037963763 -0.02416329 -0.0037820288 -0.014793674 -0.021369047 -0.013411466 -0.010477001 -0.022079293
0.007147895 -0.012501598 0.01722568 0.026308645 -0.0061828285 -0.02247435 -0.01785516 -0.03687523
-0.060089942 -0.0015211626 0.002794026 -0.048216686 -0.05821014 -0.042607326 -0.03478457 -0.030619742
-0.027998399 -0.006262538 0.021296637 -0.049912743 -0.02584652 -0.01669806 -0.02224861 -0.038808387

network_body._body_endoder.seq_layers.2.weight f4 [256, 256]
00000000: a38f 853d 3026 6e3d 55d9 2a3c 9a78 10bd
00000010: a8d9 643d a8bc b4bc 99e5 37bc 0d61 93bd
00000020: 1fe4 913d 1fb1 c1bd 8f39 123e 5aac b8bd
00000030: 2d17 e23c 9bf4 133e 63af 42bd b295 55bc
00000040: 7620 ac3d a1eb adbc 681a 1c3d 1f40 d2bc
00000050: 7a43 73bb 480d 083d e970 55bd 0aba 5b3d
00000060: fd71 89bc 8d4a bdbd 53ba 323d ba22 a03c
00000070: d8e7 c8bb 4df6 f53c b652 a8bd e84d 88bd
00000080: a447 6dbc f4ef 08be 73d3 f83d 95c5 e93c
00000090: 6535 a43d 3f5a 5abd 5a31 3f3d c5a4 b93d
000000a0: 7bb0 28bd 0789 f6bd 32c5 8cbd e645 c1bc
000000b0: d6d3 b83d 221a a9bd 5530 213e 65a2 94bc
000000c0: c8b0 09bd a1b3 38bd 6cfd 89bd a8b0 27bc
000000d0: 273e 9abd 7d58 02be a31e 82bc 132e a23d
000000e0: 5c6a 4abd 5a32 bcbd b49d 1bbd 40bd 0c3e
000000f0: af3c 2e3c 49da 403d 9e1a 2f3d 48d7 68be
00000100: c249 0cbe 6e36 c8bd f93b b8bc f576 febd
00000110: bc74 b13d 2c3f 273d 4fe6 a2bd 5829 8f3c
00000120: 6ffb e3bc dc8f 4b3d 07a9 d33c c7b5 c5bc
00000130: 44eb 953c d7af 403d d02f a3bd 5b14 553d
00000140: 1d41 7abd 6d56 893d 7b88 da3d cf93 d93b
00000150: 9838 abbd 27fb febd dd0c a73d 8abd 3b3d
00000160: 9726 b33d 2c8b 04be c67e 52bd be29 1abe
00000170: d815 133d 41d5 8ebd fd70 adbb 2e45 02b7
00000180: c3f2 953c b197 f53d 15f0 e93d 7be3 533d
00000190: f8cc cbbd 37c5 073e 2291 cebd 0d0f fdbd
000001a0: bcc5 0bbd b965 1f3c e1ab 93bd 2e52 9fbd
000001b0: cb1c 4dbe 3e3c d8bd 115f 82bc bf70 9dbd
000001c0: 9b48 82bc 4e52 9d3d fb50 0abd 9053 d63c
000001d0: ed86 ccbc aaa6 04b9 41ff b03d 9f41 2abb
000001e0: 33e4 873b e189 003e 3280 fe3c 670c 113c
000001f0: d191 943b e103 a53c 7765 d33c 094d b1bd
00000200: 50c8 86bd 288c 5d3d 76ff cb3d bb76 1abe
00000210: 5ef7 d3bb 0000 b83d 34f6 a83c affe 24bc
00000220: e861 1b3c 4820 4b3d 7da8 1e3b ca08 3abb
00000230: 316b 26bd 9a65 b9bd 5089 983c 2aee 90bd
00000240: 0e8a abbd e26a c3bd 4e53 2b3b 102e f33d
00000250: 4160 03bd 0e06 243d af24 c33d dda5 a4bd
00000260: 3732 093d a6d5 e9bc c8dd 503d 918a c4bd
00000270: 9664 143e 2870 95bc a7e6 3d3d 0001 903c
00000280: 94dc af3d 380a f23a 9da2 87bd 877f aa3c
00000290: 43fb 3fbb 60df 81bd 5e18 153d 9fdb 8a3d
000002a0: a224 3bbd 1bb7 ec3c a633 7f3d d709 0abe
000002b0: e195 863d 33b2 523d 585b 133e d749 6a3d
000002c0: e172 b6bd 7663 a03c df9c 7e3c 9921 8bbc
000002d0: 39f1 54bc 7ceb c93d 6a32 023e e41c cfbd
000002e0: a831 9bbc 15bc f5ba 0749 50bc 873f 70bd
000002f0: 3161 1b3d ac29 d93c c2d5 81bc dfaf 8a3d
00000300: 3305 e23d fb41 c4bd b988 cbbd 4dcd a4bd
00000310: e8da 05bd 1719 17bd 2af0 a33d 9d77 3cbd
00000320: bf1e 34be c5bd de3c a27b 61bd 136c ee3c
00000330: 7d5e 9c3d f2c3 9d3d 404e 40bd a725 6cbd
00000340: d61f 79bd f5d4 733d 1812 9e3d 629b 08be
00000350: b518 7e3c eae5 a0bd 86f5 193c 6145 633d
00000360: 3181 a6bd b901 d63d f805 6e3d bd82 f63c
00000370: 3347 50bc e0bd 0abe 287f c1bc d400 81bd
00000380: e43e f93b 8582 3e3d 6644 dabc a9fc 2f3d
00000390: 89e8 c83d eb54 db3c 0f31 a9bd 484d 123e
000003a0: e6e3 a6bd def8 babd 2afe 033e 19aa c4bd
000003b0: a3c8 01bb aec4 89bd 955c bfbd 457f 33bd
000003c0: 9d22 2bbd 949e 1abd 9609 3d3d 0c9a 11be
000003d0: c2e5 d8bc 7a0d 043e ad61 b8bb dee9 d83d
000003e0: e895 b2bc c3df fbbd 62a7 873d 61da 903c
000003f0: cf5c ea3d 4a0c a4bd 69a8 0f3d b303 2c3c
0.06521537 0.058141887 0.010427793 -0.035271265 0.055871636 -0.022062615 -0.011224174 -0.07196245
0.07123589 -0.09457611 0.1427977 -0.090172485 0.027598942 0.14448778 -0.047530543 -0.013036178
0.08404629 -0.02123052 0.03811112 -0.025665341 -0.0037119077 0.03321579 -0.052109633 0.053644218
-0.016777987 -0.09242735 0.043634724 0.019547809 -0.0061311536 0.030024672 -0.08218901 -0.066554844
-0.0144824125 -0.13372785 0.12149706 0.028536597 0.08017997 -0.05330872 0.046677925 0.090646304
-0.04118393 -0.12037855 -0.068735495 -0.0235929 0.090247795 -0.082569376 0.15741093 -0.018143842
-0.033615857 -0.045093182 -0.067377895 -0.010234989 -0.07531386 -0.12729068 -0.01588375 0.07918944
-0.04941784 -0.09189291 -0.037992194 0.13744068 0.010634585 0.047083173 0.042749994 -0.22738373
-0.13700011 -0.09776007 -0.022489535 -0.12425033 0.086648434 0.04083173 -0.07954084 0.017475769
-0.027829854 0.049697742 0.025837434 -0.02413453 0.01830066 0.047042694 -0.07968104 0.052021366
-0.061097253 0.067059375 0.10670563 0.0066399346 -0.08360404 -0.12450247 0.0815675 0.045835055
0.08747595 -0.12943715 -0.05139043 -0.15054986 0.035909504 -0.06974269 -0.0052930103 -7.764711e-06
0.018304234 0.119918235 0.11422745 0.051730614 -0.09951204 0.13258825 -0.10086276 -0.12356386
-0.03412412 0.009728842 -0.07210518 -0.077793464 -0.20030515 -0.10558365 -0.015914472 -0.0768752
-0.015903762 0.07681714 -0.033768635 0.026162893 -0.024966681 -0.00012650588 0.08642436 -0.0025979055
0.0041470765 0.12552597 0.031066988 0.008853055 0.004533984 0.020143451 0.025805218 -0.086572714
-0.06581175 0.05408874 0.09960835 -0.15084355 -0.0064686975 0.08984375 0.020625211 -0.010070487
0.009483792 0.049591333 0.0024209314 -0.0028386586 -0.04062957 -0.09052582 0.018620163 -0.07076676
-0.08375941 -0.09541871 0.0026142183 0.1187402 -0.032074217 0.040044837 0.09528481 -0.080394484
0.033495154 -0.028544258 0.050992757 -0.09596742 0.14491495 -0.018241957 0.046362545 0.017578602
0.08586994 0.001846618 -0.06622813 0.020812763 -0.002929405 -0.063414335 0.03640019 0.06780171
-0.045689233 0.028895905 0.062305115 -0.13480316 0.06571556 0.051439475 0.14390314 0.057199325
-0.0890863 0.019578677 0.015540331 -0.016983794 -0.012996965 0.09859368 0.12714544 -0.10112932
-0.018944576 -0.0018748069 -0.012712724 -0.058654334 0.037934486 0.026509129 -0.015848998 0.06771826
0.11036148 -0.09582897 -0.09938187 -0.080469705 -0.03267947 -0.036889162 0.08004792 -0.04601251
-0.17589854 0.027190099 -0.055049546 0.029104268 0.0763521 0.07703389 -0.046949625 -0.057653096
-0.060821377 0.059529264 0.07718295 -0.13340524 0.01550882 -0.078563526 0.009396916 0.055486087
-0.0813011 0.10449547 0.05811116 0.030091638 -0.012712288 -0.13548994 -0.023620203 -0.06298986
0.007606374 0.046511192 -0.026643943 0.042965565 0.098099776 0.02677389 -0.0826131 0.14287293
-0.08148937 -0.09129499 0.12889925 -0.09602756 -0.0019803427 -0.06726967 -0.093438305 -0.043822546
-0.041781057 -0.037748888 0.04615172 -0.1421892 -0.026476745 0.12895766 -0.0056268782 0.105914816
-0.021799996 -0.122985385 0.066237226 0.017682256 0.11443483 -0.080101565 0.035072718 0.010498929

network_body._body_endoder.seq_layers.4.bias f4 [256]
00000000: 81f2 a83c be41 ac38 becd 36bd 8a23 5abd
00000010: f9a1 06bd 0214 9bbc 7dfe 5ebd 2b5c cabc
00000020: 23b0 e2bc 6f50 bfbb 8971 fb3b 2040 20bd
00000030: 120a 0dbc 6b5a c6bc 0666 91ba 471c 8fbc
00000040: dcb8 02bd f0a5 50bc 9a79 20bb e00f 1f3d
00000050: f051 11ba 5b1c dabc 8d9f 10bd 42e5 d3bb
00000060: 2916 11bd 9378 8d3a a3b2 3dbc 525a b6bb
00000070: 4693 21bb 506d 64b9 4baa 4fbc 21ed 93bb
00000080: e086 593b a842 85bc 7a66 91bc 017e f4bb
00000090: 0ac3 c4bc b54b 29bd f95b 75bc 6c58 b93c
000000a0: 65c0 4dbc 435b 743b b0d7 05bd d826 a2bb
000000b0: ba08 b1bc 7f13 35bd 1c69 acbc 6f8f 1c3d
000000c0: 4f35 dbbb 4735 0dbd adb7 e1bc 091d 73bc
000000d0: 34cb 5abc 4bce 90bc 2c3c 62bd e857 c1bc
000000e0: 3792 08bd 7eb6 dfbb 4ee2 e4bb 5568 9bbc
000000f0: 8b55 88bc 5a4c 47bd 2715 39bc 1625 21bd
00000100: e644 1dbd 41ee b3bc 1604 a2bc 7c49 87bc
00000110: 6c93 6d3a a8d8 8c3b 643d 84bc 1af4 d5bc
00000120: f5fe 84bc bf87 08bd 2db8 e13b 8023 c4bc
00000130: bf92 f5bc 0871 61bb c989 cabc befd 70bc
00000140: 7282 bcbc 602f 2bbc 49fb b5bc 6a56 b1bb
00000150: 0128 df3b 2310 89bc 324a 75bc 9a03 88bc
00000160: b436 19bd 21d9 aabc ad3b 0bbd 8c7a 21bc
00000170: a01a 0cbc 0d58 f9bc d9e1 35bd d093 31bd
00000180: f721 b9bb 8fc1 ecbc 7bfe 32bd 4bf4 eebc
00000190: 7c8a ad3b e258 1d3c c000 febc d7d2 6abd
000001a0: 03ac cfbc 8844 31bb 0471 20bd 2e89 1bbc
000001b0: af7b b4bc 8c09 22bc 197a c2bc 1e25 abba
000001c0: 5d31 10bd 3623 e43b 6b4a 1bbd 4331 98bc
000001d0: 116b 50bd 480d efbc 33ad b7bc cfb1 5abd
000001e0: 8680 9dbc 6e60 e8bc 69e1 bf3c 6b83 12bd
000001f0: 2f94 e5bc 3953 66bc 504c 013c 10c0 91bb
00000200: fd4a 23bd b708 f7bc 4bf8 a33b 27a3 39bd
00000210: 711f a73b 6f44 eebc 9fe0 20bd 703e 06bc
00000220: 8cba 7fbb 095f b5bc 9879 243d 8a8a 13bd
00000230: a4a2 49bc dae3 c43c ce22 9c3c 47f1 05bc
00000240: ec83 a2bc b18d 17bd 3a93 b73b 1175 5d3c
00000250: 2625 46bc 3bf7 7b3c a9e7 3abd 4be4 fdbc
00000260: 3ce7 af3c 1817 02bd 23f4 b5bc 024f 30bc
00000270: f3c2 a8bc 2ad9 dbbc e2e2 d0bc 758b 30bd
00000280: de76 cfbc 8648 053d 48d2 cf3a a820 28bd
00000290: 0291 4bbc da40 473b ea1b 64bb fb65 77bd
000002a0: 18de 96bc aa64 47bd b389 163c 6cac 1fbd
000002b0: b9e7 e9bc 243a 28bb 1e0a 8cbc 0566 bebc
000002c0: 0610 26bb f239 15bd 4c9b 86bc a9e3 00bd
000002d0: c0ec 85bc ef49 9e3c 2b84 03bd d6ff 9fbb
000002e0: c9bd 29bd c7ff bfbc 8d9e d0bc db5b 36bd
000002f0: 527c 4abd 9041 92bc 840f d3bc b737 00bd
00000300: 884c ebbc e959 803c 590b 23bd abf7 8cbc
00000310: bc8c 683c 7611 e0bc 4b2d 0bbd 878b 42bd
00000320: d6d0 e5bc 44be ecbc dde7 9ab9 9417 15bd
00000330: dace 62bd f985 6b3c 5cf4 8d3c f19c 07bb
00000340: a403 e03b 81b6 fcbc 6422 7bbc 4eae e2bc
00000350: 2957 44bc 383b 10bd 43a4 b6bc aa24 0ebc
00000360: 7822 babc 62b2 e4bc 54be 59bb b948 dcbc
00000370: c307 0ebc 9558 b2bc 550f 01bd 389f a7bc
00000380: be04 90bb 3fda 0dbd 578f d6bb c1de d7bc
00000390: b782 b3bc c9e0 b6bc c888 22bc 58f8 00bd
000003a0: a52b f5bc a5ee 0fbd c481 40bd cf75 b3bc
000003b0: 14c6 5fbd 6393 26bc cb7c f8bc dccf 60bd
000003c0: 6c49 6dbd ef68 8cbc 5ec3 cebc cfb5 f9bb
000003d0: 1e8f 0cbd 7d18 0ebd 0d5f 57bc 2384 b7bc
000003e0: 4ac8 c3bc 6e93 4dbd f878 9cbc 2751 65bc
000003f0: 7cd1 05bd 4830 a4bc 92c6 92bc afef 4ebc
0.020623447 8.2138446e-05 -0.044629805 -0.05325655 -0.032869313 -0.018930439 -0.054441918 -0.024702152
-0.02767188 -0.005838446 0.0076734466 -0.039123654 -0.008608358 -0.024213037 -0.0011093027 -0.017469538
-0.031914577 -0.012734875 -0.0024486543 0.0388335 -0.00055435207 -0.026624849 -0.03530841 -0.0064665386
-0.035421524 0.001079338 -0.011578235 -0.0055649662 -0.0024654432 -0.00021784496 -0.012674878 -0.004514352
0.0033191964 -0.016267136 -0.01774906 -0.00746131 -0.024018783 -0.041331965 -0.014975541 0.02262517
-0.012558077 0.0037285842 -0.0326764 -0.004948478 -0.021610606 -0.044208046 -0.021046214 0.038222726
-0.0066897045 -0.034474637 -0.027553404 -0.0148384655 -0.013354111 -0.017676493 -0.055233166 -0.023601487
-0.033342566 -0.0068271747 -0.0069849854 -0.018970648 -0.016642353 -0.0486568 -0.011296547 -0.03934201
-0.038395785 -0.021964194 -0.019777339 -0.016514532 0.00090628 0.0042982884 -0.016142555 -0.026117373
-0.016234854 -0.033332583 0.0068884105 -0.023942709 -0.0299772 -0.0034399647 -0.024723904 -0.014708934
-0.02301142 -0.010448307 -0.022214549 -0.0054119127 0.0068101888 -0.016731327 -0.014971303 -0.01660328
-0.037405685 -0.020855488 -0.033992458 -0.009855878 -0.00855127 -0.030437494 -0.04440484 -0.043353856
-0.005649801 -0.02890089 -0.043699723 -0.029169222 0.0052960496 0.009603711 -0.031006217 -0.05732998
-0.025350576 -0.0027048904 -0.03917028 -0.009493155 -0.022031633 -0.009889971 -0.023739861 -0.0013057326
-0.035203326 0.0069622053 -0.037912767 -0.018578177 -0.050883356 -0.029181138 -0.022421455 -0.053392228
-0.019226324 -0.028366294 0.023422914 -0.03576986 -0.028024761 -0.014057928 0.0078917295 -0.0044479445
-0.039866436 -0.030155523 0.005003964 -0.04532161 0.0051001837 -0.029085366 -0.039276715 -0.008193597
-0.0039021103 -0.022140043 0.040155023 -0.036020793 -0.012306843 0.02403443 0.019059565 -0.008175201
-0.019838296 -0.03700036 0.0056022676 0.01351668 -0.012093818 0.015378769 -0.045631085 -0.030992648
0.021472566 -0.031760305 -0.02221114 -0.010761024 -0.020600772 -0.02683695 -0.025498811 -0.043101747
-0.025325235 0.032539867 0.0015855515 -0.04104677 -0.012424709 0.0030403645 -0.0034806677 -0.06039999
-0.01841645 -0.048679985 0.0091881035 -0.038982794 -0.028552877 -0.002566942 -0.017094668 -0.023242006
-0.002533914 -0.036432214 -0.016431473 -0.031467114 -0.016348243 0.019322364 -0.032108467 -0.004882793
-0.04144076 -0.023437394 -0.025466228 -0.044521194 -0.049434967 -0.017853528 -0.025764234 -0.031303134
-0.028723016 0.015667873 -0.039805744 -0.017207941 0.01419371 -0.027352076 -0.03397874 -0.047496345
-0.028053682 -0.02889932 -0.0002954592 -0.03639944 -0.05537305 0.014375203 0.017328434 -0.002069291
0.0068363715 -0.030848743 -0.015328024 -0.027671006 -0.011983671 -0.035212725 -0.022295123 -0.008675734
-0.022721514 -0.02791709 -0.0033225017 -0.026890146 -0.008668843 -0.021770755 -0.031508762 -0.020461664
-0.0043950966 -0.034631964 -0.006547849 -0.026351335 -0.021912916 -0.022323983 -0.0099203065 -0.03148684
-0.029928038 -0.0351397 -0.046998754 -0.021906761 -0.05463226 -0.010166976 -0.030332943 -0.05488573
-0.05793135 -0.01713988 -0.025239643 -0.00762055 -0.034316175 -0.034691323 -0.0131452205 -0.022401875
-0.023899216 -0.050189428 -0.019100651 -0.013996399 -0.032670483 -0.020042554 -0.017916951 -0.012630387

network_body._body_endoder.seq_layers.4.weight f4 [256, 256]
00000000: f43a 563d 6313 8e3b 0e4c a93d 0541 873d
00000010: f9c2 b2bd fcd8 833d 49c1 413d 9256 8dbd
00000020: c2ff 23be 737a a73c 6dfa b5bd 83ce 4cbc
00000030: 0707 af3d 3295 1e3d 3d15 78bd a023 a43c
00000040: 29a4 9ebd 4d99 1d3e 8471 88bd 1e32 ad3c
00000050: 9f3f 6d3b 191b 003d 014d 093d 096e 6c3d
00000060: c690 5c3d 3b0c 8f3a 42bc 81bd fff9 3bbd
00000070: c6db eb3b 6cf6 193e 07a9 a3bd 3949 9ebc
00000080: 997f 923d 2a38 ad3c 8c43 74bd b214 063e
00000090: ac03 973d 43ad ee3d cc8b 18bd ae1a c7bc
000000a0: 30c8 83bd 364c bbbd 9ae9 d3bc a681 9ebd
000000b0: 0561 8f3d e930 bebc a90c 09bd 10fd 2dbd
000000c0: 6e58 01bc 4e4a 623a 5b0f adbd 6a2c 54bd
000000d0: 4c87 5bbd d69c 2b3d c0b6 aabd b202 c0bc
000000e0: 6e47 0bbc f884 89bd aa2f c2bd 4859 debc
000000f0: 5ad7 49bd 7bb2 9bbd e996 d53d 1f6f d63d
00000100: 6cea cdbd 3ec5 0abd 2366 5d3d 8438 95bd
00000110: b965 b0bd 005f d13d a0dc b3bc d82e e53c
00000120: 8f84 5abc 0f8a 293d 962a 5abb 8992 e53c
00000130: 03e0 9f3c 5b2f 563b db19 01be 938d 5cbd
00000140: ef9e d1bd 043f bf3d cf07 f13b ecda d23c
00000150: f271 a6bd 9cb2 02bd 1d48 ff3b 27e4 723d
00000160: c94a 32be cbf8 94bd 0aa6 723c 5f06 f7bd
00000170: 9779 eb3a 0aeb 9b3c 29a8 86bc 6eb3 abbd
00000180: c954 4f3d 7934 1bbd 3269 09bd 3624 223b
00000190: c2ce 75bd 55b1 88bd 7019 1ebd 23ae 783d
000001a0: f5b0 6f3d 28d8 ca3d 7137 093e 0106 123e
000001b0: 9c9b 4dbd 73ed 863d ab24 22bd 8550 cd3a
000001c0: 8b48 d4bb 43d0 f4bd dbb0 0c3e 483a 8e3c
000001d0: db33 ffbc 5e79 893d f543 e9bc 19bc db3c
000001e0: 515c 66bc 1bec 4bbd 453f 07bd 45e7 2a3d
000001f0: db33 73bc 4675 33bd 9182 e63c e032 04bd
00000200: 0990 ad3d 461a 2fbd 16e8 41bc 3bc8 103e
00000210: d6cc 33bc a204 163d eee3 2abd 24ae 4abc
00000220: fbf6 2cbd 2d6e e23c 6797 96bd e4a7 9abd
00000230: daf9 9ebd b0e1 3ebd 85f9 39bd 63e6 84bd
00000240: 2c81 cbbd 82f1 df3c 2b94 a03c 95dc 2abd
00000250: 4313 cebd 7d76 423d 81dc 723d a8f2 403d
00000260: 5b43 f93d 4b54 cb3d 351e cfbc c105 9b3d
00000270: e7f5 4e3d 2f73 943d afc5 e93d c31e 8f3c
00000280: 4efb aa3c 78a7 06bd 527f 30be 0e08 983d
00000290: 974b d4bd 9769 6dbd 1d4b 3abd ccf9 f9bb
000002a0: d855 c93a c22b 323d 5ba0 853d bb9c c8bd
000002b0: 1364 80bd 9c82 903c 1dd0 9e3c 31ab 3dbd
000002c0: d3a2 88bd 3be8 a9bc a8f2 97bd 6ff8 0cbd
000002d0: f4ed a4bb 5fbb b13c c18f 98bd e294 90bb
000002e0: 1050 1dbe d261 08bd 5278 2bbd 19fa 943d
000002f0: 8644 863d 4090 103d 517a 0f3d 8dd3 93bd
00000300: ea1d 1bbc 44c4 83bd 0daa debd a931 ae3d
00000310: b361 9e3b d4c5 7abb 64cc d5bd 1800 38be
00000320: 580b 9e3d 81e1 f4bd 7b58 4a3c 3e90 b5bc
00000330: 86c8 833c ab0e 473d 052c 2ebe 862f 95bd
00000340: 0a04 bfbc 1e4e bfbc bf8d cebb a41f 063c
00000350: 4efa 503d 80bc dbbd 14d1 91bd 6259 093d
00000360: d359 13bd b083 0c3c 1b60 15be cad9 213d
00000370: 07e0 ed3a 8539 f03c e6e3 92bc c52e 5bbd
00000380: 456c 093d f40b 74be 69c9 8f3d 9f36 9ebd
00000390: ce85 ae3c a7d4 efbc f3db 563d 3731 9a3d
000003a0: b000 ac3c 1224 63bd bf5d b9bc 7ebd a5bd
000003b0: 9ec8 b93d 30bf 80bc 0c7a 693d 4264 043d
000003c0: 8624 86bd 0736 8ebd 120d 443c 52e6 83bc
000003d0: c535 413d 9517 8bbd 17a6 d73d 35fb 27be
000003e0: 66ef 8fbc 87a9 02bd 770e 103e 3f5b 72bd
000003f0: 7b57 f9bc 2548 e7ba b74e 0ebc 153a 4ebd
0.052302316 0.004335807 0.082664594 0.06604198 -0.08728594 0.06437871 0.04730347 -0.069012776
-0.16015533 0.02044413 -0.088856556 -0.012500408 0.08546262 0.038716502 -0.06056713 0.020036519
-0.07746155 0.15390511 -0.066622764 0.021142062 0.0036201251 0.031275842 0.033520702 0.057722125
0.053849004 0.0010913679 -0.063347355 -0.04589271 0.00719783 0.15035409 -0.07991224 -0.019322025
0.071532436 0.021144945 -0.05963473 0.13093832 0.07373747 0.11654141 -0.037242696 -0.024304714
-0.06434667 -0.091453955 -0.025868226 -0.07739572 0.07000927 -0.023216682 -0.03345934 -0.042477667
-0.007894618 0.0008632288 -0.084501944 -0.05180017 -0.053595826 0.041897617 -0.08335638 -0.023438785
-0.008500917 -0.06714815 -0.094817474 -0.027142182 -0.04927764 -0.07602402 0.104291745 0.104704134
-0.10054478 -0.03387951 0.054052483 -0.0728617 -0.08613152 0.10223198 -0.021955788 0.027976438
-0.0133372685 0.04139143 -0.0033289543 0.028023975 0.019515997 0.0032682035 -0.1260752 -0.053845953
-0.10235392 0.09338191 0.007355667 0.025739156 -0.08127202 -0.031908616 0.007790579 0.059299614
-0.17411341 -0.07274016 0.014810095 -0.12061762 0.0017965314 0.019032974 -0.016437607 -0.08383833
0.050617967 -0.03789184 -0.033547588 0.0024740822 -0.060011633 -0.066744484 -0.038598478 0.060712945
0.05851837 0.0990451 0.13400055 0.14260103 -0.05019723 0.065882586 -0.03958575 0.0015664255
-0.0064783744 -0.11953785 0.1373934 0.017361775 -0.031152656 0.06712602 -0.028474787 0.02682309
-0.014060096 -0.049785715 -0.033019323 0.041724462 -0.014843906 -0.043813013 0.02813843 -0.03227508
0.08474738 -0.042749666 -0.011835119 0.14138882 -0.01097413 0.036625512 -0.041721277 -0.01237062
-0.042227726 0.027640427 -0.073530965 -0.07551554 -0.07762499 -0.04660195 -0.045403976 -0.06489255
-0.09936747 0.02733684 0.019601902 -0.04171427 -0.10062268 0.04747628 0.05929232 0.047106415
0.1217105 0.09928187 -0.025282959 0.07569457 0.05052748 0.07248532 0.11414658 0.017470723
0.020871785 -0.032874554 -0.17236069 0.07423411 -0.1036598 -0.057962026 -0.04548179 -0.007628655
0.0015360666 0.043498762 0.06524726 -0.09795519 -0.06269088 0.017640404 0.019386346 -0.04630584
-0.06671681 -0.020740619 -0.0741933 -0.034416612 -0.005033249 0.02169579 -0.07449294 -0.0044122795
-0.15362573 -0.033296414 -0.041862793 0.07274265 0.065560386 0.035293818 0.03502876 -0.072180845
-0.009467581 -0.06433919 -0.10872278 0.08505566 0.004833424 -0.0038264887 -0.10439375 -0.17968786
0.077170074 -0.11957074 0.012350197 -0.022163507 0.016086828 0.048597973 -0.1700898 -0.07284455
-0.023317356 -0.023352679 -0.0063035185 0.008186255 0.05101996 -0.10729313 -0.071199566 0.033532508
-0.035974335 0.008576319 -0.14587443 0.03951434 0.001814843 0.029324302 -0.017930936 -0.0535114
0.03355052 -0.23832685 0.07020838 -0.07725262 0.021304037 -0.029276205 0.052455854 0.07528918
0.020996422 -0.05545432 -0.02262771 -0.080927834 0.09071468 -0.015716165 0.05700116 0.032322176
-0.06549935 -0.06943899 0.011966007 -0.016101036 0.04717042 -0.06791607 0.10529726 -0.16404422
-0.017570209 -0.031899955 0.14068018 -0.05916905 -0.030437222 -0.0017645402 -0.008685759 -0.05034836

network_body.observation_encoder.processors.0.normalizer.running_mean f4 [25]
00000000: 804c 813e 4d8e 8d3d c852 9739 1295 2d3f
00000010: 02bc 673f d871 6d3e a270 5c3c 73b8 933a
00000020: 30e8 403f 1d87 723f c717 883e 91e4 fb3b
00000030: a2ec 123b 5569 393f a1c7 6d3f dd73 643e
00000040: ec0a 693c 2e53 133b d7aa 423f 1bdb 723f
00000050: dd73 643e ec0a 693c 2e53 133b d7aa 423f
00000060: 1bdb 723f
0.25253677 0.06911907 0.0002886264 0.6780559 0.9052125 0.23187959 0.013454588 0.001127018
0.7535429 0.94737417 0.2658064 0.0076871593 0.0022418876 0.7242635 0.92882735 0.22309823
0.014223795 0.002248 0.7604193 0.9486558 0.22309823 0.014223795 0.002248 0.7604193
0.9486558

network_body.observation_encoder.processors.1.normalizer.running_mean f4 [25]
00000000: 6992 be3e e399 ef3e 27be 1d3d fa6f f83d
00000010: 8e3b 303f 7563 d73e c6c9 dc3e 5fc0 433c
00000020: e068 0b3e 4197 333f 38bd c43e e998 e63e
00000030: 2705 183d d652 033e 11de 343f a940 b03e
00000040: 85a8 db3e b2ff 8b3b dacc 633e 6a76 473f
00000050: 1bef cb3e 459b ad3e ee31 213c 366c 813e
00000060: 2572 443f
0.37221077 0.46797094 0.03851142 0.12130733 0.68840873 0.42068067 0.4312269 0.01194772
0.13614225 0.7015267 0.38425612 0.45038536 0.03711429 0.12824568 0.70651346 0.34424332
0.42902008 0.0042724246 0.22246113 0.7791506 0.3983086 0.33907524 0.009838564 0.2527787
0.7673667
