Assets/Training/results/Run 4/DroneBehavior/DroneBehavior-1604672.onnx (onnx, 697640 bytes, 21 tensors)

105 f4 [25]
00000000: e8f0 4e3a 1af8 823e 917c 5b3b 18a8 d13e
00000010: e118 5a3e e8f0 4e3a 5335 c03d 4d73 9f3b
00000020: a0ac ad3e e342 323e e8f0 4e3a 46b3 033e
00000030: cce0 083b 588e d03e 4d6f 583e e8f0 4e3a
00000040: d046 cc3d e8f0 4e3a bca6 aa3e a3e7 333e
00000050: e8f0 4e3a d046 cc3d e8f0 4e3a bca6 aa3e
00000060: a3e7 333e
0.0007894174 0.2557991 0.0033490995 0.40948558 0.21298553 0.0007894174 0.09385171 0.00486604
0.33920765 0.17408328 0.0007894174 0.12861356 0.0020885943 0.407336 0.21136208 0.0007894174
0.09974444 0.0007894174 0.33330333 0.17568831 0.0007894174 0.09974444 0.0007894174 0.33330333
0.17568831

108 f4 [25]
00000000: e8f0 4e3a 6bc4 903e 1980 e13b fe6b fd3e
00000010: 8578 853e e8f0 4e3a 1f18 883e 429e 023c
00000020: 07f1 f93e b77f 833e e8f0 4e3a 284c 863e
00000030: b472 e43b 12c6 fd3e 9f7b 863e e8f0 4e3a
00000040: 09e2 613e ef33 9b3b 6f4f ee3e dcc4 773e
00000050: e8f0 4e3a 9ca8 7d3e 9a24 d23b da06 fa3e
00000060: 0fa0 823e
0.0007894174 0.28274855 0.0068817255 0.49496454 0.26068512 0.0007894174 0.26580903 0.007972302
0.48816702 0.25683376 0.0007894174 0.26229978 0.0069716815 0.49565178 0.2626619 0.0007894174
0.22058882 0.0047364156 0.46544978 0.2419619 0.0007894174 0.2477135 0.0064130547 0.48833352
0.2551274

111 f4 [55]
00000000: e8f0 4e3a 2136 793e e8f0 4e3a fc63 963e
00000010: ac73 173e e8f0 4e3a 9af1 4b3e 4954 923a
00000020: ab81 8a3e ed3f 133e e8f0 4e3a 7282 513e
00000030: e8f0 4e3a 7c97 923e c14f 183e e8f0 4e3a
00000040: 1f4d b03d e8f0 4e3a 749f 463e d7b8 dd3d
00000050: e8f0 4e3a 9d4b f33d e8f0 4e3a adb5 813e
00000060: 92f0 043e e8f0 4e3a dca1 503d e8f0 4e3a
00000070: e93c 213e 6fbf c63d e8f0 4e3a c50d c73d
00000080: e8f0 4e3a 0457 953e 033c 163e e8f0 4e3a
00000090: 6e76 843d e8f0 4e3a e2ec 283e 44d1 ce3d
000000a0: e8f0 4e3a ab69 a63d e8f0 4e3a ba8f 953e
000000b0: b1da 183e e8f0 4e3a d929 8f3d e8f0 4e3a
000000c0: a380 203e 552a c13d e8f0 4e3a d929 8f3d
000000d0: e8f0 4e3a a380 203e 552a c13d
0.0007894174 0.24337055 0.0007894174 0.29373157 0.14790219 0.0007894174 0.19916382 0.0011164035
0.27052054 0.14379855 0.0007894174 0.20459917 0.0007894174 0.28631198 0.14874174 0.0007894174
0.0860846 0.0007894174 0.19396764 0.10826271 0.0007894174 0.118796565 0.0007894174 0.2533392
0.12982395 0.0007894174 0.05093561 0.0007894174 0.15745892 0.09704482 0.0007894174 0.09719423
0.0007894174 0.2916795 0.1467133 0.0007894174 0.06467901 0.0007894174 0.16496614 0.10098508
0.0007894174 0.08125623 0.0007894174 0.29211217 0.14927174 0.0007894174 0.06990404 0.0007894174
0.15674071 0.09431902 0.0007894174 0.06990404 0.0007894174 0.15674071 0.09431902

114 f4 [25]
00000000: e8f0 4e3a 6bc4 903e 1980 e13b fe6b fd3e
00000010: 8678 853e e8f0 4e3a 60d9 873e 24e8 b63b
00000020: 2eef f93e 33db 823e e8f0 4e3a 87f6 853e
00000030: af0e 2c3c 7dd6 fd3e bea8 863e e8f0 4e3a
00000040: 58fe 603e 4c00 dd3b f6ed ef3e 5d49 763e
00000050: e8f0 4e3a 216c 5f3e 82a7 1a3c 9ae1 f93e
00000060: 7eec 823e
0.0007894174 0.28274855 0.0068817255 0.49496454 0.26068515 0.0007894174 0.2653303 0.0055818725
0.48815292 0.2555786 0.0007894174 0.26164648 0.010501548 0.49577704 0.26300615 0.0007894174
0.21972024 0.00674442 0.46861237 0.24051423 0.0007894174 0.21818592 0.009439351 0.48804933
0.25571054

117 f4 [25]
00000000: e8f0 4e3a 8612 c13e e8f0 4e3a 4b41 c83e
00000010: 3e00 2c3e e8f0 4e3a 3654 a23e e8f0 4e3a
00000020: 59be a83e 8847 053e e8f0 4e3a c58f a33e
00000030: e8f0 4e3a 269b ae3e 58bc 133e e8f0 4e3a
00000040: 89ea a33e e8f0 4e3a 183f aa3e 1e75 073e
00000050: e8f0 4e3a 89ea a33e e8f0 4e3a 183f aa3e
00000060: 1e75 073e
0.0007894174 0.37709445 0.0007894174 0.39112315 0.16796967 0.0007894174 0.31704873 0.0007894174
0.32957724 0.13015568 0.0007894174 0.31945625 0.0007894174 0.34102744 0.14427316 0.0007894174
0.32014874 0.0007894174 0.33251262 0.1322827 0.0007894174 0.32014874 0.0007894174 0.33251262
0.1322827

120 f4 [3]
00000000: 3c63 8741 059d df3f 53f3 9c41
16.923454 1.7469794 19.61881

action_model._continuous_distribution.log_sigma f4 [1, 3]
00000000: be44 c93e 209b 663e 32b1 8e3e
0.3931026 0.22520113 0.27869564

action_model._continuous_distribution.mu.bias f4 [3]
00000000: 3613 563d b3d0 0a3d 53fd 01bd
0.052264415 0.033890437 -0.03173573

action_model._continuous_distribution.mu.weight f4 [3, 256]
00000000: ddcc 18be 7342 a2bd cf3f 0ebe 0bf5 f1bd
00000010: 499f 36bd f7d8 56be d578 6abd 293b 27bd
00000020: 0b5b 4fbe 3b26 07be 05c3 cdbd ac9e ac3c
00000030: 0acf b1bd 19ea 08be 801e e0bd b5cf 193d
00000040: 45db dc3d 1232 1cbd 7fad 27be f47b 423d
00000050: d348 81be 60a5 abbd a13b 08be 8ab5 bebd
00000060: 910b 18be 9369 cbbd c78c cdbd fc91 e7bd
00000070: 62b5 08be 87b2 0c3d 0a1c cbbd a599 97bd
00000080: b2a3 65bd dde0 7dbd ec64 8dbe 34be d5bd
00000090: b8c0 9cbd a2ca c8bd 03a0 c4bd f5d7 c13b
000000a0: bcdb 9c3d b4c4 efbd 8efd 92bd 276a c5bd
000000b0: bf83 92bd fb57 743d 9d23 2fbd 07eb 93bd
000000c0: 7d91 01be 66ce 81be 6b71 923d dddd ea3c
000000d0: 1092 e0bd 691b 23be 3b44 18be 2573 75be
000000e0: 6240 c1bd f1b0 22be ea77 b0bd 0d37 9fbd
000000f0: 295b b7bc 61b1 02be 4629 d4bd 329e 22be
00000100: d202 c6bd 534c 06be 247a ecbd 2a9c 193d
00000110: cda3 efbd 00e3 47be 6eec 2bbe e051 29be
00000120: db10 93bd 0498 b7bd 8a04 3ebc 8ee6 d5bd
00000130: 5cc6 d8bd d838 d7bd 24f4 14be 8215 cebc
00000140: 8564 073c 8d65 36bd a058 acbd dea3 8d3c
00000150: 4837 dcbd 3c9f a8bb 8077 1dbe f0e9 a6bd
00000160: 21c3 71bd 3e2a d4bd 7936 ffbd 8891 00be
00000170: 66aa 5fbd db10 abbd 9ade 60bd 273d 3c3c
00000180: 53f9 a4bd 1edd a8bd 54d8 3cbe a170 d53c
00000190: 2af3 bbbd 7f5d 45be ed4a 47bd 5cc1 b23d
000001a0: b1fd 8cbd ff45 3a3c d61a babd 258b ddbd
000001b0: 2875 c8bd 5734 f7bd 5c81 2dbd 22ef 1dbe
000001c0: c618 0bbe 86ce b3bd 1d88 85bd d48c c8bb
000001d0: 51dc c93c d7f1 4fbe 9e5d 1fbe bd09 f0bd
000001e0: 3536 acbd 13fe 663a 6fd4 28be e11e d4bd
000001f0: dfb0 d7bd f757 a1bb 0c16 d5bd e06d b4bd
00000200: ee53 92bd c790 d0bd 63d8 a3bd 1cb0 8fbd
00000210: 4938 edbc d022 0dbe 3df2 883e b079 2ebe
00000220: c3d5 f4bd a41e b83c 5879 293c bb02 fcbc
00000230: 0869 6fbe 04f6 c0bd c8d1 07bc d4c3 20be
00000240: 0356 34be f2b4 c6bd 1612 d93d d19b c8bd
00000250: 02f9 fabd 39b0 1dbe f004 98bc a0b0 c1bd
00000260: f1cc 003c 761b e6bd b832 3fbe b77a 73bd
00000270: a485 1cbe a41b 93bd 0429 63be 2e08 5bbd
00000280: 06a2 553d edad 0dbe 8f10 133d aaae 09be
00000290: 7c1b 81bd e47c f5bd 06b3 c7bd d33d d9bd
000002a0: ea18 8abd 901d a0bd 68b0 39bc 5aa0 79be
000002b0: e6d1 32be 1f72 ffbd c9d5 1cbe e67c f3bd
000002c0: 1fd4 8abd 505c 08be 306d 15bd a1a3 e2bc
000002d0: 4e7d 88bd 5f62 cc3d 0cb1 8cbe 3d8b 8abd
000002e0: 633a 83be 4b6b 66be 68c8 3fbd d5d7 22be
000002f0: 8503 f83c d3d8 10be 653f 06be 422a 1ebe
00000300: 60f1 fcbd 9eed 8fbd 1b15 ecbd d6da 06be
00000310: 1dcf f3bd a86b ac3d 9d1a 1a3d d8c9 f8bd
00000320: 944f d4bd 5577 0abe aaf7 d7bd a6a0 d6bd
00000330: 27cd ab3d b676 cdbd 5efd 07be 68b5 0cbe
00000340: 176c 06bd 2da3 a73c 4acf 0dbe 38e0 f7bd
00000350: e4d2 79bb 2e18 8bbd 0965 bbbd 95c5 00be
00000360: b827 a5bd 4ecf 15be b89f 563b fe92 abbd
00000370: abef fabd f6db d7bd 0ca7 89bc e448 1abd
00000380: 29b3 38be e754 92bd 0187 2abe a099 cb3d
00000390: d280 d7bd 1790 23be ab80 ffbd 2480 0ebe
000003a0: 6b45 16be 6914 e2bd a5f4 95bd fc9c c4bd
000003b0: 57ec 05bd df2c c2bd 9149 f7bd c227 c93d
000003c0: e761 1dbe ad62 09be 05eb 71bd 32bc 08be
000003d0: 6cf1 713c 47a2 09bc 48e0 2b3c f149 52be
000003e0: 40a9 d63c 7abe 8d3c 4e40 14bc de96 f83b
000003f0: 3032 f3bd 3f11 05be 2bd9 24be f123 603e
-0.14921899 -0.079228304 -0.13891529 -0.11814316 -0.0445855 -0.20981203 -0.05724414 -0.040827904
-0.20249574 -0.13198178 -0.10046963 0.021071754 -0.08682068 -0.13370551 -0.109433174 0.0375516
0.1078401 -0.03813369 -0.16374777 0.047481492 -0.25250873 -0.08381152 -0.13303997 -0.093119696
-0.14848162 -0.09932246 -0.10036617 -0.11307141 -0.13350442 0.034349944 -0.099174574 -0.07402352
-0.056064315 -0.061982024 -0.2761606 -0.10436669 -0.07653946 -0.09804274 -0.09600832 0.0059156367
0.076590985 -0.1170744 -0.07177268 -0.096393876 -0.07154035 0.059654217 -0.042758573 -0.07222562
-0.12653156 -0.25352782 0.07150539 0.028670246 -0.10965359 -0.15928425 -0.14869778 -0.23969705
-0.09436108 -0.1588781 -0.08616622 -0.07774172 -0.022382336 -0.12762977 -0.10359435 -0.15880659
-0.09668507 -0.13115053 -0.11546734 0.037502445 -0.117011644 -0.19520187 -0.1678941 -0.16535139
-0.07180949 -0.089645416 -0.011597762 -0.104443654 -0.10584709 -0.10508889 -0.14546257 -0.02515674
0.008263712 -0.04453044 -0.084153414 0.017290052 -0.107527316 -0.0051459353 -0.15377617 -0.08150089
-0.05902398 -0.103596196 -0.12461562 -0.12555516 -0.054605864 -0.08352824 -0.05489979 0.011489189
-0.08055367 -0.082453 -0.18441898 0.026054682 -0.09177239 -0.19273947 -0.04865544 0.087282866
-0.06884325 0.011369227 -0.0908715 -0.10817555 -0.09787971 -0.1207053 -0.042359695 -0.15423253
-0.13583669 -0.087796256 -0.06520102 -0.0061203036 0.024641188 -0.20307098 -0.15563056 -0.117206074
-0.08408777 0.0008811664 -0.16487287 -0.10357452 -0.10531782 -0.0049238163 -0.10404596 -0.088100195
-0.071449146 -0.10183864 -0.08000257 -0.07016012 -0.028957503 -0.13782811 0.26747313 -0.17038608
-0.11954834 0.022475548 0.010343872 -0.03076302 -0.2337991 -0.09421924 -0.008289762 -0.15699703
-0.17610936 -0.09702481 0.10599153 -0.097953446 -0.12254526 -0.15399255 -0.018557042 -0.09457517
0.007861362 -0.112357065 -0.18671691 -0.059443202 -0.15285355 -0.071830064 -0.22183615 -0.053474598
0.05215647 -0.13835879 0.035904463 -0.13445535 -0.0630407 -0.119867116 -0.09750943 -0.10607495
-0.06743033 -0.078181386 -0.011333562 -0.24377576 -0.17462882 -0.12472939 -0.15315928 -0.11889057
-0.0677874 -0.13316464 -0.036481082 -0.027665915 -0.06664525 0.099797 -0.27478826 -0.06764839
-0.25630483 -0.22501867 -0.04682198 -0.15902646 0.030275116 -0.14145212 -0.1311012 -0.15445808
-0.12350726 -0.07027744 -0.11527463 -0.13169417 -0.11904738 0.08418971 0.037623037 -0.12147874
-0.10366741 -0.13522084 -0.10545285 -0.1047986 0.08388739 -0.10032408 -0.13280246 -0.13741076
-0.032817926 0.02046355 -0.13848606 -0.12103313 -0.0038120085 -0.06791721 -0.0915013 -0.12575372
-0.080642164 -0.14629862 0.0032749008 -0.08377646 -0.12252744 -0.10540001 -0.016803287 -0.03766717
-0.18037094 -0.071451 -0.16653062 0.09941411 -0.105226174 -0.15972935 -0.12475713 -0.1391607
-0.14674918 -0.11039049 -0.07322053 -0.09600255 -0.032696094 -0.09481215 -0.120745786 0.09822036
-0.15369378 -0.13416548 -0.059062023 -0.13353041 0.014767032 -0.008400506 0.010490485 -0.20536019
0.026203752 0.01730274 -0.009048535 0.007586344 -0.11874807 -0.1299486 -0.16098468 0.2188871

network_body._body_endoder.seq_layers.0.bias f4 [256]
00000000: 67f8 c4bd 67fe b23a 60d6 9cbd 48eb eabb
00000010: d045 043f f9fe ec3d 08d6 9c3e 296b c9bd
00000020: 5872 e63d 47b9 0abe ed34 f83e 1702 11be
00000030: 2f5b 333e 0fc5 0dbe 6c2e acbd fc7b cf3d
00000040: c4f7 98bd d885 d63d 8ed7 c03e 9a7a afbc
00000050: d357 293e 293f afbd e0a9 8e3e 5386 433e
00000060: acbf bc3e 3c22 78bd 7d53 9d3e dfe0 61bd
00000070: 8692 f33d eb91 f73e 5d87 e53d 48fc 483e
00000080: 1247 a43d 28bb 983e 1fd5 40bd be68 9e3e
00000090: 6b93 553d fc2d 76be 1bb7 c2bc 1c38 94bd
000000a0: 370c 803e 5a07 88be 6f34 b43e 398e adbd
000000b0: dbf5 de3e 4bcc 8f3e ffbe d2bd 174b 01bd
000000c0: a649 cd3e b1d9 913d 2645 c93d ceef 1c3e
000000d0: 5e6e 7dbe 653f ffbd ca31 2abe e0e9 a23d
000000e0: c24f 9cbd 2d67 883d ff59 4ebe b831 223e
000000f0: a5e8 993e 356c ac3e c38d 1d3e 2a0c 40be
00000100: 4fd5 32be 279d 533e fa86 023e 5abe ed3d
00000110: 2cb3 8ebd 8946 8d3b 68da bdbd 6ed2 163e
00000120: c0b3 2a3e 5aa9 d5bc 068e e2be 4553 8a3d
00000130: f664 2abe 19fc ec3d f2c7 d53e decb 98bc
00000140: aa0b aabd e5bb eb3d bf28 8ebc 1e41 403e
00000150: 1772 76be 7b2f ee3d f962 18ba e3bd 223e
00000160: 61bb 2c3e 512d a6be 4ea9 e93e 2cf3 6dbe
00000170: 4dbd 8a3e 1db9 8abe 96f2 d2bd c4ad 483e
00000180: c2e0 58bd ed37 ad3e ff99 ad3e 80c8 36be
00000190: 6d08 7abe a70f 10be 917a 9f3d 81f8 3bbe
000001a0: d8f1 0f3e e2ed e13e cb4e 1e3e 33ff 503e
000001b0: 87fc 263e f244 5dbd e645 42be 44dc 1e3e
000001c0: 5120 9ebe 26b3 183e 2162 61be 5909 463b
000001d0: 8638 373e b07d a1bd 5ebd a83c 089a 8ebe
000001e0: a9dd 673e e905 943d a937 71be 82bf e3bc
000001f0: ca83 0ebe bb70 893d 912b f8bd d1ca 883a
00000200: 71b3 5d3e ec93 0ebd 668a 943e f703 70be
00000210: 9928 253f 73bf 4c3e 37d9 ebbd 5fbc afbd
00000220: bafe 1f3f eea4 18be cc58 81bd 8826 e33d
00000230: 8535 863c 62d1 fabb 4b18 523e d07f bcbd
00000240: 49ac 423e 9b3c b33d 1b71 0cbd 3805 bbba
00000250: f83e 863e 9bf9 afbc 7c93 3fbd dd14 d43d
00000260: 9399 97bd c5fe 813e de42 76be 5b2d 163e
00000270: 149e 9fbe db57 f1bc d9e1 143e 81f9 ee3d
00000280: 4fe6 7a3e 3b54 94bc bd1e 0a3d 382e 123d
00000290: bf80 d13d 360c 573e 9c6a 1f3c 8136 1d3e
000002a0: 43e9 e93d d8de fdbd 7c2d 143e 2c1a 3bbe
000002b0: 4237 e53d 4b41 373e 64a0 8d3e 1cc2 9dbe
000002c0: 0ba3 b63c 08e9 84be f0f6 233d e61d 883e
000002d0: 7802 8c3e a25e d03e 7bec 0d3e c9c0 7bbe
000002e0: 3db0 843e f6f0 543e daae 233e 06fe 65bd
000002f0: 82d5 10be 9ca4 083e cf40 3cbe c854 523e
00000300: a4c6 5fbd e7fd df3c 3eb5 9c3e 6da3 4b3d
00000310: 02ed f53d f1fa 3dbd 4e76 373e 08ed 1a3d
00000320: 6d14 67be 5093 663d b49a 213e 0daf 3d3e
00000330: c7db 253e e643 133c b330 80be 1984 8fbe
00000340: 0c1b 893e f33d b43d 070c 04be ca99 1cbe
00000350: bfbf 1c3e 97e1 b73b 3c4a 0cba a4cc 99bd
00000360: f22c 17be e223 8bbd 6873 88bb 68a3 503e
00000370: 7ac6 2d3d 8dbf 7dbe f0cc adbc 0c21 a5be
00000380: 6a2d a3bc fd6c 903e 38eb 293c 21f6 62be
00000390: fc23 e33d 02e0 a83e 844c 47be 3512 263d
000003a0: 334d 94bd bc62 af3c d00b c53e e00a da3d
000003b0: 645b 49be eb96 80bd 8b87 c13e 00d0 2fbd
000003c0: 635b 763e 14f0 103e 3680 953a 3729 25be
000003d0: 17ee 28be c105 5a3b a3e9 553d 6f87 293c
000003e0: 7d49 833e fbb0 e33d 758e 29be 9a15 863e
000003f0: 7afd c43c 8e9f 01be 1113 6cbd c45a 12be
-0.096176915 0.001365614 -0.07658076 -0.007169161 0.51669025 0.1157207 0.30632043 -0.09834892
0.11252278 -0.1354724 0.4847788 -0.14160953 0.17515253 -0.13844703 -0.08407292 0.1013107
-0.074691325 0.104747474 0.37664455 -0.021420766 0.16537409 -0.08556969 0.2786398 0.1909421
0.36864984 -0.060579523 0.3072776 -0.055146094 0.118931815 0.48353514 0.11207459 0.19627488
0.08021368 0.2983029 -0.047078248 0.30939287 0.05214254 -0.24040979 -0.023768952 -0.072372645
0.2500932 -0.2656811 0.35196254 -0.084743924 0.43546948 0.2808555 -0.10290336 -0.031565752
0.40095252 0.071215995 0.09827642 0.15325853 -0.24749133 -0.124632634 -0.16620556 0.07954764
-0.076324 0.06660304 -0.20151518 0.15839279 0.30060306 0.33676305 0.15386109 -0.1875464
-0.17464183 0.20665418 0.12746802 0.11608572 -0.06967768 0.004311387 -0.09270173 0.1472871
0.16670132 -0.02608173 -0.4424898 0.06754164 -0.16640076 0.11571521 0.4175411 -0.018651899
-0.08303006 0.115104474 -0.017353414 0.1877484 -0.2406696 0.1163015 -0.0005813088 0.15892749
0.16868354 -0.3245645 0.45636982 -0.23237294 0.2709755 -0.27094355 -0.10300176 0.19597536
-0.05294872 0.3383173 0.33906552 -0.17849922 -0.24417277 -0.14068471 0.077870496 -0.18356515
0.140571 0.44126803 0.15459745 0.20409851 0.16307269 -0.05402083 -0.18971977 0.15513712
-0.3088403 0.1491209 -0.2201009 0.0030217974 0.17892656 -0.07885301 0.02059811 -0.27851892
0.2264315 0.0722769 -0.23556389 -0.027801279 -0.13917461 0.06710955 -0.12117685 0.001043642
0.21650483 -0.034809038 0.2901184 -0.23439012 0.6451507 0.19994907 -0.1151604 -0.08580851
0.62498057 -0.14906666 -0.06315765 0.11091334 0.016382942 -0.007654355 0.2051708 -0.09204066
0.19011034 0.08751794 -0.034287553 -0.0014268523 0.26219916 -0.021481326 -0.04677151 0.10355542
-0.07402339 0.25389686 -0.24048945 0.14665739 -0.31175292 -0.029460838 0.14539279 0.11668683
0.24501918 -0.01810657 0.03372072 0.03568861 0.102296345 0.21000752 0.0097300075 0.15352823
0.11421444 -0.1239602 0.14470476 -0.18271703 0.1119218 0.17896001 0.2766143 -0.30812156
0.022294542 -0.2595904 0.04003042 0.2658531 0.27345634 0.406972 0.13859741 -0.2458526
0.2591571 0.20795044 0.1598467 -0.05615046 -0.14143947 0.13344043 -0.18384098 0.20540154
-0.054632798 0.02734275 0.30607027 0.0497164 0.12008096 -0.046381894 0.17916223 0.037823707
-0.22566386 0.056292832 0.15781671 0.18523808 0.1619712 0.008988356 -0.25037155 -0.2803047
0.26778448 0.088008784 -0.12895213 -0.15293041 0.1530752 0.005611609 -0.0005351638 -0.07509735
-0.14763239 -0.067939535 -0.004164148 0.20374835 0.04242561 -0.24780102 -0.021215886 -0.32251775
-0.019919116 0.2820815 0.010371022 -0.22164203 0.11090848 0.32983404 -0.19462782 0.040544707
-0.07241287 0.021409385 0.38485575 0.106466055 -0.19663769 -0.06278785 0.37798724 -0.042922974
0.24058299 0.14154083 0.0011406008 -0.16129003 -0.16497074 0.003326759 0.052224766 0.010347231
0.25642005 0.11117741 -0.1655825 0.26188356 0.024046648 -0.12658522 -0.05763537 -0.14292437

network_body._body_endoder.seq_layers.0.weight f4 [256, 158]
00000000: b13a 7c3d 9896 583e f8e9 00be a7a4 ff3d
00000010: 9979 00be c463 4bbd 66fe 89bb 6638 8cbd
00000020: ead2 0cbd 1770 0ebe 7854 9d3d bfc7 5e3e
00000030: 0820 debd 93f2 2f3c ebca 3f3e 06d6 7fbc
00000040: 3d91 69bd 6377 0a3e af9d 283b 8048 8bbe
00000050: 745f 2a3d db73 93bd defd 693d d585 1b3d
00000060: 7928 bdbd 02d9 513d 498d e1bd 026e 7e3e
00000070: da4a 0f3e 0814 7ebd 808a b1bd 8e52 a93d
00000080: b1f5 68be cb8f 6dbb 9cea 03be 1de2 f43d
00000090: fd7d e53d 4459 8e3e ea39 8a3c b2f2 bcbc
000000a0: 22bc 41bd 3f17 363e 1947 4cbd 5784 95bd
000000b0: 423d 20be 529e a2bd fe66 423e 861a 0a3d
000000c0: bd97 6ebd e4ef 1bbe 9b42 d0bd 4a1a f3bd
000000d0: b150 8d3d 866e 173d e9b4 39bd 5bb3 603e
000000e0: 8517 11be 9ae1 f8bd 4dfb 0cbe f9ed 023d
000000f0: 193c 57bd 354e b6bd 3644 853d d45b e73d
00000100: 1c7d 7bbc 998f 0bbd 9e42 6c3c 8837 bcbd
00000110: 1923 15bc 32fe 14be 7195 d33c e0c0 c1bd
00000120: 9413 87bc e1d4 39bc a04f fdbd 1afe 953d
00000130: 0481 40bc 8902 d73a 6b8f 3fbe 69a5 2abd
00000140: 8fc8 f2bd 6672 053d e903 cebd 66b5 6c3e
00000150: 02e1 5c3e 7631 a1bc c44d 003e 298f dabb
00000160: fe36 063e c404 8bbd 5018 a43d 5f3f e63d
00000170: f98b 7bbd 4f7c 0bbc 0295 3ebd 01c9 943c
00000180: 09fa 4ab9 8581 99bd bfb6 833d bf1e dfbd
00000190: 418f 393d 04da f83d 40bf 5ebb 84fb 91bd
000001a0: 7435 dfbc c02f 96bc da8a 60bd 543a 733e
000001b0: ed42 8fbc f28c cbbc 35db 9d3d 0a91 7f3d
000001c0: a874 dcbd 685c 06be 7758 0bbe 7d51 9fbb
000001d0: 0d90 a73d e32b be3e 7b10 1e3e 1531 77bd
000001e0: f609 b53b 1dde 643e 2668 8dbc ac15 5dbe
000001f0: 0600 9ebd adcc 5cbd 76fb 013e 1d7b 693e
00000200: 90e9 693d 0919 a7bd 8764 a1bc a241 87be
00000210: 96ee 583e 84b9 c23e 03b5 be3d 7583 9f3d
00000220: 9512 bd3d 9714 f23d 9f70 9ebd 27ef 633d
00000230: 4521 a1bd 2961 f93c 1d6b 1abd f0a8 3f3e
00000240: 26c0 1e3e 8e65 c7bb 7f11 eb3d e3cf 24bd
00000250: 03ac 3bbd e14f 9d3c 849b 143e d17c 0bbe
00000260: 820f 97bc ba09 d2bd 005a f63c b569 cc3d
00000270: 399a bbbd 467c 943d 7c5f 90bd deab 773d
00000280: 973d 88bd 0a9f d1bc 7547 96bd ff12 ea3d
00000290: 805a c0bd 7fd2 4bbe a998 223e 21fa 2ebd
000002a0: 2b40 f93d edf1 3bbd aef4 4dbe fffe 973d
000002b0: f6be 863d b3aa 65bd 969d c73d 268d c1bd
000002c0: 7aff fcbd 2960 2dbe e1e5 3cbc a446 e43d
000002d0: 53d0 873d 44c1 44bd 560c 033d eaad 303d
000002e0: 4155 3cbe b218 a93d bee3 cfbd 8138 50be
000002f0: a418 8bbd af9d 743d b56a 333b ccf5 a03c
00000300: 7fd1 58be 86b8 0fbc 8143 e13d 3160 8f3e
00000310: 5042 4ebd 90a5 e73b 7e44 183e 34a2 36bd
00000320: fb9d 43bc de70 12be a961 04be 7c56 4bbd
00000330: 760f 763e eba8 9dbd ba9d 953b bb16 ecbc
00000340: a843 6a3d 9eb5 7fbe 70ff 1e3d ca48 4abe
00000350: 7496 f33c 90b9 26be 19dc 20bd 6ffb 9e3c
00000360: 15a9 94be d226 d63c 4579 babd 41c5 f4bd
00000370: 8a37 8dbd c0f6 28bd f694 913c b683 893c
00000380: d60e 8cbe ff6d 9e3b ca83 ccbe 6957 90be
00000390: ca23 1e3d 3489 4fbd c1fd aaba 9bea c7bd
000003a0: 1258 e23c 8770 5abc 76f1 7cbd a07f ccbd
000003b0: af92 5ebd 32df 983b 5179 173e ca6e d0bc
000003c0: cfc5 cabc 0d97 023e 70f6 ba3d fbd7 073e
000003d0: 6f44 fa3d 7185 473c f7e6 d83d 5bd7 23be
000003e0: 3951 bb3c a52a 04be 764c 23bd c10c 8ebc
000003f0: 57af 343d ade8 aa3d cbe9 26be b950 043e
0.06157941 0.21151197 -0.12589252 0.12482577 -0.12546386 -0.04965569 -0.004211235 -0.06846695
-0.03438083 -0.13909946 0.07682127 0.21755885 -0.10845953 0.010738987 0.18729751 -0.015614992
-0.057023276 0.13522105 0.0025728752 -0.2720375 0.041594937 -0.07199832 0.057126872 0.03796943
-0.09236235 0.051232345 -0.11013276 0.24846652 0.13993397 -0.062030822 -0.08668995 0.08267699
-0.22749974 -0.0036249037 -0.12882465 0.1195719 0.11205671 0.2780248 0.016873319 -0.023064945
-0.047298558 0.17782305 -0.04987249 -0.073006324 -0.15648368 -0.079403535 0.18984601 0.0337167
-0.058250178 -0.1522823 -0.10168954 -0.118702486 0.06900156 0.036970638 -0.045338545 0.21943419
-0.14169128 -0.12152405 -0.13767739 0.03196523 -0.052547548 -0.089016356 0.06507151 0.11296812
-0.015349653 -0.034072492 0.01442018 -0.09190279 -0.009102606 -0.14550093 0.025828095 -0.09460616
-0.016488828 -0.011342258 -0.12368703 0.07323857 -0.01174951 0.0016403954 -0.18707053 -0.041661654
-0.1185466 0.032579802 -0.100593396 0.23116073 0.21570209 -0.019676905 0.12529665 -0.006669898
0.13106915 -0.06788018 0.0801245 0.11242556 -0.061412785 -0.008513524 -0.046528824 0.018162252
-0.00019357367 -0.07495407 0.064313404 -0.10894536 0.045302633 0.12150958 -0.0033988506 -0.07128051
-0.027247168 -0.018333316 -0.05481992 0.23752719 -0.017487967 -0.024847481 0.07707826 0.06239418
-0.10764438 -0.13121188 -0.13607965 -0.004862009 0.081817724 0.37142858 0.15435974 -0.060349543
0.005524869 0.22350354 -0.017261576 -0.21590298 -0.07714848 -0.05390613 0.12693581 0.2280087
0.05710751 -0.08159072 -0.019701255 -0.2641726 0.21184763 0.38032162 0.09311869 0.07788745
0.0923206 0.118203335 -0.077363245 0.055647995 -0.07867674 0.030441837 -0.037699807 0.18716788
0.15502986 -0.0060851043 0.114779465 -0.04023732 -0.04581834 0.019203128 0.1451245 -0.13621832
-0.018440012 -0.102557614 0.030072212 0.099810995 -0.09160275 0.07250266 -0.07049462 0.06046664
-0.06652372 -0.025588531 -0.07337848 0.114294045 -0.093922615 -0.19904517 0.15878548 -0.04271901
0.12170442 -0.045885015 -0.20112869 0.074216835 0.06579392 -0.056070995 0.09746854 -0.0945075
-0.12353416 -0.16931213 -0.011529417 0.11146286 0.066315316 -0.048035875 0.031994186 0.043134607
-0.18391897 0.082566634 -0.1015086 -0.20334055 -0.06791809 0.05972069 0.0027376835 0.019648455
-0.21173666 -0.008772021 0.109992035 0.28003076 -0.05035621 0.007069297 0.14869878 -0.044588283
-0.011939521 -0.14300868 -0.1292788 -0.049643025 0.24029335 -0.07698234 0.0045659216 -0.028819432
0.05719343 -0.24971625 0.038817823 -0.1975433 0.029734828 -0.16281724 -0.0392724 0.019407002
-0.2903525 0.026141558 -0.091051616 -0.11951686 -0.06895359 -0.041250944 0.017771225 0.016786437
-0.2735507 0.00483489 -0.39944297 -0.2819169 0.03860835 -0.050667956 -0.0013045595 -0.09761544
0.027629886 -0.013332493 -0.061753713 -0.0998528 -0.054339107 0.004665279 0.14792372 -0.025443453
-0.024752526 0.12752934 0.091290355 0.13265984 0.12220084 0.012177811 0.10590928 -0.1600012
0.022865878 -0.12906893 -0.03986784 -0.017340066 0.04411253 0.08345161 -0.16300122 0.12921418

network_body._body_endoder.seq_layers.2.bias f4 [256]
00000000: 355c dfbd 41f0 d0bd bf1c 86bd 7131 dcbd
00000010: 25eb d5bd b375 23be a7d4 15be 89d9 1fbe
00000020: 4739 e939 948c 13be 5c2d 23be aad5 14be
00000030: 5d5d 183b 4710 323e f7a0 5cbe 71eb a3bd
00000040: fbc1 093d c1b0 4dbd 8974 7cbe 7ba7 ed3e
00000050: f761 163e e407 1bbe 2c20 68bd 2a83 8b3c
00000060: 2924 92bd decd 76be 058e 893d e5e2 14bd
00000070: b9a6 26be cae9 d3bd 0604 4bbc 8fe8 1cbe
00000080: 9ec3 7bbb 069a a0bd a28c 963e 58bf 8dbc
00000090: d6d7 efbc 52b6 9abd 013e bfbd 32d0 0fbe
000000a0: 7e43 9ebc 10ac 2fbc acd4 b6bd a11c c43e
000000b0: d1b9 0fbe 46ed eebd 73d4 9fbd 8aae 43be
000000c0: a8d2 c2bc 3dc3 06be b888 4fbc 7c78 d8bd
000000d0: fc00 01be 2ebc 38be ca24 f5bd 1ceb 233d
000000e0: d30b 0abe 5d5d 19be b4b4 b5bd 4dd6 87bd
000000f0: e0e5 22be 2908 89be ed48 44bd a121 c83e
00000100: f6da 17bc a167 97bd c7b2 6ebd 5808 cbbd
00000110: 0394 733d 7dca f2bd c091 50bc bea2 2dbe
00000120: 69dc 15be 28e0 d0bd 9d35 e2bd b831 7ebd
00000130: c2cc 83bc cf3b f6bd e57d 26be 2df8 47be
00000140: 97c0 22bd 5a55 21be 5f60 d2bd 9618 8f3c
00000150: d498 12bd 2854 8fbe e36b 6cb8 e7d2 dbbd
00000160: d95c 23be c94f e7bc b364 45bd 9a8b 31be
00000170: fdbe 31bd 1535 363c feb3 4fbd efbd e3bd
00000180: e20a efbd eeb4 d0bd 25fd 26bd e4eb 34bd
00000190: f7f4 53bd 288c 26be 7a5d b7bd 6e25 95bd
000001a0: 350b c6bc e789 34bd 77be 823e 7629 4bbe
000001b0: d921 d3bc eff9 8ebd 9f98 8fbd 410c 0ebe
000001c0: 10e1 03bd 3301 e4bd 0fb0 31be 84ed 5dbd
000001d0: 3f29 22be 3cdd 40bd 5f0a 0ebe c3af f0bd
000001e0: 54a2 b2bd b48e 64be 00cc 99bd 438f 58bd
000001f0: 4a02 82bd ce31 2a3c 363a abbd e9a2 b3bd
00000200: a04c d5bd 42b6 e4bd d932 10be e15e 5f3b
00000210: 8c1a 9dbb 56e5 4dbe 5cae 06be 0693 62bd
00000220: 1da0 86be ade4 04be d98b 38bc 37f3 8ebe
00000230: 780d ccbc 199a c2bd 2895 a3bd c57c 75be
00000240: ebc2 2bbe 905e 8bbe 65e8 48be 7cac b7b9
00000250: ca80 29be bf9b 74bd b82c dbbc f9e2 1fbe
00000260: ddf7 4ebe 9ac7 15be 0cdc dabd e532 18be
00000270: b720 5bb8 8331 543a 2e01 7fbd 3bf9 223e
00000280: 87ac 59be b2a8 5a3b c84a 843c fc89 18be
00000290: 1547 c9bd f64c e13c 2d38 61be 8df3 8dbb
000002a0: 61ab 38bd 0512 10bc 2563 75be 43fc 60bd
000002b0: 28ee 4e3b e90f 87bd b2e7 413d 53f6 b7bd
000002c0: 517b 0cbe 5498 e5bc 20e7 0fbe e4ef c6bd
000002d0: a752 7dbc cba6 1dbe 71ad 49bd db98 3c3e
000002e0: 39dc fbbc 184c b93b cb11 85bc 519c 33bb
000002f0: 9252 afbd 5d43 76bd c699 a8bc d006 97bd
00000300: 89e9 0bbe 7096 86bd 76be 22be b22e c6bd
00000310: 767b 0fbe 63b6 a1bd 9a3b 6dbe 6f00 c2bd
00000320: 92c9 21be c771 2ebe 60fe c2bd a1fb debd
00000330: 1216 1cbe 773d 5a3c 65bf c4bd 1220 d9bd
00000340: 989c 16be 3091 0ebe 9f0e bebd 502f 11bd
00000350: b0ed 01be 86a3 c4bd 6459 91bc dc13 a8bc
00000360: 14d1 0bbd aa7d d1bd 489b a7bd 2c3d 9cbd
00000370: 27fe 00bd d391 94bc 1d00 d2bd 738d caba
00000380: 8f1b 05be 5846 70bd 83fc 93bd 30e8 28bd
00000390: 809b 1bbe 2b52 f33a a3b5 01be 43db 9dbd
000003a0: 3f78 d7bd 4351 37be f22a eb3c 9c10 0fbe
000003b0: f42b c73c 0c54 1abe d249 28be 4e6b e7bd
000003c0: 1a87 43be 9c7c 50bc 5a0e e7bd 4a0a 2d3c
000003d0: 4126 f6b9 c957 d7bc 974a b33c 6d0b 4ebe
000003e0: 773c 92bd f7ad 7ebd 16f4 e8bd f102 9bbc
000003f0: 261c a03c 5826 0cbc 2366 7f3b 194a adbc
-0.10906259 -0.10202075 -0.06548452 -0.10751618 -0.10445241 -0.15962867 -0.14631902 -0.15610327
0.00044483898 -0.14409095 -0.15935272 -0.14534631 0.0023249008 0.17389022 -0.21545778 -0.08003891
0.03363226 -0.050217394 -0.2465383 0.4641684 0.14685808 -0.15139729 -0.056671306 0.017030317
-0.07135803 -0.2410197 0.06716541 -0.036349196 -0.16274537 -0.10347326 -0.012391096 -0.15323089
-0.0038416157 -0.07841878 0.2940417 -0.017303154 -0.029277723 -0.07554306 -0.09337998 -0.14044264
-0.019319292 -0.010722175 -0.08927283 0.38303092 -0.14035727 -0.1166635 -0.07804193 -0.1910955
-0.02378209 -0.13160415 -0.012666874 -0.105698556 -0.12598032 -0.18040535 -0.119699076 0.04001914
-0.13481073 -0.14977022 -0.08872357 -0.066326715 -0.15908003 -0.26764038 -0.04792111 0.39088157
-0.009268513 -0.073928125 -0.058275964 -0.09913701 0.059467327 -0.11855028 -0.012730062 -0.16956612
-0.14634861 -0.101990044 -0.11045382 -0.062059134 -0.016088847 -0.12023126 -0.16258962 -0.19528265
-0.03973445 -0.15755215 -0.102722876 0.017467778 -0.03579028 -0.27993894 -5.6367262e-05 -0.10733586
-0.15953387 -0.028236287 -0.048191737 -0.1733841 -0.04339503 0.011121054 -0.050708763 -0.11120211
-0.116719976 -0.101907596 -0.04076876 -0.044170275 -0.05174729 -0.16264403 -0.08953376 -0.0728253
-0.024175266 -0.044076826 0.25535938 -0.19840035 -0.025772976 -0.06981265 -0.07011532 -0.13871862
-0.03219706 -0.11133041 -0.17352317 -0.05418159 -0.15836047 -0.047085986 -0.13871144 -0.11752274
-0.08722368 -0.22320062 -0.07509613 -0.052871 -0.06348093 0.010387851 -0.08360712 -0.08771307
-0.10415006 -0.111675754 -0.14081897 0.0034083652 -0.0047944244 -0.20107016 -0.1315245 -0.055315994
-0.26294032 -0.12977858 -0.011263811 -0.27919933 -0.024908766 -0.09502048 -0.07987434 -0.23973377
-0.16773574 -0.27220583 -0.19619901 -0.0003503299 -0.16553035 -0.059718844 -0.026754722 -0.15613927
-0.2021174 -0.14626923 -0.10686502 -0.14863165 -5.2244137e-05 0.0008094536 -0.062256984 0.15915386
-0.2125722 0.003336471 0.01614894 -0.14896387 -0.09828011 0.027502518 -0.21994086 -0.004332012
-0.045085315 -0.008793359 -0.23963602 -0.054928076 0.0031575058 -0.065948315 0.047340102 -0.089825295
-0.13718916 -0.028026737 -0.14053011 -0.09713724 -0.0154616 -0.15395658 -0.049237672 0.18417685
-0.030744659 0.005654823 -0.016243836 -0.0027406404 -0.08560671 -0.060122836 -0.020581137 -0.07374346
-0.13663305 -0.065716624 -0.15892968 -0.09676875 -0.1401194 -0.07896116 -0.23167267 -0.09472739
-0.15799549 -0.1703559 -0.095211744 -0.10887838 -0.15242794 0.013320318 -0.09606818 -0.1060182
-0.14708173 -0.13922572 -0.092801325 -0.03544551 -0.12688327 -0.09601502 -0.01774282 -0.020517282
-0.03413494 -0.10229047 -0.081839144 -0.07628855 -0.03149238 -0.01813594 -0.10253928 -0.0015453532
-0.12998794 -0.058660835 -0.07225897 -0.041237056 -0.15196037 0.0018563917 -0.12666945 -0.077078365
-0.10520982 -0.17902093 0.028707001 -0.1397118 0.02431295 -0.15071124 -0.1643441 -0.112997636
-0.19094506 -0.012725022 -0.11282034 0.010561535 -0.00046949278 -0.026286976 0.021886153 -0.20121546
-0.07140439 -0.062177625 -0.11374681 -0.018922301 0.019544672 -0.008554064 0.003897079 -0.021153497

network_body._body_endoder.seq_layers.2.weight f4 [256, 256]
00000000: 0b01 eabd b8d9 86bd fd20 6c3d 99b3 34bd
00000010: 6e8b 0e3e ed5b 9cbd cc3b 923d 408e 2c3d
00000020: 03b5 99bd bdc4 803d 8c71 1bbe dc0b 09bd
00000030: bcd6 da3c 96a4 10bd 46e3 623e 8292 38bd
00000040: 3e4b 59bb 4a1f 11ba 6269 803c 82b9 82bc
00000050: e1c0 33bc d1c0 94bd 7e5c ec3c 5940 adbc
00000060: bad9 e83d 7256 f0bd 9262 2fbe f368 5f3d
00000070: 25f9 8ebd 328f 7fbe 3ea0 f8bd 50ea 92be
00000080: ee64 8ebd 9524 ce3d fbf7 b33c 028a e2bc
00000090: fcad aebd 3ffb c33d 493c 20be 9f63 39be
000000a0: 1f98 16be 75c5 aabb 4178 c7bd ee72 38bd
000000b0: dce1 9d3d f4e0 01be 702c fc3b dd97 a43d
000000c0: 2925 d1bd 489d 2a3d 0c96 32be b71f d33b
000000d0: 5d41 b7bd 8911 28bd db1a 0c3d f409 7ebe
000000e0: 09f3 ddbc 3838 c8bd 522c 71bd aa9b b63d
000000f0: f25b 913d cf8e cb3c b7a3 973c 0b2e ccbd
00000100: ca50 86bd fb6d 11be b8e2 603d 3648 99be
00000110: d166 c33c cfb4 c1ba c660 b2bc e209 9abe
00000120: 7195 84bc a0bc 23bd c70a 33be 93ed 0abe
00000130: 296c f7bc d84f 97bb 81e1 f5bd 92b1 8dbd
00000140: ee21 873c 146e 91bd dad4 d23c 27ce 96bc
00000150: ce9a edbd 38d2 3a3d aede 20be 67e2 3dbc
00000160: defb 19bd f26d 78bd 4e17 0abe e22e cc3d
00000170: a56e 45bd 5753 8fbd fa95 db3c 89b6 48bc
00000180: cabf 28be 6e1d ffbd 77c3 10be 0e81 91bd
00000190: c21f f6ba 327f 023e b8e9 84bd 1876 853c
000001a0: 5cae b3bd c8c7 683d cdcb 85bc eb74 48bd
000001b0: 5ea9 04be 4298 563d da3e 043d a007 0bbd
000001c0: bc09 ef3a 8a28 8b3d f623 c6bd 31a3 f8bc
000001d0: dd1a c53d ff37 c2bc 47e4 17be 61e5 f73c
000001e0: 707d b2bd 62b6 25bd 63bc a0bd 4888 8abe
000001f0: c1f1 8b3d cb56 f7bc 7c3c bebc 4c79 e1bd
00000200: 2678 9ebc f6db 9dbc bee1 0cbd db6e f53b
00000210: cea3 933d 0c99 a1bd 55db 28be 959b ae3d
00000220: 5761 003e c08d a2bb 61f3 563d 142f 9fbd
00000230: 57f8 59bd 57a5 f6bd 46d9 2bbe 98fd efbd
00000240: 0580 adbd 9a33 82bd 59e8 d0bc 27d4 1fbe
00000250: 8cf8 26be 1c94 19bd 6e5a 00be c612 f7bd
00000260: 71f1 74bc 8009 133d 054c aebc 48de b23d
00000270: 396b 3fbe 33b7 e0bd 8d74 22bd 8550 28be
00000280: 34d5 c6bd 361e e4bd fe3f bebd 50dc 09be
00000290: aeb4 36be fe8e bf3d 4954 9bbd 8ed1 60be
000002a0: f3e5 4cbd 27db 00be f7e7 333d 7f4f b43c
000002b0: 81ab 23be 141f a6bd 1133 4c3d 8a1b e3bd
000002c0: 3049 6ebe 9fd7 48be 7165 8cbd 221b 623d
000002d0: b805 16be 8540 1f3d 334c a43d abc3 debc
000002e0: e03a b1bd 3566 89be bded 913c cb0b 9e3c
000002f0: a5f0 36bd b983 d6bd 6d0e 903a 7db3 d8bd
00000300: 4f31 10be 35c9 48be 7a9d 99bd c81e d5bc
00000310: 7eb0 d8bd 144e 15be ea34 af3c 78d4 cdbd
00000320: 48b3 f2bd e017 9d3d b7ad 00be 35fd 25be
00000330: 62f0 edbd 7929 82bd 4051 5c3e 5b90 1ebc
00000340: 14e8 38be c982 7bb7 bc47 75be cf91 cebd
00000350: 3d90 78be 509c 6cbd 0d09 3cbe 6f12 19bd
00000360: c5a0 fabc 4f41 033d 0c27 36bd 4d0f d1bd
00000370: ebf2 06bd 5a00 103d 1ec9 15be b259 92bd
00000380: edab 77bd 4bad e0bc af75 04be 5097 39be
00000390: 1e9d b7bd 59ed 993c e094 21be b9e3 12be
000003a0: 3845 63be 2ffd 37bd 10e7 0abe f33d 0bbe
000003b0: 3ee2 a93c 60bd 80bd 3f37 55be 80cf 2fbd
000003c0: 5b18 3ebe 820c b6bd 2759 29bd 479b 88b7
000003d0: adbe 0f3d 16ac 9abd 8974 fabd 14bf 17ba
000003e0: d4e8 a9bd 57fb 4c3d fe2e bcbc 5536 403d
000003f0: f33b c53b fc85 2fbe 9a76 b1bd 3474 a4bc
-0.1142598 -0.06584495 0.057648648 -0.04411659 0.13920376 -0.07634721 0.071403116 0.042127848
-0.07505228 0.06287525 -0.15180033 -0.033458576 0.026713721 -0.03531321 0.2215701 -0.045061596
-0.003315642 -0.00055359735 0.01567525 -0.015957598 -0.010971279 -0.07263339 0.028852697 -0.021148847
0.11369653 -0.11735238 -0.17127445 0.054543447 -0.06981114 -0.24956968 -0.12139939 -0.2869439
-0.069528446 0.10065571 0.021968832 -0.027653698 -0.08529279 0.09569406 -0.15647997 -0.18104409
-0.14706467 -0.005211527 -0.097397335 -0.04503148 0.07709095 -0.12683469 0.007695727 0.08036778
-0.10212166 0.0416539 -0.17440051 0.0064429897 -0.08948014 -0.041032348 0.0342053 -0.24808484
-0.027093427 -0.09776348 -0.058880158 0.08916409 0.07097615 0.02484837 0.018510683 -0.099697195
-0.06558378 -0.1420211 0.054903716 -0.29937905 0.023852738 -0.0014778617 -0.02177466 -0.30085665
-0.01618454 -0.03997481 -0.1748458 -0.1356719 -0.030202942 -0.0046176724 -0.12005902 -0.069186345
0.016495671 -0.07101074 0.025736261 -0.018408848 -0.11601792 0.045610636 -0.15709946 -0.011589623
-0.037593715 -0.060651727 -0.13485453 0.0996988 -0.048201222 -0.06998318 0.026804913 -0.012250551
-0.16479412 -0.12456785 -0.14137064 -0.07104693 -0.0018777775 0.12743834 -0.06489891 0.016291663
-0.08773491 0.05683115 -0.016332531 -0.048939627 -0.12955233 0.052391298 0.032286502 -0.03394282
0.0018237154 0.067948416 -0.09674828 -0.030351253 0.096242644 -0.023708342 -0.14833175 0.030260744
-0.087153316 -0.040457137 -0.07848432 -0.270571 0.0683322 -0.030192753 -0.0232222 -0.11009464
-0.0193444 -0.019269925 -0.034394972 0.0074900216 0.07208978 -0.078905195 -0.16489919 0.08525769
0.12537132 -0.0049607456 0.052478198 -0.07772651 -0.05321535 -0.12043255 -0.16782102 -0.11718291
-0.084716834 -0.063574985 -0.025501417 -0.15608273 -0.1630575 -0.037494764 -0.12534496 -0.120641276
-0.014950142 0.03589773 -0.021276483 0.08733803 -0.18693246 -0.109724425 -0.039661933 -0.16436966
-0.09708634 -0.11138575 -0.09289549 -0.13462949 -0.17842361 0.093534455 -0.075844355 -0.21954939
-0.050023984 -0.125836 0.04392239 0.022010563 -0.15983392 -0.081113964 0.04985339 -0.11089237
-0.23270106 -0.19613503 -0.06855286 0.055201657 -0.14650619 0.03887989 0.08022346 -0.027192911
-0.08653808 -0.2683579 0.017813558 0.019292733 -0.04466309 -0.10474343 0.0010990627 -0.1058111
-0.1408131 -0.19608004 -0.075007394 -0.026015654 -0.10580538 -0.14580566 0.021387536 -0.10050291
-0.118506014 0.076705694 -0.12566267 -0.16209872 -0.11618115 -0.063555665 0.2151537 -0.009677972
-0.18057281 -1.4991217e-05 -0.23953146 -0.100864045 -0.24273773 -0.05776626 -0.18362828 -0.037371095
-0.030594239 0.032044705 -0.04447083 -0.102079965 -0.03294651 0.035156585 -0.14627501 -0.07146014
-0.060466696 -0.027426383 -0.12935518 -0.18124127 -0.089655146 0.018789934 -0.15779448 -0.14344682
-0.22194374 -0.04491919 -0.13564706 -0.1359785 0.020737763 -0.062861204 -0.20821856 -0.042922497
-0.18563978 -0.088891044 -0.041344788 -1.628477e-05 0.035093952 -0.07552354 -0.122292586 -0.0005788666
-0.082963616 0.050044384 -0.022971626 0.046926815 0.0060191094 -0.17140955 -0.086651996 -0.020074941

network_body._body_endoder.seq_layers.4.bias f4 [256]
00000000: dba8 35be 2e4b 7cbc 6b51 96bc 8b4f 63bd
00000010: 0b18 eebc 46cf 85bd 433b 38be 8cf3 e13d
00000020: 2e67 c3bd 24b4 2fbe 4dd7 54bd 987b 22b9
00000030: 2df0 db3c 5061 dcbc 2a40 d03a 3813 0cbd
00000040: ec95 75bd 2651 e1bd 7355 21be 4805 32bc
00000050: 7174 edbd 7168 1ebe 89e7 4b3d 16d7 83bd
00000060: ff9e 67bd fdd0 37be b852 1bbc 89f0 a93a
00000070: 8ab9 8a3d 20fd 49bd 0ba3 e4bd 77c4 05bb
00000080: 8173 84be e496 82bd 7c46 0bbe e8cc 42be
00000090: a1ac b2bc 3392 20bd dadc 26be d5e8 86bd
000000a0: 934c 19be f9d2 58bd 21f3 82bc a414 00bd
000000b0: c923 14be 2db3 24be e5f9 0fbe 21c0 2b3c
000000c0: c6fb 333d 9911 fdbd 5dfd 1abd b462 3bbd
000000d0: 1e9f 3abd 7d96 a1bd 215d 3b3d 65a0 27be
000000e0: 0b0f 3ebe e7e1 cabd b207 3fbb 3dbf 00be
000000f0: 901f 0abe 9e22 b1bd 4670 ba3d a91a 333c
00000100: ef6b 813c 9753 3abd a4b4 2ebe 3a2e 6dbc
00000110: 5a13 d73c 3ce2 f8bb ded5 9bbd efda 30be
00000120: ee97 16be cff1 c13b 925a ffbd aa9c 18bd
00000130: 07d9 65bd 52c5 4c3c 5902 05be df9e f5bd
00000140: 9d8c eebd 9301 1dbe 28e8 f3bd b003 8fbd
00000150: 1549 833b 9637 03be 81e3 0cbe 22f8 b3bd
00000160: 9fbf a6bd a950 59bc ec82 b43c c98e 6fbd
00000170: d9bb 4ebe 4acf b1bc 5da0 cfbd b81a 34be
00000180: 7818 87bd 8ff7 5f3d 4da1 3c3d 218a f7bc
00000190: aa4e cdbd 8361 43be 993a 423b 965f 4dbd
000001a0: 73f4 31be 6e1c 9b3d 8434 243d 119e 73bc
000001b0: be1b 26bd 1a54 413b f9c9 efbd 54e6 31bd
000001c0: 2de5 c5bd 19e5 c9bd 899c 6dbe e2e1 e3bd
000001d0: 7e53 45bc 899c 83bc ded9 47be 556a 8f3d
000001e0: c4b1 a83c 120c eebd ed79 35be b4dd c13c
000001f0: 3b08 2abe cd60 a9bd 86d0 3cbb 77ea 073d
00000200: 3f21 9bbd ff2b 903d f1e2 e0bd 6de3 1abe
00000210: 8375 1fbe a550 4bbd 5759 99bd bc11 4ebe
00000220: 77cc 223d 3839 c7bc ab4b fabc b681 15be
00000230: cb16 d6bd 4c9f 2cbd acd6 19bd 94d6 42bd
00000240: 6896 03be bf9c 9ebd 6766 90bd ce5b 05be
00000250: d95a 1f3d ec96 92bd 00ca 12be 1e67 2dbe
00000260: 59e0 b03d d77f 0c3b 31c9 bcbc 2670 34be
00000270: 50f3 97bc ef7b 8fbd d3f2 18be 71c3 1dba
00000280: 5fa1 15be 138d d83d 0e72 16bd b47b 6abd
00000290: 3919 18be 4125 a3bd 54e5 bbbd 1568 213d
000002a0: a648 d6bd e7fc 28be 2bb3 03be aa3c 1cbd
000002b0: 0a92 c3bd 7a71 01bb 71c4 063d 6018 1dbe
000002c0: 0d61 4dbd b587 8d3d 07e5 293c 02c0 57be
000002d0: 441f eabd 42c3 8aba f9a3 0dbe 2669 27be
000002e0: dc01 57be 7350 06be 7012 1f3d 459f 23be
000002f0: 0873 94bd b2ef 54bc 31a3 09be e417 41be
00000300: 391e 56bd bde3 993d 0d0e af3c e358 543d
00000310: 5a5c 983c 8ebe babd 43d8 57bd 71ad df3c
00000320: af25 1cbe 90ac 3f3d 1e47 cdbd 1999 873c
00000330: 10fe 9dbd f86d 99bd f41a f5bc 2deb 1bbe
00000340: ae41 ddbd 342e 9fbd b0c7 8abd 8b85 80bd
00000350: 677c 74bc dce8 37be 6040 85bc 1727 5ebe
00000360: 08c7 1dbe 0978 acbc 06ba fdbd 555e 66be
00000370: f76e 47bd 14f9 ffbd d141 953c 06fe c7bd
00000380: cda0 2fbd 172e 15be d1a0 81bd 6cee 943d
00000390: db81 87bd 0bae d5bd e013 793d 1367 873d
000003a0: 07a2 bc3d f1c1 97bd ed8d b8bd 26a9 07be
000003b0: ecfd 09be 86c2 983d 7fa3 103d 6b1e 0ebe
000003c0: 1790 1abe b90a 19bd 9042 d4bd f4ca 1fbe
000003d0: 1e06 5a3d 3526 1ebe 47af 03be 8cd0 dbbd
000003e0: 194b 8fbd b51b f9bd 4d59 00be 60fe 6cbd
000003f0: 1c17 89bd b0c1 8c3d e1fe dcbd 91ea abbb
-0.17740194 -0.015398784 -0.01834937 -0.05549578 -0.029064199 -0.06533675 -0.17991357 0.11032781
-0.09541164 -0.17158562 -0.05196314 -0.00015495566 0.026847923 -0.026901871 0.0015888263 -0.034198016
-0.05995743 -0.11001806 -0.15755253 -0.010865517 -0.11594475 -0.15469529 0.049781356 -0.06437509
-0.056548115 -0.17950816 -0.009480171 0.0012965362 0.0677367 -0.049313664 -0.111639105 -0.0020411292
-0.25869372 -0.06376436 -0.13601106 -0.19023478 -0.021810832 -0.039201926 -0.16295186 -0.06587378
-0.14970617 -0.052935574 -0.015985074 -0.031269684 -0.14466776 -0.16083975 -0.14060171 0.010482819
0.04394128 -0.12356872 -0.037839282 -0.045748428 -0.045561902 -0.078900315 0.04574311 -0.1636978
-0.18560426 -0.09906369 -0.0029148874 -0.12572952 -0.13488603 -0.08649181 0.09103446 0.010931649
0.015798537 -0.045489874 -0.17061096 -0.014476353 0.026254345 -0.0075953286 -0.07609151 -0.17271017
-0.14706394 0.0059187184 -0.12468447 -0.03725878 -0.056115177 0.012498217 -0.12989177 -0.11993193
-0.116479136 -0.15332632 -0.11909515 -0.06983125 0.004006515 -0.12814173 -0.13758661 -0.08787562
-0.081420176 -0.01326386 0.022035085 -0.05848578 -0.20188846 -0.021705288 -0.10138009 -0.17588317
-0.06596464 0.05467945 0.046052266 -0.030217232 -0.100247696 -0.19080167 0.0029636978 -0.050139986
-0.17378406 0.07573782 0.040089145 -0.014869229 -0.0405538 0.0029499591 -0.11708445 -0.04343255
-0.096628524 -0.0985815 -0.23204245 -0.11127068 -0.012043832 -0.016065853 -0.19516703 0.07002703
0.020592578 -0.11623396 -0.17722292 0.023665287 -0.16604702 -0.082704164 -0.0028810813 0.033182587
-0.075747006 0.070396416 -0.10980786 -0.15125819 -0.15572171 -0.049637455 -0.07487743 -0.20123953
0.039745774 -0.024319276 -0.03055366 -0.14600262 -0.10453566 -0.042144105 -0.037558243 -0.04756792
-0.12850344 -0.07744741 -0.07050782 -0.13023302 0.038905 -0.07157692 -0.1433487 -0.16933867
0.08636541 0.0021438503 -0.023045154 -0.17620906 -0.018548638 -0.0700606 -0.1493638 -0.0006018198
-0.1461234 0.10573783 -0.036729865 -0.05724688 -0.14853372 -0.0796609 -0.091746 0.0394059
-0.10463075 -0.16502725 -0.12861316 -0.03814379 -0.09549339 -0.0019751475 0.032902185 -0.1534133
-0.050141383 0.0691065 0.010369546 -0.21069339 -0.11431745 -0.0010586756 -0.13832082 -0.16348705
-0.20996803 -0.13116626 0.038835943 -0.15978725 -0.07248503 -0.012996601 -0.13441159 -0.1885677
-0.052274916 0.07514141 0.021369005 0.05184258 0.018598724 -0.09118377 -0.052696478 0.027304383
-0.1524875 0.046795428 -0.1002333 0.016552495 -0.07714474 -0.07491678 -0.029920079 -0.15226431
-0.10803543 -0.077724844 -0.067763686 -0.06275471 -0.014922238 -0.17959923 -0.016266048 -0.21694599
-0.15407956 -0.021053331 -0.12388997 -0.22496922 -0.04868981 -0.1249868 0.01821986 -0.09765248
-0.04287796 -0.14568363 -0.063295014 0.07272038 -0.06616565 -0.10433587 0.06080997 0.06611457
0.09210592 -0.07410038 -0.09011445 -0.13248119 -0.1347577 0.074589774 0.035312172 -0.13878791
-0.15094028 -0.03736374 -0.10364258 -0.15604764 0.05322849 -0.15444262 -0.12859832 -0.107331365
-0.069967456 -0.12163488 -0.12534066 -0.05785978 -0.06693861 0.068728805 -0.10790802 -0.0052464684

network_body._body_endoder.seq_layers.4.weight f4 [256, 256]
00000000: b577 d83c bbf5 36bd 85e7 1c3e a0d0 23bd
00000010: d58f 353d f2a5 ac3c 480a 883d aee9 103d
00000020: 719f 953d 3244 853d aa70 1e3d 4096 c33d
00000030: a220 ff3d 95a5 bbbb 9842 973d dc3d 173e
00000040: 9925 5a3d 32e4 a2bb 8aa9 c23c cca4 29be
00000050: 67bf c6bd 6be6 983d 1765 f0bc 2630 5b3d
00000060: 954e c03c 656f 06be 3647 883d 866d cbbb
00000070: f0d8 c53d f819 95bd 0f61 273e 4dfd b83b
00000080: f253 223e b40f ebbd 6fab 76be 3b2b 173d
00000090: 2de6 b73d 9e93 763d 2ee9 8bbd 1aad 5a3e
000000a0: 2ba2 f93d 8e1b 543e 4755 97be a102 6dbe
000000b0: 674e 83bc cf19 0abd 2980 863a c91d 09be
000000c0: 269e 0c3e 5ec1 a03b ac66 18be d042 7e3b
000000d0: 9396 29bd 113c b33a 45d6 6ebc 0704 d63d
000000e0: 1f4b 32be 785f e63c dde0 983c 3e19 293e
000000f0: ba16 743d deed a43d bb57 223e 6847 c9bd
00000100: 84e8 923d 6d4c a63c ad4c 343e 011e eb3d
00000110: 27cd 9ebd c423 f8bd dd06 003e 6b33 5b3c
00000120: 1ed6 35bb 3f11 8abd 1dcc 153d bca8 fb3c
00000130: 833c 043d e712 05be 9ae4 50bd 37e9 6cbd
00000140: e066 273e aa82 523d a5a5 12be 9d94 9abd
00000150: 7905 df3d 991a a93d ba5e 203e a0bf d23d
00000160: 5a96 f4bd 7268 9c3d ba41 27bd bdf1 f0bc
00000170: d2b8 9a3d b98e 0e3e 1497 453d 618f 88bd
00000180: d623 463d 9ae1 93bc 95d6 1f3d 5b9f aabc
00000190: 2c81 a43d ab15 9e3d 7523 e5bd 6371 86bc
000001a0: e9f9 2dbe 0ab1 c23d 1f95 24be c378 4d3d
000001b0: 9088 523e 9500 0bbd 051d 4d3d 7ad3 063e
000001c0: 62cd 0b3e 84f8 c63d 0baf ad3c 9669 3fbc
000001d0: 501d 683c 1e33 f33d 2b0e 743d 92c6 873d
000001e0: 7947 03bd 0ebb c93d 998d b33d 3b9c 28bd
000001f0: d16e 393e d201 72bd 6f36 d539 f68a 283d
00000200: f27c 5f3d cccc 203c 5f4b d4bc 2248 b23d
00000210: aac6 4d3e 20d7 33bc fab5 00bd d2e5 c5bd
00000220: f774 f13d 814b 6f3e 7569 f93d cab4 6bbc
00000230: 14e9 293e e953 b23d c8c5 e63b 9c98 09be
00000240: 4ad9 d5bd c926 623c f5a3 433e 1106 863e
00000250: d7f5 e7bc 2799 e9bc ba88 d13d beb2 05bc
00000260: 317c 8e3d 4f37 2b3c 528b c0bd 9f15 703d
00000270: 2f0f be3d c113 dc3d 9fd8 4bbd 0f82 7abe
00000280: 1a5a ef3c edec 103e 0e36 b53d cd25 48bd
00000290: 9f73 1abd 729d d93c 7837 193d 68b9 20bc
000002a0: ab3b 1ebe 17a8 523d 58cd 0ebd 18fe 6b3c
000002b0: f221 04be 7496 953d 74ad f33d d248 6c3d
000002c0: bab6 043e 380f 0b3e 1e77 9abd e6df 393c
000002d0: 8c6d 2d3e 0b50 70bd 6607 8c3c d170 aebd
000002e0: 337f bc3d d07d 95bd a0cc 56bd 56f3 4fbc
000002f0: d24c 95ba 9cfa da3b a5de 113e 7e19 d83d
00000300: 3378 fe3c 0396 c73d 960d 5cbd bdb0 96bc
00000310: 9a26 2a3d 4a9c b53d 8804 32bd 4ed1 d2bc
00000320: aff9 d23d dac9 dbbc bf56 11bd e68a aa3d
00000330: 96fe 8d3c b5a7 f13d 2aad 2dbd 98fc 77bc
00000340: bdbb aabd 1c1b 4a3e d7de a03d 9de9 433e
00000350: d39f 6dbb 8580 1e3d c23e dc3d 3eb8 eb3b
00000360: a42a 2fbb 18e6 783d 26a2 edbc d7e0 0d3e
00000370: 79d3 2d3e 6ca6 55bd 3ab9 543d c981 073e
00000380: 1fe3 1cbc 32bd 0cbd f448 383e 925a ddbb
00000390: ad4c a63d 914f 0d3d 0388 803c 9fde 9cbd
000003a0: 54bf febd 9830 073d 2092 09be b2d5 02be
000003b0: 5613 dd3d 6054 ec3b 87f6 c9bc 8aba c53c
000003c0: 5a8b a63d 1e87 033e 63ac d63d 2bb0 333e
000003d0: edee f03b b887 aa3c 9871 7b3d 186c f93d
000003e0: f229 99bd bfdf 473d b9c7 7b3d 6fbd 103e
000003f0: 78c2 08be a05f af3c e643 e93d ad95 01bd
0.026424268 -0.04466794 0.15322693 -0.039993882 0.044326622 0.021075223 0.06642586 0.035379104
0.07305802 0.06507148 0.038681664 0.09550142 0.12457396 -0.005726526 0.073857486 0.14769691
0.053258512 -0.0049710507 0.023762483 -0.16566771 -0.09704476 0.07465824 -0.029345078 0.053512715
0.02347497 -0.13128431 0.066542074 -0.0062081246 0.09660518 -0.07280344 0.16345619 0.00564543
0.15852335 -0.114776045 -0.24088834 0.036906462 0.089794494 0.060199372 -0.06831585 0.21355096
0.12189134 0.20713636 -0.2955725 -0.23145534 -0.016028596 -0.03371602 0.0010261583 -0.13390268
0.13732204 0.0049058637 -0.14882916 0.0038797148 -0.041403364 0.0013674517 -0.014577453 0.10449987
-0.17411469 0.028121695 0.01866191 0.16513535 0.059591986 0.08053182 0.15853779 -0.09828073
0.07173255 0.020300115 0.17607374 0.11480332 -0.077539735 -0.12116197 0.12502618 0.013378958
-0.0027746032 -0.06741571 0.03657161 0.030720107 0.03228427 -0.12995492 -0.05099926 -0.0578396
0.16347837 0.051394142 -0.14321001 -0.07547877 0.10889716 0.08257026 0.15661135 0.10290456
-0.1194274 0.07637109 -0.040834166 -0.029412145 0.07554783 0.13921632 0.048239782 -0.06667972
0.04837402 -0.018051911 0.039023 -0.02082794 0.0803245 0.077189766 -0.111884035 -0.016411489
-0.16989864 0.09506424 -0.1607251 0.050163995 0.20559907 -0.033936102 0.050076503 0.1316661
0.13652566 0.09715369 0.021201631 -0.0116828885 0.014167145 0.11874984 0.059583824 0.06629671
-0.032050584 0.09850131 0.08767242 -0.041164618 0.1810868 -0.059083767 0.00040667082 0.04114815
0.054562517 0.009814452 -0.025914846 0.087051645 0.20095316 -0.010976583 -0.031423546 -0.09662975
0.117898874 0.23368646 0.121783175 -0.014386365 0.16592818 0.08707411 0.0070426203 -0.13437122
-0.10441835 0.013803192 0.19105513 0.26176503 -0.028315468 -0.028515412 0.10231157 -0.008160291
0.069572814 0.010450198 -0.09401573 0.05861437 0.0928024 0.10745955 -0.049767133 -0.24463676
0.029217768 0.1415288 0.08848201 -0.048864175 -0.03770792 0.026564334 0.037406415 -0.009809829
-0.15452449 0.051429834 -0.0348638 0.014403842 -0.12903574 0.07304087 0.11898318 0.057686634
0.1296033 0.13580024 -0.07542251 0.011344885 0.1693632 -0.058670085 0.017093372 -0.08517612
0.09203949 -0.072993875 -0.05244124 -0.012692293 -0.0011390692 0.006682707 0.14245088 0.10551737
0.031063175 0.09745409 -0.053723894 -0.018394822 0.04154072 0.088677004 -0.043461353 -0.02573457
0.103015296 -0.026829649 -0.03548312 0.08327274 0.01733331 0.11799566 -0.04240147 -0.015135907
-0.083365895 0.19736904 0.07855003 0.19132085 -0.0036258593 0.038696785 0.107541576 0.0071935942
-0.0026728297 0.06076631 -0.029007982 0.13855301 0.16975202 -0.052160665 0.05193446 0.13233103
-0.009575634 -0.03436012 0.1799658 -0.0067551816 0.081200935 0.03449971 0.015689855 -0.07659649
-0.12438837 0.033005327 -0.13434649 -0.12776831 0.10794704 0.0072122067 -0.024653686 0.0241368
0.08132048 0.12844512 0.10482099 0.17547671 0.007352701 0.020816669 0.06138763 0.1217882
-0.074787036 0.048797365 0.061469767 0.14134763 -0.13355434 0.021407902 0.11389904 -0.031636883

network_body.observation_encoder.processors.0.normalizer.running_mean f4 [25]
00000000: 0000 0000 0727 903d 18bd 3137 7073 493f
00000010: 5c02 693f 0000 0000 e298 113c ea6b c137
00000020: f809 5e3f 3009 723f 0000 0000 71d2 893c
00000030: edec 7a36 d13a 4a3f 9200 693f 0000 0000
00000040: 44a6 243c 0000 0000 af69 5f3f 35d9 713f
00000050: 0000 0000 44a6 243c 0000 0000 af69 5f3f
00000060: 35d9 713f
0.0 0.07038694 1.0594049e-05 0.7869177 0.91019225 0.0 0.008886548 2.3057644e-05
0.8673396 0.9454527 0.0 0.01682398 3.7390812e-06 0.78995997 0.91016495 0.0
0.010049406 0.0 0.87270635 0.94472057 0.0 0.010049406 0.0 0.87270635
0.94472057

network_body.observation_encoder.processors.1.normalizer.running_mean f4 [25]
00000000: 0000 0000 3874 b33d 1209 4438 e71e 123f
00000010: e8d6 543f 0000 0000 d8af 9c3d 57ff 8338
00000020: cdae 1b3f b7da 573f 0000 0000 9837 983d
00000030: 4843 4938 8fd8 103f ac9a 533f 0000 0000
00000040: 5314 523d 74f7 b637 78c1 2e3f f4fa 5e3f
00000050: 0000 0000 3e80 863d cee5 2938 7d7d 1b3f
00000060: ed4b 573f
0.0 0.08762401 4.673849e-05 0.57078403 0.8314042 0.0 0.07650727 6.2941275e-05
0.608136 0.8431811 0.0 0.07432479 4.7984795e-05 0.5658044 0.82657886 0.0
0.051288914 2.181132e-05 0.6826396 0.87101674 0.0 0.06567429 4.0506762e-05 0.60738355
0.8410023
