Assets/Training/results/Run 4/DroneBehavior/DroneBehavior-2499937.onnx (onnx, 661208 bytes, 19 tensors)

101 f4 [15]
0.0006324634 0.45414492 0.021656848 0.32559133 0.2994049 0.0006324634 0.09665839 0.0006324634
0.11361878 0.051981483 0.0006324634 0.09665839 0.0006324634 0.11361878 0.051981483
00000000: e6cb 253a af85 e83e b469 b13c e8b3 a63e
00000010: 994b 993e e6cb 253a d5f4 c53d e6cb 253a
00000020: f7b0 e83d 89ea 543d e6cb 253a d5f4 c53d
00000030: e6cb 253a f7b0 e83d 89ea 543d

104 f4 [25]
0.0006324634 0.29790312 0.0006324634 0.37293497 0.2046899 0.0006324634 0.035910152 0.0006324634
0.12048711 0.08317808 0.0006324634 0.14767855 0.0055497293 0.20645857 0.11321018 0.0006324634
0.027471485 0.0006324634 0.1689112 0.103976324 0.0006324634 0.027471485 0.0006324634 0.1689112
0.103976324
00000000: e6cb 253a c286 983e e6cb 253a 55f1 be3e
00000010: 3b9a 513e e6cb 253a 8616 133d e6cb 253a
00000020: f2c1 f63d 4559 aa3d e6cb 253a 0c39 173e
00000030: 81da b53b e069 533e bdda e73d e6cb 253a
00000040: e10b e13c e6cb 253a 0ff7 2c3e 8af1 d43d
00000050: e6cb 253a e10b e13c e6cb 253a 0ff7 2c3e
00000060: 8af1 d43d

107 f4 [3]
11.853646 1.4485662 17.529495
00000000: 89a8 3d41 9e6a b93f 683c 8c41

95 f4 [25]
0.0006324634 0.31051463 0.026150584 0.49664012 0.32888767 0.0006324634 0.34030727 0.034737673
0.48872373 0.30627233 0.0006324634 0.34189692 0.028702566 0.48757425 0.29941484 0.0006324634
0.29901934 0.017625714 0.45525578 0.2774306 0.0006324634 0.29901934 0.017625714 0.45525578
0.2774306
00000000: e6cb 253a c6fb 9e3e c039 d63c 9d47 fe3e
00000010: f763 a83e e6cb 253a c13c ae3e 1749 0e3d
00000020: ff39 fa3e bacf 9c3e e6cb 253a 1d0d af3e
00000030: a521 eb3c 55a3 f93e e74c 993e e6cb 253a
00000040: 1019 993e cd63 903c 4917 e93e 620b 8e3e
00000050: e6cb 253a 1019 993e cd63 903c 4917 e93e
00000060: 620b 8e3e

98 f4 [55]
0.0006324634 0.28576797 0.0006324634 0.43333265 0.27305782 0.0006324634 0.17639199 0.0006324634
0.41239348 0.26558593 0.0006324634 0.17937359 0.008074403 0.4205931 0.26874733 0.0006324634
0.028964423 0.020866523 0.36205015 0.20004168 0.0006324634 0.12204892 0.0119656185 0.4022796
0.21101183 0.0006324634 0.02201156 0.008099103 0.24623866 0.13127616 0.0006324634 0.12426083
0.018746948 0.3510128 0.17578517 0.0006324634 0.010314259 0.0020976386 0.32157293 0.14989871
0.0006324634 0.033757295 0.009010709 0.36833557 0.18043296 0.0006324634 0.0006324634 0.001549211
0.38608456 0.16431923 0.0006324634 0.0006324634 0.001549211 0.38608456 0.16431923
00000000: e6cb 253a 2e50 923e e6cb 253a c7dd dd3e
00000010: 3cce 8b3e e6cb 253a 1aa0 343e e6cb 253a
00000020: 3d25 d33e e1fa 873e e6cb 253a b6ad 373e
00000030: 804a 043c fb57 d73e 4099 893e e6cb 253a
00000040: cc46 ed3c 45f0 aa3c a35e b93e bad7 4c3e
00000050: e6cb 253a c9f4 f93d 710b 443c 97f7 cd3e
00000060: 7c13 583e e6cb 253a 9651 b43c 1ab2 043c
00000070: fd25 7c3e 426d 063e e6cb 253a 767c fe3d
00000080: 3393 993c f3b7 b33e 0701 343e e6cb 253a
00000090: 23fd 283c 8978 093b 35a5 a43e 0c7f 193e
000000a0: e6cb 253a 1745 0a3d a7a1 133c 7b96 bc3e
000000b0: 6bc3 383e e6cb 253a e6cb 253a e50e cb3a
000000c0: e0ac c53e 4d43 283e e6cb 253a e6cb 253a
000000d0: e50e cb3a e0ac c53e 4d43 283e

action_model._continuous_distribution.log_sigma f4 [1, 3]
0.024357226 0.020608427 0.010783776
00000000: ce88 c73c 01d3 a83c 6fae 303c

action_model._continuous_distribution.mu.bias f4 [3]
-0.0009792898 -0.010428703 0.009830225
00000000: 835b 80ba 27dd 2abc f40e 213c

action_model._continuous_distribution.mu.weight f4 [3, 256]
-0.0110650845 -0.00037508132 -0.027289255 0.021276446 0.004195969 0.010795258 0.007064581 0.007065186
0.017550051 0.019362554 -0.0055443333 -0.012772946 -0.008140641 -0.014064381 0.0013323835 -0.018784283
0.015837977 0.013457758 0.033178568 0.01903719 -0.004238345 0.047581647 0.024310166 -0.026458293
-0.0021977113 -0.013884295 0.02661659 -0.00814767 0.00025698997 0.024923753 0.014291265 -0.0041787326
0.03483743 -0.00931057 -0.0029853852 -0.03143578 0.007397561 -0.020871123 -0.016473461 -0.0046989117
0.010465154 0.021599403 -0.013350726 -0.024085185 0.020507658 -0.021025354 0.008436675 0.033148445
0.00033035415 -0.041282002 -0.014501355 0.014517363 -0.0098882 -0.013903576 -0.011530111 -0.029135386
-0.0038330455 -0.0018711652 0.01966543 -0.03137684 0.03222643 -0.016053446 0.045585196 -0.017514765
-0.0019334728 -0.036841832 -0.027411344 0.011035521 -0.044055652 -0.009799326 -0.0011639027 0.0127806505
-0.052081604 0.019416546 -0.009004222 -0.040287826 -0.018663123 0.009085598 -0.0012821603 -0.025987772
-0.0110677825 0.023374705 -0.01998719 0.032652277 -0.017375756 0.018889105 0.03192978 -0.004277002
-0.019407691 -0.02008655 -0.007840539 -0.027626982 -0.029177822 -0.0004328334 0.042195804 3.0667507e-05
0.013323743 -0.02748782 0.00972253 -0.0021422196 -0.025078166 -0.041308608 -0.017594567 0.0043242695
-0.025718551 -0.017355511 0.011976124 -0.015284019 0.03465567 0.020030323 0.004042471 0.03528306
-0.001695163 -0.008803518 -0.013791958 0.006819682 0.033607956 -0.018532323 -0.0362915 0.015057084
0.01091819 0.04020651 0.015879506 -0.020237401 0.048983235 -0.01743578 0.023665432 0.033134375
-0.020980522 -0.0028489165 -0.021350835 -0.011276646 -0.0025926165 0.022227233 0.0114591 0.006720628
-0.011515673 0.014951666 -0.0034066567 0.033609122 0.0329312 0.047589485 -0.0021414598 0.015475901
-0.025713777 0.015557097 -0.011722891 0.009989228 -0.03355595 -0.00072903826 -0.023416122 -0.016970132
-0.021797333 -0.010277585 -0.0076903445 -0.022687536 -0.018055081 -0.010384422 -0.010504589 0.0012374542
-0.012993912 0.02439904 0.014245125 -0.006518947 -0.020707475 -0.051844295 0.005101674 -0.017257093
0.025626425 -0.008738267 0.013308814 0.009577005 0.012813943 0.012986347 0.013114856 0.04873741
0.023811737 0.042073246 0.025513953 -0.010943255 0.015824761 0.025101038 0.0007884833 -0.021883527
0.04790512 0.023359707 -0.0064983405 -0.0028470964 0.00073440175 0.018370686 -0.006121859 0.025942657
-0.0043506618 0.0063157207 -0.013363105 -0.0043700733 0.015999814 -0.005506322 -0.0109606115 -0.0010792357
-0.014407421 -0.016337018 -0.04248789 -0.0014990884 0.0017817003 -0.019355588 -0.013736153 -0.015555125
-0.017410314 0.01758226 -0.00051711686 -0.009848574 -0.029790755 0.031823378 0.011608936 0.00891158
-0.023339402 -0.020363003 0.020702366 -0.0064162775 -0.022666892 -0.009484384 0.0023801283 0.01539208
0.033164885 0.0190966 -9.218782e-05 -0.024624985 0.015003905 0.01535675 0.007498107 -0.018697934
0.026745288 0.0049563027 0.01878078 -0.0022463873 0.019228311 -0.010618595 -0.0063848114 0.016094849
-0.035051424 -0.019475998 -0.007554119 -0.005488671 -0.008865442 -0.016567238 0.05630313 0.003594863
0.018150637 0.043508053 -0.02346556 0.039465237 0.0019236807 0.02356535 -0.02195151 -0.016697863
00000000: 544a 35bc 90a6 c4b9 b78d dfbc f14b ae3c
00000010: 577e 893b 98de 303c 007e e73b 1383 e73b
00000020: 20c5 8f3c 389e 9e3c 3dad b5bb 9e45 51bc
00000030: 5360 05bc 4a6e 66bc 5fa3 ae3a 7fe1 99bc
00000040: a5be 813c ee7d 5c3c 40e6 073d e2f3 9b3c
00000050: d1e1 8abb f9e4 423d 1d26 c73c 10bf d8bc
00000060: 7a07 10bb f47a 63bc 090b da3c ce7d 05bc
00000070: 9cbc 8639 e62c cc3c e925 6a3c c0ed 88bb
00000080: b1b1 0e3d 5c8b 18bc 74a6 43bb cec2 00bd
00000090: 3d67 f23b ebf9 aabc 5af3 86bc 54f9 99bb
000000a0: 0a76 2b3c 3bf1 b03c 01bd 5abc 4b4e c5bc
000000b0: adff a73c 5d3d acbc fb39 0a3c aac6 073d
000000c0: 6233 ad39 5117 29bd 1797 6dbc 3cda 6d3c
000000d0: 1e02 22bc d3cb 63bc cae8 3cbc 55ad eebc
000000e0: d533 7bbb e341 f5ba 6519 a13c 0085 00bd
000000f0: dcff 033d 8482 83bc 8bb7 3a3d 207b 8fbc
00000100: 956c fdba 76e7 16bd c18d e0bc 54ce 343c
00000110: b373 34bd 5a8d 20bc 188e 98ba ef65 513c
00000120: 8553 55bd 730f 9f3c 7286 13bc d904 25bd
00000130: 68e3 98bc c3db 143c 290e a8ba 4fe4 d4bc
00000140: a555 35bc 4f7c bf3c 2dbc a3bc 65be 053d
00000150: 9a57 8ebc 53bd 9a3c cdc8 023d 1826 8cbb
00000160: e1fc 9ebc 8c8c a4bc 9b75 00bc fb51 e2bc
00000170: 5406 efbc eaed e2b9 82d5 2c3d fca0 0038
00000180: d44b 5a3c 232e e1bc 3f4b 1f3c 7b64 0cbb
00000190: ba70 cdbc 3733 29bd 7b22 90bc 9ab2 8d3b
000001a0: b6af d2bc 252d 8ebc 8137 443c d269 7abc
000001b0: 1bf3 0d3d a216 a43c b476 843b f884 103d
000001c0: 3b30 deba a13c 10bc aaf7 61bc a477 df3b
000001d0: 7fa8 093d 19d1 97bc 65a6 14bd fdb1 763c
000001e0: 35e2 323c 95af 243d bd15 823c e8c8 a5bc
000001f0: a5a2 483d 7bd5 8ebc 02de c13c e9b7 073d
00000200: 58df abbc e3b4 3abb f2e7 aebc aec1 38bc
00000210: e3e8 29bb e315 b63c f3be 3b3c b738 dc3b
00000220: 3cac 3cbc d5f7 743c 3742 5fbb b8a9 093d
00000230: dee2 063d 31ed 423d bc57 0cbb a28e 7d3c
00000240: b3a5 d2bc 32e3 7e3c 5e11 40bc dca9 233c
00000250: f771 09bd ee1c 3fba 2bd3 bfbc f204 8bbc
00000260: 5290 b2bc 5163 28bc 49ff fbbb 36db b9bc
00000270: 40e8 93bc 6c23 2abc 711b 2cbc 1332 a23a
00000280: 6be4 54bc 7fe0 c73c 6364 693c e49c d5bb
00000290: b9a2 a9bc af5a 54bd f12b a73b bf5e 8dbc
000002a0: 82ee d13c f32a 0fbc 360d 5a3c dfe8 1c3c
000002b0: 93f1 513c b0c4 543c b1df 563c e1a0 473d
000002c0: d510 c33c ff54 2c3d a302 d13c 574b 33bc
000002d0: eea2 813c b1a0 cd3c 38b2 4e3a 1545 b3bc
000002e0: 2938 443d db5c bf3c 08f0 d4bb 5a96 3abb
000002f0: de84 403a 1f7e 963c e099 c8bb b285 d43c
00000300: ff8f 8ebb 1bf4 ce3b edf0 5abc d532 8fbb
00000310: 0b12 833c 606e b4bb 2394 33bc 2475 8dba
00000320: 1b0d 6cbc 36d5 85bc c807 2ebd 0f7d c4ba
00000330: f187 e93a 9c8f 9ebc 9a0d 61bc ecda 7ebc
00000340: 13a0 8ebc ac08 903c 208f 07ba ea5b 21bc
00000350: be0b f4bc 3b59 023d 6833 3e3c e001 123c
00000360: 4632 bfbc 50d0 a6bc 0298 a93c a33f d2bb
00000370: ebaf b9bc 6464 1bbc edfb 1b3b 102f 7c3c
00000380: e7d7 073d 7970 9c3c f654 c1b8 56ba c9bc
00000390: f0d2 753c e19a 7b3c aeb2 f53b 692c 99bc
000003a0: ef18 db3c 7b68 a23b 26da 993c 2038 13bb
000003b0: b184 9d3c 9ef9 2dbc ae37 d1bb 58d9 833c
000003c0: 1592 0fbd 218c 9fbc 8b88 f7bb 4fda b3bb
000003d0: 5c40 11bc 04b8 87bc 1c9e 663d cb97 6b3b
000003e0: a5b0 943c 8035 323d d93a c0bc 4da6 213d
000003f0: 0324 fc3a 1f0c c13c a7d3 b3bc f5c9 88bc

network_body._body_endoder.seq_layers.0.bias f4 [256]
0.0034282396 0.00015935887 0.015188711 0.00485798 0.0074301753 0.017324816 0.010616064 -0.013693872
0.0035636728 0.00831392 0.02514993 -0.009607227 0.0064562922 0.011403444 0.018528039 0.0067380904
0.0057696966 0.0014677088 -0.011748061 -0.0034289327 0.009633197 0.009973969 0.018083338 -0.0036708745
-0.005193384 0.010802459 0.019989708 0.020992676 0.023025917 -0.0015958549 0.027397327 0.007103056
-0.015820047 0.018097354 0.014548323 0.004577884 -0.00062841014 0.016703099 -0.0010178006 0.012171039
-0.0072212853 0.00057951204 -0.013803235 0.0049101957 0.018765273 0.0017060686 0.0014494767 -0.0010628054
0.009471512 0.02136893 -0.0156165855 0.0021703057 0.018522993 0.02724551 0.026252912 0.0013629111
0.036572747 -0.018786721 -0.003727605 0.0037941115 0.019069003 -0.0013707952 0.019606853 0.029419666
0.03666502 0.02051449 0.00015688785 -0.013645903 0.026316652 0.004719143 -0.012728385 0.0053470377
0.041018635 0.020315425 -0.0036961515 0.025629325 0.009480068 0.031331964 -0.0026598321 -0.0027312355
0.013497842 0.0071636164 0.016230933 0.017718103 0.026232082 0.0008880605 0.005219125 0.010962348
0.005874072 -0.012311387 0.012023012 0.0062658163 0.03184065 0.025904713 -0.020266712 -0.00019360405
0.023144431 0.011883155 0.0068793315 0.00885467 -0.0023981414 -0.013323173 -0.0049990686 0.0016921515
0.0066589 0.012802187 0.012262468 0.005971852 0.004906958 0.0374348 0.002667337 -3.597769e-05
0.013957496 0.020835137 0.010941791 0.032568168 -0.023660054 0.011928524 0.018621271 0.017083427
-4.166605e-05 -0.0044204965 0.006326235 0.0014498086 0.023274634 0.009547541 0.0077486606 -0.0025471712
0.012951083 0.010212109 0.007525552 0.00045586904 -0.0027627468 -0.004178619 0.008035941 -0.015168447
-0.012371095 0.0060074124 -0.008456132 0.026791427 0.027741987 0.0005959385 0.011137897 0.0037069004
0.0014854976 0.03612581 0.009105397 0.0038150505 0.007611879 -0.027007662 0.015198431 0.007280242
0.0066809775 0.010906829 0.0236286 0.004803531 0.018250596 0.015749788 0.0053058616 -0.0023927086
0.0028670495 0.013305607 0.0153053105 0.003497613 -0.00065818074 0.010705588 0.0063141063 0.012827664
0.011014937 0.004794511 0.009158938 0.009539451 0.013040283 0.006605463 0.030280486 0.008570325
0.0069168364 -0.0013734188 0.01113318 0.012722403 0.0035681801 0.015966786 0.0021898667 0.012199371
-0.0035213637 0.0227311 0.0034140937 0.022106897 -0.0011586222 -0.016880851 -0.0006511753 0.01270126
0.02238109 0.011906805 0.014328055 -0.014158048 -0.0061586197 -0.006914664 0.0054259473 0.005713334
0.004583222 0.015063945 -0.012770956 0.012744399 0.016291894 -0.0024893382 0.00975668 -0.00018771098
-0.012856277 0.0031667182 0.0072134524 0.01075952 0.025896115 0.011294547 0.026000157 -0.01232697
0.014849436 0.0016218162 0.0015638772 0.018073203 -0.0024637033 0.023543002 0.012618581 0.0056696357
0.007577802 0.025177117 0.010936561 0.011505312 0.0203993 0.001246808 0.015564787 0.027652716
0.00032425966 -0.010221606 -0.010212656 0.023972321 0.0016542502 0.0059352024 0.0122116525 0.0077506225
0.006127255 0.023153236 0.019360438 0.008410516 -0.00047434506 -0.0014129098 -0.0004116799 0.02862711
-0.021411268 0.010156707 -0.0017487076 -0.0014690891 0.032767605 0.0052659074 -0.0042240736 -0.0019221111
00000000: 51ac 603b 9219 2739 12da 783c b12f 9f3b
00000010: d478 f33b c6ec 8d3c 00ef 2d3c 435c 60bc
00000020: 828c 693b 1c37 083c 3a07 ce3c a167 1dbc
00000030: 4e8f d33b 83d5 3a3c 1dc8 973c 33cb dc3b
00000040: b90f bd3b 2360 c03a f07a 40bc f2b7 60bb
00000050: 8fd4 1d3c dc69 233c 8223 943c 0e93 70bb
00000060: 432d aabb ccfc 303c 75c1 a33c d5f8 ab3c
00000070: d9a0 bc3c 012c d1ba 5c70 e03c c1c0 e83b
00000080: 0b99 81bc e740 943c 175c 6e3c 1302 963b
00000090: e4bb 24ba f0d4 883c b967 85ba 0a69 473c
000000a0: 88a0 ecbb 65ea 173a f726 62bc b5e5 a03b
000000b0: a1b9 993c 2a9e df3a 5efc bd3a d54d 8bba
000000c0: 672e 1b3c e50d af3c b5dc 7fbc b03b 0e3b
000000d0: 88bd 973c fa31 df3c 5910 d73c b5a3 b23a
000000e0: 4ecd 153d 9ce6 99bc d64a 74bb a1a6 783b
000000f0: 9936 9c3c 41ac b3ba 8d9e a03c 8301 f13c
00000100: 0f2e 163d 010e a83c 4382 2439 1193 5fbc
00000110: 0596 d73c 0aa3 9a3b b78a 50bc 3436 af3b
00000120: 2803 283d 896c a63c 223b 72bb 97f4 d13c
00000130: 4a52 1b3c f255 003d 9450 2ebb 87fe 32bb
00000140: 0d26 5d3c c5bc ea3b bcf6 843c 8e25 913c
00000150: aae4 d63c bbcc 683a 3205 ab3b 6c9b 333c
00000160: 4a7b c03b b3b5 49bc 2bfc 443c 7a51 cd3b
00000170: 576b 023d 1f36 d43c 6006 a6bc 3102 4bb9
00000180: 6499 bd3c 91b1 423c 046c e13b 2e13 113c
00000190: 232a 1dbb 7049 5abc 3acf a3bb 2fcb dd3a
000001a0: e732 da3b 44c0 513c 85e8 483c 87af c33b
000001b0: 8cca a03b 3c55 193d 7dce 2e3b c0e6 16b8
000001c0: fbad 643c 73ae aa3c 3345 333c 3366 053d
000001d0: bbd2 c1bc db6f 433c a38b 983c 8bf2 8b3c
000001e0: 95c2 2eb8 d0d9 90bb 4e4c cf3b 8107 be3a
000001f0: 72aa be3c 4a6d 1c3c 7ae8 fd3b 71ee 26bb
00000200: c730 543c b150 273c e898 f63b b501 ef39
00000210: 330f 35bb ccec 88bb 2ea9 033c 1485 78bc
00000220: 22b0 4abc d4d9 c43b 978b 0abc b279 db3c
00000230: 2a43 e33c c138 1c3a ba7b 363c 78ef 723b
00000240: 07b5 c23a a8f8 133d ce2e 153c ed05 7a3b
00000250: 126d f93b 2c3f ddbc d702 793c 198f ee3b
00000260: 1aec da3b 8eb2 323c c490 c13c f066 9d3b
00000270: 4682 953c b305 813c cbdc ad3b fdce 1cbb
00000280: 1ce5 3b3b c3ff 593c 20c3 7a3c 3538 653b
00000290: c389 2cba 7e66 2f3c 90e6 ce3b 1f2b 523c
000002a0: ff77 343c 461b 9d3b 5f0f 163c 5c4b 1c3c
000002b0: e9a6 553c a472 d83b c80e f83c 8c6a 0c3c
000002c0: a1a6 e23b 4a04 b4ba f167 363c a071 503c
000002d0: 21d8 693b c7cc 823c de83 0f3b dfdf 473c
000002e0: aec6 66bb 9236 ba3c fdbe 5f3b 8619 b53c
000002f0: e9dc 97ba b649 8abc a2b3 2aba f218 503c
00000300: 8c58 b73c c314 433c 38c0 6a3c 28f7 67bc
00000310: 3fce c9bb 6894 e2bb 25cc b13b eb36 bb3b
00000320: da2e 963b c4ce 763c 463d 51bc e2cd 503c
00000330: 9476 853c 2a24 23bb 7bda 1f3c 48d4 44b9
00000340: 22a3 52bc b788 4f3b d35e ec3b b348 303c
00000350: 1724 d43c c30c 393c 48fe d43c 0ff7 49bc
00000360: 0c4b 733c 1f93 d43a 03fb cc3a 410e 943c
00000370: 1576 21bb 41dd c03c 2abe 4e3c 5ac8 b93b
00000380: 364f f83b 3e40 ce3c 432f 333c c780 3c3c
00000390: 6f1c a73c ef6b a33a 7303 7f3c f387 e23c
000003a0: 6501 aa39 8678 27bc fc52 27bc 9a61 c43c
000003b0: 6dd3 d83a 167c c23b 6213 483c eff8 fd3b
000003c0: 24c7 c83b dbab bd3c c899 9e3c 43cc 093c
000003d0: 84b1 f8b9 6331 b9ba bed6 d7b9 6783 ea3c
000003e0: af66 afbc 5168 263c e434 e5ba 738e c0ba
000003f0: 5337 063d a28d ac3b 196a 8abb 59ef fbba

network_body._body_endoder.seq_layers.0.weight f4 [256, 123]
0.100861154 0.033393912 -0.049294427 -0.049779747 -0.10777198 -0.031356126 -0.032503992 -0.2085791
-0.031230848 0.046478935 -0.004952408 -0.059340786 0.18049225 -0.01876952 -0.00496692 0.059063394
0.08716307 0.06043348 -0.032366667 0.028443439 -0.05654827 -0.09053699 0.042424243 -0.035676308
-0.13785662 -0.026864592 0.0054762787 -0.09343164 -0.1191899 -0.013004748 -0.0578806 0.087359056
0.1317387 -0.020692367 -0.16009244 -0.045682274 0.09563742 -0.010093151 -0.111391544 -0.18760933
-0.08588158 -0.061289266 0.004638928 -0.04144608 0.017986992 -0.06691338 0.014839305 -0.12499454
0.016244214 0.019134477 0.028829655 0.104173295 0.026035547 0.0005656833 -0.054076307 -0.05074495
0.10892553 0.0060219616 -0.0495542 -0.09922434 -0.12022458 -0.10589441 -0.037903495 0.026212575
-0.028212884 0.26032448 -0.043175075 -0.1263298 0.13770546 -0.06952287 -0.0011426184 0.030688548
-0.1274537 -0.012118402 -0.06120794 0.059671715 -0.2647318 0.0032333648 -0.0022853103 0.2971384
0.22893526 0.0021217705 0.006991231 -0.0378129 0.120942734 0.08950096 -0.053613048 -0.113350675
0.056253992 -0.06925792 -0.09662843 -0.048082422 0.09927774 0.23529051 -0.03868934 -0.023406155
0.051563136 0.06440399 0.1748739 0.023348896 0.09131426 -0.022987384 -0.15682201 0.0010685337
0.18035753 -0.03084809 -0.01218646 -0.023951372 0.045758154 -0.05538834 0.008347012 -0.13052446
-0.027755702 0.0066358186 0.039879084 -0.09586039 0.18271297 0.061971594 0.13463604 0.012093601
0.13261995 -0.16879226 0.11054353 -0.003204269 -0.033501234 0.08140422 -0.19358669 0.13758773
-0.048658427 0.009717601 0.13428903 0.039267935 0.039939985 -0.070883945 0.011510313 -0.030225191
-0.050885938 -0.09437064 -0.023349173 0.2536992 -0.059946902 0.08745187 0.054561164 0.06594194
0.005921279 -0.0956704 -0.14795665 0.10316689 -0.027308162 0.18667862 -0.06395202 0.026494779
-0.09915652 -0.022031624 0.06254691 -0.009907949 -0.059582446 -0.14668983 -0.04087027 -0.026081393
0.078544535 0.08840827 0.08601958 0.018914156 -0.15025765 0.069181204 -0.032464076 -0.026548844
0.09235769 0.047384113 -0.060045242 0.14867966 -0.09391002 -0.06656698 -0.0059447796 0.08909483
0.020912874 -0.061523393 0.14740825 -0.085475765 0.04154251 0.032894522 0.004518642 0.18497369
-0.016339395 -0.020619415 -0.072341554 -0.08678462 0.0125647625 -0.103295594 -0.068183534 -0.06427093
-0.102485016 0.20178524 0.04282443 0.135931 -0.010402505 0.12835684 -0.08053031 -0.010176808
0.17038837 0.044085704 -0.119881205 0.10386218 -0.043056026 -0.009625798 0.01026332 -0.0721588
0.1424966 -0.01751839 0.034644365 0.2834377 -0.041310005 -0.051168144 -0.055909585 0.0357565
-0.14423655 0.005066893 -0.016642861 -0.03217694 0.010888559 -0.02745904 0.08404111 -0.034676366
-0.1382963 -0.076603115 0.051155128 -0.09940049 0.04717372 0.004321935 0.0024586096 0.009775404
0.022862619 -0.10566218 -0.13360654 -0.0008822303 -0.22188339 0.19165419 0.038063217 -0.13221146
0.003584683 0.032824066 -0.18557896 -0.0672157 -0.10764603 -0.08383924 0.06693631 -0.06491366
-0.068933144 0.03638744 0.020203805 0.05726073 -0.01045082 0.07159489 0.15504822 0.0038691468
00000000: 4b90 ce3d 0ec8 083d f4e8 49bd d9e5 4bbd
00000010: 8eb7 dcbd 486f 00bd e822 05bd c295 55be
00000020: d6d7 ffbc b260 3e3d cf47 a2bb 530f 73bd
00000030: f6d2 383e 89c2 99bc 8bc1 a2bb 75ec 713d
00000040: 8d82 b23d 1989 773d e992 04bd 3702 e93c
00000050: 299f 67bd 756b b9bd 0bc5 2d3d 5221 12bd
00000060: 492a 0dbe 2213 dcbc 5b72 b33b 1659 bfbd
00000070: d619 f4bd de11 55bc 3514 6dbd 4ee9 b23d
00000080: 83e6 063e 0a83 a9bc 46ef 23be 561d 3bbd
00000090: 8ddd c33d be5d 25bc 4021 e4bd a91c 40be
000000a0: afe2 afbd 740a 7bbd 2602 983b 5dc3 29bd
000000b0: 7559 933c e209 89bd 8e20 733c 23fd ffbd
000000c0: 9612 853c e8bf 9c3c 2b2c ec3c cf58 d53d
000000d0: 8048 d53c 5d4a 143a 1e7f 5dbd f0d9 4fbd
000000e0: 5914 df3d e053 c53b 58f9 4abd 2136 cbbd
000000f0: 4e38 f6bd 2bdf d8bd b240 1bbd c1bb d63c
00000100: b51e e7bc 4049 853e 59d8 30bd 995c 01be
00000110: a902 0d3e 0262 8ebd e9c3 95ba 8d66 fb3c
00000120: 3983 02be 438c 46bc 2db5 7abd 546a 743d
00000130: ed8a 87be dce6 533b 25c5 15bb 8622 983e
00000140: 016e 6a3e 670d 0b3b b216 e53b b3e1 1abd
00000150: d3b0 f73d 484c b73d 5b99 5bbd 6624 e8bd
00000160: 966a 663d 19d7 8dbd 20e5 c5bd 13f2 44bd
00000170: 2152 cb3d ffef 703e b778 1ebd 44be bfbc
00000180: de33 533d 3de6 833d 2512 333e 2f46 bf3c
00000190: f902 bb3d 0a50 bcbc f395 20be 0b0e 8c3a
000001a0: a5af 383e 22b5 fcbc b8a9 47bc ab35 c4bc
000001b0: e76c 3b3d e2de 62bd e8c1 083c 34a8 05be
000001c0: ed5f e3bc 4871 d93b 4058 233d 7452 c4bd
000001d0: 1c19 3b3e edd5 7d3d 08de 093e 3d24 463c
000001e0: 86cd 073e e1d7 2cbe a564 e23d b7fe 51bb
000001f0: 9738 09bd 41b7 a63d 973b 46be cce3 0c3e
00000200: 0f4e 47bd 9336 1f3c 1083 093e 6ad7 203d
00000210: 1c98 233d 9a2b 91bd c095 3c3c d29a f7bc
00000220: c66d 50bd 6545 c1bd c446 bfbc dde4 813e
00000230: e28a 75bd f719 b33d 877b 5f3d 910c 873d
00000240: 4a07 c23b d8ee c3bd f381 17be 2a49 d33d
00000250: 5eb5 dfbc ae28 3f3e 47f9 82bd 940b d93c
00000260: 9312 cbbd aa7b b4bc 9818 803d f354 22bc
00000270: b90c 74bd dc35 16be 9667 27bd a5a8 d5bc
00000280: f5db a03d 650f b53d 092b b03d dcf1 9a3c
00000290: 24dd 19be e0ae 8d3d 0df9 04bd f67c d9bc
000002a0: 0726 bd3d d815 423d 00f2 75bd 7b3f 183e
000002b0: e653 c0bd 4554 88bd 6dcc c2bb 5a77 b63d
000002c0: 7a51 ab3c f4ff 7bbd 30f2 163e eb0d afbd
000002d0: 7b28 2a3d 68bc 063d 1e11 943b be69 3d3e
000002e0: 32da 85bc 0cea a8bc cf27 94bd 23bc b1bd
000002f0: 6fdc 4d3c a48c d3bd cfa3 8bbd 7aa0 83bd
00000300: aae3 d1bd caa0 4e3e ab68 2f3d 7f31 0b3e
00000310: 456f 2abc fa6f 033e 13ed a4bd a0bc 26bc
00000320: 4a7a 2e3e 3693 343d 4784 f5bd b2b5 d43d
00000330: 845b 30bd 86b5 1dbc 7c27 283c fec7 93bd
00000340: a1ea 113e ba82 8fbc 40e7 0d3d bf1e 913e
00000350: ae34 29bd b095 51bd 7301 65bd 6875 123d
00000360: bfb2 13be 2e08 a63b 9c56 88bc f8cb 03bd
00000370: ed65 323c c8f1 e0bc bf1d ac3d ce08 0ebd
00000380: 8c9d 0dbe 18e2 9cbd 0a88 513d 7c92 cbbd
00000390: 3b39 413d 059f 8d3b a020 213b 0429 203c
000003a0: 634a bb3c 6a65 d8bd 27d0 08be 7945 67ba
000003b0: 6635 63be ff40 443e 2de8 1b3d 7162 07be
000003c0: 00ed 6a3b 8772 063d 6908 3ebe 63a8 89bd
000003d0: 8675 dcbd e8b3 abbd e715 893d 74f1 84bd
000003e0: d22c 8dbd ff0a 153d 7382 a53c 3a8a 6a3d
000003f0: eb39 2bbc 57a0 923d f6c4 1e3e 8391 7d3b

network_body._body_endoder.seq_layers.2.bias f4 [256]
-0.0050473963 0.002144874 0.014494562 0.009822443 -0.0026441668 -0.0021755004 0.017243424 -0.0026262559
0.009957199 0.017793618 0.010245904 0.00019108415 -0.0053000916 -0.006213232 -0.0007022449 0.003638725
-0.0022980182 -0.000901264 0.010034033 0.010849394 0.0013715116 0.004122391 0.014399004 0.0073477314
0.011018769 0.01944245 0.010475998 0.023961874 0.021064661 0.011496948 -0.00431563 0.0034872135
-0.008632721 -0.0006101818 0.0060048564 0.013659094 0.009506304 0.019998975 0.005123679 0.011768574
-0.0058047515 -0.0060524936 -0.00016971587 0.020723961 0.014809451 0.021335272 0.018062303 0.014815772
-0.0044348296 0.0033172683 0.011337068 -0.016172888 0.006082589 0.025175508 0.011343241 0.0059050596
0.0145216165 0.0033595366 0.0037244565 -0.010764703 -0.0004602295 -0.0016826437 0.0076616122 0.012772206
0.0072587566 0.008612332 0.0009919411 0.009690824 -0.016121889 -0.012817257 0.024761532 -0.0020696796
0.015179787 -0.012313075 -0.000954067 0.008435482 -0.0021508327 -0.002991581 0.026843933 -0.0040283776
0.012047692 0.014952883 0.011123149 0.023055132 0.01588349 0.012477928 -0.014123205 -0.0025489475
0.00985932 0.003988193 -0.011060012 0.00787861 -0.008808507 0.014072674 0.0112175485 -0.01070794
0.013319185 0.028927907 -0.007907591 0.015270017 0.011263932 -0.0031031799 0.008928438 -0.0028402347
0.010554088 0.0072804447 0.008501139 0.019836636 0.003433809 0.016762806 0.011784781 0.004812317
0.009323555 0.011563784 -0.0059418906 0.0072972756 -0.010236596 0.004150441 -0.0030638136 0.019721162
0.018623738 -0.010062131 0.0018011935 0.024438161 0.008395083 -0.0031352309 -0.0048188814 0.007911651
0.018140566 0.014849667 -0.0022301262 -0.0019138721 0.013864804 0.009250868 -0.00090604956 -0.013197688
0.008382009 -0.002464073 -0.0054236874 0.02226099 -0.027552703 -0.001382125 3.805392e-05 0.038746405
-0.008053336 0.021011049 0.018839013 0.010039625 -0.014042547 0.018170236 0.0051636766 0.0021224741
-0.014195104 -0.00062583416 0.003362478 0.02177157 -0.020857334 0.008356532 -0.0113958875 0.01214083
-0.0034974832 0.023437215 0.017916663 0.0045186547 -0.012574366 -0.006223017 -0.016216045 0.0020084113
-0.005899241 -0.0012493203 0.007426859 0.014691681 0.0029533461 0.012206775 0.013023903 0.009418624
0.0063297693 -0.0039096186 0.0029680124 0.0057960516 -0.017684957 0.0014517208 0.014499925 0.018051587
0.03162918 -0.0010080949 0.011909185 -0.003439999 -0.003073782 0.020556474 0.013569127 -0.016430369
-0.02453633 0.0012984945 -0.0034321374 -0.0009666817 0.021611847 0.016470376 0.0011809962 0.009438485
0.02584045 -0.007528427 0.019089151 0.009981205 0.015772158 0.008158472 0.0026437694 -0.0076032663
-0.010680192 0.009308348 0.022693431 0.0041458984 0.012608654 0.030377526 0.024577562 0.017482309
0.004988505 -0.0033535608 0.0109155495 0.00067811203 0.007563231 0.010780578 0.020755373 -0.0009217709
-0.0022712632 0.01192913 0.0047183186 3.8053062e-05 -0.0015444813 0.008972993 0.017662823 0.021044979
0.023508571 0.007508263 -0.0058578406 0.007073807 0.004917636 0.0031447227 0.017918026 0.034203045
0.009315582 0.0077088866 0.011559176 -0.00019218826 0.018309474 0.0016687359 0.02244605 -0.011236044
-0.00046434696 0.0007904893 -0.01671239 0.008794293 -0.0018549922 -0.0018988382 0.02436779 0.018397765
00000000: a164 a5bb 0491 0c3b 997a 6d3c 50ee 203c
00000010: c249 2dbb d792 0ebb 1542 8d3c 431d 2cbb
00000020: 8523 233c ecc3 913c 70de 273c c35d 4839
00000030: 64ac adbb 5e98 cbbb dc16 38ba ad77 6e3b
00000040: 599a 16bb ce42 6cba c965 243c a8c1 313c
00000050: 4bc4 b33a 1f15 873b cde9 6b3c 3dc5 f03b
00000060: 1188 343c c645 9f3c 85a3 2b3c b14b c43c
00000070: cc8f ac3c b25d 3c3c 216a 8dbb bc89 643b
00000080: 4270 0dbc 9cf4 1fba 63c4 c43b 65ca 5f3c
00000090: 54c0 1b3c e4d4 a33c 89e4 a73b fad0 403c
000000a0: c935 bebb ff53 c6bb c2f5 31b9 4cc5 a93c
000000b0: 57a3 723c 4fc7 ae3c 65f7 933c dabd 723c
000000c0: 0c52 91bb 8766 593b 1cbf 393c 017d 84bc
000000d0: 7450 c73b de3c ce3c 00d9 393c 3b7f c13b
000000e0: 13ec 6d3c ac2b 5c3b 0316 743b 705e 30bc
000000f0: f54a f1b9 278c dcba 430e fb3b 8442 513c
00000100: ddda ed3b bd1a 0d3c 0504 823a 43c6 1e3c
00000110: 0d12 84bc 79ff 51bc b2d8 ca3c 76a3 07bb
00000120: a4b4 783c c8bc 49bc 5a1a 7aba fa34 0a3c
00000130: fcf4 0cbb 670e 44bb cfe7 db3c 7b00 84bb
00000140: af63 453c f0fc 743c de3d 363c 1ede bc3c
00000150: 181e 823c 3970 4c3c 0465 67bc 3e0c 27bb
00000160: fc88 213c 63af 823b 0d35 35bc 4915 013c
00000170: 8e51 10bc 1391 663c cfc9 373c 5b70 2fbc
00000180: b638 5a3c 38fa ec3c d78e 01bc 182f 7a3c
00000190: 5b8c 383c b85e 4bbb 9548 123c 3b23 3abb
000001a0: 0eeb 2c3c cc90 ee3b 5c48 0b3c 7180 a23c
000001b0: c109 613b 2752 893c f414 413c a4b0 9d3b
000001c0: d3c1 183c 0776 3d3c 31b4 c2bb fc1d ef3b
000001d0: 65b7 27bc 6c00 883b 43ca 48bb 468e a13c
000001e0: cf90 983c a3db 24bc 0616 ec3a 8a32 c83c
000001f0: 888b 093c 7278 4dbb b5e7 9dbb df9f 013c
00000200: 869b 943c 054c 733c 4f27 12bb e4da faba
00000210: 3429 633c f490 173c f583 6dba 1e3b 58bc
00000220: b254 093c 497c 21bb 30b9 b1bb ae5c b63c
00000230: 35b6 e1bc 6b28 b5ba 169c 1f38 8db4 1e3d
00000240: 24f2 03bc 5d1f ac3c 4654 9a3c 3d7d 243c
00000250: b612 66bc bfd9 943c 0f34 a93b 3519 0b3b
00000260: 9592 68bc 050f 24ba 055d 5c3b 4b5a b23c
00000270: 00dd aabc d6e9 083c d1b5 3abc 55ea 463c
00000280: 0836 65bb 67ff bf3c f7c5 923c 3911 943b
00000290: b704 4ebc 73ea cbbb 83d7 84bc 8d9f 033b
000002a0: 6c4e c1bb 3cc0 a3ba 025d f33b 60b5 703c
000002b0: ed8c 413b edfe 473c 3562 553c 9350 1a3c
000002c0: f469 cf3b 421c 80bb fc82 423b ceec bd3b
000002d0: 0be0 90bc ab47 be3a 1891 6d3c ece0 933c
000002e0: 998d 013d 0d22 84ba be1e 433c 9b71 61bb
000002f0: 8171 49bb 0d66 a83c 0b51 5e3c fb98 86bc
00000300: 6a00 c9bc 3f32 aa3a b6ed 60bb e968 7dba
00000310: 540b b13c e2ec 863c a8cb 9a3a e0a3 1a3c
00000320: 5aaf d33c 06b1 f6bb da60 9c3c 3588 233c
00000330: 9d34 813c 1dab 053c 1743 2d3b d224 f9bb
00000340: f9fb 2ebc 0b82 183c 93e7 b93c 51da 873b
00000350: 8794 4e3c 4ada f83c e256 c93c 0f37 8f3c
00000360: 9d76 a33b 6ac7 5bbb 22d7 323c 54c3 313a
00000370: fbd4 f73b 05a1 303c 2c07 aa3c ffa2 71ba
00000380: 79d9 14bb 6672 433c 209c 9a3b 2a9b 1f38
00000390: 3170 caba 7603 133c a0b1 903c 8566 ac3c
000003a0: 0c95 c03c e007 f63b 21f3 bfbb 65cb e73b
000003b0: 1f24 a13b b117 4e3b d3c8 923c 7e18 0c3d
000003c0: 62a0 183c d49a fc3b b362 3d3c 2586 49b9
000003d0: c0fd 953c 7cb9 da3a c7e0 b73c 6217 38bc
000003e0: 9873 f3b9 d738 4f3a 6ce8 88bc f015 103c
000003f0: 3623 f3ba 70e2 f8ba f69e c73c e9b6 963c

network_body._body_endoder.seq_layers.2.weight f4 [256, 256]
0.06986719 -0.07225505 0.01569567 -0.04004156 0.029841568 -0.005586487 0.015968943 -0.014736563
-0.1229911 -0.06978926 -0.08880058 0.057617486 -0.06979296 -0.06580991 0.0337922 0.057496134
0.033779185 0.06847393 -0.04850218 -0.013396916 0.11517729 -0.051719148 -0.08212776 0.006619348
-0.097211376 0.18031956 -0.07896642 -0.018384306 0.031002538 -0.028941398 0.018720236 -0.0732371
0.03942725 -0.16118522 -0.020543195 0.07789227 -0.022291372 -0.03943431 0.10633552 -0.06397158
-0.09501093 0.104514375 -0.06083304 0.0027401838 0.015406791 0.07436698 0.03147119 -0.0110394545
5.8879275e-05 0.038714867 -0.017272063 0.0668347 -0.002714758 -0.063024014 -0.045806214 0.082643054
0.025392843 -0.005108615 -0.064822 0.043733682 -0.068456575 0.12698558 0.10802301 0.009104607
-0.031227397 0.09407843 0.18695836 0.03251524 -0.023573993 -0.07092959 0.07028514 -0.09019252
-0.03769783 -0.051227108 -0.057248387 0.080093674 0.061145037 0.048073504 0.07054031 0.047199734
-0.0298289 0.02051201 0.042590443 -0.04094297 0.004789854 0.026432136 -0.022715319 0.040536102
-0.047698557 -0.01365442 -0.02909635 0.011217676 0.01910512 0.033720125 0.072808184 0.008880819
0.010181547 -0.092762984 0.043643143 0.07090533 -0.016451633 -0.11687205 -0.037984207 -0.04892398
-0.030701121 0.12248133 0.057431612 -0.07640304 -0.029507129 -0.12244165 0.044140708 -0.036832593
-0.1727077 -0.078232735 -0.047261134 -0.07136311 -0.07148894 0.09757119 0.018841395 -0.044464692
0.051218063 0.02997238 -0.04219357 -0.003465244 0.10948983 -0.048337135 0.03537418 -0.058065657
0.04818279 0.034010246 0.06497676 0.024714459 0.016401147 -0.1375131 0.10059486 0.008874421
0.03944599 -0.052501306 -0.022993248 -0.046356663 -0.07160458 -0.015698118 -0.09965974 -0.016632274
-0.0062795607 -0.042600445 0.016410936 0.042721376 0.05891027 0.048509333 0.07411208 0.014636792
0.034616232 0.004373532 -0.020955605 0.02995567 -0.108225174 0.05447594 -0.026262106 -0.033078957
-0.062634334 0.07795003 -0.022515051 -0.00357704 0.122192025 -0.075674795 0.059833672 0.017804928
0.02931593 -0.084526725 0.07392869 -0.110359274 0.0073796078 -0.047402598 0.16877681 0.022627756
0.039688822 0.091776565 -0.10454469 -0.018337518 0.014354341 0.04170922 -0.021036392 -0.009770692
0.02480028 -0.10323014 -0.05192344 -0.10247131 -0.10542871 0.048939966 0.13960207 0.018932883
-0.055664424 -0.048587464 0.02245266 -0.038888015 -0.062782556 -0.04381186 0.038863547 0.050355498
0.09858513 0.027249828 -0.0062648626 -0.058029648 0.058899872 0.06918642 0.052269228 -0.08429648
-0.07808731 -0.010749033 -0.051916495 0.11161731 -0.07118425 -0.11852535 0.01262096 -0.03467835
0.0013337481 0.009541418 0.02559123 -0.15968327 -0.061299685 -0.03954109 0.02131287 -0.05066903
-0.02870415 -0.039718468 0.053058177 -0.05811294 -0.043119997 -0.03311799 0.039279748 0.018706921
0.059304222 0.1496008 -0.1112401 -0.027096324 -0.0090674525 0.024667501 0.020680076 -0.017651767
0.16173781 0.050802425 -0.00012716734 0.056528106 0.043877177 0.047338035 0.14501448 0.025233638
0.011648522 0.070263535 0.09614636 -0.14359836 -0.1336364 -0.06356018 -0.054830756 0.10338265
00000000: 8816 8f3d 75fa 93bd 3594 803c 9e02 24bd
00000010: 4e76 f43c d90e b7bb 4dd1 823c a071 71bc
00000020: c2e2 fbbd aced 8ebd 14dd b5bd 5000 6c3d
00000030: 9def 8ebd 59c7 86bd b169 0a3d 1181 6b3d
00000040: 0b5c 0a3d 0f3c 8c3d 39aa 46bd bd7e 5bbc
00000050: 12e2 eb3d 75d7 53bd 9932 a8bd 1ee7 d83b
00000060: c216 c7bd b1a5 383e 25b9 a1bd af9a 96bc
00000070: 09f9 fd3c 8316 edbc 2e5b 993c 55fd 95bd
00000080: 787e 213d bd0d 25be 344a a8bc fc85 9f3d
00000090: 659c b6bc df85 21bd 70c6 d93d 8803 83bd
000000a0: 1795 c2bd a20b d63d 112c 79bd a894 333b
000000b0: c46c 7c3c b74d 983d efe7 003d d4de 34bc
000000c0: 24f5 7638 7b93 1e3d 247e 8dbc a2e0 883d
000000d0: 15ea 31bb bc12 81bd 4c9f 3bbd c340 a93d
000000e0: a704 d03c 2b66 a7bb 66c1 84bd 1722 333d
000000f0: f632 8cbd 8208 023e 2b3b dd3d 7d2b 153c
00000100: 99d0 ffbc 31ac c03d 0372 3f3e b32e 053d
00000110: 3f1e c1bc 8843 91bd a8f1 8f3d dbb6 b8bd
00000120: 0a69 1abd 84d3 51bd 497d 6abd 2708 a43d
00000130: 3873 7a3d b9e8 443d 7077 903d 8254 413d
00000140: bd5b f4bc ce08 a83c 5173 2e3d d1b3 27bd
00000150: 35f4 9c3b 3588 d83c 7a15 babc 2f09 263d
00000160: 905f 43bd cab6 5fbc 785b eebc 58ca 373c
00000170: 5782 9c3c 1d1e 0a3d 751c 953d db80 113c
00000180: 81d0 263c 85fa bdbd 27c3 323d d036 913d
00000190: 93c5 86bc 9d5a efbd 5495 1bbd 8364 48bd
000001a0: eb80 fbbc 7ed7 fa3d 693d 6b3d 3279 9cbd
000001b0: efb8 f1bc b0c2 fabd e3cc 343d c6dd 16bd
000001c0: 4ada 30be 7c38 a0bd e494 41bd d226 92bd
000001d0: cb68 92bd 67d3 c73d 4559 9a3c 9c20 36bd
000001e0: 08ca 513d a388 f53c 2ad3 2cbd 2619 63bb
000001f0: 343c e03d 29fd 45bd 84e4 103d 41d6 6dbd
00000200: 515b 453d 544e 0b3d 8912 853d fa75 ca3c
00000210: b35b 863c 3cd0 0cbe ae04 ce3d 0566 113c
00000220: 1e92 213d 9c0b 57bd 565c bcbc 7ce0 3dbd
00000230: 6ca5 92bd 5799 80bc 681a ccbd 6840 88bc
00000240: c6c4 cdbb ce7d 2ebd 3a70 863c 9cfc 2e3d
00000250: e54b 713d b9b1 463d 13c8 973d 28cf 6f3c
00000260: c0c9 0d3d d84f 8f3b 17ab abbc 9865 f53c
00000270: 29a5 ddbd 2a22 5f3d a123 d7bc cd7d 07bd
00000280: 6e46 80bd 44a4 9f3d 7c71 b8bc c66c 6abb
00000290: d03f fa3d 63fb 9abd 2714 753d a4db 913c
000002a0: f627 f03c 591c adbd ed67 973d 0b04 e2bd
000002b0: a3d0 f13b 3a29 42bd d4d3 2c3e d85d b93c
000002c0: bf90 223d 5af5 bb3d 871b d6bd 9038 96bc
000002d0: 782e 6b3c 49d7 2a3d 8354 acbc 4115 20bc
000002e0: f529 cb3c 536a d3bd acad 54bd 7adc d1bd
000002f0: 02eb d7bd 4675 483d d8f3 0e3e 2219 9b3c
00000300: 6100 64bd a603 47bd a4ee b73c 0a49 1fbd
00000310: 2494 80bd 1174 33bd 622f 1f3d 9141 4e3d
00000320: 00e7 c93d 083b df3c 7a49 cdbb 7fb0 6dbd
00000330: fe40 713d 9cb1 8d3d 4218 563d a2a3 acbd
00000340: 3dec 9fbd b61c 30bc 64a6 54bd 9e97 e43d
00000350: 0cc9 91bd 6bbd f2bd 25c8 4e3c e30a 0ebd
00000360: 29d1 ae3a 9c53 1c3c b3a4 d13c 0384 23be
00000370: 6115 7bbd d7f5 21bd 5498 ae3c 548a 4fbd
00000380: f724 ebbc d5af 22bd 8853 593d d607 6ebd
00000390: 989e 30bd bba6 07bd cde3 203d 423f 993c
000003a0: fce8 723d f430 193e d9d1 e3bd 1cf9 ddbc
000003b0: a78f 14bc 8013 ca3c 4369 a93c 709a 90bc
000003c0: 999e 253e 3416 503d 3958 05b9 048a 673d
000003d0: 8eb8 333d 87e5 413d ad7e 143e c6b6 ce3c
000003e0: 71d9 3e3c 54e6 8f3d 62e8 c43d 730b 13be
000003f0: fbd7 08be d72b 82bd 3796 60bd 48ba d33d

network_body._body_endoder.seq_layers.4.bias f4 [256]
-0.003223529 0.02541889 -0.003572075 0.00031725413 0.012610098 0.006297257 0.016473394 0.016463052
0.0031584026 -0.0015319013 0.017292075 -0.012887676 0.01993953 -0.01108589 -0.013430253 -0.00020137047
-0.00096867885 0.0077464893 0.0015758222 0.008935428 0.017151292 0.005807693 -0.0035257626 -0.00044084562
0.02078413 0.014398319 0.008041319 -0.000758177 -0.003145093 0.0038480824 -0.0044089667 0.016248342
0.0025394505 0.00025883788 0.0020937216 0.0002801531 0.00055025925 0.0028252108 0.00032129834 0.012230243
-0.0025714634 0.0009963476 0.014311466 -0.0011829985 -0.009916826 0.012415064 0.0111340685 -0.0063373875
-0.0063579953 0.004528175 0.0071964087 -0.006344625 0.0023894694 0.002573113 0.009342604 0.0044430364
-0.0073680677 0.007860712 -0.0069405106 0.023150196 0.0033495964 0.010557377 0.017519606 0.0076811733
0.0056343293 0.010072855 0.008163345 -0.010534888 0.011301966 -0.0039519016 0.019127823 -0.005895812
0.00034181768 -0.0064436425 0.0048733703 0.0032623843 -0.011865331 0.022483915 0.004570709 0.00537713
0.008336777 0.019448414 -0.008477883 0.009457274 0.005369128 -0.005365921 0.0031636884 0.0017798337
0.011919926 0.009273155 0.020711914 0.006432574 0.0032114906 -0.006194765 0.008073783 0.0073793875
0.0016648606 0.018356057 -0.0048577376 0.03731199 0.006531814 0.012579372 0.017071078 0.012607696
0.007492981 0.013720112 -0.011407352 -0.0024719296 0.018680613 0.02061197 -0.0022984727 0.0021901692
0.004664617 -0.0037191524 0.000945419 -0.003265205 7.244677e-05 0.0053439005 0.0077714687 -0.005368244
0.006617204 0.005069516 0.010942757 0.010968932 0.007913918 -0.0038725745 -0.004868824 4.4691973e-05
0.0077066803 0.013847225 0.010096267 0.022525799 0.024816751 0.007333868 -0.003812029 0.018152937
-0.010692456 0.014362359 -0.01395175 0.005056106 0.0015664125 0.007596646 0.019074643 0.018635374
0.010732878 -0.0054591065 -0.0021166801 -0.0014923025 0.010615644 0.019424433 0.0018839082 -0.0009756976
-0.00026535557 0.007619704 -0.0005311024 0.015950754 -0.0014878338 0.021276405 0.013245881 0.012216706
0.022821134 0.011312347 0.012299398 0.0052408143 -0.0032369506 0.015128776 -0.0054346668 0.016667986
0.011136994 -0.006436013 -0.0067032697 -0.009463372 -0.0052975565 0.022176728 0.008202391 0.0021946656
0.030258713 0.0048963833 0.0050517153 0.0072276634 -0.00038103535 0.018249832 -0.010371842 0.0070255836
-0.00084686396 0.0015258631 -0.018315284 -0.005440756 0.009796018 0.004113482 0.009803872 0.01905053
0.009732487 -0.011635703 0.012059788 -0.003621106 0.013071905 -0.006001337 0.0013185522 0.009027657
0.0032612747 -0.008224093 0.013882702 0.008908914 0.0079003405 -0.0025885745 0.006388286 0.0071466165
-0.003861364 0.0010537573 0.026019605 -0.00074801483 0.008520386 0.0038079482 0.00917482 0.009445259
0.0029343087 0.0026475738 0.010645591 -0.008339847 0.015686763 -0.008108489 -0.013495256 0.025773123
0.021621466 0.0022808893 -0.0076016914 -0.0035201663 0.013026219 0.017973682 0.0027185364 -0.0046483
-0.0021015012 -0.014091961 0.00052840845 0.013406462 0.005784774 -0.002750457 0.008949357 -0.0043917494
0.0048258123 0.02091301 -0.0012529861 -0.011070331 0.023623943 0.014699683 0.015985973 0.024635607
-0.011816362 0.005480377 0.011894127 0.0032833375 0.019339075 -0.003108517 -0.00042867064 -0.00790833
00000000: d841 53bb 473b d03c 7919 6abb 2155 a639
00000010: 969a 4e3c 3859 ce3b 36f3 863c 86dd 863c
00000020: 34fd 4e3b 14ca c8ba 1ca8 8d3c d526 53bc
00000030: 3a58 a33c 98a1 35bc 900a 5cbc f926 53b9
00000040: f0ee 7dba 43d6 fd3b d28b ce3a e765 123c
00000050: de80 8c3c 764e be3b 7b10 67bb 4c21 e7b9
00000060: 7b43 aa3c ede6 6b3c bdbf 033c 66c0 46ba
00000070: e81d 4ebb 1c30 7c3b 1879 90bb 3e1b 853c
00000080: e96c 263b a2b4 8739 d236 093b 83e1 9239
00000090: 463f 103a 2c27 393b ef73 a839 5b61 483c
000000a0: ff85 28bb e197 823a a47a 6a3c d80e 9bba
000000b0: 2f7a 22bc 8d68 4b3c ab6b 363c dca9 cfbb
000000c0: bb56 d0bb 1661 943b dacf eb3b 92e6 cfbb
000000d0: a598 1c3b aca1 283b b911 193c e496 913b
000000e0: d56f f1bb 37ca 003c 396d e3bb 7ba5 bd3c
000000f0: e784 5b3b d9f8 2c3c 4785 8f3c 5ab2 fb3b
00000100: 2ea0 b83b 9e08 253c 8dbf 053c 869a 2cbc
00000110: e22b 393c f47e 81bb f4b1 9c3c a831 c1bb
00000120: fe35 b339 3125 d3bb cbb0 9f3b bacd 553b
00000130: ce66 42bc 3030 b83c e3c5 953b a332 b03b
00000140: fa96 083c 4852 9f3c d2e6 0abc aff2 1a3c
00000150: 83ef af3b 9cd4 afbb e255 4f3b 4f49 e93a
00000160: cb4b 433c 6eee 173c 08ac a93c 57c8 d23b
00000170: df77 523b 75fd cabb e647 043c cace f13b
00000180: 7437 da3a 715f 963c a82d 9fbb 75d4 183d
00000190: d408 d63b b619 4e3c a5d8 8b3c 8290 4e3c
000001a0: ae87 f53b 52ca 603c e7e5 3abc 1900 22bb
000001b0: 1608 993c 6fda a83c f9a1 16bb f188 0f3b
000001c0: a5d9 983b 06bd 73bb ffd5 773a 0dfd 55bb
000001d0: 90ee 9738 e31b af3b cea7 fe3b 18e8 afbb
000001e0: 21d5 d83b 2f1e a63b 4049 333c 09b7 333c
000001f0: 61a9 013c 05cb 7dbb a88a 9fbb a473 3b38
00000200: 5288 fc3b 79df 623c d06a 253c 0688 b83c
00000210: 804c cb3c f250 f03b 3cd3 79bb 78b5 943c
00000220: 692f 2fbc 1a50 6b3c e195 64bc b1ad a53b
00000230: 1550 cd3a 49ed f83b 6d42 9c3c 36a9 983c
00000240: f4d8 2f3c 4ee2 b2bb 00b8 0abb 5d99 c3ba
00000250: 3ded 2d3c fd1f 9f3c 78ed f63a f5c5 7fba
00000260: 6c1f 8bb9 b6ae f93b ae39 0bba 28ab 823c
00000270: 6b03 c3ba db4b ae3c 4005 593c 9428 483c
00000280: 63f3 ba3c 6c57 393c 6a83 493c 23bb ab3b
00000290: 0523 54bb b0de 773c 4a15 b2bb 4d8b 883c
000002a0: f077 363c 31e5 d2bb 1aa7 dbbb 420c 1bbc
000002b0: 2097 adbb f8ab b53c 5263 063c 61d4 0f3b
000002c0: 1fe1 f73c d771 a03b dc88 a53b 09d6 ec3b
000002d0: b3c5 c7b9 ac80 953c a9ee 29bc de36 e63b
000002e0: 1400 5eba 78ff c73a ef09 96bc 5f48 b2bb
000002f0: 7a7f 203c 63ca 863b 6ba0 203c db0f 9c3c
00000300: 0275 1f3c ada3 3ebc 6b96 453c 1450 6dbb
00000310: 8b2b 563c dda6 c4bb 45d3 ac3a bde8 133c
00000320: 1cbb 553b 59be 06bc 4674 633c b2f6 113c
00000330: 6e70 013c 13a5 29bb d454 d13b 2a2e ea3b
00000340: f00e 7dbb 3a1e 8a3a 1127 d53c 6d16 44ba
00000350: 1799 0b3c c58e 793b fc51 163c 4ac0 1a3c
00000360: 884d 403b eb82 2d3b d86a 2e3c dba3 08bc
00000370: 8781 803c 78d9 04bc 351b 5dbc 2822 d33c
00000380: 801f b13c f97a 153b 9c17 f9bb 97b2 66bb
00000390: ec6b 553c 8b3d 933c 7929 323b c450 98bb
000003a0: 57b9 09bb f8e1 66bc e484 0a3a c7a6 5b3c
000003b0: 348e bd3b 0341 34bb 53a0 123c aae8 8fbb
000003c0: d921 9e3b c351 ab3c 3d3b a4ba 5560 35bc
000003d0: 0087 c13c f0d6 703c 04f5 823c 9dd0 c93c
000003e0: 6a99 41bc bc94 b33b 96df 423c 432d 573b
000003f0: fb6c 9e3c 43b8 4bbb 33bf e0b9 f191 01bc

network_body._body_endoder.seq_layers.4.weight f4 [256, 256]
0.10941272 -0.01926347 0.055670712 -0.027834503 -0.004474809 -0.06616531 -0.05341752 0.02020659
-0.076247506 -0.040023822 0.046300773 -0.022836002 0.063231684 -0.028191645 0.014402986 0.0034054134
-0.06056737 0.048921723 0.09289848 0.011632133 0.038881097 -0.13287199 0.16754922 0.060444582
-0.033953812 -0.007943453 0.09934122 0.036600202 -0.02151047 0.025720987 -0.07089312 -0.026681978
0.029602287 -0.06840906 -0.01467883 0.009457658 -0.0187645 -0.12794481 -0.060422067 -0.011995986
0.020332014 0.073112845 0.056881014 0.039391425 -0.011767155 -0.05892784 -0.038872685 -0.0061184294
0.047272444 -0.014832879 -0.031625398 -0.020046532 -0.088768415 0.102753386 -0.030030824 -0.06057989
-0.09057528 0.023959398 -0.053011738 0.015290033 -0.019041684 0.067952216 0.033993505 0.10071076
-0.075677305 0.049348436 0.0012701395 -0.015922662 0.05493966 0.029828785 -0.022686629 0.036140926
-0.07150439 -0.082861304 0.03298124 -0.0010835448 -0.05382455 -0.074320845 -0.091317065 0.038645536
-0.016008914 0.10005916 0.005547434 -0.020051075 -0.07972979 0.061018225 0.094345465 -0.0033654808
-0.023109071 0.043058414 -0.07851387 0.03600352 -0.072131276 0.12186938 -0.024977546 -0.029698461
-0.065332696 -0.06492329 0.036437374 -0.040504906 0.046134103 0.032068893 -0.044325523 -0.048136983
-0.03730108 -0.05077614 0.013346393 -0.051565267 -0.0052437005 -0.015760263 -0.001713854 -0.09902312
0.04500588 -0.06698674 -0.021745581 0.0994496 -0.06805492 0.025204943 0.050166573 0.03794093
0.021416256 0.0104245385 0.119446896 0.015960468 -0.093939036 0.0057481606 -0.035127547 -0.043804873
-0.06492838 -0.062191043 -0.079807684 0.02573772 -0.113544255 0.13627292 -0.08102308 0.05948566
0.036903676 -0.013554345 -0.012492214 -0.030950883 -0.069132484 -0.02845534 0.006625287 -0.013798158
-0.03199217 0.035921026 -0.036187373 0.021788418 -0.06384224 0.015851779 -0.040704153 -0.08248954
-0.04558854 0.00011239944 -0.09144715 0.0058498094 0.084293194 0.07612764 0.022151329 -0.01027536
-0.009811661 -0.07507075 -0.032228474 0.07383101 -0.069954686 0.020004187 -0.061159253 -0.04278626
-0.028535252 0.04883219 -0.0048808213 -0.032648314 -0.054943796 0.024304872 0.084891364 0.04484938
0.1019764 -0.079009056 0.046008505 -0.019214045 -0.06749989 0.04859089 0.013275711 -0.011984076
0.056730058 0.059917867 0.058526754 0.008704207 0.05361002 -0.069050595 -0.0440582 -0.12239919
0.08683443 0.0013523538 -0.07072401 -0.09843278 0.040611036 -0.099329464 0.09274165 0.094388865
-0.0056415205 0.059014097 0.11196331 -0.036371186 -0.112936966 -0.07286406 0.021565229 -0.027373329
-0.037480667 -0.008411435 -0.04165327 0.049109697 -0.015421059 -0.02837055 -0.026177619 0.12352933
0.039785367 0.061698474 -0.015989237 -0.050033834 -0.035071865 -0.04665705 -0.046063736 0.01679417
0.010676477 0.11022596 0.04965575 -0.047932036 -0.11501618 0.009837652 0.054647744 0.05220112
-0.0012553422 -0.030194236 0.009201763 0.0028493148 -0.091579 0.023480209 0.05599976 -0.049100734
0.029398695 0.02143878 0.0041650296 -0.038033575 -0.008692194 0.009896672 0.039709464 -0.006383266
-0.10325999 0.073392004 0.0268728 0.11154199 0.044897843 0.025095876 0.03064786 -0.051067922
00000000: c713 e03d 6dce 9dbc f906 643d 2f05 e4bc
00000010: 6ba1 92bb ae81 87bd 54cc 5abd 4a88 a53c
00000020: a727 9cbd 05f0 23bd e1a5 3d3d 9112 bbbc
00000030: 9d7f 813d 2af2 e6bc 80fa 6b3c 5b2d 5f3b
00000040: 7e15 78bd 2562 483d 8f41 be3d b494 3e3c
00000050: c941 1f3d 980f 08be 0692 2b3e bd94 773d
00000060: 2713 0bbd 4225 02bc 6973 cb3d 18ea 153d
00000070: ba36 b0bc d2b4 d23c 6930 91bd 2a94 dabc
00000080: 7f80 f23c 0d1a 8cbd 7a7f 70bc 4bf4 1a3c
00000090: 02b8 99bc f703 03be 217d 77bd d08a 44bc
000000a0: 538f a63c 30bc 953d 11fc 683d e758 213d
000000b0: 06cb 40bc 525e 71bd f738 1fbd 1b7d c8bb
000000c0: c0a0 413d 9b05 73bc a289 01bd a038 a4bc
000000d0: 37cc b5bd 5e70 d23d 3403 f6bc 9e22 78bd
000000e0: 887f b9bd 8046 c43c d622 59bd 0c83 7a3c
000000f0: 4efd 9bbc 882a 8b3d c63c 0b3d 7141 ce3d
00000100: b4fc 9abd 9621 4a3d cf7a a63a 3e70 82bc
00000110: 6908 613d 7f5b f43c 4fd9 b9bc 8208 143d
00000120: e570 92bd 30b3 a9bd 5617 073d bb05 8eba
00000130: 2277 5cbd 8735 98bd 7104 bbbd c84a 1e3d
00000140: 2025 83bc d1eb cc3d 40c7 b53b 2742 a4bc
00000150: 5f49 a3bd 3fee 793d 3238 c13d 668f 5cbb
00000160: 3c4f bdbc 055e 303d e1cb a0bd 6d78 133d
00000170: 90b9 93bd a796 f93d b69d ccbc 304a f3bc
00000180: 26cd 85bd 80f6 84bd 5b3f 153d 79e8 25bd
00000190: 1df7 3c3d ac5a 033d ae8e 35bd 492b 45bd
000001a0: 04c9 18bd a4fa 4fbd d4aa 5a3c 1a36 53bd
000001b0: 59d3 abbb ab1b 81bc 66a3 e0ba a2cc cabd
000001c0: 1658 383d 5830 89bd ca23 b2bc 3bac cb3d
000001d0: 6160 8bbd 997a ce3c 777b 4d3d f367 1b3d
000001e0: 2571 af3c afcb 2a3c 93a0 f43d 87bf 823c
000001f0: 1c63 c0bd 115b bc3b e7e1 0fbd bd6c 33bd
00000200: 2cf9 84bd 09bc 7ebd 3672 a3bd e9d7 d23c
00000210: e489 e8bd 218b 0b3e 6eef a5bd 3ca7 733d
00000220: 4f28 173d 0b13 5ebc 25ac 4cbc b58c fdbc
00000230: 5595 8dbd 2c1b e9bc ef18 d93b ab11 62bc
00000240: 390a 03bd ed21 133d 3639 14bd a07d b23c
00000250: b8bf 82bd 97db 813c 66b9 26bd 47f0 a8bd
00000260: 0dbb 3abd fdb7 eb38 a548 bbbd c2af bf3b
00000270: e9a1 ac3d cfe8 9b3d b476 b53c fc59 28bc
00000280: 17c1 20bc b2be 99bd 0102 04bd b634 973d
00000290: 6744 8fbd d2df a33c 2082 7abd a540 2fbd
000002a0: c3c2 e9bc 4304 483d 4cef 9fbb 3dba 05bd
000002b0: bf0c 61bd 031b c73c 86db ad3d fcb3 373d
000002c0: 01d9 d03d 80cf a1bd 6a73 3c3d c666 9dbc
000002d0: 623d 8abd 3e07 473d 5e82 593c dc58 44bc
000002e0: c75d 683d 706c 753d c0b9 6f3d 179c 0e3c
000002f0: 2e96 5b3d 666a 8dbd 5f76 34bd 6dac fabd
00000300: 40d6 b13d 7741 b13a c0d7 90bd 2097 c9bd
00000310: c257 263d 3f6d cbbd 56ef bd3d f34e c13d
00000320: 81dc b8bb c4b8 713d 054d e53d f4f9 14bd
00000330: 7f4b e7bd c139 95bd 90a9 b03c 083e e0bc
00000340: 5485 19bd 1ed0 09bc 9f9c 2abd 4027 493d
00000350: 9ca8 7cbc 5b69 e8bc 7272 d6bc f2fc fc3d
00000360: fbf5 223d 8ab7 7c3d dcfb 82bc 47f0 4cbd
00000370: 84a7 0fbd 761b 3fbd 54ad 3cbd ed93 893c
00000380: 64ec 2e3c 26be e13d d463 4b3d 6254 44bd
00000390: 9a8d ebbd 1a2e 213c 50d6 5f3d d7d0 553d
000003a0: 4b8a a4ba e759 f7bc fec2 163c 92bb 3a3b
000003b0: c58d bbbd 9159 c03c 0160 653d da1d 49bd
000003c0: 88d5 f03c 61a0 af3c cd7a 883b 18c9 1bbd
000003d0: b469 0ebc a725 223c 64a6 223d b72a d1bb
000003e0: f979 d3bd 8c4e 963d 5924 dc3c 2070 e43d
000003f0: cde6 373d de95 cd3c 3911 fb3c 992c 51bd

network_body.observation_encoder.processors.0.normalizer.running_mean f4 [25]
0.0 0.108106546 0.0006840159 0.44213757 0.7132082 0.0 0.13368008 0.0012076306
0.394408 0.7133123 0.0 0.13516162 0.0008240204 0.38921767 0.72062796 0.0
0.09926562 0.00031040737 0.29325882 0.6915923 0.0 0.09926562 0.00031040737 0.29325882
0.6915923
00000000: 0000 0000 f766 dd3d 884f 333a db5f e23e
00000010: d094 363f 0000 0000 6ee3 083e 5c49 9e3a
00000020: d8ef c93e a39b 363f 0000 0000 cf67 0a3e
00000030: 1303 583a 8a47 c73e 137b 383f 0000 0000
00000040: c64b cb3d 2cbe a239 0526 963e 310c 313f
00000050: 0000 0000 c64b cb3d 2cbe a239 0526 963e
00000060: 310c 313f

network_body.observation_encoder.processors.1.normalizer.running_mean f4 [55]
0.0 0.08971217 0.0 0.74944264 0.8732585 0.0 0.03214716 0.0
0.78272927 0.8808902 0.0 0.03328208 6.4801614e-05 0.77037615 0.876487 0.0
0.0008392225 0.00043521036 0.84484786 0.92696923 0.0 0.015124379 0.00014280346 0.7969371
0.9149917 0.0 0.00048441158 6.5201675e-05 0.93516093 0.9713964 0.0 0.015685968
0.00035120876 0.8560746 0.94292647 0.0 0.00010600262 4.0000973e-06 0.8828717 0.95735186
0.0 0.0011404308 8.0802056e-05 0.83812857 0.93528545 0.0 0.0 2.00005e-06
0.8177047 0.93810123 0.0 0.0 2.00005e-06 0.8177047 0.93810123
00000000: 0000 0000 04bb b73d 0000 0000 79db 3f3f
00000010: de8d 5f3f 0000 0000 beac 033d 0000 0000
00000020: f260 483f 0582 613f 0000 0000 ca52 083d
00000030: 1ae6 8738 5f37 453f 7461 603f 0000 0000
00000040: 45ff 5b3a f22c e439 f347 583f db4d 6d3f
00000050: 0000 0000 3ecc 773c 83bd 1539 1204 4c3f
00000060: e53c 6a3f 0000 0000 9ff8 fd39 e2bc 8838
00000070: b566 6f3f 6fad 783f 0000 0000 dc7f 803c
00000080: 7122 b839 b427 5b3f a163 713f 0000 0000
00000090: b94d de38 9338 8636 e103 623f 0315 753f
000000a0: 0000 0000 827a 953a 4674 a938 988f 563f
000000b0: de6e 6f3f 0000 0000 0000 0000 9938 0636
000000c0: 1855 513f 6727 703f 0000 0000 0000 0000
000000d0: 9938 0636 1855 513f 6727 703f

network_body.observation_encoder.processors.2.normalizer.running_mean f4 [15]
0.0 0.29082716 0.0004688119 0.12053879 0.51110494 0.0 0.009431454 0.0
0.9869188 0.99570245 0.0 0.009431454 0.0 0.9869188 0.99570245
00000000: 0000 0000 4ce7 943e deca f539 0bdd f63d
00000010: c6d7 023f 0000 0000 6386 1a3c 0000 0000
00000020: b6a6 7c3f 5be6 7e3f 0000 0000 6386 1a3c
00000030: 0000 0000 b6a6 7c3f 5be6 7e3f
