Assets/Training/results/Run 7/DroneBehavior/DroneBehavior-5499967.onnx (onnx, 697640 bytes, 21 tensors)

105 f4 [25]
0	0x3eb65e8b	0.35619006
1	0x3e841b92	0.25802284
2	0x39df8ecd	0.0004264027
3	0x3ed46072	0.41479832
4	0x3dd13e58	0.10216969
5	0x3db729e8	0.0894354
6	0x3cb8db83	0.022565609
7	0x39df8ecd	0.0004264027
8	0x3dbccf90	0.09219277
9	0x3c939306	0.018014442
10	0x3e23696e	0.15958187
11	0x3d28c9e8	0.041208178
12	0x39df8ecd	0.0004264027
13	0x3e287dea	0.16454282
14	0x3d5788be	0.052620642
15	0x3e9b2740	0.30303383
16	0x3cadd8a1	0.02122146
17	0x39df8ecd	0.0004264027
18	0x3e9b73cc	0.30361784
19	0x3d9e38c1	0.07725669
20	0x3e9b2740	0.30303383
21	0x3cadd8a1	0.02122146
22	0x39df8ecd	0.0004264027
23	0x3e9b73cc	0.30361784
24	0x3d9e38c1	0.07725669

108 f4 [25]
0	0x3ea17859	0.3153713
1	0x3ed91445	0.42398277
2	0x3eceab48	0.40365052
3	0x3efe9de2	0.4972983
4	0x3e022c93	0.12712316
5	0x3ea5f869	0.32416084
6	0x3ef2d77c	0.47430027
7	0x3e41c425	0.1892248
8	0x3effff89	0.49999645
9	0x3defc6a7	0.11707812
10	0x3ee9ed39	0.456888
11	0x3ec34e0b	0.3814548
12	0x3e515ac1	0.20444776
13	0x3effd8c1	0.49970058
14	0x3e0d7df0	0.13817573
15	0x3eca2a15	0.3948523
16	0x3eb5db44	0.3551885
17	0x3da6782a	0.08128388
18	0x3ef3e247	0.47633573
19	0x3de5ec30	0.1122669
20	0x3ef58f43	0.47960863
21	0x3e34b975	0.17648871
22	0x3c3628f6	0.011118164
23	0x3ef9d6b4	0.48796618
24	0x3e41a165	0.18909223

111 f4 [55]
0	0x3cdd9ca2	0.027052227
1	0x3e849e96	0.2590224
2	0x39df8ecd	0.0004264027
3	0x3e853c58	0.260226
4	0x3d4acd68	0.049512297
5	0x3d16b0bb	0.036789637
6	0x3e1582f2	0.14600733
7	0x39df8ecd	0.0004264027
8	0x3e19fc4b	0.15037648
9	0x3ce16055	0.027511755
10	0x3d88a493	0.06672015
11	0x3e153135	0.14569552
12	0x39df8ecd	0.0004264027
13	0x3e237993	0.15964346
14	0x3cdd9046	0.027046334
15	0x3ddc2b57	0.10750454
16	0x3cc19ec2	0.023635272
17	0x39df8ecd	0.0004264027
18	0x3de15312	0.110021725
19	0x3c6122e8	0.013741232
20	0x3d2ddde7	0.04244795
21	0x3cf721bf	0.030167459
22	0x39df8ecd	0.0004264027
23	0x3d552d24	0.052045003
24	0x3c87f7a3	0.016597575
25	0x3dd4c59c	0.103892535
26	0x3ca1d36f	0.01975414
27	0x39df8ecd	0.0004264027
28	0x3dd87be3	0.105705045
29	0x3c40dc1d	0.011771229
30	0x3d58f851	0.052971188
31	0x3cdf2261	0.027238073
32	0x39df8ecd	0.0004264027
33	0x3d73d711	0.059531275
34	0x3c99baaa	0.018765766
35	0x3df84b2b	0.12123712
36	0x3c997d90	0.01873663
37	0x39df8ecd	0.0004264027
38	0x3dfb2ed2	0.1226479
39	0x3c8c26f1	0.017108412
40	0x3dc16766	0.0944355
41	0x3c814ce4	0.015783735
42	0x39df8ecd	0.0004264027
43	0x3dc40992	0.09572138
44	0x3d11f6ef	0.035635885
45	0x3e4aa01d	0.19787641
46	0x3c97e4eb	0.018541774
47	0x39df8ecd	0.0004264027
48	0x3e4b6f67	0.19866715
49	0x3d466c59	0.048443172
50	0x3e4aa01d	0.19787641
51	0x3c97e4eb	0.018541774
52	0x39df8ecd	0.0004264027
53	0x3e4b6f67	0.19866715
54	0x3d466c59	0.048443172

114 f4 [25]
0	0x3ea17860	0.3153715
1	0x3ed91445	0.42398277
2	0x3eceab48	0.40365052
3	0x3efe9de3	0.49729833
4	0x3e022c95	0.12712319
5	0x3ec8489b	0.39117894
6	0x3ee0e6b5	0.43926015
7	0x3e6ca831	0.23111035
8	0x3efffaec	0.49996126
9	0x3de4e618	0.111766994
10	0x3edae4d0	0.42752695
11	0x3ec99628	0.39372373
12	0x3e85a73d	0.26104155
13	0x3efffb37	0.4999635
14	0x3e20c6bc	0.15700811
15	0x3eb53a2f	0.35395953
16	0x3eb782a1	0.3584185
17	0x3cb78cd6	0.022406023
18	0x3eea582c	0.45770395
19	0x3da96dd1	0.08272899
20	0x3eedec01	0.4646912
21	0x3e8c3c43	0.27389726
22	0x3c9b83d7	0.018983765
23	0x3efa9012	0.48938042
24	0x3e2593a8	0.16169608

117 f4 [25]
0	0x3c0fd548	0.008778878
1	0x3ed13fe5	0.4086906
2	0x39df8ecd	0.0004264027
3	0x3ed146f4	0.40874445
4	0x3d5a0ea1	0.053236607
5	0x3baf0fbd	0.0053424523
6	0x3eb2bac8	0.34908128
7	0x39df8ecd	0.0004264027
8	0x3eb2be91	0.34911016
9	0x3cdd87d1	0.027042301
10	0x3c8b283a	0.016986955
11	0x3eb36042	0.35034376
12	0x39df8ecd	0.0004264027
13	0x3eb386d0	0.3506379
14	0x3ce4a4e6	0.027910661
15	0x3cd52450	0.026018292
16	0x3eb29e7f	0.34886548
17	0x39df8ecd	0.0004264027
18	0x3eb2f9bd	0.3495616
19	0x3ceef1a2	0.029167954
20	0x3cd52450	0.026018292
21	0x3eb29e7f	0.34886548
22	0x39df8ecd	0.0004264027
23	0x3eb2f9bd	0.3495616
24	0x3ceef1a2	0.029167954

120 f4 [3]
0	0x40f6c2cf	7.7112803
1	0x3fe0fccc	1.7577147
2	0x40f3b1b8	7.615444

action_model._continuous_distribution.log_sigma f4 [1, 3]
0	0xbe619c8d	-0.22032376
1	0xbe83cb52	-0.2574106
2	0xbe4d9ff6	-0.20080552

action_model._continuous_distribution.mu.bias f4 [3]
0	0x3c2863ac	0.01027767
1	0xbc69a899	-0.014261388
2	0x3c840bc3	0.01611889

action_model._continuous_distribution.mu.weight f4 [3, 256]
0	0xbbb4e423	-0.00552036
1	0xbbfd8785	-0.0077371025
2	0x3c69db0a	0.014273414
3	0x3ae51747	0.0017478251
4	0xbbde3704	-0.0067814607
5	0x3cdef9bd	0.027218694
6	0x3c2b17a0	0.010442644
7	0x3cb33bec	0.021879159
8	0x3d2db55a	0.04240928
9	0x3cf6771f	0.030086098
10	0x3d03bd92	0.03216321
11	0x393b1c2a	0.00017844202
12	0x3a744522	0.0009318163
13	0xba6fdbb4	-0.0009149865
14	0xbd2eee7a	-0.042707898
15	0x3cff9f28	0.031203821
16	0xbb4cf7b1	-0.0031275565
17	0xbc68011c	-0.014160421
18	0xbd033a4a	-0.03203801
19	0xbb6d7332	-0.0036231992
20	0x3c816610	0.015795738
21	0x3ca48ce8	0.02008672
22	0xbc5e3c1d	-0.013564137
23	0x3c7eb699	0.015546464
24	0xbc0b95ce	-0.008519603
25	0xbb516a6d	-0.0031954304
26	0xbc963d2c	-0.018339716
27	0x3cbd9240	0.023141026
28	0xbd331269	-0.04371873
29	0x3c86174a	0.016368527
30	0x3c3fa486	0.01169694
31	0x3ca73c0b	0.020414373
32	0xbcc566c6	-0.024096858
33	0x3c0bc1f9	0.008530133
34	0x3c4024fb	0.011727567
35	0x3aaf39a1	0.0013368615
36	0x3d3a2b08	0.045451194
37	0xbb40fe4d	-0.002944845
38	0x3b087026	0.0020818799
39	0x3b9af585	0.0047289752
40	0x3989557c	0.00026194367
41	0x3cf82b56	0.030294102
42	0xbc849784	-0.01618553
43	0xbafab2c6	-0.0019126765
44	0xbc25be7c	-0.010116216
45	0xbd07e93e	-0.03318142
46	0x3cc6e8eb	0.024280986
47	0x3d979fc0	0.07403517
48	0x3d585a8e	0.052820735
49	0x3c5cc67b	0.013475056
50	0xbba5f379	-0.0050644246
51	0x3b558264	0.003257894
52	0x3c895bf1	0.016767474
53	0x3c414ecf	0.011798575
54	0x3c02537a	0.007954473
55	0x3ae04185	0.001710937
56	0x3bc05c6a	0.0058703916
57	0x3d020db8	0.031751364
58	0xbcd906fa	-0.026492584
59	0x3c5ce883	0.0134831695
60	0x3cf6509e	0.030067738
61	0x3c0a290b	0.008432637
62	0x3c8ee043	0.01744092
63	0xbbed412c	-0.007240435
64	0xbc4e41e7	-0.0125889545
65	0xbafcb5e0	-0.0019280277
66	0x3c831946	0.016003262
67	0x3c360a76	0.0111108925
68	0xbcdf1150	-0.027229935
69	0x3a35006d	0.00069046655
70	0x3b2258f3	0.0024772256
71	0xbd69e2a0	-0.057100892
72	0x3c17bd2a	0.009261409
73	0x3b5af5f9	0.0033410771
74	0x3c219457	0.009862027
75	0x3c87c704	0.01657439
76	0xbcc323d3	-0.023820793
77	0x3b55ec5f	0.003264211
78	0x3b92dd4d	0.0044819475
79	0x3ce47e10	0.027892143
80	0x3c6dab14	0.01450612
81	0xbc0d6feb	-0.00863264
82	0x3bfc825c	0.0077059697
83	0xbb4fedb1	-0.0031727368
84	0x3c86f835	0.016475776
85	0xbb221717	-0.0024733
86	0x3ad39d9f	0.0016144997
87	0x3d3dd2ec	0.04634373
88	0xbc0d4dbc	-0.00862449
89	0x3c29eaf4	0.010370959
90	0x3c2defab	0.010616223
91	0xbd0fc616	-0.03510102
92	0xbacb4a0e	-0.0015509741
93	0x3ce37d40	0.027769685
94	0x3b14a3f9	0.0022680743
95	0xbd7d6bd4	-0.06187041
96	0x3c32ed99	0.0109209055
97	0x3d7e79cb	0.06212787
98	0x3b9716f5	0.004610891
99	0x3c9228f3	0.017841792
100	0xba569123	-0.0008185079
101	0xbc1ac178	-0.009445541
102	0x3b50739a	0.0031807185
103	0xbd0642e6	-0.032778643
104	0xbbf3af7e	-0.007436692
105	0xbc9d7a9a	-0.0192235
106	0xb9aabe44	-0.00032566686
107	0xbd6babd7	-0.057536926
108	0xbc1376c5	-0.009000485
109	0x3cb44ebc	0.0220102
110	0x3d7a17a6	0.06105771
111	0xbbc91923	-0.0061370297
112	0x3c5725cd	0.013131571
113	0xbb28ffdb	-0.0025787267
114	0xba7cdef1	-0.0009646258
115	0x3c543769	0.012952664
116	0x3d1cf15b	0.038316112
117	0x3bb64eea	0.0055636065
118	0xbd0585a4	-0.032598153
119	0xbc4ebc40	-0.0126181245
120	0xba813867	-0.0009858728
121	0x3cc3347f	0.023828743
122	0x3bbf132d	0.0058311434
123	0xbcb0249e	-0.021501835
124	0x3b711dff	0.003679156
125	0xbc059b7b	-0.008154745
126	0xbbada18d	-0.0052987994
127	0x3cd0c949	0.025486605
128	0x3c9aa9e2	0.018879835
129	0x3d40a055	0.047027905
130	0xbba80674	-0.0051277224
131	0x3b657d9d	0.0035017498
132	0x3b80253c	0.0039106887
133	0x3c6bfe1f	0.014403849
134	0x3bfeed23	0.0077797337
135	0x3b88a625	0.0041701966
136	0xbbd8f770	-0.0066212937
137	0xbc87806b	-0.016540727
138	0x3a9923d6	0.0011683654
139	0x3a514f73	0.0007984556
140	0x3b01d21d	0.0019809075
141	0x3a41c863	0.00073922257
142	0xbc6bbdaa	-0.014388481
143	0x3b146daf	0.0022648384
144	0xbc1dc3a7	-0.009629167
145	0xbc4ede24	-0.012626205
146	0x3c2a2c59	0.01038655
147	0x3b24a954	0.0025125341
148	0xbb96f101	-0.0046063666
149	0xbc811335	-0.015756229
150	0xbadb45e4	-0.0016729203
151	0x3ab622f8	0.001389592
152	0xbb8cca69	-0.00429659
153	0xbc6ecae3	-0.014574739
154	0x3c95024e	0.018189576
155	0xbc6669fa	-0.014063353
156	0xbc704c74	-0.014666665
157	0xbba0555c	-0.004892988
158	0x3b7df946	0.0038753315
159	0xbb369110	-0.002785746
160	0x3bba18ff	0.0056792493
161	0x3d301fa0	0.04299891
162	0x3d62c44d	0.05536299
163	0x3d088d1c	0.033337697
164	0xbc31ee03	-0.010859969
165	0xbb34ea34	-0.0027605416
166	0x3d0a8eb6	0.033827506
167	0xbc259e5a	-0.010108555
168	0x3c7883c6	0.015168136
169	0x3be08130	0.006851338
170	0xbb303f4a	-0.0026893192
171	0xbacbea52	-0.0015557504
172	0x3ca10fff	0.019660948
173	0x3c6d8e27	0.014499224
174	0xb9a55218	-0.00031532417
175	0x3d2b2652	0.041784592
176	0x3c6b59cf	0.014364674
177	0xbbe74429	-0.007057686
178	0xbc8e7259	-0.01738851
179	0xbb742366	-0.0037252544
180	0xbc598343	-0.013275924
181	0xbc4116b5	-0.011785199
182	0x3aad1353	0.0013204612
183	0xbb2f8228	-0.002678046
184	0x3d7350c9	0.059403215
185	0xbc778619	-0.015107655
186	0x3d4174e3	0.047230612
187	0xbca92987	-0.020649685
188	0x3be8c31b	0.0071033365
189	0x3b3c111f	0.0028696728
190	0x3b802c09	0.0039114994
191	0x3b7582b5	0.003746194
192	0xbd6c651a	-0.057713605
193	0x3cb0e952	0.02159563
194	0x3cbcc23b	0.023041835
195	0x3c318faf	0.0108374795
196	0x3c168b54	0.009188492
197	0xbc51e47f	-0.012810825
198	0x3d1a8c43	0.03773142
199	0x3d660afb	0.056162816
200	0xbaf31fe5	-0.0018548934
201	0xbc76f749	-0.015073606
202	0x3c551831	0.013006256
203	0x3d1f4443	0.03888346
204	0x3c3bff18	0.011474393
205	0x3c60e8d2	0.013727384
206	0xbc726d87	-0.014796621
207	0xbbb0fa7b	-0.0054009533
208	0x38ae1857	8.3015e-05
209	0xbd7bbc3a	-0.061458804
210	0x3c239be6	0.0099859
211	0x3c53f7e2	0.012937518
212	0xbbaaca60	-0.0052121133
213	0xbbd8873e	-0.006607919
214	0x3b29ab55	0.0025889475
215	0x3ca8a9a6	0.020588707
216	0x3a8102d0	0.0009842757
217	0xbb877555	-0.00413386
218	0x3b9be830	0.0047579035
219	0x3ca91040	0.020637631
220	0xbb8cfc6f	-0.0043025534
221	0xbd29020d	-0.04126172
222	0x3cd69024	0.026191778
223	0xbcdd3cab	-0.027006468
224	0x3d030947	0.03199127
225	0xba9cbf1f	-0.0011958814
226	0x3c3fb551	0.011700944
227	0xba8f8405	-0.0010949379
228	0x3b972190	0.0046121553
229	0x3d2ccdd4	0.04218848
230	0xbc01642d	-0.007897419
231	0xbc55fd8e	-0.01306094
232	0xb9f0132a	-0.00045790646
233	0x3c370c2d	0.0111723365
234	0x3d4c2385	0.04983856
235	0x3d158822	0.03650678
236	0xbb4b21fc	-0.0030995598
237	0x3d19e9e5	0.037576575
238	0xbc9336eb	-0.017970523
239	0xbd7e53ce	-0.06209164
240	0xbb61ae72	-0.0034436253
241	0xbb099c7c	-0.0020997813
242	0xbd0d8dd9	-0.034559105
243	0xbb9f534e	-0.0048622256
244	0x3ce8cf42	0.02841914
245	0xbbd33e71	-0.0064466526
246	0xbd4508a8	-0.04810396
247	0x3c9d1d58	0.019179031
248	0x3be17f71	0.0068816473
249	0x3c408d98	0.011752509
250	0xbb86489b	-0.0040980107
251	0xbbf4bd65	-0.0074688667
252	0x39b81315	0.00035109432
253	0xbbe10939	-0.0068675545
254	0x3ca7984e	0.020458367
255	0xbcc98110	-0.024597675

network_body._body_endoder.seq_layers.0.bias f4 [256]
0	0xbca79de4	-0.02046103
1	0xbd011520	-0.031514287
2	0xbc8e1a07	-0.017346395
3	0xbd68ef9c	-0.056869134
4	0xbced43f5	-0.028963069
5	0x3ca4ff32	0.020141218
6	0xbdb62800	-0.08894348
7	0xbb88b5e5	-0.004172074
8	0xbbc298a7	-0.0059386077
9	0x3ace9fb4	0.0015764148
10	0xbcc0a302	-0.023515228
11	0xbd6e7cd0	-0.0582245
12	0x3d1b81b5	0.037965495
13	0x3c659079	0.014011496
14	0x3bcb28fb	0.0061999536
15	0xbd116676	-0.035498105
16	0x3d1a4e11	0.037672106
17	0xbd8fdeef	-0.07024943
18	0x3d0e6fd9	0.034774635
19	0xbd1983d2	-0.03747923
20	0xbd30e726	-0.04318919
21	0xbbd221e6	-0.0064127324
22	0x392e425a	0.00016618651
23	0x3c22f17a	0.009945268
24	0xbcc1eb42	-0.02367175
25	0xbb180f2b	-0.00232024
26	0xbd49473d	-0.049140204
27	0xbb1f4ff0	-0.002430912
28	0xbcb284c7	-0.021791829
29	0x3bc9bc9b	0.0061565167
30	0xbd2d2747	-0.042273786
31	0xbc0b4c84	-0.008502129
32	0xbca8d913	-0.020611322
33	0xbd178d6f	-0.037000116
34	0xbc03539c	-0.0080155395
35	0xbd8e0a0b	-0.06935509
36	0xbd0c75c0	-0.034291983
37	0xbcc2dc93	-0.023786819
38	0xbcb48edb	-0.022040775
39	0xbcf1c5c2	-0.029513244
40	0xbc336535	-0.010949423
41	0xbcad1c5d	-0.021131689
42	0xbb85b9b1	-0.004080974
43	0xbd8a0e7b	-0.06741043
44	0xbd1ef625	-0.03880896
45	0xbd630a20	-0.055429578
46	0x3d4b7258	0.049669594
47	0xbd0f2b89	-0.034953628
48	0xbd06ebf6	-0.032939874
49	0x3d42f71d	0.047598947
50	0xbd07b43b	-0.033130866
51	0xbc305a30	-0.01076369
52	0x3d514075	0.05108686
53	0xbd2f5a86	-0.04281094
54	0xbdc447e4	-0.095840245
55	0xbc98b711	-0.01864198
56	0xbcc865c5	-0.02446259
57	0xbccc1487	-0.024912132
58	0xbbfc67be	-0.0077027967
59	0xbd80c173	-0.062868975
60	0xbd4e1f19	-0.050322626
61	0xbbd46ff8	-0.0064830743
62	0xbca58b0f	-0.02020791
63	0xbc70f3d0	-0.014706567
64	0xbd66e4d6	-0.05637058
65	0xbd31a76d	-0.04337256
66	0xbce8a091	-0.028396877
67	0xbb2a061e	-0.0025943588
68	0xbcd5e11b	-0.026108315
69	0xbc14e033	-0.009086656
70	0xbd5ecb8e	-0.054393344
71	0xbd0f3d1b	-0.034970384
72	0xbc27a111	-0.010231272
73	0x3c29eef5	0.010371913
74	0xbd01135b	-0.0315126
75	0xbce96447	-0.028490199
76	0xbc6d56e1	-0.014486046
77	0x3bec4109	0.007209901
78	0xbd72155c	-0.0591024
79	0xbd95e68d	-0.07319365
80	0x3c188e26	0.009311235
81	0xbd36b530	-0.044606388
82	0xbd6c8f3b	-0.057753783
83	0xbb8382fc	-0.0040134173
84	0x3b773a68	0.0037724022
85	0xbd264b83	-0.040599357
86	0xbb9dcb74	-0.0048155133
87	0x3cb6dce6	0.02232213
88	0x3b214e20	0.0024613217
89	0xbcb79c0f	-0.022413282
90	0xbb0d3641	-0.002154723
91	0x3c774055	0.015091022
92	0xbd40d56d	-0.04707854
93	0x3bd4e014	0.0064964388
94	0xbd0cf16a	-0.034409918
95	0xbbe73bfc	-0.0070567112
96	0xbc6ef8b1	-0.01458566
97	0xbd0deca0	-0.03464949
98	0x3ca114e6	0.019663285
99	0xbd6f7a3d	-0.058466185
100	0xbd082102	-0.033234604
101	0xbba4aef0	-0.005025737
102	0xbd5fa237	-0.05459806
103	0xbcab4260	-0.020905674
104	0x3c12eb42	0.008967223
105	0xbc10b7b8	-0.008832864
106	0xbd5fa080	-0.054596424
107	0xbceab69e	-0.028651532
108	0xbb9407a7	-0.004517514
109	0xbd3db9f0	-0.046319902
110	0xbc086881	-0.008325697
111	0xbb5588e0	-0.0032582805
112	0xbdb46f5b	-0.08810302
113	0xbd28c747	-0.04120567
114	0xbcc80c11	-0.024419816
115	0xbd3fd3b1	-0.046832744
116	0xbc20a009	-0.00980378
117	0xbc14b0df	-0.0090753725
118	0xbc6396d3	-0.01389094
119	0xbd363bb8	-0.044490546
120	0x3bb9f483	0.0056749
121	0xbcf424af	-0.029802648
122	0x39eff42a	0.0004576755
123	0xbc0ea0d3	-0.008705336
124	0xbd16b07b	-0.0367894
125	0x3c0d692f	0.008631035
126	0xbd80ce08	-0.06289297
127	0xbbe03a7d	-0.00684291
128	0xbd729d74	-0.05923219
129	0xbd2e596d	-0.04256575
130	0xbd0c78cc	-0.03429489
131	0xbd9e08eb	-0.07716545
132	0x3ce73c2b	0.028226933
133	0xbc3e5c38	-0.011618666
134	0x3cf42e15	0.02980713
135	0xbc0b3bb1	-0.008498118
136	0xbce51b22	-0.02796704
137	0xbd83fb38	-0.064444005
138	0xbd020ef5	-0.031752545
139	0x3d0c57e0	0.03426349
140	0xbdbd4929	-0.0924247
141	0xbc536cbc	-0.012904342
142	0xbc8a1da9	-0.016859846
143	0xbd82c862	-0.06385876
144	0x3c7e626c	0.015526395
145	0xbceb3f49	-0.0287167
146	0xbc94f363	-0.018182462
147	0xbb88381c	-0.0041570794
148	0x3cbd528d	0.023110652
149	0xbc5e6039	-0.013572746
150	0xbdacc04a	-0.08435114
151	0xbc5d4298	-0.013504647
152	0xbd5a672a	-0.05332104
153	0xbd21dd03	-0.039517414
154	0xbca7dd48	-0.020491257
155	0xbcf88cd9	-0.030340599
156	0x3c85798d	0.016293311
157	0x3ca45983	0.020062214
158	0xbc50f19b	-0.012752916
159	0x3d130ce9	0.035900984
160	0xbd2b415e	-0.041810386
161	0xbd4c10ab	-0.049820583
162	0xbd4b1403	-0.04957963
163	0xbbcd8c53	-0.0062728315
164	0x3b569360	0.003274165
165	0xbced8bf5	-0.0289974
166	0x3c0e93a1	0.00870219
167	0xbcde0ee6	-0.027106714
168	0x3c8a8b94	0.01691226
169	0x3a5a9602	0.0008338393
170	0xbcfafa37	-0.03063689
171	0x3c3a9709	0.011388549
172	0x3c42b697	0.011884353
173	0x3d8ca83b	0.06868025
174	0xbc5ea1ce	-0.013588382
175	0xbccf83fd	-0.025331492
176	0xbd519421	-0.051166657
177	0xbd849717	-0.064741306
178	0xbba12401	-0.004917622
179	0xbd2ef62a	-0.04271523
180	0xbc8d42bf	-0.017243741
181	0xbd2ee5c7	-0.0426996
182	0xbd9ea4d9	-0.07746286
183	0xbd7b570d	-0.061362315
184	0xbced03b6	-0.028932434
185	0xbd7d5fcd	-0.06185894
186	0xbc8ca2a1	-0.017167391
187	0x3ca15fb4	0.019698955
188	0xbcee52c2	-0.029092196
189	0xbd1ccc42	-0.038280733
190	0xbd2407b1	-0.040046398
191	0xbd260203	-0.040529262
192	0xbcbe0505	-0.023195753
193	0x3c6266b4	0.013818432
194	0x3d68ed4d	0.056866933
195	0xbd2f918e	-0.04286342
196	0x3c37a20c	0.011208069
197	0xbcee36b8	-0.029078826
198	0xbdb38c0a	-0.08766945
199	0xbd41ad4a	-0.047284402
200	0x3d4c4f6d	0.049880434
201	0xbc919df9	-0.017775523
202	0xbb3efc75	-0.0029142175
203	0x3ce7c3a0	0.028291523
204	0xbd31dda5	-0.043424267
205	0xbd5d7c98	-0.0540739
206	0xbccf85a1	-0.025332274
207	0xbb62f7e9	-0.003463263
208	0xbd3f6eeb	-0.04673664
209	0xbd6e1aa1	-0.058130864
210	0x3b835f0b	0.0040091327
211	0x3a4c934a	0.000780393
212	0xbc67bd9a	-0.014144326
213	0xbcc1ae6b	-0.02364274
214	0xbd2746dc	-0.04083906
215	0xbbb4e913	-0.0055209487
216	0xbc16db6d	-0.009207589
217	0x3bbb12c7	0.0057090255
218	0xbccd8ee6	-0.025092553
219	0xbd37ff6e	-0.04492133
220	0xbcb2601e	-0.021774348
221	0x38ac1de4	8.207167e-05
222	0xbd6b8c3e	-0.057506792
223	0xbd45ed84	-0.048322216
224	0x3cac3ce0	0.021025121
225	0x3cb81d02	0.02247477
226	0xbd669812	-0.05629737
227	0xbcace502	-0.021105293
228	0x3b8b9871	0.004260116
229	0xbcd06461	-0.02543849
230	0x3d00b983	0.031426918
231	0xbd548fc0	-0.051894903
232	0x3ca0c600	0.019625664
233	0xbd39397c	-0.045220837
234	0xbc29e90a	-0.010370502
235	0xbbd9b6d8	-0.006644111
236	0xbd45ff62	-0.048339255
237	0xbd68c035	-0.056823928
238	0xbd9206f5	-0.07130233
239	0xbc9123c0	-0.017717242
240	0xbd0bc350	-0.03412181
241	0xbd1bf481	-0.038074974
242	0x3c9a0ac0	0.018803954
243	0xbd3d816f	-0.046266016
244	0x3cd5f6de	0.026118692
245	0xbcb753d2	-0.022378836
246	0xbd5fe86d	-0.054665018
247	0xbd6d6448	-0.057956964
248	0xbc046ade	-0.00808212
249	0xbd377934	-0.044793323
250	0x3c7a4941	0.015276254
251	0x3c5d2a15	0.013498803
252	0xbd1bb32f	-0.03801268
253	0xbc179754	-0.009252388
254	0xbd1851c3	-0.03718735
255	0xbccf57e3	-0.025310462

network_body._body_endoder.seq_layers.0.weight f4 [256, 158]
0	0xbcedea4e	-0.02904239
1	0xbd588569	-0.052861605
2	0x3cffb5ad	0.03121456
3	0x3d2381eb	0.03991882
4	0x3d1f7391	0.038928572
5	0x3cadb93e	0.021206494
6	0x3e1e83f5	0.15480025
7	0x3d7472cc	0.05967979
8	0x3b9a6969	0.004712273
9	0x3d9baf93	0.076018475
10	0xbdccdebd	-0.100034215
11	0xbe331a36	-0.17490467
12	0x3cfd161b	0.03089433
13	0x3be4e565	0.006985354
14	0xbc77e99c	-0.01513138
15	0xbdec53a3	-0.1153939
16	0x3de6d70d	0.112714864
17	0x3d2d3099	0.042282674
18	0xbcea07b9	-0.028568136
19	0xbd06629e	-0.032808892
20	0xbb6fa69a	-0.0036567808
21	0xbd7c8927	-0.061654236
22	0x3dd0c675	0.10194103
23	0x3d5f0d53	0.054456066
24	0xbc661ff3	-0.014045703
25	0xbd1f8617	-0.038946237
26	0x3b05c51c	0.0020411676
27	0x3e59cbd2	0.21269158
28	0xbcadaff0	-0.021202058
29	0x3df0e648	0.11762673
30	0xbc9677a4	-0.018367596
31	0x3c496be3	0.012293789
32	0x3c0cdce0	0.008597583
33	0xbdeb8380	-0.11499691
34	0x3e0cb17e	0.13739583
35	0x3e0ac443	0.1355143
36	0x3da9d03c	0.08291671
37	0x3eb17764	0.346614
38	0xbdddab65	-0.108237065
39	0x3dc0e9dd	0.09419606
40	0xbd36e9ab	-0.044656437
41	0xbddf6a89	-0.10908992
42	0xbd99ff79	-0.07519431
43	0xbca6a865	-0.020343969
44	0xbdb3da66	-0.087818906
45	0x3d378075	0.04480024
46	0x3dc67960	0.09691119
47	0x3cdc64d1	0.026903542
48	0xbdef7110	-0.11691487
49	0xbcb4612e	-0.022018995
50	0xbc976558	-0.018480942
51	0xbd2a101b	-0.041519266
52	0xbd5b157b	-0.053487282
53	0x3dd14c2e	0.10219608
54	0xbc72b99f	-0.014814763
55	0xbcdcc287	-0.026948227
56	0xbc429db7	-0.011878422
57	0x3bf0fc3b	0.007354287
58	0x3c3886bf	0.011262595
59	0x3d34a2f7	0.044100728
60	0xbcbcc4db	-0.023043087
61	0x3d78bc29	0.06072632
62	0x3cdd1cd7	0.026991291
63	0xbce54107	-0.027985109
64	0xbe099af4	-0.13438016
65	0xbc25f54c	-0.010129284
66	0x3d145870	0.036217153
67	0xbc3598ac	-0.011083763
68	0xbdccd82c	-0.10002169
69	0xbd1baab0	-0.038004577
70	0xbe574adb	-0.21024649
71	0x3d29ea20	0.041483045
72	0x3be30438	0.006927993
73	0x3c5c4572	0.013444291
74	0x3dda92a0	0.10672498
75	0xbd8c2067	-0.06842118
76	0x3d5361e8	0.051607043
77	0xbda00a27	-0.078144364
78	0xbe01ff04	-0.12694937
79	0x3d13e17f	0.03610372
80	0x3dc09fc7	0.09405475
81	0x3c6fb4a0	0.014630467
82	0x3cc421c1	0.023941876
83	0xbd3c6f7b	-0.046004754
84	0x3d9b421b	0.07580968
85	0xbe4270f7	-0.18988405
86	0x3d606761	0.05478609
87	0xbd4723d9	-0.04861817
88	0x3dd3b94a	0.103380755
89	0x3e1869c7	0.14884101
90	0x396efed4	0.0002279238
91	0xbc3cc338	-0.011521153
92	0xbc0253c1	-0.007954539
93	0xbd545286	-0.051836513
94	0xbd9255b8	-0.07145256
95	0x3c5e8895	0.013582368
96	0xbc985ed7	-0.01859991
97	0x3d3bd57c	0.04585789
98	0x3d56698b	0.052346747
99	0xbe3418c8	-0.17587578
100	0xbdabc00f	-0.08386242
101	0xbe0865c8	-0.13320076
102	0x3d261024	0.040542737
103	0xbceef03a	-0.029167283
104	0xbd530670	-0.05151981
105	0xbda43f55	-0.08019892
106	0xbdec1c34	-0.11528817
107	0x3e831651	0.25602964
108	0xbc5ca0c6	-0.013466066
109	0xbc8b81a2	-0.017029587
110	0xbe27f9bd	-0.16403861
111	0x3dd4b587	0.10386186
112	0xbde8a96d	-0.113604404
113	0x3d08d5bf	0.03340697
114	0x3d820fe2	0.06350686
115	0xbd9df351	-0.077124245
116	0x3df48b40	0.11940622
117	0x3dad2063	0.08453443
118	0xbe2d244f	-0.16908382
119	0x3b831a4f	0.004000939
120	0xbe0437b3	-0.12911873
121	0xbdcfbebf	-0.10143804
122	0xbc011783	-0.007879141
123	0x3dc4d6af	0.0961126
124	0x3c998061	0.018737974
125	0x3d3722db	0.044710975
126	0xbd9adfbd	-0.07562206
127	0x3c2b6409	0.010460862
128	0x3d24e000	0.040252686
129	0xbdc987df	-0.098403685
130	0x3d709689	0.05873731
131	0xbd484d09	-0.04890159
132	0xbda96ef3	-0.08273115
133	0x3c837f6b	0.016051969
134	0x3d9a274b	0.07527026
135	0xbe07f77a	-0.13277999
136	0xbda21f70	-0.079161525
137	0x3c07ff8c	0.008300673
138	0x3e233d9c	0.15941471
139	0x3e1ea863	0.15493922
140	0xbe073381	-0.13203241
141	0xbd551817	-0.052024927
142	0x3dcb1f4d	0.099180795
143	0xbd4aadcf	-0.049482163
144	0x3d78efe2	0.060775645
145	0xbd415441	-0.04719949
146	0xbd6436f3	-0.055716466
147	0x3da7838d	0.08179388
148	0xbd66a372	-0.056308217
149	0x3db1fd26	0.08690862
150	0x3d1bb533	0.038014602
151	0x3d8f7d62	0.07006337
152	0x3dfcdf94	0.12347332
153	0xbdda5006	-0.106597945
154	0xbdd16b29	-0.10225517
155	0x3df90156	0.12158458
156	0x3e2c071f	0.16799591
157	0xbe1051e9	-0.14093746
158	0x3e6ff15c	0.23431915
159	0x3c8308f9	0.01599549
160	0x3c2b40cb	0.01045246
161	0xbbc14470	-0.005898051
162	0x3d759624	0.05995764
163	0xbe06c727	-0.13161908
164	0xbbf105c0	-0.007355422
165	0xbd6b7c6e	-0.057491712
166	0xbd13e4fa	-0.03610704
167	0x3dcfeaff	0.10152244
168	0x3d2769a8	0.040872246
169	0xbd40b752	-0.047049828
170	0xbd9d1045	-0.07669119
171	0x3e15148c	0.1455862
172	0x3ca48d77	0.020086987
173	0x3d5e9a69	0.054346476
174	0xbda87c74	-0.082268625
175	0xbc76cf6a	-0.0150641
176	0x3d81b4c5	0.06333307
177	0x3deaf5fd	0.114727
178	0x3d54d2c3	0.05195881
179	0xbe30ac15	-0.17253144
180	0xbdb4b138	-0.08822864
181	0x3c80f39f	0.015741168
182	0x3dbd68e9	0.09248526
183	0xbd4f80a3	-0.050659787
184	0x3c8073d7	0.015680237
185	0x3d8fb249	0.07016427
186	0x3b05d07f	0.0020418463
187	0xbc1265d7	-0.008935413
188	0x3c77b2d2	0.015118318
189	0x3d147f49	0.0362542
190	0x3cd070f3	0.025444483
191	0x3dee4d95	0.11635891
192	0xbe075a2b	-0.1321799
193	0x3d263c87	0.040585067
194	0x3de9d14e	0.11416875
195	0x3bc23d04	0.005927684
196	0xbd7ecbd9	-0.062206123
197	0xbd5389e7	-0.051645186
198	0xbd85536b	-0.06510051
199	0xbd4b5223	-0.04963888
200	0xbd883225	-0.06650189
201	0x3c9adf85	0.01890541
202	0xbd63406b	-0.055481356
203	0x3db06b85	0.08614258
204	0x3de6fd5c	0.11278793
205	0x3d4aec0c	0.049541518
206	0x3d74880c	0.059700057
207	0xbe0dff90	-0.1386702
208	0xbd3845a7	-0.0449883
209	0x3d6f00b9	0.0583503
210	0xbbf7d48e	-0.0075631803
211	0xbcd735f5	-0.026270846
212	0xb925b780	-0.00015803985
213	0xbdb982ea	-0.09058173
214	0x3e02a355	0.12757619
215	0x39e7fe2a	0.0004424912
216	0xbc48e968	-0.01226268
217	0x3b294b03	0.0025832064
218	0x3d1deeb7	0.038557734
219	0xbd91853a	-0.07105489
220	0x3e094e33	0.13408737
221	0xbe2ffef7	-0.17187105
222	0xbddf67b5	-0.109084524
223	0xbddcfca9	-0.107903786
224	0xbca2e614	-0.0198851
225	0x3d52b743	0.051444303
226	0x3d889d03	0.066705726
227	0x3de3b6b2	0.11118831
228	0xbd707ce5	-0.05871286
229	0x3d88a20a	0.066715315
230	0x3e371892	0.17880467
231	0x3e0492ce	0.12946627
232	0x3caf7a5f	0.021420656
233	0xbdb095d4	-0.086223274
234	0xbe3c2d2b	-0.18376605
235	0xbdd69650	-0.104778886
236	0x3dde5da9	0.10857708
237	0xbba6df91	-0.005092569
238	0x3d04d140	0.03242612
239	0x3e0febb8	0.14054763
240	0x3c49f9f5	0.012327661
241	0x3dd324b0	0.10309732
242	0xbd08769f	-0.03331625
243	0x3c8319f1	0.01600358
244	0x3cf35f3b	0.029708495
245	0x3d97751a	0.07395382
246	0xbd8bad82	-0.06820203
247	0xbd169b3d	-0.03676914
248	0x3d37aa82	0.044840343
249	0x3dbdde78	0.09270948
250	0x3ddfeed0	0.10934222
251	0xbe2fee3b	-0.17180721
252	0x3d40597a	0.04696033
253	0x3d2e4f92	0.042556353
254	0xbe2fa233	-0.17151718
255	0xbd860999	-0.06544799

network_body._body_endoder.seq_layers.2.bias f4 [256]
0	0x3c95af89	0.018272178
1	0xbc63bee7	-0.013900495
2	0xbcfacdaa	-0.030615646
3	0xbcda1058	-0.026619121
4	0xbce585b2	-0.028017852
5	0x3ceea7f3	0.029132819
6	0xbd823e89	-0.06359584
7	0xbd426700	-0.04746151
8	0xbcf3808d	-0.029724384
9	0xbab4e030	-0.0013799723
10	0xbd60f639	-0.054922316
11	0xbb96c497	-0.004601072
12	0xbc083b8e	-0.00831498
13	0xbcaae907	-0.02086307
14	0xbc6a0809	-0.014284142
15	0xbbfba167	-0.007679153
16	0xbc2139ca	-0.009840438
17	0xbca10181	-0.019654037
18	0x3b82469f	0.003975704
19	0xbd65da14	-0.05611618
20	0xbd7e35cb	-0.06206302
21	0xbc0b067c	-0.008485433
22	0xbcfa3bc2	-0.030546073
23	0xbc4025db	-0.011727775
24	0xbd3e0b98	-0.046397775
25	0xbcd554b8	-0.026041374
26	0xbb251ed9	-0.0025195389
27	0xbd93dca8	-0.07219821
28	0xbd8f1459	-0.06986303
29	0xbd09df75	-0.03366037
30	0xbd56ce59	-0.052442882
31	0xbc7c1dde	-0.01538798
32	0xbc4af882	-0.01238835
33	0xbcdc2d9c	-0.026877217
34	0x3ce266a4	0.027636833
35	0x3ada7547	0.0016667031
36	0xbc8dde8f	-0.017318038
37	0xbd0a5835	-0.033775527
38	0xbc0e8e95	-0.008700986
39	0xbca76079	-0.020431744
40	0xbd5ce774	-0.05393167
41	0xbcecea23	-0.028920239
42	0xbd2e07f3	-0.04248805
43	0xbcb5ea2e	-0.022206392
44	0xbcd9dd05	-0.026594648
45	0xbd6e204b	-0.058136266
46	0xbce7df32	-0.02830467
47	0xbc415884	-0.011800889
48	0xbd16b403	-0.036792766
49	0xbd316e1e	-0.043317907
50	0xb9318d56	-0.00016932687
51	0x3c7323d7	0.014840088
52	0xbd5931a1	-0.053025845
53	0xbd537382	-0.05162383
54	0xbd005c38	-0.031337947
55	0xbcab42b3	-0.020905828
56	0xbcaa94ec	-0.020822965
57	0xbac13605	-0.001474083
58	0xbd1ba14a	-0.037995614
59	0xbd15b6a5	-0.036551137
60	0xbd0e99b9	-0.03481457
61	0xbd34fed1	-0.044188324
62	0xbca3c858	-0.019992992
63	0xbd4cca67	-0.049997713
64	0x3b8f8202	0.004379512
65	0xbc998724	-0.018741198
66	0xbc72207e	-0.014778255
67	0xbcf83917	-0.03030066
68	0xbb03eebe	-0.0020131315
69	0xbd1834cf	-0.037159737
70	0x3ad22480	0.0016032606
71	0xbcb68a55	-0.022282759
72	0x3bc904f9	0.006134626
73	0x3cdb16be	0.026744243
74	0xbcfd3251	-0.030907782
75	0xbd87a8eb	-0.066240154
76	0x3c37a657	0.011209092
77	0x3ab07f39	0.001346565
78	0xbd1908e7	-0.037362006
79	0x3c39a7c2	0.0113315005
80	0x3c80cb81	0.015722038
81	0xbd2503af	-0.040286716
82	0xbc7b2308	-0.015328176
83	0xbc0f0654	-0.008729536
84	0xbd20231a	-0.039095975
85	0xbd02b049	-0.0319064
86	0xbaacf904	-0.0013196771
87	0xbd3f5974	-0.04671617
88	0xbca28f5b	-0.019843748
89	0x3ad6182e	0.001633411
90	0xbceb6634	-0.028735258
91	0x3b96298d	0.00458259
92	0xbccd48ff	-0.025059221
93	0x3bd05676	0.006357963
94	0xbcadd72f	-0.021220772
95	0xbd803867	-0.06260758
96	0xbc293310	-0.010327116
97	0xbd2101be	-0.039308302
98	0x3b99d9c6	0.00469515
99	0x3c93ef34	0.018058397
100	0xbd46fb5c	-0.04857956
101	0xbcd04215	-0.025422135
102	0xbd11a20a	-0.035554923
103	0xbd5b59e9	-0.053552542
104	0xbbcff2f0	-0.006346099
105	0xbc5cfeca	-0.013488481
106	0xbd6d574a	-0.057944573
107	0x3c1919ac	0.0093445
108	0xbd502028	-0.050811917
109	0x3ad8ab38	0.0016530519
110	0xbd190316	-0.03735646
111	0xbd1849b1	-0.037179653
112	0xbc937eb9	-0.018004762
113	0x3ae10100	0.0017166436
114	0xbcc40701	-0.023929121
115	0xbb373aad	-0.0027958557
116	0x3ca53904	0.020168789
117	0x3d1edfb9	0.038787577
118	0xbccacd6b	-0.024756154
119	0xbd20510b	-0.03913979
120	0xbb5cf8ca	-0.0033717626
121	0xb9c7cc1f	-0.0003810832
122	0xbd6fb3d2	-0.0585211
123	0xbd2376e9	-0.039908323
124	0xbc15c679	-0.009141558
125	0xbbc9331a	-0.006140125
126	0x3a564733	0.00081740617
127	0xba40126f	-0.00073269656
128	0xbbedd03b	-0.007257489
129	0xbd243b14	-0.040095404
130	0xbc7631aa	-0.015026489
131	0xbca0d9d4	-0.019635119
132	0xbb67d890	-0.0035376884
133	0x3cf1d119	0.02951865
134	0x3c641fb6	0.013923576
135	0xbc4d5610	-0.012532726
136	0x3c189089	0.009311804
137	0xbd29b57c	-0.041432843
138	0xbd283cbc	-0.041073546
139	0xbd044bae	-0.032298736
140	0xbbfa848c	-0.0076451954
141	0xbd64b256	-0.055834137
142	0xbcc7d314	-0.024392642
143	0x3a584cc0	0.0008251183
144	0xb9aee946	-0.00033361668
145	0xbd367d45	-0.04455306
146	0xbd415302	-0.047198303
147	0xbc4eabec	-0.012614232
148	0xbd692bba	-0.056926467
149	0xbc6b2b14	-0.014353532
150	0xbd4b4c10	-0.049633086
151	0xbd026dc9	-0.03184298
152	0x3c99c999	0.018772887
153	0xbac94fbc	-0.0015358846
154	0xbb9cbce1	-0.0047832583
155	0xbcf11de9	-0.029433208
156	0xbd4ba745	-0.049720068
157	0xbd373756	-0.044730507
158	0x3d056dd8	0.03257546
159	0xbcaccaf6	-0.021092873
160	0xbd386c26	-0.045025013
161	0xbb927aeb	-0.0044702194
162	0xbd0c2c72	-0.034222074
163	0xbc3fe999	-0.011713409
164	0xbcbb749b	-0.02288275
165	0xbd0a335b	-0.033740383
166	0xbc821b9f	-0.015882311
167	0xbcaa4ad3	-0.020787632
168	0xbd871565	-0.065958776
169	0xbb70255c	-0.0036643362
170	0x3ca07ff7	0.019592268
171	0xbd485f50	-0.048919022
172	0xbd30bc52	-0.043148346
173	0xbd14fbde	-0.03637301
174	0x3bd25a6d	0.006419471
175	0xbd03c6d2	-0.03217203
176	0xbcc36257	-0.023850603
177	0xbd45f138	-0.048325747
178	0xbd9020cb	-0.07037505
179	0xbbbd898d	-0.0057842196
180	0xbd1ae632	-0.037817188
181	0xbc6666fe	-0.014062641
182	0xbc9c9f3b	-0.019118896
183	0xbd0e8feb	-0.03480522
184	0x3c19a84d	0.009378505
185	0xbcd38ef6	-0.025825005
186	0x3a0f8dda	0.00054761546
187	0xbd4762ee	-0.04867833
188	0xbc33b452	-0.010968285
189	0xbc5c04ec	-0.013428908
190	0x3bf577ef	0.007491104
191	0x3b9e4427	0.0048299017
192	0x3abbc5db	0.0014325933
193	0x3c0c30b9	0.008556538
194	0xbcbecf78	-0.023292288
195	0x3d2c1cd0	0.042019665
196	0xbc50367c	-0.012708303
197	0xbcddd173	-0.027077412
198	0xbc75b7b4	-0.0149974115
199	0xbc0bd28e	-0.008534087
200	0xbd19e237	-0.03756925
201	0xbd2e9d68	-0.042630583
202	0xbd1e49c9	-0.038644586
203	0xbd4512f4	-0.04811378
204	0xbb4f5d36	-0.0031641251
205	0xbc1320cb	-0.008979986
206	0xbceda32e	-0.029008474
207	0x3be3b775	0.00694936
208	0xbcfd555f	-0.030924497
209	0xbc550a0e	-0.0130028855
210	0xbd1940e2	-0.037415393
211	0xbcda7e17	-0.026671452
212	0xbc97c226	-0.018525194
213	0xbcfff019	-0.031242417
214	0xbd4a5d9b	-0.049405675
215	0xbc81da8f	-0.015851287
216	0xbd8fad0e	-0.070154294
217	0xbccd2fd0	-0.025047213
218	0xbcd2cd54	-0.025732674
219	0xbc961f25	-0.018325398
220	0xbd1ba806	-0.038002037
221	0xbd11b48c	-0.035572574
222	0xbd401034	-0.046890453
223	0xbd685c48	-0.05672863
224	0xbc2b1149	-0.010441133
225	0x3cd39603	0.025828367
226	0xbd54ab57	-0.051921215
227	0x3ceec11d	0.029144818
228	0xbd85fefd	-0.06542776
229	0xbd502bd7	-0.05082306
230	0xbd57d9a5	-0.052697796
231	0xbc8ba84f	-0.01704803
232	0xbd5ce546	-0.05392959
233	0x3c07b918	0.008283876
234	0xbcb1f464	-0.02172298
235	0xbc2fa2c7	-0.0107199615
236	0xbd2bc465	-0.041935343
237	0x3bb68650	0.0055702105
238	0x3c26367a	0.010144824
239	0xbc418b88	-0.011813052
240	0x3c3aa5f8	0.011392109
241	0xbc972311	-0.018449338
242	0xbc81ca45	-0.01584352
243	0xbc3a318e	-0.011364354
244	0x3c9473a6	0.018121552
245	0xbd01d9b5	-0.031701762
246	0xbd970ab1	-0.07375086
247	0xbd4fa6bc	-0.05069612
248	0xbd898240	-0.06714296
249	0x3a346b07	0.00068824034
250	0xbcd6b321	-0.026208462
251	0xbdb0fb3d	-0.0864167
252	0xbc938a86	-0.018010389
253	0xbb27b574	-0.0025590332
254	0xbcbca980	-0.023030043
255	0x3ce3c5d4	0.027804293

network_body._body_endoder.seq_layers.2.weight f4 [256, 256]
0	0x3c1b34fd	0.009473083
1	0x3e041bb5	0.12901194
2	0x3d7085ef	0.05872148
3	0xbd51e5ce	-0.05124455
4	0xbd45dcd4	-0.0483063
5	0x3da5e34d	0.08099995
6	0x3e511977	0.2041987
7	0x3b63c0e4	0.0034752423
8	0x3c930578	0.017946944
9	0x3e130a13	0.14359312
10	0xbc05c5a8	-0.008164801
11	0x3df9164c	0.12162456
12	0x3d0d22fb	0.034457188
13	0x3c1d3b89	0.009596714
14	0xbd5128a2	-0.05106414
15	0x3dd4a777	0.10383504
16	0x3dce0e5c	0.100613326
17	0x3d3b61d3	0.04574759
18	0xbdb478cf	-0.08812105
19	0x3ce126ec	0.02748438
20	0x3ca2e1e7	0.01988311
21	0x3d4ea072	0.05044598
22	0xbdc0c766	-0.09413032
23	0xbe08ba9b	-0.13352434
24	0x3e3f0868	0.1865555
25	0xbe02ce81	-0.12774087
26	0x3c731040	0.014835417
27	0x3d563d77	0.05230471
28	0x3d385b7d	0.045009125
29	0x3d8b19c5	0.067920245
30	0x3d819dcf	0.06328928
31	0xbc62f532	-0.013852404
32	0x3cbf5c3f	0.023359416
33	0xbda349fe	-0.07973097
34	0x3dc67346	0.096899554
35	0x3db50af5	0.088399805
36	0x3cc1f787	0.0236776
37	0x3cd49604	0.02595044
38	0xbe16adce	-0.14714739
39	0x3db0a076	0.086243555
40	0xbe0e2672	-0.13881853
41	0x3d4e286b	0.050331514
42	0xbd711700	-0.058859825
43	0x3de2d713	0.110761784
44	0x3d2c2cf8	0.042035073
45	0xbdaafc36	-0.08348887
46	0x3df7e9a9	0.12105114
47	0xbc94c712	-0.01816133
48	0xbe130dd2	-0.14360741
49	0x3b20bda4	0.0024527097
50	0xbc57c3d5	-0.013169249
51	0x3e240b71	0.1601999
52	0x3df45659	0.11930532
53	0x3bc7383b	0.0060797012
54	0x3d646e39	0.05576918
55	0xbbd1a5b8	-0.006397929
56	0x3bc2bd5a	0.0059429826
57	0xbb0030eb	-0.0019560407
58	0x3dd8b1e6	0.105808064
59	0x3e1ea2ac	0.15491742
60	0xbcba9285	-0.022774944
61	0xbd611f5e	-0.054961555
62	0xbe336fd6	-0.17523131
63	0x3d19b777	0.03752848
64	0xbe0b65e2	-0.13613084
65	0xbc1a56cb	-0.009420107
66	0x3d9efdd0	0.07763255
67	0x3da0a3e3	0.07843759
68	0xbdb52a6c	-0.08845982
69	0xbde271b9	-0.11056847
70	0xbd22ec9c	-0.03977643
71	0x3c5ae21e	0.013359575
72	0xb954818a	-0.00020266153
73	0x3e657cb5	0.22410853
74	0xbdb777c8	-0.08958393
75	0xbe464514	-0.19362289
76	0x3c541ef0	0.012946829
77	0x3b897ab1	0.004195534
78	0x3d92984f	0.07157957
79	0xbcfd2208	-0.030900016
80	0x3e01129e	0.12604758
81	0xbc4cf4bf	-0.012509524
82	0x3d6d219d	0.057893384
83	0x3e18847d	0.1489429
84	0xbe38dbbb	-0.1805257
85	0xbe2fc3b7	-0.17164503
86	0x3d2b6028	0.04183975
87	0x3e3d210f	0.18469642
88	0xbc33b450	-0.010968283
89	0xbc7e3f0c	-0.015517961
90	0xbcc88e62	-0.024481956
91	0x3c849724	0.01618535
92	0xbdc06c66	-0.09395675
93	0x3d94b48e	0.072610006
94	0xbdde8f57	-0.10867184
95	0xbdb07366	-0.086157605
96	0xbdf2b998	-0.118518054
97	0x3d389e30	0.045072734
98	0x3d4f3943	0.05059172
99	0x3d0e53e4	0.034747973
100	0x3a7a4720	0.00095473416
101	0xbd496e24	-0.049177304
102	0xbdaa9a72	-0.08330239
103	0xbd4d4ecd	-0.05012398
104	0xbc363c5d	-0.01112279
105	0x3e11bccc	0.14232177
106	0x3d46ff0f	0.048583087
107	0xbcd80306	-0.02636863
108	0x3cbb6644	0.022875912
109	0xbd45127a	-0.048113324
110	0xbe059a76	-0.13047203
111	0xbc83c4e7	-0.016085101
112	0x3d0cfed0	0.034422696
113	0xbdd29a9d	-0.102833964
114	0xbe46b6d3	-0.1940568
115	0x3ce6042e	0.028078165
116	0x3dfb118d	0.12259207
117	0xbd497c7b	-0.04919098
118	0xbb82bbb5	-0.0039896616
119	0xbcdcc4c1	-0.026949288
120	0x3c72d366	0.014820909
121	0xbd88f8cf	-0.066880815
122	0x3df98030	0.12182653
123	0xbd85ee58	-0.06539601
124	0xbd8015e2	-0.06254174
125	0x3bbf9dc0	0.0058476627
126	0x3d30b474	0.043140844
127	0x3dd26cfe	0.10274695
128	0xbc9a80c6	-0.018860232
129	0xbdc7af39	-0.09750218
130	0x3d21d4b7	0.0395095
131	0x39ba4e72	0.0003553513
132	0xbada76c9	-0.0016667481
133	0xbe375995	-0.17905267
134	0xbd418f9f	-0.04725611
135	0xbd1e2c2f	-0.038616356
136	0x3c3451c2	0.011005821
137	0x3dad2faa	0.08456357
138	0x3a0a1f52	0.00052689493
139	0x3d30ec69	0.04319421
140	0x3d9eeed6	0.07760398
141	0xbd793b78	-0.06084773
142	0xbe147125	-0.14496286
143	0x3b821196	0.0039693816
144	0x3e040c50	0.12895322
145	0xbda95e73	-0.08269968
146	0xbdd1d354	-0.10245386
147	0x3e021541	0.1270342
148	0x3d4d6f2d	0.050154854
149	0xbd54f44d	-0.051990796
150	0xbd76de6c	-0.06027071
151	0x3d09fc62	0.033687957
152	0x3d5e06eb	0.054205816
153	0xbd546d75	-0.0518622
154	0x3d4f2d58	0.050580353
155	0xbd29390c	-0.04131417
156	0xbd0d81ea	-0.034547724
157	0xbe0abdbf	-0.13548945
158	0xbe268b28	-0.16264021
159	0xbddf09cf	-0.10890543
160	0xbc9e8275	-0.019349316
161	0x3c989842	0.01862729
162	0xbc298324	-0.010346208
163	0x3d851f88	0.06500155
164	0xbc19a0c7	-0.009376711
165	0xbdd979b0	-0.10618913
166	0xbca84930	-0.020542711
167	0xbd64fd36	-0.055905543
168	0xbe13198d	-0.14365216
169	0x3d130643	0.035894644
170	0x3dc02d91	0.09383691
171	0x3dfe66ee	0.12421976
172	0x3bda1887	0.006655756
173	0x3da05f62	0.07830693
174	0xbcc82a81	-0.02443433
175	0xbc662acb	-0.014048289
176	0xbe28e2f5	-0.16492827
177	0x3d91c15f	0.07116961
178	0x3d30e856	0.043190323
179	0xbc054b74	-0.008135665
180	0xbc287326	-0.01028136
181	0x3e0f0861	0.1396804
182	0xbd8c16de	-0.06840299
183	0xbdfdbedc	-0.12389919
184	0xbdc28a2f	-0.09499013
185	0x3de977c8	0.113997996
186	0x3b36c1ce	0.0027886513
187	0xbdf6bf82	-0.12048246
188	0x3dcdfc40	0.100578785
189	0xbd683887	-0.056694534
190	0xbd20b832	-0.039238162
191	0x3d9e76cf	0.07737505
192	0xbe7ec3b9	-0.2487935
193	0x3d32532d	0.043536354
194	0x3d5c2f39	0.053755973
195	0xbd0171ae	-0.031602554
196	0xbde2f5a2	-0.11082007
197	0xbb25d380	-0.0025303066
198	0x3dae9596	0.08524625
199	0xbe456d06	-0.1927987
200	0x3d825874	0.06364527
201	0x3cbfce14	0.023413695
202	0xbddfbfc4	-0.10925248
203	0x3e32af19	0.17449607
204	0x3d8f5276	0.0699815
205	0xbdb2c221	-0.087284334
206	0x3c8aa128	0.016922548
207	0xbd9a2134	-0.07525864
208	0x3d40c60c	0.047063872
209	0x3deb34b4	0.11484662
210	0x3d60b590	0.05486065
211	0x3de91d12	0.11382498
212	0xbdb97f47	-0.09057479
213	0xbe357e1f	-0.17723893
214	0xbb6df0b4	-0.00363068
215	0xbdd9222e	-0.106022224
216	0x3cd430d4	0.02590219
217	0xbd85f9dd	-0.06541798
218	0xbd6e85f7	-0.058233228
219	0xbd962180	-0.07330608
220	0x3d4f1f4b	0.050566953
221	0xbdb6fa18	-0.0893442
222	0xbd88a1a7	-0.06671458
223	0xbde7411d	-0.11291716
224	0x3d3839e9	0.044977102
225	0x3e0f2b07	0.13981257
226	0x3d7e6471	0.062107507
227	0x3db8bac2	0.09019996
228	0x3dd34142	0.10315181
229	0x3db2a8b9	0.087235875
230	0x3dbe6928	0.09297401
231	0xbd82e253	-0.06390824
232	0x3cfcebab	0.030874094
233	0x3cda0ae7	0.026616527
234	0xbe2d0e1e	-0.16899917
235	0xbbafe16c	-0.0053674486
236	0x3e002af6	0.12516388
237	0xbd33e109	-0.043915782
238	0xbdd4c23c	-0.1038861
239	0xbda88093	-0.082276486
240	0x3c85b6d4	0.01632253
241	0xbe1595c6	-0.14607915
242	0xbd39ca59	-0.04535899
243	0x3d06fa3b	0.032953482
244	0xbdd3e725	-0.10346822
245	0xbad45f28	-0.0016202675
246	0xbd2c0ac9	-0.042002473
247	0xbe06a961	-0.1315055
248	0x3c628427	0.013825453
249	0xbd33097d	-0.04371022
250	0xbd459da3	-0.048246037
251	0xbc9ceafe	-0.019155022
252	0xbe11ec8f	-0.14250396
253	0xbdc54cef	-0.096338145
254	0x3e0ad8c2	0.13559249
255	0xbbdac5df	-0.00667642

network_body._body_endoder.seq_layers.4.bias f4 [256]
0	0xba97958b	-0.0011564953
1	0x3cc0cc59	0.02353494
2	0xbcc99499	-0.02460699
3	0xbd51b970	-0.051202238
4	0xbce87715	-0.028377095
5	0xbc254fe8	-0.010089852
6	0xbccf3c4a	-0.025297303
7	0xbd176bd5	-0.03696807
8	0x3d01c98a	0.031686343
9	0xbca91f0d	-0.020644689
10	0xbbfd9684	-0.00773889
11	0xbc8328b3	-0.016010618
12	0xbce56acc	-0.028005026
13	0xbcaa529f	-0.02079135
14	0xbbd32068	-0.006443072
15	0x3c1f4047	0.009719915
16	0x3ca974a0	0.020685494
17	0xbc5e0a34	-0.013552237
18	0xbcebb05c	-0.028770618
19	0xbd699344	-0.05702521
20	0xbd21d6b9	-0.039511416
21	0xbbea6d56	-0.007154147
22	0xbccea076	-0.025222998
23	0xbc1ae130	-0.009453103
24	0xbc181c2c	-0.00928406
25	0xbb735988	-0.0037132222
26	0xbd007f55	-0.031371433
27	0x3d2a572e	0.041587047
28	0x3b4e2428	0.0031454656
29	0xbb47aa91	-0.0030466656
30	0xbc73a80e	-0.01487161
31	0xbba197c7	-0.0049314233
32	0xba7e4aa2	-0.0009700452
33	0xbd31261e	-0.043249242
34	0xbba85358	-0.0051368885
35	0xbb7394cb	-0.0037167545
36	0xba0585a3	-0.0005093461
37	0xbd35d25f	-0.04439008
38	0x3c14ff7f	0.009094118
39	0x3b75c17e	0.0037499364
40	0xbd0ec5de	-0.03485667
41	0x3b6b4015	0.003589635
42	0xbd4c4c8e	-0.049877696
43	0xbd22c2b4	-0.039736465
44	0xbc9c54c2	-0.019083384
45	0x3bf63db6	0.0075146807
46	0xbb41a244	-0.002954618
47	0x3cc6114a	0.024178166
48	0x3bdaf154	0.0066816006
49	0xbbbb5b9e	-0.0057177087
50	0xb9e3fb18	-0.00043483893
51	0x3bee1bde	0.0072665056
52	0xbb5d2192	-0.0033741933
53	0xbbaa62f1	-0.005199783
54	0xbca19769	-0.019725518
55	0xbbdcd532	-0.006739282
56	0xb94ba00d	-0.00019419212
57	0x3a5c4ccb	0.0008403777
58	0xbd0e2a49	-0.034708295
59	0x3c4481cc	0.011993837
60	0xbc5e201a	-0.013557458
61	0xbbf1c0f4	-0.007377738
62	0xbd229243	-0.039690267
63	0xbd1ad26d	-0.037798334
64	0xbd3658bf	-0.04451823
65	0xbc443b58	-0.011977039
66	0xba9a592e	-0.0011775845
67	0xbd267206	-0.040636085
68	0xbcf82130	-0.030289263
69	0xbd17a558	-0.03702292
70	0xbd24b7d0	-0.04021436
71	0x3bdc6a5f	0.0067265476
72	0xbd14565f	-0.036215182
73	0xbce914ee	-0.028452363
74	0xbc0d6148	-0.008629151
75	0xbd1b2a92	-0.037882395
76	0x3aed2594	0.0018092864
77	0xbbe55d49	-0.006999646
78	0xbce541df	-0.027985511
79	0x3b7c776a	0.0038523325
80	0xbd514c6c	-0.051098272
81	0xbab6b643	-0.0013939816
82	0xbbf5f5cd	-0.0075061084
83	0xbd225b6c	-0.039637968
84	0xbb8a6faf	-0.0042247395
85	0xbd2219ed	-0.039575506
86	0xbc99b80a	-0.018764514
87	0xbb123ff0	-0.0022315942
88	0x3b81efc8	0.0039653517
89	0xbc97a4a2	-0.01851112
90	0xbc981057	-0.018562479
91	0x3c14d3e1	0.009083719
92	0xbc365f02	-0.01113105
93	0xbb6d21fc	-0.0036183586
94	0xbc146558	-0.009057365
95	0x3cab9b8a	0.02094819
96	0xbc8665f7	-0.016406043
97	0xba90d1b5	-0.0011048826
98	0xbcd27a5a	-0.025693107
99	0x3c93af37	0.018027885
100	0xbd880dd1	-0.0664326
101	0xbbf9ac77	-0.0076194364
102	0xbc53d7da	-0.012929881
103	0x3a13a9b3	0.0005632892
104	0xbca6f68f	-0.02038124
105	0xbd3caa16	-0.046060644
106	0xbcb6595a	-0.022259403
107	0x3c4fba9f	0.012678771
108	0xbcc9d9a8	-0.02463992
109	0xbd272bb3	-0.04081316
110	0xbc1b4b10	-0.0094783455
111	0xbc9ea96b	-0.019367894
112	0x3cb2284d	0.021747733
113	0xbcfa9fb6	-0.030593734
114	0xbcad7437	-0.02117358
115	0x3cd0f387	0.025506748
116	0x3c880e79	0.016608464
117	0x3bcae866	0.006192255
118	0xbce76004	-0.028244026
119	0xbcd691fa	-0.026192654
120	0x3c677e7f	0.01412928
121	0xbd4a711f	-0.049424287
122	0xbcd50b9c	-0.026006512
123	0xbd454df1	-0.048170034
124	0xbc0b07c4	-0.008485738
125	0xbcc5f317	-0.024163766
126	0xbce6c484	-0.028169878
127	0xbbe46ed6	-0.0069712205
128	0xbd3e2df6	-0.04643055
129	0xbc5b101d	-0.013370541
130	0xbcb63350	-0.022241265
131	0xbc0b9b61	-0.008520932
132	0xbca2cbb0	-0.019872516
133	0x3cce0eb7	0.025153501
134	0xbc80e299	-0.01573305
135	0xbd11560f	-0.035482462
136	0xbd26846b	-0.040653627
137	0xbcab1d71	-0.020888062
138	0x3c8e4b2b	0.017369827
139	0xbd4cf052	-0.050033875
140	0xbcc906e4	-0.024539419
141	0xbd21cdc0	-0.03950286
142	0xbd3e901b	-0.04652415
143	0xbc152423	-0.009102854
144	0xbd0a405c	-0.033752784
145	0xbbf900dd	-0.00759898
146	0x3c8f85fd	0.017519945
147	0xbd2dc1ac	-0.042421028
148	0xba2b9871	-0.0006545848
149	0xbc701c05	-0.014655118
150	0xbb68c952	-0.0035520387
151	0xbc94e501	-0.018175604
152	0x3bf8e5ba	0.007595745
153	0xbd0a6259	-0.033785198
154	0xba19bba3	-0.0005864447
155	0xbb5dc2cb	-0.003383803
156	0xb8fab515	-0.00011954658
157	0xba323d2a	-0.0006799275
158	0xba9f7b5f	-0.0012167505
159	0xbb4c8f2a	-0.0031213262
160	0xbc1b4081	-0.009475828
161	0xbc2f9072	-0.010715591
162	0x3cd0c11c	0.025482707
163	0x3c360e5a	0.01111182
164	0xbcdd46c6	-0.027011286
165	0xbc799add	-0.015234676
166	0x3c4d58d1	0.0125333825
167	0x3c408e85	0.011752729
168	0xbcf09380	-0.029367208
169	0xbd078ccf	-0.03309327
170	0xbd10fd18	-0.03539762
171	0xbd157622	-0.036489613
172	0xbcde8558	-0.027163193
173	0x3cf37d09	0.029722707
174	0xbd34aa8b	-0.044107955
175	0x3b5f8d94	0.0034111487
176	0xbced68c1	-0.028980615
177	0xbcb384d1	-0.021913918
178	0xbbb554f7	-0.0055338102
179	0xbd389d2c	-0.045071766
180	0xbcf861b4	-0.030320026
181	0xbd33ab25	-0.043864388
182	0x3c6f2147	0.014595336
183	0xbd24183a	-0.040062167
184	0x3b86ffce	0.0041198498
185	0xbd17d785	-0.03707077
186	0x391eae3a	0.00015132959
187	0xbcc422fe	-0.023942467
188	0x3d020a27	0.031747963
189	0xbd6433b0	-0.055713356
190	0xbd2738f9	-0.040825818
191	0xbd50f2b5	-0.051012713
192	0xbc61422c	-0.013748687
193	0x3c8ed459	0.01743524
194	0xbbf8aa5f	-0.007588669
195	0xbca42448	-0.020036831
196	0xbd7b4ecc	-0.061354443
197	0xbccfaebc	-0.025351875
198	0xbc899807	-0.016796125
199	0x3cdb0276	0.026734572
200	0xbd06e6cf	-0.03293496
201	0xbd3c6874	-0.04599805
202	0x3c0cc0c2	0.008590879
203	0xbc64ae87	-0.013957626
204	0xbd44c7dd	-0.048042167
205	0xbbcde871	-0.0062838127
206	0xbcae73ad	-0.021295393
207	0xbcc0a727	-0.023517204
208	0x3b81985d	0.0039549307
209	0x3bab6d8f	0.0052315663
210	0xbc44c893	-0.012010711
211	0xbb82b991	-0.0039894064
212	0xbd2ea098	-0.042633623
213	0x3b8c0172	0.004272633
214	0xbcaac584	-0.020846136
215	0x3b57d4cb	0.003293323
216	0xbd2c8f73	-0.04212899
217	0x3c2a85b8	0.010407858
218	0x3c994445	0.018709311
219	0x3ceaa7b8	0.028644428
220	0xbd4f1f23	-0.050566804
221	0xbd4bd254	-0.04976113
222	0xbc23150d	-0.009953749
223	0xbd26a5ea	-0.04068557
224	0xbc1b8617	-0.009492419
225	0x3b394b55	0.002827366
226	0xbc0bedca	-0.00854058
227	0x3c327add	0.010893551
228	0xbca56cfc	-0.02019357
229	0xbc2c8159	-0.010528886
230	0x3ccc1d13	0.024916207
231	0xbd02f618	-0.031972975
232	0xbbd4d49e	-0.0064950725
233	0xb9bc9ffa	-0.00035977346
234	0x3bb612dd	0.005556448
235	0xbcb59ae5	-0.022168586
236	0xbcc57dfd	-0.024107927
237	0x3c9b8d96	0.018988412
238	0xbd0f3809	-0.03496555
239	0x3c453fdc	0.012039151
240	0xbd3290bb	-0.043595057
241	0x3a0383ad	0.00050168746
242	0xbc962819	-0.018329667
243	0xbcfd610a	-0.03093006
244	0x3c09ca84	0.0084101
245	0xbd049a94	-0.03237398
246	0xbc9f345c	-0.019434147
247	0xbc15c1ad	-0.009140414
248	0xbcc6ff21	-0.024291577
249	0xbbe9fa40	-0.007140428
250	0xbd0e8118	-0.034791082
251	0xbd1f959e	-0.038961045
252	0xbd16a3ea	-0.036777414
253	0xbc26aecb	-0.01017351
254	0xbce83645	-0.02834619
255	0xbd74d9fe	-0.059778206
