Assets/Training/results/Run 7/DroneBehavior/DroneBehavior-6999980.onnx (onnx, 697640 bytes, 21 tensors)

105 f4 [25]
000000 9a 29 c6 39 a7 a1 d9 3e 29 09 99 3d f1 a7 ac 3e
       0.00037796499 0.42506143 0.0747245 0.3372188
000010 13 aa 95 3e 9a 29 c6 39 95 a7 cf 3e 5a af d5 3d
       0.2923132 0.00037796499 0.40557542 0.10433836
000020 9a 78 b6 3e ee 8c 96 3e 9a 29 c6 39 06 c1 c6 3e
       0.35638887 0.29404396 0.00037796499 0.3881914
000030 40 7f a1 3d 10 28 b4 3e 09 00 8c 3e 9a 29 c6 39
       0.07885599 0.35186815 0.27343777 0.00037796499
000040 25 14 b9 3e 4d 59 46 3d e0 9d a3 3e 7a 34 8d 3e
       0.36148182 0.048425008 0.31956387 0.275791
000050 9a 29 c6 39 25 14 b9 3e 4d 59 46 3d e0 9d a3 3e
       0.00037796499 0.36148182 0.048425008 0.31956387
000060 7a 34 8d 3e
       0.275791

108 f4 [25]
000000 9a 29 c6 39 41 e2 e3 3e b4 bb b6 3d 4e 80 a5 3d
       0.00037796499 0.44508556 0.0892252 0.08081113
000010 65 4e 3a 3e 9a 29 c6 39 ec 56 e1 3e a7 b0 bb 3d
       0.18193968 0.00037796499 0.4401163 0.09164553
000020 ef 9a a9 3d cf 6b 39 3e 9a 29 c6 39 17 50 e8 3e
       0.08281504 0.18107532 0.00037796499 0.45373604
000030 3b 8c ad 3d 06 bf a9 3d f6 6f 3d 3e 9a 29 c6 39
       0.084740125 0.08288388 0.18499741 0.00037796499
000040 7e 66 e4 3e 1d c7 bf 3d 23 73 e1 3d eb b9 45 3e
       0.44609445 0.0936415 0.11008289 0.19309203
000050 9a 29 c6 39 aa b7 ec 3e a5 7f a4 3d 07 dd e0 3d
       0.00037796499 0.46233875 0.08032159 0.109796576
000060 42 ee 4e 3e
       0.20208076

111 f4 [55]
000000 9a 29 c6 39 d9 b2 ab 3d 8d 5d e8 3a 48 26 da 3e
       0.00037796499 0.08383722 0.0017728076 0.4260733
000010 fb 5f 8d 3e 9a 29 c6 39 29 bf 2b 3d 7e 61 00 3d
       0.2761229 0.00037796499 0.04193035 0.031342976
000020 39 a7 ef 3e b7 13 97 3e 9a 29 c6 39 32 96 2c 3d
       0.46807268 0.2950723 0.00037796499 0.042135425
000030 35 5b 89 3b d7 5c ef 3e f7 01 91 3e 9a 29 c6 39
       0.004191781 0.4675052 0.28321812 0.00037796499
000040 d7 d6 49 3c 13 31 39 3d a5 3a da 3e af a1 80 3e
       0.012319288 0.045212816 0.42622867 0.25123355
000050 9a 29 c6 39 b6 c5 1e 3d df 28 96 3b d8 91 e3 3e
       0.00037796499 0.03876277 0.004582509 0.44447207
000060 20 4c 6c 3e 9a 29 c6 39 35 9b 42 3c 9a 85 37 3d
       0.23075914 0.00037796499 0.011877825 0.044805147
000070 9f 3d be 3e 8b d1 7a 3e 9a 29 c6 39 d2 e0 24 3d
       0.37156388 0.24493997 0.00037796499 0.040253468
000080 c0 b2 a5 3b 4d 93 ce 3e 15 c5 5d 3e 9a 29 c6 39
       0.005056709 0.40346757 0.21657212 0.00037796499
000090 8a 20 dc 3b e4 11 d5 3c 8d db de 3e a9 1b 83 3e
       0.006717746 0.026009507 0.4352688 0.2560704
0000a0 9a 29 c6 39 1a 0e fb 3b fe 63 85 3b 70 f3 fa 3e
       0.00037796499 0.007661593 0.004070758 0.49013853
0000b0 95 be 74 3e 9a 29 c6 39 d3 b0 0b 3c b1 2e d2 3a
       0.23900826 0.00037796499 0.008526045 0.0016035644
0000c0 d2 75 dc 3e 04 c3 6e 3e 9a 29 c6 39 d3 b0 0b 3c
       0.4305864 0.2331658 0.00037796499 0.008526045
0000d0 b1 2e d2 3a d2 75 dc 3e 04 c3 6e 3e
       0.0016035644 0.4305864 0.2331658

114 f4 [25]
000000 9a 29 c6 39 41 e2 e3 3e b4 bb b6 3d 4e 80 a5 3d
       0.00037796499 0.44508556 0.0892252 0.08081113
000010 69 4e 3a 3e 9a 29 c6 39 c6 a1 e2 3e 67 f4 b5 3d
       0.18193974 0.00037796499 0.44264048 0.08884507
000020 8f ad b8 3d 95 b2 3d 3e 9a 29 c6 39 13 a4 e3 3e
       0.09017479 0.18525155 0.00037796499 0.44461116
000030 02 21 b9 3d 80 e1 ad 3d be 07 3d 3e 9a 29 c6 39
       0.09039499 0.08490276 0.18459985 0.00037796499
000040 c1 65 e3 3e 6f 99 b4 3d 4e 84 0b 3e 77 23 54 3e
       0.4441357 0.08818328 0.13624689 0.20716654
000050 9a 29 c6 39 54 b3 e4 3e 62 a5 b4 3d e1 24 08 3e
       0.00037796499 0.44668067 0.08820607 0.13295318
000060 3e a5 4d 3e
       0.20082566

117 f4 [25]
000000 9a 29 c6 39 af 0a b5 3d 1e 9d 2b 3a cd f0 9d 3e
       0.00037796499 0.08839928 0.00065465446 0.3084778
000010 c5 be 48 3e 9a 29 c6 39 e2 a3 ae 3c fc f5 c4 3c
       0.19604023 0.00037796499 0.02131838 0.024043076
000020 a8 0d 65 3e 5d 07 1c 3e 9a 29 c6 39 fe cd 43 3d
       0.2236849 0.15237184 0.00037796499 0.04780387
000030 87 96 ed 3a de 08 8b 3e c4 16 2d 3e 9a 29 c6 39
       0.0018126526 0.27155203 0.16903216 0.00037796499
000040 87 49 99 3c 74 12 83 3a 84 83 8d 3e f3 44 2f 3e
       0.018711818 0.0010000006 0.276394 0.17116146
000050 9a 29 c6 39 87 49 99 3c 74 12 83 3a 84 83 8d 3e
       0.00037796499 0.018711818 0.0010000006 0.276394
000060 f3 44 2f 3e
       0.17116146

120 f4 [3]
000000 b2 6f 14 41 13 15 6f 3f ed e2 2e 41
       9.277269 0.9339153 10.930402

action_model._continuous_distribution.log_sigma f4 [1, 3]
000000 33 db 8b be 1e e6 5c be 6e 46 80 be
       -0.27315673 -0.21572158 -0.25053734

action_model._continuous_distribution.mu.bias f4 [3]
000000 28 c9 2b 3c e1 42 be bc 71 78 78 3c
       0.010484971 -0.02322525 0.015165434

action_model._continuous_distribution.mu.weight f4 [3, 256]
000000 de 7d 87 bc cf f1 d4 bc 6b 14 35 3c 87 70 1f 3d
       -0.01653951 -0.02599421 0.011052231 0.038925674
000010 52 82 1c bb 0a d0 0d bd 04 08 71 3b bf 49 a0 3d
       -0.0023881388 -0.03462223 0.003677846 0.07826566
000020 32 cc 60 3d c3 38 03 3d 08 7c b5 3b ba 83 ba 3c
       0.054882236 0.032036554 0.0055384673 0.02276789
000030 fd e3 0c bd 9c 53 75 bd 4b aa 19 3d 30 8f 6d 3c
       -0.034397114 -0.05989419 0.03751592 0.014499471
000040 6b 5f 2f bd ae db e9 bc 3d 4d 09 3d 7c 04 61 3c
       -0.042815607 -0.028547134 0.033520926 0.013733979
000050 0f ce a8 3c 59 e4 46 bd 68 72 71 bc 71 11 35 bd
       0.020606069 -0.048557613 -0.014736749 -0.044206087
000060 65 00 6f bd c3 6e a7 bb d7 e1 03 3d c4 8d 58 3d
       -0.058349986 -0.0051096394 0.0321978 0.052869573
000070 0e ea ef bc 3f 6b 06 3d cd ce 3b 3c ca 8b 9c 3c
       -0.02928641 0.03281712 0.011462879 0.019109625
000080 49 fb 9e 3c d7 04 46 bc 33 65 a5 bd c2 a1 b4 3c
       0.019406931 -0.012086115 -0.08075943 0.022049788
000090 51 70 23 bc ef 5d 18 3c ea f7 0c bd 4b b4 20 3d
       -0.009975509 0.009299739 -0.034416117 0.03923444
0000a0 04 bf e2 bc 55 fb 81 bd 63 d6 57 3d a2 e8 d7 bc
       -0.027678974 -0.06346766 0.05269469 -0.026356045
0000b0 45 ea aa bc 31 f3 31 3b 98 00 60 3d 78 e9 45 3d
       -0.020863662 0.002715301 0.054688066 0.048318356
0000c0 3a 1e ff bc b8 21 e6 3b c7 58 53 bd ca 30 83 3c
       -0.031142343 0.0070230626 -0.051598337 0.016014475
0000d0 a8 e8 22 3c 43 31 5b 3a 2b 33 6a 3d c4 f5 3d bd
       0.009943165 0.00083615276 0.057177704 -0.04637696
0000e0 78 7f af bd 85 56 1b bb 16 e2 6a 3d 27 c1 73 bc
       -0.085692346 -0.0023702693 0.05734452 -0.014877594
0000f0 25 aa bd bc cd 7b 6c bc 92 fc 24 bd 1a 68 bd bc
       -0.02315242 -0.014433813 -0.040279932 -0.023120929
000100 f8 38 95 bc 26 ee e0 3b 4a 16 0f 3a e8 22 c6 bc
       -0.018215641 0.006864327 0.00054583384 -0.024186566
000110 dc 9c ff 3c 8f 43 e6 3c e8 66 65 bd d6 a5 93 bd
       0.031202726 0.028108386 -0.056006342 -0.07209365
000120 49 a3 de bc b7 fa 0c bd 38 3f 20 bd fa da b3 3b
       -0.02717747 -0.034418788 -0.03912279 0.0054887505
000130 bc 33 54 bd eb 56 3a bd 3f fa 35 3b d7 dd df 3c
       -0.05180715 -0.045493048 0.0027767566 0.027327461
000140 72 a8 f6 bc ba 85 2e bd ee 30 6f 3c a4 a1 30 bd
       -0.030109618 -0.042608 0.014599068 -0.043122903
000150 d6 36 62 3c 83 9e 2b 3c 76 80 3f 3c be d1 33 bd
       0.013807019 0.010474804 0.011688342 -0.043901198
000160 fb 8c de b9 73 7a 80 3d 24 db 21 3d 1e d9 54 3d
       -0.00042448178 0.06273355 0.03951563 0.05196487
000170 70 08 81 bd 4f ee 35 bc ed b0 0a bd 97 fe 1e bb
       -0.063004375 -0.0111041805 -0.033860136 -0.0024260634
000180 87 65 99 bc 5f b1 c3 3c 20 c6 2f ba 34 81 b1 bc
       -0.01872517 0.023888288 -0.0006705243 -0.021668054
000190 63 83 7d 3d 63 cf 7e ba ac 63 0d bd 65 5f 6b bd
       0.06189288 -0.0009720234 -0.034518883 -0.057464022
0001a0 02 b4 42 bb 42 09 14 bd e3 c9 d6 3c 1e 85 09 bd
       -0.0029709344 -0.03614164 0.026219314 -0.033574216
0001b0 a3 b9 3c bd a3 23 73 bd 60 b4 04 3d f3 be 20 bd
       -0.046075474 -0.059360158 0.03239858 -0.039244603
0001c0 d8 d0 0a bc 43 7d 14 bd cb d4 0c 3d 00 45 1a bd
       -0.008472644 -0.03625227 0.034382623 -0.03766346
0001d0 13 00 f3 bc e5 28 1f 3d fb 41 0a 3d 40 bc a3 3c
       -0.029663121 0.03885736 0.03375433 0.019987226
0001e0 a0 83 4f bd 60 2d 51 3d b2 89 23 bd 43 9c 3c 3c
       -0.050662637 0.051068664 -0.03992624 0.011511865
0001f0 9b 52 c6 bc 73 31 81 bd 56 6b ef bc 2d f3 6f 3d
       -0.024209311 -0.0630826 -0.029225986 0.05858152
000200 02 34 e2 bb 2a e7 0a bd e1 f4 4f bc d5 f4 d8 bb
       -0.0069031725 -0.03391186 -0.012692661 -0.006620983
000210 e1 98 09 bd b2 7f bf bc 71 63 26 3b 5c ab 2e 3c
       -0.033593062 -0.02337632 0.0025388862 0.010660972
000220 b3 60 1e 3c a0 99 4b bc c3 2f 58 bc 2f d1 4d ba
       0.00966661 -0.012426764 -0.013194981 -0.00078513
000230 71 cc e2 3d b3 f8 86 3d 52 88 b6 3c a5 e1 a5 3c
       0.1107415 0.06590404 0.0222818 0.020249197
000240 af 94 64 bd 94 8c 6f 3c 86 30 27 3d 5b ed 0c 3d
       -0.05580586 0.014620919 0.04081776 0.034406047
000250 54 8e 02 3a f6 b8 20 bd 00 5e 38 3d f8 3e 4d bd
       0.0004980315 -0.039238892 0.04501152 -0.05010888
000260 bb 72 1b bd 56 e4 3f bd e9 77 66 bc e6 e6 46 3c
       -0.037951212 -0.046848617 -0.014066675 0.012140011
000270 2d 99 6a 3c 4a b1 5a bd 75 f7 83 bc 37 2a e3 bc
       0.0143187465 -0.053391732 -0.016109208 -0.02773009
000280 75 3e 00 bd 5e 8d 50 bd f7 04 1f 3b 00 d7 1e 3c
       -0.031309564 -0.05091607 0.0024264434 0.009694815
000290 95 b2 f8 3c 3f 50 d5 bc ae 88 3c 3c 87 29 63 3d
       0.030358592 -0.02603924 0.011507196 0.055459525
0002a0 f9 66 ee bb b2 c1 56 3d d5 bb 55 3c 72 1d 05 3d
       -0.007275459 0.052430816 0.013045271 0.032498784
0002b0 57 15 a9 3b f4 0d ba 3d fe b2 93 bc 42 ad 32 3d
       0.0051600146 0.090846926 -0.018029686 0.043622263
0002c0 10 7e 86 3b cb 22 bb 3c 60 25 d0 3c d1 d9 21 3a
       0.0041043833 0.022843739 0.025408447 0.000617412
0002d0 8c 3b 98 3c 6d eb 3a bd 38 7f dc 3c 7d 79 b9 bc
       0.018583082 -0.045634676 0.026916131 -0.022640938
0002e0 8d c2 59 3c a5 43 00 3d 9e 67 39 bd 93 a8 dd bc
       0.013291013 0.03131451 -0.045264833 -0.027057922
0002f0 10 7a 64 bc 14 c2 e8 bc 73 fa 04 3c 0b 8f 49 bd
       -0.013945118 -0.028412856 0.008116352 -0.049208682
000300 59 a3 a5 bc da 4f a1 3d b7 6b d2 3c 27 2f 97 3d
       -0.020219492 0.078765586 0.025686128 0.073820405
000310 d9 24 8d bc 09 26 93 ba ae 36 3b ba ef 68 61 3b
       -0.017229484 -0.0011226545 -0.0007141632 0.003439482
000320 1a 33 8d bc 93 7c af bd 1b ed a6 3d e5 b3 79 3a
       -0.017236281 -0.085686825 0.08150693 0.00095254026
000330 be 93 92 bd e4 93 99 3b 58 00 f4 bc c9 8b 3c bd
       -0.07157086 0.0046868194 -0.02978532 -0.046031747
000340 f8 fd 18 bd e2 a7 4b 3a fc 7b 2a 3b be 22 b4 bb
       -0.03735158 0.0007768852 0.0026013842 -0.0054973057
000350 5a 1f e5 3c e7 69 c6 bc 92 ca a0 bc 11 d6 28 bd
       0.027969051 -0.02422042 -0.019627843 -0.041219775
000360 7b 2a 48 3c 42 1e 77 bc 5f b6 8a 3c 42 64 33 bc
       0.012217159 -0.015082898 0.016932664 -0.010949196
000370 43 3d 02 3b 73 48 82 bc 82 26 99 bc b2 9b 62 bc
       0.001987294 -0.015903687 -0.01869512 -0.013831066
000380 b2 61 1a bc 6f 99 85 bb cc c0 17 ba 2f 47 5c bd
       -0.009422706 -0.0040771286 -0.0005788922 -0.053778823
000390 f4 40 0a bd 75 a9 b9 3b 85 38 94 bc d3 29 2b bd
       -0.03375335 0.005665953 -0.018093357 -0.041787934
0003a0 dc f3 50 bd ea 8b 47 bd d7 5c 6c bd a5 46 67 bd
       -0.051013812 -0.048717417 -0.057705726 -0.056463856
0003b0 41 80 d0 bb ac 7c 74 3c d0 4d 24 bd cc a4 40 3d
       -0.0063629453 0.014922302 -0.04011327 0.047032163
0003c0 00 12 b4 bc f8 11 2d 3d d8 4b 07 bd f7 c6 35 bd
       -0.02198124 0.042253464 -0.033031315 -0.0443792
0003d0 80 e5 e7 bc 9a 7c 52 bd f3 e4 af bc 50 33 f1 3c
       -0.028307676 -0.05138836 -0.021471476 0.029443413
0003e0 e9 46 78 3c 61 8c 84 3d 5b 1c dd 3b bd 2a 16 3d
       0.015153625 0.06472088 0.006747765 0.036661852
0003f0 9c 3a 05 bd e4 24 32 3c 95 9e fc 3c fc 4f d8 bb
       -0.032526597 0.010873053 0.030837337 -0.0066013318

network_body._body_endoder.seq_layers.0.bias f4 [256]
000000 d7 38 c9 3c 13 7e 83 bc 2d 3a 34 3d 4f f1 09 3c
       0.024563236 -0.016051328 0.044000793 0.008419349
000010 17 a5 70 bc a4 8b d6 bc f5 47 59 bc 97 f8 62 bc
       -0.014687798 -0.026189633 -0.013261785 -0.013853214
000020 22 13 a0 bc 87 76 80 bd e6 46 6e 3d 68 62 90 b9
       -0.019540373 -0.06272607 0.058173083 -0.0002753914
000030 d0 12 81 bc f8 31 bd bc c7 b1 37 bc 66 6b 95 3b
       -0.01575604 -0.023095116 -0.011211819 0.004559922
000040 eb 9f 11 3b de 43 98 bc e0 9a bb bb fd 25 b4 bc
       0.0022220563 -0.01858705 -0.0057252496 -0.02199077
000050 7e 61 82 bd 51 86 1e bd 21 3f 50 bb d4 46 22 b9
       -0.063662514 -0.038702313 -0.003177591 -0.0001547591
000060 46 24 17 bd 5e 8d 37 3c ca 9a 93 bc c5 63 d3 bc
       -0.036899827 0.011203138 -0.018018145 -0.02580441
000070 68 47 65 bc 5b eb 58 3c 3c 5d 75 bb 49 1e a3 bc
       -0.013994075 0.013239707 -0.0037439605 -0.019911902
000080 21 8a 81 3c 7d 8d 9d bc 64 2b 07 bd 74 36 a0 bc
       0.015812935 -0.019232506 -0.033000365 -0.019557215
000090 27 fa 1c 3d 7c 90 f4 bc c1 86 6b bc de ab df bc
       0.0383245 -0.029854052 -0.01437539 -0.027303632
0000a0 45 bd 0f 3d 87 a0 9e bc dc 62 2e bc df 38 93 bc
       0.03509261 -0.019363655 -0.010643687 -0.017971454
0000b0 8e cc 0b bc 2e 0b 9c bc 80 42 49 bd c0 0d 1b 3d
       -0.008532656 -0.0190483 -0.049135685 0.03785491
0000c0 ca 52 4b bc 7b dc 37 bd 6b e9 95 bd 39 18 62 bd
       -0.012409875 -0.044888 -0.073199116 -0.05519888
0000d0 91 b3 32 bc f0 80 3c bd 1a 37 98 bd 03 b6 cb bc
       -0.01090707 -0.046021402 -0.07432385 -0.024867063
0000e0 c9 8c e8 3b c4 62 5a 3b 72 1c 12 bd 97 7c 54 bd
       0.007096861 0.003332303 -0.03567166 -0.05187663
0000f0 c4 79 c4 bc 22 ab b2 3c 78 cd 4d bd 8c 02 33 bd
       -0.023983844 0.021810118 -0.05024478 -0.0437036
000100 08 44 22 3c ac bb a6 bb 03 8b 88 bd ee 0d ec bc
       0.009903915 -0.00508829 -0.066671394 -0.028815236
000110 b7 24 4a bd f8 45 07 bd f5 ca 84 3c c2 99 a6 bc
       -0.04935142 -0.03302571 0.016210059 -0.02033699
000120 8e e3 46 bc 35 9a ec bb 64 0b 20 3b f5 b9 74 ba
       -0.012139214 -0.0072205313 0.0024420852 -0.0009335571
000130 88 30 80 bc a5 6c 5c 3d 20 b1 98 ba 20 bb 1b bd
       -0.015648142 0.05381455 -0.0011649467 -0.038020253
000140 d3 57 b2 3c f7 d9 2e bd 45 e6 81 3c f1 00 a5 bc
       0.021770393 -0.042688336 0.015856871 -0.02014205
000150 55 5b 72 bc 6f 9a b2 bb e4 5f 20 3d 72 7c 94 3b
       -0.014792283 -0.005450539 0.03915395 0.0045314366
000160 5f ae c2 3b 60 6d 03 3c 2f c3 82 bd a8 56 a9 3c
       0.005941197 0.0080216825 -0.063848846 0.020671204
000170 4d 6f 8a bc 5d 41 a7 3a 73 6f 81 3c 2b 54 17 3c
       -0.016898775 0.0012760569 0.015800213 0.009236376
000180 1f c8 9a bc e9 c9 02 3c 71 0e d8 bc 59 82 b7 3b
       -0.018894253 0.007982709 -0.026374074 0.0056002554
000190 50 1c 82 bb 7e 39 17 3d cc e0 9b bc ae e6 4b 3d
       -0.0039706603 0.036920063 -0.01902809 0.04978054
0001a0 9b 78 28 bc 52 29 2b bc dd 93 6d bd c8 17 0b 3c
       -0.010282661 -0.010446863 -0.05800234 0.008489557
0001b0 9e 0c 57 3d 00 cc 72 bc 8e 48 0e bd 53 48 69 bb
       0.052502267 -0.014819145 -0.034737162 -0.0035596087
0001c0 17 6c ae 3c 92 a3 c2 bc e0 89 88 bd 41 b2 68 bb
       0.021291776 -0.023759637 -0.066669226 -0.0035506638
0001d0 ad ee 84 bc b1 dc e8 3c 97 2c 20 bc 8a ee 2d 3c
       -0.01622709 0.028425546 -0.009776256 0.010615954
0001e0 ad a2 b1 bc 72 55 21 3b ea db 9d 3d 0d 1d ed bc
       -0.021684015 0.002461758 0.07707961 -0.028944517
0001f0 4e df 37 3c 5f a9 c3 bc 6a 91 cc bc 49 b5 e5 bc
       0.011222674 -0.023884473 -0.024971683 -0.028040545
000200 56 c7 29 bd 5f 1b b9 bc 35 f1 11 3d fe f8 df bc
       -0.041449867 -0.02259606 0.035630424 -0.027340408
000210 b3 92 fe bc 0c 58 06 3c 62 67 1d bc 97 e2 f0 3c
       -0.031075811 0.008199703 -0.009607168 0.029404921
000220 a5 c7 92 bd e4 63 ea 3c 38 f4 c1 bc 4e da 7c bb
       -0.071669854 0.028612085 -0.023676023 -0.0038582268
000230 e6 ed 6d 3b 9f 7e 9f bc 47 a5 92 3b 2e 2f ca bc
       0.0036305129 -0.019469557 0.004475269 -0.0246807
000240 2b 62 58 3d 9b 16 5d bd ba 31 34 bd 57 a9 80 bc
       0.052827995 -0.053976636 -0.043992735 -0.015705748
000250 97 50 42 3d 2f 99 3c bd 1e a5 9c 3d 66 26 20 3d
       0.047440138 -0.046044525 0.07648681 0.03909912
000260 dd 12 62 3c a2 27 18 bd db 8d 64 3c 5d 05 03 bd
       0.013798443 -0.03714717 0.013949837 -0.031987537
000270 e9 dd 63 3d 4c b0 4a bd a9 9a 4e ba 09 89 30 bc
       0.055631552 -0.049484536 -0.00078813225 -0.010774859
000280 08 b6 3f bd 16 70 cd bc 0e 5f 6e bd 19 52 bf 3b
       -0.046804458 -0.02507786 -0.05819612 0.005838644
000290 d4 27 92 bc 96 79 10 bd 40 64 bf bc 5e 15 d5 bc
       -0.017841257 -0.035272203 -0.023363233 -0.026011165
0002a0 16 e4 fc bb 83 2e 4c 3c 14 fa f3 bb 72 87 ef 3c
       -0.0077176197 0.012462261 -0.007445583 0.02923939
0002b0 b2 db 8d 3c c3 2b 30 bd 76 05 dc bc fa 49 38 bc
       0.017316673 -0.043010484 -0.026858073 -0.011248106
0002c0 b7 0e 42 bd 8f 24 ae 3c b7 15 e7 3c 48 48 49 bd
       -0.047377314 0.021257667 0.028208597 -0.0491412
0002d0 4b da 05 bc e3 f6 6b bd 5a f8 36 bb b0 c6 20 bd
       -0.008169721 -0.057608496 -0.0027919025 -0.039251983
0002e0 97 9a 68 bc 11 a3 37 3c 39 d6 aa bc 99 14 6c 3b
       -0.014197013 0.011208312 -0.020854102 0.003602302
0002f0 40 bd 07 bd 43 53 45 3b 8d 9e fa bb 91 67 18 bd
       -0.033139467 0.0030109442 -0.0076482953 -0.037208144
000300 87 99 67 bd 90 8d ef 3c 3a b6 80 bd 1c 85 c8 bc
       -0.0565429 0.029242307 -0.06284757 -0.024477534
000310 29 76 f0 3a 78 b5 70 3d a6 8b dd bc 59 b1 d4 bb
       0.0018345761 0.058766812 -0.027044129 -0.006490868
000320 79 22 cb bc fe 91 16 bd cb ce 42 bd cf ed d5 bc
       -0.024796711 -0.036760323 -0.047560494 -0.026114373
000330 74 ce 70 3c 2d 27 a4 bc 57 19 86 bd 68 a4 49 bc
       0.01469766 -0.020038212 -0.06547802 -0.012307264
000340 22 e4 e8 3b de 35 f1 bb df a1 96 bc 31 ee 40 bd
       0.0071072737 -0.007361158 -0.018387733 -0.047102157
000350 53 77 97 3c 2a 4f 27 bd 4d ad 18 3b d5 0d 1a bd
       0.018489515 -0.04084698 0.0023296655 -0.037610848
000360 9f e0 6d bc 22 df ce bb 3f b1 57 b9 1b 57 1f 3b
       -0.014518886 -0.0063132206 -0.00020570027 0.0024313394
000370 a6 2b 0b bc 2c 6b 5c bd 1c 5b 25 3b 3e 7c 19 3d
       -0.008494293 -0.053813145 0.0025231307 0.037472002
000380 a6 f6 34 bd 06 7c 3c 3c 93 a5 f0 39 57 2f 2e bd
       -0.044180535 0.011504179 0.0004589973 -0.042525616
000390 26 e9 b2 3b 0c a9 fd bc ff 69 ce bc c3 a0 00 ba
       0.0054599224 -0.030964397 -0.025197027 -0.0004906768
0003a0 c4 a1 a0 bc e2 1c a7 bc 1e 73 bb 3c 35 69 ba 3c
       -0.019608386 -0.020399515 0.02288204 0.022755245
0003b0 0b ef 2d bd 54 a2 35 3d d2 5f aa bc 97 f1 2f 3d
       -0.042464297 0.04434426 -0.020797644 0.042955007
0003c0 08 d8 0a bd 39 a6 c5 bc 09 bd f2 bc a6 dc 3d 3d
       -0.03389743 -0.024127113 -0.029631155 0.046353005
0003d0 7a 7d b6 bb b1 a8 09 bd c5 2b b7 bc d2 fb 68 bd
       -0.005569157 -0.033608142 -0.022359738 -0.05688078
0003e0 cb 88 13 3c 98 b9 15 bd 4f 2a 18 3c e8 11 ae bb
       0.009004782 -0.03655395 0.009287431 -0.005312193
0003f0 00 01 46 bd 85 ee 85 bc fa 6f d1 3b db a0 82 bc
       -0.048340797 -0.016349087 0.0063915225 -0.015945842

network_body._body_endoder.seq_layers.0.weight f4 [256, 158]
000000 e3 a6 e5 bd 2e 71 43 3e c2 2d ba 3a 8e 70 da bd
       -0.11213472 0.19086143 0.0014204311 -0.10665999
000010 53 26 8d 3e 57 79 56 bd 84 36 ba bc bd 3a 26 3e
       0.27568302 -0.052361812 -0.022731073 0.16233344
000020 36 78 64 3d c5 6c 3b bd 72 8b c3 bd a3 55 11 be
       0.055778705 -0.045758028 -0.095480815 -0.14192824
000030 0a 21 57 3e f0 2d 16 be eb cf 42 bd 89 cb 17 3e
       0.21008697 -0.14665961 -0.047561567 0.14823736
000040 57 bf 85 bd c1 ca 3e 3e 0f fa a8 3c cd 41 81 3c
       -0.06530636 0.18632032 0.02062705 0.015778447
000050 a5 32 82 bd 22 bc 1b bd 39 53 a9 bb 1d 9a 22 3e
       -0.06357316 -0.038021214 -0.0051673916 0.15879102
000060 72 b2 d5 ba 96 67 4f bd 67 b4 ee bd f2 62 30 bd
       -0.0016303791 -0.050635897 -0.11655503 -0.04306311
000070 e3 fa 3f bd ba af de bd 63 04 5b 3c ff 8f 1f 3d
       -0.046870124 -0.10873361 0.013367745 0.038955685
000080 21 e4 71 bc 8a 61 40 bd ee 9b 1e be 64 f6 43 3d
       -0.014763863 -0.04696802 -0.1548917 0.0478424
000090 ae 7a 97 3d 19 ed 46 3d 8d c3 ad ba f4 90 ca bc
       0.07396446 0.048565958 -0.0013257131 -0.024727322
0000a0 09 d2 b4 3d 3c 49 04 bd 2d dc bb 3d e3 18 bc bd
       0.088291235 -0.032296404 0.091728546 -0.09184434
0000b0 b8 79 9e b7 39 03 03 bd 02 ae 11 bc 77 51 c1 3d
       -1.8891747e-05 -0.031985495 -0.008891584 0.09439366
0000c0 18 bd b6 3d 21 c4 8c 3c 5d e7 29 be 09 46 80 3d
       0.089227855 0.017183365 -0.16592164 0.06263358
0000d0 6c 8e 87 bc fb 13 99 bd 00 92 c7 bd a4 0c d5 bd
       -0.016547404 -0.07474514 -0.09744644 -0.10402802
0000e0 c3 e8 bc 3b f7 b9 f6 bd 4a 85 18 bc c7 17 07 be
       0.005765052 -0.12047189 -0.009309122 -0.13192664
0000f0 f5 98 75 3d b0 48 a5 bb 9b 72 c0 bd 72 d5 0f 3e
       0.059960324 -0.0050440654 -0.09396859 0.14046267
000100 17 e7 cf 3d 96 46 a4 bb 9b 1b 2e be 18 b9 57 be
       0.10151499 -0.0050132973 -0.17002718 -0.21066701
000110 65 53 89 3c 57 b6 9e 3d 63 cd ae 3d 73 70 a5 bd
       0.016763398 0.07749622 0.08535268 -0.080780886
000120 a0 99 a5 3b 0b 0a 03 3d f1 7c db 3c 1a bc df bd
       0.005053714 0.031992 0.026792975 -0.109245494
000130 02 18 ea bd 04 af e0 3d 1f 06 2a 3a e5 d3 85 3d
       -0.114303604 0.109708816 0.00064858975 0.06534556
000140 94 2e 07 bd 8d 8a 56 bb 46 ce 2b bd ad a5 f7 bd
       -0.033003405 -0.0032736391 -0.041944765 -0.12092147
000150 b9 b5 b4 3d a4 4e d5 bd 34 8d 6f bb 3b 6e 8a bd
       0.08823723 -0.1041539 -0.003655267 -0.06759306
000160 cf a5 9a 3d 1c a5 02 3e 95 90 e3 bd 98 62 db 3d
       0.07551157 0.12758297 -0.11111561 0.10712165
000170 e2 6b 28 3e 6b be 0a bd bd 97 2e 3e 3b 58 6d bd
       0.16447404 -0.033873003 0.17050071 -0.05794547
000180 af e0 1c bc 48 ef 52 bb 9c df 62 3d 5b b1 64 3e
       -0.009575053 -0.003218608 0.05538903 0.2233328
000190 9a 52 4b 3d a0 bb 91 3d 73 cb 51 3d 7b 4c d6 3d
       0.049639322 0.07115865 0.051219415 0.10463806
0001a0 4f 2d 34 3e 7d d4 1d be 34 8f 5d 3d ad 13 d3 bd
       0.17595409 -0.15413089 0.054091647 -0.10306487
0001b0 db 4e 9c bd 55 c1 2e bd ab 96 c1 bd b2 6a 8c 3d
       -0.07632228 -0.042664845 -0.09452566 0.06856288
0001c0 2f 95 f0 3d c0 3f e4 bd 61 7f 77 bd 46 cd 4a 3d
       0.117472045 -0.11144972 -0.060424212 0.04951217
0001d0 74 c3 96 3d c5 1f 79 3c cc 76 1c 3d 2f 11 e5 bd
       0.073614985 0.015205328 0.03819923 -0.11184918
0001e0 0a b4 ee bd a9 1c 32 3e a0 6b 29 3d e8 47 25 3d
       -0.116554335 0.17393745 0.041362405 0.04035178
0001f0 7c c3 ef 3d 44 b5 cc bd 5d d9 09 be ce 35 04 bd
       0.117072076 -0.09995511 -0.13461824 -0.032277875
000200 8e ac 0e be 3f 6f 21 be d5 8e 5c 3a 76 57 99 bd
       -0.13933012 -0.15765093 0.00084136176 -0.07487385
000210 b1 3c 00 be 0f dc ba bd 5b cd 3a 3d 66 77 a9 3c
       -0.12523152 -0.09124004 0.045606 0.020686816
000220 6c ab b9 bc 4c 1c b8 bd b5 42 64 3d c2 d5 4f 3d
       -0.022664748 -0.08989772 0.05572768 0.050740965
000230 58 e4 42 3c 50 53 47 3d f2 1e 46 3e f8 71 1d 3d
       0.011895262 0.048663437 0.19347742 0.038438767
000240 6f 16 94 3d 9b a3 20 3e 1d ec 25 bd e0 ce cc bd
       0.07230841 0.1568741 -0.04050838 -0.10000396
000250 38 98 27 3e 85 17 2b 3e cc fb 31 3d 89 df 9e bc
       0.1636666 0.1670819 0.043453023 -0.0193937
000260 e3 f9 e5 3b 29 4b 66 3e 89 b8 fc 3d 47 7f 38 3e
       0.007018314 0.22489609 0.12339885 0.18017302
000270 52 db 7f 3e b7 f5 09 3e 0b 3a 87 bd a8 4d 0d bc
       0.24986008 0.13472639 -0.06602868 -0.008624472
000280 5a c7 1e 3e 9b 92 d3 bd 81 03 6d 3d e8 52 8f bd
       0.15505734 -0.10330697 0.05786467 -0.06998235
000290 01 21 78 3c 3e 23 10 3e 59 80 08 bc 2f aa 02 3e
       0.0151445875 0.14075944 -0.008331382 0.12760232
0002a0 f0 9c 00 3e 8b c7 d1 3d ca 09 64 3e 29 20 d8 3d
       0.12559867 0.10243138 0.22269359 0.10553009
0002b0 a9 aa 5d 3c 64 47 ce bc 8a 33 06 3e d9 73 68 3d
       0.013529458 -0.025180526 0.13105598 0.056751106
0002c0 78 b1 81 bd 97 5b d0 bc 2e 88 8f bd a7 d0 86 3d
       -0.063326776 -0.025434298 -0.07008396 0.06582766
0002d0 a7 f6 56 bd a9 02 98 bd a8 73 ff 3c c6 38 59 bd
       -0.05248132 -0.074223824 0.031183079 -0.05303266
0002e0 00 09 f5 bd ba e6 ff bd db 37 e9 3c 0e 93 c3 3d
       -0.11964607 -0.124951795 0.028469017 0.09549533
0002f0 2f b2 15 3e 5e b9 10 be 14 9a 20 be d1 5e 10 bd
       0.14618753 -0.14133212 -0.15683776 -0.035246674
000300 da 6a 82 3c fb 89 b9 3d 46 55 05 be ab 01 28 3d
       0.015920091 0.09059521 -0.1302081 0.041017216
000310 bd d1 07 be 75 e5 2a bd 83 be 5c 3c 66 09 8a bd
       -0.13263603 -0.041722734 0.013473156 -0.06740074
000320 0f 73 3a be 3a bb ee bd 97 2f d9 bd 1d 3c 7f 3d
       -0.18207954 -0.116568044 -0.1060478 0.062313188
000330 23 02 1e 3e b9 36 d6 bc d7 e4 0e be 83 0f bb 3d
       0.15430503 -0.02614914 -0.13954483 0.09133818
000340 28 f2 01 be 19 11 81 be 50 b7 59 bc 37 c2 a4 bd
       -0.12690032 -0.25208357 -0.013288334 -0.08044856
000350 06 b0 a5 3d d7 59 a9 bd 05 6b 34 3e 14 f1 31 3d
       0.080902144 -0.08269089 0.1761895 0.0434428
000360 ed ee 09 3b 99 89 d7 3b 13 13 c1 bc f5 00 f4 bd
       0.0021046952 0.006577682 -0.023568666 -0.11914245
000370 19 f1 81 3d 4f 89 16 3d 14 e4 73 3e 8a 9d 41 bc
       0.06344814 0.03675204 0.23817474 -0.011817345
000380 0a 19 91 bd b1 a0 da bc 9d 5f f4 3d fe 19 14 3e
       -0.07084854 -0.026687952 0.11932299 0.1446304
000390 b9 e7 03 3d 53 53 0c bd aa 4e 96 3c 46 75 72 bd
       0.03220341 -0.03425915 0.018348057 -0.059193872
0003a0 40 0f c8 3d c7 5e 04 3e bd 01 0d 3d 7f b1 27 3e
       0.09768534 0.1292678 0.034425486 0.16376303
0003b0 0c 14 fe 3d 83 92 9e 3c 33 83 a4 bc e5 64 44 ba
       0.124061674 0.019356972 -0.020082092 -0.0007491841
0003c0 9a 7d 41 be 79 18 ed 3c 12 12 4a 3d 10 c2 a1 bc
       -0.1889557 0.028942334 0.04933364 -0.019745857
0003d0 32 b9 bb bd a5 ff 04 3c c4 71 0e 3d a9 85 9a bd
       -0.091661826 0.008117591 0.034776464 -0.07545025
0003e0 ad 4d 64 3d 76 1b 9f bd 62 82 4b bd 4c a5 f2 3d
       0.05573814 -0.0776891 -0.04968489 0.11847934
0003f0 6a b7 38 bd f8 1a bf 3c a6 66 76 3d 8d 70 05 3c
       -0.045096792 0.02332829 0.060156487 0.00814451

network_body._body_endoder.seq_layers.2.bias f4 [256]
000000 02 fb 78 bd 3d 93 b7 bc b6 4b 98 3c ae b5 8a 3c
       -0.060786255 -0.022409076 0.01859079 0.016932335
000010 ba 12 ea bc 58 f7 22 bd ba ae 65 bd e8 17 90 bc
       -0.028573383 -0.039786667 -0.056074835 -0.017589524
000020 51 82 fe bc d8 6b 34 bd 2d 71 91 bd e2 78 ef bc
       -0.031068 -0.04404816 -0.07101665 -0.029232446
000030 90 95 34 bd 30 6f 8e bc f9 d8 ea bc 35 74 ee 3b
       -0.044087946 -0.017387003 -0.028667914 0.0072770366
000040 17 5a 4a bd c0 c1 05 bd 4c cb 9a bb 93 78 0b bd
       -0.049402323 -0.032655478 -0.004723942 -0.034050535
000050 37 d9 13 bd 09 73 26 bd a6 06 30 bc 78 a7 1c bd
       -0.036095824 -0.04063705 -0.010743773 -0.03824565
000060 7a 50 49 bc 60 bb 01 bd 78 0d cc bc 70 7c 40 bc
       -0.0122872535 -0.031672835 -0.024908766 -0.011748418
000070 d1 dc ec bc b2 6c 2e bd 58 24 c1 3c 21 57 d3 bb
       -0.028913887 -0.04258413 0.0235769 -0.0064495956
000080 58 98 50 bd a9 cc 27 bd 8f 39 01 bd 63 93 e8 bc
       -0.050926536 -0.040966664 -0.031549033 -0.028390592
000090 38 31 16 bd df 3b 3f bd 89 4f b7 bc 4e 0d f5 bc
       -0.036668032 -0.046687957 -0.022376793 -0.02991357
0000a0 61 5e 5e bd c3 ec b5 3c ce b5 d8 3c 48 64 a4 bc
       -0.054289225 0.022207623 0.026453879 -0.02006735
0000b0 a7 a4 82 3c 6f b2 4d bd dc bb 74 bd 44 d9 d7 bc
       0.015947653 -0.050218996 -0.05974947 -0.026348718
0000c0 73 17 95 bc 86 43 04 bc 2c c5 27 bd bf 85 38 bc
       -0.018199658 -0.0080727395 -0.040959522 -0.011262356
0000d0 7d 10 9f bc 85 46 35 bc 30 57 65 3c 93 f0 59 bd
       -0.019417042 -0.011064176 0.013997838 -0.053207945
0000e0 30 22 c6 bd 77 02 4c bc f0 27 b9 bc 21 4e 25 bd
       -0.096744895 -0.01245176 -0.022602051 -0.040357713
0000f0 a2 c8 13 bd a7 7c 32 bd e9 48 48 3c 06 0f 20 3c
       -0.03608001 -0.04357591 0.012224414 0.009769207
000100 28 07 ca bc 76 2b 2c bc d1 f7 6a bd 0b 13 af bd
       -0.024661615 -0.010508409 -0.057365242 -0.08548554
000110 55 37 1a bd 99 53 0c bd d7 21 4c bd 2b 57 54 bd
       -0.037650425 -0.034259412 -0.04983696 -0.051840942
000120 10 7a dd bc a5 7f f1 bc c8 24 9e bc 86 42 42 bd
       -0.027035743 -0.029479811 -0.019304648 -0.047426723
000130 53 65 bd ba a2 10 2a bd 62 5d a3 bd a6 34 20 bd
       -0.0014449753 -0.04151977 -0.07976796 -0.03911271
000140 90 7c 61 bd ec 51 ac bc 2c c6 3c bd ba c7 30 bd
       -0.055050433 -0.021035157 -0.04608743 -0.043159224
000150 32 49 ba bc f0 8f 01 bd a6 de 19 3b 75 cf 7c bc
       -0.02273998 -0.03163141 0.0023478656 -0.015430321
000160 dd 05 1a bd 59 c6 45 bc ca a6 05 bd 63 b7 41 3c
       -0.037603248 -0.012071216 -0.032629766 0.011823508
000170 04 7d d6 bb 9d 99 f9 bc 20 29 5d bc 1f e9 34 bd
       -0.0065456647 -0.030468756 -0.0134985745 -0.044167634
000180 c1 eb bd bc 31 f2 bb bc 40 4d 29 bd be 8a 0e bd
       -0.023183705 -0.022942634 -0.041333437 -0.034800284
000190 bb 2c b8 ba b5 c5 fc bc ff 21 f1 bc cb a4 a4 bd
       -0.0014051417 -0.030855993 -0.029435156 -0.08039244
0001a0 a5 6e b7 bc 23 ad 8c bd c1 63 51 bc bb b6 d6 bb
       -0.022391627 -0.06868961 -0.012780131 -0.006552545
0001b0 53 fd 0a bc 41 c7 02 bd 50 19 17 bd b3 ab 71 bc
       -0.008483249 -0.031928305 -0.036889374 -0.014750409
0001c0 dd 01 40 bd 03 20 44 bd 59 94 e1 bc 3e 9d 31 bc
       -0.046876777 -0.04788209 -0.027536558 -0.010840712
0001d0 de 15 a9 bc 94 5f 45 bd 4f a9 3f bd 19 82 9e bc
       -0.02064031 -0.048186854 -0.046792325 -0.019349145
0001e0 f8 e2 46 bd 4b a4 bc bc f0 fc d9 bc 8d 67 79 bd
       -0.048556298 -0.02302756 -0.026609868 -0.06088977
0001f0 14 44 03 bd b9 37 59 bc 00 84 4f bc 5e 9f 84 bc
       -0.032047346 -0.013257914 -0.012665749 -0.016189273
000200 c7 cc 89 bd 76 73 48 bd 02 53 99 bc 3f ff 4e bd
       -0.06728511 -0.048938237 -0.018716339 -0.05053639
000210 f5 05 08 bd 96 33 8d bb 69 64 4f bd f1 33 87 3c
       -0.033208806 -0.004309128 -0.050632868 0.01650426
000220 08 bf d6 bc e8 3a ea bc f5 4e 35 bd 33 f6 3f bd
       -0.026214138 -0.028592542 -0.044264752 -0.046865653
000230 46 c0 34 bd 09 c6 de bc 34 2f 5f bc 71 2c c9 bc
       -0.04412868 -0.02719404 -0.013622094 -0.024557324
000240 cf fa 98 bc cc 00 a5 bc cb 87 ea bb fd b7 2e bd
       -0.018674282 -0.020141982 -0.007157301 -0.042655934
000250 f4 c8 2a bd d6 a3 0a bd d3 49 4f bd 36 95 0a bd
       -0.04169555 -0.033847652 -0.050607514 -0.033833705
000260 42 4f 99 bc 0e d8 04 bd 28 a9 11 3c e9 f4 95 bd
       -0.01871455 -0.03243261 0.008890428 -0.073221035
000270 17 45 2f bd 50 b6 36 bd 8b c2 7c 3c 9d 04 8a 3b
       -0.0427905 -0.04460746 0.015427242 0.0042119757
000280 b0 b8 c5 3b a2 b0 99 3b c9 a5 bb bc 9d 2b b1 3b
       0.0060339794 0.0046902457 -0.022906201 0.0054068104
000290 99 90 56 bc c4 53 02 bc 74 a8 69 bc 6c a1 ae 3b
       -0.013095998 -0.007954542 -0.014261354 0.0053293016
0002a0 e1 d4 25 bd 4d 0c 5f bc ef 17 0b bd 9d 39 6c 3b
       -0.04048622 -0.013613773 -0.03395837 0.0036045082
0002b0 cd 95 09 bd 32 d9 90 bd af a0 0d bd 08 70 b8 3c
       -0.033590127 -0.07072677 -0.034577068 0.022514358
0002c0 d1 f3 f3 bb 9f 3c b5 bd 16 c9 9e bc 0f cd f7 bc
       -0.0074448367 -0.08849453 -0.019382995 -0.030249147
0002d0 e8 10 9d bc 59 4f df ba fa 6e 1b bd f3 54 c8 bc
       -0.0191731 -0.0017037197 -0.037947632 -0.02445457
0002e0 2d 54 5d bd 59 a0 b3 bb 9d d3 95 bc 97 24 57 bd
       -0.054035354 -0.0054817614 -0.018289382 -0.05252513
0002f0 06 16 86 bd 81 58 01 3c 7a 0c 81 bd 81 fd ae bb
       -0.065471694 0.007894636 -0.06301208 -0.0053402786
000300 5d 66 ae bb 53 4d 47 bd ee b6 ec bc fa b3 a0 bd
       -0.0053222612 -0.048657726 -0.028895821 -0.07846828
000310 80 b7 6e bd 81 25 2b bb 17 ec 1e bd 77 1f 19 bd
       -0.058280468 -0.0026114883 -0.03879937 -0.037383523
000320 5f d1 1e 3c e0 83 a0 bc 00 c6 87 bc f3 60 08 bd
       0.009693473 -0.019594133 -0.016573906 -0.033295583
000330 04 c5 5a bd 23 72 9e bc 23 5c f2 bc db 8a bd bc
       -0.053410545 -0.019341534 -0.02958495 -0.0231375
000340 f7 54 35 bd 91 ec 1c bd 40 f4 a1 bd 93 64 79 bd
       -0.044270482 -0.038311545 -0.07907915 -0.06088693
000350 b9 e3 97 bc 1e a9 ce bc d1 af 0d bd 38 ce c1 3b
       -0.018541204 -0.025227126 -0.0345915 0.005914476
000360 c9 39 a4 bc dc d3 fa bc b8 7d 98 bb b6 94 bc 3c
       -0.020047085 -0.0306186 -0.0046536587 0.02302013
000370 01 bf 24 bd 14 44 52 bc 27 4e 01 bd 61 bb 18 bd
       -0.040221218 -0.012833614 -0.031568673 -0.037288073
000380 5a e6 0f 3b 33 42 29 bd c2 3c 4a 3c 3c 44 7e bc
       0.0021957369 -0.041322898 0.012343587 -0.015519198
000390 65 c9 c9 bb 35 05 a2 bc 59 25 8b bd f7 54 f5 bc
       -0.0061580413 -0.019777874 -0.06794233 -0.029947741
0003a0 90 e6 03 bd ed 76 6c bd b2 3e 61 bc a6 46 4a bc
       -0.032202303 -0.057730604 -0.013747858 -0.012345945
0003b0 b6 de 20 bd be 02 5d 3c 7c bd 71 bd 45 d9 2f bd
       -0.039274894 0.013489423 -0.059018597 -0.042931814
0003c0 50 a1 2e bd a0 7a 1c bd ff ee 9f 3b fe ea f5 bc
       -0.04263431 -0.03820288 0.0048807855 -0.03001928
0003d0 f0 1a 8d bb 0d 74 fc bc fe 49 ba 3a 34 48 69 bb
       -0.0043061897 -0.030817056 0.0014212725 -0.0035596015
0003e0 41 60 db bc ac e9 c0 3c 35 76 00 bd 6b 8f 80 bd
       -0.026779296 0.023548923 -0.03136273 -0.06277355
0003f0 3a 23 1a bd ab 14 40 bd fd bf b1 bb 9b 61 4e bc
       -0.03763125 -0.04689471 -0.005424498 -0.012596513

network_body._body_endoder.seq_layers.2.weight f4 [256, 256]
000000 9a b4 b0 bd 54 79 2a bd 85 35 c1 3c f5 c1 b4 3c
       -0.08628197 -0.041619614 0.02358509 0.022065142
000010 0d 07 e7 3c 47 b4 3e 3c f5 b3 b4 3c 8e db 28 3d
       0.028201604 0.011639661 0.022058466 0.04122501
000020 06 c3 d2 3c f3 7d 03 bd 9a 36 f3 3c 8f 78 c4 3d
       0.02572776 -0.032102536 0.029689122 0.09593307
000030 3a a4 58 bd 1e 9b 7b 3d 64 41 9c bd 3a a1 80 3d
       -0.052890994 0.06142723 -0.0762966 0.062807515
000040 6e 84 87 bb 2b 94 c2 bd 28 55 90 3d 86 ad 49 3d
       -0.00413566 -0.09500917 0.07047492 0.04923775
000050 b9 1b b5 3d 18 e0 58 bd 65 ef b3 3d 86 88 eb 3d
       0.08843178 -0.052948087 0.08785895 0.11500649
000060 70 70 0a 3d 16 78 e6 bc 56 1c c9 3c 62 13 0a 3d
       0.033798635 -0.028133433 0.024549644 0.03370989
000070 d1 a5 dd bd 0b d1 cd 3d 14 b5 e0 3c eb bd 25 3d
       -0.108226426 0.100496374 0.027430095 0.040464323
000080 b9 65 85 bc f0 91 57 3d 18 91 91 3d 5f 5c 05 be
       -0.016283857 0.05262941 0.071077526 -0.13023518
000090 ab 41 9e bd 31 d2 6e bd e6 44 cb bc 31 55 01 3c
       -0.07727369 -0.058305923 -0.024813127 0.007893846
0000a0 89 ed 9f bc 1d 3d b6 bd c0 5c 02 3d 7c 35 b6 bd
       -0.019522445 -0.08898375 0.031826735 -0.0889692
0000b0 5b de 1b bd b1 37 70 bd ff 6f 19 3d 0a 88 65 bd
       -0.03805385 -0.05864686 0.037460323 -0.05603794
0000c0 62 92 dd bd e8 46 ba 3d 26 9e b7 3c 09 2e b5 3c
       -0.10818936 0.090955555 0.022414278 0.022116678
0000d0 32 8e 2e 3e 94 48 51 3d 85 b0 3f bd 36 ed 42 bc
       0.1704643 0.051094607 -0.0467992 -0.011897376
0000e0 cf 41 23 bc c9 b4 09 3e f6 c9 13 bc 9d d5 65 3d
       -0.00996442 0.1344787 -0.009020319 0.05611192
0000f0 55 9e b2 bc 2e ee 3a 3d d2 e7 24 3d 38 51 d4 3d
       -0.021804014 0.045637302 0.040260144 0.10367054
000100 ec 3e e0 bc 1f 5b 99 bc 57 e2 8e 3c ad 30 17 3e
       -0.027373753 -0.018720208 0.017441912 0.14764662
000110 72 81 32 3b 12 1a d4 bd 48 87 46 bc 68 9a 16 bd
       0.00272378 -0.10356535 -0.0121172145 -0.036768347
000120 cb cd f6 3d 67 f0 b3 3c 48 f1 3f be 2f 9b 41 bd
       0.12050971 0.021965219 -0.18744385 -0.047267135
000130 e5 fc 1c 3d 7f 09 26 3d 08 68 05 bd 9d 73 4a bd
       0.038327117 0.0405364 -0.032569915 -0.049426664
000140 b6 da 1c be fa b5 a5 3c e6 ca 19 3e a2 47 24 bc
       -0.15317807 0.020228375 0.15018806 -0.010026844
000150 7b eb 52 bd 7d db 42 3d ae 97 80 bd 34 4b f4 3d
       -0.051494103 0.0475726 -0.062789306 0.11928406
000160 d3 5f c4 3d 84 e0 04 bd 0b 87 de 3c f9 9c 85 3d
       0.095885895 -0.032440677 0.027164003 0.06524081
000170 05 0d ff 3c 4c 69 93 bd 5b 06 91 3c fa c5 da bb
       0.031134138 -0.07197818 0.017703226 -0.0066764327
000180 86 ec 06 bd 03 69 8a bd 49 75 a6 3d ba 1c de 3d
       -0.03294041 -0.06758311 0.08127839 0.10845323
000190 9e 6f 04 3e fe 2b 81 bd 55 fd 09 bd 00 92 cf 3d
       0.12933204 -0.06307219 -0.033688862 0.10135269
0001a0 14 a3 d6 bc 8e ac f1 3d a4 0f f8 3c c6 27 be bd
       -0.026200809 0.1180049 0.030280896 -0.0928493
0001b0 9a 79 51 bb 27 36 ae 3d aa 21 be 3d 11 6c 76 bd
       -0.003196335 0.085064225 0.09283765 -0.060161654
0001c0 f6 bc bf bd 02 75 47 3d d9 d9 bd bc a7 b2 84 3d
       -0.09362213 0.04869557 -0.023175167 0.06479388
0001d0 ea bc 8a bc da ed c1 3c 97 0e ec 3d b9 90 d5 bc
       -0.016935784 0.023672987 0.1152622 -0.026069986
0001e0 61 63 a3 bd 6b 40 b8 bd eb 54 52 be 12 00 44 3d
       -0.079779394 -0.08996662 -0.20540206 0.04785163
0001f0 a5 ea c3 3c bf 50 bb 3d 22 d4 58 bd 32 7d 9d bc
       0.023915598 0.091462605 -0.05293668 -0.019224737
000200 0b de fc 3c 22 14 a5 3d 86 51 d7 3d a6 0a 99 bd
       0.030867597 0.08060481 0.10513596 -0.07472734
000210 1f 28 06 3e 31 0a 1f 3d 0c cb a1 3d 9a 9e bc 3d
       0.13101242 0.03882808 0.07900056 0.09209938
000220 e7 98 50 3c 23 52 e2 3b 51 f7 6d 3c ea e9 4e 3e
       0.012731767 0.006906764 0.014524297 0.20206419
000230 6d 24 84 3d 77 66 ae bb 96 1d 83 bd 3a 83 b6 3d
       0.0645226 -0.0053222734 -0.064021274 0.08911748
000240 11 26 68 bc 2e e0 9e bd f4 8a 94 3c f2 14 26 be
       -0.014169232 -0.07757603 0.018132664 -0.16218928
000250 3e 17 c6 3b 4d b1 87 bc ad 46 ed bc cd f6 cf bd
       0.006045251 -0.016564036 -0.028964365 -0.101544954
000260 dd dc 9f 3d 0d 6f 95 3d 2b 12 30 3d 1f 1a 07 be
       0.07805798 0.07296572 0.042986076 -0.13193558
000270 8d 58 3c bd 27 e2 36 bd 34 af db 3c a2 da ce 3b
       -0.045982886 -0.04464927 0.026816942 0.006312684
000280 26 a6 cd 3d 79 b3 f3 3c ba 8a 39 bd f8 1f f1 bb
       0.10041456 0.029748665 -0.045298316 -0.0073585473
000290 ae aa 52 3d 69 57 d6 bc dd b8 72 bd 9c 51 11 3d
       0.051432304 -0.026164727 -0.05925833 0.03547822
0002a0 15 6f 1c 3d 14 5b ac bc 9f 6f 92 3d 64 a8 27 bd
       0.038191874 -0.021039523 0.07150196 -0.040932074
0002b0 d7 fa 84 3b ad 1c a4 3d 0e e1 19 3d 9d 1b b4 3d
       0.0040582228 0.08013282 0.037568145 0.08794329
0002c0 51 f3 a2 3b 55 a9 3d 3c 70 b3 78 3d c0 6e 39 be
       0.004972853 0.011576016 0.060718 -0.18108654
0002d0 68 b4 81 3d 14 ca ad 3d 72 db 41 3e e2 3c 45 3c
       0.06333238 0.08485809 0.18931368 0.012038441
0002e0 13 f8 23 3e 93 27 47 bd b7 7f 96 bc a5 d0 55 3d
       0.16012602 -0.048621725 -0.018371446 0.052200932
0002f0 ae bc 3e 3d 79 95 17 bc 6e 86 03 bd 44 6c c8 bd
       0.046566658 -0.009251946 -0.032110624 -0.09786275
000300 76 f4 d3 3a f9 42 61 3c 30 6d b4 3d 44 65 62 3c
       0.0016170877 0.013748878 0.08809888 0.013818089
000310 6c c8 dd bc 0f 8f 10 bd f4 8d d7 3d 8a 2f 37 3d
       -0.027073108 -0.03529268 0.10525122 0.04472307
000320 e8 f3 16 3d cd a1 a8 bc 43 40 16 bc c6 ee bb bd
       0.0368537 -0.020584965 -0.009170595 -0.09176402
000330 73 a8 2f 3d f9 b2 03 bd f1 6b 03 bd 9c 57 e7 3d
       0.042885255 -0.032153104 -0.032085363 0.11296007
000340 6a 97 6f bd 5a 7c 40 3e c4 44 30 3c e7 26 f7 bc
       -0.05849401 0.18797436 0.0107585825 -0.030169917
000350 d7 03 7f 3d d4 4a 6d 3d 23 dc de 3c ce db b4 bc
       0.06225952 0.05793269 0.027204579 -0.022077467
000360 5d 81 17 3d 8a 27 eb 3d d3 92 f8 3d 0a 7e da 3d
       0.036988605 0.11482151 0.121373795 0.10668571
000370 6f be 71 3d 8d 36 97 bc cf c5 f9 3d 7f 87 3b bc
       0.059019502 -0.018458629 0.12195932 -0.011445879
000380 65 0e 55 3c 84 05 1a bc 00 29 81 bd a2 44 11 3e
       0.01300392 -0.009400729 -0.06306648 0.14186338
000390 d4 fc b7 3d 2c 27 1b 3e 04 b1 f9 bc ec c8 b8 3b
       0.0898377 0.15151662 -0.030479915 0.005639186
0003a0 31 bc 63 bc 8e e2 12 be 92 b3 31 bd d1 76 5c 3d
       -0.013899849 -0.14344236 -0.043384142 0.05382425
0003b0 0d 89 ad 3c a9 b0 5a 3d 95 4e cb 3c 20 71 02 bd
       0.021183515 0.053391133 0.024817744 -0.031846166
0003c0 1a 4d 8b 3d 7d 52 14 3d 4a 90 89 bd 71 c9 a6 3d
       0.06801815 0.03621148 -0.06716974 0.08143891
0003d0 fc b1 42 bb 85 5c b1 3d ed a3 12 3c a0 55 b8 bc
       -0.0029708138 0.08660225 0.008950216 -0.022501767
0003e0 a1 30 cd 3c a4 da ca bd 4d 10 e5 3d 3b 65 2f 3e
       0.025047602 -0.09904984 0.1118475 0.1712846
0003f0 77 a4 84 3b 37 d1 6e 3a 72 b3 d5 3d 36 36 53 ba
       0.004047926 0.0009110155 0.10434617 -0.0008057089

network_body._body_endoder.seq_layers.4.bias f4 [256]
000000 cf fa 8a 3a c7 86 d9 bc b3 3c 88 3b 07 cc 0a bd
       0.0010603311 -0.026553525 0.0041576265 -0.033885982
000010 a2 28 de 3c dc 80 ac bc 09 fd 79 bc e3 9c a2 3c
       0.027118985 -0.021057539 -0.015258082 0.0198502
000020 c5 68 4f 39 27 85 c8 bc f5 2f 2b bc e4 28 1e bd
       0.00019780088 -0.024477554 -0.010448446 -0.038613215
000030 17 14 75 3c 3d 09 eb bb 1c 6b a5 bc 4d 9f 4f bc
       0.014958403 -0.007172732 -0.020192675 -0.012672258
000040 01 97 68 bb c0 86 c2 3b e1 dd 26 bd a3 bd 55 3c
       -0.0035490396 0.0059364736 -0.040738944 0.013045701
000050 52 66 e8 bc 69 8b 23 3b 50 c5 fc bc 8c 90 4f 3c
       -0.028369103 0.002495492 -0.030855805 0.01266874
000060 4f 3b 51 3c f0 37 1b bc 56 19 0d bd 56 6b 54 3c
       0.012770488 -0.009473786 -0.03444799 0.012965044
000070 e6 cc 2d bc 25 a9 8f bc 42 4c c9 3c 4f 38 34 bb
       -0.010607934 -0.01753671 0.024572495 -0.0027499383
000080 86 8d cb bb 67 15 14 bc e5 08 ca 3b d5 cc 1f bc
       -0.0062119393 -0.009038306 0.006165611 -0.009753426
000090 2f 0e d7 3a 75 ea 17 bd 10 a1 1b 3c 5c 07 91 bc
       0.0016407425 -0.03708883 0.0094988495 -0.017703705
0000a0 2d fd 24 bd 85 b6 ec 3b e6 17 51 bc ed 96 86 bc
       -0.04028051 0.0072239065 -0.0127620455 -0.016429389
0000b0 fa ca b7 3c 16 cd 93 bc 56 13 d7 3a c4 13 af bc
       0.022435654 -0.018042129 0.0016408961 -0.02137173
0000c0 ca 8b fd bb ff 59 c6 bc 65 2d 0c bc ad 86 4d bd
       -0.0077376114 -0.024212835 -0.008555745 -0.050177265
0000d0 56 c2 a9 ba d0 a9 b8 bc 42 02 ab 3c c2 4c 83 3b
       -0.0012951593 -0.02254191 0.0208751 0.004006953
0000e0 c5 bb fd 3c d0 b7 8d 3c 4f ee bb 3a 1b 28 d1 bb
       0.030973325 0.017299563 0.0014337989 -0.006382955
0000f0 34 84 d4 bc c3 f5 a8 3c f5 b1 96 bc cd 96 c8 bc
       -0.025941946 0.020625 -0.018395403 -0.02448597
000100 c1 32 34 bb 57 cd 11 bc 1f 3f 0c bd b3 f5 51 bc
       -0.0027496072 -0.0088990545 -0.034239884 -0.012814927
000110 ed aa 0a bd 97 d7 7e 3b 8d 4b fe 3c af 29 1c 3d
       -0.033854414 0.0038885826 0.031041885 0.03812569
000120 0d 1f 4c bc 5c e8 1d bd dc 49 b4 3c b5 4d ab 3c
       -0.012458575 -0.038551673 0.022007875 0.020911077
000130 ea 83 9b 3c 0b 38 17 bc 17 08 bb bc b5 f9 c5 bc
       0.0189838 -0.00922967 -0.022831006 -0.024166921
000140 36 e0 1e bd c8 c0 85 3c 63 93 87 bc bf 16 81 bc
       -0.038788043 0.016327277 -0.016549772 -0.015757916
000150 0a d8 6e bc 0d c2 af bc bf 45 83 3b 0b aa 57 bb
       -0.014577875 -0.021454835 0.004006117 -0.003290775
000160 50 f0 16 bd 46 cf 04 3c d6 b6 7b 3a a7 d0 83 bc
       -0.036850274 0.008106058 0.0009602135 -0.016090704
000170 53 9e b8 bc f5 a0 28 bd 7b 36 e8 bc b3 22 f2 3b
       -0.022536432 -0.041169126 -0.02834629 0.0073893904
000180 55 21 6f bc 3b 3e dc 3b e7 7f b6 bb c3 93 ad bc
       -0.014595349 0.0067212856 -0.0055694464 -0.021188622
000190 08 2a 28 bc 01 07 5a 3c e0 e6 97 bc 2f fa 08 3c
       -0.010263927 0.013307334 -0.018542707 0.00836043
0001a0 f2 98 67 3b 08 e2 8d bc 95 49 29 bc 9f 48 42 3c
       0.0035338965 -0.017319694 -0.010332485 0.0118581345
0001b0 81 19 52 3c c1 3e 62 3c 40 f3 f8 ba f8 fb 86 3d
       0.012823463 0.013808907 -0.0018993393 0.06591028
0001c0 a5 62 1a bc 6f 80 4f 3c 35 0d 9d bb 9a ea 17 bc
       -0.009422933 0.012664898 -0.004792834 -0.009272242
0001d0 d9 5d 12 bd c6 95 37 bc 84 a7 fe bc 83 7c 8c bc
       -0.03573403 -0.011205142 -0.031085737 -0.017149216
0001e0 4c 57 b1 bc d7 9b 5e bb 7b 45 99 3c 87 8b ca bb
       -0.021648072 -0.00339674 0.018709889 -0.0061811837
0001f0 68 3f 5f 3c 41 83 02 3d f2 ee 54 bb 89 ed 1c 3d
       0.013625957 0.031863455 -0.0032491055 0.03831247
000200 4f c7 38 bd 57 ac b1 bc 46 13 44 3d 75 94 8b 3a
       -0.04511195 -0.021688623 0.047869943 0.0010649102
000210 93 d0 be 3b 2f c9 0a bd f2 c0 84 3c 7a b2 1b bc
       0.005823204 -0.03388327 0.016205285 -0.009503001
000220 79 47 11 bd 1a 6a 8e bc 5c dc 82 3b 6a 06 11 3b
       -0.035468552 -0.017384578 0.003993554 0.0022129067
000230 a4 00 07 3d c3 8e 24 3c 8c bb 95 bb 60 2b 63 bc
       0.032959595 0.010043803 -0.0045694765 -0.013865322
000240 d9 8e d6 3c ca 78 b7 bc 8f fe 0d 3a 9a 0c 1c 3c
       0.026191162 -0.022396464 0.00054166553 0.009524489
000250 15 10 09 bd 75 d6 c4 ba e4 93 9f bb 0f 66 7a bc
       -0.033462603 -0.0015017526 -0.004869925 -0.015283122
000260 a8 22 1c bc cd f8 7c ba 7d f2 d1 bc ac ed f4 3c
       -0.009529747 -0.00096501113 -0.025628323 0.029898487
000270 16 cd da 3b 27 53 86 3c 5e 12 07 3d 1f 23 0c bc
       0.00667728 0.016397072 0.0329765 -0.008553295
000280 33 55 81 bb 5c d3 53 3d eb a4 78 bb c6 0f a9 bc
       -0.003946924 0.05171524 -0.0037940096 -0.020637404
000290 0f 97 bd bb c9 a8 ee bc 8e 69 23 3c e7 5d 4b 3b
       -0.00578583 -0.029133217 0.009973897 0.0031031312
0002a0 98 5c 2c bc 91 56 e3 ba 3b 31 70 3b ec c6 27 bc
       -0.010520123 -0.0017344524 0.0036650437 -0.010240298
0002b0 a7 00 0b bb 34 79 34 3d e7 b5 2e bc b4 32 93 bb
       -0.0021210106 0.0440609 -0.010663486 -0.0044921283
0002c0 6e 42 40 bd 13 52 ab bc 6d cb 04 3d fe 85 10 3d
       -0.046938352 -0.02091316 0.032420564 0.035284035
0002d0 be 79 64 bc f6 e3 61 bc cf 80 44 bc 6f 4e b2 3a
       -0.013945041 -0.01378726 -0.011993601 0.0013603697
0002e0 04 db d7 bb 67 01 65 bc 88 85 98 bc f9 81 82 3b
       -0.006587388 -0.013977385 -0.01861836 0.003982779
0002f0 23 b5 2c bb da db 92 bc a9 ea 72 39 ad 7e 0a 3d
       -0.0026353083 -0.017927099 0.00023166336 0.033812214
000300 bf e1 1d bc 85 d0 77 3c 8b 85 cb ba f2 34 d1 3c
       -0.009636342 0.0151253985 -0.001552747 0.025537942
000310 db 28 02 bc ae a3 4d 3d 97 4d bf bb 00 19 e1 bc
       -0.007944311 0.050204925 -0.005838107 -0.027477741
000320 4d f9 1c 3c c9 05 94 3c 65 2b 2e 3d 4d 69 85 3d
       0.009580922 0.018069165 0.042521853 0.06514225
000330 f7 9f 28 3d 17 c0 82 bc c5 d5 8c bb 22 a8 6c 3b
       0.04116818 -0.015960736 -0.0042979443 0.0036110957
000340 9b 28 12 3c e0 5c 96 bc 2f 39 ba 3a 70 89 08 3c
       0.008920814 -0.018354833 0.0014207716 0.008333549
000350 9d 62 09 3c 29 2c 47 3a 04 da 91 bc c6 42 0e 3c
       0.008385328 0.0007597828 -0.017804153 0.008682912
000360 11 ca 6a 3c 5d 4b a0 bc 75 12 61 bc 81 c2 aa bb
       0.014330403 -0.019567186 -0.013737311 -0.005211175
000370 6e 2e 98 bc 5b 76 37 bc df 2d 5d bc 3e dd 28 bd
       -0.018576827 -0.011197652 -0.013499706 -0.041226618
000380 98 70 9a bc 09 fa bd 3b 32 db 06 bd e6 ec 17 3a
       -0.018852517 0.005797629 -0.032923885 0.00057954935
000390 bc 48 37 3c 69 6d a4 bb 66 05 92 3c 64 8d 6a bc
       0.011186775 -0.0050179255 0.01782484 -0.014315937
0003a0 39 dd 5c 3b e2 66 62 bc cb ad 99 bc 3d dc fb 3b
       0.0033701195 -0.0138184745 -0.018759629 0.0076861666
0003b0 e6 7b 6c 3c 0a 3c 24 bd fc 64 c7 3c 05 47 b3 3c
       0.014433837 -0.04009632 0.024340145 0.02188445
0003c0 68 42 84 3a e1 7f c2 3b 1c 10 86 bc e0 43 4e 3c
       0.0010090591 0.0059356545 -0.016365103 0.012589425
0003d0 fa a8 13 bc ce 88 42 3b 2c 26 2d bc f4 5d e5 bc
       -0.009012455 0.0029683593 -0.010568183 -0.027998902
0003e0 f5 e4 d6 3c 7b c2 99 3c 7a 90 05 bd e9 7c f3 3b
       0.026232222 0.018769493 -0.032608487 0.007430662
0003f0 f3 b8 98 bb 78 71 e3 bc b3 0c 33 bc 1d dd cd 3c
       -0.0046607195 -0.027764067 -0.010928321 0.02512985
