Assets/Training/results/Run 10/DroneBehavior/DroneBehavior-9000099.onnx (onnx, 704152 bytes, 23 tensors)

115 f4 [25]
0	0x3eee760f	0.46574447
1	0x3e8bb12f	0.27283618
2	0x3e423211	0.18964411
3	0x3efdeccd	0.49594727
4	0x3e6c82f1	0.23096825
5	0x3eeded87	0.4647028
6	0x3e3e6d3e	0.1859636
7	0x3e38fe37	0.18065725
8	0x3ef925c5	0.48661628
9	0x3e6519f5	0.22373183
10	0x3ee7d221	0.45277503
11	0x3e49ebea	0.197189
12	0x3e4539b8	0.19260299
13	0x3ef6c69d	0.48198405
14	0x3e5aee21	0.21379901
15	0x3ee54f4f	0.4478707
16	0x3e1a8c19	0.15092506
17	0x3dde4767	0.10853463
18	0x3eed69f0	0.46369886
19	0x3e43fa30	0.19138408
20	0x3ee88b6f	0.4541888
21	0x3e2d8517	0.16945301
22	0x3dc1ca32	0.09462394
23	0x3ef0aa6f	0.4700503
24	0x3e407818	0.18795812

118 f4 [25]
0	0x3eee7602	0.46574408
1	0x3e8bb136	0.2728364
2	0x3e423211	0.18964411
3	0x3efdeccc	0.49594724
4	0x3e6c82f3	0.23096828
5	0x3ede294a	0.43390876
6	0x3e3e0f55	0.18560536
7	0x3e90844d	0.28225937
8	0x3ef7d09b	0.4840134
9	0x3e57a072	0.21057299
10	0x3eee0a7c	0.46492374
11	0x3e403e98	0.18773878
12	0x3e1d05f6	0.15334305
13	0x3ef818cd	0.48456421
14	0x3e647412	0.22309902
15	0x3ec518be	0.3849544
16	0x3e822b10	0.2542348
17	0x3e6b2d38	0.22966468
18	0x3eebfef1	0.46092942
19	0x3e30c9c2	0.17264464
20	0x3ee8b2e9	0.45448998
21	0x3e01062d	0.12600012
22	0x3d5dee85	0.054182548
23	0x3eecefb7	0.46276638
24	0x3e500023	0.20312552

121 f4 [25]
0	0x3e5fc6f9	0.21853246
1	0x3eae5758	0.34051013
2	0x39aec2fe	0.00033333147
3	0x3ec67530	0.38761282
4	0x3e0ac21a	0.13550606
5	0x3e68816e	0.22705624
6	0x3da6e68a	0.081494406
7	0x3b9013d5	0.0043968954
8	0x3e75829e	0.23975608
9	0x3d5d9a73	0.054102372
10	0x3e9d276b	0.30694136
11	0x3e544b64	0.20731884
12	0x3c3cee9f	0.011531501
13	0x3eb70d81	0.3575249
14	0x3dad862e	0.08472858
15	0x3e59acbe	0.21257302
16	0x3e0fa3ed	0.14027376
17	0x39aec2fe	0.00033333147
18	0x3e807ab1	0.25093606
19	0x3d649493	0.055805754
20	0x3e59acbe	0.21257302
21	0x3e0fa3ed	0.14027376
22	0x39aec2fe	0.00033333147
23	0x3e807ab1	0.25093606
24	0x3d649493	0.055805754

124 f4 [55]
0	0x3d2fb5fc	0.042898163
1	0x3eb31184	0.349743
2	0x39aec2fe	0.00033333147
3	0x3eb40907	0.35163137
4	0x3d3164f4	0.043309167
5	0x3cff3c5d	0.031156713
6	0x3dc0e031	0.09417761
7	0x39aec2fe	0.00033333147
8	0x3dcaf26f	0.09909522
9	0x3c5854e5	0.013203834
10	0x3d3b9e43	0.045805227
11	0x3dc42c4a	0.0957876
12	0x39aec2fe	0.00033333147
13	0x3dd91095	0.10598866
14	0x3c9f08ec	0.019413434
15	0x3c4f1456	0.012639126
16	0x3c8e31d5	0.017357746
17	0x39aec2fe	0.00033333147
18	0x3cafd8ef	0.021465747
19	0x3b73b4b8	0.0037186574
20	0x3d5696a6	0.052389763
21	0x3e056bb5	0.13029368
22	0x39aec2fe	0.00033333147
23	0x3e0f7190	0.14008164
24	0x3cb2cdfd	0.021826738
25	0x3c672930	0.014108941
26	0x3c90d0d1	0.017677696
27	0x39aec2fe	0.00033333147
28	0x3cb933a3	0.02260763
29	0x3bcd7523	0.0062700673
30	0x3dd337c3	0.1031337
31	0x3e05769f	0.13033532
32	0x39aec2fe	0.00033333147
33	0x3e290afc	0.16508096
34	0x3d0c3a8f	0.034235533
35	0x3c83a8d2	0.01607171
36	0x3c1e8705	0.009675746
37	0x39aec2fe	0.00033333147
38	0x3c99a4e6	0.018755388
39	0x3c0ede61	0.008720011
40	0x3e2796e0	0.16366148
41	0x3ca507bc	0.02014529
42	0x39aec2fe	0.00033333147
43	0x3e28c998	0.16483152
44	0x3d755a9c	0.059900865
45	0x3ce4dd20	0.027937472
46	0x3c8d32ee	0.0172362
47	0x39aec2fe	0.00033333147
48	0x3d066c0c	0.032817885
49	0x3c75b18a	0.014995942
50	0x3ce4dd20	0.027937472
51	0x3c8d32ee	0.0172362
52	0x39aec2fe	0.00033333147
53	0x3d066c0c	0.032817885
54	0x3c75b18a	0.014995942

127 f4 [25]
0	0x3b846c0a	0.0040411996
1	0x3eff0b7a	0.49813443
2	0x39aec2fe	0.00033333147
3	0x3eff0c3d	0.49814025
4	0x3d5d8847	0.054085042
5	0x3b2a9ce4	0.0026033456
6	0x3eed1eab	0.4631246
7	0x39aec2fe	0.00033333147
8	0x3eed1ecd	0.46312562
9	0x3d354446	0.044254564
10	0x3c793571	0.015210495
11	0x3eedbf51	0.46435025
12	0x39aec2fe	0.00033333147
13	0x3eedcaee	0.46443886
14	0x3d465de4	0.048429385
15	0x3c39dd99	0.011344337
16	0x3eed0a0e	0.46296734
17	0x39aec2fe	0.00033333147
18	0x3eed1181	0.46302417
19	0x3d38b911	0.045098368
20	0x3c39dd99	0.011344337
21	0x3eed0a0e	0.46296734
22	0x39aec2fe	0.00033333147
23	0x3eed1181	0.46302417
24	0x3d38b911	0.045098368

130 f4 [6]
0	0x3efae31e	0.49001402
1	0x3e7dc380	0.24781609
2	0x3efae31e	0.49001402
3	0x3e7dc380	0.24781609
4	0x3efae31e	0.49001402
5	0x3e7dc380	0.24781609

133 f4 [3]
0	0x41164ace	9.393263
1	0x3ff11b34	1.8836427
2	0x412ebd87	10.921271

action_model._continuous_distribution.log_sigma f4 [1, 3]
0	0xbd9b37b5	-0.07578985
1	0xbea4d25b	-0.32191738
2	0xbe627aea	-0.221172

action_model._continuous_distribution.mu.bias f4 [3]
0	0x3ca778fd	0.020443434
1	0xbc239327	-0.009983814
2	0x3d27d23e	0.040971987

action_model._continuous_distribution.mu.weight f4 [3, 256]
0	0xbb3f5d1d	-0.0029199787
1	0x3cd86084	0.02641321
2	0x3c171c99	0.009223127
3	0xbb8c099a	-0.0042736055
4	0x3cfb7a9a	0.03069811
5	0xbce290fa	-0.02765702
6	0x3b9bedfe	0.0047585955
7	0xbc9d2994	-0.019184865
8	0xbd2004ad	-0.03906696
9	0x3d348602	0.044073112
10	0x3d28cead	0.041212726
11	0x3c8aad08	0.01692821
12	0x3cc95500	0.024576664
13	0xbbc63dfd	-0.00604987
14	0x3cfd10d4	0.030891813
15	0x3d021220	0.031755567
16	0x3c4db5f7	0.012555591
17	0xba2b35f8	-0.00065311743
18	0xbd345ae5	-0.044031996
19	0xbcfd5d4d	-0.030928278
20	0x3cae64a5	0.021288225
21	0x3c8b559a	0.017008591
22	0x3d1c3dc7	0.038144853
23	0xbb3aae89	-0.0028485379
24	0x3b9ac515	0.004723201
25	0xbbaa5d9d	-0.005199148
26	0x3d1a1c09	0.037624393
27	0x3aa13ff0	0.001230238
28	0x3ccc12cf	0.024911312
29	0x3b64c5dd	0.0034907975
30	0x3c72704e	0.014797283
31	0xbc27c965	-0.010240887
32	0x3c913ff7	0.017730696
33	0xbcc24694	-0.023715295
34	0x3c9a835d	0.018861467
35	0xbd2c7529	-0.04210392
36	0xbc5e6432	-0.013573693
37	0x3da1364c	0.078716844
38	0xbbccd6a0	-0.006251171
39	0x3d7be6d2	0.061499424
40	0x3c372295	0.011177679
41	0xbc3f411e	-0.01167324
42	0xbc89318c	-0.016747259
43	0x3d06fa0f	0.03295332
44	0xba1d4b48	-0.00060002925
45	0x3cea55f7	0.028605444
46	0x3c03f238	0.008053355
47	0x3c92c790	0.017917424
48	0x3c615d98	0.013755225
49	0xbd13ba39	-0.036066268
50	0x3cfb3875	0.03066657
51	0x3ce3c579	0.027804123
52	0xbb418089	-0.0029526076
53	0x3cbfadcc	0.023398302
54	0x3b9f6a48	0.0048649646
55	0xbc9f9490	-0.01948002
56	0xbcde98fc	-0.027172558
57	0xbac36565	-0.0014907537
58	0xbb67faa5	-0.0035397199
59	0xbd399c8c	-0.04531531
60	0xbd0738e1	-0.03301323
61	0xbb632c71	-0.003466394
62	0xbb13aa08	-0.0022531766
63	0xbb74de2e	-0.0037363875
64	0x3c832f4f	0.01601377
65	0xbc890c5d	-0.016729528
66	0xbc51ec4e	-0.012812687
67	0xbc0063b0	-0.007836267
68	0xbca4bf2b	-0.020110687
69	0x3c860e2f	0.016364185
70	0x3cca3cae	0.024687137
71	0x3b2a88e1	0.0026021528
72	0xbd054d5a	-0.03254447
73	0x3d0b6465	0.03403129
74	0x3c074286	0.0082556065
75	0x3c021a70	0.0079408735
76	0x3bf48f17	0.0074633467
77	0x3c2d737b	0.010586615
78	0xbc8f247a	-0.017473448
79	0xbd1aeb42	-0.037822016
80	0x3be508b5	0.0069895633
81	0x3d3b22b9	0.04568741
82	0xbcb64ab1	-0.022252413
83	0xbbffc6ca	-0.00780568
84	0xba4e6de6	-0.00078746525
85	0x3baac698	0.0052116625
86	0xbd348aa2	-0.044077523
87	0x3c481736	0.012212565
88	0xbcf73598	-0.030176923
89	0xbcd37b0c	-0.02581551
90	0xbdbc9585	-0.09208206
91	0x3b25c65f	0.002529524
92	0x3c5c7071	0.0134545425
93	0xbc57cc07	-0.0131712025
94	0x3d749318	0.059710592
95	0xbcb0706f	-0.021537988
96	0xbc660a04	-0.014040474
97	0x3bebfef4	0.0072020236
98	0xbc658944	-0.014009777
99	0x3db409d1	0.08790935
100	0x3ca8a6a7	0.020587279
101	0x3d0c5394	0.034259394
102	0x3b97647f	0.0046201344
103	0x3cfc7ec7	0.03082217
104	0xbc174865	-0.009233569
105	0x3bdcb14b	0.006735002
106	0xbcaab605	-0.020838747
107	0xbc2cb8f5	-0.010542144
108	0x3c04aaf2	0.008097397
109	0x3c960dad	0.018317068
110	0x3cbbd0d3	0.022926724
111	0x3d089946	0.033349298
112	0xbd1dd52f	-0.038533386
113	0xbcd7f5c0	-0.0263623
114	0x3cedb1fe	0.029015537
115	0xbd15d20f	-0.03657728
116	0xbdf79488	-0.12088877
117	0x3d1424a4	0.036167756
118	0xbd3a73c1	-0.045520548
119	0xbd73e87b	-0.059547883
120	0xbd02f8b5	-0.031975467
121	0xbcc24968	-0.023716643
122	0xbcce715a	-0.025200535
123	0xbbba59e4	-0.0056869853
124	0x3d5b14f0	0.053486764
125	0x3bc4c3d2	0.006004789
126	0x3bab4ddd	0.005227788
127	0x3c972c97	0.01845388
128	0x3cf6bef7	0.030120356
129	0x3cfc82c0	0.030824065
130	0xbb40e15e	-0.0029431204
131	0x3ced463c	0.028964154
132	0xbc83c3b0	-0.016084522
133	0xbda920c0	-0.082582
134	0xbc0d64b1	-0.008629964
135	0x3c4d2e6d	0.012523276
136	0x3cb56b0a	0.022145767
137	0xbc8cd3ff	-0.017190931
138	0xbb955488	-0.004557196
139	0x3cf874fc	0.03032922
140	0x3bdf5ad8	0.0068162493
141	0xbc59e3c0	-0.013298929
142	0x3ba4da75	0.005030925
143	0xbc1fbbe5	-0.009749387
144	0xbbba3c40	-0.005683452
145	0x3c3c2b02	0.011484863
146	0x3c849d3d	0.016188258
147	0x3bd4bc28	0.0064921565
148	0x3c8b7856	0.017025154
149	0x3ca211c2	0.019783858
150	0xbd592500	-0.0530138
151	0xbcfad662	-0.030619804
152	0x3d4c2e93	0.049849104
153	0x3c0e2f2c	0.008678239
154	0x3cbc63d6	0.022996824
155	0x3bce59c7	0.0062973234
156	0xbc40163d	-0.011724052
157	0x3bdbf2a6	0.0067122756
158	0xbac677ff	-0.0015141963
159	0x3b5ef459	0.0034020154
160	0x3c81d37d	0.015847916
161	0x3ca34ebc	0.019935004
162	0x3cbe0587	0.023195995
163	0x3ca541c6	0.020172965
164	0xbc9fa259	-0.019486593
165	0xbc325773	-0.010885107
166	0xba84a821	-0.0010120907
167	0x3a656665	0.0008750915
168	0xbc4b0e56	-0.012393555
169	0xbd2c77a5	-0.04210629
170	0xbbddafe2	-0.0067653516
171	0x3da337ad	0.07969604
172	0x3d090135	0.033448417
173	0xbc8d52fc	-0.017251484
174	0xbbaf38cd	-0.0053473474
175	0x3c5ea2bf	0.013588606
176	0x3ab7adfc	0.0014013643
177	0x3c0c1ba5	0.008551513
178	0xbd4b92b5	-0.049700458
179	0x3cf2fab8	0.029660568
180	0xbc8c8f07	-0.017158045
181	0xbc264fa4	-0.010150824
182	0xbbd6648d	-0.0065427483
183	0x3c910144	0.017700799
184	0xbd45919d	-0.04823457
185	0xbb73ba56	-0.0037189922
186	0xbd13361f	-0.035940286
187	0xbb3cbe26	-0.002879986
188	0x3cff2da4	0.031149693
189	0xbc47996d	-0.012182576
190	0x3c1a193d	0.009405431
191	0x3c7bc22b	0.0153661175
192	0x3dab465c	0.08363029
193	0x3c902850	0.017597347
194	0x3ce6d26e	0.028176513
195	0x3d4e1ed9	0.050322387
196	0xbb944282	-0.00452453
197	0xbd36e754	-0.044654205
198	0x3d5c7ec5	0.053831834
199	0x3bcf5ed3	0.0063284426
200	0x3c813979	0.015774475
201	0x3c960a5a	0.018315483
202	0x3d068aa6	0.03284707
203	0x3c6a0feb	0.014286022
204	0x3d1348c3	0.035958063
205	0x3d412cb7	0.047161784
206	0x3d0ec859	0.034859035
207	0x3c7815c1	0.015141905
208	0x3c6250dd	0.013813225
209	0x3c8035b1	0.015650602
210	0xbba7439a	-0.0051044943
211	0xbd6de58d	-0.058080245
212	0x3c179b3e	0.009253321
213	0x3d46c42b	0.048526924
214	0xbd0489c1	-0.032357935
215	0xbbb2cbb7	-0.0054564136
216	0x3c565047	0.013080663
217	0xbc963ac1	-0.018338563
218	0x3ba09a47	0.004901204
219	0x3b5297d5	0.0032133956
220	0xbcd0f043	-0.02550519
221	0x3ccb834d	0.024842883
222	0xbaa186bc	-0.0012323479
223	0xbbe42467	-0.0069623473
224	0xba641922	-0.0008701255
225	0xbc610493	-0.013734001
226	0xbc8ecadc	-0.017430715
227	0x3bcc3391	0.006231733
228	0x3d76a69d	0.06021749
229	0xbd78559a	-0.06062851
230	0x3d556df1	0.0521068
231	0xbd8b5d6f	-0.068049304
232	0x3d98bf89	0.074584074
233	0x3cc50468	0.024049953
234	0x3d917073	0.07101526
235	0xbbb6aac6	-0.005574557
236	0xbca4ade8	-0.020102456
237	0x3c04f12c	0.0081141405
238	0xbd0df0de	-0.034653537
239	0xbc9e9895	-0.019359866
240	0xbc66799c	-0.01406708
241	0x3c8d3cf5	0.01724098
242	0xbc74464c	-0.014909338
243	0x3ccde9ca	0.025135893
244	0x3d4454a0	0.047932267
245	0x3ca474a2	0.020075146
246	0x3bcc0c9d	0.0062270896
247	0xbb18150e	-0.002320591
248	0x3c5f0cf1	0.013613925
249	0xbc41cac0	-0.0118281245
250	0xbc18ec21	-0.009333641
251	0x3d3f8158	0.04675421
252	0x3cc9d706	0.024638664
253	0xbc6e9832	-0.014562653
254	0x3c2b781f	0.010465651
255	0x3adcb70d	0.0016839221

network_body._body_endoder.seq_layers.0.bias f4 [256]
0	0xbd80f452	-0.062966004
1	0x3d42bcfe	0.04754352
2	0x3b842eb7	0.004033889
3	0xbdf57468	-0.11985093
4	0xbd5ccab5	-0.053904254
5	0x3da840d8	0.08215493
6	0xbd1b53e8	-0.037921816
7	0xbdc0eeb1	-0.09420527
8	0xbd57074c	-0.052497193
9	0xbdc8b6ee	-0.09800516
10	0xbc66531d	-0.014057902
11	0xbe9a8260	-0.30177593
12	0x3cd338fe	0.025784012
13	0x3c50a2b9	0.012734109
14	0xbe2e39e4	-0.17014271
15	0x3d2d4687	0.04230359
16	0x3d341e1e	0.043974034
17	0x3d998c86	0.07497506
18	0xbd05964b	-0.032614034
19	0xbdb8f680	-0.09031391
20	0xbe039c1e	-0.12852523
21	0xbd926584	-0.07148269
22	0x3c348012	0.0110168625
23	0xbdf68df5	-0.12038795
24	0xbda293c6	-0.07938342
25	0x3e3d9a27	0.18515836
26	0xbe33d0c6	-0.1756011
27	0xbe09d766	-0.13461074
28	0xbda455df	-0.08024191
29	0xbd3031df	-0.04301631
30	0xbe88714b	-0.26648936
31	0xbe165645	-0.14681347
32	0xbc5d667f	-0.0135132065
33	0xbe135730	-0.14388728
34	0xbbe2a69a	-0.006916833
35	0xbdfa2571	-0.12214173
36	0xbe1f9d0f	-0.15587257
37	0xbdaf5f78	-0.08563131
38	0xbe2f644d	-0.17128105
39	0xbe4b42e7	-0.1984974
40	0xbdd1bd16	-0.102411434
41	0xbe58d130	-0.21173549
42	0xbcab70c8	-0.020927802
43	0xbd840518	-0.06446284
44	0x3cbb1250	0.02283588
45	0xbe225d58	-0.1585592
46	0xbdca427f	-0.098759644
47	0xbcf070dc	-0.02935069
48	0xbd3dcba5	-0.04633679
49	0xbe93ee88	-0.28892922
50	0xbd8fc6a0	-0.070203066
51	0xbda9f46c	-0.08298573
52	0xbd1f7b4d	-0.03893595
53	0xbcbe7f6f	-0.023254124
54	0xbb80de05	-0.003932717
55	0xbdedfaa4	-0.116200715
56	0x3d7af649	0.061270032
57	0xbe01615b	-0.12634794
58	0xbc832a26	-0.016011309
59	0xbc67a7a8	-0.014139093
60	0xbd88aa52	-0.06673111
61	0xbd5eb9ce	-0.054376416
62	0xbcd513bc	-0.026010387
63	0xbe0a3122	-0.13495305
64	0xbc7ef7ab	-0.015561978
65	0xbd7ad229	-0.06123558
66	0x3d28956e	0.041158132
67	0x3c986496	0.01860265
68	0xbc40f54c	-0.011777233
69	0xbdd2d17c	-0.10293862
70	0xbdb1f3ea	-0.08689101
71	0xbd89e2cf	-0.067327134
72	0xbe1f3863	-0.15548854
73	0x3dad65bd	0.08466671
74	0x3badf1a9	0.005308349
75	0xbdc8751d	-0.097879626
76	0xbdcb8f4b	-0.0993944
77	0xbce65359	-0.028115915
78	0x3c857042	0.01628888
79	0xbe438583	-0.190939
80	0xbd986116	-0.07440393
81	0x3cbce00a	0.023056049
82	0xbe140086	-0.14453325
83	0xbd85ecdf	-0.0653932
84	0xbe30eff7	-0.1727904
85	0xbdb018bf	-0.0859847
86	0xbd79072a	-0.060797848
87	0xbda64e96	-0.08120458
88	0xbdd2655e	-0.102732405
89	0x3d2a13f0	0.04152292
90	0xbbdb1b73	-0.006686622
91	0xbd083a8b	-0.033258956
92	0xbd66e22b	-0.056368034
93	0xbd25f08b	-0.040512603
94	0xbd2f85cd	-0.04285221
95	0xbe00ff1e	-0.1259732
96	0xbdd9440c	-0.10608682
97	0xbe215f83	-0.15759091
98	0xbd08502a	-0.033279575
99	0xbbddf56f	-0.0067736427
100	0xbe351ac1	-0.17685987
101	0xbe19b3c1	-0.15009977
102	0xbd6939eb	-0.05694
103	0xbd1ef0bd	-0.038803805
104	0x3c434383	0.0119179515
105	0xbde40ac8	-0.11134869
106	0xbddd3879	-0.10801787
107	0xbd6365bb	-0.05551694
108	0x3d256f27	0.040389206
109	0xba0711da	-0.00051525014
110	0xbd817555	-0.063212074
111	0x3c6315b6	0.013860157
112	0xbde93b4a	-0.113882616
113	0xbdc2fb9e	-0.095206484
114	0x3d63e2ac	0.055636093
115	0xbdecdc58	-0.11565465
116	0xbce315c7	-0.027720345
117	0xbd9186ff	-0.071058266
118	0x3b529c6f	0.0032136699
119	0xbe673685	-0.22579391
120	0xbdbe5870	-0.09294212
121	0xbcfe76a6	-0.031062435
122	0xbe2b6712	-0.16738537
123	0xbe1303f7	-0.14356981
124	0xbe3652af	-0.17804979
125	0xbd841969	-0.06450159
126	0xbd8b670d	-0.06806765
127	0x3a96acdf	0.0011495611
128	0xbcac18e4	-0.021007963
129	0x3c119d3a	0.008887583
130	0xbdbb659c	-0.0915024
131	0xbe0aef8d	-0.13567944
132	0xbe05c57e	-0.13063619
133	0xbd8520ac	-0.06500372
134	0xbd94f014	-0.07272354
135	0xbd7cdaa5	-0.061731953
136	0xbc47a4ba	-0.01218527
137	0xbdf7c3e5	-0.12097911
138	0xbd7f6fc1	-0.062362436
139	0xbd9d0531	-0.07667006
140	0x3c35f4c1	0.011105717
141	0xbd31dc4c	-0.043422982
142	0xbd2dbbba	-0.042415358
143	0x3db6c006	0.08923344
144	0xbb46c7a4	-0.0030331397
145	0xbd8f7200	-0.07004166
146	0xbd30c801	-0.04315949
147	0xbd26b1b0	-0.0406968
148	0xbe41de2b	-0.18932407
149	0xba924a5f	-0.001116108
150	0xbd6bfc2f	-0.057613548
151	0xbe531ce0	-0.20616484
152	0xbe02ca80	-0.1277256
153	0x3dfbc2f3	0.12293043
154	0xbe189a50	-0.14902616
155	0x3d758e30	0.059950054
156	0x3dab296f	0.08357512
157	0x3d2eb80c	0.04265599
158	0xbdce9d6c	-0.100886196
159	0xbdde62ab	-0.10858663
160	0xbbf23f08	-0.007392768
161	0xbe13a8cb	-0.14419858
162	0xbdd6fbd7	-0.104972534
163	0xbe1efcdf	-0.1552615
164	0xbda8f3ed	-0.0824965
165	0xbd89dbfc	-0.06731412
166	0xbdc3d5c9	-0.09562261
167	0x3d8ad2f2	0.06778516
168	0xbd9b95e2	-0.07596947
169	0xbe27c0d1	-0.16382147
170	0x3ca9ea96	0.020741742
171	0xbce1e49c	-0.02757483
172	0xbe445ed8	-0.19176805
173	0xbdf29404	-0.11844638
174	0xbdc12f55	-0.09432856
175	0xbd929840	-0.07157946
176	0x3d07999a	0.03310547
177	0x3bc045a5	0.0058676773
178	0xbe1a03d3	-0.15040521
179	0xbe1e0937	-0.15433203
180	0xbd4c8a73	-0.049936723
181	0xbe28b3cb	-0.16474836
182	0xbdadc9c8	-0.08485752
183	0xbd8bd74e	-0.068281755
184	0xbde7d11e	-0.11319183
185	0xbda0c0ee	-0.078492984
186	0xbdf92582	-0.12165357
187	0x3d4e892f	0.050423797
188	0xbdf036d6	-0.11729209
189	0xbe0ae0b8	-0.13562286
190	0x3c318243	0.0108342795
191	0xbe630321	-0.22169162
192	0xbdd3aa72	-0.10335244
193	0xbca6d5e0	-0.020365655
194	0xbe4db37f	-0.20088004
195	0xbdf26631	-0.11835898
196	0xbe0233af	-0.12715028
197	0x3d9ca5da	0.07648821
198	0x3dbcae30	0.09212911
199	0x3bd6f2c9	0.006559704
200	0xbdef7255	-0.11691729
201	0xbe22df80	-0.15905571
202	0x3d525a7f	0.051355835
203	0x3d0d0a2f	0.03443354
204	0xbda8d94d	-0.08244572
205	0x3bb8a184	0.0056344885
206	0xbdb12eea	-0.08651526
207	0xbaa20ea8	-0.0012363987
208	0xbd82b551	-0.063822396
209	0x3db9174a	0.09037645
210	0xbdbdfc6d	-0.09276662
211	0xbe1a0744	-0.15041834
212	0x3d3cc108	0.046082526
213	0x3d066dbb	0.03281949
214	0x3d11b08b	0.035568755
215	0xbdedf4c9	-0.11618955
216	0x3dbaa81d	0.09114096
217	0xbd043e0d	-0.03228574
218	0xbe12681d	-0.14297529
219	0x3c15971b	0.009130265
220	0xbd8855fa	-0.06657024
221	0x3d126a16	0.035745703
222	0x3d161d40	0.03664899
223	0xbe8d634d	-0.27614823
224	0xbe44f0d6	-0.19232497
225	0x3c89d026	0.016822886
226	0xbdc90057	-0.09814518
227	0xbb59992e	-0.0033202874
228	0xbcff128e	-0.031136777
229	0xbdb453aa	-0.0880502
230	0xbc006cd5	-0.007838448
231	0xbc580e59	-0.0131870145
232	0xbde020b5	-0.10943738
233	0xbd8af770	-0.06785476
234	0xbd985607	-0.074382834
235	0xbd7669f9	-0.060159657
236	0xbe2f56e5	-0.17122991
237	0xbc9a35fe	-0.018824574
238	0xbe26c53d	-0.16286178
239	0xbca92a56	-0.02065007
240	0xbe082553	-0.13295488
241	0xbd8910de	-0.0669267
242	0x3d178f0e	0.037001662
243	0xbe2aa7af	-0.16665529
244	0xbe384a58	-0.1799711
245	0xbc5396fb	-0.0129144145
246	0xbe2cdfcf	-0.16882251
247	0x3d01271f	0.03153145
248	0xbb8e3889	-0.0043402356
249	0xbca7340d	-0.020410562
250	0xbcda5d09	-0.02665569
251	0x3d38b817	0.045097437
252	0xbd7ed308	-0.062212974
253	0xbd851767	-0.06498604
254	0xbdd19360	-0.10233188
255	0xbd3038c8	-0.0430229

network_body._body_endoder.seq_layers.0.weight f4 [256, 164]
0	0x3dd59eeb	0.10430702
1	0x3e513aaf	0.20432542
2	0xbe16e40a	-0.14735427
3	0xbe035849	-0.12826647
4	0xbd5cd4bb	-0.053913813
5	0xbd909c71	-0.07061089
6	0xbdf13337	-0.117773466
7	0x3e071200	0.1319046
8	0x3e903199	0.2816284
9	0xbe047d03	-0.12938313
10	0xbca2ce66	-0.01987381
11	0xbd9e4319	-0.077276416
12	0xbe22f224	-0.15912682
13	0xbdad182c	-0.08451876
14	0xbe21cbce	-0.15800402
15	0x3d384e5e	0.04499661
16	0x3d76a4b7	0.060215678
17	0xbda15404	-0.07877353
18	0x3e8226a4	0.25420105
19	0x3c9d4036	0.019195657
20	0xbc84622f	-0.016160099
21	0x3b862e46	0.0040948717
22	0xbdd69e9b	-0.1047947
23	0xbc8c1c49	-0.017103331
24	0xbdab6275	-0.083683886
25	0x3e2dd41d	0.16975446
26	0x3e687f27	0.22704755
27	0x3cccc690	0.024997026
28	0x3d0f0260	0.034914374
29	0xbcc47cf2	-0.02398536
30	0x3d77dbf0	0.060512483
31	0xbe5033c5	-0.20332249
32	0xbbf1c3b8	-0.007378068
33	0xbdf0b252	-0.11752762
34	0x3d10351a	0.03520689
35	0xbd11ef86	-0.035628818
36	0x3cfdb774	0.030971266
37	0xbd003e15	-0.031309206
38	0xbc42b2bb	-0.011883433
39	0x3cc60724	0.024173327
40	0x3e253901	0.16135027
41	0xbd97dc14	-0.074150234
42	0xbe6789a0	-0.22611094
43	0x3c88dd0a	0.016706962
44	0xbabfb8a4	-0.0014627171
45	0x3cf63a16	0.030056994
46	0x3b3e67f4	0.002905366
47	0x3dca8a29	0.09889633
48	0x3d8a7842	0.067612186
49	0xbd30f2df	-0.04320037
50	0x3e3b9d78	0.18321788
51	0xbda9fe2d	-0.08300433
52	0xbdae26ea	-0.08503516
53	0x3e13e049	0.14441027
54	0x3de28464	0.11060408
55	0xbe4bf561	-0.19917823
56	0x3e02822e	0.12744972
57	0xbdc6e51d	-0.09711669
58	0x3e060ea6	0.13091525
59	0x3e429555	0.19002278
60	0xbcc003a6	-0.02343924
61	0xbcd52c0e	-0.026021983
62	0x3d7c6acc	0.061625287
63	0x3c22009d	0.0098878415
64	0xbd974e96	-0.07388036
65	0x3c347222	0.0110135395
66	0xbe080722	-0.13283971
67	0x3e0b71fb	0.13617699
68	0x3cef72e0	0.029229581
69	0x3ced73b2	0.028985832
70	0xbd13a29b	-0.036043745
71	0xbca25458	-0.019815609
72	0xbbcf5214	-0.006326923
73	0xbcc3c94e	-0.0238997
74	0xbdc03778	-0.0938558
75	0xbe089655	-0.13338597
76	0xbe636cd5	-0.22209485
77	0x3d0dd1b9	0.034623835
78	0x3c831288	0.016000047
79	0xbd3ebe50	-0.046568215
80	0xbd7d3010	-0.061813414
81	0xbe08f600	-0.13375092
82	0xbe1a2b0f	-0.15055488
83	0xbe275fe9	-0.1634518
84	0xbd3f31a7	-0.04667821
85	0xbe269160	-0.16266394
86	0xbcda7b20	-0.026670039
87	0xbcd4c431	-0.025972458
88	0x3a5d0ca2	0.00084323634
89	0x3dad7a3d	0.08470581
90	0x3bbdae6c	0.005788615
91	0xbdbc424f	-0.09192335
92	0xbcae4c35	-0.021276573
93	0xbe4234bf	-0.18965434
94	0xbcf81478	-0.030283198
95	0xbe6f3286	-0.23359117
96	0xbd370d8e	-0.04469066
97	0xbe0381cc	-0.12842482
98	0x3cad6a29	0.021168785
99	0xbb51a1af	-0.003198724
100	0x3c609b08	0.013708837
101	0x3da8d5b1	0.082438834
102	0xbc927f11	-0.017882856
103	0x3db0951d	0.08622191
104	0xbd81fcfa	-0.063470796
105	0xbde8ff2f	-0.113767974
106	0xbd72a6a2	-0.059240945
107	0x3c286e49	0.0102802
108	0x3e30695a	0.17227688
109	0x3d90b392	0.070655
110	0x3c0dd41c	0.008656528
111	0xbdb315db	-0.08744403
112	0x3e2aafe6	0.16668662
113	0x3e322929	0.17398514
114	0x3d7b235f	0.06131303
115	0xbddc9094	-0.107697636
116	0xbca0821d	-0.019593293
117	0xbc2fadc7	-0.010722584
118	0xbd83dc71	-0.0643853
119	0xbd33ab56	-0.04386457
120	0xbd270e0e	-0.040784888
121	0xbe1db814	-0.15402251
122	0x3d84ea38	0.06489986
123	0x3d03128e	0.032000117
124	0xbd358b8e	-0.044322543
125	0xbde6a7d7	-0.11262482
126	0x3d477a7b	0.04870079
127	0x3d4c2f1a	0.049849607
128	0xbdf06d24	-0.11739567
129	0xbd6ba56a	-0.057530798
130	0xbd58767c	-0.05284737
131	0xbde60f21	-0.11233354
132	0x3ce9abae	0.028524246
133	0xbd5022af	-0.050814327
134	0xbd4084e6	-0.04700174
135	0xbdb4c9a7	-0.08827525
136	0x3dafcfdc	0.08584568
137	0xbe021151	-0.12701918
138	0x3da9133a	0.0825562
139	0xbd249063	-0.04017676
140	0xbdc504ae	-0.09620033
141	0x3e10de40	0.14147282
142	0xbbb9a9ac	-0.0056659784
143	0x3d427b19	0.047480676
144	0x3dd12be4	0.102134496
145	0x3db2f6aa	0.08738454
146	0xbd8d15db	-0.06888934
147	0xbd7134e8	-0.058888346
148	0x3c8f22d5	0.017472664
149	0xbe5e2fbf	-0.21697901
150	0x3b6c717c	0.0036078384
151	0xbc2fb8b2	-0.010725187
152	0x3d0624f7	0.032750096
153	0xbd497f34	-0.049193576
154	0xbc6be6bc	-0.014398273
155	0x3e1998ec	0.14999741
156	0xbd5cc7a1	-0.05390132
157	0xbdc44926	-0.095842645
158	0xbb7e8473	-0.003883627
159	0x3db401ba	0.08789392
160	0x3dc97af0	0.098379016
161	0x3ddd8cb7	0.10817855
162	0xbe026d19	-0.1273693
163	0xbe96ab1c	-0.2942742
164	0x3e3c333d	0.18378921
165	0xbe1d1c72	-0.15342882
166	0xbb3b2fb4	-0.0028562369
167	0xbde75804	-0.112960845
168	0xbe2700b4	-0.16308862
169	0xbdb9ddae	-0.09075485
170	0xbbe9ba34	-0.007132793
171	0x3c9f943f	0.019479869
172	0x3e164cf7	0.14677797
173	0x3d2abb95	0.0416828
174	0xbe16cd27	-0.14726697
175	0xbcf8e056	-0.03038041
176	0xbd9ca272	-0.076481715
177	0x3e1700c6	0.14746389
178	0x3e3a03c6	0.18165502
179	0xbd9ebe82	-0.0775118
180	0x3e884144	0.26612294
181	0x3e513fb6	0.2043446
182	0xbd7ec182	-0.062196262
183	0x3cb20f41	0.02173579
184	0x3e752c39	0.23942651
185	0x3d8f057b	0.06983467
186	0x3dfd5252	0.12369217
187	0xbd6ee555	-0.058324177
188	0xbe14ffa7	-0.14550649
189	0x3e833c56	0.2563197
190	0x3e1e6fed	0.15472384
191	0xbdb94592	-0.090464726
192	0xbd4f3850	-0.050590813
193	0xbc9e2673	-0.019305443
194	0xbcf3b765	-0.029750535
195	0x3d71350b	0.058888476
196	0x3e4aef17	0.19817768
197	0x3c9d5f0d	0.019210363
198	0x3df22da1	0.11825109
199	0x3c06b3bc	0.008221563
200	0xbe2fbc15	-0.17161591
201	0x3e6986e1	0.22805358
202	0x3e1530cc	0.14569396
203	0xbb77314a	-0.0037718588
204	0xbdc227ad	-0.09480224
205	0x3e0fb6f7	0.1403464
206	0xbc901f0b	-0.017592927
207	0x3de73612	0.1128961
208	0x3ed90dc1	0.42393306
209	0x3e7088d7	0.234897
210	0x3dca4c96	0.09877889
211	0x3d4a551b	0.04939757
212	0xbe3287d8	-0.17434633
213	0xbd17526d	-0.03694384
214	0xbe25badc	-0.16184562
215	0xbc482a91	-0.01221718
216	0xbdbe5d28	-0.09295112
217	0xbc71c34c	-0.014756035
218	0x3d84695c	0.06465408
219	0x3c1b126c	0.009464841
220	0xbd227045	-0.03965785
221	0xbd549a07	-0.051904704
222	0xbd662689	-0.056189094
223	0xbd8d6dcd	-0.069057085
224	0x3d85b42f	0.06528508
225	0x3e2f9a24	0.17148644
226	0x3dba4bd2	0.09096493
227	0xbddc0794	-0.10743633
228	0x3d09f7e7	0.033683684
229	0x3da75ba9	0.0817178
230	0x3d228437	0.03967687
231	0x3d3ba82a	0.04581467
232	0x3db136ef	0.08653056
233	0x3d8bc09b	0.06823846
234	0x3d36bab4	0.044611648
235	0xbdedc4bb	-0.11609789
236	0xbdab046b	-0.08350452
237	0xbdaba21b	-0.083805285
238	0xbd5d22c3	-0.05398823
239	0xbdd82d73	-0.10555544
240	0xbdd1ab10	-0.10237706
241	0xbd9e3025	-0.077240266
242	0xbd13df48	-0.03610161
243	0x3c83a578	0.016070113
244	0xbe36543b	-0.17805569
245	0xbd208da5	-0.039197583
246	0xbd9bdb3c	-0.07610175
247	0x3eaf9426	0.34292716
248	0x3db1d8d7	0.08683937
249	0xbdca99da	-0.09892626
250	0x3db4b19c	0.08822939
251	0x3e39ffbe	0.18163964
252	0x3d7dcb00	0.061961174
253	0x3deb7473	0.1149682
254	0xbde054e4	-0.109536916
255	0xbc06ebe8	-0.008234955

network_body._body_endoder.seq_layers.2.bias f4 [256]
0	0xbc7fe038	-0.015617423
1	0xbcdc338e	-0.026880052
2	0xbe016d7f	-0.12639426
3	0xbde3f545	-0.11130766
4	0xbe065fff	-0.13122557
5	0xbda34ff4	-0.07974234
6	0xbe192bf2	-0.1495817
7	0xbe049414	-0.12947112
8	0xbddb618c	-0.10711965
9	0xbd255f10	-0.04037386
10	0xbe05b378	-0.13056743
11	0xbddf53af	-0.10904633
12	0xbd76ec33	-0.06028385
13	0xbd3e3338	-0.046435565
14	0xbd7dd2b8	-0.061968535
15	0xbdc4d6e1	-0.096112974
16	0xbdaa6884	-0.08320716
17	0xbda69555	-0.081339516
18	0xbe0abe3f	-0.13549136
19	0xbe3272ce	-0.17426607
20	0xbd0b3f75	-0.033996064
21	0xbd99b40a	-0.07505043
22	0xbd4b7c8f	-0.049679335
23	0xbdd61e33	-0.10454979
24	0xbda9a0ce	-0.08282624
25	0xbdfbab27	-0.12288504
26	0xbe07db0a	-0.1326715
27	0xbdb14659	-0.08655996
28	0xbd95a782	-0.0730734
29	0xbd8cc24f	-0.06872999
30	0xbdc78335	-0.09741823
31	0xbdce788e	-0.10081588
32	0xbd303e19	-0.04302797
33	0xbd85bd85	-0.065302886
34	0xbb8bd49e	-0.0042672893
35	0xbdae8478	-0.0852136
36	0xbd926128	-0.07147437
37	0xbddb0294	-0.10693851
38	0xbdd84a93	-0.10561099
39	0xbdf2dd7f	-0.11858653
40	0xbd343a44	-0.04400088
41	0xbdeb9756	-0.115034744
42	0xbdbbd4c8	-0.09171444
43	0xbe0e3e57	-0.13890968
44	0xbdbe50cc	-0.092927545
45	0xbd476828	-0.048683316
46	0xbd5b82fa	-0.053591706
47	0xbdc4183c	-0.09574935
48	0xbca0e6d4	-0.019641317
49	0xbd9119f2	-0.07085027
50	0xbe0df906	-0.13864526
51	0xbe26fdae	-0.16307709
52	0xbb6b4129	-0.0035896993
53	0xbde8ed20	-0.11373353
54	0xbddd0f7e	-0.107939705
55	0xbd144b35	-0.036204536
56	0x3bec2a5c	0.007207198
57	0xbdb7971d	-0.089643694
58	0xbd2f05bd	-0.04273008
59	0xbdb624b1	-0.08893717
60	0xbe095dc3	-0.13414674
61	0xbd6b38ea	-0.057427324
62	0xbdd3b277	-0.10336774
63	0xbc3d5eb3	-0.011558223
64	0xbe02701b	-0.12738077
65	0xbde1213d	-0.10992668
66	0xbda8a353	-0.082342766
67	0xbd8af18d	-0.067843534
68	0xbe00f19b	-0.12592165
69	0xbc836014	-0.016037025
70	0xbe00acf4	-0.12565976
71	0xbdc67ae4	-0.09691408
72	0xbe216ad2	-0.15763405
73	0xbd67a773	-0.056556176
74	0xbdd97185	-0.10617355
75	0xbd471096	-0.048599802
76	0xbddfe48b	-0.10932263
77	0xbd072071	-0.032989923
78	0xbda81d58	-0.08208722
79	0xbe25cc26	-0.16191158
80	0xbdb94cff	-0.09047889
81	0xbd3e6484	-0.046482578
82	0xbe1a4bb1	-0.15067936
83	0xbdd0f0fa	-0.10202213
84	0xbe105e69	-0.14098515
85	0xbd39b309	-0.045336757
86	0xbe4b230d	-0.1983759
87	0xbde83cdf	-0.11339735
88	0xbe2c3ca8	-0.16820014
89	0xbd33e81e	-0.043922536
90	0xbd5eb7f0	-0.054374635
91	0xbe0e2366	-0.13880691
92	0xbe0a4eb6	-0.13506588
93	0xbe0d0f88	-0.13775456
94	0xbdc82499	-0.097726054
95	0xbdf93cc6	-0.12169795
96	0xbdab0c65	-0.083519734
97	0xbd4d08d8	-0.050057262
98	0xbd569d91	-0.05239636
99	0xbe0b1ffc	-0.1358642
100	0xbe134d8e	-0.14385054
101	0xbe05fff2	-0.13085917
102	0xbe10f213	-0.14154844
103	0xbe397707	-0.18111812
104	0xbdd17331	-0.10227049
105	0xbde8814b	-0.11352786
106	0xbe3b3713	-0.18282728
107	0xbdf25d93	-0.11834254
108	0xbdc1f113	-0.094698094
109	0xbe4700f8	-0.19433963
110	0xbde880e8	-0.11352712
111	0xbdbae494	-0.09125629
112	0xbcc76921	-0.024342122
113	0xbddc8c1b	-0.107689105
114	0xbe1c7edd	-0.1528277
115	0xbdd8320d	-0.105564214
116	0xbda0a9a8	-0.07844859
117	0xbde8c85d	-0.11366341
118	0xbe34644a	-0.17616382
119	0xbdf2c0d1	-0.11853183
120	0xbde859a8	-0.113452256
121	0xbe2269f4	-0.1586073
122	0xbdd2cb87	-0.10292726
123	0xbdeff758	-0.11717099
124	0xbdaed52d	-0.08536754
125	0xbdcc1701	-0.09965325
126	0xbd871ee7	-0.06597691
127	0xbd93c0b3	-0.07214489
128	0xbdc2356d	-0.094828464
129	0xbdd15bd9	-0.10222597
130	0xbe24d9f7	-0.16098772
131	0x3be2d4d5	0.006922344
132	0xbde30e2b	-0.11086687
133	0xbe3e73a0	-0.18598795
134	0xbd69d155	-0.0570844
135	0xbdf2b1f3	-0.11850347
136	0xbd94c921	-0.07264925
137	0xbc047aaf	-0.008085891
138	0x3cecc936	0.028904539
139	0xbdc603ce	-0.096686944
140	0xbd879bb7	-0.06621497
141	0xbd3d4b64	-0.046214476
142	0xbd7f5d57	-0.062344875
143	0xbda64781	-0.08119107
144	0xbccf4ab6	-0.02530418
145	0xbd397131	-0.045273963
146	0xbd529ef7	-0.051421132
147	0xbd8a91aa	-0.067660645
148	0xbe06a0d8	-0.13147295
149	0x3c72200c	0.014778148
150	0xbe005cf8	-0.12535465
151	0xbc865a93	-0.016400611
152	0xbdc905d0	-0.09815562
153	0xbd5d1099	-0.053970907
154	0xbe09102f	-0.1338508
155	0xbdd65a77	-0.104664735
156	0xbd7977e4	-0.060905352
157	0xbe146b81	-0.14494134
158	0xbd95f647	-0.07322364
159	0xbd99b561	-0.075052984
160	0xbdb7eefc	-0.089811295
161	0x3d064de7	0.032789137
162	0xbde22292	-0.1104175
163	0xbdac248b	-0.084054075
164	0xbda768a1	-0.08174253
165	0xbd5f9865	-0.054588694
166	0xbe0c77a7	-0.13717519
167	0xbdb93aab	-0.09044393
168	0xbd88b98e	-0.06676017
169	0xbdf341fb	-0.11877819
170	0xbdf2bb5f	-0.118521444
171	0xbde9073e	-0.113783345
172	0xbd99ad05	-0.07503704
173	0xbd822de8	-0.06356412
174	0xbd8fe680	-0.07026386
175	0xbdf90bad	-0.1216043
176	0xbd808339	-0.06275029
177	0xbe0b6a8d	-0.13614865
178	0xbe4446e9	-0.19167675
179	0xbd5365da	-0.051610805
180	0xbd8299e4	-0.063770086
181	0xbde2423b	-0.11047789
182	0xbd44c3d4	-0.04803832
183	0xbdca1f3d	-0.098692395
184	0xbd9c0036	-0.07617228
185	0xbe062ef1	-0.13103844
186	0xbe044ce5	-0.12919958
187	0xbde779d5	-0.113025345
188	0xbdc14088	-0.094361365
189	0xbd094501	-0.033513073
190	0xbdbe2730	-0.09284818
191	0xbd1562bf	-0.036471125
192	0xbd03e7dc	-0.03220354
193	0xbe1cc988	-0.15311253
194	0xbd448121	-0.04797471
195	0xbd1b2638	-0.037878245
196	0xbdc34cca	-0.09536131
197	0xbe2a45ec	-0.16628236
198	0xbd928656	-0.07154529
199	0xbd95b0ea	-0.07309134
200	0xbdfa806e	-0.12231527
201	0xbd5c3d12	-0.05376918
202	0xbe09eef8	-0.13470066
203	0xbcfd8181	-0.030945541
204	0xbe0e8e5a	-0.1392149
205	0xbe1db088	-0.15399373
206	0xbe0d300a	-0.13787857
207	0xbe128eed	-0.14312334
208	0xbdc931d1	-0.09823955
209	0xbd097a5e	-0.033563964
210	0xbe228df6	-0.15874466
211	0xbd71c2aa	-0.059023537
212	0xbdb91ed2	-0.09039082
213	0xbdc3263b	-0.09528776
214	0xbe1a2ed3	-0.15056925
215	0xbd990c06	-0.074729964
216	0xbdbd39f3	-0.092395686
217	0xbd016309	-0.031588588
218	0xbcce6ffe	-0.025199886
219	0xbd34a439	-0.044101927
220	0xbd9d800d	-0.076904394
221	0xbda55814	-0.0807344
222	0xbe002df9	-0.12517537
223	0xbdb3ddc3	-0.08782532
224	0xbdc67488	-0.09690195
225	0xbe0da1f0	-0.13831306
226	0xbd8d9a22	-0.06914164
227	0xbd6b7204	-0.05748178
228	0xbd90b603	-0.07065966
229	0xbe16f099	-0.14740218
230	0xbde37e4f	-0.11108076
231	0xbd51302a	-0.051071323
232	0xbd6cb61e	-0.057790868
233	0xbccfff28	-0.025390223
234	0x3c348c11	0.011019723
235	0xbe03716e	-0.12836239
236	0xbe0b0db1	-0.13579442
237	0xbc440faa	-0.011966625
238	0xbd1e76a9	-0.038687382
239	0xbde1ff20	-0.11034989
240	0xbd96a340	-0.07355356
241	0xbd6daf5d	-0.058028568
242	0xbd89e828	-0.067337334
243	0xbdebf9fa	-0.115222886
244	0xbdea64fc	-0.114450425
245	0xbdbe979f	-0.09306263
246	0xbe534bad	-0.20634337
247	0xbe0f0c23	-0.13969474
248	0xbc3e389d	-0.011610177
249	0xbdb56ba9	-0.08858425
250	0xbdb1dd58	-0.08684796
251	0xbdd9584b	-0.10612544
252	0xbe025d68	-0.12730944
253	0xbe108efa	-0.14117041
254	0xbe0a4126	-0.13501415
255	0xbdd2b179	-0.102877565

network_body._body_endoder.seq_layers.2.weight f4 [256, 256]
0	0xbd95aa81	-0.07307912
1	0x3e06e140	0.13171864
2	0x3c0037f5	0.007825841
3	0xbe5b2392	-0.21400288
4	0x3bbf4316	0.0058368547
5	0x3caec8f6	0.02133606
6	0x3dcad694	0.09904209
7	0x3c6006f2	0.013673531
8	0xbcf974cd	-0.030451203
9	0xbdb7697f	-0.08955669
10	0xbcef1e48	-0.029189244
11	0xbc149750	-0.009069279
12	0xbdd6ada1	-0.10482336
13	0xbd709e00	-0.05874443
14	0xbd0bf57e	-0.034169666
15	0xbd0e87d4	-0.034797505
16	0xbe03d1db	-0.12873022
17	0xbdad0854	-0.08448854
18	0xbccd30f4	-0.025047757
19	0xbdb1840d	-0.08667765
20	0x3cc3c16d	0.023895944
21	0xbdc8bd9b	-0.098017894
22	0x3dc6db37	0.09709781
23	0x3a2801fc	0.0006408987
24	0x3d139a31	0.03603572
25	0xbdd67707	-0.104719214
26	0xbdb11842	-0.08647205
27	0xbd8af1fa	-0.067844346
28	0xbca1813a	-0.01971494
29	0x3d518201	0.051149372
30	0xbc8ff4e0	-0.01757282
31	0xbda25b9e	-0.07927631
32	0xbdf83e8d	-0.121213056
33	0x3d69463e	0.056951754
34	0xbe06155c	-0.13094085
35	0x3d923fbb	0.07141062
36	0x3c353ecd	0.011062336
37	0xbc364e2b	-0.011127035
38	0xbd915a1c	-0.07097265
39	0x3d85492c	0.06508097
40	0xbc812d3c	-0.01576864
41	0xbd56b371	-0.052417222
42	0xbd8593a0	-0.06522298
43	0xbd9c8b3b	-0.076437436
44	0x3cff3965	0.031155298
45	0xbd0a668d	-0.033789206
46	0xbcc8a4ae	-0.024492588
47	0x3d5778e6	0.052605532
48	0xbdbbe04b	-0.0917364
49	0x3d072bf1	0.03300089
50	0xbe577323	-0.21040015
51	0x3d36391b	0.044488054
52	0xbda4a421	-0.080391176
53	0x3c60578e	0.01369275
54	0xbd797b39	-0.06090853
55	0xbdad0054	-0.08447328
56	0xbe9959ca	-0.29951316
57	0xbd5f44a0	-0.054508805
58	0xbd45d7ba	-0.048301436
59	0xbe28273b	-0.16421215
60	0x3c374928	0.011186875
61	0xbd50075d	-0.050788272
62	0xbe0a26d5	-0.13491376
63	0xbd91414f	-0.07092535
64	0x3e20a744	0.15688807
65	0xbda83f92	-0.0821525
66	0xbd937454	-0.07199922
67	0x3cca9e17	0.024733586
68	0xbc9dd433	-0.019266224
69	0xbcc91c65	-0.024549672
70	0xbd6d9609	-0.058004413
71	0x3de55fde	0.11199926
72	0xbd39a777	-0.045325723
73	0xba88a86b	-0.0010426169
74	0x3def42d1	0.11682666
75	0x3e1b8723	0.1518827
76	0x3da5e632	0.08100547
77	0xbdfbfcf5	-0.12304107
78	0x3e175027	0.1477667
79	0x3cd4692c	0.025929056
80	0x3d861d1f	0.06548523
81	0xbac9ec8d	-0.0015405581
82	0xbd2f8e01	-0.042860035
83	0x3da4b54a	0.08042391
84	0x3dc652ed	0.096837856
85	0xbd3b4193	-0.045716833
86	0xbbb545a7	-0.005531985
87	0x3d72a62f	0.059240516
88	0xbd3fa0cb	-0.046784203
89	0x3d94b8c1	0.072618015
90	0xbda57da3	-0.08080604
91	0x3da7d311	0.081945546
92	0xbd395e0e	-0.045255713
93	0xbc497575	-0.01229607
94	0xbd8b3be2	-0.06798531
95	0xbe229e09	-0.15880598
96	0x3c098b8a	0.008395085
97	0xbc04da25	-0.00810865
98	0xbcc6f835	-0.024288276
99	0xbd329310	-0.04359728
100	0xbc5eeade	-0.013605801
101	0xbde9d676	-0.11417858
102	0x3dd1f223	0.10251262
103	0xbda8ba6f	-0.082386844
104	0xbe0cdfb1	-0.13757206
105	0xbd5e6b3e	-0.054301493
106	0xbe00a22e	-0.12561867
107	0x3c6beeef	0.014400228
108	0xbe3cf664	-0.18453366
109	0xbdedbf6a	-0.11608775
110	0x3dc07442	0.093971744
111	0xbc5b1a4c	-0.013372969
112	0x3dd965de	0.10615133
113	0x3d55dd29	0.052212868
114	0xbe24092d	-0.16019125
115	0xbe1bdf61	-0.15221931
116	0x3d88dd16	0.06682794
117	0xbcb6670c	-0.022265933
118	0xbbdfae5d	-0.0068262056
119	0x3bcbc5e2	0.006218658
120	0xbddeca27	-0.10878401
121	0xbe4186e2	-0.1889911
122	0x3b763a69	0.0037571436
123	0x3dd306f9	0.10304064
124	0xbc637a76	-0.013884177
125	0xbe536d2c	-0.20647115
126	0x3c7d790c	0.015470754
127	0xbc31e22d	-0.010857147
128	0xbd71537e	-0.058917515
129	0x3d914698	0.07093543
130	0xbdca8979	-0.09889502
131	0x3d3162cc	0.04330711
132	0xbd70772d	-0.058707405
133	0xbc892f08	-0.016746059
134	0xbd61e37c	-0.055148587
135	0xbcfcf841	-0.030880095
136	0xbce82210	-0.028336555
137	0xbd1e1315	-0.038592417
138	0x3cc0c287	0.023530258
139	0x3a1020e9	0.0005498068
140	0x3c03b017	0.008037589
141	0x3cd33ca1	0.025785746
142	0x3d9b0835	0.07569925
143	0xbd5eb279	-0.054369424
144	0xbd0dad12	-0.03458888
145	0xbdfa678a	-0.1222678
146	0xbde4585b	-0.11149665
147	0xbd398b10	-0.045298636
148	0x3da279f6	0.079334185
149	0x3dbe22a8	0.09283954
150	0xbce86af7	-0.028371317
151	0xbe57c884	-0.21072584
152	0xbc9e42f9	-0.019319044
153	0xbdd4ae4e	-0.103848085
154	0xbd4c0895	-0.049812872
155	0xbd1accd0	-0.03779298
156	0x3bfdc559	0.007744473
157	0x3cc85c13	0.024457967
158	0xbe102d9e	-0.14079902
159	0xbe050cfc	-0.12993234
160	0x3dabdb6a	0.08391459
161	0xbdad0bf6	-0.08449547
162	0xbd49dec2	-0.049284704
163	0xbca029e7	-0.01955123
164	0x3db488a6	0.08815126
165	0xbd76714c	-0.060166642
166	0x3d879d5a	0.06621809
167	0xbbfba899	-0.0076800105
168	0xbddb457b	-0.10706612
169	0xbd83a61f	-0.064281695
170	0xbe086bd1	-0.13322379
171	0x3db54f30	0.088529944
172	0xbe0727c5	-0.13198765
173	0xbc62ea1c	-0.013849761
174	0xbd52f464	-0.0515026
175	0x3d9b2522	0.07575442
176	0x3d94d021	0.0726626
177	0xbdab99f7	-0.08378976
178	0xbdc05be9	-0.093925305
179	0x3d43f0b2	0.047836967
180	0xbd904127	-0.07043677
181	0xbdaabc7b	-0.08336731
182	0x3d9a491c	0.07533476
183	0xbc1c318a	-0.009533295
184	0x3d7555bb	0.059896212
185	0xbdcaf53a	-0.099100545
186	0xbccfd75e	-0.02537125
187	0xbdca3e44	-0.098751575
188	0xbd9d0a23	-0.07667949
189	0xbd96cff5	-0.073638834
190	0xbd51e7b8	-0.051246375
191	0xbd7a3aba	-0.061091162
192	0x3de41d91	0.11138452
193	0xbe130d26	-0.14360484
194	0xbca74ac0	-0.020421386
195	0xbdd48eaa	-0.103787735
196	0xbd89bd2e	-0.06725536
197	0x3d1a1660	0.037618995
198	0x3d352262	0.044222243
199	0xbe19f7ae	-0.15035889
200	0xbe08e789	-0.13369574
201	0xbe08a4a8	-0.13344061
202	0xbd4a9341	-0.04945684
203	0xbd14fcd4	-0.03637393
204	0xbdb76de3	-0.08956506
205	0xbd885e95	-0.06658665
206	0xbe3cb2dc	-0.18427604
207	0xbe407de5	-0.18798025
208	0xb944223f	-0.00018704774
209	0xbc4c4c84	-0.012469415
210	0xbd25e1e0	-0.040498614
211	0x3db9607c	0.09051606
212	0x3bde6578	0.0067869984
213	0x3ceededb	0.029159
214	0xbe0b25a9	-0.13588585
215	0xbe2d54b5	-0.16926844
216	0xbde4aeb0	-0.111661315
217	0xbe02f15a	-0.12787381
218	0xbdb46623	-0.088085435
219	0xbd26ccda	-0.040722705
220	0xbe5532df	-0.20820187
221	0xbe0b9e3c	-0.1363458
222	0xbdf4b37a	-0.11948295
223	0xbdaaa58c	-0.08332357
224	0xbd56a6fe	-0.05240535
225	0xbe40a584	-0.18813139
226	0xbdeb37f1	-0.11485279
227	0xbcc46ed1	-0.023978623
228	0x3dfb3b02	0.12267114
229	0x3dbdf045	0.092743434
230	0xbe1f8c66	-0.15580902
231	0xbdb68ae7	-0.08913212
232	0xbd17100e	-0.036880545
233	0xbdc600ee	-0.09668146
234	0x3e275e03	0.16344456
235	0x3e124519	0.14284171
236	0xbdb47421	-0.08811212
237	0xbe1125b3	-0.14174537
238	0xbe038259	-0.12842692
239	0x3cf4ddd0	0.029890925
240	0xbd995e8b	-0.07488736
241	0x3d7dced1	0.061964814
242	0xbe187987	-0.14890109
243	0xbda90653	-0.082531594
244	0x3d344228	0.044008404
245	0x3d6c32e5	0.057665724
246	0xbb940505	-0.0045172
247	0xbd8ab9db	-0.0677373
248	0xbdcce2ae	-0.10004173
249	0xbd8865fc	-0.06660077
250	0x3c149fd9	0.009071314
251	0xbdda6031	-0.10662878
252	0xbd8dd0f5	-0.06924621
253	0xbdbd4d1d	-0.09243224
254	0x3e3dd28d	0.1853735
255	0xbd148b4f	-0.036265668

network_body._body_endoder.seq_layers.4.bias f4 [256]
0	0xbcaaf973	-0.0208709
1	0xbd377043	-0.044784795
2	0xbd3f9fd6	-0.04678329
3	0x3c890568	0.01672621
4	0x3c12202f	0.008918806
5	0xbcc1631e	-0.023606833
6	0xbc1be896	-0.009515902
7	0xbccd3af7	-0.02505253
8	0xbc806e1e	-0.015677508
9	0xbd8b1be6	-0.067924306
10	0xbd963e8f	-0.07336151
11	0xbd24a6ae	-0.04019802
12	0xbdcbfc6c	-0.09960255
13	0xbd663c69	-0.056209955
14	0xbe03ebf6	-0.1288298
15	0xbc5223a5	-0.012825881
16	0x3d112cbe	0.03544306
17	0xbdcd78b2	-0.100327864
18	0x3bf3fc00	0.007445812
19	0xbdb8e94f	-0.09028875
20	0xbdd061a4	-0.101748735
21	0xbcbacecd	-0.022803688
22	0xbdc90bbe	-0.09816693
23	0xbd8793ea	-0.06620009
24	0xbcc582fe	-0.024110314
25	0xbe0d88f4	-0.13821775
26	0x3ca70874	0.020389773
27	0xbd906251	-0.07050002
28	0xbd35c4ac	-0.044377014
29	0xbc1c4f0c	-0.009540331
30	0xbb5de0c6	-0.00338559
31	0xbd33a009	-0.043853793
32	0xbd24588e	-0.040123515
33	0xbc9966e2	-0.018725816
34	0xbd681fa3	-0.056670796
35	0xbd862a2c	-0.065510124
36	0xbd9456cd	-0.072431184
37	0xbd189cd4	-0.037258938
38	0xbd74ce13	-0.05976684
39	0xbd53af1b	-0.051680665
40	0xbc8d7e0f	-0.017272023
41	0xbd60c073	-0.054871034
42	0xbc9a899d	-0.018864447
43	0xbd3069c6	-0.043069623
44	0xbccbfea4	-0.024901696
45	0xbdbaccd9	-0.09121103
46	0xbd704b6e	-0.058665685
47	0xbd89e3d3	-0.06732907
48	0x3ccb5c49	0.024824278
49	0xbd2f7cf9	-0.042843793
50	0xbd43ebd8	-0.04783234
51	0xbda18674	-0.07886973
52	0xbd338822	-0.043831
53	0xbd45ce31	-0.048292343
54	0xbd1d6d8e	-0.038434558
55	0xbdbfce2e	-0.093654975
56	0xbe0f2020	-0.13977098
57	0xbc9e35f7	-0.019312842
58	0xbd193bf3	-0.037410688
59	0xbd6c3f0d	-0.057677317
60	0xbc9f694b	-0.019459387
61	0xbcc713e7	-0.024301482
62	0x3ce2ba2d	0.027676666
63	0xbd9c85ed	-0.07642732
64	0xbcf28ab1	-0.029607149
65	0xbd0ca46e	-0.0343365
66	0xbdc09285	-0.094029464
67	0xbdd75e99	-0.1051609
68	0xbd32235e	-0.04349076
69	0xbc7f2404	-0.015572552
70	0x3d73bbe5	0.059505362
71	0xbda3989f	-0.079880945
72	0xbd3e1755	-0.04640897
73	0xbd7ea29c	-0.062166795
74	0xbd582df7	-0.05277821
75	0xbd82f677	-0.06394666
76	0xbd215034	-0.03938313
77	0x3d17d02d	0.037063766
78	0xbd951fd1	-0.07281459
79	0xbd1750e5	-0.03694238
80	0xbd0662a3	-0.03280891
81	0xbcf15f0f	-0.029464273
82	0xbd9843db	-0.074348174
83	0xbd5c5cd8	-0.05379948
84	0xbd0b5905	-0.034020443
85	0xbc96f956	-0.01842944
86	0xbcf20363	-0.02954263
87	0xbcb22098	-0.021744058
88	0xbd3a490c	-0.04547982
89	0xbcb27fab	-0.021789392
90	0x3d107e0d	0.03527646
91	0xbb3e7a3f	-0.0029064564
92	0xbd3e8c45	-0.04652049
93	0xbcab7160	-0.020928085
94	0xbd442b41	-0.047892813
95	0xbd54e1de	-0.051973216
96	0xbc3121d7	-0.010811291
97	0xbc370ca0	-0.011172444
98	0xbb7225b4	-0.0036948742
99	0xbceef044	-0.029167302
100	0xbd2ae78d	-0.04172473
101	0xbd4a87c4	-0.049445882
102	0xbc845cf8	-0.016157612
103	0xbd630d12	-0.055432387
104	0xbd62c16b	-0.05536024
105	0xbd00a7e1	-0.0314101
106	0xbcb162d7	-0.021653576
107	0xbd59cf8e	-0.053176455
108	0xbcfb52aa	-0.030679066
109	0xbdba47cc	-0.090957254
110	0xbd31996c	-0.043359205
111	0xbb7a135e	-0.0038158516
112	0xbc0bebb4	-0.008540083
113	0xbd7f466e	-0.062323026
114	0xbd993204	-0.07480243
115	0xbd1a064e	-0.03760367
116	0xbd8185a0	-0.06324315
117	0xba6fc46e	-0.0009146397
118	0xbd9970a3	-0.07492187
119	0xbdbb5446	-0.09146933
120	0xbd0d01e0	-0.034425616
121	0xbd2d9cb8	-0.042385787
122	0x3ce30dc6	0.027716529
123	0x3c302f87	0.010753519
124	0xbd5e755d	-0.054311145
125	0xbd8ac509	-0.06775863
126	0xbd0bbcb6	-0.034115516
127	0xbd8a082d	-0.06739841
128	0xbd0e2345	-0.034701604
129	0xbd7f7574	-0.06236787
130	0xbd37ccbe	-0.04487299
131	0xbd20945c	-0.039203987
132	0xbd8adea2	-0.06780745
133	0xbd7adeda	-0.061247684
134	0xbd83e59e	-0.064402804
135	0xbccf1f02	-0.02528334
136	0xbdc32550	-0.09528601
137	0xbc7701f9	-0.015076154
138	0xbd3cfb69	-0.0461382
139	0xbdd94e59	-0.10610647
140	0xbd6013af	-0.05470627
141	0xbd4177e6	-0.047233485
142	0xbd55d0bb	-0.052201014
143	0xbcaa39e8	-0.020779565
144	0x3bab2c03	0.0052237525
145	0xbbbf361e	-0.0058353087
146	0xbd22ab13	-0.03971393
147	0xbdf846c5	-0.12122873
148	0xbdb8f200	-0.09030533
149	0xbd144a36	-0.036203586
150	0xbd766ed5	-0.06016429
151	0xbba0c63d	-0.0049064443
152	0xbdf865d4	-0.12128797
153	0xbc394d98	-0.011310004
154	0xbceaad29	-0.028647022
155	0xbc023482	-0.007947089
156	0xbd89b360	-0.06723666
157	0xbbd9403c	-0.006629972
158	0xbc9bf806	-0.019039165
159	0xbd4c4d3e	-0.04987835
160	0xbcf8176c	-0.030284606
161	0xbdb3be9e	-0.08776592
162	0xbd2f6579	-0.04282138
163	0xbd27b5de	-0.040944926
164	0xbd683d31	-0.05669898
165	0xbd9a2c6c	-0.07528004
166	0xbd37c3b4	-0.04486437
167	0xbd41b11c	-0.047288045
168	0xbd36e187	-0.044648673
169	0xbdbce281	-0.0922289
170	0xbd69e995	-0.057107527
171	0x3d03098c	0.031991526
172	0xbcca3202	-0.024682049
173	0xbd5b35c2	-0.053518064
174	0xbd52b07f	-0.05143785
175	0xbd624f00	-0.05525112
176	0xbcefc866	-0.029270362
177	0xbd9cb713	-0.07652106
178	0xbd8dd39b	-0.06925126
179	0xbd4b7f1d	-0.04968177
180	0xbd3865c9	-0.045018945
181	0xbc6aa56e	-0.014321668
182	0xbd8b4391	-0.06799997
183	0xbd8b3066	-0.06796341
184	0xbc0b4d13	-0.008502263
185	0xbd55178b	-0.052024405
186	0xbcea4bcb	-0.028600594
187	0xbd8483d2	-0.06470455
188	0xbd3bc143	-0.045838606
189	0x3bb3cea4	0.00548728
190	0xbdc46ba6	-0.09590845
191	0xbd3ad63a	-0.04561446
192	0x3d226d5e	0.039655082
193	0xbdb247ab	-0.08705076
194	0xbd3e22a3	-0.04641975
195	0xbda2936e	-0.07938276
196	0xbd15981c	-0.036522016
197	0x3caf6469	0.021410184
198	0xbca1b5fb	-0.019740095
199	0xbd3b8af3	-0.04578681
200	0xbcc5006c	-0.024048053
201	0xbd231502	-0.039814956
202	0xbdc0348b	-0.09385022
203	0xbd4055cc	-0.046956822
204	0xbd20825a	-0.039186813
205	0xbd589487	-0.05287602
206	0xbc903afb	-0.01760625
207	0xbd672a34	-0.056436732
208	0xbcd928ca	-0.026508708
209	0xbd342e29	-0.043989334
210	0xbc9bc382	-0.019014124
211	0x3bbecfe8	0.005823124
212	0xbccfb857	-0.025356455
213	0xbbdf86ff	-0.0068215127
214	0xbcde69f9	-0.027150141
215	0x3c44e612	0.012017744
216	0xbd773ab3	-0.060358714
217	0xbcab03c8	-0.020875826
218	0xbd6c3e5b	-0.057676654
219	0xbc53e471	-0.012932883
220	0xbcc7035d	-0.024293596
221	0xbda1137f	-0.07865047
222	0xbd966967	-0.07344323
223	0xbd270785	-0.040778656
224	0xbd1f2f55	-0.0388635
225	0xbe366553	-0.1781209
226	0xbd177efb	-0.036986332
227	0xbd2c16ab	-0.042013805
228	0x3c92a437	0.01790057
229	0x3cfa45c7	0.03055085
230	0xbd91807c	-0.071045846
231	0xbd8f906a	-0.07009967
232	0xbdd8ca29	-0.10585434
233	0xbc77521b	-0.015095259
234	0xbc86e0fc	-0.016464703
235	0xbd3f4f78	-0.046706647
236	0xbcfc30a9	-0.030784922
237	0xbd69642d	-0.0569803
238	0xbd12e08d	-0.03585868
239	0xbd8fa914	-0.07014671
240	0xbd7b892c	-0.061410114
241	0xbd25fb00	-0.040522575
242	0xbc446562	-0.011987062
243	0xbd65056e	-0.05591338
244	0xbd1c7ad3	-0.03820307
245	0xbd81d111	-0.063387044
246	0xbda5011a	-0.08056851
247	0xbbb429f9	-0.0054981676
248	0xbd000626	-0.031255864
249	0xbc9ce015	-0.01914982
250	0xbc5c2534	-0.013436604
251	0xbcd27799	-0.025691794
252	0xbd291950	-0.041283906
253	0xbd50217d	-0.050813187
254	0xbd50ff58	-0.051024765
255	0xbd1c1fbe	-0.03811621
