Assets/Training/results/Run 11/DroneBehavior/DroneBehavior-1499774.onnx (onnx, 704152 bytes, 23 tensors)

115 f4 [25]
000000 e0 e5 ff 3e 85 d1 e7 3e 45 0e 56 3a e7 3b d6 3e
       0.49980068 0.45277038 0.00081655785 0.41842577
000010 b2 49 78 3e 18 3f fc 3e 4c 24 c7 3e b0 14 83 3b
       0.24246863 0.49266887 0.3889488 0.004000269
000020 4b c6 fa 3e 2d 3a 71 3e 99 ff ff 3e 5d 80 b6 3e
       0.4897941 0.23557349 0.49999693 0.35644808
000030 60 c5 cb 3b 5b 9f f4 3e 16 46 81 3e 57 ea ec 3e
       0.0062185973 0.4777783 0.25248784 0.46272537
000040 bf 76 4a 3e ba 11 3f 3c 0c 71 f4 3e 81 7c 55 3e
       0.1977186 0.011661941 0.47742498 0.20848276
000050 ff f8 fc 3e 48 e8 44 3e 0b 4e ec 3b e6 40 ff 3e
       0.4940872 0.19229233 0.007211452 0.498542
000060 f1 1d 7d 3e
       0.24718453

118 f4 [25]
000000 d8 e5 ff 3e 8e d1 e7 3e 45 0e 56 3a 0b 3c d6 3e
       0.49980044 0.45277065 0.00081655785 0.41842684
000010 bc 49 78 3e 8b ff ff 3e 9d d8 c2 3e 45 0e 56 3a
       0.24246877 0.4999965 0.38055888 0.00081655785
000020 3a 14 f0 3e 11 57 7b 3e 85 02 ff 3e 4d 31 be 3e
       0.46890432 0.24544932 0.4980661 0.3714699
000030 af 87 8a 3c 51 4e f8 3e e3 3c 75 3e 43 01 ff 3e
       0.016910402 0.4849725 0.23949008 0.4980565
000040 50 17 4c 3e 45 0e 56 3a 1c ff ff 3e 75 34 72 3e
       0.19930768 0.00081655785 0.4999932 0.23652823
000050 16 27 f9 3e e3 41 47 3e 17 35 8a 3c 60 17 fd 3e
       0.48662633 0.19458728 0.016871018 0.49431896
000060 48 2d 64 3e
       0.22282898

121 f4 [25]
000000 3a f9 6f 3e b1 96 05 3d 45 0e 56 3a 75 04 72 3e
       0.23434916 0.032614414 0.00081655785 0.23634513
000010 bc cf ed 3d 9d 48 1a 3e cd b4 9b 3c 45 0e 56 3a
       0.11611888 0.15066762 0.019007111 0.00081655785
000020 3c 73 1b 3e 50 d8 6d 3d 15 df eb 3e 42 6b 9b 3c
       0.15180677 0.05806762 0.46068636 0.018972043
000030 45 0e 56 3a ee f2 eb 3e bd 4f 42 3e 56 40 bf 3e
       0.00081655785 0.46083778 0.1897573 0.37353772
000040 61 0d c7 3c 45 0e 56 3a 17 85 bf 3e ae e6 04 3e
       0.024298372 0.00081655785 0.37406227 0.12978622
000050 56 40 bf 3e 61 0d c7 3c 45 0e 56 3a 17 85 bf 3e
       0.37353772 0.024298372 0.00081655785 0.37406227
000060 ae e6 04 3e
       0.12978622

124 f4 [55]
000000 3e 6f 0b 3d fc e9 be 3c 45 0e 56 3a d3 ea 28 3d
       0.034041636 0.023304932 0.00081655785 0.04123957
000010 27 4a 9b 3c f6 28 e6 3b 00 83 a0 3c 45 0e 56 3a
       0.018956257 0.007023926 0.019593716 0.00081655785
000020 85 81 aa 3c e3 e9 3c 3c ff a0 93 3d 00 83 a0 3c
       0.020813713 0.011530372 0.07208442 0.019593716
000030 45 0e 56 3a 29 ee 98 3d 7f 5b e7 3c 44 84 cd 3b
       0.00081655785 0.074673004 0.02824187 0.006271871
000040 2a c7 42 3c 45 0e 56 3a ef 35 5c 3c 4e a8 ed 3b
       0.011888305 0.00081655785 0.013440593 0.0072527295
000050 ea dc 89 3e 2a c7 42 3c 45 0e 56 3a e7 f9 89 3e
       0.26926357 0.011888305 0.00081655785 0.26948473
000060 5f c9 a5 3d 3a 55 ac 3c 45 0e 56 3a 45 0e 56 3a
       0.08095049 0.021036733 0.00081655785 0.00081655785
000070 5b 76 ac 3c f8 44 3a 3c 00 b4 b5 3e 45 0e 56 3a
       0.02105253 0.0113689825 0.35488892 0.00081655785
000080 45 0e 56 3a 1a b4 b5 3e b4 f4 02 3e 78 2d 1e 3d
       0.00081655785 0.3548897 0.1278866 0.03861758
000090 45 0e 56 3a 45 0e 56 3a 7e 36 1e 3d 71 e8 cd 3c
       0.00081655785 0.00081655785 0.038626187 0.02513525
0000a0 a9 dc b6 3e 45 0e 56 3a 45 0e 56 3a c3 dc b6 3e
       0.35715225 0.00081655785 0.00081655785 0.35715303
0000b0 09 d1 f7 3d ee 67 c3 3d 45 0e 56 3a 45 0e 56 3a
       0.12100417 0.095413074 0.00081655785 0.00081655785
0000c0 ba 69 c3 3d 4b e6 23 3d ee 67 c3 3d 45 0e 56 3a
       0.0954165 0.040014546 0.095413074 0.00081655785
0000d0 45 0e 56 3a ba 69 c3 3d 4b e6 23 3d
       0.00081655785 0.0954165 0.040014546

127 f4 [25]
000000 bb 4a bb 3b fc e9 41 3d 45 0e 56 3a e5 50 43 3d
       0.0057156957 0.047342286 0.00081655785 0.04768457
000010 2c 7a d4 3c d8 0d d6 3a 6c af 28 3d 45 0e 56 3a
       0.025937162 0.001633103 0.04118292 0.00081655785
000020 42 d1 28 3d be 8d b7 3c d4 95 a1 3d 6c af 28 3d
       0.04121519 0.022406455 0.078899056 0.04118292
000030 45 0e 56 3a 21 07 b6 3d 27 e1 49 3d 43 9e c8 3c
       0.00081655785 0.088880785 0.049286988 0.024489528
000040 6c af 28 3d 45 0e 56 3a 61 2b 44 3d 13 e7 f3 3c
       0.04118292 0.00081655785 0.04789293 0.02977327
000050 43 9e c8 3c 6c af 28 3d 45 0e 56 3a 61 2b 44 3d
       0.024489528 0.04118292 0.00081655785 0.04789293
000060 13 e7 f3 3c
       0.02977327

130 f4 [6]
000000 fb b5 53 3e cc df 40 3d fb b5 53 3e cc df 40 3d
       0.20674889 0.04708843 0.20674889 0.04708843
000010 fa b5 53 3e cc df 40 3d
       0.20674887 0.04708843

133 f4 [3]
000000 72 a9 5d 41 a9 93 3e 3f 59 2f 6b 41
       13.8538685 0.7444406 14.6990595

action_model._continuous_distribution.log_sigma f4 [1, 3]
000000 f0 b0 75 3c 85 4f 2e 3d ac 5c 60 3d
       0.0149957985 0.042556304 0.05477588

action_model._continuous_distribution.mu.bias f4 [3]
000000 18 9d c4 3c a7 85 da 3b c9 ab 84 3c
       0.02400069 0.0066687646 0.016195195

action_model._continuous_distribution.mu.weight f4 [3, 256]
000000 8e 43 7e 3c a1 32 f3 3c e3 af 43 3a e7 91 81 bc
       0.015519036 0.029687228 0.0007464869 -0.015816642
000010 46 52 34 3d cc a9 43 b8 e8 40 85 bc 41 5a 07 3b
       0.044023775 -4.664976e-05 -0.016266301 0.002065316
000020 a2 1d 93 ba 9a 00 a4 3b 30 fc 98 3b f2 c7 8f ba
       -0.0011224041 0.0050049545 0.004668735 -0.0010969623
000030 05 7a 9b ba 8a ca 0e 3b 3b b0 09 bb 5c 92 ed ba
       -0.0011861926 0.0021788203 -0.0021009583 -0.0018125284
000040 e7 ab 41 3c 79 1c 41 bc d6 6c ef bb 67 7a 56 bc
       0.01182077 -0.011786574 -0.0073066754 -0.013090706
000050 d0 ec 33 bc 27 eb 7c 3b a5 d4 07 3c 28 8a c1 bc
       -0.0109817535 0.003859231 0.0082904445 -0.023625448
000060 07 f7 00 3c 94 6e 03 3b cb 82 f7 3c 25 92 fc ba
       0.007871396 0.0020054923 0.030213734 -0.0019269629
000070 60 a8 b4 bb 42 fe f2 39 83 82 95 bc 4c 43 41 3c
       -0.005513236 0.00046347274 -0.01825071 0.01179583
000080 b8 aa 78 3c d6 62 a5 bb e3 84 21 3b 31 3e a5 ba
       0.015177421 -0.0050471826 0.0024645857 -0.0012607035
000090 fb 67 e7 3c 80 1f f6 bb 4e 7e 2d b9 db 49 ad 3b
       0.028247824 -0.0075110793 -0.00016545618 0.0052883453
0000a0 0b 0f 32 3b 86 67 0c 3c 61 bb dd 3b c2 ae 11 3b
       0.002716961 0.008569604 0.006766722 0.0022229408
0000b0 17 ce 80 3b 7f 89 c2 3b 79 1a ca bb 31 df 90 bb
       0.003930818 0.005936801 -0.0061677066 -0.0044211377
0000c0 a9 32 74 3b 62 99 26 bb fc 6e 32 3c e1 98 c9 bb
       0.003726164 -0.0025421013 0.010890719 -0.006152258
0000d0 ed db 56 3b 0f d9 0e bc 02 aa ea 3a e1 c5 f6 bc
       0.0032784895 -0.008718743 0.001790345 -0.030123653
0000e0 25 cb f1 3c 8c 19 47 3c 3c 6c 67 ba 41 14 2a 3b
       0.029515812 0.012152087 -0.0008828079 0.0025952014
0000f0 72 36 a2 ba b2 65 17 bc 22 83 17 bc 9d cb c0 3a
       -0.0012375845 -0.009240555 -0.009247573 0.0014709119
000100 f9 f1 95 b9 c5 eb e4 bb 5a 07 a7 3b 2b b3 9a bc
       -0.00028599778 -0.0069861137 0.005097312 -0.018884262
000110 6a c8 70 bc d1 5f 0b bc 77 ba 88 bc 96 ad a1 ba
       -0.01469622 -0.008506731 -0.016690476 -0.0012335058
000120 bb 79 23 bc 8a b0 43 ba e8 ee 79 bc 40 57 d1 bb
       -0.009977753 -0.0007464966 -0.015254714 -0.006388575
000130 cf 14 8e 3c 6a 93 4d bc 1f 2f c2 bb 8b 17 d4 bc
       0.017343907 -0.012547353 -0.0059260274 -0.025890132
000140 26 09 06 3b 0d dc 86 bc cd cc 96 bb 25 55 17 bc
       0.002045223 -0.01646235 -0.004602051 -0.009236609
000150 48 d3 91 bb da 0e c4 bb 78 7c a6 3b 4d 4e f1 bb
       -0.0044502355 -0.0059832158 0.005080756 -0.0073640705
000160 a1 a7 aa bb 30 d9 49 bc 99 bb ca ba 52 ad 35 3b
       -0.005207971 -0.012319848 -0.0015467285 0.0027721715
000170 42 44 15 bc 0e ee 50 bc c0 63 88 bc 21 97 0f bb
       -0.009110512 -0.012752069 -0.016649127 -0.0021910148
000180 07 8e ab 3b 17 de 1a 3b a5 db ed 3b 0c cd f9 38
       0.005235437 0.002363091 0.0072588497 0.00011911438
000190 98 4b 80 3b b6 af 2a bd a7 0e 96 bc 37 73 98 3b
       0.0039152615 -0.041671477 -0.018317534 0.0046524066
0001a0 53 00 d9 bb b4 e8 26 bb 9b 45 1f 3b 10 5a e5 bb
       -0.006622353 -0.0025468292 0.0024302963 -0.0069992617
0001b0 36 42 2d 3b b1 d5 9c bc 37 00 bf bb 2e 6c 01 3c
       0.002643717 -0.019144865 -0.005828883 0.007899327
0001c0 de ad f5 bb dd 61 41 bc 84 46 16 3b d1 1d 0c bc
       -0.007497533 -0.011803118 0.0022930214 -0.008552031
0001d0 a9 d5 de 3b d9 98 f0 3b d9 e7 17 bc a3 b3 3a 3c
       0.0068003726 0.0073424396 -0.009271585 0.011395368
0001e0 f8 4f 89 bc 16 29 0f 3d c3 74 01 3d 5d bf 4d 3b
       -0.016761765 0.034951292 0.031605493 0.003139458
0001f0 3e f3 10 3b 20 1a 8b ba bb 4e 99 bb 9e fb c2 3b
       0.002211764 -0.0010612644 -0.004678575 0.0059504053
000200 58 de 61 bb a5 79 c1 3c 66 13 4a ba d3 26 e6 3b
       -0.0034464803 0.023617575 -0.0007708579 0.007023671
000210 30 08 8c b9 47 16 90 bc 44 df f1 ba 06 4b 0e bb
       -0.0002670898 -0.017588748 -0.0018453379 -0.0021712198
000220 f9 04 c5 3b 63 f3 c5 39 b0 3e 50 3c d1 ff 8b bc
       0.0060125557 0.00037756105 0.012710258 -0.017089756
000230 a5 bd 6f bc 8a 26 a0 ba 6f 7f 1f 3c 26 39 c4 3b
       -0.014632617 -0.0012218517 0.009734972 0.005988258
000240 9f 3a 66 bb ff e6 16 bc e2 19 a3 3b b5 c5 8f ba
       -0.0035130156 -0.009210347 0.0049774507 -0.0010968955
000250 14 72 49 ba f2 76 03 bb fc 9c 25 bb 77 83 f3 ba
       -0.00076845405 -0.002005991 -0.0025270572 -0.0018578608
000260 34 18 0d bc 62 f1 c5 ba 70 9d 34 3c 26 0e 77 3a
       -0.0086117275 -0.0015101845 0.011023864 0.00094244105
000270 40 fa b7 bc e7 5d fc ba f1 8f 9a 3c e0 8f be bb
       -0.022458196 -0.0019254059 0.018867465 -0.005815491
000280 f8 f4 07 3a db 80 b5 bc 02 2d b1 bb 1d 8b 12 3d
       0.00051863445 -0.02215617 -0.0054069767 0.0357772
000290 f3 02 87 3b a7 62 8f 3b 45 29 05 3c 55 42 48 ba
       0.0041202246 0.004375774 0.008127515 -0.0007639279
0002a0 e5 4b ec b8 6e 01 bb bc 0f 5e 2e bb be 59 65 ba
       -0.000112674934 -0.02282783 -0.0026606356 -0.00087490294
0002b0 1a e1 26 bc a8 0e 8a 39 39 f2 1e 3d ff 0d 24 3b
       -0.010185504 0.0002633233 0.03880522 0.0025032756
0002c0 52 d2 26 bb b6 f8 82 39 ac ef d4 bb d1 c4 78 3b
       -0.002545495 0.00024980836 -0.0064982977 0.0037959109
0002d0 ba 46 5e 3b f0 c2 81 ba 26 4a 9d 3b 6c 2c d7 bb
       0.0033916668 -0.0009900015 0.004800099 -0.006566575
0002e0 51 d9 b3 bc 76 54 ec bb 00 a8 26 bc bd d9 9b bc
       -0.02195421 -0.007212217 -0.01017189 -0.019024724
0002f0 c9 ae a0 bb dd 3a 31 bc 0f 90 db bb 1a ee 4b bc
       -0.0049036485 -0.010817257 -0.0067005227 -0.012446905
000300 7e 3c 58 3c 9a 21 05 3c 8e cb 6a 3b 2f 80 c6 3a
       0.013198016 0.008125687 0.0035826894 0.0015144403
000310 ca 78 09 3b 45 64 ce bb e8 ed c1 bb ac 5e c9 bb
       0.0020976537 -0.006298574 -0.005918253 -0.006145319
000320 c7 dc 05 3c 6c cb 1b bc ba 4f f2 bb 04 22 d9 bb
       0.008170313 -0.009508949 -0.007394758 -0.0066263694
000330 c3 0b 67 bc 76 23 73 3c b2 07 97 bc 10 62 d4 ba
       -0.014101925 0.0148399975 -0.018436287 -0.0016203541
000340 ef 96 55 bc 77 4d 43 3b d3 5c eb bc 1c ad dd bc
       -0.013036474 0.0029800811 -0.028730785 -0.027060084
000350 a7 3c 8f ba e8 16 7b bb 96 72 d0 ba 15 07 7f 3c
       -0.001092811 -0.0038313214 -0.001590329 0.015565653
000360 f0 9d 8d bb 21 4e ac bb 3d c3 40 3c 23 32 ad 3b
       -0.004321806 -0.005258337 0.011765298 0.005285518
000370 05 7f 7d bb 4f dd ef bb e6 0e 95 bb e0 5d cf bb
       -0.0038680446 -0.007320083 -0.004548895 -0.0063283294
000380 3c 8f d3 3b b3 b8 01 bc f5 9b b8 bb 55 c1 0c bc
       0.006456284 -0.007917571 -0.005633826 -0.008591016
000390 42 74 fc bb 41 f9 29 bc 5b 8f 36 bc 8d aa 91 3c
       -0.0077042887 -0.010374368 -0.011142577 0.01778152
0003a0 78 a3 7d 3b a8 74 b0 bc b4 76 9c 3b f0 de 11 bb
       0.0038702171 -0.021540001 0.0047748927 -0.0022258125
0003b0 6b df e0 3c ba 51 ae 3c 59 04 c5 3b 0c ee 4c bb
       0.027450284 0.021279205 0.006012481 -0.0031269817
0003c0 58 96 c4 3a 6a e9 b5 3a 93 c9 59 3a 7e 0f 89 3b
       0.0014998419 0.0013878767 0.000830793 0.004182755
0003d0 92 b9 26 3c 77 17 53 bc a1 70 ac bb 5a 7e 0e bc
       0.010176079 -0.012884012 -0.00526245 -0.008697117
0003e0 d9 26 d4 bb 50 a9 ac bb 1e 18 e0 bb e7 a2 80 bb
       -0.0064743576 -0.005269207 -0.0068388125 -0.0039256695
0003f0 ff ef f1 3c d8 30 e7 b8 59 1d 9e bc 93 4e 00 3b
       0.029533384 -0.00011024036 -0.019301103 0.0019578084

network_body._body_endoder.seq_layers.0.bias f4 [256]
000000 6b 7a 3a bd 42 9b 03 bd 30 3e f9 bc 29 dc 0c bd
       -0.045526903 -0.032130487 -0.030425161 -0.03438965
000010 ab 72 3d ba 51 3c db bc 85 f0 ec 3b 80 49 17 bd
       -0.00072268647 -0.02676216 0.0072308206 -0.03693533
000020 9f 3b be bc ef d1 0f bd a0 cd c0 3b c9 c3 3c bd
       -0.023221789 -0.035112318 0.0058838874 -0.046085153
000030 bd 6f 8a bc 02 3c e1 bc 47 f6 02 3c 28 55 8d bb
       -0.016898984 -0.027494434 0.007993287 -0.00431313
000040 a8 5d 9b bc dd 6d 34 3b ee 95 92 3a ac d6 7c 3b
       -0.018965557 0.0027531304 0.0011183599 0.0038580103
000050 66 99 94 bc 6f c8 0b bc 78 9c 1d bd e0 67 a7 3c
       -0.018139552 -0.008531674 -0.0384793 0.020435274
000060 d7 a3 1c bc fd c1 02 bd 9f 79 db 3c 0c 80 3f bd
       -0.009560547 -0.031923283 0.026791392 -0.046752974
000070 27 74 60 bd 1f 6e 7b bd 27 34 95 bc 4c 60 c3 3b
       -0.05479827 -0.061384317 -0.018213345 0.005962407
000080 76 08 e4 bc 33 9c f7 bc 2c 8e b4 bc 52 74 9b bc
       -0.027836066 -0.030225849 -0.02204045 -0.018976364
000090 90 f8 72 bc c7 b9 e6 3b 19 4e 73 bc b4 44 52 bd
       -0.01482977 0.0070411894 -0.014850163 -0.05133505
0000a0 94 7e b2 bc fe 90 98 3c 4d e1 ff 3b c2 30 aa bc
       -0.021788873 0.018623825 0.0078088404 -0.020775203
0000b0 be 42 af bc ed 8a a7 bd b5 cc 26 bd 1b fc 37 bd
       -0.02139413 -0.08180795 -0.040722568 -0.04491816
0000c0 b7 cd 54 bc 2f ee e9 bc a4 e1 28 bc fe 4b 08 bd
       -0.012988499 -0.028555958 -0.010307703 -0.033275597
0000d0 ff 52 83 bd 7c 47 9e bc 51 cc 17 bc 35 4e 14 bc
       -0.064123146 -0.019321196 -0.009265021 -0.009051849
0000e0 ac ef 32 bd 97 16 1f bd d7 34 5c bd b1 23 f1 bb
       -0.0436856 -0.038839903 -0.05376133 -0.007358991
0000f0 d7 b4 a9 3c 7d f7 5c bd f2 c8 13 bd 20 d8 50 bd
       0.020716114 -0.05394696 -0.03608031 -0.050987363
000100 bf 49 0a bd ca 11 ef bc 5c b0 0a bc 6c 33 dc bc
       -0.033761736 -0.029183287 -0.008464899 -0.026879989
000110 bb 26 1c 3c 47 b2 6b bc 67 c7 49 bb 46 a3 61 bd
       0.009530718 -0.014385766 -0.003078902 -0.05508735
000120 d4 6d 3f 3c 0a f0 02 bd ae 7e 38 bd ee 7f 81 3c
       0.0116839 -0.0319672 -0.045042686 0.015808072
000130 80 a2 ac bc 79 d4 15 bd f8 b8 e5 ba a7 25 8d bc
       -0.02107358 -0.036579583 -0.0017526438 -0.017229868
000140 d8 e8 2d bd 44 dc 19 3c b2 2b b7 bc ae 5c a7 bc
       -0.042458385 0.009390894 -0.022359703 -0.020429935
000150 29 9a 2c bd 3a 9e 58 bd cd 60 16 3a c3 18 c8 bc
       -0.042139206 -0.05288527 0.00057364703 -0.02442587
000160 67 45 b7 bc 73 9a 9d bb 3b df 00 3b 44 2a f4 ba
       -0.02237196 -0.0048096715 0.0019664306 -0.0018628319
000170 55 bb 5b bd aa fd d1 bc 9f a3 e7 bc 4c 43 b5 bc
       -0.05364545 -0.025633652 -0.028276263 -0.022126816
000180 d8 a1 24 bd 5d 9e a4 bc 36 6b 8f 3c 73 fd 06 bd
       -0.04019341 -0.020095045 0.017507177 -0.03295655
000190 08 c3 b2 3c 8c 85 0b bc 36 c8 a7 bc 72 48 c8 bc
       0.021821514 -0.008515727 -0.02048121 -0.024448607
0001a0 43 27 64 bd e8 81 67 3a 0e 90 2b ba 21 de 57 bc
       -0.055701505 0.0008831308 -0.0006544598 -0.013175518
0001b0 44 49 89 bc 5d 31 59 bc 2c ca 0e bd 08 d1 ee ba
       -0.016758569 -0.013256398 -0.034860775 -0.0018220255
0001c0 81 99 97 bc a4 cd d7 bc 60 cf 32 bb 63 4c af bb
       -0.018505814 -0.026343174 -0.002728425 -0.005349682
0001d0 82 8d af bb aa 9c e2 3b a2 d4 0a bd 1e 66 34 bc
       -0.005357445 0.0069156485 -0.03389419 -0.011010675
0001e0 db 12 bb 3b 21 f0 3e bc 2f bc cc bb c5 0e e6 39
       0.005709035 -0.011653931 -0.006248019 0.00043880023
0001f0 b8 d2 06 bd 4a 96 d4 bc 5e 3a c3 bc ab 3d c0 bc
       -0.0329158 -0.02595057 -0.023831543 -0.023466906
000200 fa aa 52 bd 41 5b 32 bd 80 67 cc b8 52 ba 28 bc
       -0.051432587 -0.043544058 -9.7467564e-05 -0.0102983285
000210 99 f8 02 bd 8d 0f 47 bc 77 4b 07 bd b7 ca 2e bd
       -0.031975362 -0.012149704 -0.033030953 -0.042673793
000220 e2 72 69 bd e9 bf ce bc 1d b5 f9 bc 7f 47 0c bc
       -0.056994326 -0.025237994 -0.03048187 -0.008561968
000230 5f cb 26 bd 2f 68 ba 3c 03 60 93 bc 71 e1 3b 3c
       -0.040721294 0.022754757 -0.017990118 0.011467324
000240 10 9f ae bc 6b 57 8c bc b7 67 0a bd 54 75 9a bc
       -0.021316081 -0.017131528 -0.033790316 -0.018854775
000250 86 4a c3 bc 31 88 e6 b8 62 0a 48 bd f7 24 1c bd
       -0.023839246 -0.00010992622 -0.048838027 -0.03812119
000260 8f f0 c0 bc 7a e0 bd 3b a2 58 7c bc 93 a6 0d 3d
       -0.023552207 0.005794582 -0.015401991 0.034582686
000270 bb 1d 4e bd a4 02 01 3d 23 fe b8 bc 8c a4 d6 bb
       -0.050321322 0.03149666 -0.02258212 -0.0065503772
000280 a7 0d 20 bd 56 e9 8a bc 4a 2b d5 bc 29 0e 3e bc
       -0.03907552 -0.016956966 -0.026021618 -0.011600056
000290 e5 93 24 bd 16 5a b2 bc 61 db 29 bc d4 03 0e bd
       -0.040180106 -0.021771472 -0.010367245 -0.03467162
0002a0 7f e3 36 bd eb 33 0f bd 0f 3b 11 bc 80 4c 9f bc
       -0.04465055 -0.034961622 -0.008864178 -0.019445658
0002b0 7a 1b 0b bc dc ad 39 bc 36 b8 65 bd 1b 08 70 bc
       -0.008490438 -0.011332955 -0.05608388 -0.01465037
0002c0 88 26 33 3b a7 3c a1 bc 83 10 33 bd e5 ce 5b bd
       0.00273362 -0.019682242 -0.04371692 -0.053664107
0002d0 12 ea 12 bd 14 02 9e bc 5a 9b 08 bd 18 c3 1d bd
       -0.035867758 -0.0192881 -0.03335128 -0.038516134
0002e0 ea 3b 8a bd ce eb 03 bc 4d f6 5a bd 0d 78 c0 ba
       -0.06749709 -0.008051826 -0.053457547 -0.0014684215
0002f0 91 77 97 bc 9f 73 f5 3b 02 be e7 bc 18 3c 93 bb
       -0.01848963 0.0074905897 -0.028288845 -0.0044932477
000300 74 ea 58 bc 62 26 19 bc b2 8b 2d bd c5 27 3d bd
       -0.013239492 -0.00934753 -0.042369552 -0.046180505
000310 97 aa ee bc cd 47 12 bd a9 79 a9 bc 9e ca 0f bd
       -0.029134078 -0.035713006 -0.020687895 -0.03510534
000320 e9 f5 1a bd bd b0 f7 3a 5e 90 4b bd 38 98 e7 bb
       -0.037832174 0.0018897277 -0.049698226 -0.0070677064
000330 05 23 f4 3b cf 45 d3 bc 25 af 85 3b a6 5a ca bb
       0.0074504637 -0.025790123 0.0040797167 -0.006175357
000340 4a 60 1d bd b6 d5 06 3c b9 3e e7 bc b7 e4 6e bc
       -0.038421907 0.008229664 -0.02822815 -0.014580897
000350 2d 78 39 bd 7b 85 04 bc 6d aa 9e bc 80 3a 85 3c
       -0.045280624 -0.008088465 -0.019368375 0.016263247
000360 ee 50 39 bc 29 68 ca bb f3 5d 0d bc 8d 25 16 bd
       -0.011310799 -0.0061769676 -0.008628356 -0.036656905
000370 b0 a6 36 bc d8 fd df 3c 5d 49 cf bc 24 49 14 bd
       -0.01114814 0.027342722 -0.025303537 -0.036202565
000380 2b cb bc bc 01 95 e9 bc e3 fd 44 3b e3 b1 2d bc
       -0.023046097 -0.028513433 0.0030058555 -0.0106014935
000390 5b 40 8e bc fb 6c a4 bc 7b 27 89 3b db 16 f2 3b
       -0.017364671 -0.020071497 0.0041856146 0.0073879785
0003a0 9f 69 0a bd 94 45 4a bd cc a9 dc bc e9 75 4f bc
       -0.033792134 -0.04938276 -0.026936434 -0.012662389
0003b0 18 c4 a6 bc 92 8b 04 bd a9 6f b6 bc dc 23 b4 bb
       -0.020357177 -0.032359667 -0.02227004 -0.005497439
0003c0 e7 89 a1 bc e1 3c 94 bd 73 f4 77 bd cf b8 41 3c
       -0.019719077 -0.07238174 -0.06053586 0.011823847
0003d0 6f 08 39 bd a6 42 32 3b 6b 40 75 bd 80 4b fe bc
       -0.04517406 0.002720037 -0.059875887 -0.03104186
0003e0 d7 ad 2f bd 38 1c a6 bc 1e 48 3a 3c 9c 2d cf bc
       -0.042890396 -0.020277128 0.011369733 -0.025290303
0003f0 88 31 b6 bc b2 d3 90 bc 68 9c 9d bd 45 58 5b bc
       -0.022240415 -0.01767907 -0.07695848 -0.013387744

network_body._body_endoder.seq_layers.0.weight f4 [256, 164]
000000 65 f9 ad bc 16 67 11 3e c3 72 95 3d cb b3 18 3d
       -0.021237085 0.1419948 0.0729728 0.03728084
000010 61 9a 71 3d b9 b5 a4 bd 2a 13 e7 3d a3 14 82 bd
       0.058985118 -0.08042473 0.11282952 -0.063515924
000020 5b 21 15 3d 89 47 2f be a3 13 62 3d 13 1b b0 bd
       0.036408763 -0.17117132 0.05519451 -0.08598914
000030 6f 37 28 bd 3c 66 9d bc b2 7b 80 bd e4 1f 65 3d
       -0.04106849 -0.019213788 -0.06273593 0.055938616
000040 4a 14 a9 bc e7 9e 53 bd 80 b0 df bd 7e 83 2d be
       -0.020639557 -0.051665213 -0.109223366 -0.16944692
000050 41 59 85 bd b1 f6 07 bd 8c ea a4 3b 3a 56 89 3d
       -0.065111645 -0.033194248 0.005032843 0.067058995
000060 35 38 8d 3c 1a a6 a7 bd 4e f5 9a 3d 0b c1 1d 3b
       0.017238716 -0.08185978 0.075663194 0.0024071361
000070 2d 6a 7a bd 86 bb cc 3b c8 53 a5 ba 27 42 93 3d
       -0.061136413 0.0062479405 -0.001261347 0.07190352
000080 67 cc f7 3d 92 ba 14 3d d4 ad 97 3a fd 35 54 bc
       0.120995335 0.03631074 0.001157219 -0.012952325
000090 8a a2 3a bd ee e2 f3 3d f8 31 8f bd a8 fb 22 bd
       -0.045565166 0.11908518 -0.06991953 -0.03979078
0000a0 eb 1c 08 3d 2a e3 56 bd a6 70 cd bd ea 52 4b 3d
       0.033230703 -0.052462734 -0.100312516 0.04963962
0000b0 04 01 5a bc fd 4e 71 bd d3 8a 4d 3b 9d 6c 91 3b
       -0.013305906 -0.05891322 0.0031363263 0.0044379965
0000c0 37 3e 36 bd 38 b3 05 3d 13 2b 14 bd f7 f1 63 3d
       -0.044492926 0.03264162 -0.03617389 0.055650678
0000d0 a2 17 46 3c 61 0f 1f bd 08 be 15 3c e4 15 58 bd
       0.012090595 -0.038833026 0.009139545 -0.05275525
0000e0 56 da 38 bd da d0 38 bd 36 75 e2 3d 45 d0 23 be
       -0.045130096 -0.04512105 0.110575125 -0.15997417
0000f0 a8 d9 05 bd 6f fa c2 bd a9 d9 3d 3d 8d e8 8f 3d
       -0.032678276 -0.09520423 0.046350155 0.070267774
000100 b5 77 4b bd ea d3 9c bd 42 3b f1 bc 54 8e 82 bc
       -0.04967471 -0.07657607 -0.029447202 -0.015937008
000110 64 3e 00 3e 2e 00 01 3d 2c f9 95 3d 53 79 29 3e
       0.125238 0.031494312 0.073229164 0.16550188
000120 25 a3 8c 3c 84 cf e1 3d 9a a0 fe 3c a4 f3 a7 3d
       0.017167637 0.110259086 0.03108244 0.08200768
000130 a1 e1 ad bd 83 da f7 3d 85 d6 d0 bd fd c4 c5 3d
       -0.08490301 0.12102225 -0.10197166 0.09656713
000140 aa 52 c6 bc 66 55 24 3c 5b 65 a4 3d d6 e4 67 bd
       -0.02420934 0.010030126 0.080271445 -0.05661472
000150 ee f4 7c bd 52 36 eb bd 94 ff 41 3e c9 a5 b1 bd
       -0.06175702 -0.1148497 0.18945152 -0.08674199
000160 86 91 89 3d cb ae 45 3d bf bb e5 bd 52 cc b1 bd
       0.067172095 0.0482624 -0.1121745 -0.08681549
000170 db db 56 3d 92 48 41 bc 01 c8 23 bd 65 45 9b bb
       0.052455764 -0.011797087 -0.03998566 -0.004738497
000180 77 53 ac be f9 0c 4b 3d ec 57 eb 3d 59 6b 3d 3d
       -0.3365743 0.04957292 0.11491379 0.046244953
000190 b7 bd 4d 3d 71 a3 05 bd 03 80 c0 3c f2 83 67 3d
       0.050229754 -0.032626573 0.02349854 0.056522317
0001a0 33 49 90 3d 04 d0 0c 3d ec 8e 23 bd 5e 6c 2f 3d
       0.07045212 0.034378067 -0.039931223 0.042827956
0001b0 66 3a e1 bc 24 31 9d 3c fc 48 c5 bd 79 3d ff 3d
       -0.027493667 0.019188471 -0.09633061 0.12462897
0001c0 cd 04 6d 3d 35 74 67 3e f0 d2 ef 3c 8b 15 a6 3d
       0.057865907 0.22602923 0.029275388 0.08109578
0001d0 e6 88 62 3d 6a 8b 2e be 18 b4 3f 3d c9 fe b4 bc
       0.055306338 -0.1704537 0.04680261 -0.022094147
0001e0 6e 97 76 bc 0f e8 32 bd 7e 81 ab 3d 55 33 8f bd
       -0.015050752 -0.04367834 0.08374308 -0.06992213
0001f0 2c 19 8f bd 1f 2b 0a be de 94 73 bd b6 59 70 3d
       -0.06987223 -0.13493012 -0.059468143 0.058679305
000200 59 eb 26 3c 42 9e a3 bc 44 8f 26 3e 99 bb 0f bb
       0.010187947 -0.019972924 0.16265589 -0.0021931885
000210 76 24 b6 bd df 07 13 be 29 1c df bd e0 7b 32 bb
       -0.08893673 -0.14358471 -0.10894043 -0.002723448
000220 be 98 b2 3c 32 70 2b 3d 36 ee c6 bc fa ee 34 3c
       0.021801349 0.041855045 -0.02428351 0.011043305
000230 a4 b2 85 3c df 5c 19 bb 55 ef 20 be 80 8c 85 3d
       0.016320534 -0.0023401303 -0.15716298 0.06520939
000240 23 70 d2 3c b2 a7 51 3d 25 a0 39 bc f5 ee f1 bc
       0.025688237 0.051185317 -0.011329685 -0.029532889
000250 0b be 5f bd 00 c8 dd bd d2 dc 11 be fa 4e 85 3c
       -0.0546246 -0.108291626 -0.14244393 0.01627301
000260 42 b4 da bd c6 17 22 3d bf 71 c1 3c 8e 8a 24 3e
       -0.10678913 0.039573453 0.023613809 0.1606848
000270 d6 2a d8 bd 85 d9 ba 3d 5e 75 68 3c fd 33 fd bd
       -0.10555045 0.0912352 0.014188139 -0.123634316
000280 db 04 ec bd 25 20 84 3e 4a e9 19 3d 4a bc 91 bd
       -0.115243636 0.25805774 0.037575997 -0.071159914
000290 89 c0 14 3d 21 c0 cf 3d 6b df 10 3d 95 ef d8 3d
       0.03631643 0.101440676 0.035369318 0.10592572
0002a0 7c 4f b3 3d c4 33 36 3e 5a 7f 97 bc 33 d4 1e be
       0.08755395 0.17793185 -0.018493343 -0.15510635
0002b0 23 81 b1 3d a6 6f 02 bd 47 29 56 3c b8 19 7c 3e
       0.08667209 -0.031844757 0.013071365 0.24619186
0002c0 f7 7b b4 bc f9 50 e8 3c 76 bf 5d be 5e 8a 01 3d
       -0.022031767 0.028358923 -0.21655068 0.031626098
0002d0 ff fd 8c bc 0d dd 84 3b cb 55 40 bd c7 1f d8 3d
       -0.017210959 0.0040546716 -0.04695682 0.10552936
0002e0 cf 7f c8 3c 26 11 23 bd c2 9b 1f bd 9c e5 ee 3c
       0.024475006 -0.039811276 -0.0389669 0.02916222
0002f0 a6 ee b7 bc 70 17 1a bd 29 33 16 3d 3b 95 9f 3d
       -0.022452664 -0.037620008 0.036669884 0.07792135
000300 ba 42 7c ba 86 f6 14 bd a6 79 66 3d bd 6b ff bc
       -0.000962298 -0.036367916 0.056268357 -0.031179303
000310 de 5d e4 3b 30 d9 1a 3d 67 50 1c 3d 4d 56 24 3d
       0.0069691977 0.037804782 0.038162615 0.040121365
000320 c9 eb a6 bd 62 19 76 3d 62 06 af 3a 54 83 3e 3d
       -0.08150441 0.0600828 0.0013353343 0.046511963
000330 25 18 35 3e 8a c5 f5 bd c6 59 d9 3b 32 57 6b 3d
       0.17684992 -0.12000568 0.0066330163 0.057456203
000340 a1 2a b3 bd 9b 7f 08 3e 7c 63 af bd 48 51 fe ba
       -0.08748365 0.13329928 -0.08563897 -0.0019402886
000350 6a b0 80 3c 44 30 22 3c 79 9f dc bd fc 5f 13 bb
       0.01570912 0.009899203 -0.107726045 -0.002248763
000360 00 15 64 bd 76 31 2e 3e 7a 6d c1 3d 1a 3c a2 3d
       -0.05568409 0.17011055 0.09444709 0.0792162
000370 90 8d 2b 3a fb 72 5d bc fe 87 9b bd a1 0c 84 bc
       0.0006544227 -0.013516183 -0.07594298 -0.016119303
000380 57 fc 26 3d 98 3d b3 3d 28 c3 2c 3e 49 25 4a bc
       0.040767994 0.087519825 0.16871321 -0.012337991
000390 ca 5e cc bd 6e c7 e5 3c 9d 34 f3 bd b7 4f 59 3c
       -0.09979017 0.028049197 -0.118752696 0.013263634
0003a0 f5 4f 65 bd 5b 6a 90 bc 77 60 f3 bd 6c 5f 33 bd
       -0.055984456 -0.01762884 -0.118836336 -0.043792173
0003b0 6a d3 cc bd 6e 91 8c bd 9b 40 dc bd b2 7c 01 be
       -0.100012615 -0.06863676 -0.1075451 -0.12645224
0003c0 19 c4 8a 3c 01 b1 cc bc 24 85 dd 3d 7d 4a c7 3d
       0.01693921 -0.024986746 0.1081641 0.097310044
0003d0 a3 4d 1f bd 9a ec 03 bd 49 03 b0 3c 7e 06 3c 3c
       -0.0388924 -0.032208063 0.021485941 0.011476157
0003e0 f4 e2 92 3d d3 66 23 3e 54 99 c9 3c d6 48 80 3b
       0.07172194 0.15957193 0.024609245 0.0039149327
0003f0 ba 84 87 3d 25 07 6a 3d c1 9f 97 3d 24 b7 4e bb
       0.066171125 0.05713572 0.074035175 -0.0031542266

network_body._body_endoder.seq_layers.2.bias f4 [256]
000000 bb bf e0 bb 58 8e f9 bc 17 10 13 bb 40 b0 91 bb
       -0.0068587936 -0.030463383 -0.002244001 -0.0044460595
000010 91 8e 1b bd 96 00 ab bc b1 84 18 bc 55 1c 9b bc
       -0.03797776 -0.020874303 -0.00930898 -0.018934408
000020 81 0f 39 3b 69 33 b0 bc 6f 96 33 bc a0 46 db bc
       0.0028238 -0.02150889 -0.010961159 -0.026767075
000030 b1 a8 5b bc 18 8c c0 bc 61 d9 d3 bb 48 1c 25 bd
       -0.013406918 -0.023504302 -0.0064651226 -0.040310174
000040 cc 15 47 bc 0a f8 9f bc e7 af c4 bc 95 a2 9e bc
       -0.012151193 -0.019527454 -0.024009658 -0.019364635
000050 5e 61 1c bb 24 ef ea b9 cb a9 5d bc c7 4f 96 bc
       -0.0023861746 -0.00044810132 -0.013529251 -0.018348588
000060 2e ce 92 bc 7b bf c5 bb c9 3b 81 bc 97 a9 14 bb
       -0.01792058 -0.006034789 -0.015775578 -0.0022684091
000070 94 17 04 bc 86 06 9f bc b3 87 dd bc 25 b7 a7 bc
       -0.008062262 -0.01941229 -0.027042245 -0.020473072
000080 20 3a 80 3a 9c c4 8c bc 66 f3 3f bc 30 7b d4 bb
       0.0009782948 -0.017183594 -0.011715746 -0.0064844117
000090 5f 52 63 bc c2 d9 0d bc 6f 49 34 ba bd 5d 76 bc
       -0.013874619 -0.008657875 -0.00068773975 -0.015036997
0000a0 a0 d5 92 bb f1 02 58 bc 60 a5 09 bc 11 c9 24 bc
       -0.0044810325 -0.013184295 -0.008401245 -0.010057704
0000b0 a2 05 df b9 86 0c df bc 9e 62 9b ba ef 37 d2 bc
       -0.0004253807 -0.027227651 -0.0011854952 -0.025661437
0000c0 b6 1a e6 bb e6 b4 b5 3a fa eb 6d bc a3 f4 a4 bc
       -0.007022227 0.0013863116 -0.014521593 -0.020136183
0000d0 94 f9 ba bc 42 09 bb bc e2 46 16 3c df aa 3a bd
       -0.022824086 -0.022831563 0.009172173 -0.04557311
0000e0 34 a0 c3 bc 0c a7 1b bc 34 69 52 bb 7e a0 e6 bc
       -0.023880102 -0.009500276 -0.0032106163 -0.0281527
0000f0 5e b8 d2 bc 7a db 01 bc df 83 b2 bc 9e 33 8d bc
       -0.025722679 -0.007925862 -0.021791397 -0.017236527
000100 83 1a c5 3b 10 31 42 bb 3d f1 fe bb c5 0d bb bc
       0.0060151233 -0.0029631294 -0.0077802227 -0.022833714
000110 ae c0 86 bc 3c 96 77 bc 48 e7 91 bc 6d f6 e0 bc
       -0.016449299 -0.015111502 -0.017810479 -0.027461255
000120 23 61 83 bb b3 db 02 bd f6 9c 36 bc 50 fb 78 bc
       -0.0040093823 -0.031947803 -0.011145821 -0.015196636
000130 17 94 0e 3b 1c ad 9d bb a1 6f 9c 3c bb b5 03 bb
       0.002175575 -0.004811896 0.019096198 -0.0020097333
000140 c4 4b ad bc 72 3e f5 bc 13 3e 92 3a 44 e5 9e bc
       -0.021154292 -0.029937003 0.0011157416 -0.019396432
000150 6b da c6 bb b9 cd bf bb 7d 36 a6 bc d0 e3 aa bc
       -0.006068518 -0.0058533815 -0.020289654 -0.020860583
000160 5d 1c 16 bc a1 35 5b bc c3 f9 a8 bc d2 40 82 bb
       -0.009162036 -0.013379485 -0.020626908 -0.0039750123
000170 b8 de 79 bc 4d cf aa bc 56 84 be bc 98 66 5b bc
       -0.015250854 -0.020850802 -0.023256462 -0.0133911595
000180 32 f0 81 bc 76 ad 05 3c f5 ce fb bb e5 48 0a bd
       -0.015861604 0.008159032 -0.0076845833 -0.033760924
000190 cf d6 64 bc a4 f1 32 bd 08 35 a2 3b 4d fd 00 bd
       -0.01396723 -0.043687478 0.0049501695 -0.031491566
0001a0 c9 fe 9f bb ac 22 a1 b9 88 76 c5 3b dd 36 e3 bc
       -0.0048826677 -0.00030734146 0.006026093 -0.027736122
0001b0 92 d0 b3 bc d2 f1 a8 bc 41 e1 9b bc 88 90 d1 bc
       -0.02195004 -0.020623121 -0.019028308 -0.025581613
0001c0 0c cf 1b bd ff 53 79 bc e4 c0 df bb bf 22 28 bc
       -0.038039252 -0.01521778 -0.0068284143 -0.01026219
0001d0 bd 16 84 bb 64 d8 87 bc 76 53 dc bc ea e8 55 bc
       -0.004031031 -0.016582675 -0.026895266 -0.013056019
0001e0 7f 6f 0b bc 77 46 29 bc a5 5f 57 bc 29 42 d4 bc
       -0.008510469 -0.0103317415 -0.013145362 -0.025910454
0001f0 ec f5 36 bc 67 fb b7 ba 9d 58 14 ba d7 4a 76 bc
       -0.011167031 -0.0014036716 -0.00056589564 -0.015032492
000200 e4 8a 06 bc 02 72 7f bc d0 26 7f bc f3 49 52 bc
       -0.008211825 -0.015591146 -0.015573218 -0.012835014
000210 e0 b9 ff bb 9a f3 b6 bc 34 50 27 3b b0 3f 46 bd
       -0.0078041404 -0.022332955 0.0025529983 -0.04840058
000220 aa 0f 84 bc a0 f2 f2 bc 65 db 3e bd c1 db 8c bc
       -0.01612075 -0.029656708 -0.04659595 -0.01719463
000230 a5 8a 62 bc 13 c1 50 bb 63 e5 5a bc 36 17 8e bb
       -0.013827001 -0.0031853362 -0.013360354 -0.004336263
000240 b3 d1 d0 bc f8 52 f9 bc 68 d6 6e 3c f7 1b 4d bd
       -0.025490617 -0.03043507 0.014577486 -0.050075497
000250 a8 44 0d bd 59 71 9f bc 12 e2 79 bc e5 d1 fb bc
       -0.034489304 -0.019463228 -0.015251653 -0.030739734
000260 ea 3e a4 3a 02 29 d0 bb 5f f7 80 bc 9a 0c 6f bc
       0.0012530957 -0.0063525448 -0.015742956 -0.014590407
000270 7c fa 19 bd a0 b1 78 bc d3 f4 af bc 61 f8 a7 bc
       -0.037592396 -0.015179068 -0.021479046 -0.020504178
000280 e6 2a 0d bc 32 27 c8 bc 7f ad c8 bc 94 f1 8f bc
       -0.008616185 -0.024432752 -0.024496792 -0.017571248
000290 39 8c 65 bc 3b b3 d8 bc b7 15 c6 bc 06 4c a2 ba
       -0.0140104825 -0.026452651 -0.024180276 -0.0012382276
0002a0 fe 7a 90 bc 44 e2 0a bd 62 a0 ff bc 31 c0 7f bc
       -0.017636772 -0.03390719 -0.031204406 -0.015609787
0002b0 a1 80 4e bc f9 b9 be bc 60 60 22 bb 2e 70 cd bc
       -0.01260391 -0.023282038 -0.0024776682 -0.025077906
0002c0 4c 88 5f bb 23 af 93 bc bc b2 8f 3b c3 dc 59 bc
       -0.003410834 -0.018027848 0.0043853205 -0.013297263
0002d0 b8 83 52 3a 55 32 e2 bc 8d a5 c4 bc 50 80 78 bb
       0.0008030492 -0.02761189 -0.024004722 -0.0037918277
0002e0 34 7d a0 bc b9 d1 85 bc d0 58 ba bc dd 39 03 bc
       -0.019590952 -0.016335355 -0.022747427 -0.008009401
0002f0 d4 a1 19 3b b9 60 40 bc 00 85 ef bc 6a f2 c2 bc
       0.0023442404 -0.0117418105 -0.029238224 -0.023797233
000300 92 d4 be bc 60 76 b7 b6 eb ac 13 bd a6 1b 8b bc
       -0.02329472 -5.4676057e-06 -0.03605358 -0.016980957
000310 8e 47 ae bc 11 43 fb bc 4b 5c 9f bc f5 a8 70 bc
       -0.021274354 -0.030671628 -0.019453188 -0.01468872
000320 62 f6 2e bc 03 e7 96 bb 04 dc 9d bc 01 e6 a6 3b
       -0.010678859 -0.0046051755 -0.01926995 0.0050933366
000330 8e 79 bb bc 2a ba c4 bc 2c 6a 48 bc 0b 43 aa 3a
       -0.02288511 -0.024014551 -0.012232345 0.0012989951
000340 e4 15 00 3c 9b 91 84 bc e0 4a 8c bc 78 58 0f bd
       0.007817719 -0.016182711 -0.017125547 -0.03499648
000350 ca ed 94 bc 14 a0 94 3b e5 e8 da bc cb 34 60 bb
       -0.018179793 0.0045356844 -0.02672238 -0.0034211155
000360 d5 5b 03 bd cb 7f 31 bc c9 e5 fd bc e0 94 e3 bc
       -0.03207 -0.010833691 -0.03099336 -0.02778095
000370 e4 46 80 bc 47 cc bc bb 50 ec 86 bc 49 27 87 bc
       -0.015658803 -0.0057616564 -0.016470104 -0.016498225
000380 8b 06 10 bc 66 81 16 bc 45 a4 a8 ba 6e 3c cf bc
       -0.008790622 -0.009186124 -0.0012866339 -0.02529737
000390 6b 51 6a bc 2e 60 c4 bc ad af 40 3c 0a 4b 08 bd
       -0.014301638 -0.023971643 0.011760634 -0.033274688
0003a0 05 3d c1 bc 8f 16 c0 bb f7 8c 9a bc 58 79 13 bd
       -0.023588667 -0.005862064 -0.018866045 -0.036004394
0003b0 c6 3f 72 bc f4 7c 1f bd a9 38 61 bc e5 89 d1 bc
       -0.014785713 -0.038937524 -0.013746419 -0.025578449
0003c0 c0 8c 10 bd 55 8b 1b bc e9 0a c5 bb 94 0f 11 bc
       -0.03529048 -0.009493669 -0.0060132635 -0.008853812
0003d0 af 6b 9a bb 06 31 07 3b 55 1d 0c bc 18 2e 5a bc
       -0.004712544 0.0020628585 -0.008551915 -0.013316654
0003e0 8c bf 08 3b ce 1d 03 bc fd cf 45 bd 49 95 85 bc
       0.0020866124 -0.008002711 -0.048294056 -0.016306536
0003f0 d2 01 8d 3b db 25 8b bb 4f 7b 42 bc 4a 2c b4 bc
       0.0043031955 -0.004246456 -0.011870219 -0.021993775

network_body._body_endoder.seq_layers.2.weight f4 [256, 256]
000000 5e 47 01 3e a7 00 72 3d 94 e1 50 bd fa 58 92 bd
       0.1262488 0.059082653 -0.050996378 -0.07145877
000010 95 d3 ed 3d 63 16 cb 3d a9 58 10 bd f5 8d d4 3d
       0.11612622 0.09916379 -0.035240803 0.10378639
000020 96 0b b6 3c 46 14 84 3d d2 11 02 3d 0f a4 41 3d
       0.022222321 0.06449179 0.031755276 0.0472756
000030 c5 bd d3 3d 20 f2 b5 bd 4f 13 6d bd 61 9b 16 bd
       0.1033893 -0.08884072 -0.057879742 -0.036769275
000040 0a d6 78 3d 95 4f be 3c dd af 18 bd 21 c8 91 bd
       0.060751 0.023231307 -0.03727709 -0.0711825
000050 03 b3 f9 3c 16 d3 1e be 35 73 3a bc 52 59 94 bd
       0.030480867 -0.1551021 -0.011380007 -0.07243599
000060 2a 22 75 3b 53 dc 8a 3c dc 01 25 bd df d5 35 bd
       0.0037404397 0.016950762 -0.040284976 -0.044393416
000070 c1 a5 0d 3d 90 ec 53 3c e8 cd f5 3c cd c9 ab 3d
       0.034581903 0.012934819 0.03000541 0.083881
000080 3c 34 c6 3d 15 58 1d 3d ec 79 d2 bd cf 64 50 bc
       0.09677932 0.03841408 -0.10277161 -0.012719347
000090 14 9d cb bd 6e 4f 54 bd 64 4a 6c 3d e0 27 5e 3c
       -0.0994207 -0.051833563 0.057688132 0.013559312
0000a0 79 18 92 bb 9e c4 65 39 70 e4 3b 3b ff 5a ca bc
       -0.004458484 0.00021912387 0.0028670095 -0.024701593
0000b0 95 82 cc 3d 6e cc 66 3d 29 4d 6b bd f4 fc 88 bc
       0.09985844 0.056347303 -0.057446633 -0.01672218
0000c0 92 20 e5 3c 0f 7b 3c bd 1e b1 2c bc 81 1b 9d 3c
       0.027969632 -0.046015795 -0.010540275 0.019178154
0000d0 44 a8 6a 3c b3 f2 cc 3c 57 24 08 bd 90 ea 45 bd
       0.014322344 0.025018072 -0.03323778 -0.0483194
0000e0 20 0b c5 bb 54 ca 0c be f5 ef 96 3d d7 61 37 bd
       -0.006013289 -0.13749057 0.07369987 -0.04477104
0000f0 85 68 74 bd a9 28 a1 3d 71 06 ef 3c 15 74 74 3d
       -0.05966999 0.078690834 0.029177876 0.059681017
000100 6c 13 f6 bd bc 61 5f 3d 3a f0 a5 3d b3 09 3a 3d
       -0.12015423 0.054536566 0.0810246 0.045419406
000110 71 db 59 3c f4 46 5a bd 93 ea 68 bd 6a 23 9f bc
       0.013296948 -0.053290322 -0.056864332 -0.019426066
000120 20 e4 01 be 2d 0d 09 bc 8e a9 f7 bd 77 12 25 be
       -0.12684679 -0.008364958 -0.12092887 -0.16120325
000130 02 f1 ac 3d 00 bf 05 be 3e 30 e6 bd f3 79 07 3d
       0.08444406 -0.13061142 -0.1123967 0.033075284
000140 4f e5 65 3b 3f 88 c7 bd fe 67 66 3c 41 ea 8e 3b
       0.0035079306 -0.09742784 0.01406288 0.0043614213
000150 7c 23 b4 3d a3 e2 20 3c 65 ac 36 bd 2a 67 60 3e
       0.087958306 0.009819659 -0.044598002 0.21914354
000160 2d 79 4b bd b4 60 d0 3c 5f 61 ce bd d5 ae bc 3d
       -0.04967611 0.025436737 -0.10077166 0.09213034
000170 da 70 4a bd 7e 3f 08 bd 97 6b ee bc 2f 6f 82 bd
       -0.04942403 -0.033263676 -0.029104037 -0.06368863
000180 e9 5e 2a 3d 87 d2 a2 bd d1 b0 b2 bd b5 06 4e 3c
       0.04159442 -0.07950311 -0.08725131 0.012574841
000190 56 9e 6d bd 35 95 0f 3d 3d 1a f0 bd ff 7a f7 3b
       -0.05801233 0.035054404 -0.117237546 0.007552504
0001a0 1f 0f 13 3d 02 3b cf 3b b0 7c 54 bc 8f f6 e2 ba
       0.035903092 0.006324173 -0.012969181 -0.0017315912
0001b0 c6 5d bc 3c be 1d 98 3c ab 99 23 bc dd 9d ec 3d
       0.022993933 0.01856887 -0.009985368 0.115535475
0001c0 c4 a9 43 bc 4a e4 98 bc 5b a9 9d bd 51 fe df 3d
       -0.011942331 -0.018663544 -0.076983176 0.10937179
0001d0 4c 00 cd ba 25 92 73 ba 40 7e 2d bd 4f 2f 13 bd
       -0.0015640347 -0.00092914916 -0.04235673 -0.03593379
0001e0 40 d3 0d 3d c6 0c 0b ba fd 78 82 bd 62 1f a3 bd
       0.03462529 -0.00053043326 -0.06370733 -0.0796497
0001f0 1d 11 a2 bd 81 4f 13 be c7 f1 1f bc ac d5 8f 3d
       -0.0791342 -0.14385797 -0.009762234 0.070231766
000200 64 b9 81 3c 6f 49 62 bd a7 84 15 bd bd d3 ea 3c
       0.015835471 -0.055245813 -0.03650346 0.028665418
000210 4d 6b 6d 3c 3d 66 81 3b 20 2c e1 bc 6a e2 e5 bd
       0.0144909145 0.0039489553 -0.02748686 -0.11224826
000220 c5 da fc 3d d1 31 c9 bd 5e ca db 3d 2b 44 f1 bc
       0.123464145 -0.09823955 0.10731958 -0.02945145
000230 1b 2f a7 bc 16 6d d5 bd 9a 63 78 bd 63 63 aa bd
       -0.020408204 -0.10421197 -0.060641862 -0.08319738
000240 a3 ae eb bc 02 0b b5 bc ce ab 99 3d 83 ae f2 bc
       -0.028769797 -0.022099975 0.07503472 -0.02962423
000250 d7 1a 16 3d d9 2f 84 3d 9e 60 e1 bc 76 87 8f 3d
       0.03664669 0.06454439 -0.027511891 0.07008259
000260 d6 3e e6 3d 42 0a 9d bd c4 e4 85 bc 40 fb e6 bd
       0.11242454 -0.07667972 -0.016344436 -0.11278391
000270 4f c1 8b 3d 1a ec c8 3d 45 0e 2e bd 64 da 95 bc
       0.0682398 0.09810658 -0.042494077 -0.018292613
000280 a4 19 cd 3c 27 42 bf bd 94 ee 31 bd 5d ec a7 bd
       0.02503664 -0.093387894 -0.043440416 -0.081993796
000290 1f 9b fc 3b 8b e2 1a bd 58 74 4e bc 80 15 e6 bd
       0.0077089216 -0.037813704 -0.012600981 -0.112345695
0002a0 1d 76 eb bd fd b1 b4 3a 8d 48 a4 bd e6 19 1e 3d
       -0.11497138 0.0013785955 -0.080216505 0.038598917
0002b0 22 74 7b bd c8 ba 3d bc 3d 04 d3 3d f3 14 1e be
       -0.06139005 -0.011580177 0.10303543 -0.15437679
0002c0 2a 2b 96 3d 47 a4 9d bd 0f 23 b7 3d 05 14 8c bd
       0.07332452 -0.07697349 0.08942234 -0.06839756
0002d0 6e ad 04 bb 21 1b 92 bc 8f 87 31 3d c7 85 45 3d
       -0.0020244974 -0.017835202 0.04334217 0.048223283
0002e0 b5 0d 8f bd 48 b3 73 bc 5f 5d 88 bb 96 09 10 be
       -0.06985036 -0.014874287 -0.0041615213 -0.14066157
0002f0 89 a0 3d 3d 39 8f d4 bd ee 4a 08 bd 4a f8 b6 3c
       0.046295676 -0.1037888 -0.033274584 0.02233519
000300 88 f7 8d 3d be 74 66 bc 33 ed 28 3d a7 22 2c bd
       0.069319785 -0.014065919 0.041241836 -0.042025235
000310 01 c7 bc bc c5 7a b3 3c 3a 46 81 3d 8d 91 94 3a
       -0.023044111 0.021909127 0.06312223 0.0011334881
000320 33 ee de 3c fc 3f 1f bc 77 58 07 bd 5b 8f 26 be
       0.027213192 -0.009719845 -0.03304335 -0.16265623
000330 7b 67 95 bd 24 8a a7 3d 5f 82 77 3c 45 ba 1c 3d
       -0.07295128 0.08180645 0.0151067665 0.038263578
000340 ff f8 a8 3c a6 a0 87 bc 64 d4 9a 3d 02 0f 5e bb
       0.020626543 -0.016556095 0.075600415 -0.0033883457
000350 67 af d5 3d 0b 2d 9c bd 9f 2d a3 3b cc e7 ce 3c
       0.10433846 -0.07625779 0.0049798037 0.025257014
000360 0e de b0 3c 67 43 e1 bd 32 6f b7 ba 87 0e 36 3d
       0.021590259 -0.10999184 -0.0013994931 0.044447448
000370 97 c5 88 bd eb 08 30 3c b0 5b 91 3d 10 1f 04 be
       -0.06678312 0.010744314 0.07097566 -0.12902474
000380 80 d0 f3 b9 75 c3 55 bc a9 50 c6 bb e4 69 b6 bc
       -0.00046503916 -0.013047089 -0.006052096 -0.02226729
000390 af 1b 3b 3e 9d 6a aa bb 1c a1 ab 3d 30 4c 5b bd
       0.18272279 -0.0052006976 0.083803385 -0.053539455
0003a0 a6 7e aa 3c 8f e8 1b be 94 f4 f8 bc 62 29 00 be
       0.020812344 -0.15225433 -0.030390061 -0.12515786
0003b0 27 62 81 3c 3a 38 ba bd 0a 64 55 3c 9a f8 28 be
       0.015793873 -0.090927556 0.013024339 -0.16501084
0003c0 c5 36 0a bd 93 39 a1 3d 10 64 32 bc 01 13 bf bc
       -0.03374364 0.078723095 -0.010888115 -0.023324491
0003d0 75 8a e1 3b 8d c2 fc 3d dd b3 c5 3d b4 6a 4b bc
       0.0068829604 0.12341795 0.09653447 -0.012415577
0003e0 d2 99 be 3d 0e ca e6 bd 5c 57 57 3d 01 54 d3 3b
       0.09306683 -0.112690076 0.052573547 0.006449223
0003f0 cb 17 95 3d 33 f2 87 3d d3 12 95 bc 97 a5 92 bc
       0.07279929 0.06637993 -0.018197453 -0.017901225

network_body._body_endoder.seq_layers.4.bias f4 [256]
000000 5d 8c 5d bb 8e 12 41 3c 5e 1b cc 3b 0d d3 6d bc
       -0.0033805587 0.011784209 0.0062288484 -0.01451565
000010 e6 8f 03 3c e5 72 79 bc ff b2 83 bc 51 47 5b bc
       0.0080299135 -0.015225147 -0.016076563 -0.013383702
000020 3f 3c 27 bc 7a 5e 0c 3c 9c 96 97 bc 33 e9 0d bd
       -0.010207235 0.008567447 -0.018504433 -0.034646224
000030 a0 fb 87 bc 63 de 33 3c 30 2a c3 bc a8 65 c6 bb
       -0.016599476 0.010978314 -0.023823828 -0.006054599
000040 71 a9 58 bc eb f9 8f bc 7f 3d 68 bc 84 95 ab bc
       -0.013223992 -0.017575225 -0.014174818 -0.020945318
000050 cd 2c a2 bc a9 d4 18 bd 6f 34 3b bb a3 37 e3 bc
       -0.019796753 -0.037312184 -0.0028565188 -0.02773649
000060 fe 8f f8 bb f3 2f ae bc ce 97 38 39 4b fa e2 bc
       -0.0075855246 -0.021263098 0.00017604159 -0.02770724
000070 81 0d b6 bc 0f d0 96 bc 8a 8e 86 bc 5c 47 38 bc
       -0.022223236 -0.018409757 -0.01642539 -0.011247482
000080 af f7 13 3c 4d 26 ea bc 74 1d 3a bc 57 08 7b 3b
       0.00903122 -0.028582716 -0.011359561 0.0038304531
000090 02 84 b3 3a 44 a8 87 bc a4 ee f6 3b 9c 6f f4 b9
       0.0013695958 -0.016559727 0.0075357724 -0.00046622462
0000a0 a5 29 6f bc 22 fe 8d bc b2 0e 78 bc 5f be 42 bc
       -0.014597331 -0.017333094 -0.015140222 -0.011886208
0000b0 d2 df 99 bb 60 03 38 bc 39 35 1d bc f1 26 b0 bc
       -0.004695871 -0.011231273 -0.009595209 -0.021502944
0000c0 90 d8 41 3c b6 76 43 bc 36 8b e7 bc 13 ac 4e bc
       0.011831418 -0.011930158 -0.028264623 -0.012614268
0000d0 17 26 dc bb a5 07 70 bc a2 b3 36 bc 2b 24 d1 bc
       -0.006718408 -0.01465026 -0.011151226 -0.025529942
0000e0 f0 6e 7d 3b 7d 5c eb bb ca f4 74 bc 70 79 01 bc
       0.003867086 -0.0071826563 -0.01495094 -0.007902488
0000f0 2a 54 03 bc a4 55 77 bc 3d df 65 bc 71 db 97 bc
       -0.008015672 -0.015096102 -0.014030275 -0.018537255
000100 32 92 5f bc 5a 4d 86 bc 4c 16 1f 3c 5d 61 94 bc
       -0.0136456955 -0.016394306 0.009709906 -0.018112833
000110 19 2a fe bc c2 ab bc bc c4 c2 41 bc e9 83 98 bc
       -0.031025933 -0.02303112 -0.011826221 -0.018617587
000120 b6 6a aa bc f8 9b 73 bc 5a f6 9c bc 86 44 aa bc
       -0.020802837 -0.014868729 -0.019160438 -0.020784628
000130 98 25 51 bb b4 f0 69 bc 9e 1e 12 bc ed 1a a0 bc
       -0.0031913277 -0.0142785795 -0.0089184325 -0.01954409
000140 72 ad 60 bc d4 a2 1a bd ec 08 47 bc e5 48 c3 bc
       -0.013713228 -0.03775294 -0.012148123 -0.02383847
000150 de d3 4d bc 6e 81 2c bc d5 c7 08 bc d3 9c 9e bc
       -0.01256272 -0.010528905 -0.008348425 -0.019361889
000160 1c 95 fd bb 91 e5 3c bc 02 64 73 bb 62 0e ce bb
       -0.0077387225 -0.011529342 -0.0037138467 -0.0062883357
000170 5d 9a 3b bd 04 89 ac bc c0 fd 84 bc d1 62 61 3a
       -0.04580151 -0.021061428 -0.016234279 0.00085977936
000180 13 ad d1 bc bb 2a ae bc be 0f 1a bb ac d5 1f bc
       -0.025595224 -0.02126061 -0.0023507918 -0.009755533
000190 da 81 c5 bb 29 7d d7 bc d4 71 a4 bc f2 ea 16 bd
       -0.0060274424 -0.026304798 -0.020073809 -0.036845155
0001a0 0f 70 9d bc 9f 79 77 bb f7 6a 98 bc 12 8e 2b bb
       -0.019218473 -0.00377617 -0.018605692 -0.002617721
0001b0 f5 f1 96 bc c3 80 9e bc d3 3f d9 bb 3c 08 8a bb
       -0.018425921 -0.019348508 -0.006629923 -0.0042124074
0001c0 35 43 75 bc f6 21 69 bc a9 94 52 bc 27 97 4f bc
       -0.014969637 -0.014229288 -0.012852826 -0.012670315
0001d0 cf 54 c0 bc 95 b6 47 bc 68 ee c6 bc 25 41 d3 bb
       -0.02347794 -0.012189527 -0.024283603 -0.006446975
0001e0 7e 06 19 bc ca 8f 53 3c 7b 02 3a 3c 6c b7 69 bc
       -0.009339927 0.0129127 0.01135313 -0.014264923
0001f0 f1 a8 94 bc 51 a8 c4 bb 52 db 04 3a 44 d9 a4 bc
       -0.018146964 -0.00600151 0.00050680817 -0.020123132
000200 b1 00 b0 bc 99 1c 63 bb df 96 fa ba 48 41 e8 bc
       -0.021484705 -0.0034654497 -0.0019118449 -0.028351441
000210 99 1a b2 bb 0c 9c da bb 0c 17 ff 3b bc 51 99 bc
       -0.0054352996 -0.0066714343 0.00778473 -0.018715732
000220 ac d8 03 bd 0a 04 4a bc 1f d6 2f bc af 87 ff bb
       -0.032189056 -0.012330065 -0.010732203 -0.007798157
000230 34 00 0d bd 1d b1 0a bc 8b f7 75 bc d4 63 00 3c
       -0.03442402 -0.008465079 -0.015012632 0.007836301
000240 0f d0 b0 bc a8 96 d7 bb 58 8c 08 3c dd 78 9f bc
       -0.021583585 -0.006579239 0.008334242 -0.019466812
000250 6b 63 9e bc bd 05 0c bc 8b 09 2d bc 6f 8a 62 bc
       -0.019334516 -0.00854629 -0.010561357 -0.01382695
000260 9a db 97 bc fc e4 c5 bb 0c 17 8f bb 42 82 22 bc
       -0.018537331 -0.00603926 -0.004366761 -0.009918751
000270 eb 12 af bc d3 3e a6 3b 4d fc 44 3b ee 66 c8 3b
       -0.021371325 0.005073407 0.003005761 0.006115786
000280 68 bd c7 bc 2c 21 08 bc b2 36 20 bc 6c f0 b1 3c
       -0.024382308 -0.00830869 -0.009778665 0.021721087
000290 07 26 b5 bc 92 0e 87 bc fb 8e 67 ba 67 23 99 bc
       -0.02211286 -0.01648644 -0.00088332564 -0.018693639
0002a0 60 c3 4c 3a 41 7e 9b bc c0 c9 84 bc 64 dd 0c bd
       0.00078110956 -0.018981101 -0.016209483 -0.034390822
0002b0 24 da dd bc b8 6c ad bc 3f 93 24 ba 36 1c 1f bd
       -0.027081557 -0.021170005 -0.0006278045 -0.038845263
0002c0 67 34 e7 bc fa 1b 29 3c a8 69 83 bc b8 35 a7 bc
       -0.02822323 0.010321612 -0.016041592 -0.020411357
0002d0 78 69 98 bc 1b fb 90 bb 76 27 40 bc a4 a1 bb bc
       -0.018604979 -0.0044244654 -0.011728158 -0.022904225
0002e0 ae 68 99 bc cf db 9b bb 18 1a b1 bb 5c a9 7a bc
       -0.018726673 -0.004756428 -0.005404722 -0.0152991675
0002f0 99 46 b7 bc 60 02 c7 ba 77 d8 10 bc 44 12 8e bc
       -0.02237253 -0.0015183203 -0.008840672 -0.017342694
000300 9b e5 f9 bb 45 ea 56 bc 8b fa d8 bb 57 79 9b 3b
       -0.007626248 -0.013117378 -0.006621664 0.0047446894
000310 bb 11 da bb 6b 11 4b bc 19 56 8e bc a3 48 89 bc
       -0.0066549457 -0.0123942895 -0.017375039 -0.016758269
000320 b9 a5 8a bc d8 3f a4 bc 80 e6 61 bc ff 30 fe bc
       -0.016924726 -0.020049974 -0.013787866 -0.031029223
000330 a8 e6 d6 bc 0b f1 85 3a 45 c7 76 bb 8e 17 59 bc
       -0.026233032 0.0010218931 -0.0037655395 -0.013250245
000340 b0 44 d3 bc f8 9c e9 bb 2c 06 6f bc 4e 5d bd bc
       -0.025789589 -0.007129308 -0.014588874 -0.02311578
000350 3c b7 01 bc d5 49 83 bc 1b b4 08 bc 83 2d c1 3a
       -0.007917222 -0.016026417 -0.008343722 0.0014738295
000360 23 e4 be bc 8e 22 6a b9 d4 54 0d bc 1a 00 25 bd
       -0.023302143 -0.00022328852 -0.008626182 -0.0402833
000370 05 d4 d8 bc 17 4d bb bc 87 3d 52 bc 5e e2 c8 bb
       -0.026468286 -0.022863908 -0.012832052 -0.0061305007
000380 62 f4 d6 ba b5 42 dc bc 18 77 b8 bb b8 74 9b bc
       -0.0016399736 -0.026887277 -0.0056294315 -0.018976554
000390 20 c5 7c bb 55 29 8a bc 5a bb 7b bc bc f0 3a ba
       -0.0038569644 -0.016865412 -0.015364492 -0.0007131209
0003a0 af 52 b0 bc 25 c7 88 bc 06 c1 88 bc 59 43 77 bc
       -0.021523802 -0.016696522 -0.016693603 -0.0150917405
0003b0 09 be 07 3c 28 f3 20 3b 02 2d 94 bb b0 59 3d bc
       0.008285054 0.0024558995 -0.004521967 -0.011557028
0003c0 18 6b b5 bb 07 97 c5 3b 9c 34 5e bc ba 5b 2b 3c
       -0.005536448 0.0060299668 -0.013562348 0.010458881
0003d0 57 7c 23 bb 55 b1 9f bc 76 b5 c5 bc 9f ac a4 bc
       -0.0024945938 -0.019493738 -0.024134379 -0.020101843
0003e0 e3 79 87 bc 81 22 c2 bc c6 5c 31 bc bc e8 04 bd
       -0.016537612 -0.023698093 -0.010825342 -0.032448515
0003f0 2d 6a 53 3c 9d e2 ad bc 27 c2 9d bc e7 38 06 bd
       0.012903732 -0.021226222 -0.019257618 -0.03276911
