Assets/Training/results/Run 11/DroneBehavior/DroneBehavior-2999814.onnx (onnx, 704152 bytes, 23 tensors)

115 f4 [25]
00000000: f8bb d83e cec6 d83e 845a 173a 1a79 ff3e
00000010: 360d 343e 3308 c93e 8c03 cf3e cdb3 813b
00000020: 026f fa3e 60d9 293e b73f ee3e b7c7 ca3e
00000030: c81b 873b 8fed ff3e 8004 3e3e 0bbf c13e
00000040: 3eb3 a73e 3fc4 043c 699a e93e 507c 163e
00000050: 8414 ec3e 6ba4 9f3e d48a 263c 8a59 fc3e
00000060: 9a81 3a3e
0.4233091 0.42339176 0.0005773681 0.4989708 0.17583165 0.39264068 0.40432394 0.0039582015
0.48912817 0.16586828 0.46532986 0.39605495 0.004123185 0.4998593 0.18556404 0.37841067
0.32753938 0.008103429 0.45625618 0.14695859 0.46109402 0.31180128 0.010164935 0.49287063
0.18213502

118 f4 [25]
00000000: e6bb d83e d8c6 d83e 845a 173a 1979 ff3e
00000010: 350d 343e aebb dc3e f41d d13e c945 1a3c
00000020: 1e1d ff3e 6d44 313e 1eca df3e a8d3 cd3e
00000030: 655e 5a3c a32e ff3e 296e 2f3e 3696 df3e
00000040: cf84 a33e 370b 8f3c 007b f73e 33f8 273e
00000050: 62db ed3e d94d a33e 9324 7e3c 5e80 fd3e
00000060: e41b 2c3e
0.42330855 0.42339206 0.0005773681 0.49897078 0.17583163 0.43111938 0.40843165 0.009416052
0.49826902 0.17311259 0.4370889 0.40200543 0.0133281695 0.49840268 0.17131867 0.4366929
0.31937262 0.017461402 0.4833603 0.16403274 0.46456438 0.3189533 0.01551165 0.49512
0.16807514

121 f4 [25]
00000000: 3a56 bb3e e870 353e 56d5 a93c fdb4 c93e
00000010: 6f4f 2f3e 7fd1 773e 7530 2b3d 0ff6 413d
00000020: da13 7f3e 6d64 a73d 7f81 b53e 02f3 123d
00000030: 19d8 6a3d b1cf b73e d89c fd3d 1fc9 963e
00000040: a639 183d a30c 2c3d 59f9 983e 3d23 e73d
00000050: 1fc9 963e a639 183d a30c 2c3d 59f9 983e
00000060: 3d23 e73d
0.36589223 0.17718852 0.02073161 0.39395896 0.17120145 0.2420101 0.04179426 0.0473538
0.24909917 0.081734516 0.3545036 0.03587628 0.057334993 0.35900643 0.12383431 0.29450318
0.037164353 0.04200424 0.29877737 0.11286018 0.29450318 0.037164353 0.04200424 0.29877737
0.11286018

124 f4 [55]
00000000: 1f12 333e 8c02 323e 303e a63c 4921 793e
00000010: 275a fa3d 2c15 063e 42cd 173e 050b 1a3d
00000020: 15df 4b3e 5cb7 b33d a753 723e 92b0 173e
00000030: cd89 1b3d 4797 8d3e d0d4 fa3d b231 e23d
00000040: 7c33 4d3d cf67 953d a61e 103e eb2a 4b3d
00000050: 2f16 323e 9048 3e3d 560f 6d3d bda5 403e
00000060: 6260 923d edbc c93d 0fb0 9b3c 0122 d63c
00000070: f91a d43d 1b9d 2d3d 36ee 053e 845a 173a
00000080: aa9f dd3c caaa 083e feb3 383d 7f35 1e3e
00000090: 6414 473c 2d42 643d 6025 283e c123 ac3d
000000a0: e492 453e 845a 173a 58bb 5a3d d36f 4c3e
000000b0: 8895 a43d 21a6 eb3d 845a 173a cb53 393d
000000c0: 0ec2 fc3d 9427 883d 21a6 eb3d 845a 173a
000000d0: cb53 393d 0ec2 fc3d 9427 883d
0.17487381 0.17383784 0.020293325 0.24329104 0.122242264 0.13094014 0.14824393 0.037608165
0.19909318 0.087752074 0.23664723 0.1481345 0.037973214 0.27654478 0.12247622 0.11044635
0.050097927 0.072951905 0.14074191 0.049601477 0.17391275 0.04645592 0.057875954 0.18813224
0.0714729 0.09850488 0.01900485 0.026139261 0.10356707 0.042386156 0.13079152 0.0005773681
0.027053673 0.13346401 0.04509353 0.15450095 0.012150858 0.055727173 0.16420507 0.08405257
0.19294316 0.0005773681 0.05340132 0.19964533 0.08036333 0.11506296 0.0005773681 0.045245927
0.123417005 0.06648174 0.11506296 0.0005773681 0.045245927 0.123417005 0.06648174

127 f4 [25]
00000000: 720d e43d 7597 323e 56d5 a93c 5ce7 523e
00000010: 5da3 cc3d 7e3b 333d 096d ad3c 0ff6 413d
00000020: 96ca 8a3d 5055 f23c 8afa 423d c578 e83b
00000030: 19d8 6a3d 7416 993d 6b31 fb3c b9ac a13d
00000040: c578 e83b 7ced 3e3d 9800 bc3d ee48 593d
00000050: b9ac a13d c578 e83b 7ced 3e3d 9800 bc3d
00000060: ee48 593d
0.11135377 0.17440589 0.02073161 0.20596069 0.099920966 0.043757908 0.021170156 0.0473538
0.067769215 0.029581696 0.047602214 0.007094475 0.057334993 0.07474986 0.030663213 0.07894272
0.007094475 0.0466132 0.09179801 0.053048067 0.07894272 0.007094475 0.0466132 0.09179801
0.053048067

130 f4 [6]
00000000: 586e eb3e f949 8e3d 586e eb3e f949 8e3d
00000010: 596e eb3e f949 8e3d
0.45982623 0.06947703 0.45982623 0.06947703 0.45982626 0.06947703

133 f4 [3]
00000000: eae4 3741 9c64 983f 29d2 5341
11.493387 1.1905704 13.238809

action_model._continuous_distribution.log_sigma f4 [1, 3]
00000000: 4dcb 8e3d 3797 2f3d 5823 623d
0.0697237 0.04286882 0.055209488

action_model._continuous_distribution.mu.bias f4 [3]
00000000: e21b 94bb 3b24 523c 4035 673c
-0.0045199255 0.012826021 0.014111817

action_model._continuous_distribution.mu.weight f4 [3, 256]
00000000: 6b82 e43c 630a 02bc a205 613a d5bc 753c
00000010: 798f 203a 386d 2d3d c1a4 563c 7612 3dbb
00000020: f89c c4bc 9014 833c e835 82bb bb01 5d3b
00000030: 5a46 ab3b 33b8 c2bb 49ca 083c 3863 333c
00000040: 3244 fd3c d68f d339 3b96 e13c e6f7 223c
00000050: d1a2 e43b a397 0f3a 9202 b43c 5f42 0b3a
00000060: 01bb 9dbc c1eb 8e3c a66c 9f3c 0e94 883c
00000070: 10fa 82bb 6796 543c c48e 193c cfde 313c
00000080: 7dc9 a0ba 3553 dcbb 7eff 363c ee11 5a3b
00000090: 3e03 923c 4355 f5bb d828 31bb aaac a73c
000000a0: 5f33 2d3c 178a 0cbb 2c7f ddbb 88d4 533c
000000b0: a288 10ba 5a8c 763c fa5e 7f3c 5aa7 c5ba
000000c0: fc0c a03b e43e f53b 61af b8b9 e06d d43b
000000d0: 7f86 ed3b 5926 d13b dc21 783c ced0 163c
000000e0: 2633 8c3c 5e47 833c dac6 283b bd8c 1b3c
000000f0: bfa0 b73a 3bed 033c 571d bc3b b7fe d53c
00000100: f77c 8abc 44c8 933c fde1 4fbc 8c09 f93b
00000110: 8dd5 093c e112 503b 19bb 2f3c 2dda 9c3a
00000120: 6ba7 123c 937a d33c 5245 913b 3701 233c
00000130: 6936 a33c fab2 63bb 0a43 ed3b 148c 063d
00000140: 9ef6 2a3c e729 873c 1f53 473c dae9 f13b
00000150: 57c0 e93b 811b 043b e852 4c3c b2bc 863c
00000160: 252d 173c ec82 6f3b 8ae1 d0bb 7e23 0e3c
00000170: 20c9 a0bb 07ce 9abb 1a88 fdbc 79d3 813c
00000180: 0906 1ebb 4087 dcbc a8cf 8dbc bdb7 7e3b
00000190: bfb0 06bb 08d1 743c 1342 8e3c 9a01 cd3b
000001a0: 4657 4cbb ea7b 7e3c b37a f73b 3c72 153c
000001b0: 38fe d23c 4cf4 8ebc 1c8c 323c 699e 573b
000001c0: a351 1fbc d5cd a139 38e8 563c 96a0 643c
000001d0: bd42 363c 2d0c 193c d128 c33b d6d6 86bc
000001e0: 8caa cf3a c926 d23b d151 6b3c db00 093d
000001f0: 9c2b 243b 11df e03b 0786 c33b 0eaf 973c
00000200: 39f0 e2bb 06aa 01bd 0411 87bc 2e65 313b
00000210: 1453 8abc 289a 9b3c 9d4b 943c 841a 17bc
00000220: eb4e 803c 6373 08bd f195 3dbc 79ec 493c
00000230: d8e7 caba 6b1d b13c 1825 86bc 899f 573c
00000240: 9c18 bf3c 9414 a8ba 3e73 b13c a853 63bb
00000250: f5b5 363c a6d4 f5bc 5cab 9b3c 55bc d73a
00000260: 2b30 123c 0eab a9ba 2ab9 7b3b 79a7 ba3b
00000270: 5376 91bc 54b0 403c 9b6a 82bc 131a 1c3c
00000280: 5811 8f3c c57c 2dbd 0299 403c 0af6 243c
00000290: 2400 983c 9e60 d2bb 2f40 f23b c828 963b
000002a0: f107 813c 458d 79bc 0f3d c339 f09e 9a3c
000002b0: 74c1 0b38 117b 263b c7e2 81bc a9dc d7bc
000002c0: 6c53 9c3c 7259 a5bc f379 183c a756 37bc
000002d0: 5f9e 68ba a9ad e9ba ec1f 593c fe03 b13c
000002e0: 1e0a d4bc 36b5 b13c daf3 383c 738f 5a3c
000002f0: 70ba 09bc 120c 2b3c 38cc 06bc b953 a8ba
00000300: e549 763c 21a5 ebbb 2db6 a63c 7ec5 9fbc
00000310: 4063 a83c 667d 433c 14a3 73bc 47a3 9d3c
00000320: 37b0 323b 0d4e 803c 347f 873c 44a2 5e3c
00000330: ae9f 2abc f181 843c a6f3 ef3b b9aa df3b
00000340: 3787 ba3c 884c 34bc 0dbb 05bd 9c51 b5bc
00000350: 8057 50bc eeb3 053c 11e5 68ba f9a9 fcbc
00000360: 5d31 373b 7275 393c 103f 86bc 8f4c 45bc
00000370: 8ab2 6c3c d2ef abbb 91ae a0bb 085d 443c
00000380: fdbe 29bb f815 4d3c 9abf b73c b69f 843c
00000390: 11ef e93b 7571 dd3b 60bf 7a3b 8932 493c
000003a0: 913a 49bc b84d c43a 16ae a43c fc6b 733c
000003b0: 6cc0 943c 600d 3d3a 1e30 3ebc 5446 d0ba
000003c0: 1273 1a3c 2917 803b d56f 30bb 0160 91bc
000003d0: abd3 ff3c 7834 9c3b 6ef2 fcba e4f5 493c
000003e0: a64b 353c 6447 3f3c 2ea0 973a 0ed0 a83c
000003f0: 44dc 34bb a20c 0e3c 3637 37bc 25a9 783b
0.02789422 -0.007937047 0.0008583908 0.014998634 0.0006124895 0.042340487 0.013100804 -0.0028850115
-0.02400063 0.016001016 -0.0039737113 0.0033722955 0.0052268924 -0.0059423684 0.00834901 0.010948949
0.030916307 0.00040352222 0.027537456 0.009946799 0.006977417 0.0005477613 0.021973882 0.0005312319
-0.01925421 0.0174464 0.019460987 0.01667216 -0.003997095 0.012975312 0.009372417 0.010856344
-0.001226708 -0.0067237862 0.0111693125 0.0033274847 0.017823812 -0.0074869706 -0.0027032401 0.020468075
0.01057133 -0.0021444613 -0.006759545 0.012929089 -0.0005513524 0.015048111 0.015586609 -0.0015079782
0.0048843604 0.007484304 -0.00035225882 0.0064828247 0.007248699 0.006382745 0.015144791 0.009205056
0.017114233 0.016025241 0.002575329 0.009494004 0.0014009698 0.008052166 0.0057408023 0.026122434
-0.016905291 0.01803983 -0.012688157 0.007600015 0.008412731 0.0031749534 0.01072576 0.0011966877
0.008951048 0.025815284 0.0044333125 0.00994902 0.019923406 -0.003474413 0.0072406577 0.032848433
0.010434775 0.016499473 0.012165814 0.0073826136 0.0071335244 0.0020157995 0.012470938 0.016447399
0.009227072 0.0036546541 -0.0063745426 0.008675454 -0.0049067885 -0.0047242674 -0.030948687 0.015847908
-0.0024112484 -0.026919961 -0.017310932 0.003886684 -0.0020552126 0.014942415 0.017365491 0.0062562944
-0.0031179949 0.015532473 0.0075524687 0.009121474 0.025755987 -0.017450474 0.0108976625 0.0032900816
-0.009724054 0.0003086167 0.013116889 0.013954302 0.01112431 0.009341282 0.0059557934 -0.016459864
0.0015843674 0.006413315 0.014362768 0.03344808 0.0025050407 0.006862529 0.005966905 0.01851609
-0.0069256094 -0.031656288 -0.016487606 0.0027068364 -0.016885318 0.018994406 0.018102461 -0.00922263
0.015662631 -0.033313166 -0.011571393 0.012324446 -0.0015480472 0.021620473 -0.01637511 0.013160595
0.023327164 -0.0012823516 0.021661397 -0.0034687314 0.01115178 -0.030008625 0.019002609 0.0016459326
0.008922617 -0.0012944655 0.0038409927 0.005696234 -0.017756617 0.01176079 -0.015919974 0.009527701
0.017464325 -0.042355318 0.01175523 0.010068426 0.018554755 -0.006420209 0.007392905 0.004582498
0.015750857 -0.015231435 0.0003723879 0.018874615 3.332035e-05 0.0025402943 -0.015855206 -0.026350336
0.019082747 -0.020184252 0.009306419 -0.011190093 -0.0008873697 -0.0017828244 0.01325224 0.021608349
-0.02588373 0.021692853 0.0112886075 0.013339865 -0.008406267 0.0104398895 -0.0082274005 -0.0012842334
0.015032266 -0.0071913158 0.02035054 -0.019503351 0.020555139 0.011931753 -0.014870424 0.019242896
0.0027265677 0.015662218 0.016540147 0.013588492 -0.010414047 0.016175242 0.0073227463 0.0068257716
0.022769554 -0.011004575 -0.03264909 -0.022133641 -0.012716174 0.008160574 -0.0008884231 -0.030842768
0.0027953007 0.011319505 -0.016387492 -0.012042179 0.014446864 -0.0052470947 -0.0049036224 0.011985071
-0.0025901191 0.012517445 0.02243023 0.016189437 0.0071390946 0.00675791 0.003826104 0.012280115
-0.01228203 0.0014976775 0.020102542 0.014857288 0.01815816 0.0007211771 -0.011608152 -0.00158901
0.009426849 0.003909011 -0.0026922126 -0.017745974 0.03122886 0.004766997 -0.0019298324 0.012326691
0.011065399 0.011674736 0.0011568123 0.02060702 -0.002759711 0.008670004 -0.011182597 0.0037942615

network_body._body_endoder.seq_layers.0.bias f4 [256]
00000000: 460e 8fbc e2b4 ddbc 2af4 87bd a91f db3c
00000010: 0064 febc 66cb 91bc 3d20 09bd 68bc a9bc
00000020: 65c2 8ebc cd2a 82bc f30d 5abb 5996 b7bc
00000030: d498 e8bc 18ae b5bc 6d5f 53bb 43f4 e7ba
00000040: 1636 f6bc 4e52 0bbc 403e 8bbc 3561 0dbd
00000050: 8d58 c3bc b92e 3abc 1db6 ecbc a863 353b
00000060: 8fca e33a 304e b8bc 7205 15bd aa3a 03bc
00000070: 3315 7e3b 69eb 15bd d4e0 58bd 0fa6 41bc
00000080: f28b 56bb d28a 06bd c653 09bd 3518 49bc
00000090: 3df1 1ebd db64 cfbc 8c96 b43a 9c0d 01bd
000000a0: 0c61 7ebc 207b dfbc e8e1 13bc c117 19bc
000000b0: 2c26 09bd 5725 eebc 9331 b9ba 0345 0abb
000000c0: a4a5 3f3d aa50 4e3c 24cb 9dbc b4ec bcbc
000000d0: 817d 0ebb f63f 563b 98b4 0eba f958 2abd
000000e0: 9898 b5bc da4f d9bc 6fe4 40bc 6586 a4bc
000000f0: fd56 c3bc 39d9 c83c c6c4 04bd c8e6 93bc
00000100: 2f35 97bc 6c63 fabc c993 c9bc 3db5 353c
00000110: f121 03bd e85e d5bc 4c6c ffbc 2bfd 32bd
00000120: b8d4 1fbd 9e81 cdbc 8d74 b1ba 6a16 cabc
00000130: 5740 ccbc b35f aabc f0f8 34bd dccf 47bb
00000140: 52d1 febc a484 2abd d19f 02bd 07fb 43bc
00000150: acbc ff3c 6aaa 073c 17df 82bc 936d a6bc
00000160: 1bfc 98bc 0469 003c c80a ca3a 2219 3bbd
00000170: e33f 30bd a95b 943b be5f a53b a585 ca3c
00000180: 7176 f4bb 12cd 34bd 1ff6 c13c 5e21 84bb
00000190: e98b 2abd 807f 11bc 43e2 09bd ff2a 1ebc
000001a0: 2d58 923c 3c42 33bd 9385 05bd 3ac2 00bb
000001b0: db83 b93b 8009 933c 615e c5ba 05a9 bdbc
000001c0: 6305 1ebd 07fe ccba b195 10bd ce8f 15bd
000001d0: 49ff 18bd 708d 34bd dd92 eabb 9a66 a2bc
000001e0: baed 26bc bff6 6bbb 9ae5 343b 9517 85bc
000001f0: 1fdf 69bc f0a0 afbc 7e89 c8bc 9ec5 4e3c
00000200: 50a6 dabc 9cac 86bb 9a13 39bd 2cac 52bc
00000210: 366b cabc bfe2 d9bc 50a3 80bb 4771 83bb
00000220: 88fd ddbc d727 5cbb d331 0ebd fd9d bd3b
00000230: 9240 5ebd b035 d6bc fc83 55bc 6514 a73c
00000240: 667a e6bb 34f2 0dbc 5582 513b f587 20bd
00000250: 75f6 dcbb 60c9 d0bc 9869 79bb 21d6 6bbc
00000260: 18e6 c93c 527c 11bd 27cd 863c 55e6 38bc
00000270: e8ce 20bd c515 c8bb f5f3 fbbc 84e4 0cbc
00000280: 0a0e d5bb ca75 00bc 2043 e5bc d5ac 8abc
00000290: 0210 aebb 9535 a33b bc3a 003b 3d2c b4ba
000002a0: 57e9 dbbc 3fcf 093d 9e5a 85bc bf48 08bb
000002b0: b5a5 20bd accf a3bb 71f6 64bc 978f 1abc
000002c0: 1f94 27bc 5ac6 893b 622f f6bb 0343 f9bb
000002d0: 9343 053c 3bb7 abbc 890d 2f3d 4af3 d1bb
000002e0: 3a0b 98bc 0af0 abbc 1191 3bbc e76d d6b9
000002f0: 3db4 b239 748a b7ba d8ff ffbc c879 7ebc
00000300: 4c6b 2cbc 901f 75bc 327e 98bc 4cc8 26bb
00000310: ae57 c2bc 2d93 72bc 8d81 0f3b 05e1 adbc
00000320: fc10 7e3c 24bb 37bc 5301 0cbd b098 8dbc
00000330: afa5 25bd e07d 483c 6de1 1cbd f488 0dbd
00000340: 88a3 c9bc 92cd 9ebb 87d5 85bd 3755 2fbd
00000350: 18df 1fbd d4e3 03bd 5beb db3c 6232 3bbb
00000360: c205 9cbb 9d59 c4bc ca1c 06bd 3306 0cbb
00000370: 3505 96bc 6c44 c0bc b922 ac3c bcee 9ebb
00000380: 192c 30bc 214a c8bc 92a0 bdbc 3dca 8abc
00000390: 8994 cabc e287 3b3c 7623 1abc 0209 41bc
000003a0: 3adb 98bc 7f8e fbba 40ae c6bb f737 35bd
000003b0: aa8f 15bd 1be0 98bc 6007 dcbc 6371 73bc
000003c0: 8bed 243c e25e b3bc 5205 a9bc 23aa febc
000003d0: 9035 b6bb 3cc5 10bc 80de e1bc 4a8e 3cbd
000003e0: 7580 f4bc 32b5 143c bce6 eebb d431 21bc
000003f0: fa1b 81bc 5d76 a4bb cc3d 99bc f6f5 7ebc
-0.01746286 -0.02706379 -0.066383675 0.026748495 -0.031053543 -0.017797183 -0.03347801 -0.020719722
-0.017426679 -0.01588955 -0.0033272475 -0.022410559 -0.028393187 -0.022177741 -0.0032252923 -0.0017696697
-0.030055087 -0.00850351 -0.016997457 -0.034516532 -0.023845935 -0.011363679 -0.028895432 0.0027677808
0.0017379093 -0.02249822 -0.036382146 -0.008009592 0.003876996 -0.036601458 -0.052948788 -0.011819377
-0.0032737223 -0.032847233 -0.03352716 -0.012273838 -0.03880428 -0.025316646 0.0013777777 -0.03150712
-0.015526067 -0.02728039 -0.009026028 -0.009344042 -0.03348367 -0.02907054 -0.0014129154 -0.0021098263
0.046788827 0.012592474 -0.019261904 -0.023062088 -0.0021742287 0.0032691932 -0.00054437807 -0.041588757
-0.022167489 -0.026527334 -0.011773213 -0.020083616 -0.02384519 0.024517642 -0.03241422 -0.018054381
-0.018457977 -0.030564986 -0.024606602 0.011090574 -0.03201479 -0.026046231 -0.03117957 -0.04369847
-0.039021224 -0.02508622 -0.0013538763 -0.024668891 -0.024933023 -0.020797586 -0.044182718 -0.0030488884
-0.031105671 -0.041630402 -0.031890694 -0.011961705 0.031217895 0.008280376 -0.015975518 -0.020315921
-0.0186749 0.007837538 0.001541459 -0.045678265 -0.043029677 0.0045275283 0.0050468137 0.02472193
-0.0074604084 -0.044140883 0.02367693 -0.004032298 -0.041637335 -0.008880496 -0.033663046 -0.009653806
0.017864311 -0.043764338 -0.03259809 -0.0019647018 0.0056614703 0.017948866 -0.0015058034 -0.023151884
-0.038579356 -0.0015639671 -0.035299007 -0.036514096 -0.037352834 -0.044080198 -0.0071586207 -0.019824315
-0.010188514 -0.0036005226 0.0027602674 -0.016246596 -0.014274388 -0.021439046 -0.024479624 0.012620358
-0.026690632 -0.004109932 -0.04518471 -0.012858432 -0.024709325 -0.026597379 -0.0039257184 -0.0040113064
-0.027098432 -0.0033593082 -0.034715485 0.005786656 -0.054260798 -0.026148647 -0.013031956 0.020395467
-0.007033634 -0.008663703 0.0031968553 -0.03919216 -0.006743247 -0.025486648 -0.0038057324 -0.014394314
0.02464585 -0.03551895 0.016455246 -0.011285384 -0.03925982 -0.0061061108 -0.030755976 -0.008599404
-0.0065019177 -0.007840583 -0.02798611 -0.016928116 -0.005311967 0.0049807527 0.0019566258 -0.0013746094
-0.026844664 0.03364491 -0.016278561 -0.0020795313 -0.03922053 -0.0049991217 -0.013974772 -0.009433649
-0.010228186 0.0042045536 -0.0075129727 -0.0076068654 0.008133787 -0.020961395 0.042737518 -0.006407176
-0.01856004 -0.020988483 -0.011448161 -0.00040899144 0.00034085094 -0.0014003054 -0.031249925 -0.015531965
-0.010523628 -0.014961138 -0.018614862 -0.0025448976 -0.02372345 -0.014805597 0.0021897287 -0.021225462
0.015506979 -0.011214051 -0.03418095 -0.017284721 -0.04044121 0.012237042 -0.03830092 -0.034554437
-0.02461411 -0.0048462832 -0.06534868 -0.042805877 -0.03903112 -0.032199696 0.026845625 -0.0028563966
-0.0047614286 -0.023968512 -0.0327423 -0.0021366 -0.01831303 -0.023470126 0.02101265 -0.0048502367
-0.010752701 -0.02444941 -0.023147855 -0.016942138 -0.02472903 0.011445971 -0.009407869 -0.011781933
-0.018659223 -0.0019192247 -0.0060632527 -0.044242825 -0.03651396 -0.01866155 -0.026858985 -0.0148585765
0.0100664 -0.02189583 -0.02063242 -0.031086987 -0.0055605844 -0.008836087 -0.027571917 -0.046034135
-0.02984641 0.009076403 -0.0072906893 -0.00983854 -0.01576041 -0.005018993 -0.018706225 -0.015561571

network_body._body_endoder.seq_layers.0.weight f4 [256, 164]
00000000: 0dee d8bc d173 acbd 2b88 be3b 3c5d 5fbb
00000010: 3f67 83bd 1d50 fb3d 0caf 05be 4572 81bd
00000020: 0402 6d3d 15c5 2a3c 0cfc 273d 8f86 33be
00000030: 0962 2a3c deea e83d c57a 0a3e 7671 103d
00000040: ea16 77bd 3d61 f0bd efdf d23d c107 c23c
00000050: 502b 13bd 87f1 1dbe ce00 2fbd e623 143e
00000060: 4f4d a3bd 10a7 cabb 63a6 9cbd b943 43bd
00000070: 8a20 dcbc c265 273d a95e afbc a9fc dc3d
00000080: 0e91 35bd a14d 7bbd 9543 55bd 66f7 a0bd
00000090: d0ca 37be 7b83 eabd 3f83 a8bd 3766 09be
000000a0: 9f97 e1bc e2ac 77bd 1754 d2bd 641c 4ebd
000000b0: 706f 3ebd ad3b 893d 0e19 413a 1909 c0bd
000000c0: 032d c2bc 3429 b83d 2e38 88bc 6a78 05be
000000d0: 9231 073e c178 163d f1c3 a13c 1918 86bd
000000e0: 8fa6 3dbe f6cf b8bd 5c24 823d a549 f63d
000000f0: 1754 093d d451 32be 4bf0 f9bd b015 dfbc
00000100: d8cd 213d a12b 923d 980d e4bd 3385 fc3d
00000110: 518e 07be b674 60bc 1c53 12bd ac8e ae3d
00000120: f08d c13d ab2f 7fbc 2942 10bd 4bf6 863c
00000130: 1c6e 073e bd4f 7ebd 1948 d0bd 3928 383d
00000140: 0647 1c3e fd7f 22bd d4b1 563c eb5e fc3a
00000150: 49b5 8f3c 2c23 cfbc 9fdd 063d bd8a debd
00000160: 5079 463d 1c68 1f3d 5143 b53d 1b62 3f3d
00000170: cc42 40bc d13f b33b 9d5c 0bbd 5b8e 913d
00000180: 0015 54bd 536f 81bd ed98 cc3d 8b35 5e3c
00000190: 782b e23a b470 0dbd f702 a83d 514c d1bc
000001a0: e7a7 b23d 0e6f 2abe 815d 7dbd b4c3 78bd
000001b0: cf62 633d 5164 58bd 22c6 763d 4c9a 16bd
000001c0: d5b6 4f3d 4f1f 203c 7a4e ac3d aed5 83bc
000001d0: 229b 443d e425 223c cb4c d73d 8ab0 90bc
000001e0: 3b64 cd3d 7c60 cfbd 1fe1 1dbe dc4a 94bd
000001f0: e5d4 08bd e9dc 423c 2dcf c4bd b421 dd3c
00000200: 545a 893d 8853 1e3d a0e3 363d d330 50bd
00000210: 4e63 d93d 99a2 81bc 8132 943d 5c6b ebbd
00000220: c671 553b 247f 72bc 9613 7abd fc68 0a3a
00000230: 44bf 64bc 82fd 76bd 1af8 563c 8047 b53d
00000240: 6c90 7abd bd14 bcbd 6a03 cdbc 80b6 ffbd
00000250: 57b5 0fbd 65d5 89bc 3178 87bc c542 0cbe
00000260: 25e5 39bd 3455 2c3c 76f0 8b3d 03c4 01bc
00000270: 36cc 44bd 8d49 d6bd 426e 10be 9a3d fbbc
00000280: 0358 b3bd 5b68 6ebd 29bf 323d 3b70 37bd
00000290: 982d b43d 0958 03bd c68f e83d 39a8 463d
000002a0: 0e2b e8bb d2ab eabd eea8 083e 5c35 a63d
000002b0: 3bd9 663d c49f cfbd 234a 25bd f378 38be
000002c0: d4ce 94bd 0c8f 203d 2f61 ef3d 0ab0 97bc
000002d0: 0b97 8c3d a02a d63c c08d a8bd 219c 893d
000002e0: cd0a dfbd 6e4b 083e 5504 c3bc a725 9abd
000002f0: a3ea 85bd c1d2 1a3e af9b 40bd 2cee 2fbd
00000300: 1bb6 823d e5f9 953b 65be 763d 3ec8 5cbd
00000310: c970 51bd fd23 0abd 370c 85bc d9fd c63d
00000320: e02d 673d b2b7 8e3d 10ba 743d f3b2 00be
00000330: 6c42 573d 4553 af3c cc6c 6d3c 4820 113e
00000340: 5d85 bebc 3a78 243d 5483 fd3d ed0b 403d
00000350: eecb 19bd 9d8c 5a3d a20c 1e3d accd e03d
00000360: 206d 113d 002c c23d 5b8f 40bd bb04 46be
00000370: 298f 863d 7734 d73d d2d5 ad3c 277d 22bd
00000380: 06b8 adbd e741 c23d 2e7f e63b ae2f acbd
00000390: 8fb1 3a3d bf10 e6bc f71b af3c 1a5b 3cbd
000003a0: 8979 acbd 825c df3d d7d5 f6bd 9a5e b33d
000003b0: 89f3 ee3d 0ae2 a63d dde6 1e3e 6643 8e3d
000003c0: abe5 4abe 70ff b93d 115c aebc 9a42 a3bd
000003d0: fcbd b6bb f5a6 03be b39e a4bc dc22 ce3c
000003e0: 6308 cb3d 77c7 45bd 8892 93bc e95e 073d
000003f0: 9cd7 dfbc 0ae8 f6bd 3337 f0bb a496 04bd
-0.026480699 -0.08420528 0.0058145723 -0.0034082672 -0.06416177 0.1227114 -0.13055056 -0.06320623
0.05786325 0.010422965 0.041011855 -0.17531799 0.01039935 0.11372922 0.13523395 0.035264455
-0.060324587 -0.11737297 0.10296618 0.023685338 -0.035929978 -0.15424167 -0.042725377 0.14466819
-0.0797373 -0.006184466 -0.07648923 -0.047672007 -0.026870985 0.04086853 -0.021407442 0.107903786
-0.044327788 -0.06135333 -0.052066404 -0.078596875 -0.1794846 -0.11450859 -0.08228158 -0.13417898
-0.027538119 -0.06046761 -0.10269945 -0.050320044 -0.046492994 0.067008354 0.0007366099 -0.09376735
-0.023703104 0.08992234 -0.016628351 -0.13034216 0.13202503 0.036736254 0.019746752 -0.06547565
-0.18520568 -0.090240404 0.06354591 0.12025765 0.03352746 -0.17414027 -0.12204035 -0.027232021
0.03950295 0.07137228 -0.11135405 0.12330093 -0.13237883 -0.013699701 -0.03572379 0.08523306
0.094509006 -0.01557533 -0.035219345 0.016474864 0.13225597 -0.062087763 -0.101700015 0.044960234
0.15261468 -0.03967284 0.013103921 0.0019254362 0.017542498 -0.025285326 0.032926198 -0.10866306
0.048455536 0.038917646 0.0885073 0.04672442 -0.011734676 0.005470254 -0.03402387 0.0710723
-0.05177784 -0.063200615 0.09990106 0.01356257 0.0017255386 -0.03453131 0.082036905 -0.025549086
0.08723431 -0.16643927 -0.06185675 -0.060733512 0.055514153 -0.052830044 0.060247548 -0.036768243
0.05071147 0.00977309 0.08413406 -0.016093101 0.04799951 0.009896729 0.10512694 -0.017662305
0.10028883 -0.10125825 -0.15417908 -0.07240841 -0.033406157 0.011893489 -0.09609828 0.02699361
0.06706682 0.03865388 0.044650674 -0.050827812 0.10614644 -0.015824603 0.07236195 -0.114950866
0.0032569035 -0.0148008205 -0.061053835 0.0005279926 -0.013961617 -0.060300358 0.013120675 0.08851528
-0.061172888 -0.09183643 -0.025026042 -0.12485981 -0.03508505 -0.016825387 -0.016536804 -0.13697346
-0.045384545 0.010518361 0.06832974 -0.007920268 -0.048046313 -0.104632474 -0.1410456 -0.030669022
-0.08757021 -0.05820499 0.043639336 -0.044784766 0.08797759 -0.03206638 0.113555476 0.048500273
-0.0070852106 -0.114585534 0.13345692 0.08115646 0.05635951 -0.10137895 -0.040353905 -0.18014888
-0.07266012 0.03919892 0.11688458 -0.01851656 0.06864747 0.026143372 -0.08230162 0.06719232
-0.10890732 0.13310024 -0.023805777 -0.07526713 -0.06538894 0.15119459 -0.04702347 -0.042951748
0.0638239 0.004576909 0.060240168 -0.053901903 -0.05113295 -0.033725727 -0.016241176 0.09716386
0.056440234 0.06968631 0.059747756 -0.12568264 0.05255358 0.02140201 0.014491271 0.1417247
-0.023256952 0.04015372 0.123785645 0.046886373 -0.037547998 0.053356756 0.038586266 0.10976729
0.03550446 0.094810486 -0.047011714 -0.19337742 0.065702744 0.10508054 0.021220122 -0.039670136
-0.08482365 0.09485226 0.007034204 -0.08407532 0.04557949 -0.028084157 0.02137564 -0.04598532
-0.084216185 0.10906316 -0.120525055 0.08758278 0.116675444 0.08148582 0.15517755 0.06946449
-0.19814174 0.09081924 -0.021284135 -0.079716876 -0.005576847 -0.12856658 -0.020095205 0.025163107
0.09913709 -0.048285928 -0.018014207 0.033049498 -0.02732449 -0.12055977 -0.007330799 -0.032370225

network_body._body_endoder.seq_layers.2.bias f4 [256]
00000000: 705a 4abc 2072 1abd 5dcd 28bc d44b 7ebb
00000010: 18f6 3fbc be3e b3bc 0004 4bbc 1339 5dbc
00000020: a2f0 4fbc 0f05 a2bc 4c35 c7bc de04 8bbc
00000030: a20f a4bc e081 edbc 58db 4ebc abff cb3b
00000040: ce1c 66bc daf1 cfbc e4fc 893a 0ef6 69bc
00000050: 394c bbbc 9d06 89bc 14cd 20bd c291 573a
00000060: 9aff 7abc 6f2d 983a 1bd8 9abc 2977 bbbc
00000070: 5229 c3bc f256 d23b 0314 92bc 4941 35bc
00000080: 58bf a1ba 3537 15bd 9bcd 4db8 4c80 aebb
00000090: 615d e7bc e198 b0bc d8a9 cebb b3bc f0b9
000000a0: bcfa 503b 42d2 663c 1402 81bc 34e3 c73a
000000b0: 099a 83bc 41f9 9bbc f5fe d0bc fabf 373d
000000c0: 9951 c83a f3be 62bc 455d 7abc 0aa3 eebc
000000d0: 68d9 c03c cdc2 c83b ab4c 8bbb 8651 51bc
000000e0: a0e0 423c 3020 0fbc 154a 32bc 62e7 ae3b
000000f0: 049f 65ba a0b9 a63c 6a0d 18bb f2a3 27bd
00000100: 619e 06bb 31f0 393c 9fe0 9cbc 8fd8 3abc
00000110: 7216 113c 9888 0dbd f9ef bdbc e7ae 6f3b
00000120: 98db 50bc 1676 0cbc 9f0a c7bb e066 e4bb
00000130: 6ecc 70bc 5d74 9fbc 13e4 17bd b0f2 febb
00000140: 5b46 76bc 8561 89bc 5562 4ebb 31fa 48bc
00000150: 0411 cfb9 541d f5b9 dddb e5bc db21 6bbc
00000160: acad 323c bfef febc b1e7 65bc 3bf2 b5bc
00000170: 6d4c 40bc ddcf 17bc 0324 d83b 485b 2f3c
00000180: 2894 e13c 3959 4cbc 4163 a8bb 4450 9bbb
00000190: dfa2 7dbc 7227 103c 7007 1d3c 84ec 97bc
000001a0: b340 33bc f52a 4e3c 89e3 64bc f805 88bc
000001b0: 38cc 853c 9257 efbc 14b1 9dbb e92f 0bbc
000001c0: 0b73 39bc 6d28 dfbc 680f 0cbd 223b d53c
000001d0: fbfc c0bb bb27 b43b c9b0 2abc 2553 063c
000001e0: 6a35 e0bc a9dd ecba 598c b0bc 60a2 6f3c
000001f0: 6a71 2d3b 7025 06bc 18f4 83bb 3a3f 86bc
00000200: 7b1d 9abc df9f a5bc 7fe8 5b3a aed4 80bc
00000210: c867 b0bc b83a 773a ac5f b3bc 092a aebc
00000220: 9721 e23c ee56 973c a119 94bc 7df5 f1bb
00000230: 0e6c 9fbc 6045 d2bc 3d2b 80bb c2e8 e43b
00000240: f647 0ebc 1946 a0bc fd40 d0bc cb1a f3ba
00000250: 89ef 40bc 0f61 c63b 1879 72bc 969c 25bb
00000260: d17f d33b bb85 083a 3505 28bc 2698 d5bc
00000270: 260f 3abc 5058 5bbc 391f d7bc 0570 9cbc
00000280: 7ae4 5db9 2f81 bcbc 5f52 adbc ab59 673c
00000290: 7d5f c9bc 6c3c 37bc 0ad0 d3bb f255 99bc
000002a0: a98b 233c 679c 32bc 36e9 d93a f772 203b
000002b0: 4f2b babc 6e29 88bc 248b f6bc c709 a4bc
000002c0: 87f9 c4bb 3ab6 c9bc 0fad 8cbc da52 adbb
000002d0: 4346 6cbc 0fbe d1bc c093 1bbd f921 9dbc
000002e0: 6f2f babc 05b5 2bbc 2bfe cbbc 447c 06bc
000002f0: 5e51 34bc fdf1 8abc 9182 2bbc 2436 4dbb
00000300: 2aa0 a7bc 3d48 a4bb 4225 f3bc e47a ebbb
00000310: 6280 87bc 1c47 7dbc 5b0e 79bc 8402 15bd
00000320: ec06 1d3a 3b51 f2bc 4269 923c f717 063c
00000330: 6928 66bc 5996 fbbc 1b00 67bc f24a 79bc
00000340: 83e7 5abb a7f7 5cbc 90c7 7d3b 2e08 00bc
00000350: f91c 3f3c 2527 183a 4868 12bc 0988 6ebc
00000360: 9b27 31bc 9666 903b d670 aebc 9bae 5fbc
00000370: a783 0dbd d7af 3dbc c031 7f3a 47b2 14bc
00000380: 8ab6 a0bb 41c5 a7b7 971d 6dbc 2f5a 6bbc
00000390: c1de b33a b435 403b d8df 50bb e797 9bbc
000003a0: 56dd 96bb 23d2 1abc ed99 593b 73cd fc3c
000003b0: d3a2 d7bc 53e1 05bd a67d a7bb 764e f2bc
000003c0: 090e 7dbb 5db8 91bc 6b72 d8bb fe91 71bc
000003d0: 6a98 8cbc 34e9 8b3b ddcd c5bc a620 d2bc
000003e0: 4829 e7bc edfa 81bc 2d3b 82bc 02f9 afba
000003f0: 1436 fbbc 59ac 2ebc 9776 fdbc b3b6 47bc
-0.012350664 -0.037706494 -0.010302869 -0.0038802521 -0.011716388 -0.021880504 -0.01239109 -0.013502377
-0.012691649 -0.019777803 -0.024317406 -0.016970094 -0.020026986 -0.028992593 -0.012625538 0.0062255464
-0.0140449535 -0.025383878 0.0010527638 -0.014279855 -0.022863494 -0.016726786 -0.039258078 0.0008223319
-0.015319729 0.001161022 -0.018901875 -0.022883968 -0.023823414 0.006419056 -0.017831808 -0.0110629285
-0.001234035 -0.036429603 -4.9067294e-05 -0.005325353 -0.028242769 -0.021557273 -0.006306868 -0.0004591696
0.003188773 0.014088215 -0.015748061 0.0015250207 -0.01606466 -0.019039752 -0.025512198 0.044860817
0.0015283107 -0.013839471 -0.015281026 -0.029130477 0.023541167 0.0061267377 -0.004251083 -0.012775784
0.011894375 -0.008735701 -0.01088192 0.0053376416 -0.0008759352 0.020352185 -0.0023201355 -0.040927835
-0.0020541179 0.01134877 -0.019150076 -0.011404171 0.008855449 -0.034554094 -0.023185717 0.0036572756
-0.012747668 -0.008573076 -0.006074264 -0.0069702715 -0.014697177 -0.019464666 -0.037082743 -0.0077803954
-0.0150314225 -0.016770134 -0.0031491716 -0.0122666815 -0.00039494794 -0.00046751893 -0.02805894 -0.0143513335
0.010905664 -0.03112018 -0.01403229 -0.022210231 -0.011736971 -0.009265867 0.00659609 0.0107029155
0.027536467 -0.012472444 -0.005138785 -0.004739793 -0.015480726 0.008798467 0.009584293 -0.018545397
-0.010940718 0.012583484 -0.013970264 -0.016604409 0.01633273 -0.029216561 -0.004812369 -0.008495309
-0.011318932 -0.027240956 -0.03419438 0.026029173 -0.0058895326 0.0054979003 -0.010418125 0.008198534
-0.02736922 -0.0018071431 -0.021551298 0.014626116 0.0026465305 -0.008187637 -0.004026901 -0.01638757
-0.018812886 -0.020217834 0.00083888316 -0.015726414 -0.021533862 0.0009431052 -0.021896206 -0.021260278
0.027603908 0.018474068 -0.018078627 -0.007384001 -0.019460704 -0.025667846 -0.0039114044 0.0069857547
-0.008684149 -0.019564675 -0.025421614 -0.0018547414 -0.01177586 0.0060540508 -0.014799379 -0.0025270334
0.006454446 0.00052079157 -0.010255148 -0.026073527 -0.011356151 -0.013387755 -0.026260005 -0.019096384
-0.00021161317 -0.023010818 -0.021157442 0.0141205 -0.024581665 -0.011183839 -0.006464009 -0.01871774
0.009982028 -0.010901547 0.0016625288 0.0024482587 -0.02272573 -0.016621318 -0.030095644 -0.020024193
-0.0060111913 -0.024623025 -0.017172365 -0.0052894177 -0.014421049 -0.025603322 -0.037982702 -0.019181238
-0.022727696 -0.01048017 -0.02490147 -0.008208338 -0.011005728 -0.016961092 -0.010468141 -0.0031312788
-0.020462114 -0.0050134943 -0.029680852 -0.0071862806 -0.01654071 -0.015458848 -0.0152011765 -0.036379352
0.0005990106 -0.02957975 0.017872456 0.008184425 -0.0140477205 -0.03071134 -0.014099146 -0.015215622
-0.0033402152 -0.013486779 0.0038723685 -0.00781445 0.011664622 0.0005804173 -0.008935995 -0.0145588005
-0.010812665 0.0044067604 -0.021294039 -0.013652469 -0.03454938 -0.011577568 0.00097348914 -0.009075708
-0.004904573 -1.9999805e-05 -0.014472387 -0.014364763 0.0013723002 0.0029328885 -0.0031871703 -0.018993331
-0.004604022 -0.009449515 0.003320332 0.030859685 -0.026322758 -0.03268559 -0.005111414 -0.029578429
-0.0038613102 -0.017788107 -0.0066054366 -0.01474428 -0.01716252 0.0042697433 -0.024146015 -0.025650334
-0.028217927 -0.015866721 -0.015897358 -0.001342565 -0.030665435 -0.010661208 -0.030940337 -0.012189555

network_body._body_endoder.seq_layers.2.weight f4 [256, 256]
00000000: f831 85bd 712d b33c 870c c0bc ca1d 3e3d
00000010: c562 b63d c4ba 03bd 5c87 1bbc 6404 183d
00000020: 2d9e 383e ed5a 17bc 9cbc f3bd 1631 98bd
00000030: 259c 893c b7b6 90bd 6c0c b3bd ebfc 13bd
00000040: 9c2a 803d d3f6 1a3c 3314 eebd 546b 633c
00000050: 782f a23d 9a24 2a3e 9095 a23d d6d5 403d
00000060: 3f57 9f3b ecf3 8cbd eed3 af3c ef80 e4bd
00000070: 5e46 00bc 1e7b db3d 69b3 a9bd 2266 943c
00000080: 95a3 a13c 2623 80bd 9ad7 74bd 9e17 aabd
00000090: b28b 81bd 8119 14bd ef18 60bc 56e9 a2bd
000000a0: d624 203d 9760 9abd 25ff 833d 43ec c03d
000000b0: b197 03bd 8558 c73c 4dfd 803c 58af 9d3c
000000c0: 2660 95bc 33ad bfbc b352 94bd 36bb a9bd
000000d0: 2486 b5bd 2c52 913b 6fbf 8ebd ec96 703d
000000e0: 996f 863d ad04 da3c 7f4f d5bc 2db1 113c
000000f0: 0c17 92b7 1412 11be 9ea7 813d a228 043d
00000100: 7bf5 0cbc 1121 8bbd 6367 83bd f97a a0bd
00000110: 2166 a03c 1a8d 3dbc 1455 a6bd 2f27 27bd
00000120: 53c8 013e a0cb 99bd 14ce ca3d ffa9 febd
00000130: 8d76 163c 2225 a7bc a94a 21bc ed90 8fbd
00000140: cf17 cdbc 4b11 4cbd e146 843d 4e39 0dbd
00000150: 8540 99bd 85b8 b6bc 14b5 133e c790 21bd
00000160: 22c7 93bd 265b cd3a ab52 e9bd 1886 d3bc
00000170: 34d3 90bd 9c39 3ebd 3fc3 cc3c b6ff f83c
00000180: 0da6 933d 0fa1 f93c 0fa4 52bd 338a 463d
00000190: 7a01 e1b9 849c 683a 3bf9 a1bd 47bd 693d
000001a0: 47b3 943b a437 bf3c f548 103d 4b02 3cbd
000001b0: 085e fdbd f28c ee3c 00c1 013c 36db eebc
000001c0: 24f5 7d3d 497f 3abd 013d 003c a077 dd3c
000001d0: a908 da3c dbe8 eebd 403a 93bd 7738 82bc
000001e0: 89ae 123d d923 3ebc 4d8a d0bd 1abf 14be
000001f0: 411e 553c 5c27 51bc 0df5 3b3d b8be 48bc
00000200: 0964 b73c ebbb 153c a1cd de3d e2a8 13be
00000210: 0e61 033c 7fd6 e73d 92d6 2abd 15c2 4ebc
00000220: 1a45 633d a2c5 8abb 9f5d 05bd 0583 e8bd
00000230: cab9 54bd 3cc0 36be e031 a13c 7312 0dbd
00000240: 5deb 4d3c aa80 e03c 00c8 34bd 089d 15bd
00000250: bf57 aebd cd46 a23d 8647 c33c 32d1 f53c
00000260: fff9 0e3d c61f 15bc af7a 0c3c 9dfe a1bd
00000270: 6b98 20bd 85b5 9bbc 2904 91bd 1674 703d
00000280: 4113 e6bd 210e e8bc cbe9 14bd f211 883c
00000290: bfd3 1f3d 83f5 813d 143f b33c 3cf1 cfbd
000002a0: 59bf 96bc 3e9c f0bd 8403 a53d f672 cabd
000002b0: bc66 8cbc 3c01 cebc 76a8 cebb 08c0 5fbd
000002c0: 320c aebd a4c6 f53c ae1f d1bc 639a 6a3c
000002d0: 9bd3 d3bd 2aa4 063c 9b62 a53d 84c7 783c
000002e0: 761f 533d 2050 833d 3606 203c ab53 ae3d
000002f0: b30f 113d 8ed5 46bc 44d7 a23d 21e0 55bc
00000300: 2742 2dbd e261 863c 00a1 f5bc 398a e3bb
00000310: 321a 24bc f9fb 56bd 66f7 423d 856f afbd
00000320: 747d 49bc 9f61 efbd 3aa2 973c cb58 803d
00000330: 3851 a43d 5b07 69bd 6278 02bd 1a5c ce3c
00000340: b438 783d 22eb 5a3d db57 d4bd 1f0b 14be
00000350: cfb5 8fbd 12cd 033e 3f47 84bd 1213 813b
00000360: 0d28 8ebc fb2a a13c 6711 e43d cd6f 623d
00000370: b15c c13d e26f 9b3d 4351 0ebe ead6 28bc
00000380: 3b42 023d ca68 de3c ce6b 513d da93 6fbd
00000390: 6618 893d 0833 33bd 8d15 7fbd 9c67 a23d
000003a0: 1dfb 2abd 90ad 0b3e 6b44 853e d9c5 35bc
000003b0: 78e1 073e 4048 31bc a7c8 883d e268 c23c
000003c0: 56e2 66bd 01e6 84bc 3271 43bd e8e9 b1bd
000003d0: 0c95 2a3d a8a0 54bd 983f 9f3d 775f a03d
000003e0: e296 9f3c 4457 46be 98b4 233e 3351 d33b
000003f0: 1d7f 17be 2fa5 74bd 2bc6 893d 2ff8 8fbd
-0.065036714 0.021872254 -0.023443474 0.046415128 0.089055575 -0.032160535 -0.009492721 0.037113562
0.1802909 -0.009237987 -0.11901209 -0.074312374 0.016798088 -0.070661 -0.08742604 -0.036129873
0.06258127 0.009458262 -0.116249464 0.0138805695 0.0791921 0.16615525 0.07938683 0.04707893
0.0048626955 -0.06882462 0.02146336 -0.11157405 -0.007829277 0.10716842 -0.08286173 0.018115107
0.019731322 -0.06256704 -0.059775926 -0.08305286 -0.06325473 -0.036157135 -0.01367782 -0.079546615
0.03909763 -0.07537954 0.06445149 0.09420063 -0.032127086 0.024334202 0.015745783 0.01924865
-0.018234324 -0.023398018 -0.07242336 -0.08287661 -0.08863476 0.0044348445 -0.06970107 0.05873768
0.06564254 0.026613558 -0.026038883 0.00889234 -1.7415288e-05 -0.14167053 0.063307986 0.032265313
-0.008603449 -0.06793416 -0.06416204 -0.07835955 0.019579949 -0.011569286 -0.08121696 -0.040808853
0.12674074 -0.075095415 0.099025875 -0.12434768 0.009183538 -0.020403448 -0.0098444605 -0.07010064
-0.025035767 -0.04982118 0.064588316 -0.034478478 -0.07483009 -0.022304783 0.14424545 -0.03944471
-0.07215716 0.0015667423 -0.11392721 -0.025820777 -0.07071534 -0.04644166 0.024995444 0.03039537
0.07209406 0.030472307 -0.05142599 0.04847164 -0.00042916444 0.00088734203 -0.07908865 0.057065275
0.004537973 0.023341961 0.035225827 -0.045900624 -0.12371451 0.029119942 0.00791955 -0.029157262
0.062001362 -0.045531545 0.007827044 0.02703458 0.026615458 -0.116655074 -0.07188845 -0.015896065
0.03581098 -0.011605226 -0.10182629 -0.14526024 0.013007701 -0.012765732 0.045887996 -0.012252502
0.022386568 0.009139041 0.10879064 -0.14419892 0.008018745 0.11320209 -0.041708536 -0.012619515
0.055485822 -0.0042349854 -0.032559987 -0.11353115 -0.051934995 -0.17846769 0.019677103 -0.034441423
0.012568322 0.027405102 -0.044136047 -0.03652671 -0.0851283 0.079236604 0.023837816 0.030006979
0.034906384 -0.009101814 0.008574172 -0.07909892 -0.039207857 -0.019007454 -0.070808716 0.05870446
-0.11234141 -0.02832705 -0.036355775 0.01661012 0.039020296 0.06345656 0.021880664 -0.10153434
-0.018401789 -0.11748551 0.08057311 -0.09885208 -0.017138831 -0.025147073 -0.006306703 -0.054626495
-0.0849842 0.030001946 -0.025527801 0.014319035 -0.10343095 0.008217851 0.08075448 0.015184287
0.051543675 0.06411767 0.009767106 0.08512052 0.035415363 -0.012135876 0.07951215 -0.013053925
-0.042299416 0.016404096 -0.029983997 -0.0069439677 -0.010016011 -0.052486394 0.04759922 -0.085661925
-0.012297977 -0.116885416 0.018509973 0.06266936 0.08023304 -0.05689178 -0.031853087 0.025190402
0.06060095 0.053446896 -0.103683196 -0.14457367 -0.07017099 0.12871197 -0.064589016 0.003939041
-0.017353082 0.019673815 0.11136132 0.055282403 0.094415076 0.07589699 -0.13898186 -0.010305146
0.031801444 0.027149577 0.0511282 -0.05849061 0.06694107 -0.04374984 -0.06227641 0.07929918
-0.041743387 0.13640428 0.2602876 -0.011094534 0.13269603 -0.010820448 0.066788964 0.023731653
-0.056368195 -0.016222956 -0.047715373 -0.08687192 0.04164605 -0.051911026 0.077758014 0.078307085
0.019481126 -0.19369227 0.1598686 0.0064488887 -0.14794584 -0.059727844 0.06727251 -0.07029759

network_body._body_endoder.seq_layers.4.bias f4 [256]
00000000: d1e1 a0bc 174e 783c df9e b1bc 28ab d8bb
00000010: b472 e0bc e044 ea39 0680 a6bc 064c 99bc
00000020: 038d 35bc 6091 45bb a4bf 9fbc be8c a7bc
00000030: 9b31 a0bc d724 eabb 89b0 97bc 6d42 abbc
00000040: 0960 89ba f7fe e6bc c583 583b 28ee b1bb
00000050: f7dd 7ebc 8dac 0dbc 3e83 9fbc fce9 97bc
00000060: a7ba c43b 10d2 083b e1ce 8abc 2bda d8bc
00000070: f642 923a c5d3 72bc c206 f0bc 5eaa f8ba
00000080: c04b 54bc 3711 41bc b638 5dbc 83cb 183c
00000090: 3d47 14bd 3100 633b 0345 84bc 9c1e c7bb
000000a0: 93e2 04bc cd3e c7ba dc26 e9bb a66b a7bb
000000b0: ceba 7c3b 0016 9eba a190 67bc 26aa 3bbc
000000c0: 9d37 49bc 1ded 6dbc 15a3 cabc ec75 84bc
000000d0: c18a 60b9 b1f6 44bc c190 34bd 0a4e 54bb
000000e0: e1bf 513c 4a24 39bd fcc3 edbc baff 99bc
000000f0: f777 49bc 4e96 2dbc b6e3 09bc 9607 c4bb
00000100: 2a3a 23bc 5d47 6cbc 3404 cdbc 302c 5ebc
00000110: 5582 d7bb d7a0 79bc c643 8ebc 2301 55bc
00000120: 9dce 1dbb bf70 4a3c 8833 db3a 84f4 84b9
00000130: da97 e4bb 0ec3 77bc 4ee7 00bc 085c 9cbb
00000140: 4721 c739 2f5b 5cbc 4464 84ba 3294 b7bc
00000150: 0558 43bc 000d 8ebc 1c7a 25bc 4328 a8bc
00000160: 79d2 253c 697e 4ebc 1211 8ebb 9e37 c23b
00000170: 29b2 62bc d2a1 98b6 aaac 94bc add4 fcbb
00000180: b328 693c a26b c0bc 1c4b 8e3b a2b1 89bc
00000190: 378d aa39 d1ad 58bc ee51 aabb 7e16 003c
000001a0: cd5d 02bc fa6c 3abb 07de dcbb 347c fabb
000001b0: c776 843a 600f 85bc 9a80 473b c6ed 2ebc
000001c0: aa99 3e3b d66f 00bc 415f bd3a ef8d 49bc
000001d0: 2003 d23b 3597 82bc 8aaf debb 3343 773c
000001e0: 6221 c8bc 3d84 e2ba 719d 91bc ccdb 543b
000001f0: 23b6 05bc b020 893c 7ef0 823b 79dc 893b
00000200: 9448 68bc 79e2 85bc 2d40 1bbc 2cbf 26b9
00000210: d040 753b c5d0 98bc 9121 4ebc 637c 22bc
00000220: f1c1 38bb 5923 0c3c a120 b8bc 4591 00bb
00000230: 4b47 c43b 6ca1 07bb 6c8a 4ebc eaa6 5cba
00000240: 9c4b 0a3b 2248 103c dcde 08bc aac0 82b9
00000250: 3917 a83b 23b7 65bc 089f 16bc b437 acbc
00000260: e0cf b3bc 9a80 32bc aa95 77bc e6d2 babc
00000270: baf8 a8bc 85a7 f9bc c084 aebb c258 3abc
00000280: 1c1b 6fbc 81a2 4d38 0c59 cdbc af59 66bc
00000290: ee1b 393b f0f5 20bc 3781 89bc 4eec 14b8
000002a0: ecaf babb 2a40 bbbb 7d7a a9bb 36f8 70bc
000002b0: cf05 7cbc 5cf2 7e3b 6b2a d23a 3950 92bb
000002c0: de1e cfbc 6d91 0ebc 66e8 43bc b30f 8dbc
000002d0: f061 393c 0c8d 3ebc cf79 84bc 84ce 84bc
000002e0: 0ec5 f33b df50 8abc 1696 84bc 1d22 c4bc
000002f0: 2901 1b3b ed40 22bc 179d acbc 9437 26bc
00000300: b6af 41bc a403 673c 876e 05bb e924 a2ba
00000310: be0a cf3b 6f80 09bc 6482 21bc cdc0 15bc
00000320: 07f1 d0bb 4ddd 78bc 0b5d d0bc 8ac5 adbc
00000330: ffa8 5bbb 2b25 b5bc 4bd9 c3bc ec43 b1bc
00000340: 9518 0bbc c08f 2ebb 45b7 013c c529 a7bc
00000350: ca3a 943a c1d7 5abc cc97 6abb 372e 823c
00000360: 9126 c4bb c8b5 b0bc 3d0d a63b 075b 69bc
00000370: d5bc 96bc f245 afbc 2425 20bb 1182 ddbc
00000380: 0d0d f0bb 4233 4ebc 54f9 8ebc 7032 53bc
00000390: 2897 5abc c0ca 893b ebef ef3a dff9 34bc
000003a0: 1e98 04bc 5bc2 54bc 2b30 bfbc 6758 88bc
000003b0: b6c0 3cbc 04e2 0f3b b28c b6bb 017e d9bb
000003c0: 2fc0 dcbc de3c 3cbc 2952 03bd 46e0 733c
000003d0: 57ed f9bb 6e66 cbbc 664d ccbc c7cc e5bc
000003e0: 2681 963c 7c3b d2bc c9d1 5e3c a236 06bc
000003f0: db83 99bc 240d a1bc fe64 4fbb 8a5b 61bc
-0.019638928 0.015155337 -0.021682201 -0.0066122003 -0.027398445 0.00044683274 -0.020324718 -0.018713009
-0.011080983 -0.0030146465 -0.019500561 -0.020452853 -0.019554904 -0.007145505 -0.018516796 -0.020905698
-0.0010480891 -0.028197749 0.0033037525 -0.0054300018 -0.01555585 -0.008647096 -0.01947176 -0.01854419
0.006003696 0.002087716 -0.01694435 -0.026471218 0.0011158872 -0.014820998 -0.029300097 -0.0018971672
-0.012957513 -0.0117838895 -0.0135022905 0.009325865 -0.03620075 0.0034637565 -0.016146189 -0.006076647
-0.00811066 -0.0015201211 -0.007115228 -0.0051092682 0.0038563493 -0.0012061 -0.014133603 -0.011454141
-0.012281326 -0.014521864 -0.024735967 -0.01616951 -0.00021413995 -0.012021706 -0.04408336 -0.0032395148
0.012802095 -0.045200624 -0.029024117 -0.018798698 -0.012296668 -0.010594917 -0.008416107 -0.0059823496
-0.009962598 -0.014421311 -0.025026418 -0.01356034 -0.006576816 -0.015236101 -0.017366301 -0.013000759
-0.002407945 0.012355982 0.0016723732 -0.0002535918 -0.00697611 -0.015122188 -0.007867647 -0.004771713
0.0003798103 -0.013449474 -0.0010100682 -0.022409532 -0.011922841 -0.017340183 -0.010099914 -0.02052701
0.010120981 -0.012603381 -0.004335531 0.0059270402 -0.013836422 -4.5487914e-06 -0.018148739 -0.0077157826
0.014230895 -0.023488823 0.00434245 -0.016808335 0.0003253014 -0.013225035 -0.005197755 0.007817863
-0.007956934 -0.0028446303 -0.006740335 -0.0076442007 0.0010106199 -0.016242683 0.0030441643 -0.010676807
0.002908329 -0.007839164 0.0014447944 -0.012301906 0.006409064 -0.015941242 -0.006795828 0.015091705
-0.02442998 -0.0017281842 -0.01777527 0.0032479642 -0.008161101 0.01673922 0.003995954 0.0042071906
-0.01417746 -0.016343342 -0.00947575 -0.0001590221 0.0037422664 -0.018654237 -0.012581245 -0.009917351
-0.002819177 0.008553349 -0.022476496 -0.0019617837 0.005989944 -0.002069558 -0.0126062445 -0.0008417206
0.0021102196 0.00880626 -0.008353915 -0.00024939078 0.0051297215 -0.014020714 -0.009193189 -0.021022655
-0.021949708 -0.010894919 -0.015111366 -0.022805642 -0.020626415 -0.030475387 -0.0053258836 -0.011373701
-0.014593866 4.9027152e-05 -0.025066875 -0.014059468 0.0028245407 -0.009824261 -0.016785247 -3.5506026e-05
-0.005697241 -0.005714436 -0.0051720724 -0.014707616 -0.015382244 0.0038901782 0.001603437 -0.0044651297
-0.025283273 -0.008701664 -0.011957264 -0.0172194 0.011314854 -0.011630308 -0.016171364 -0.016211756
0.0074392622 -0.016884265 -0.016184848 -0.023942048 0.0023651815 -0.009903175 -0.021071 -0.010145087
-0.011821678 0.014099989 -0.002036007 -0.0012370619 0.0063184192 -0.008392437 -0.009857748 -0.009140206
-0.006376389 -0.015189481 -0.025434991 -0.021212358 -0.0033517478 -0.02211245 -0.023907324 -0.021638833
-0.0084897475 -0.0026635975 0.00791723 -0.02040566 0.0011309024 -0.013357104 -0.0035796044 0.015891178
-0.005986043 -0.021571055 0.005067496 -0.014242894 -0.018400589 -0.021395657 -0.00244362 -0.02703956
-0.0073257745 -0.012585463 -0.017452873 -0.012890443 -0.0133417025 0.004205078 0.0018305754 -0.011045902
-0.008092908 -0.012985791 -0.023338398 -0.016643716 -0.011520555 0.0021954784 -0.0055709714 -0.0066373353
-0.026947109 -0.011489121 -0.032060776 0.014885014 -0.00762717 -0.024829116 -0.02493925 -0.028051747
0.01837213 -0.02566313 0.013599821 -0.008191736 -0.018739631 -0.019659586 -0.003164589 -0.013754735

network_body._body_endoder.seq_layers.4.weight f4 [256, 256]
00000000: 9f36 94bc adad 943d 75bb 46bd b8e2 983d
00000010: f4b7 d4bd d537 a4bc f652 af3d 4be2 243c
00000020: 785a 473e 88d6 9bbd da39 873c aa57 e2bd
00000030: 731f 9ebd afa7 703d b412 113d d41e 213d
00000040: efc0 e1bd 4dce 1abd 56fc aabd 0b45 a9bd
00000050: 8fd0 103d 98aa e63d 7fc2 923d 78f3 493c
00000060: b728 e0bd a488 88bd b2ba 2cbd 448c a03d
00000070: b7ab 0bbd 7d2e 21be fc25 773d 84a0 88bd
00000080: 2bc0 16bd 41ad f33c a0d0 f9bb 30c0 83bd
00000090: 491d e43d 4c0b eb3d e1c9 233d 686a 693c
000000a0: 3e43 bbbc 80f3 c8bd 96d2 053e 48d2 3f3c
000000b0: 2475 9fbd 0b13 203d 718d 8e3d 723f 4cbe
000000c0: 3600 fd3d c29e 88bd 6271 f83c 6292 64bb
000000d0: 2888 c43c d57b 133c caab 52bb f071 b1bc
000000e0: 0b49 afbd e13c c93c b03b cd3d afd1 e7bc
000000f0: edd6 1ebd feb7 64bd 8e15 40bd e586 9e3d
00000100: c3ab 9c3d b6b5 31bd 1254 c33c c9fd bb3c
00000110: e283 d4bd 454f e73c 812f 063d aa4f b8bd
00000120: e4c3 d83c 5e4c cebd 1879 4f3d 169b bc3c
00000130: 404f a5bc 61ce a53d e557 2c3d 8b9b 70bd
00000140: 0de3 403b e6eb 213d b6b5 2dbd 9188 403c
00000150: f56c 1abc d36c 62bd bf4f 6abc 0aa6 b03d
00000160: 618f df3c fb92 a33d b5e5 bfbc 2608 f8bd
00000170: c8e3 0f3e 92c2 4f3d 8ea2 593c 9fe0 3fbd
00000180: 12c7 1bbc 2a7a a5bc 76c9 703d 290a 91bd
00000190: 4f16 38bd 7649 663c 05a4 4dbe 9a51 08bd
000001a0: ba56 a63c a995 22be ec38 593c 8d94 cd3a
000001b0: f976 9cbd 4bea 70bd 66c9 9d3d 8ef8 f63b
000001c0: f3c5 86bd ff33 253d 9660 fabd edea c1bc
000001d0: 5022 c43a 85c7 93bc 25db f8bd 2fae 8fbc
000001e0: 74ae 413d b900 4e3d e5ac bb3c f280 3abb
000001f0: 09d7 9c3c e3bb 493d 64e4 5cbc f128 213e
00000200: cc7a 6bbd c856 a23d c2c7 6d3c bcf5 bdbb
00000210: fbd7 97bc eaad 933c b503 363d ec1d 9bbd
00000220: 0f45 093c 4b90 a83d 5fdb 73bd 8095 00bc
00000230: a896 9c3b d258 edbd 1e84 753d 9afd 0a3d
00000240: fd86 99bd 2489 6abd 142f 863d aa00 9b3c
00000250: 828f 903d 958b 46bd 8947 003d e44b 6fbd
00000260: 3f68 4dbe 2d60 ecbc 8ed7 10be 1a43 493d
00000270: b17c d0bc 6f07 133c eeb0 adbc 0423 a93c
00000280: e6a0 503d a08c a3bb a69b 143d 2a44 debc
00000290: 848d 84bd 2c0c d03c edc8 9ebd fda3 07bc
000002a0: b9b2 71bd e950 eebc 0668 33be 8a5c 7b3d
000002b0: dfbf a6ba e4ee b5bc 62d6 603d e09f cdbd
000002c0: 8874 d7bd 4ef9 99bd d303 12bd 06af ed3d
000002d0: e53c 08bd 4e8f 893d 492d f83c 246f 9cbd
000002e0: 4ca3 49bb f3b6 f6bc 6f62 e33d 4687 6ebd
000002f0: 7aa9 403c 460d 3cbd 08d5 593c b80c 1e3d
00000300: ca4b 1dbd d9b9 3d3d 87be 1f3d 67ac 843c
00000310: b768 8bbd 5b8e 7e3d 040d 71bc 12d9 813d
00000320: 8e58 9b3b b678 b43c 2e4f 55bd ec1f 3f3b
00000330: 8042 753d 409a d53c 58e9 993d 6ee5 d5bc
00000340: 858f e0bc 5e3a 643d 9f8e a6bd 6eb5 383c
00000350: f0ad 8abb 349f 223d 22cc 88ba 528e 31bd
00000360: c0fb 6e3d f4c7 8cbd 9bfa 983d be4e 97bb
00000370: 3173 b53b 4bb9 773d 693f c4bc b33d a3bd
00000380: 8daf 92bc 7e5e b2bc 84ec 8cbd 5001 39bd
00000390: a865 c83d 5370 f1bd ac13 9f3b 920f 82bd
000003a0: 7d5d 39bd 755c 163c 132b a5bc 0c6b 913d
000003b0: 74ce 1bbe 048b e1bc 91b8 73bd 1372 343d
000003c0: 6635 17be 47c3 a8bd 8daf 76bd fd00 753d
000003d0: 5621 e63b 938c abbd 7470 96bd 4229 313d
000003e0: e9fd d1bc 44ec 0b3e 5093 16bc aaf2 09bd
000003f0: 57a1 8ebc b704 b03d beb0 9fbd 75a6 7dbd
-0.018092452 0.072596885 -0.048518617 0.07465118 -0.10386649 -0.020046154 0.085607454 0.010063718
0.19468105 -0.07609278 0.016507078 -0.11051877 -0.07720842 0.058753666 0.035418227 0.03933604
-0.11023127 -0.0377944 -0.083489105 -0.08265122 0.035355147 0.11263007 0.071660034 0.012326114
-0.10945266 -0.06666687 -0.042170234 0.078392535 -0.034099307 -0.1574039 0.06033896 -0.06671241
-0.03680436 0.0297457 -0.007623747 -0.06433141 0.11138398 0.11476764 0.03998745 0.014246561
-0.022859212 -0.09812069 0.13068613 0.01170785 -0.07786015 0.03908066 0.069605716 -0.19946077
0.12353556 -0.06670906 0.030327503 -0.003487729 0.023990706 0.009001692 -0.0032145851 -0.021660775
-0.08558854 0.024565162 0.1002115 -0.028298227 -0.038779188 -0.05583953 -0.046895556 0.07740573
0.076499484 -0.043386184 0.023843799 0.022948163 -0.10376717 0.02823604 0.032760147 -0.0899957
0.026460595 -0.1007316 0.050652593 0.02302317 -0.02017939 0.08096004 0.04207601 -0.058742087
0.0029432208 0.03953161 -0.04240962 0.01175131 -0.009425391 -0.055279564 -0.0143012395 0.086254194
0.027290048 0.07987019 -0.023424963 -0.12110929 0.14051735 0.050722666 0.013283385 -0.046845075
-0.009507911 -0.020199854 0.058785878 -0.07082016 -0.04494315 0.0140556 -0.200821 -0.033280946
0.020305026 -0.15877403 0.0132582 0.001568453 -0.0763988 -0.05881719 0.07704429 0.0075369542
-0.065807246 0.04033279 -0.122254536 -0.023671592 0.0014963839 -0.018039474 -0.121511735 -0.017539112
0.047285512 0.050293658 0.022909591 -0.0028458205 0.019145506 0.04925145 -0.013482187 0.15738274
-0.057490155 0.079267085 0.014512958 -0.005797116 -0.018535605 0.018027265 0.04443713 -0.075740665
0.008378281 0.08230647 -0.05953538 -0.007848144 0.004778702 -0.11589207 0.05994045 0.03393326
-0.0749645 -0.057259694 0.06551948 0.018921215 0.07058622 -0.04847296 0.03131822 -0.058421984
-0.20059298 -0.028854454 -0.14144728 0.04913626 -0.025450082 0.00897394 -0.02120253 0.02064658
0.050934695 -0.004991129 0.03628125 -0.027132113 -0.064723045 0.025396429 -0.07753167 -0.008278844
-0.059008334 -0.029091315 -0.1752015 0.06136755 -0.0012721977 -0.022208638 0.05489195 -0.10040259
-0.105202734 -0.07518254 -0.03564818 0.11605649 -0.0332612 0.06716786 0.030295031 -0.07638386
-0.0030767499 -0.030116534 0.11102759 -0.058234476 0.011759156 -0.045911096 0.0132954195 0.03858635
-0.038402356 0.046319816 0.03900006 0.01619549 -0.06807082 0.06214748 -0.014712576 0.06340231
0.004740781 0.022030216 -0.052077465 0.0029163314 0.059877872 0.026074529 0.0751521 -0.026110377
-0.027412185 0.055719726 -0.081326716 0.011273725 -0.0042321607 0.03970261 -0.0010436813 -0.043348618
0.058345556 -0.068740755 0.07469674 -0.004617541 0.0055374135 0.060479444 -0.023956018 -0.079707526
-0.017905975 -0.021773573 -0.06881049 -0.045167267 0.097850144 -0.11789002 0.00485464 -0.06350626
-0.045255173 0.009177317 -0.020162141 0.07100496 -0.15215474 -0.027532108 -0.059502188 0.044054102
-0.14766464 -0.08240371 -0.060226012 0.059815396 0.007023017 -0.08376422 -0.073456675 0.043252237
-0.02563377 0.13664347 -0.0091903955 -0.033678688 -0.017410917 0.08594649 -0.07797383 -0.061926324

network_body.observation_encoder.processors.0.normalizer.running_mean f4 [25]
00000000: 1783 6f3e b5a5 6f3e 0000 0000 d235 083f
00000010: cbea 623f 2f00 433e 47cb 523e 24a2 8037
00000020: 2e8c 1a3f 49ac 673f 4655 a23e 347c 473e
00000030: 8bd1 8b37 6fea f93e 0ede 5e3f 4a58 313e
00000040: ec4d fa3d b405 8938 fe5b 343f 85ad 6e3f
00000050: 9cfe 9c3e cf7e df3d 2505 d838 068a 153f
00000060: 7dc7 633f
0.2338985 0.23403056 0.0 0.53207123 0.88639516 0.19043039 0.20585357 1.5334292e-05
0.6037015 0.9049726 0.31705683 0.19480973 1.6667667e-05 0.4881167 0.8705758 0.17318836
0.12221894 6.533731e-05 0.7045287 0.9323352 0.30663002 0.10912859 0.00010300641 0.5841373
0.8897627
